src/checkpoints/sac_actor_200.pth (torch, 288452 bytes, 6 tensors)

net.0.weight f4 [256, 18]
000000 bf d0 66 3d 5a 72 a7 3d 1c b4 df bd 52 b5 ad 3e
       0.05635142 0.08176108 -0.10923025 0.339274
000010 48 40 c3 3e c3 87 4f be ba 85 11 be c3 76 da 3d
       0.3813498 -0.20266633 -0.14211169 0.10667183
000020 58 db 40 3e 9e 24 d8 3d dd b4 0e be 41 59 94 3c
       0.18833673 0.10553859 -0.13936181 0.018108966
000030 04 a7 3c bd 38 81 98 3c 20 3a 15 3c c2 a5 ca 3d
       -0.046057716 0.018616304 0.009108096 0.09894897
000040 e1 ca 28 3e 80 97 be ba 8a 7a 0e 3d d2 d7 2c 3d
       0.16483642 -0.0014541 0.03478483 0.04219801
000050 1c af af bd bf ef d0 3e ad 1f ce 3a 8f be 0f 3f
       -0.08578321 0.40807912 0.0015725993 0.56150144
000060 5c 8a 64 bd ac 60 64 3e b3 ef 98 be 44 ce cc bd
       -0.055796012 0.22302502 -0.29870376 -0.100002795
000070 6e d5 38 ba de 89 b3 3d 18 ec b6 bc 80 8f d2 bd
       -0.00070508465 0.087665305 -0.022329375 -0.10281277
000080 04 5f 7a bd 99 0c 28 3e ad 3d 52 be e0 f3 55 3c
       -0.06112577 0.16411056 -0.2053134 0.013058633
000090 0f cf f4 bd a9 08 07 be 5c 2e be bb ff ae e8 bd
       -0.11953556 -0.13186897 -0.0058038663 -0.11361503
0000a0 cf 3a 01 be ce 13 94 be 27 ca 81 3d da 64 03 3e
       -0.1262009 -0.2892136 0.063373856 0.1283144
0000b0 f3 18 6a 3e 2c be 48 3e 48 be 8b be e2 dd 48 be
       0.2286108 0.19603795 -0.2729361 -0.19615892
0000c0 20 52 a0 bc ea b7 b7 3d 18 0d a5 3c 55 30 52 3e
       -0.01957041 0.08970626 0.020147845 0.2052625
0000d0 24 fc 0e be 32 74 a5 3d f3 c0 c7 3b b9 01 d6 3d
       -0.13963372 0.08078803 0.0060959994 0.10449547
0000e0 9a c3 0e be 29 c9 06 3d a7 aa 9d be 9f 4b ab be
       -0.13941804 0.032906685 -0.3079426 -0.33456132
0000f0 de 07 25 3e f4 40 4c be 10 28 01 3e 2d 38 98 be
       0.16116282 -0.19946653 0.12612939 -0.2973036
000100 57 d6 21 be 23 ad 61 bd fd 64 65 3e 56 38 16 be
       -0.1580442 -0.055096757 0.22401805 -0.14669928
000110 fb 56 20 3e e8 2b 1f bd 9a b2 ab 3d e9 c2 42 3e
       0.1565818 -0.03886023 0.08383675 0.19019665
000120 58 1f ed bc 35 79 8b bd 8d 78 62 3d e5 e7 ab 3e
       -0.02894561 -0.06810228 0.055290747 0.3357536
000130 5a 5d 02 3e 3c e0 de 3d 40 47 41 be 62 89 e2 3d
       0.12730923 0.10882613 -0.18874836 0.1106136
000140 36 27 bb bc 7b d3 88 be 33 d7 a3 be 7a 88 0a 3e
       -0.022845846 -0.26723847 -0.3200012 0.13528624
000150 b6 f3 55 be 8f 0d 5b 3e fc 77 1f bd 4b 47 0d 3e
       -0.2089375 0.21391891 -0.038932785 0.13796727
000160 e6 82 e6 3d cf fe 48 3e 45 66 48 be ab 54 94 3d
       0.11255436 0.19628452 -0.19570263 0.07242712
000170 2e 47 91 be 23 cf bf 3e 19 fc b8 3e d7 80 72 3c
       -0.28374618 0.3746272 0.36129835 0.014801226
000180 ed be 67 be e1 6b 9c 3e 65 f7 01 3c 8b 2c 1b bc
       -0.22631426 0.30551055 0.007932519 -0.009471069
000190 b3 7b 4c bd 4e 7c 1a 3d 7b 14 6b 3e 76 bd a4 3d
       -0.049922656 0.037716202 0.22957031 0.08043949
0001a0 5a 82 b0 bd 0d 72 54 3e 2b 24 2d 3e 3b c0 44 3e
       -0.086186126 0.20746632 0.16908328 0.19213955
0001b0 43 07 68 3d d0 dd 08 3e d4 29 7a be 6e 4a 8a bd
       0.05664755 0.13365865 -0.24430019 -0.067524776
0001c0 c3 18 95 3e 47 40 ea 3d df b2 23 be 66 c4 f6 3d
       0.29120454 0.11438041 -0.15986203 0.12049179
0001d0 dc 14 93 3d 81 a0 2e 3c db 4b e0 be 7f e6 53 3e
       0.07181713 0.010658384 -0.43807873 0.20693396
0001e0 42 4a 97 3d c7 1e 48 3e f4 cb 7b 3d 83 3f e7 bd
       0.073872104 0.1954299 0.0614738 -0.11291411
0001f0 02 c6 fc 3d 51 e6 28 3e 34 90 66 3e 35 62 0c 3e
       0.123424545 0.16494109 0.22515947 0.13709338
000200 e3 34 49 be d0 85 c6 bb 51 de d2 bd 58 91 de be
       -0.19649081 -0.006058432 -0.1029631 -0.43470263
000210 f2 2e a6 be 23 b7 40 be df fc 2f be 74 7e 37 be
       -0.3245769 -0.18819861 -0.17186306 -0.17919332
000220 d1 bc 2d be d5 ca 87 bd a6 bc a9 3d c0 aa 4a be
       -0.16966559 -0.06630484 0.08287935 -0.19791698
000230 66 52 00 be 98 f7 de 3c b8 b8 d8 3c 01 9c 08 3e
       -0.12531433 0.027217671 0.026455268 0.13340761
000240 84 fc 4e 3d e2 57 de bb c9 fd 9f be 15 a0 e3 3c
       0.050533786 -0.006785379 -0.3124831 0.027786294
000250 06 17 2d 3e 36 af 88 3e 66 e1 6e 3e 8d fa 5c 3e
       0.16903314 0.26696175 0.2332817 0.21579953
000260 65 9f 60 3d a4 39 87 bc 52 31 99 be a6 71 a8 be
       0.05483951 -0.016506977 -0.2992044 -0.32899207
000270 30 93 71 3c b1 47 70 3e 97 c9 57 3e dd 7d 39 3e
       0.014744565 0.23464848 0.21072994 0.1811442
000280 76 da f1 bd 66 28 cd 3d ec d6 4c be ef e0 05 be
       -0.11809246 0.10017471 -0.20003861 -0.13074087
000290 77 8c 0f 3e b1 90 b3 3e e8 55 22 bd d1 3e ec 3e
       0.14018427 0.35071328 -0.039632708 0.46141675
0002a0 8a 8c 3d bd 7f c4 43 be 35 32 00 3e 8c 9e fe 3d
       -0.046276607 -0.19117926 0.12519152 0.12432584
0002b0 e8 54 cc bd db a2 89 3e fc 31 3c bd f6 45 6e be
       -0.09977132 0.2688206 -0.045946106 -0.23268875
0002c0 6f 2a 2f 3e bd c6 3b 3e 62 74 d0 3d c2 4c 40 be
       0.17106031 0.18337531 0.10178448 -0.18779281
0002d0 4a 2c 5b bd cd 09 b3 bd 96 95 5a bd c2 ca de 3d
       -0.053509034 -0.08742104 -0.053365313 0.10878517
0002e0 af 23 aa bc 79 35 2c 3d 2a 12 91 be 27 b6 ad 3d
       -0.020768968 0.042043183 -0.2833417 0.084820084
0002f0 84 d8 08 3e 17 00 d1 3d ec 71 48 be b9 d1 19 bd
       0.13363844 0.10205095 -0.19574708 -0.037553523
000300 b1 d0 65 be 9f d6 66 be 13 0a 61 3e 84 ba 57 3d
       -0.2244289 -0.22542809 0.219765 0.05266811
000310 5d ce 6e 3e e4 af 64 3d 86 c3 48 be a0 3f 96 bd
       0.23320909 0.055831805 -0.19605836 -0.07336354
000320 05 12 44 3e bf c4 6c 3e f4 12 23 be 77 ae ae 3e
       0.19147499 0.23121928 -0.15925199 0.3411748
000330 1e a2 1d 3e fc b7 bc 3e ed 83 29 be 60 55 04 bd
       0.15393874 0.3685912 -0.16554232 -0.032307982
000340 fc 1c 35 bd 90 ff 46 bd 0e 4a 04 be 53 4c 33 3e
       -0.044217095 -0.048583567 -0.12918875 0.17509584
000350 f5 b2 11 3e 58 27 4a bd 19 5a 69 3e 93 97 4d 3e
       0.14228423 -0.049353927 0.22788276 0.20077352
000360 e1 6e 7a be c6 cd 0c be 02 4c 18 3e 27 6d 0d 3e
       -0.2445636 -0.13750371 0.14872745 0.1381117
000370 66 da 92 be 0d df 94 be 31 39 56 bd f0 03 52 be
       -0.2868225 -0.29076424 -0.052300636 -0.20509315
000380 98 37 8f 3d 17 a1 14 3c fc 9f 22 3e 7e 22 a7 bd
       0.069930255 0.00907161 0.15881342 -0.08160876
000390 7a a2 fd 3d 70 03 be bd df 0d 06 3e 54 c7 56 bd
       0.123845056 -0.092779994 0.13091229 -0.052436188
0003a0 36 a2 1f be ea f3 29 be b7 16 c8 3d 98 e4 d2 3d
       -0.15589222 -0.16596952 0.097699575 0.10297507
0003b0 ab e5 2f be 2f b5 9d 3e ed 11 22 be 6c 2d 7f 3e
       -0.17177455 0.30802295 -0.1582715 0.24919671
0003c0 bf 0e 86 3d 04 3d 3e 3e f8 d6 e0 bd 09 66 03 3e
       0.06545781 0.18577963 -0.10978502 0.12831892
0003d0 7a bb 97 be 6d f1 a5 3c 1a b0 8d 3d f1 8c 6f 3e
       -0.2963522 0.020256722 0.06918354 0.23393609
0003e0 79 c3 3a 3e ac 7d 61 3d 9f d3 11 be 2d 7f 27 be
       0.1823863 0.05505149 -0.14240883 -0.16357107
0003f0 e4 8a 90 be a0 40 25 3e bc 81 a2 be da c8 55 be
       -0.28230965 0.16137934 -0.31739604 -0.208774

net.0.bias f4 [256]
000000 16 a5 c0 bd d8 1f 69 3e f8 36 d7 3d f2 2b 14 3e
       -0.09406488 0.22766054 0.10508531 0.14469889
000010 72 c6 42 3e 08 fe 96 3e de 46 84 be 67 2d ad 3d
       0.19021013 0.29490685 -0.25835317 0.084559254
000020 61 82 63 bc 13 eb 12 3e 3b 2f 7a 3e 5a 71 3f 3e
       -0.013886065 0.14347486 0.2443208 0.18695584
000030 7f cc 79 bd 58 16 dd 3c 32 90 7f bc 9b c6 40 3c
       -0.06098604 0.026988193 -0.015598344 0.011766101
000040 9a 00 b3 bd 27 93 7b be 55 6c 04 be a8 4e 60 be
       -0.08740349 -0.24567853 -0.1293195 -0.21905005
000050 5d d7 ee bd d5 bf 42 3d f9 8f 70 3e 3c 55 1c bd
       -0.11662171 0.047546227 0.23492421 -0.038167223
000060 8e 6d 86 bd a9 49 c9 3d 43 07 df bd ee 69 a7 bd
       -0.06563865 0.09828503 -0.10890057 -0.08174501
000070 1c 98 34 bd cc b1 9b 3e 63 c7 a5 3c ae d0 2c 3e
       -0.044090375 0.30409086 0.020236677 0.1687648
000080 c4 ac 8c 3d bf 68 57 3d 83 8b 8f be 54 74 3b bd
       0.0686889 0.052590128 -0.28036126 -0.045765236
000090 61 bf 51 3d 60 ee 01 be f9 4a 4b be 0a bf 14 3e
       0.051207904 -0.12688589 -0.19852819 0.14526
0000a0 dc 0c 03 3d 1c 0d 0b be 6b c2 78 3e af 23 bc bd
       0.031994686 -0.1357922 0.24292915 -0.091864936
0000b0 c1 7b 20 bd 19 5b 9d bd 20 ff 4a bc 12 11 5c 3d
       -0.03918052 -0.07683391 -0.012389928 0.053727217
0000c0 59 2c 10 3e 59 52 39 3e 57 c3 5f bd 77 ca 71 3c
       0.14079417 0.1809782 -0.05462965 0.014757744
0000d0 1a 8a 2f 3e 57 16 65 3d 80 b9 24 3d 03 96 a6 3d
       0.17142525 0.055929508 0.04021597 0.08134081
0000e0 12 8b e2 3d 88 93 92 3e 5c 91 81 3d be 7c 40 be
       0.11061682 0.28628182 0.06326553 -0.18797585
0000f0 b8 9c 6c be 12 86 9e 3d 0f ca ea 3d 1f f1 25 be
       -0.23106658 0.07740416 0.11464321 -0.16205262
000100 b9 91 63 be 0f de fd bc da 36 5d be b9 8f b6 3d
       -0.22223558 -0.030989675 -0.21602955 0.08914132
000110 fd 00 b2 3c 62 c1 79 3d 76 80 96 3e 8a d3 2e 3e
       0.021728987 0.06097544 0.29394883 0.17072883
000120 a8 75 1b 3e f6 5e 24 be 06 20 29 bd 3f 12 5a 3e
       0.15181601 -0.1605185 -0.041290306 0.21296023
000130 81 35 b0 bc 82 a5 de bb 63 05 e7 3c 77 e0 98 3c
       -0.021509888 -0.0067946324 0.02820081 0.01866172
000140 6b 60 d5 3e ea 6b 81 bd b6 8c 0c 3e d9 42 62 3e
       0.41675124 -0.06319411 0.13725552 0.22095813
000150 91 f0 88 bd 53 10 39 3c 1f d1 18 be 8c 02 70 3c
       -0.066865094 0.011295396 -0.14923523 0.014649045
000160 e6 72 17 3d 5d 85 b0 bd 0c 2d d6 3d 44 15 97 3e
       0.03697481 -0.08619187 0.10457811 0.29508412
000170 3e ff 33 bc 67 bd 48 be 44 6a 3c be 0d 49 b8 3e
       -0.010986147 -0.19603501 -0.18399912 0.35993233
000180 d8 57 e7 3d 22 59 8f bd 1b 54 7c 3d 68 bd 13 3c
       0.11296052 -0.069994226 0.061603647 0.009017326
000190 33 9d 30 3e df 74 0c be b1 49 c7 bd 02 fc 58 be
       0.17247467 -0.13716458 -0.097308524 -0.21189883
0001a0 56 5c 0c be a0 5b eb bd c5 8e cb 3c f9 45 1c be
       -0.13707098 -0.114920855 0.024848351 -0.15261067
0001b0 b3 2d e4 3c a8 a4 ed bc 30 0f 52 3e cd c6 10 3d
       0.027853822 -0.029009178 0.20513606 0.03534584
0001c0 f7 23 98 be 70 df 83 be ae 4b 81 bd 39 d2 3c 3d
       -0.2971494 -0.25756407 -0.06313263 0.04609892
0001d0 e1 4a 31 3e e9 fa 5b 3e 72 eb 49 be a5 66 39 3e
       0.1731372 0.21482433 -0.19718722 0.18105562
0001e0 6c b1 13 3e 38 85 91 bd 0d 41 8f 3c b7 6a 28 3d
       0.1442315 -0.071054876 0.017487073 0.041117396
0001f0 3b 62 1d be 65 b0 e9 3c ec 51 fb bd c0 8e 80 bd
       -0.15369503 0.028526494 -0.12271485 -0.062772274
000200 ab bf 4b 3e 22 e7 ef 3d 01 50 96 be 86 bb ef 3d
       0.19897334 0.11714007 -0.29357913 0.11705689
000210 52 a3 23 bc 90 ab b5 3d db a7 28 be 36 9f 77 be
       -0.009987669 0.088706136 -0.16470282 -0.24181828
000220 56 eb 4d 3e 0b 1b 82 3e 9c 72 38 3c 7c 7c 9f be
       0.20109305 0.25411257 0.011257794 -0.31149662
000230 6f 50 80 3e dd 88 11 3d 86 a6 da bc a9 68 e8 3d
       0.25061366 0.035530914 -0.026690733 0.11348087
000240 a8 fb ab bd ed f0 13 3e 85 7f 24 3e d4 ed a6 3e
       -0.08397609 0.14447375 0.1606427 0.32603323
000250 9c dc 14 3e 64 c9 41 be 77 2e 3d be 52 69 50 be
       0.14537281 -0.1892448 -0.18474756 -0.20352677
000260 0a 9e 27 3b 91 51 36 bd 94 3e 0c 3e cf 3f 2a 3e
       0.0025576376 -0.04451138 0.13695747 0.16625904
000270 3d 10 84 be 94 18 10 3c d3 65 41 3d f3 37 f8 3d
       -0.2579364 0.008794922 0.047216248 0.121200465
000280 45 de 4d 3d 2d 31 41 bd 50 72 71 bb 3e 24 e0 bd
       0.0502608 -0.04716604 -0.0036841817 -0.10944413
000290 ee b5 97 bd 14 92 2e 3e 97 af 77 3e 72 3b cd 3c
       -0.07407747 0.17047912 0.24188076 0.02505276
0002a0 d8 f2 99 bd 8d 77 9b 3d 61 52 7d bc 6c 59 c6 3d
       -0.07517022 0.07591162 -0.015461535 0.096850246
0002b0 bb 90 b4 3d 58 76 92 3d ad f2 a4 3e 98 8e 95 3c
       0.08816668 0.071514785 0.32216397 0.01825647
0002c0 62 1c a1 3d 5d bb 82 bd 56 40 2d 3d d3 8e 3a bd
       0.07866742 -0.06383393 0.042297684 -0.045546364
0002d0 f9 9e 5a be 89 5b c6 bd a5 a3 50 bd 45 a3 eb bd
       -0.21349706 -0.09685428 -0.050937314 -0.115057506
0002e0 04 ff a7 bd b4 83 10 be d8 8a 84 3d e2 7a 04 3b
       -0.08202937 -0.14112741 0.06471795 0.0020214845
0002f0 08 7e 3c 3e 3f 4a 34 be 29 a1 21 3e 62 27 89 3e
       0.18407452 -0.17606448 0.15784134 0.2678786
000300 7d e8 fb 3c 14 85 9f bd 0d 7d 0d 3e 1f 9f 9a bd
       0.030750507 -0.077890545 0.13817234 -0.07549881
000310 54 a5 63 ba 07 cd 11 3e da eb 8d bd 89 8a 2d bd
       -0.00086839986 0.14238368 -0.06929751 -0.042368446
000320 50 ac 68 bd c7 13 b2 bd e3 37 0f 3d 11 49 32 3d
       -0.056804955 -0.086951785 0.034965407 0.043526713
000330 51 c5 11 be c2 6b 7b bd 74 3f 1b ba 9c 85 a1 bd
       -0.14235426 -0.061382063 -0.0005922236 -0.07886812
000340 ca 46 92 3e 4c 2f 82 3d be 85 e8 39 a4 2d 07 bd
       0.28569633 0.063566774 0.00044350134 -0.03300251
000350 35 a9 42 be f7 ce 22 be d5 b7 9f 3e 3f cb 00 be
       -0.1900986 -0.15899263 0.3119494 -0.12577532
000360 c8 d2 20 3e 45 79 4f be 1a c4 0d 3e 3f 4c 84 3c
       0.15705407 -0.20261104 0.13844338 0.016149638
000370 5b 67 a5 3e 5f 26 0b be 0d 30 d0 bd 61 1f 6d 3d
       0.32305416 -0.13588856 -0.10165415 0.057891253
000380 9d b4 44 be da b8 9c be 20 59 28 bc 11 1e f9 3d
       -0.19209523 -0.3060978 -0.010275155 0.12163938
000390 59 21 94 be 08 14 dd bd 9c 50 41 bc 9e fe fc bc
       -0.28931692 -0.10794836 -0.011799004 -0.03088313
0003a0 2e 26 d0 bd a9 86 99 3e d3 1b 90 3d c3 41 6f 3e
       -0.10163532 0.2998555 0.07036557 0.2336493
0003b0 f9 a4 12 3e 79 77 da 3c aa a7 ca bc 9b c2 85 3d
       0.14320745 0.026668297 -0.024738152 0.06531259
0003c0 1a ff 5b 3b a9 b8 64 bd 54 9a e4 3d bc 37 d5 bd
       0.00335688 -0.05584017 0.11162248 -0.10411021
0003d0 77 a0 31 3e 28 c7 1d 3d f6 d4 bb bb f3 7d ba 3d
       0.17346369 0.03852001 -0.005732174 0.09106054
0003e0 67 81 9a 3e e6 b7 85 be 16 c1 37 3e ab 67 8a 3c
       0.3017685 -0.26116866 0.1794475 0.016895136
0003f0 18 6b ef 3b 4b 64 9f bc 41 0f 53 3e 99 40 31 3d
       0.0073064677 -0.019457003 0.20611288 0.043274496

net.2.weight f4 [256, 256]
000000 bd 13 12 3d ba 67 2f 3d 8e c6 b6 bc ca eb 5c bc
       0.035663355 0.04282353 -0.022311475 -0.013483951
000010 d1 8b 35 3d fb c6 43 3d 0c eb ce 3b 0d 40 1f bd
       0.044322792 0.047797184 0.006314641 -0.038879443
000020 62 ad 33 bd 70 f9 a3 bc bc 10 12 bd 02 6f ca bb
       -0.043866523 -0.020016402 -0.03566049 -0.006177784
000030 34 6f 9f bc f3 e0 2f bb d2 13 33 bd 5b ab 2e 3d
       -0.019462205 -0.002683696 -0.043720074 0.042643886
000040 3c b1 6c bd 14 63 2d bd 69 0e 03 bd e5 e2 3e bd
       -0.05778621 -0.042330816 -0.031996164 -0.046603102
000050 f9 b4 b2 3c 1d 89 dd bb ef 04 91 bd 39 e9 f1 3c
       0.02181481 -0.00676073 -0.07081019 0.029530155
000060 c8 ea 59 bd fd 96 36 3d b3 e6 4b bd 96 49 20 3c
       -0.05320242 0.044577587 -0.04978056 0.009783169
000070 33 e2 aa 3c a4 ab c3 bc 7a b4 84 bc 4a 2f 93 3c
       0.020859813 -0.023885556 -0.01619934 0.017966885
000080 94 bf 8e bc 7a 4f fc 3c 0c bd 00 3d 23 7a a4 3c
       -0.017425336 0.030799616 0.03143029 0.02007777
000090 65 b8 ab bc 90 64 31 bc d0 2e a2 bc 9c fe 6d 3b
       -0.02096195 -0.010827199 -0.019797713 0.003631509
0000a0 d4 d7 12 bd 5b 0e 3b 3d 32 53 7a bc c8 a6 e2 bc
       -0.03585036 0.045667987 -0.015278624 -0.027667418
0000b0 58 18 51 bc ae ac 05 3d 09 86 5d bd 42 26 1c 3d
       -0.012762152 0.032635383 -0.054082904 0.038122423
0000c0 1a c3 b4 3b be 80 c3 3b ba 4a 22 3d ba cb 00 3d
       0.005516422 0.005966275 0.039622046 0.03144429
0000d0 0d d8 51 3d 63 96 c4 3a 20 74 68 bd 49 0f d8 3c
       0.051231433 0.0014998432 -0.05675137 0.026374476
0000e0 09 13 c4 3c ac 45 5b bd cb ba 26 3d 47 68 c0 3c
       0.023934858 -0.05353324 0.040705483 0.023487223
0000f0 a7 14 06 3d e9 77 35 bd 52 4d 9b bc 55 d6 de 3b
       0.03273454 -0.04430381 -0.018957768 0.0068004527
000100 41 fb 01 3d 68 af 19 bd a8 1c 87 bc 76 31 5e bd
       0.031733755 -0.037520796 -0.016493157 -0.05424639
000110 84 95 4a bc d1 f0 79 bc d3 c4 7b 3c c4 7d 6f bc
       -0.012364749 -0.015255169 0.015366751 -0.014617387
000120 16 16 7b bb df e9 aa bc 3b 08 bb 3a 6c ff 36 bd
       -0.0038312725 -0.020863472 0.0014269421 -0.044677183
000130 52 38 a2 3c 5e d3 13 3d 56 4d eb bc 40 98 ce 3c
       0.019802246 0.036090247 -0.0287234 0.025219083
000140 99 3d 8f bc ef 8c 68 bd de 2a 41 3d 00 75 4f bc
       -0.017485427 -0.05677503 0.047160022 -0.012662172
000150 dc a2 ce bc 86 f5 0f 3d 97 62 18 bd 31 05 06 3c
       -0.025224142 0.03514626 -0.037203398 0.008179949
000160 eb a4 47 3c 1d df 1e 3d b7 d0 7a 3d 26 8c 30 3d
       0.012185316 0.038786996 0.061234202 0.043102406
000170 12 23 74 bd 8a dd 6c 3b c7 cc 46 3d 48 61 55 bd
       -0.05960376 0.003614279 0.048535135 -0.052094728
000180 9f 25 7f bd e9 2f 22 bd 93 79 85 bd 44 e3 4e bd
       -0.062291738 -0.039596472 -0.06517329 -0.050509706
000190 7d da 49 3d 57 af d9 3b ce c3 0f bd 65 9b 00 bd
       0.049280632 0.0066432166 -0.035098843 -0.031398196
0001a0 e1 fb d4 3c 67 b4 54 3c 49 59 75 3c 5d 96 ea 3c
       0.025999011 0.012982464 0.0149749005 0.028636152
0001b0 66 70 63 bd fc 15 0d bd 31 fa c3 3c 02 48 5a bd
       -0.055527113 -0.034444794 0.023923011 -0.05329133
0001c0 b3 fe 44 bd aa 3c c8 3c 08 4b f6 3c 73 c8 25 bc
       -0.048094463 0.02444299 0.030065075 -0.010118592
0001d0 3a 61 07 3d b0 cf a3 bc 9d d2 0c bc a5 15 89 bd
       0.033051707 -0.019996494 -0.008595136 -0.066935815
0001e0 b0 4d 2f 3d 1a ae 0b bd 2b 6a 67 bd 5f 68 0d 3d
       0.042798698 -0.034101583 -0.056497734 0.034523364
0001f0 b4 bc 97 bc 08 be 00 3c 71 ca 06 3b 24 10 09 3c
       -0.018522598 0.007857807 0.0020567442 0.008365665
000200 40 35 24 bd 67 e9 3d 3d f0 b6 f2 bc 92 05 f9 3c
       -0.040089846 0.046365168 -0.029628247 0.030398164
000210 a2 2b 2b bd c8 0f 32 bd 04 81 fc bc 04 77 d9 3c
       -0.04178966 -0.04347208 -0.030823238 0.026546009
000220 6e c2 f4 bc 4d 85 cd bc b5 ad 89 bd a8 44 99 bc
       -0.029877868 -0.025087977 -0.06722585 -0.018709496
000230 27 2d 43 bc 41 97 41 3c c1 6d 7c bc 07 a9 60 bc
       -0.011912621 0.011815847 -0.015407027 -0.013712174
000240 ee 1e be 3a 2b 0c 26 bd 9b d2 d9 bc 06 b3 19 bd
       0.0014505067 -0.040538948 -0.026589682 -0.037524246
000250 8c f4 89 bd 3c c7 18 3d 97 53 fd bc 2c 3b 3d 3d
       -0.06736097 0.03729938 -0.030923648 0.04619901
000260 b0 36 78 bd 98 5c 3e bd 4b e1 0c bd 31 98 04 3d
       -0.06059903 -0.046475023 -0.034394544 0.032371704
000270 c5 80 76 bd d4 06 71 bd 72 ed 47 3c c4 3a 72 bd
       -0.060181398 -0.058844402 0.0122026075 -0.059138075
000280 ae db a4 3c 33 1b 57 3d dc 45 15 3d ff bf ef 3b
       0.020124283 0.052516174 0.036443576 0.007316589
000290 1b e2 8f 3c 5a 1e 3f 3d a1 bf c5 3c 26 df 22 3c
       0.01756387 0.046659805 0.024139227 0.009940898
0002a0 4b 08 d0 bc 90 cd 34 bd 83 05 fc 3c d3 d0 75 bd
       -0.02539458 -0.044141352 0.030764347 -0.060013603
0002b0 28 e4 37 bc 7d f6 f4 bc 4c 69 41 3c 64 c7 77 3d
       -0.01122383 -0.029902691 0.01180489 0.060492888
0002c0 6d 2c 2c bb d7 c3 c4 3c 71 ba 27 bd aa ca 45 bd
       -0.0026271597 0.024019165 -0.04094929 -0.04828898
0002d0 3f 48 a3 ba ae 21 86 3a ba d7 a7 bd 18 1b 14 bd
       -0.0012457444 0.0010233426 -0.081954435 -0.03615865
0002e0 34 c8 5b 3a 25 00 53 3d 1c 92 ee bc 31 a2 84 bb
       0.00083840196 0.05151381 -0.029122405 -0.004047655
0002f0 19 74 ef 3b ad d2 06 bc b3 ef 32 3c 00 e0 57 bd
       0.007307541 -0.00822894 0.010921407 -0.052703857
000300 30 54 61 bd dc 32 d4 bb 36 7c 12 3d c7 e4 59 bd
       -0.055011928 -0.0064757895 0.035762988 -0.053196695
000310 96 9d f9 3c c2 f2 0e bd 92 18 86 3c a4 00 98 bc
       0.03047065 -0.03489948 0.016369138 -0.018554993
000320 68 38 2c bd be 39 a8 bc b6 69 85 bd 3f a0 41 3d
       -0.04204598 -0.020535346 -0.065143034 0.047271963
000330 f1 f3 31 3d 8e fc c4 bb 40 d1 8c 3c 97 3c 47 bd
       0.04344553 -0.006011552 0.017189622 -0.048641767
000340 f7 fa 67 3d 97 a8 07 bc 60 0f 00 3b 97 42 f3 3c
       0.056635823 -0.008279941 0.0019540414 0.029694838
000350 b2 b5 6d bd 53 b2 5e bd 15 f1 44 bd fa 81 0a bd
       -0.058034606 -0.054369282 -0.048081476 -0.03381536
000360 26 fa bc bc 3d 69 23 bd 13 ff 1e bd 7d f8 03 bd
       -0.023068499 -0.039895285 -0.038817476 -0.0322194
000370 d4 b5 42 3d f8 0d 43 3c 85 4c 9e 3c 30 2e fd 3b
       0.047536686 0.011905186 0.019323597 0.0077264532
000380 37 70 43 bd 67 2c a6 bc d5 e0 00 3d d4 29 2d 3c
       -0.04771444 -0.020284845 0.031464417 0.010569055
000390 68 5f 87 3c b3 5e 59 3d b9 8d 2f bd 68 2f 86 bd
       0.016524985 0.053068828 -0.042859767 -0.06552011
0003a0 84 20 b0 3c 57 01 ce bc 18 e4 dc 3c 4f 69 2e bc
       0.02149988 -0.025147123 0.026964232 -0.010645225
0003b0 3c c4 79 bd 13 83 2e 3d a5 0d 6c 3c 3c 1c 13 bd
       -0.06097816 0.04260547 0.01440755 -0.0359156
0003c0 43 94 69 bd fd 20 03 bc 8a 3b 53 bd 3c c9 8d 3c
       -0.05702616 -0.0080034705 -0.051570453 0.01730787
0003d0 67 45 0c bd 1f a7 b5 bc ac fb 0c 3d fb 50 46 bd
       -0.034245875 -0.022174416 0.0344197 -0.048417073
0003e0 c0 58 75 bd 3c 35 ab bc b2 76 80 3c 94 20 55 3d
       -0.05989909 -0.020899408 0.015681598 0.052033022
0003f0 99 09 52 bd 67 0d 1e 3d 0d 41 58 bd 3a 1f 5a bd
       -0.051278684 0.038587 -0.052796412 -0.053252436

net.2.bias f4 [256]
000000 e6 f1 07 3d 87 95 cd 3c e8 c5 87 3d d3 b8 d9 3c
       0.033189677 0.025095714 0.066295445 0.026577389
000010 e1 37 ff bc 7f 4a 31 3e 80 ba ed bb 90 8b 0d 3d
       -0.031154575 0.17313574 -0.0072548985 0.034556925
000020 3b fc c6 3d e1 02 65 bd 0e 9a 73 3d 40 70 6d 3d
       0.09716078 -0.05591095 0.05947309 0.057968378
000030 d7 8f 21 bc 3c a4 9b bc 77 44 77 3d dd 39 b9 bd
       -0.009860954 -0.018999211 0.060368028 -0.0904424
000040 41 8a 1e bd 34 8d d5 bc dd 5c 03 bd 34 7d 5f 3d
       -0.038706068 -0.026068307 -0.032070983 0.054562762
000050 6e 32 3e 3d 68 62 eb 3d db 87 32 bd ed 8c 71 3e
       0.046434812 0.11493379 -0.043586593 0.23588915
000060 1e 75 86 bd 76 eb 02 3d 0b e8 71 3d d8 f2 bc 3d
       -0.06565307 0.031962834 0.059059184 0.09226006
000070 d8 db cd 3c c5 61 a3 bc 04 6b 3a 3c 93 f0 7a 3d
       0.025129244 -0.019944081 0.011378054 0.061264586
000080 89 14 f1 3c bf b7 33 bd ac d0 ff 3d 7e 71 4c bc
       0.029428737 -0.043876406 0.12490973 -0.0124782305
000090 df d1 10 3b 3b 14 82 3d 09 96 43 3c b5 07 3f 3a
       0.002209775 0.06351515 0.011937627 0.000728722
0000a0 9b d1 b0 bd 46 b1 e2 bc 08 4c 4b bd 50 ee 7d bd
       -0.08633729 -0.027672421 -0.049633056 -0.06199485
0000b0 08 88 61 3d 06 01 43 3d 86 e8 99 bd b3 a2 20 bc
       0.05506137 0.047608398 -0.075150535 -0.0098044155
0000c0 37 72 f9 3c a7 d7 6b 3d 43 17 7b 3d 4e 4b 10 bd
       0.03044997 0.05757871 0.06130148 -0.035228066
0000d0 60 5a 3c 3d 85 12 4c bd 30 63 b7 bd 76 54 a4 3c
       0.045984626 -0.04982235 -0.089544654 0.020059805
0000e0 91 13 0c bd 62 9e 82 3d 68 51 8c bd 79 5b 8e bd
       -0.034198347 0.063778654 -0.068514645 -0.06951041
0000f0 91 2b 4e bc 5a 94 03 3d 99 1c 9c 3d 68 b6 2a 3d
       -0.012583629 0.0321239 0.07622642 0.041677862
000100 b5 ec 40 3d 67 97 9d bc ea d3 dc bc 11 0b 4c bd
       0.04710074 -0.019237233 -0.026956517 -0.04981524
000110 db 58 c5 3c b6 b3 30 3d 20 cf 34 3b 34 e6 00 be
       0.024090221 0.043140136 0.0027589276 -0.12587816
000120 e9 a3 a3 3c 37 d6 39 3d a5 0d df 3c 59 cc 29 3c
       0.01997562 0.045370307 0.027228186 0.010363662
000130 ce 8b 09 bc 84 90 69 3d e1 50 b4 3d 20 89 52 3c
       -0.008395148 0.057022586 0.08804489 0.012850076
000140 81 1c 10 3d 7f 5a 74 bd d9 48 bf bd a6 e1 90 3d
       0.035183433 -0.059656616 -0.093400665 0.07074289
000150 25 11 0d 3d a1 6d 85 3d b7 e3 8c 3d de 7c 0b bd
       0.03444018 0.06515051 0.06879371 -0.03405463
000160 a5 b7 99 3d 1b 0a 7d bd 93 5c af bc 81 93 05 3e
       0.075057305 -0.061777215 -0.021406448 0.1304455
000170 14 7d 84 3c a7 e4 bd 3d 0f fe 82 3c 42 9f 22 3e
       0.016172923 0.092721276 0.015990285 0.15881065
000180 cd 75 f3 bc bb 12 c8 bd df d4 6e bd 40 fd ad bc
       -0.029719258 -0.097691976 -0.05830848 -0.021238923
000190 42 a2 cc bc d3 01 70 3d 16 c5 8d bd bc 2a 80 3d
       -0.024979714 0.05859549 -0.06922357 0.06258151
0001a0 8b d3 bf 3c ad de b3 3d d4 9d 80 3d 72 55 13 3c
       0.023416301 0.087827064 0.06280103 0.00899254
0001b0 1e 88 50 3d c8 db f0 3c 99 fb 36 3d a9 38 04 bd
       0.05091106 0.029401675 0.044673536 -0.032280598
0001c0 f1 b3 7e bb eb c4 2b bd ee 56 2d bd 8f fa 44 bd
       -0.0038864578 -0.041935842 -0.04231923 -0.048090514
0001d0 f7 e6 84 bd ec 54 0c 3d 0b 94 10 3c 06 8b 56 3d
       -0.064893655 0.034260675 0.008824359 0.052378677
0001e0 31 9a e2 bc db cc a0 3d 97 83 2a 3e 3d c0 d8 bb
       -0.027661415 0.07851573 0.1665176 -0.0066147135
0001f0 79 c6 c5 3c 35 6a 58 3d 8d d5 89 3d 0f 21 f9 3c
       0.02414249 0.052835662 0.06730185 0.030411271
000200 aa 94 95 3d e8 a3 4b 3e f1 c1 92 bd a5 3f 8a 3c
       0.07303746 0.19886744 -0.07165898 0.016876051
000210 42 dd 73 bc 1a e8 49 bc c3 06 49 bd 73 89 75 bc
       -0.014884295 -0.012323404 -0.049078714 -0.014986384
000220 d9 07 16 3d f4 1b 0b be a5 e4 82 bc 26 16 29 bd
       0.036628578 -0.13584882 -0.015978167 -0.041280888
000230 44 27 3b 3c 25 f0 9e 3c 1d 0c 14 3d df b5 90 3c
       0.011422936 0.01940162 0.036144365 0.017664848
000240 3a 63 c5 bc ad 2d 35 3c ca 90 47 3d 52 26 6b 3b
       -0.024095166 0.011058253 0.048722066 0.0035880995
000250 0c 2c 22 3d 4f 78 33 3c a0 c6 be 3b 19 64 5e bd
       0.039592788 0.010953977 0.005822018 -0.05429468
000260 87 e2 d9 3c c1 cd c4 bc 6b e4 8d bd fa b6 33 3d
       0.026597274 -0.024023892 -0.06928333 0.043875672
000270 0c 6a d3 3c 01 22 8d 3d 87 ad 1f 3d 15 1b 19 bd
       0.025807403 0.06891251 0.038983848 -0.037379343
000280 4d a9 3c 3d c6 c7 17 3c d3 82 13 3d 10 37 b5 bb
       0.046059895 0.009263938 0.036013436 -0.0055302456
000290 9a e5 1b 3c 39 f4 ab ba a9 b9 2e bd 77 4f 02 3e
       0.0095151905 -0.0013119049 -0.042657528 0.12725626
0002a0 2e a2 13 3e ec 69 53 3d 88 2a 04 bd b7 05 f6 bc
       0.14417335 0.051614687 -0.032267123 -0.030032022
0002b0 0a 7b 49 3c b3 2e 3a 3d e5 93 07 bb 9c 18 16 3d
       0.012297401 0.045454692 -0.0020687517 0.036644563
0002c0 17 f5 b8 3b 9a e9 0d 3d d6 6e bf bd 04 57 5a 3d
       0.0056444514 0.034646608 -0.09347312 0.05330564
0002d0 84 cf 4f 3c 46 d9 46 bd 4f 4d d0 3c 60 bc 42 bd
       0.012683753 -0.04854705 0.025427489 -0.04754293
0002e0 ec 8b 93 bd 38 36 58 bd 61 2c 04 3c b8 53 8c bc
       -0.07204422 -0.052786082 0.008067221 -0.017129764
0002f0 d3 cc f6 bc 16 09 1a bd 9e 55 27 bd 10 d9 f3 bc
       -0.030126965 -0.03760632 -0.040853135 -0.02976659
000300 ea 45 8a bd 83 38 db 3d ea 0b 1f bd 60 12 77 bc
       -0.06751616 0.10704138 -0.03882972 -0.015080065
000310 f4 4a 9c bd 9b cf dc 3c 41 a0 98 bc 16 70 82 3b
       -0.07631484 0.026954463 -0.018631103 0.003980647
000320 3f 16 06 3d 91 38 d3 bc cb 6c cb ba 52 64 e0 ba
       0.03273606 -0.025783809 -0.0015520094 -0.0017119742
000330 5c 0c 32 3d 4a fe 0b bc b5 69 d9 3c 91 6a d3 3c
       0.043468818 -0.008544514 0.026539663 0.02580765
000340 b7 77 23 3d 25 34 ac 3c 7d 4f b5 3d 4b 3c d1 3d
       0.03990909 0.021020958 0.08853052 0.10216578
000350 7b f2 ce 3b 38 48 81 3c 50 b8 13 3d 26 99 b0 3b
       0.006315527 0.015781507 0.036064446 0.0053893505
000360 50 26 c1 bc 15 00 4d bd db 3f 08 bd 5c 6c 0f bb
       -0.02357784 -0.050048906 -0.033264022 -0.0021884656
000370 89 7d e6 bc 26 fc ab 3c 62 50 1c bd ad 40 c6 3c
       -0.028136032 0.020994257 -0.038162597 0.024200762
000380 97 b4 e3 3c 76 88 09 3e 38 8a 96 bd b5 47 66 3d
       0.027796073 0.13430962 -0.07350582 0.05622073
000390 d7 fa 37 3d ec 7a b7 bd fa e5 0f 3b 47 34 07 3d
       0.044916954 -0.08958992 0.0021957145 0.03300884
0003a0 29 72 23 bd db cf 81 bd e4 6c cc bd 0b ee e9 3c
       -0.039903793 -0.063384734 -0.09981707 0.02855589
0003b0 97 12 a9 3c f3 0f f6 3a ca 5f bf 39 9e 63 ce bd
       0.020638747 0.0018773064 0.00036501727 -0.10077594
0003c0 00 b7 c5 3b 87 fa 92 3d 88 28 54 bd 8f c4 68 bd
       0.006033778 0.071766905 -0.051796466 -0.056828078
0003d0 a8 bf 89 bd 41 6c 80 3b 23 fd a8 3d ba 84 0d 3d
       -0.06726009 0.003919155 0.08251407 0.034550406
0003e0 6d fd 0d bd f9 76 25 3d e1 ce 56 bc 16 b9 91 bb
       -0.034665514 0.040396664 -0.013110847 -0.004447113
0003f0 c2 01 e8 3b b4 97 3b 3d 7e 35 80 bd 06 47 57 bd
       0.0070802877 0.045798972 -0.06260203 -0.052557968

net.4.weight f4 [3, 256]
000000 93 20 fe bc b5 47 35 3e ee 38 12 3d a5 71 cf bc
       -0.031021392 0.17703135 0.035698824 -0.025322745
000010 b4 65 c6 bc bc fc a4 bb 59 e7 e2 3c c7 a0 d8 bd
       -0.024218418 -0.005035011 0.027698206 -0.10577541
000020 68 ea 69 3e 78 30 8e 3e bc 44 2b 3d f0 ea a2 3a
       0.22843325 0.27771354 0.041813597 0.0012429636
000030 d4 26 d8 3b da af a1 3d ad 87 24 bd e7 88 ba bd
       0.0065964255 0.07894869 -0.040168453 -0.09108143
000040 03 75 5a 3e b2 ed 6c 3c 57 c0 92 3d c5 ee d7 3c
       0.21333699 0.014460968 0.07165592 0.026358971
000050 b4 2f 6a bd 56 9c 55 bd 0b f6 40 3c 1d 43 44 3e
       -0.0571744 -0.052151047 0.011777411 0.19166227
000060 18 d4 9f bd ee 27 45 3d f0 84 85 bd 2b 24 17 be
       -0.078041255 0.048133783 -0.065194964 -0.1475989
000070 38 46 b7 bd 3f 4b b5 3c 70 5e 58 3d a0 21 25 be
       -0.0894894 0.022130607 0.052824438 -0.16126108
000080 2d 6d ae 3d 84 d3 a5 bd 7b 88 f3 bd d9 17 56 3e
       0.085169174 -0.08096984 -0.11891266 0.20907535
000090 ce 87 6e bd 97 f7 13 be e3 01 99 bd 5d ee 22 bf
       -0.058234982 -0.14449917 -0.07471063 -0.63644964
0000a0 e6 dc 0b be 85 35 6e 3e 8d ff 4b 3d ec 87 11 3d
       -0.13658485 0.23262604 0.04980426 0.035530016
0000b0 b4 52 99 3d de 95 98 38 92 0b 2c bd 90 bd a4 ba
       0.074864775 7.27584e-05 -0.04200322 -0.0012568701
0000c0 66 c3 92 bc 17 fa b0 3d bc 6a 42 3d 70 b7 33 3d
       -0.017915439 0.08641451 0.04746507 0.04387611
0000d0 fd 06 cc 3b 52 d1 19 bd d2 df 33 bd be 20 2c bd
       0.006226419 -0.03755314 -0.043914624 -0.042023413
0000e0 b5 cc a2 bd ea de 80 bd 79 8c b0 bd 91 1f 91 3c
       -0.07949201 -0.062925175 -0.08620543 0.017715247
0000f0 d6 70 1f bd 6c cd 86 3e f9 cf 44 3d f1 2a c8 3d
       -0.038925968 0.263286 0.0480499 0.097738154
000100 f8 03 21 bd 7d ec 47 3d 1d c3 1e 3d ab c9 04 3c
       -0.039310426 0.048809517 0.038760293 0.008104722
000110 4f 4e 43 3d c4 0e 62 bb 78 ff 2d bd e2 7b 3d bd
       0.047682103 -0.0034493664 -0.042479962 -0.046260722
000120 52 6a 6e 3e 5a a0 44 bc 6e 58 ba 3b 22 c2 5b 3c
       0.23282745 -0.012001121 0.005686811 0.013412984
000130 a1 50 be bc bd 80 c9 3c 8d 64 37 bc 22 c4 31 3d
       -0.023231806 0.02459752 -0.011193407 0.043399937
000140 32 36 2d bd da 19 47 bd d4 f1 12 bd 70 0a 9a bd
       -0.042288013 -0.04860864 -0.035875157 -0.07521522
000150 08 35 a3 3d e9 25 78 3c 57 cd 15 3d 43 a0 e0 3b
       0.07969099 0.015145757 0.03657278 0.006855042
000160 79 16 11 3d a8 84 a4 3c 07 6d e9 3d 6a 5a 15 3f
       0.035421822 0.020082787 0.113977484 0.58341086
000170 f9 58 82 bc 16 f3 9c 3d 0d b9 86 bb a2 45 15 3e
       -0.015911566 0.076635525 -0.0041114152 0.14577344
000180 91 37 d8 b9 93 e3 05 bd 70 22 82 3d b9 fb d3 3c
       -0.0004124013 -0.032687735 0.06354225 0.025876867
000190 10 cd d6 3d 44 a0 ce 3c 39 b1 49 3d df 13 ac bc
       0.10488331 0.025222905 0.04924128 -0.021005569
0001a0 f6 33 d3 bd ad 7d 56 3b 57 f5 f3 bc 8e 84 2c 3d
       -0.10312645 0.0032728717 -0.029780073 0.0421186
0001b0 e4 bf 26 bd e6 9e a4 bd 8f a8 4f 3b ae c9 0c 3d
       -0.040710345 -0.0803812 0.0031686162 0.034372024
0001c0 ce 96 b0 b7 c8 1f 14 bc 4a eb a0 bb 31 dc e4 bc
       -2.1051059e-05 -0.00904078 -0.004910861 -0.027937027
0001d0 6f 73 71 bd d0 c1 46 bd 16 ec fb bb 6c 06 25 be
       -0.058947977 -0.048524678 -0.0076880557 -0.16115731
0001e0 80 7e 9d bc 23 93 44 3e 77 33 d8 3d 20 71 86 bd
       -0.019225359 0.19196753 0.10556691 -0.06564546
0001f0 0a e5 c5 bd ce 3a 69 3d f0 0e 04 be 68 c5 06 3d
       -0.09662826 0.056940846 -0.12896323 0.032903105
000200 a9 a4 6b 3d 82 c4 bb 3d 32 5f 6c 3e fb 1b b0 3c
       0.05753008 0.0916834 0.23083189 0.021497717
000210 69 20 c3 be 21 1c 61 3c 28 dd 31 3d b4 d1 34 bd
       -0.38110664 0.013739617 0.0434238 -0.0441453
000220 7f 56 64 3e 87 8f 31 3c 5d 37 b3 3c 7e 78 17 bd
       0.2229862 0.010837442 0.021876985 -0.036980145
000230 e4 d1 fe bc 62 81 bd 3c 89 d4 7f bb 11 9e a5 be
       -0.031105943 0.023132984 -0.0039036593 -0.32347158
000240 7c bf 61 bc d2 16 28 3c 00 e3 9f 3e f5 2c 46 bd
       -0.013778564 0.010259347 0.31227875 -0.048382718
000250 bb fc 3e 3e 9c 46 e3 3c 7f d3 0c bd a3 57 e9 3c
       0.18651097 0.02774363 -0.034381386 0.028484171
000260 2e de 14 bd 13 d3 0c 3d 28 4d 4c 3b 2d 6d cf bc
       -0.0363447 0.034380984 0.0031173918 -0.025320614
000270 87 73 23 bd 31 45 97 3d 43 e6 13 3d 2d 88 16 3d
       -0.039905097 0.07386244 0.036108267 0.03675096
000280 fe 8c d1 bc 95 bc 0b bd c9 80 03 3e 1f 35 e3 3c
       -0.025579926 -0.034115393 0.12842096 0.027735291
000290 17 67 1e 3c 85 fd 5d bd 32 2a 01 3e 76 df 87 3e
       0.009668133 -0.054196853 0.12613752 0.26537675
0002a0 6e 9f 56 3d 50 18 24 bc dd 21 67 3d f3 2f 59 bd
       0.052398138 -0.010015562 0.05642878 -0.053024244
0002b0 ae 76 81 3d 8f b0 3e 3e c6 94 0a be 6f d8 e2 3b
       0.063214645 0.1862204 -0.13533315 0.0069227736
0002c0 75 8b 45 bc bc 10 3f bd 7c f7 b0 bd 1e e4 31 bd
       -0.012057175 -0.04664682 -0.08640954 -0.04343044
0002d0 ff f7 f7 bc 50 c9 0f 3d 0a 12 26 3c 62 0b c3 ba
       -0.030269621 0.035104096 0.010136137 -0.0014880712
0002e0 42 3c 28 bd 32 a1 82 3d f4 54 1a 3d c6 8e eb 3c
       -0.04107309 0.06378402 0.037678674 0.028754603
0002f0 bc 6e 12 3d be 2e 3b bd 1e fd 05 bd c1 1c 53 3c
       0.035750136 -0.045698874 -0.032712094 0.012885273
000300 77 80 f0 bb 4d b3 95 3d ed 56 3f bd 2d 2f 60 3d
       -0.007339533 0.073095895 -0.04671376 0.05473249
000310 99 52 54 bd 59 12 a0 bd c6 0b 47 bd 35 ec 86 3c
       -0.051836584 -0.078159995 -0.048595212 0.016470054
000320 88 87 0c bd 5f 37 24 3b a2 60 0b bb 8e 88 5c bb
       -0.03430894 0.0025057418 -0.0021267314 -0.003365073
000330 ee 1b 2e 3d 57 9e 8d 3d 97 14 99 bc 11 1c 30 bf
       0.042507105 0.069149666 -0.018686576 -0.68792826
000340 32 1f d8 be 1e 0f 17 bd b8 25 39 bd ea 4c 11 3e
       -0.422113 -0.03687965 -0.045201987 0.14189497
000350 e7 d4 0c 3d 0d c4 4e bd 4a 68 23 3e 93 95 9a bb
       0.034382727 -0.050479937 0.15957752 -0.0047175377
000360 d3 58 8d 3c ce bb 73 bc b2 54 fd bb bc d3 61 3e
       0.017254269 -0.014876319 -0.0077310437 0.22053427
000370 f2 a2 95 bc b8 dd 89 bd f0 dc 55 bd 69 cf 33 3c
       -0.018266175 -0.067317426 -0.052212656 0.010974743
000380 a7 bc e3 3c 95 31 12 be 4b cb 36 bd ae b0 d0 be
       0.027799917 -0.14276727 -0.04462747 -0.40759796
000390 83 01 85 3e 42 7c 01 3d 36 a7 47 3d 03 72 4a bd
       0.25977716 0.031612642 0.04874345 -0.049425136
0003a0 bd 9b d3 3d 1d 90 17 3d 67 9b 98 bd fc f5 1f 3b
       0.10332439 0.03700267 -0.07451516 0.0024408093
0003b0 a0 2d 00 be cd eb d1 bb 1a f3 ac 3d d7 16 d5 bd
       -0.12517405 -0.0064062835 0.084448054 -0.10404747
0003c0 b5 85 4d bc dd f8 03 3d 77 2d 8f bb 17 55 6a 3c
       -0.012544085 0.032219756 -0.0043694335 0.014302514
0003d0 86 ec b3 bc 1d 3a 36 bd 96 fb 44 3e 3f 01 82 3d
       -0.02196337 -0.044489015 0.19236597 0.06347894
0003e0 91 b0 33 3d ca 3c 34 bc 96 5c b8 3c 63 3b b7 bc
       0.04386956 -0.011000821 0.022505086 -0.022367185
0003f0 1b c5 2c 3c 4c 27 8e bd 86 5d 8a 3d 72 c5 f6 3c
       0.0105450405 -0.06941089 0.067561194 0.030123446

net.4.bias f4 [3]
000000 c5 71 5b 3d e6 23 6b bc 91 df 7f bc
       0.053575296 -0.014351821 -0.015617267
