src/checkpoints/sac_critic_50.pth (torch, 577874 bytes, 10 tensors)

q1.0.weight f4 [256, 21]
0	0x3d69a6ac	0.057043716
1	0xbe203b7b	-0.1564769
2	0x3dcf1ad4	0.10112539
3	0xbd549c3e	-0.051906817
4	0xbe5817c7	-0.2110282
5	0x3e748624	0.23879296
6	0x3e067ca4	0.13133484
7	0x3cd8cb51	0.026464136
8	0x3dd70cc7	0.10500484
9	0x3d8e5ab2	0.069508925
10	0x3d692b98	0.05692634
11	0xbe1ae9b1	-0.15128209
12	0xbd8c9c72	-0.06865777
13	0xbc73bc40	-0.014876425
14	0xbd81b52a	-0.063333824
15	0x3e43f2e9	0.19135632
16	0x3dc08ba2	0.09401633
17	0xbd7ec250	-0.06219703
18	0x3e2a6078	0.16638362
19	0x3c861c34	0.01637087
20	0x3e0b6d33	0.13615875
21	0x3e0b196b	0.13583915
22	0xbd5b115e	-0.05348336
23	0xbd0d9da2	-0.03457416
24	0x3e49cbc3	0.19706635
25	0xbe41fcd3	-0.18944101
26	0xbe3dec29	-0.18547119
27	0xbd0a2aeb	-0.033732336
28	0x3dc1085d	0.09425423
29	0x3e4b9317	0.19880329
30	0xbe36aa5e	-0.17838427
31	0x3e0b55c1	0.13606931
32	0xbe51ad15	-0.20476182
33	0x3e5c08ff	0.21487807
34	0xbde81e4d	-0.113339044
35	0x3d4b372c	0.049613163
36	0xbdd345ef	-0.10316073
37	0x3e4f87f5	0.20266707
38	0x3d953b9e	0.07286762
39	0xbd7b4481	-0.061344627
40	0x3e441e0a	0.19152084
41	0xbd547b54	-0.051875427
42	0x3d9fbb2f	0.07799374
43	0x3d900329	0.07031853
44	0x3b6cac60	0.0036113486
45	0x3d3b5513	0.04573543
46	0xbe57bbaf	-0.2106769
47	0x3b5cc1b1	0.0033684785
48	0xbc6d41a6	-0.014480984
49	0x3d8d49bd	0.0689883
50	0x3e0562b7	0.13025938
51	0xbdddde8f	-0.10833465
52	0x3dbd0035	0.09228555
53	0x3e0cc1da	0.13745824
54	0xbc69bd50	-0.014266327
55	0x3e0004ef	0.12501882
56	0xbe43c0b4	-0.19116479
57	0xbe1879d8	-0.1489023
58	0xbdfbef2f	-0.1230148
59	0xbdd0d7a1	-0.10197378
60	0xbdd522f1	-0.10407055
61	0xbd829c74	-0.06377497
62	0xbabda178	-0.0014467677
63	0x3d12dd1c	0.035855398
64	0xbe39d9d7	-0.18149506
65	0x3e2e7dfe	0.1704025
66	0xbe45ab3c	-0.19303602
67	0x3da2ccb1	0.07949198
68	0xbe17d820	-0.14828539
69	0xbd95e7ee	-0.07319628
70	0x3d814968	0.06312829
71	0xbc8acd25	-0.016943524
72	0x3d83bbf3	0.06432333
73	0x3d67fd95	0.05663832
74	0xbe25e388	-0.16200078
75	0x3e1bccaf	0.152148
76	0xbdec5f89	-0.115416594
77	0x3d6d54bc	0.057942137
78	0xbe54a26f	-0.20765088
79	0xbcf05398	-0.029336736
80	0xbe07e860	-0.13272238
81	0xbe3a6f53	-0.1820653
82	0x3e702e36	0.23455128
83	0x3dab2685	0.083569564
84	0x3da6dc5c	0.08147499
85	0xbd076524	-0.03305544
86	0x3e36f030	0.17865062
87	0x3d68d6e1	0.05684555
88	0xbde24f64	-0.11050299
89	0xbe09d432	-0.13459852
90	0x3ddfd599	0.109294124
91	0xbd9d1c11	-0.07671369
92	0xbe4be7a6	-0.19912586
93	0xbd8f5852	-0.06999268
94	0x3e286ef9	0.16448583
95	0x3e2b0bfa	0.16703787
96	0x3e51e569	0.2049767
97	0xbd7e321c	-0.062059507
98	0x3e04896f	0.12943052
99	0x3d7ff9ac	0.062493965
100	0xbd5e1fd0	-0.054229558
101	0x3e2903e1	0.16505386
102	0xbe49ec1e	-0.19718978
103	0x3d7a232e	0.061068706
104	0xbd98889f	-0.074479334
105	0x3e54db3a	0.20786753
106	0x3e365f3e	0.1780977
107	0xbdc27d17	-0.09496515
108	0x3c9abcf1	0.018888922
109	0x3e0964ab	0.13417308
110	0x3e72d794	0.23715049
111	0xbe0cd0eb	-0.13751571
112	0xbe0a162e	-0.13485023
113	0xbc77bd20	-0.0151207745
114	0xbe499085	-0.19684036
115	0x3d428b56	0.047496162
116	0xbe4d2924	-0.20035225
117	0x3e17f0e3	0.14837985
118	0xbdb05cb2	-0.0861143
119	0xbdddc1a5	-0.108279504
120	0xbe36b2ad	-0.17841597
121	0xbe519fa2	-0.20471051
122	0xbd6ea80c	-0.05826573
123	0xbd95fbf4	-0.07323447
124	0xbe25f1ed	-0.16205569
125	0x3b9adfe4	0.004726397
126	0xbe25d717	-0.16195332
127	0xbd8f8af4	-0.07008925
128	0x3e815137	0.25257275
129	0x3db51bb8	0.088431776
130	0xbd438d01	-0.047741894
131	0xbe6ca7f3	-0.23110943
132	0x3e733f98	0.23754728
133	0x3df3efcd	0.11910973
134	0x3cae1c9e	0.02125388
135	0x3d7d177c	0.061789975
136	0x3e4c0c08	0.19926465
137	0xbdfbf765	-0.12303046
138	0xbe13489a	-0.14383164
139	0x3d810762	0.06300236
140	0x3dc276d2	0.094953194
141	0x3e399add	0.18125482
142	0x3da2c336	0.0794739
143	0x3d45bddc	0.048276767
144	0xbd6c9c99	-0.05776653
145	0x3e30f84f	0.17282222
146	0xbe722ec7	-0.23650657
147	0xbd094b8d	-0.033519316
148	0xbe2a9457	-0.1665815
149	0x3e54c983	0.20779996
150	0xbe8e4f05	-0.27794662
151	0xbe991dce	-0.29905552
152	0xbc839ddb	-0.016066482
153	0x3e133ce3	0.14378695
154	0x3d06d344	0.032916322
155	0x3d1a31ac	0.037645027
156	0xbdeb0618	-0.11475772
157	0xba089da1	-0.0005211477
158	0xbd96d213	-0.07364287
159	0x3e36b1b7	0.1784123
160	0xbe4c6f25	-0.19964273
161	0x3d656ab4	0.056009963
162	0xbde0633a	-0.10956426
163	0x3e1aafe7	0.15106164
164	0xbe5563d1	-0.20838858
165	0xbd3b0dd2	-0.045667477
166	0x3e719a9c	0.23594135
167	0x3e8fa370	0.2805438
168	0xbe0c05de	-0.13674113
169	0xbd82e076	-0.06390469
170	0xbc32b099	-0.010906362
171	0x3dbae6c7	0.091260485
172	0xbe8ed452	-0.27896363
173	0xbd619529	-0.05507389
174	0xbe317377	-0.17329203
175	0x3cb5db86	0.022199403
176	0x3e26baff	0.16282271
177	0xbd7c2016	-0.061554037
178	0x3e784dab	0.24248378
179	0x3dabd593	0.083903454
180	0xbe48cea2	-0.19610074
181	0x3dc88f6a	0.09792979
182	0xbdfc4d78	-0.123194635
183	0x3d96d52e	0.073648795
184	0x3e0fe9e1	0.14054061
185	0xbd98c416	-0.074592754
186	0x3a8a2e74	0.0010542409
187	0xbe2fd8a7	-0.1717249
188	0x3e00e1ca	0.12586132
189	0xbdf82ff5	-0.12118522
190	0x3d994c81	0.07485295
191	0xbb64662d	-0.003485094
192	0x3d9b2b4c	0.075766176
193	0x3d12c789	0.035834823
194	0xbc98a071	-0.018631192
195	0xbdaa739d	-0.08322833
196	0x3e7f253b	0.24916546
197	0xbe7094be	-0.2349424
198	0x3e665e56	0.22496924
199	0xbd944260	-0.072392225
200	0xbd255aa9	-0.040369663
201	0x3e40f6f3	0.18844204
202	0xbe1b9074	-0.15191823
203	0x3e42f009	0.19036879
204	0x3e11a46f	0.14222883
205	0xbce8c048	-0.028412
206	0x3da44dce	0.080226526
207	0x3e0ed120	0.13946962
208	0x3e120720	0.1426053
209	0x3e1a71db	0.15082495
210	0xbd1238f8	-0.03569886
211	0xbd67d5bd	-0.05660032
212	0xbe79b834	-0.24386674
213	0xbbcd1f64	-0.0062598456
214	0xbd8edb3e	-0.06975411
215	0xbe85a455	-0.26101938
216	0xbd8a8ad8	-0.067647636
217	0xbc22fb0e	-0.009947551
218	0x3d0a09b3	0.033700656
219	0x3e2b5d92	0.16734913
220	0x3e47d25d	0.19513841
221	0xbdca567a	-0.09879775
222	0xbdc33e5f	-0.09533381
223	0xbe0b9c91	-0.13633944
224	0x3da2560a	0.07926567
225	0xbbd04920	-0.0063563734
226	0xbdb1e602	-0.08686449
227	0xbe28dfd4	-0.16491634
228	0xbd11bd6e	-0.035581045
229	0xbc14df2b	-0.0090864105
230	0x3d954446	0.07288413
231	0x3e33bb60	0.17551947
232	0xbe5a1b93	-0.21299581
233	0x3e201958	0.15634668
234	0xbda6d223	-0.08145549
235	0x3cd9de52	0.026595268
236	0x3e5102e7	0.20411263
237	0x3dab022e	0.08350025
238	0xbdd5276a	-0.10407908
239	0x3e145d03	0.14488606
240	0xbd257323	-0.040393006
241	0x3dcd1701	0.10014153
242	0x3dfca384	0.12335876
243	0xbce7a358	-0.02827613
244	0xbe11fc96	-0.1425651
245	0x3e3b60c3	0.1829863
246	0x3d2cee44	0.042219415
247	0xbd452388	-0.04812959
248	0x3d3a6b0c	0.045512244
249	0x3cae2707	0.021258844
250	0x3dd0b44b	0.10190638
251	0x3df16b10	0.11787999
252	0x3d3d8fef	0.046279844
253	0xbdedec71	-0.11617363
254	0x3d3cf773	0.046134423
255	0xbe8754f6	-0.26432008

q1.0.bias f4 [256]
0	0xbdcb9191	-0.09939874
1	0xbe34587a	-0.17611876
2	0x3ede5b94	0.43429244
3	0x3ea898d9	0.32929114
4	0x3e915f32	0.2839294
5	0xbd9db49a	-0.07700463
6	0x3dfdf527	0.12400275
7	0xbe055f93	-0.1302474
8	0xbe03bad7	-0.12864242
9	0xbdc66fc8	-0.09689289
10	0xbda0f4a4	-0.078591615
11	0xbe39b3f3	-0.18135051
12	0x3efabbf5	0.48971525
13	0xbdbb93eb	-0.091590725
14	0xbdd804a8	-0.10547763
15	0x3eddab09	0.43294552
16	0x3d579fee	0.052642755
17	0x3ee8f685	0.4550058
18	0x3dde2d80	0.10848522
19	0x3e1f1364	0.1553474
20	0x3ee08295	0.43849626
21	0x3e692c8f	0.22770904
22	0xbcad5e6c	-0.021163188
23	0xbd8623c8	-0.065497935
24	0xbe18d5aa	-0.14925256
25	0xbdbdfae8	-0.09276372
26	0x3ea948f0	0.3306346
27	0x3e310e48	0.17290604
28	0x3e5ef418	0.21772802
29	0x3e00f0d8	0.12591875
30	0xbd81998d	-0.063281156
31	0x3e92f164	0.2869979
32	0x3eacc483	0.33743677
33	0x3d7dcfee	0.061965875
34	0x3e83421a	0.2563637
35	0x3ea8f9b6	0.33003014
36	0x3ed95ba3	0.42452726
37	0x3e7dd191	0.24786974
38	0xbda2b968	-0.0794552
39	0xbe2899ae	-0.16464874
40	0x3e86f06c	0.26355302
41	0xbe555a88	-0.20835316
42	0xbe007c60	-0.12547445
43	0x3e8fabea	0.28060848
44	0xbdd82c4d	-0.10555325
45	0xbe04fcbf	-0.1298704
46	0x3f075fd7	0.52880615
47	0xbdaf0714	-0.08546272
48	0xbd4778bc	-0.048699126
49	0xbdd240fe	-0.102663025
50	0x3ee2cffd	0.44299307
51	0x3e3ccb83	0.18437009
52	0x3c4ca981	0.012491585
53	0x3d5030e5	0.05082788
54	0x3ed2463f	0.4106922
55	0x3f368928	0.71303034
56	0xbc450ce7	-0.012027002
57	0xbd5125a2	-0.05106128
58	0x3ee43a85	0.44575897
59	0xbd3f0aa1	-0.046640996
60	0x3da861a6	0.0822175
61	0xbd95eb84	-0.07320312
62	0xbe2992ec	-0.16559952
63	0xbe183c57	-0.14866768
64	0xbd404b29	-0.04694668
65	0xbd9323c1	-0.07184554
66	0x3e91ca23	0.2847453
67	0x3e2b989e	0.16757438
68	0x3ebc262c	0.36747873
69	0x3e0f2221	0.13977863
70	0x3ec8bd9a	0.39207155
71	0x3ece5ae5	0.40303722
72	0xbc658a8e	-0.014010085
73	0x3e65ae1f	0.22429703
74	0x3ebb37e5	0.36566082
75	0xbe05ace7	-0.13054238
76	0x3ec113bd	0.37710372
77	0x3f16dc2a	0.58929694
78	0x3dbbe757	0.09174984
79	0x3e42cbb5	0.1902302
80	0x3f2a8fb6	0.66625535
81	0xbe0d4644	-0.13796335
82	0x3eb9e4a5	0.36307254
83	0x3df07eff	0.117429726
84	0xbd20e8e6	-0.03928461
85	0x3ede8d8a	0.4346736
86	0x3ed5225e	0.41627783
87	0x3f3661ae	0.712428
88	0xbdef8ba8	-0.11696559
89	0x3ef8ee88	0.48619485
90	0xbe4d2eb7	-0.20037352
91	0x3ba1b7e2	0.0049352506
92	0xbd9b4756	-0.075819656
93	0x3f093b1f	0.53605837
94	0x3eff45a8	0.4985783
95	0x3dcf6226	0.10126142
96	0x3d27f96b	0.041009348
97	0x3f466bd5	0.7750829
98	0x3e707696	0.23482737
99	0xbcf0f4ca	-0.0294136
100	0x3eb744cf	0.35794684
101	0x3ea02986	0.3128168
102	0x3f11e72b	0.5699336
103	0x3e49150e	0.19636938
104	0x3e7d99f1	0.24765755
105	0x3ea59b84	0.32345212
106	0x3e7ca401	0.24671938
107	0x3dc62aef	0.09676158
108	0x3f3d3faf	0.739253
109	0x3eefa853	0.4680811
110	0x3e2ef0dd	0.1708407
111	0xbe1bd1ff	-0.15216826
112	0x3f0217b4	0.5081742
113	0xbd97fa59	-0.07420797
114	0xbdee2156	-0.11627452
115	0x3e7ed864	0.24887234
116	0xbe0db500	-0.13838577
117	0xbe1faf30	-0.15594172
118	0xbe0f9611	-0.1402209
119	0xbe0e94b1	-0.13923909
120	0x3ef58d3b	0.47959313
121	0xbd99a9a8	-0.075030625
122	0xbcd31930	-0.025768846
123	0x3eab7f72	0.3349567
124	0x3f043f05	0.5165866
125	0x3e409b7c	0.18809313
126	0x3e5ce26b	0.21570747
127	0x3edc87fb	0.43072495
128	0x3edcd69e	0.4313249
129	0x3a0e6156	0.00054313743
130	0xbd12160b	-0.035665553
131	0xbcc966e6	-0.024585199
132	0x3e08404a	0.13305774
133	0x3e884882	0.2661782
134	0x3d5bcc05	0.053661365
135	0x3ebb93b4	0.36636126
136	0x3c7ffa33	0.015623617
137	0x3e9e92e3	0.3097144
138	0x3f26403a	0.6494175
139	0x3ec16715	0.37773958
140	0xbdbd3205	-0.09238056
141	0xbcd04c30	-0.025426954
142	0xbc92d7d7	-0.017925186
143	0x3ec5fb70	0.38668394
144	0x3e058361	0.13038398
145	0xbcc715b7	-0.024302347
146	0x3c24f191	0.01006736
147	0xbe3ba007	-0.18322764
148	0x3f2fa7c1	0.6861535
149	0xbd0b409d	-0.033997167
150	0x3e940717	0.2891166
151	0x3ecae4d2	0.396277
152	0xbe2146cb	-0.15749662
153	0x3e8758d2	0.26434952
154	0x3ea09202	0.31361395
155	0xbe313bbb	-0.17307942
156	0x3ea08a97	0.31355736
157	0xbe2fd531	-0.1717117
158	0x3e7c9734	0.24667054
159	0xbdd3b9e9	-0.10338194
160	0x3ec12fb5	0.3773171
161	0x3e80620a	0.25074798
162	0x3f356ec1	0.7087212
163	0x3e83ac27	0.2571728
164	0x3e7cdeb7	0.24694334
165	0x3ee6d35c	0.4508313
166	0x3e98dd5a	0.29856378
167	0x3ebc21e3	0.36744604
168	0xbd235235	-0.03987332
169	0x3edde4f0	0.43338728
170	0x3e133521	0.14375736
171	0x3eb23d9a	0.34812623
172	0x3dec5d4b	0.11541232
173	0xbdab6030	-0.08367956
174	0x3eb026b4	0.34404528
175	0x3da541ef	0.080692165
176	0xbdd76a38	-0.105183065
177	0x3ed42dbd	0.41441146
178	0x3e562b04	0.20914847
179	0x3cd2e96b	0.025746068
180	0x3e8c5dfc	0.27415454
181	0xbdda3df6	-0.10656349
182	0x3edeae0b	0.4349216
183	0x3e7b30a8	0.2453028
184	0x3f3fe883	0.7496416
185	0x3eaffee0	0.34374142
186	0x3ed81063	0.42200002
187	0x3ec94133	0.39307556
188	0x3ebf5e04	0.37376416
189	0x3dfa8654	0.12232652
190	0x3c5a6bda	0.013331378
191	0x3e5f868c	0.2182867
192	0x3ee95b5b	0.4557751
193	0xbd743a42	-0.05962587
194	0xbc1a77b8	-0.009427957
195	0x3e862ed4	0.26207602
196	0x3ed76c4d	0.42074814
197	0x3e35ee51	0.17766692
198	0xbd80a664	-0.062817365
199	0xbdeb42bc	-0.11487338
200	0xbd4eb952	-0.050469704
201	0xbe27b7ff	-0.16378783
202	0x3e8849cf	0.2661881
203	0x3f34f0f8	0.7068019
204	0xbdfd5406	-0.12369542
205	0x3ae78248	0.0017662728
206	0xbdd9a9e8	-0.1062811
207	0x3e995eb6	0.2995507
208	0xbbde5958	-0.006785553
209	0xbcbfc627	-0.023409916
210	0xbbb594ac	-0.0055414047
211	0x3f0e9e85	0.5571063
212	0xbd734e85	-0.059401054
213	0xbd041da5	-0.032254834
214	0xbd6ffa7e	-0.058588497
215	0x3e921df4	0.28538477
216	0xbdc23e70	-0.09484565
217	0x3e65a1b4	0.22424966
218	0x3f1b4185	0.6064685
219	0xbc0e959c	-0.008702662
220	0xbd330fe1	-0.043716315
221	0xbd9267ca	-0.071487024
222	0x3eb767f5	0.358215
223	0x3ea0a506	0.31375903
224	0x3e3f64b9	0.18690766
225	0x3e9f3327	0.31093714
226	0x3ed8bec7	0.42333052
227	0x3f1feae4	0.6246779
228	0xbd8818ed	-0.06645379
229	0x3ef0901d	0.4698495
230	0xbdcc4d7b	-0.09975716
231	0xbe159595	-0.14607842
232	0xbe6c6a01	-0.23087312
233	0x3effee05	0.49986282
234	0x3f00caeb	0.5030963
235	0x3ea42cc3	0.320654
236	0x3dc38252	0.09546341
237	0x3e9e5d6a	0.30930644
238	0xbe2725b8	-0.16322982
239	0xbe257c7c	-0.16160768
240	0xbe13c84d	-0.14431877
241	0x3e55ba35	0.20871814
242	0x3f304784	0.68859124
243	0x3f32e4f9	0.69880635
244	0xbb19bd32	-0.0023458716
245	0x3d1f7ff6	0.038940392
246	0x3eb21a5f	0.34785745
247	0x3ecd86d3	0.40141925
248	0x3ebf6207	0.37379476
249	0xbdc49a1a	-0.09599705
250	0xbd1e1f9a	-0.038604356
251	0x3ed71eb6	0.42015618
252	0x3e9a7000	0.30163574
253	0x3dc1f783	0.09471037
254	0x3e85e426	0.26150626
255	0x3d9e0cf8	0.07717317

q1.2.weight f4 [256, 256]
0	0x3d44a0ff	0.0480051
1	0x3cdb7676	0.026789885
2	0xbbcc6e79	-0.0062387553
3	0x3d6a9f02	0.057280548
4	0x3d84cba5	0.064841546
5	0x3c3040b6	0.010757616
6	0x3d5e699a	0.05429993
7	0xbaec7367	-0.0018039764
8	0x3dc94e8f	0.09829437
9	0xbd34cc5f	-0.044140216
10	0xbdb8c908	-0.09022719
11	0x3ae06eda	0.001712288
12	0x3e3962d4	0.18104106
13	0xbc3c3e28	-0.011489429
14	0xbc0a6cb0	-0.008448765
15	0x3e493744	0.19649988
16	0x3c3fba90	0.011702195
17	0x3d505767	0.050864603
18	0xbb70c81b	-0.0036740366
19	0x3c96a9a3	0.018391436
20	0x3d981967	0.0742672
21	0x3ca486fd	0.020083899
22	0xbaf9521b	-0.0019021662
23	0x3cf6d376	0.03013013
24	0x3cea46ba	0.028598178
25	0x3d2f4d5d	0.04279839
26	0x3dfc7791	0.12327493
27	0x3d599f20	0.05313027
28	0x3d24010b	0.040040057
29	0xbc6f4a4c	-0.014605116
30	0x3d27d37e	0.04097318
31	0xbc934a95	-0.0179799
32	0x3d045756	0.032309853
33	0x3d3c52d4	0.04597743
34	0x3dc820c6	0.09771876
35	0x3db93eb2	0.09045161
36	0x3da975b1	0.08274401
37	0x3c8f2dfa	0.017477978
38	0x3bc23ac7	0.005927417
39	0x3d7aeb9e	0.06125986
40	0x3d59eefa	0.05320642
41	0xbe010a5f	-0.12601613
42	0x3d4cdcdc	0.050015315
43	0x3d0f348b	0.03496222
44	0x3d023475	0.03178831
45	0x3da8aeea	0.08236487
46	0x3e97df1a	0.296624
47	0xbd988986	-0.074481055
48	0xbbe2281d	-0.0069017545
49	0xbdfb17ab	-0.12260374
50	0x3e9be3c2	0.30447203
51	0x3dc91d95	0.098200954
52	0xbe1202ab	-0.1425883
53	0x3dcb9792	0.09941019
54	0x3d82abb9	0.0638041
55	0x3ee0fbc4	0.43942082
56	0x3d04fa58	0.03246531
57	0x3d163498	0.03667125
58	0x3daab9eb	0.08336242
59	0x3d9291c6	0.0715671
60	0x3d0b95b0	0.0340783
61	0xbcc4fa0e	-0.024045017
62	0x3d7c4c26	0.06159606
63	0x3ce86704	0.028369434
64	0xbdcfa16d	-0.101382114
65	0x3d584469	0.052799616
66	0x3da1c5fa	0.07899089
67	0xbc633c86	-0.01386941
68	0x3d8e5215	0.0694925
69	0x3d8330fb	0.06405827
70	0x3e120c23	0.14262442
71	0x3c9c7672	0.019099448
72	0x3e34c22a	0.17652193
73	0x3c4db7bb	0.012556012
74	0x3dd59772	0.104292765
75	0x3d9d7ef7	0.07690232
76	0x3bcd4e4f	0.0062654386
77	0x3e860ed0	0.26183176
78	0x3db71bbf	0.08940839
79	0x3ca7e182	0.020493273
80	0x3f1e639f	0.6187076
81	0xbdc74954	-0.09730783
82	0x3dd607e6	0.10450725
83	0x3c34d381	0.011036755
84	0x3989870f	0.00026231303
85	0x3d7d2289	0.061800513
86	0xbbf65701	-0.007517696
87	0x3ebbc70a	0.36675292
88	0x3dbf7b7e	0.09349726
89	0x3e97583d	0.29559508
90	0xbe0c8bd2	-0.13725212
91	0x3d499915	0.049218256
92	0xbb092551	-0.0020926783
93	0x3e23c15f	0.15991734
94	0x3e725b99	0.23667754
95	0xbc44c1f7	-0.012009135
96	0x3da2ae4d	0.079434015
97	0x3f05aa2c	0.52212787
98	0x3daa711a	0.08322354
99	0x3d96ec86	0.07369332
100	0x3d504a94	0.050852373
101	0x3de60249	0.112309046
102	0x3e0c15e4	0.13680226
103	0x3d61e445	0.055149335
104	0x3d6943b1	0.05694932
105	0x3e3638ad	0.17795058
106	0x3d8a703d	0.06759689
107	0xbca26f89	-0.019828575
108	0x3f0e1112	0.554948
109	0x3d343f6d	0.0440058
110	0x3c973695	0.018458644
111	0xbce6dd90	-0.028181821
112	0x3ddf4ee8	0.10903722
113	0x3db1a017	0.08673113
114	0x3d4eb727	0.050467636
115	0x3d1d8735	0.03845902
116	0x3dbd9115	0.09256188
117	0x3da5f864	0.081040174
118	0x3da003e2	0.078132406
119	0xbe6e098b	-0.23245828
120	0x3dd21a41	0.10258914
121	0xbd0e3d1f	-0.03472626
122	0x3c033997	0.008009336
123	0x3e9a08ac	0.3008474
124	0x3e57689b	0.21035998
125	0xbc831928	-0.016003206
126	0x3d563b30	0.05230254
127	0x3e081ef6	0.1329306
128	0x3e5ff49a	0.21870652
129	0xbdbf524d	-0.093418695
130	0xbd2ba1a6	-0.041902207
131	0x3cca3984	0.024685629
132	0x3d3105bd	0.043218363
133	0x3c3343dd	0.010941473
134	0x3bb85342	0.0056251595
135	0x3dc72727	0.097242646
136	0x3dfbffed	0.12304673
137	0x3c4e1e01	0.012580396
138	0x3e7aeb31	0.24503781
139	0x3d75627a	0.059908368
140	0xbd1ab269	-0.0377678
141	0x3d1339fe	0.035943978
142	0x3c3eb0dc	0.011638846
143	0x3e727adc	0.2367968
144	0x3df11204	0.11771014
145	0x3da5cb3d	0.08095405
146	0xbe09ab01	-0.13444139
147	0xbd88db36	-0.06682436
148	0x3ec755de	0.389327
149	0xbd900914	-0.070329815
150	0x3d026e15	0.031843264
151	0x3cfd967b	0.030955544
152	0x3d2ae30e	0.041720442
153	0xbbbf01c8	-0.0058290698
154	0xbc1dd386	-0.009632951
155	0xbe7b11a3	-0.24518447
156	0xbb68817e	-0.0035477574
157	0x3cfb33e2	0.030664388
158	0x3da87ded	0.082271434
159	0xbd1ca438	-0.03824255
160	0x3e0c686f	0.13711713
161	0x3dde1259	0.10843343
162	0x3e502404	0.20326239
163	0xbc8352b4	-0.016030647
164	0x3c70a555	0.014687856
165	0x3d8e555c	0.06949875
166	0x3cdfc1e7	0.02731414
167	0x3e0bd7a5	0.1365648
168	0xbc5509c5	-0.0130028175
169	0x3ddbccb1	0.10732401
170	0x3d6039ac	0.0547425
171	0x3d4ac1a1	0.049501065
172	0x3d660a5b	0.05616222
173	0x3d1e0077	0.038574662
174	0x3c0b865b	0.00851592
175	0x3d992b8c	0.07479009
176	0xbe0fd70c	-0.14046878
177	0x3d97056b	0.0737408
178	0x3a474bec	0.0007602561
179	0xbe0a241b	-0.13490336
180	0x3e16ab22	0.1471372
181	0x3dbc306c	0.09188923
182	0x3d85dfeb	0.065368496
183	0x3d8babd8	0.06819886
184	0x3ebf275d	0.3733472
185	0x3df6cafb	0.12050434
186	0x3da9ac29	0.0828479
187	0x3cc7f44b	0.02440848
188	0x3c942d0b	0.018087884
189	0x3da2e26e	0.07953344
190	0x3d39355d	0.045216907
191	0x3db52efa	0.08846851
192	0x3e3e2f48	0.18572724
193	0xbb6b4bf5	-0.0035903428
194	0x3d480ba3	0.048839223
195	0x3c2fde4e	0.010734154
196	0x3dc05492	0.093911305
197	0x3dac1795	0.084029354
198	0xbe92a47f	-0.28641126
199	0x3da5599f	0.080737345
200	0xbd06e8c4	-0.032936826
201	0xbe6744df	-0.22584866
202	0x3d3beaa6	0.045878075
203	0x3ef0f9bf	0.4706554
204	0xbdfdb8b6	-0.123887464
205	0x3d27bdea	0.0409526
206	0x3d53360c	0.051565215
207	0x3dc9fa58	0.098622024
208	0x3cb4b31e	0.022058066
209	0x3c4cb06b	0.012493233
210	0xbc80c2b8	-0.01571785
211	0x3e05ef3d	0.13079543
212	0xbd4ac2af	-0.04950207
213	0xbdf837de	-0.12120031
214	0x3dcb99d6	0.09941451
215	0x3d74980f	0.059715327
216	0x3d722c84	0.059124485
217	0xbc108720	-0.008821279
218	0x3ea9cd56	0.3316447
219	0x3e034442	0.12819007
220	0x3dcea057	0.10089176
221	0xbcd6d78d	-0.02622583
222	0x3df01d19	0.117243
223	0x3d81833e	0.063238606
224	0x3d2a4f71	0.041579667
225	0x3de8d2e4	0.11368349
226	0x3df6c380	0.120490074
227	0x3e6e4bcf	0.23271106
228	0x3df77352	0.120825425
229	0x3dca1940	0.09868097
230	0x3d3ee362	0.046603568
231	0x3d171559	0.036885593
232	0x3d3b90ed	0.04579251
233	0x3e1b8bac	0.1519
234	0x3e17f98e	0.14841291
235	0x3dbc47e8	0.091934025
236	0x3d6f6803	0.058448803
237	0x3d6d3bbf	0.057918306
238	0xbd3beb02	-0.045878418
239	0x3cb0c839	0.021579849
240	0xbd21b507	-0.03947928
241	0x3d61437c	0.054996
242	0x3ec4676e	0.3836016
243	0x3ec65cf0	0.3874278
244	0x3d8488f4	0.06471434
245	0x3d97c650	0.07410872
246	0x3d7fe24e	0.06247168
247	0x3e23b051	0.15985228
248	0x3c3953f8	0.011311524
249	0x3c9c9f7f	0.019119022
250	0x3d8e5d77	0.06951421
251	0x3ddac97e	0.10682963
252	0x3dc36414	0.09540573
253	0x3d8638bf	0.06553792
254	0x3b7236cf	0.0036958938
255	0xbca6d40d	-0.020364786

q1.2.bias f4 [256]
0	0x3e26524b	0.1624233
1	0x3e44d473	0.19221668
2	0xbd596165	-0.0530714
3	0x3e318b8f	0.17338394
4	0x3e551e44	0.20812327
5	0x3d017425	0.031604905
6	0xbc9929b7	-0.018696649
7	0x3e6f3216	0.2335895
8	0x3e58d7c0	0.21176052
9	0xbd4c05a0	-0.049810052
10	0xbde1ea46	-0.11031012
11	0xbd85020d	-0.06494532
12	0x3e0c24f3	0.1368597
13	0x3ce5cb37	0.028051002
14	0xbd82a8fe	-0.06379889
15	0x3e7ffed6	0.24999556
16	0x3d30bebc	0.04315065
17	0xbb73e920	-0.003721781
18	0x3e888f57	0.2667186
19	0x3e36899b	0.1782593
20	0xbd38f97b	-0.045159798
21	0x3cdd0a78	0.026982531
22	0xbcaf39e2	-0.021389905
23	0x3e15d474	0.14631826
24	0x3b890ca4	0.004182415
25	0xbd27aa10	-0.04093367
26	0x3e227b3c	0.15867323
27	0x3d21d619	0.03951082
28	0xbd07e12a	-0.033173718
29	0xbcaf3bad	-0.02139076
30	0xbc029bc0	-0.007971704
31	0xbd826be8	-0.06368238
32	0xbc816fe7	-0.01580043
33	0xbd068041	-0.032837156
34	0x3dd2a7b7	0.10285895
35	0x3d3a3e31	0.045469467
36	0xbddbaf11	-0.10726751
37	0x3e0dd42d	0.1385047
38	0x3e04c6fd	0.12966533
39	0x3dc2ae66	0.0950592
40	0x3e31fd57	0.17381798
41	0x3bae2749	0.0053147417
42	0x3bbe1812	0.0058012092
43	0x3e4c1ba9	0.19932427
44	0xbd8c5c84	-0.068535835
45	0xbd4823ac	-0.048862144
46	0x3e59fd43	0.21288018
47	0x3e06380f	0.13107322
48	0x3d2cdcd9	0.042202804
49	0x3e64c6db	0.22341482
50	0xbd54a06d	-0.051910806
51	0xbd50d207	-0.050981548
52	0x3dd1ae28	0.10238296
53	0x3e112e6a	0.14177862
54	0x3d3c8914	0.046029165
55	0xbd022950	-0.03177768
56	0x3e6a20e1	0.22864105
57	0x3e65b76b	0.2243325
58	0x3e503c21	0.20335437
59	0xbcd02b0d	-0.025411153
60	0x3cac82ca	0.021058459
61	0x3e1410fb	0.14459603
62	0x3e5da0ff	0.21643446
63	0xbdd130bd	-0.10214374
64	0xbd3b72ee	-0.045763902
65	0xbd6ad189	-0.057328735
66	0x3e05e04f	0.13073848
67	0x3e784eaf	0.24248765
68	0xbd0433f1	-0.032276098
69	0xbd859c30	-0.06523931
70	0xbd7bcc7d	-0.061474312
71	0xbd5eac97	-0.054363813
72	0x3df8a62f	0.12141072
73	0xbda401c0	-0.08008146
74	0x3e33d6ce	0.1756241
75	0x3e43af16	0.19109759
76	0xbc477288	-0.0121733025
77	0x3c21d8ec	0.009878378
78	0x3e00432d	0.12525626
79	0xbc1a2f56	-0.0094107
80	0xbd5d6427	-0.05405059
81	0x3e8b3d2a	0.27195102
82	0xbd383b53	-0.04497845
83	0x3e50f882	0.20407298
84	0x3c6ec15f	0.01457247
85	0xbd453f38	-0.048155993
86	0x3d4ebc4b	0.05047254
87	0x3c8afc83	0.01696611
88	0x3e731d41	0.23741628
89	0x3e480ab9	0.1953534
90	0x3e7710dc	0.24127525
91	0x3b70c896	0.0036740652
92	0xbd5ae58e	-0.053441577
93	0x3e11f8de	0.14255092
94	0x3c556606	0.013024813
95	0x3c4bd76a	0.012441495
96	0xbcd76acf	-0.026296047
97	0xbd2aade4	-0.04166974
98	0x3e040bf0	0.12895179
99	0xbd6367b1	-0.05551881
100	0x3e16fc06	0.14744577
101	0xbcbfc101	-0.023407461
102	0xbc07a246	-0.008278435
103	0x3e414799	0.18874969
104	0xbda59ac7	-0.08086162
105	0xbd3c9fa8	-0.046050698
106	0x3d22bf1f	0.03973305
107	0xbca0a37f	-0.019609211
108	0xbcd0c026	-0.025482249
109	0xbcdc2e4d	-0.026877547
110	0x3e4aa1d5	0.19788297
111	0xbe1e78e3	-0.15475802
112	0x3db2fec8	0.08740002
113	0xbd323122	-0.043503888
114	0x3e4fa9fe	0.2027969
115	0x3e4098ac	0.1880824
116	0x3e857066	0.26062316
117	0xbc9449ad	-0.018101538
118	0x3d1d8f50	0.03846675
119	0xbdade2c0	-0.08490515
120	0x3e074acc	0.13212126
121	0x3e4f9465	0.20271452
122	0x3e586b3b	0.21134655
123	0x3da492cb	0.08035811
124	0xbcfcd74e	-0.030864384
125	0x3b36cc9e	0.0027892957
126	0x3e4d3f16	0.20043597
127	0x3e312427	0.17298947
128	0xbd82b4a7	-0.06382113
129	0xbbaa72b7	-0.0052016634
130	0x3e560362	0.20899728
131	0xbd6c1a02	-0.05764199
132	0x3e349ea8	0.17638648
133	0xbcff109c	-0.03113585
134	0xbd1956f0	-0.037436426
135	0xbd2ed529	-0.042683754
136	0x3e0206cf	0.1269791
137	0xbb310c60	-0.0027015433
138	0xbd42654f	-0.047459897
139	0xbd875693	-0.066083096
140	0xbd1297ee	-0.035789423
141	0xbd3f5d3e	-0.046719782
142	0xbd254f57	-0.040358867
143	0x3e52be5e	0.20580432
144	0xbd84d2b2	-0.064854994
145	0x3d09d32b	0.03364865
146	0x3e4ce9cd	0.20011063
147	0x3e28b769	0.16476215
148	0x3e490a7a	0.19632903
149	0x3e1f9a94	0.1558631
150	0x3e45b140	0.19305897
151	0x3d09becb	0.03362922
152	0xbd7e5740	-0.062094927
153	0xbd60e183	-0.054902565
154	0xbcb501a2	-0.022095505
155	0x3ded7498	0.11594504
156	0x3e952de9	0.2913659
157	0x3e1d1077	0.15338312
158	0xbd65f578	-0.0561423
159	0x3e522874	0.20523244
160	0x3e4c545a	0.19954053
161	0xbd21a5d9	-0.039464805
162	0x3e1c12af	0.15241502
163	0xbda43281	-0.08017445
164	0x3e69407d	0.22778507
165	0x3e0540b2	0.1301296
166	0x3e0931ac	0.13397855
167	0x3e53c72f	0.20681451
168	0x3d0987fe	0.033576958
169	0x3d26bf90	0.040710032
170	0xbdbb4bbb	-0.09145304
171	0xbe0bf696	-0.13668284
172	0x3d2339c9	0.03985003
173	0x3e849dfd	0.25901785
174	0xbd504222	-0.05084432
175	0xbda4a3b8	-0.080390394
176	0x3e6edd20	0.2332654
177	0x3c23d89f	0.010000377
178	0x3d24d163	0.04023875
179	0x3c2845ff	0.010270595
180	0x3e1183bd	0.1421041
181	0xbc5f313f	-0.013622581
182	0xbc43baea	-0.011946419
183	0xbd655374	-0.05598779
184	0xbd5f84b0	-0.0545699
185	0x3e177f95	0.14794762
186	0xbd3bbcd8	-0.045834392
187	0x3e189d7d	0.14903827
188	0x3e95dfdf	0.29272363
189	0x3e9ed343	0.31020555
190	0x3e66274f	0.22475933
191	0x3d336302	0.043795593
192	0x3e348e7b	0.17632477
193	0xbd264313	-0.04059131
194	0xbce33879	-0.02773689
195	0xbd144664	-0.036199942
196	0x3e549e08	0.20763409
197	0x3e5d2660	0.2159667
198	0xbd6d0e7b	-0.057875138
199	0x3c802817	0.015644116
200	0x3e2fcee0	0.1716876
201	0x3e1214be	0.14265725
202	0x3e5fce93	0.21856146
203	0x3e4aea0e	0.19815847
204	0x3d728194	0.059205607
205	0x3de79412	0.11307539
206	0xbd6e3f03	-0.05816556
207	0x3e29c275	0.16578086
208	0x3e42e4eb	0.19032638
209	0x3d406cf1	0.046978895
210	0x3e5c2791	0.21499468
211	0x3c23faf5	0.010008563
212	0x3e8d68b4	0.27618945
213	0x3e21128d	0.15729733
214	0xbd076dba	-0.033063628
215	0xbbe9f61d	-0.0071399347
216	0x3df7e4ae	0.12104164
217	0x3e21b01e	0.1578984
218	0x3e00bbca	0.12571636
219	0x3dc20a43	0.094746135
220	0x3e6b2b41	0.22965719
221	0xbd10fd94	-0.03539808
222	0x3e4031e4	0.18769032
223	0x3e1e376c	0.1545083
224	0xbd88a35d	-0.06671784
225	0xbce9ea55	-0.028554121
226	0x3e504efa	0.20342627
227	0x3d3b3c3b	0.045711737
228	0x3e91972b	0.28435645
229	0x3d489410	0.04896933
230	0x3e2a02a3	0.16602568
231	0x3d2afaa5	0.04174294
232	0x3e7cd32f	0.24689935
233	0x3b155862	0.0022788276
234	0xbb091d66	-0.0020922064
235	0x3d3e12b5	0.04640456
236	0xbd03f357	-0.03221449
237	0x3e0a2ac5	0.13492878
238	0x3e41d3cd	0.18928452
239	0xbcba25fc	-0.02272319
240	0xbd2ce42f	-0.0422098
241	0x3d096b76	0.03354975
242	0x3e3f0d5c	0.1865744
243	0x3e32e521	0.17470218
244	0xbd2c85c6	-0.042119764
245	0x3e26dc63	0.16295008
246	0x3de8a578	0.11359686
247	0xbc9b35ce	-0.018946555
248	0x3dfffe57	0.12499683
249	0x3e33106e	0.17486736
250	0x3cf89414	0.030344047
251	0x3d4a5fa3	0.049407613
252	0x3e860c19	0.26181105
253	0x3dcbac29	0.09944946
254	0x3e04edec	0.12981385
255	0xbd133ba3	-0.035945546

q1.4.weight f4 [1, 256]
0	0xbde326f2	-0.110914126
1	0xbe809c75	-0.25119367
2	0xbc6fadf2	-0.014628874
3	0xbe38df48	-0.18053925
4	0xbe034091	-0.12817599
5	0x3bad84c2	0.005295367
6	0x3c4021fd	0.011726853
7	0xbdcc5796	-0.09977643
8	0xbe1971a1	-0.14984752
9	0x3e0dc36d	0.1384408
10	0x3e6262ac	0.22107953
11	0x3e3c9dbf	0.1841955
12	0xbdfbffe6	-0.12304668
13	0x3cdd691c	0.02702766
14	0x3ddcaf46	0.10775618
15	0xbe9475d8	-0.28996158
16	0x3d3c72eb	0.04600803
17	0xbd4b9b2e	-0.049708538
18	0xbeaf128a	-0.34193832
19	0xbdab5c0f	-0.08367168
20	0x3d3dc8b7	0.046333995
21	0x3b54c195	0.0032464017
22	0x3e054eb1	0.130183
23	0xbdd83d31	-0.10558546
24	0x3e216135	0.15759738
25	0x3e4cf3b7	0.20014845
26	0xbe2cb927	-0.16867505
27	0x3ceaa12c	0.028641306
28	0x3deae066	0.11468582
29	0x3e18da31	0.14926983
30	0x3d9065e4	0.07050684
31	0x3c2addf6	0.010428896
32	0x3e6b89ae	0.2300174
33	0x3d88cd81	0.06679822
34	0xbe15a1f5	-0.14612563
35	0x3d6fb9ed	0.058526922
36	0x3e2342ab	0.159434
37	0xbe11390c	-0.14181918
38	0xbe0a1b5f	-0.13487004
39	0xbe069d0c	-0.13145846
40	0xbe17720c	-0.14789599
41	0x3d1436cd	0.036185075
42	0x3e44c6c5	0.1921645
43	0xbdfa5344	-0.12222913
44	0x3d4558d2	0.04818041
45	0xbcbabb99	-0.022794532
46	0xbe3e9381	-0.18610956
47	0xbdf2a5c7	-0.11848026
48	0x3c3b73fe	0.011441229
49	0xbe289244	-0.16462046
50	0x3b044796	0.002018427
51	0x3e3e8f89	0.18609442
52	0xbe037fc4	-0.12841707
53	0xbe1d1f4a	-0.15343967
54	0x3d4c85ea	0.049932398
55	0xbcd502dc	-0.02600234
56	0xbe38f609	-0.18062605
57	0xbdf2d549	-0.11857087
58	0xbdfc723e	-0.123264775
59	0x3d65511b	0.05598555
60	0x3d3e1402	0.0464058
61	0xbdfd6ff6	-0.123748705
62	0xbe497e56	-0.196771
63	0x3dcc2356	0.09967677
64	0x3cd359ff	0.02579975
65	0x3d175841	0.0369494
66	0xbe2e724c	-0.17035788
67	0xbe22ff55	-0.15917714
68	0x3bff0ae7	0.007783282
69	0x3d35db1b	0.04439841
70	0x3e5ed046	0.21759138
71	0x3da52085	0.08062843
72	0xbe07afa0	-0.1325059
73	0x3e467af2	0.19382837
74	0xbe0dce77	-0.13848291
75	0xbe23631f	-0.1595578
76	0x3e548483	0.20753674
77	0x3da91312	0.082555905
78	0xbe03947c	-0.12849611
79	0x3d4ccccc	0.049999997
80	0x3d205a8a	0.039148845
81	0xbde968c7	-0.11396938
82	0x3d0cdae0	0.034388423
83	0xbe296f91	-0.16546465
84	0x3e3e74e3	0.18599276
85	0x3e8ca538	0.27469802
86	0x3d2b0a93	0.04175813
87	0x3e0ea33e	0.1392946
88	0xbe1b33cb	-0.15156476
89	0xbe1afb84	-0.15135008
90	0xbdfaca6c	-0.1224564
91	0x3ce364cc	0.027758025
92	0x3d4f3928	0.050591618
93	0xbdf35399	-0.11881179
94	0x3ca63928	0.020290926
95	0x3d59bf68	0.053161055
96	0x3e25e49a	0.16200486
97	0xbb337955	-0.0027385552
98	0xbe086bd7	-0.13322388
99	0x3d4f3575	0.05058809
100	0xbe0ede79	-0.13952054
101	0x3d443ba3	0.047908437
102	0x3ddf787e	0.10911654
103	0xbe11364a	-0.14180866
104	0x3e14e59b	0.14540713
105	0x3c0e4f35	0.008685877
106	0x3c816618	0.015795752
107	0x3e13ff19	0.14452781
108	0x3e463047	0.19354354
109	0x3d70ed09	0.058819804
110	0xbe1826f1	-0.14858605
111	0x3e843d26	0.25827903
112	0xbe26774a	-0.16256443
113	0x3d8682a5	0.06567887
114	0xbe1ec6cf	-0.15505527
115	0xbe2ec890	-0.17068696
116	0xbe1df5ac	-0.15425748
117	0x3e24ab7e	0.16081044
118	0x3d576bfb	0.052593213
119	0x3e08bf4a	0.13354221
120	0xbdd1b09f	-0.10238766
121	0xbe0015dc	-0.12508339
122	0xbe019bca	-0.12657085
123	0xbe0fb903	-0.1403542
124	0x3dd910e5	0.105989255
125	0x3d02b3c2	0.03190971
126	0xbe07d9df	-0.13266705
127	0xbdf625b0	-0.12018907
128	0x3d186b1d	0.037211526
129	0x3da9ae5a	0.08285208
130	0xbdfa0a33	-0.122089766
131	0x3e4402dd	0.19141717
132	0xbe0c98f0	-0.13730216
133	0xbd1af15c	-0.037827834
134	0x3d6320ec	0.05545132
135	0x3d0ef73b	0.034903746
136	0xbe225454	-0.15852481
137	0xbd545d76	-0.051846944
138	0x3e036f52	0.12835434
139	0x3e2d2f2c	0.16912526
140	0x3d171660	0.036886573
141	0x3d57ca4e	0.052683167
142	0x3e072b52	0.13200119
143	0xbe2f215a	-0.17102566
144	0x3cf804ca	0.030275721
145	0x3d590c7e	0.05299043
146	0xbe1a0770	-0.150419
147	0xbdddfa78	-0.10838789
148	0xbe082731	-0.132962
149	0xbdfaf069	-0.12252886
150	0xbdd80305	-0.10547451
151	0x3d5ec2c8	0.054384977
152	0x3c90c470	0.017671794
153	0x3d7620c7	0.060089853
154	0x3c9d7759	0.019221948
155	0xbe269330	-0.16267085
156	0xbe926d1f	-0.28598878
157	0xbe2cebd3	-0.16886835
158	0x3d664717	0.05622014
159	0xbdee60d9	-0.11639566
160	0xbe2e74d7	-0.17036758
161	0x3d21e0e0	0.039521098
162	0xbe059716	-0.13045916
163	0x3e65bd4b	0.22435491
164	0xbdc904c1	-0.0981536
165	0xbe051fc3	-0.13000397
166	0xbe26b27d	-0.16279025
167	0xbe35deb0	-0.1776073
168	0xbb39ac87	-0.0028331594
169	0xbd62761e	-0.055288427
170	0x3e9156ae	0.28386444
171	0x3e99a125	0.30005756
172	0x3d3c6f6c	0.046004698
173	0xbdfce40e	-0.123481855
174	0x3ddfcb9e	0.10927509
175	0x3db11976	0.086474344
176	0xbdf493fc	-0.11942288
177	0x3d59ef86	0.053206943
178	0x3d350440	0.044193506
179	0xbcd49e1f	-0.025954304
180	0xbe314392	-0.17310932
181	0x3ccb531f	0.024819909
182	0x3e655069	0.22393955
183	0x3d61a1a5	0.055085797
184	0xbc43f137	-0.011959366
185	0xbe13e7f4	-0.14443952
186	0x3b8abe53	0.004234114
187	0xbe203405	-0.15644844
188	0xbe688726	-0.22707805
189	0xbea42f65	-0.3206741
190	0xbea7f050	-0.3280053
191	0x3cb867ac	0.022510372
192	0xbe215fea	-0.15759245
193	0x3c98fd96	0.018675607
194	0xbd3e36a1	-0.046438817
195	0x3c6ae95f	0.014337867
196	0xbe07dc9b	-0.13267748
197	0xbe70aa49	-0.23502459
198	0x3e178801	0.14797975
199	0x3be03f4e	0.006843484
200	0xbe4856d5	-0.19564374
201	0xbe10b1b2	-0.14130285
202	0xbece523e	-0.4029712
203	0xbe13c5d3	-0.14430933
204	0x3e2c9758	0.16854608
205	0xbe1b1b6e	-0.15147182
206	0x3de9f3b6	0.11423437
207	0xbe017703	-0.12643056
208	0xbdfebd6b	-0.12438472
209	0x3c486423	0.012230906
210	0xbdc9bf4d	-0.09850941
211	0x3cd5744d	0.026056433
212	0xbe7a3c9a	-0.2443718
213	0xbdee85ed	-0.11646638
214	0x3e0a4c8e	0.13505766
215	0xbb4f92ea	-0.003167326
216	0xbdf3b510	-0.11899769
217	0xbe096848	-0.13418686
218	0xbe10e613	-0.14150266
219	0xbe1e6d46	-0.15471372
220	0xbe18bc62	-0.14915612
221	0x3d3391e9	0.043840323
222	0xbdec3262	-0.11533047
223	0xbe0b1cd6	-0.13585219
224	0xbd17812c	-0.036988422
225	0x3d5a74ff	0.053334232
226	0xbe09e93d	-0.1346788
227	0xbdbe42a2	-0.09290053
228	0xbe8cf496	-0.27530354
229	0x3cf3298a	0.029682893
230	0xbe11fbba	-0.14256182
231	0x3c7359a7	0.014852918
232	0xbe407c4f	-0.1879742
233	0x3dd9a654	0.10627428
234	0x3d27e90e	0.040993743
235	0x3d057d7b	0.03259037
236	0x3c467c34	0.012114573
237	0xbe051062	-0.12994531
238	0xbe246374	-0.16053563
239	0xbc6bd9b8	-0.01439517
240	0x3ca00c13	0.019537007
241	0x3bbd454f	0.0057760845
242	0xbdfe04da	-0.12403269
243	0xbddd523e	-0.10806702
244	0x3ba810f5	0.0051289746
245	0xbe02e028	-0.12780821
246	0xbe09f4b2	-0.1347225
247	0x3d8751ce	0.066074
248	0xbe08f9c5	-0.1337653
249	0xbe007ab4	-0.12546808
250	0x3d2d9c65	0.042385478
251	0x3cd36305	0.025804052
252	0xbe041f10	-0.12902474
253	0xbe0f7bb0	-0.14012027
254	0xbe39ce10	-0.18145013
255	0xbcdbe748	-0.026843682

q2.0.weight f4 [256, 21]
0	0x3e6a3678	0.2287234
1	0x3dde39c5	0.108508624
2	0x3de7f511	0.113260396
3	0xbea783f3	-0.32717857
4	0xbc24dd1a	-0.01006248
5	0xbe1945c7	-0.14968024
6	0x3ddc63d8	0.10761231
7	0xbb8081bc	-0.0039217155
8	0xbda87462	-0.08225323
9	0xbddadf4a	-0.1068712
10	0x3e0de87e	0.1385822
11	0xbe4a6ada	-0.19767323
12	0x3e1c9937	0.15292822
13	0xbe16432f	-0.14674066
14	0xbdc33f38	-0.095335424
15	0xbe007c7d	-0.12547489
16	0xbe24c616	-0.16091189
17	0x3d5f14bc	0.054463133
18	0x3e87f60a	0.265549
19	0xbdd92654	-0.10603014
20	0x3e0720fb	0.13196175
21	0xbe1bd575	-0.15218146
22	0x3e54a3d9	0.20765628
23	0x3dec3a08	0.11534506
24	0xbe3dbec4	-0.18529803
25	0xbe07e312	-0.13270214
26	0x39c5edc7	0.00037751926
27	0x3d6387e6	0.055549525
28	0xb998d992	-0.00029153802
29	0xbde17ac1	-0.110097416
30	0x3b9cd641	0.0047862832
31	0xbd960eb7	-0.073270254
32	0x3e0dbd8d	0.13841839
33	0x3d8d523a	0.06900449
34	0xbca7cc08	-0.020483032
35	0xbcaec6f8	-0.02133511
36	0x3d349f7c	0.04409741
37	0x3b5cad80	0.003367275
38	0xbd3dfc04	-0.04638292
39	0x3ded35fd	0.11582563
40	0xbd10b926	-0.03533282
41	0xb939c3e8	-0.00017715956
42	0xbe539ac9	-0.20664515
43	0xbe4151aa	-0.18878809
44	0x3e523796	0.20529017
45	0x3e30a167	0.1724907
46	0x3dedcbbf	0.11611127
47	0x3d7f9098	0.062393755
48	0xbdb97928	-0.09056312
49	0xbd067fee	-0.032836847
50	0x3df01f0f	0.11724674
51	0x3e12bb79	0.14329328
52	0x3dfd19ce	0.123584375
53	0xbe2863f4	-0.16444379
54	0xbe4add7b	-0.1981105
55	0xbe209cb2	-0.15684775
56	0xbdd4b478	-0.10385984
57	0xbd87c1f8	-0.066287935
58	0xbdc83482	-0.0977564
59	0x3db827c6	0.08991961
60	0x3e38c4ec	0.1804387
61	0xbde614a2	-0.11234404
62	0x3e896baa	0.26839954
63	0x3e478b20	0.19486666
64	0x3cae497d	0.021275276
65	0xbe606cf6	-0.21916565
66	0x3e95478e	0.29156154
67	0xbe5b78ef	-0.21432851
68	0x3d786823	0.060646188
69	0x3dd4b115	0.10385338
70	0x3b21481e	0.0024609636
71	0xbe2a1335	-0.1660889
72	0xbe084629	-0.13308014
73	0xbe035777	-0.12826334
74	0xbd525edc	-0.051359996
75	0xbdb68b14	-0.08913246
76	0x3d971c86	0.07378487
77	0x3cb0b490	0.021570474
78	0x3d5d01bc	0.053956732
79	0x3e14a871	0.1451738
80	0x3e25f101	0.16205217
81	0x3e527cd9	0.20555438
82	0x3e46d2e0	0.1941638
83	0xbe1ca665	-0.1529785
84	0xbe4a61cc	-0.19763869
85	0xbcf78d6b	-0.0302188
86	0xbd1c45b2	-0.038152404
87	0x3e2e9a30	0.17051005
88	0xbd748305	-0.059695262
89	0x3e10cd1e	0.14140746
90	0x3e130606	0.14357767
91	0x3c836f14	0.016044177
92	0x3e3e56c3	0.18587784
93	0x3d116958	0.035500854
94	0xbe59b444	-0.21260172
95	0xbd4158c8	-0.04720381
96	0xbe2ce309	-0.16883482
97	0xbd03f648	-0.032217294
98	0x3e36baad	0.17844649
99	0x3d9d000a	0.07666023
100	0x3e225973	0.15854435
101	0x3cbc4ae8	0.022984937
102	0xbdb54064	-0.08850172
103	0x3d263eca	0.040587224
104	0xbcb130f8	-0.021629795
105	0x3df8ae5e	0.12142633
106	0x3d25574b	0.040366452
107	0xbe4e183d	-0.20126434
108	0x3d82443c	0.06360671
109	0xbe3cb30a	-0.18427673
110	0x3d37b39c	0.044849023
111	0x3d12fb3c	0.035884127
112	0x3bdf640f	0.006817348
113	0xbc3813a5	-0.011235152
114	0x3e00d1c2	0.12580016
115	0xbdc2a2c5	-0.09503702
116	0x3e4d805c	0.20068496
117	0xbd702680	-0.058630466
118	0xbe5a90fc	-0.2134437
119	0xbc5e6e30	-0.013576075
120	0xbdb049f2	-0.08607854
121	0xbe3e8926	-0.18607005
122	0x3cc93508	0.02456142
123	0xbe566187	-0.20935641
124	0xbc978616	-0.018496554
125	0x3e81a4d0	0.25321054
126	0xbb527634	-0.0032113912
127	0x3da2353f	0.07920312
128	0x3cdf9451	0.027292402
129	0xbe2e1506	-0.17000207
130	0x3db5925c	0.088658065
131	0xbe5df013	-0.21673612
132	0xbd74abe0	-0.059734225
133	0x3dccf36e	0.10007368
134	0xbe083184	-0.13300139
135	0x3d638a8f	0.05555206
136	0xbe4b5b8c	-0.19859141
137	0x3e5a7cc9	0.21336664
138	0x3dc0152e	0.0937904
139	0xbe359707	-0.17733394
140	0xbce73ee0	-0.028228223
141	0xbd2471c0	-0.040147543
142	0x3d43ab1c	0.047770604
143	0x3e478069	0.19482578
144	0xbe50d676	-0.2039431
145	0x3e69963f	0.2281122
146	0xbe8dba80	-0.2768135
147	0xbd9ad617	-0.07560366
148	0xbb5ee396	-0.0034010164
149	0x3cfbb969	0.030728059
150	0x3e32aaa8	0.17447913
151	0xbcc27a41	-0.023739936
152	0x3e1f1708	0.1553613
153	0x3d647b80	0.05578184
154	0x3e1a49b5	0.1506718
155	0xbe174e0f	-0.1477587
156	0x3d2eda93	0.042688917
157	0x3e5a0ac8	0.21293175
158	0xbe75ff2f	-0.24023126
159	0xbd98c43c	-0.07459304
160	0x3e37c8c5	0.17947681
161	0xbdcc4789	-0.09974582
162	0x3c700980	0.0146507025
163	0x3cea9c98	0.028639123
164	0xbe1d5e76	-0.15368065
165	0xbca5f8ce	-0.02026024
166	0x3e327173	0.1742609
167	0x3d0b770b	0.034049075
168	0xbd7b9f24	-0.061431065
169	0x3e11fbdf	0.14256237
170	0xbdd78429	-0.105232544
171	0x3d0d7c1e	0.034542195
172	0xbcd8f93c	-0.026486032
173	0x3e4407dd	0.19143625
174	0xbe001bd3	-0.12510614
175	0x3ca034f6	0.019556504
176	0xbc578d38	-0.013156228
177	0x3dfe661a	0.12421818
178	0x3d94bb2d	0.072622634
179	0xbe4e9875	-0.20175345
180	0xbdc7641d	-0.09735892
181	0x3e26aa69	0.16275944
182	0x3e28b283	0.16474347
183	0x3d513184	0.051072612
184	0xbddd0cd6	-0.10793464
185	0x3e06cf39	0.13164987
186	0xbd29cf72	-0.0414576
187	0x3e5ee267	0.21766053
188	0x3e4d1655	0.2002805
189	0xbe407da2	-0.18797925
190	0x3e28b9b1	0.16477086
191	0xbdd1c4ea	-0.102426365
192	0xbe850b6e	-0.25985283
193	0xbd0cf3f6	-0.034412347
194	0xbe39f7b5	-0.18160899
195	0xbe3f8c0e	-0.1870577
196	0xbe015179	-0.12628736
197	0xba115686	-0.0005544204
198	0x3e1364c5	0.1439391
199	0x3e6a9b71	0.22910859
200	0x3e39ce96	0.18145213
201	0xbe002b88	-0.12516606
202	0xbd993dba	-0.074824765
203	0x3dbde336	0.09271853
204	0x3e24ba13	0.16086607
205	0xbc91a640	-0.01777947
206	0xbcfa3370	-0.030542105
207	0xbd21d2b2	-0.039507575
208	0x3c363f9b	0.011123563
209	0x3e6bd54f	0.2303059
210	0x3e58ff18	0.2119106
211	0xbd52fc74	-0.05151029
212	0x3bfcbb93	0.0077127903
213	0xbdd57475	-0.10422603
214	0xbe7f48e0	-0.24930143
215	0x3deb3db9	0.11486382
216	0x3b14c2c8	0.0022699106
217	0x3c95f9fa	0.018307675
218	0x3c46dbc1	0.012137354
219	0xbdeeb53a	-0.1165566
220	0x3e025d87	0.1273099
221	0xbd87eb76	-0.066367075
222	0x3e16f5d7	0.14742218
223	0x3e321da7	0.17394124
224	0x3e18ab17	0.14909016
225	0xbdf2c618	-0.1185419
226	0x3daa4bbe	0.08315228
227	0x3b9fbbe0	0.0048746914
228	0x3d329956	0.043603264
229	0x3e5377f2	0.20651224
230	0x3b2004d9	0.0024416952
231	0xbe54bc8b	-0.20775048
232	0x3d94e55d	0.0727031
233	0x3e4bcb88	0.1990186
234	0x3de8f401	0.11374665
235	0x3e1135f8	0.14180744
236	0xbdd4faa6	-0.1039937
237	0xbe11dacd	-0.14243622
238	0x3e1dd1fd	0.15412135
239	0x3e4f37e3	0.20236163
240	0xbd4b0a4e	-0.049570374
241	0xbe2f0b6e	-0.17094204
242	0x3e3f7053	0.18695192
243	0x3caa8868	0.020816997
244	0xbe108af2	-0.14115503
245	0xbdd3c89e	-0.10340999
246	0x3df7bc7e	0.12096499
247	0xbe181e9d	-0.14855428
248	0x3e3e80cd	0.18603821
249	0x3d2a26dc	0.041540965
250	0xbe2b44cc	-0.16725463
251	0x3c4e2e24	0.012584243
252	0xbe4807ab	-0.19534175
253	0xbd1987d5	-0.037483055
254	0xbd883f5f	-0.06652712
255	0xbcf5ccfd	-0.030004973

q2.0.bias f4 [256]
0	0xbe029455	-0.12751897
1	0xbd9d214d	-0.07672367
2	0x3ce196d0	0.027537733
3	0x3ee0940c	0.4386295
4	0xbcabea3b	-0.020985713
5	0x3ede2e13	0.43394527
6	0x3d471446	0.04860332
7	0xbc01da38	-0.007925563
8	0x3e8a2a96	0.26985615
9	0x3e9fe92d	0.31232587
10	0x3ed4cef7	0.41564152
11	0xbe265219	-0.16242255
12	0x3ee399cb	0.44453272
13	0x3f038c95	0.51386386
14	0x3f0ad556	0.54231775
15	0x3e3d2161	0.18469764
16	0xbd554f98	-0.05207786
17	0x3e35a732	0.17739561
18	0x3ee8e33e	0.45485872
19	0xbde2c244	-0.110722095
20	0x3dc9b32d	0.09848628
21	0x3e8ffbd9	0.28121832
22	0x3e076e4c	0.13225669
23	0x3e95095e	0.2910871
24	0x3ec4a275	0.38405195
25	0xbc45f4b1	-0.012082265
26	0x3f101f91	0.56298167
27	0xbd63cbf9	-0.055614445
28	0x3edf188a	0.4357341
29	0xbdeb5594	-0.11490932
30	0xbe2c2521	-0.16811039
31	0xbd8b493d	-0.068010785
32	0x3eda520f	0.4264073
33	0x3f007062	0.5017148
34	0xbce0216c	-0.027359687
35	0xbe0cfe11	-0.13768794
36	0xbd9acbbb	-0.0755839
37	0x3e890a88	0.26765847
38	0x3ef5a81d	0.47979823
39	0x3f06ae94	0.52610135
40	0x3f1e1fcf	0.61767286
41	0xbdf50382	-0.1196356
42	0x3ee67a6f	0.45015284
43	0xbe37d286	-0.17951402
44	0x3e9f767d	0.31145087
45	0x3e372230	0.17884135
46	0x3e5cabf8	0.21549976
47	0x3f32702a	0.697024
48	0x3f0d4a39	0.5519138
49	0xbc97bfda	-0.0185241
50	0x3cebe2d4	0.028794684
51	0xbe285322	-0.16437963
52	0xbdef3aa2	-0.11681105
53	0xbdf7b776	-0.12095539
54	0x3f0bd572	0.54622567
55	0x3d89477c	0.06703088
56	0x3d420fed	0.04737847
57	0x3e3e8947	0.18607055
58	0xbe3534d4	-0.17695934
59	0x3e80565d	0.2506589
60	0x3eb42637	0.35185406
61	0x3eaf91bf	0.34290883
62	0x3eea7366	0.45791167
63	0xbd28a982	-0.04117728
64	0xbdf784fa	-0.1208591
65	0x3d8e95b2	0.06962146
66	0x3e85a8e6	0.26105422
67	0xbd84ab72	-0.06478013
68	0x3f094638	0.5362277
69	0x3e4377e9	0.19088711
70	0x3eb6f609	0.35734585
71	0x3df9326d	0.12167821
72	0xbe2d9e1f	-0.1695485
73	0x3e98c855	0.2984034
74	0x3e905647	0.28190824
75	0xbe1e3574	-0.15450078
76	0x3e814733	0.25249633
77	0x3edc32ec	0.430076
78	0xbe0a21fc	-0.13489527
79	0x3eb911d3	0.3614641
80	0x3f04cbdf	0.5187358
81	0xbddb1052	-0.10696472
82	0xbe0b30eb	-0.1359288
83	0x3e63ab68	0.22233355
84	0x3db07b21	0.08617235
85	0x3ed55d83	0.41672906
86	0xbe4da2c4	-0.20081621
87	0x3da92d79	0.08260626
88	0xbe5e7a0e	-0.21726248
89	0xbe08e35f	-0.13367985
90	0x3bfa608a	0.007640903
91	0xbe3094ab	-0.17244212
92	0xbe44d73e	-0.19222733
93	0x3e75c057	0.23999153
94	0x3e8bccf8	0.27304816
95	0x3c877a83	0.01653791
96	0xbdb8bcaf	-0.090203635
97	0xbe2c5357	-0.16828667
98	0x3e400681	0.18752481
99	0x3e7131cd	0.23554154
100	0xbdfe5b88	-0.12419802
101	0x3eac0ae2	0.33602053
102	0x3e1ab275	0.15107138
103	0xbe20f886	-0.15719804
104	0x3ef44761	0.47710708
105	0x3f14990a	0.5804602
106	0x3d4e5432	0.050373264
107	0xbddfa4b9	-0.1092009
108	0x3f1784ea	0.59187186
109	0x3e4a2d20	0.19743776
110	0x3efe154c	0.49625623
111	0x3f0eca7c	0.55777717
112	0xbe3f3a5e	-0.18674609
113	0xbe737b54	-0.23777515
114	0x3ee7a43a	0.45242482
115	0x3f27afe7	0.6550278
116	0x3f2e3d3b	0.6806218
117	0x3ef6b87b	0.48187622
118	0x3e2b9b25	0.16758402
119	0x3edc9ac4	0.43086827
120	0x3e9aad54	0.30210364
121	0x3f1483ad	0.5801342
122	0x3e79aa2a	0.24381319
123	0xbe5ea6c2	-0.217433
124	0x3eadc644	0.33940327
125	0x3ea58e47	0.32335111
126	0x3f147f6c	0.5800693
127	0x3e9ed321	0.31020454
128	0x3ee6c2c0	0.45070457
129	0xbd9a9768	-0.0754841
130	0xbe68ccd3	-0.22734384
131	0x3e81ca69	0.2534974
132	0x3e881478	0.26578116
133	0x3e62b773	0.22140293
134	0x3eb7cab1	0.3589683
135	0x3ed72ee2	0.42027956
136	0x3ccf046f	0.025270669
137	0xbdda1865	-0.10649184
138	0xbde680a2	-0.112550035
139	0x3e84477f	0.25835797
140	0x3e8c643c	0.27420223
141	0x3eb3cc5d	0.35116854
142	0x3ebe948c	0.37222707
143	0x3da1ccf1	0.079004176
144	0x3daca36e	0.08429609
145	0x3e27c6d0	0.16384435
146	0x3ebc2cda	0.3675297
147	0x3e81674c	0.25274122
148	0xbe176c05	-0.147873
149	0x3ec42edd	0.38317004
150	0xbdeeda15	-0.116626896
151	0x3ecf236d	0.40456715
152	0x3ea29696	0.31755513
153	0xbdc85eee	-0.097837314
154	0x3d324e64	0.04353179
155	0x3eecaf02	0.4622727
156	0xbdbc9504	-0.0920811
157	0x3e5e2ace	0.21696016
158	0x3e3af247	0.18256484
159	0xbd958c60	-0.07302165
160	0xbdecabd7	-0.11556213
161	0xbe847cce	-0.25876468
162	0xbd7d3503	-0.061818134
163	0x3d297e97	0.04138049
164	0x3ded8c2f	0.115990035
165	0x3e0f35df	0.13985394
166	0xbe0a3b68	-0.13499224
167	0x3e0e8236	0.13916859
168	0xbdbca8df	-0.09211897
169	0x3eb51798	0.35369563
170	0xbda3cdba	-0.079982236
171	0x3ef09640	0.46989632
172	0x3ecb279d	0.3967866
173	0xbd1f3d74	-0.038876966
174	0xbcfc3008	-0.030784622
175	0x3ef398c3	0.47577485
176	0x3e4e45a6	0.20143756
177	0xbdefd0a0	-0.11709714
178	0x3e62b665	0.2213989
179	0x3efc014d	0.49219742
180	0x3eae6bf4	0.34066737
181	0x3ec9e881	0.394352
182	0x3f234f6f	0.6379308
183	0xbdec66fe	-0.11543082
184	0x3e4bcac8	0.19901574
185	0xbdddd6b1	-0.10831965
186	0x3ed044eb	0.4067758
187	0xbd45a64a	-0.04825429
188	0x3d76607f	0.06015062
189	0x3ed86f25	0.42272297
190	0x3e79c7a5	0.24392565
191	0xbe1a5a0f	-0.15073417
192	0x3e7e4a34	0.24832994
193	0x3e88bddb	0.26707348
194	0x3ed95518	0.42447734
195	0xbe181b09	-0.14854063
196	0x3dae9ec5	0.08526377
197	0x3edb0423	0.42776594
198	0x3f356712	0.708604
199	0x3e92be09	0.2866061
200	0x3e831ef8	0.25609565
201	0x3ee5b75c	0.44866455
202	0x3e0697fd	0.13143916
203	0xbd18d5b4	-0.03731318
204	0xbd93188e	-0.07182418
205	0x3ecb4a0a	0.39704925
206	0x3ed4c381	0.41555408
207	0xbe16c547	-0.14723693
208	0x3dd5ff13	0.10449042
209	0x3f20cf34	0.62816167
210	0xbe0eef73	-0.1395853
211	0x3e2d48ab	0.16922252
212	0x3e28f2df	0.16498898
213	0x3e8ff08d	0.28113213
214	0x3ef40c89	0.47665814
215	0x3e0396ef	0.12850545
216	0x3edf6d20	0.43637943
217	0x3ea45f19	0.32103804
218	0x3eb30f07	0.34972402
219	0x3f22ef87	0.6364674
220	0x3de6aead	0.112637855
221	0xbe4602f9	-0.19337071
222	0x3e5b007f	0.21386908
223	0xbb402bbd	-0.0029322945
224	0x3ed3e02d	0.4138197
225	0x3ebecb6f	0.37264583
226	0x3d912203	0.07086565
227	0xbe1027b7	-0.1407765
228	0x3ea7e11f	0.3278894
229	0xbdc2b26a	-0.09506686
230	0x3e86d64d	0.26335374
231	0x3ee1fe21	0.44139197
232	0x3f482e64	0.78195786
233	0xbe3e8af4	-0.18607694
234	0x3eb902ba	0.36134893
235	0xbdf75287	-0.12076288
236	0x3ec3c388	0.38235116
237	0x3ef5ffce	0.48046726
238	0xbd824131	-0.063600905
239	0x3f014515	0.50496036
240	0x3eafd643	0.34343156
241	0x3e2e4022	0.17016652
242	0xbdd2fc97	-0.10302084
243	0x3ea80c9a	0.32822114
244	0x3cff9e3a	0.031203378
245	0xbd82861a	-0.06373234
246	0x3f0c4ca1	0.54804426
247	0x3e97f30e	0.29677624
248	0x3e87a9d7	0.26496765
249	0x3eb62fc9	0.35583332
250	0xbde2f28c	-0.110814184
251	0xbdd5e2dd	-0.10443661
252	0x3de272d2	0.110570565
253	0x3da45890	0.080247045
254	0x3f1e4b13	0.61833304
255	0x3e93395b	0.28754696
