src/checkpoints/sac_actor_250.pth (torch, 288452 bytes, 6 tensors)

net.0.weight f4 [256, 18]
0.05277816 0.078014314 -0.102355465 0.39373252 0.3909281 -0.18331721 -0.14024511 0.0870501
0.19360308 0.12867439 -0.13557632 0.030120006 -0.046057716 0.018616304 0.009108096 0.09894897
0.16483642 -0.0014541 0.042465758 0.025949558 -0.075773574 0.44385892 -0.035579596 0.5542613
-0.009380979 0.22747408 -0.32672295 -0.11282439 -0.008294114 0.08240618 -0.022329375 -0.10281277
-0.06112577 0.16411056 -0.2053134 0.013058633 -0.12577493 -0.15215807 -0.0019282079 -0.12988064
-0.11840659 -0.29123175 0.063909784 0.115296826 0.22409469 0.17961667 -0.2700783 -0.12763931
-0.01957041 0.08970626 0.020147845 0.2052625 -0.13963372 0.08078803 -0.020008335 0.0971928
-0.16182983 0.016358493 -0.359227 -0.36578527 0.16379997 -0.22756863 0.11335221 -0.28616235
-0.15470548 -0.07439551 0.22401805 -0.14669928 0.1565818 -0.03886023 0.08383675 0.19019665
-0.027283866 -0.067211814 0.051886797 0.5540597 0.23027317 0.12909149 -0.18876372 0.11346407
-0.020459913 -0.28278035 -0.3122187 0.17116483 -0.2089375 0.21391891 -0.038932785 0.13796727
0.11255436 0.19628452 -0.18608676 0.06652572 -0.28222618 0.28357637 0.37072706 -0.025877986
-0.24097371 0.31774065 -0.002798379 -0.014598349 -0.10225309 0.040536266 0.22957031 0.08043949
-0.086186126 0.20746632 0.16908328 0.19213955 0.048381675 0.113722906 -0.25584376 -0.08599764
0.2592464 0.099388115 -0.16609693 0.11551624 0.096895434 0.006717293 -0.47288305 0.21893612
0.073872104 0.1954299 0.0614738 -0.11291411 0.123424545 0.16494109 0.20113404 0.10752842
-0.22067122 -0.04815406 -0.2038996 -0.5070956 -0.35787728 -0.19200265 -0.19464643 -0.14726473
-0.17954463 -0.07970683 0.08287935 -0.19791698 -0.12531433 0.027217671 0.026455268 0.13340761
0.04719738 -0.0124251945 -0.32260033 0.042075787 0.19877124 0.2651567 0.23380978 0.21216708
0.04138621 -0.036231603 -0.29650414 -0.33160672 0.014744565 0.23464848 0.21072994 0.1811442
-0.11809246 0.10017471 -0.20285556 -0.12906878 0.14482495 0.3468024 -0.071912505 0.47700346
-0.039698828 -0.20315309 0.113735 0.1276056 -0.11086307 0.26795423 -0.045946106 -0.23268875
0.17106031 0.18337531 0.10178448 -0.18779281 -0.05788357 -0.08217986 -0.05960619 0.0018673831
0.0013451412 0.01664692 -0.3122766 0.096359245 0.12790567 0.10981935 -0.15697747 0.017579252
-0.2244289 -0.22542809 0.219765 0.05266811 0.23320909 0.055831805 -0.1850287 -0.078156374
0.19286475 0.22880651 -0.16907576 0.35031483 0.14922951 0.37399474 -0.16369717 -0.060840502
-0.03856744 -0.07160998 -0.12918875 0.17509584 0.14228423 -0.049353927 0.22788276 0.20077352
-0.19846107 -0.11346638 0.1361603 0.11945382 -0.31874514 -0.3445058 -0.032143556 -0.15092395
0.073197655 0.04308496 0.16465542 -0.0781276 0.123845056 -0.092779994 0.13091229 -0.052436188
-0.15589222 -0.16596952 0.08241714 0.09435316 -0.17755647 0.33954924 -0.15976737 0.2530084
0.062259328 0.16700613 -0.13727273 0.11820829 -0.335221 0.0032847044 0.06918354 0.23393609
0.1823863 0.05505149 -0.14240883 -0.16357107 -0.29961514 0.16069803 -0.30279496 -0.24390632
00000000: e92d 583d f8c5 9f3d be9f d1bd 4f97 c93e
00000010: ba27 c83e 82b7 3bbe 6a9c 0fbe 5347 b23d
00000020: e33f 463e 38c3 033e 85d4 0abe 3bbe f63c
00000030: 04a7 3cbd 3881 983c 203a 153c c2a5 ca3d
00000040: e1ca 283e 8097 beba 93f0 2d3d 2b94 d43c
00000050: 2d2f 9bbd 7a41 e33e e9bb 11bd 12e4 0d3f
00000060: aeb2 19bc f7ee 683e 3b48 a7be 7910 e7bd
00000070: 09e4 07bc 92c4 a83d 18ec b6bc 808f d2bd
00000080: 045f 7abd 990c 283e ad3d 52be e0f3 553c
00000090: 25cb 00be 53cf 1bbe ecbb fcba 6eff 04be
000000a0: 277f f2bd 541c 95be 22e3 823d be20 ec3d
000000b0: 1479 653e 6fed 373e b447 8abe e1b3 02be
000000c0: 2052 a0bc eab7 b73d 180d a53c 5530 523e
000000d0: 24fc 0ebe 3274 a53d 85e8 a3bc 050d c73d
000000e0: b8b6 25be 3f02 863c 9aec b7be 3548 bbbe
000000f0: 2ebb 273e c007 69be 3425 e83d df83 92be
00000100: 1d6b 1ebe ac5c 98bd fd64 653e 5638 16be
00000110: fb56 203e e82b 1fbd 9ab2 ab3d e9c2 423e
00000120: 6a82 dfbc 59a6 89bd 4087 543d dbd6 0d3f
00000130: bbcc 6b3e 8f30 043e 474b 41be da5f e83d
00000140: 8c9b a7bc 96c8 90be 21db 9fbe d545 2f3e
00000150: b6f3 55be 8f0d 5b3e fc77 1fbd 4b47 0d3e
00000160: e682 e63d cffe 483e 878d 3ebe a33e 883d
00000170: f37f 90be ec30 913e f0cf bd3e 12fe d3bc
00000180: d0c1 76be e7ae a23e 0265 37bb ea2d 6fbc
00000190: 116a d1bd 5b09 263d 7b14 6b3e 76bd a43d
000001a0: 5a82 b0bd 0d72 543e 2b24 2d3e 3bc0 443e
000001b0: dd2b 463d 8ee7 e83d f4fd 82be 881f b0bd
000001c0: f2bb 843e ff8b cb3d 5015 2abe c793 ec3d
000001d0: 1d71 c63d bd1c dc3b ba1d f2be ca30 603e
000001e0: 424a 973d c71e 483e f4cb 7b3d 833f e7bd
000001f0: 02c6 fc3d 51e6 283e 15f6 4d3e dc37 dc3d
00000200: a3f7 61be 313d 45bd 0fcb 50be 04d1 01bf
00000210: b13b b7be 589c 44be 6551 47be 91cc 16be
00000220: 8cda 37be 563d a3bd a6bc a93d c0aa 4abe
00000230: 6652 00be 98f7 de3c b8b8 d83c 019c 083e
00000240: 0a52 413d 0b93 4bbc df2b a5be a957 2c3d
00000250: b08a 4b3e 9ec2 873e d56b 6f3e 5442 593e
00000260: 9684 293d 9767 14bd 64cf 97be 5bc8 a9be
00000270: 3093 713c b147 703e 97c9 573e dd7d 393e
00000280: 76da f1bd 6628 cd3d 5eb9 4fbe 9b2a 04be
00000290: fe4c 143e 1690 b13e dd46 93bd cc39 f43e
000002a0: 3d9b 22bd 5d07 50be e5ed e83d 0bab 023e
000002b0: 2d0c e3bd 4c31 893e fc31 3cbd f645 6ebe
000002c0: 6f2a 2f3e bdc6 3b3e 6274 d03d c24c 40be
000002d0: 5317 6dbd ea4d a8bd 9f25 74bd fbc2 f43a
000002e0: 734f b03a 1f5f 883c b8e2 9fbe ff57 c53d
000002f0: b4f9 023e f8e8 e03d b4be 20be 5d02 903c
00000300: b1d0 65be 9fd6 66be 130a 613e 84ba 573d
00000310: 5dce 6e3e e4af 643d 2a78 3dbe 7310 a0bd
00000320: 567e 453e 414c 6a3e 3222 2dbe 775c b33e
00000330: 9fcf 183e 3d7c bf3e 3ba0 27be e433 79bd
00000340: e4f8 1dbd 41a8 92bd 0e4a 04be 534c 333e
00000350: f5b2 113e 5827 4abd 195a 693e 9397 4d3e
00000360: 6139 4bbe 1061 e8bd 9b6d 0b3e 34a4 f43d
00000370: 9032 a3be 1063 b0be f6a8 03bd cf8b 1abe
00000380: a7e8 953d db79 303d 6e9b 283e 5d01 a0bd
00000390: 7aa2 fd3d 7003 bebd df0d 063e 54c7 56bd
000003a0: 36a2 1fbe eaf3 29be 51ca a83d 3b3c c13d
000003b0: 5dd1 35be 66d9 ad3e 0f9a 23be 518a 813e
000003c0: a303 7f3d a803 2b3e 3991 0cbe 3017 f23d
000003d0: 16a2 abbe 3244 573b 1ab0 8d3d f18c 6f3e
000003e0: 79c3 3a3e ac7d 613d 9fd3 11be 2d7f 27be
000003f0: 2867 99be 068e 243e f107 9bbe 94c2 79be

net.0.bias f4 [256]
-0.099492356 0.25761694 0.119397216 0.1978324 0.1640848 0.30283737 -0.2552604 0.1281185
-0.026838789 0.1254252 0.2610856 0.20889261 -0.0036505007 0.004827747 0.05727522 0.10850695
-0.07346544 -0.25317985 -0.13781165 -0.22560677 -0.12802744 0.05353815 0.21525481 -0.041554313
-0.06291988 0.07680326 -0.11022969 -0.0764806 -0.037467342 0.23256646 0.048721187 0.11350829
0.1602788 -0.088305935 -0.2904379 -0.004802328 0.01754486 -0.12750416 -0.20221673 0.072901145
0.026017325 -0.12476048 0.23644032 -0.09742555 -0.012978567 -0.07147921 -0.0729308 0.083816215
0.09729989 0.19419286 -0.046735745 0.021835657 0.16388912 0.03856892 0.081485994 0.07915124
0.08005787 0.15012158 0.031296108 -0.18581611 -0.22494742 0.10121008 0.08017893 -0.15528682
-0.23008427 -0.004655543 -0.21274674 0.046479978 -0.028604284 0.113296755 0.24108817 0.1713086
0.12861893 -0.2303329 -0.06760609 0.1738645 -0.004938517 -0.0145482775 0.05872148 0.07989664
0.3325822 -0.08235963 0.13317196 0.19932605 0.003749532 0.009605721 -0.14276104 0.06816264
0.06300387 -0.16213344 0.09393209 0.24140976 -0.07236859 -0.2137655 -0.18391682 0.26455536
0.16135433 -0.060271822 0.057951756 -0.015534993 0.12167383 -0.035455946 -0.1008795 -0.1990447
-0.1420207 -0.100272074 0.011940818 -0.15474853 -0.020486705 0.020328255 0.1395478 0.079028696
-0.30663785 -0.2644176 -0.0767252 0.027488565 0.17094271 0.28778127 -0.19151103 0.1821897
0.09011725 -0.07767897 0.031092968 -0.017321615 -0.0785096 0.1370632 -0.098832406 -0.07296797
0.2053397 0.10717744 -0.2968787 0.15017775 -0.05204866 0.09261382 -0.14972064 -0.25203386
0.20739199 0.2152773 0.005267324 -0.31392416 0.2266456 -0.035765883 -0.052512523 0.048738815
-0.015189967 0.13498487 0.103815846 0.27530748 0.14171489 -0.17934531 -0.19301474 -0.20537606
-0.015605025 -0.14491059 0.16946444 0.16660911 -0.2549186 0.033721715 0.07401963 0.14068864
0.057514474 -0.06820673 0.011179652 -0.0986841 -0.10671718 0.085675605 0.23487964 0.016283412
0.057099126 0.047397472 0.05372371 0.061273165 0.04255921 0.050146535 0.34462932 -0.006802158
0.050883524 -0.06782921 0.026651204 -0.07267169 -0.22268759 -0.10158346 -0.10469493 -0.12571065
-0.13059925 -0.1343705 0.105231404 -0.007304679 0.16040552 -0.22635478 0.17953074 0.23997629
0.13266768 -0.103166394 0.13367406 -0.05159166 0.03875026 0.09143106 -0.0513621 -0.037025485
-0.08625337 -0.087939925 -0.007888671 0.038537797 -0.15200105 -0.07681131 -0.02853856 -0.05506735
0.26178822 0.08734736 0.031558566 -0.009167165 -0.2051377 -0.1347784 0.25468737 -0.12447305
0.122892424 -0.198525 0.14739777 0.010712957 0.30944157 -0.016759673 -0.014503427 -0.04629659
-0.21217579 -0.2997163 -0.0005499617 0.16445728 -0.299519 -0.09224885 -0.020135302 -0.038808204
-0.08316314 0.26169094 0.07825161 0.1777459 0.10281175 0.027040726 -0.03508418 0.07829547
-0.036716383 -0.04957305 0.13027208 -0.10809181 0.15731467 0.06620172 -0.11344686 0.11783918
0.30316195 -0.2762481 0.14267083 0.13320702 -0.00029844572 0.05619276 0.24330471 0.03431131
00000000: a6c2 cbbd 5ee6 833e 8786 f43d 9494 4a3e
00000010: d905 283e 800d 9b3e 7eb1 82be 7f31 033e
00000020: 05dd dbbc 776f 003e 03ad 853e f2e7 553e
00000030: 3d3d 6fbb 1432 9e3b 6c99 6a3d e438 de3d
00000040: 0c75 96bd caa0 81be 7f1e 0dbe 7605 67be
00000050: a019 03be d24a 5b3d c26b 5c3e db34 2abd
00000060: 23dc 80bd 074b 9d3d 1bc0 e1bd dca1 9cbd
00000070: 5b77 19bd e725 6e3e de8f 473d 0977 e83d
00000080: 2020 243e bed9 b4bd 47b4 94be d95c 9dbb
00000090: 3dba 8f3c 7390 02be e711 4fbe 324d 953d
000000a0: 4922 d53c 6c82 ffbd 691d 723e 0c87 c7bd
000000b0: 0ea4 54bc b163 92bd be5c 95bd d6a7 ab3d
000000c0: 2a45 c73d 7eda 463e fb6d 3fbd b1e0 b23c
000000d0: 8dd2 273e 72fa 1d3d 21e2 a63d 0c1a a23d
000000e0: 61f5 a33d 79b9 193e 5930 003d 9446 3ebe
000000f0: 9e58 66be 3b47 cf3d da34 a43d 8203 1fbe
00000100: 369b 6bbe 868d 98bb 48da 59be ca61 3e3d
00000110: 8853 eabc 2108 e83d d1df 763e 866b 2f3e
00000120: aeb4 033e 63dc 6bbe 1075 8abd 8909 323e
00000130: 49d3 a1bb e65b 6ebc ef85 703d d9a0 a33d
00000140: 3748 aa3e 2aac a8bd 3b5e 083e 211c 4c3e
00000150: b5ba 753b 5061 1d3c f32f 12be db98 8b3d
00000160: 2c08 813d 4f06 26be 785f c03d 1f34 773e
00000170: fc35 94bd 58e5 5abe b154 3cbe cd73 873e
00000180: 123a 253e 96df 76bd d25e 6d3d 7c86 7ebc
00000190: 2130 f93d 413a 11bd e999 cebd 60d2 4bbe
000001a0: e06d 11be 725b cdbd 6ca3 433c 6676 1ebe
000001b0: bcd3 a7bc 7187 a63c 9ee5 0e3e ccd9 a13d
000001c0: a3ff 9cbe be61 87be 1a22 9dbd b32f e13c
000001d0: 9b0b 2f3e 1158 933e 781b 44be f08f 3a3e
000001e0: 658f b83d 2716 9fbd aeb6 fe3c 0fe6 8dbc
000001f0: a4c9 a0bd 4c5a 0c3e a568 cabd 3b70 95bd
00000200: 9244 523e d87f db3d 7c00 98be 32c8 193e
00000210: fa30 55bd 51ac bd3d 5e50 19be 950a 81be
00000220: 915e 543e a771 5c3e 8499 ac3b abba a0be
00000230: c915 683e 3f7f 12bd 5f17 57bd 5aa2 473d
00000240: 57df 78bc 7939 0a3e 679d d43d 1af5 8c3e
00000250: b51d 113e 4ca6 37be a8a5 45be 1a4e 52be
00000260: 38ac 7fbc 7163 14be 1688 2d3e 949b 2a3e
00000270: b184 82be c81f 0a3d 9b97 973d af10 103e
00000280: 4c94 6b3d f8af 8bbd dc2a 373c e41a cabd
00000290: 898e dabd b176 af3d 4a84 703e ca64 853c
000002a0: c6e0 693d da23 423d 650d 5c3d 92f9 7a3d
000002b0: 9152 2e3d 7466 4d3d 4173 b03e a3e4 debb
000002c0: 3e6b 503d 0aea 8abd a053 da3c e5d4 94bd
000002d0: 3708 64be fd0a d0bd 4c6a d6bd 4bba 00be
000002e0: cfbb 05be 6c98 09be 9083 d73d 175c efbb
000002f0: 5841 243e 8cc9 67be e8d6 373e 58bc 753e
00000300: 09da 073e e748 d3bd dae1 083e c751 53bd
00000310: 98b8 1e3d 3540 bb3d 1161 52bd 09a8 17bd
00000320: 9ba5 b0bd d919 b4bd 7c3f 01bc cfd9 1d3d
00000330: 2aa6 1bbe 404f 9dbd b3c9 e9bc 4d8e 61bd
00000340: 1b09 863e 2ce3 b23d 8e43 013d e031 16bc
00000350: 9e0f 52be 5903 0abe 6266 823e baeb febd
00000360: 06af fb3d 234a 4bbe 71ef 163e 6685 2f3c
00000370: 206f 9e3e 954b 89bc c89f 6dbc 7ea1 3dbd
00000380: 9c44 59be 6a74 99be 4e2b 10ba 7d67 283e
00000390: 8e5a 99be f7ec bcbd caf2 a4bc 5af5 1ebd
000003a0: 7051 aabd 5bfc 853e 6142 a03d 0503 363e
000003b0: f78e d23d 8384 dd3c 6eb4 0fbd 6059 a03d
000003c0: eb63 16bd 1c0d 4bbd 0b66 053e 3d5f ddbd
000003d0: 1917 213e c494 873d d456 e8bd ab55 f13d
000003e0: 0b38 9b3e 6470 8dbe 4d18 123e 6c67 083e
000003f0: b578 9cb9 612a 663d df24 793e 048a 0c3d

net.2.weight f4 [256, 256]
0.026006225 0.04282353 -0.022311475 -0.013483951 0.044322792 0.047797184 -0.0024343715 -0.038879443
-0.043866523 -0.030227227 -0.03566049 -0.006177784 -0.019462205 -0.011409161 -0.043720074 0.033469643
-0.05778621 -0.042330816 -0.041282162 -0.05599451 0.019774683 -0.007464657 -0.07297113 0.029530155
-0.06421958 0.036490496 -0.058420688 0.009783169 0.0087984875 -0.023885556 -0.021452524 0.017966885
-0.025224203 0.030799616 0.024348292 0.011324646 -0.030446798 -0.019240718 -0.029109094 0.003631509
-0.03585036 0.045667987 -0.019372554 -0.034159116 -0.0193876 0.02472946 -0.054082904 0.031225285
0.0012955057 0.0013782835 0.039622046 0.028946353 0.051231433 -0.009854193 -0.05675137 0.026374476
0.023934858 -0.05353324 0.040705483 0.023487223 0.026055079 -0.05325268 -0.028434029 0.0068004527
0.02088592 -0.047993477 -0.021461999 -0.059257872 -0.018474167 -0.015255169 0.015366751 -0.014617387
-0.013249102 -0.020863472 -0.009435027 -0.044677183 0.010393971 0.036090247 -0.0287234 0.015711667
-0.017485427 -0.06628755 0.03923311 -0.012662172 -0.025224142 0.03514626 -0.04626142 -0.001956663
0.012185316 0.038786996 0.061234202 0.043102406 -0.05960376 -0.006279206 0.037130352 -0.052094728
-0.07213603 -0.039596472 -0.06517329 -0.050509706 0.049280632 0.0013743151 -0.035098843 -0.031398196
0.016644089 0.012982464 0.0054971604 0.028636152 -0.055527113 -0.043559466 0.013483151 -0.05329133
-0.05752605 0.02444299 0.022559168 -0.02246327 0.033051707 -0.019996494 -0.016915822 -0.066935815
0.042798698 -0.038529858 -0.056752373 0.034523364 -0.031846188 0.007857807 -0.010472797 -0.001897515
-0.040089846 0.038531236 -0.031548955 0.02028578 -0.04178966 -0.04347208 -0.041609094 0.026546009
-0.03746039 -0.02749639 -0.07218774 -0.018709496 -0.023958698 0.011815847 -0.025460677 -0.023108007
-0.008490812 -0.043339256 -0.026589682 -0.037524246 -0.06918109 0.02739156 -0.04041489 0.035484206
-0.06059903 -0.055956908 -0.034394544 0.02580083 -0.060181398 -0.06139394 0.0016592923 -0.059138075
0.015404835 0.041245773 0.026966931 0.00026732078 0.008359144 0.03509689 0.013218901 0.0059153866
-0.02539458 -0.044141352 0.030764347 -0.060013603 -0.01122383 -0.03927397 0.01180489 0.060492888
-0.011001722 0.014576686 -0.05238553 -0.05983712 -0.01110578 -0.0078609735 -0.081954435 -0.04681704
0.00083840196 0.044292502 -0.029722326 -0.01686766 -0.0025480206 -0.00822894 0.010921407 -0.052703857
-0.055011928 -0.0064757895 0.035762988 -0.06269179 0.020273287 -0.03489948 0.012180976 -0.027654016
-0.04204598 -0.027834065 -0.06881729 0.047271963 0.03157199 -0.006011552 0.017189622 -0.048641767
0.045543857 -0.01590114 0.0019540414 0.029694838 -0.068415925 -0.054369282 -0.048081476 -0.03827754
-0.032816667 -0.039895285 -0.047940273 -0.038454987 0.0472978 0.011905186 0.017653856 0.0077264532
-0.05730281 -0.022006907 0.031464417 0.0018786946 0.005799235 0.040771388 -0.042859767 -0.06552011
0.02149988 -0.025147123 0.026964232 -0.010645225 -0.06097816 0.04260547 0.0044133435 -0.0359156
-0.05702616 -0.021500895 -0.05964319 0.01730787 -0.034245875 -0.022174416 0.025016855 -0.058693442
-0.05989909 -0.024568394 0.015681598 0.052033022 -0.051278684 0.037335146 -0.052796412 -0.053252436
00000000: 020b d53c ba67 2f3d 8ec6 b6bc caeb 5cbc
00000010: d18b 353d fbc6 433d fa89 1fbb 0d40 1fbd
00000020: 62ad 33bd 179f f7bc bc10 12bd 026f cabb
00000030: 346f 9fbc 7ded 3abc d213 33bd 7717 093d
00000040: 3cb1 6cbd 1463 2dbd 7c17 29bd 805a 65bd
00000050: 84fe a13c 159a f4bb e371 95bd 39e9 f13c
00000060: 8e85 83bd 0f77 153d 884a 6fbd 9649 203c
00000070: 8827 103c a4ab c3bc 34bd afbc 4a2f 933c
00000080: fda2 cebc 7a4f fc3c 1276 c73c 028b 393c
00000090: 906b f9bc b69e 9dbc 3276 eebc 9cfe 6d3b
000000a0: d4d7 12bd 5b0e 3b3d 31b3 9ebc 6eea 0bbd
000000b0: bed2 9ebc 7095 ca3c 0986 5dbd 2bcc ff3c
000000c0: f5cd a93a 85a7 b43a ba4a 223d e720 ed3c
000000d0: 0dd8 513d 7b73 21bc 2074 68bd 490f d83c
000000e0: 0913 c43c ac45 5bbd cbba 263d 4768 c03c
000000f0: 7671 d53c 7b1f 5abd 7bee e8bc 55d6 de3b
00000100: f318 ab3c cf94 44bd 13d1 afbc 62b8 72bd
00000110: 2357 97bc d1f0 79bc d3c4 7b3c c47d 6fbc
00000120: c312 59bc dfe9 aabc 5f95 1abc 6cff 36bd
00000130: 794b 2a3c 5ed3 133d 564d ebbc c1b5 803c
00000140: 993d 8fbc c4c1 87bd e6b2 203d 0075 4fbc
00000150: dca2 cebc 86f5 0f3d 9d7c 3dbd 5c3b 00bb
00000160: eba4 473c 1ddf 1e3d b7d0 7a3d 268c 303d
00000170: 1223 74bd ccc1 cdbb ff15 183d 4861 55bd
00000180: 0ebc 93bd e92f 22bd 9379 85bd 44e3 4ebd
00000190: 7dda 493d 5d22 b43a cec3 0fbd 659b 00bd
000001a0: 2f59 883c 67b4 543c 8621 b43b 5d96 ea3c
000001b0: 6670 63bd 696b 32bd 6fe8 5c3c 0248 5abd
000001c0: 6fa0 6bbd aa3c c83c 01ce b83c e404 b8bc
000001d0: 3a61 073d b0cf a3bc 0d93 8abc a515 89bd
000001e0: b04d 2f3d 7cd1 1dbd 2d75 68bd 5f68 0d3d
000001f0: 2671 02bd 08be 003c 1896 2bbc 0ab6 f8ba
00000200: 4035 24bd eed2 1d3d 7a39 01bd 5d2e a63c
00000210: a22b 2bbd c80f 32bd 4c6e 2abd 0477 d93c
00000220: 1170 19bd 1c40 e1bc 2ad7 93bd a844 99bc
00000230: 0845 c4bc 4197 413c e992 d0bc 014d bdbc
00000240: 0c1d 0bbc 8184 31bd 9bd2 d9bc 06b3 19bd
00000250: d1ae 8dbd 4464 e03c 158a 25bd e357 113d
00000260: b036 78bd 1233 65bd 4be1 0cbd 435c d33c
00000270: c580 76bd 3678 7bbd 9c7c d93a c43a 72bd
00000280: 9064 7c3c 54f1 283d c1e9 dc3c 3027 8c39
00000290: cbf4 083c c2c1 0f3d 1794 583c dcd5 c13b
000002a0: 4b08 d0bc 90cd 34bd 8305 fc3c d3d0 75bd
000002b0: 28e4 37bc bedd 20bd 4c69 413c 64c7 773d
000002c0: 9140 34bc 0dd3 6e3c 3692 56bd c517 75bd
000002d0: 04f5 35bc 50cb 00bc bad7 a7bd 39c3 3fbd
000002e0: 34c8 5b3a 0e6c 353d 3c7c f3bc 0c2e 8abc
000002f0: b1fc 26bb add2 06bc b3ef 323c 00e0 57bd
00000300: 3054 61bd dc32 d4bb 367c 123d 8e64 80bd
00000310: 2a14 a63c c2f2 0ebd b792 473c ad8a e2bc
00000320: 6838 2cbd 4404 e4bc 14f0 8cbd 3fa0 413d
00000330: a251 013d 8efc c4bb 40d1 8c3c 973c 47bd
00000340: 328c 3a3d 1c43 82bc 600f 003b 9742 f33c
00000350: a61d 8cbd 53b2 5ebd 15f1 44bd e9c8 1cbd
00000360: c56a 06bd 3d69 23bd 055d 44bd fa82 1dbd
00000370: 57bb 413d f80d 433c d29e 903c 302e fd3b
00000380: 5ab6 6abd d447 b4bc d5e0 003d 883e f63a
00000390: 8207 be3b e6ff 263d b98d 2fbd 682f 86bd
000003a0: 8420 b03c 5701 cebc 18e4 dc3c 4f69 2ebc
000003b0: 3cc4 79bd 1383 2e3d cf9d 903b 3c1c 13bd
000003c0: 4394 69bd a522 b0bc 6b4c 74bd 3cc9 8d3c
000003d0: 6745 0cbd 1fa7 b5bc 26f0 cc3c 8968 70bd
000003e0: c058 75bd a843 c9bc b276 803c 9420 553d
000003f0: 9909 52bd bdec 183d 0d41 58bd 3a1f 5abd

net.2.bias f4 [256]
0.022608725 0.015553968 0.056267373 0.026577389 -0.024793494 0.22551814 -0.010341617 0.046428215
0.07363159 -0.05937384 0.054874975 0.07260094 -0.02107518 -0.012844955 0.10293215 -0.09485351
-0.023331972 -0.01977694 -0.010594545 0.036408253 0.053388912 0.11740397 -0.043586593 0.19656725
-0.0608353 0.043065567 0.10807003 0.11239838 0.036623098 -0.04130843 0.010396337 0.061264586
0.0021645976 -0.062254976 0.105840154 -0.006381696 0.013295714 0.050970066 0.011937627 -0.0024331238
-0.08633729 -0.03773841 0.0043649534 -0.06199485 0.026514139 0.010993441 -0.073983654 -0.0098044155
0.03366915 0.013310556 0.04243771 -0.035228066 0.07119476 -0.052617334 -0.100403756 0.021018617
-0.049451545 0.05098537 -0.10653933 -0.06951041 -0.022106728 -0.017924383 0.084286734 0.019266527
0.052213315 -0.025795266 -0.03457523 -0.06819615 0.042706873 0.023510585 0.0027589276 -0.13312106
-0.015607911 0.07402789 -0.03515779 0.010363662 -0.011320661 0.07935222 0.09907947 0.023631297
0.035183433 -0.069181554 -0.093400665 0.08814266 0.013820516 0.049579185 0.07835511 -0.03405463
0.064327784 -0.06943023 -0.021875432 0.018426277 0.069158375 0.08083799 -0.016057858 0.11718026
-0.017024253 -0.08555975 -0.05830848 -0.021238923 -0.023255449 0.02874594 -0.068412945 0.04455513
0.035486195 0.060492173 0.037320554 -0.012901822 0.058721773 0.03740711 0.04165218 -0.019972464
-0.024349632 -0.048625864 -0.047846086 -0.048090514 -0.053486757 0.08718961 0.008824359 0.048853423
-0.016016467 0.07380881 0.15480894 -0.0116412155 0.027887719 0.015944667 0.056886517 0.022484047
0.07276565 0.19231705 -0.067478664 0.016876051 -0.039744813 -0.008337716 -0.0547633 -0.023730788
0.030082127 -0.054867808 -0.017626822 -0.026883336 0.011422936 0.044626895 0.036144365 -0.0088592665
-0.024095166 0.004499305 0.048642162 -0.0145413065 0.033311747 -0.010535986 0.005822018 -0.079272814
0.017071337 -0.02747598 -0.06928333 0.04829138 0.025807403 0.046731796 0.01585363 -0.054486822
0.06965718 0.009263938 0.021559846 -0.0054915175 0.012651584 -0.0013119049 -0.058603197 0.04436498
0.18622595 0.0449352 -0.032267123 -0.030032022 0.015655229 0.032936316 -0.0015366556 0.0403732
0.018231185 0.034646608 -0.09863687 0.023200596 -0.0045326883 -0.05220298 0.016679507 -0.048555188
-0.097547226 -0.09733857 -0.015716434 -0.028250515 -0.0052996697 -0.03760632 -0.050137416 -0.02523656
-0.0652548 0.07999635 -0.03882972 -0.04157305 -0.07631484 0.035512824 -0.018631103 0.004522851
0.03273606 -0.035308283 -0.0015520094 -0.0017119742 0.041945778 -0.028609693 0.026539663 0.07362889
0.03990909 0.021020958 0.08927116 0.082202435 0.006695629 0.05797045 0.015830155 0.01547567
-0.022185886 -0.050048906 -0.010354919 -0.054318067 -0.02207167 0.032498814 -0.038162597 0.00928172
0.027796073 0.13251324 -0.07350582 0.04296473 0.03854675 -0.0957356 -0.014225944 0.03300884
-0.050631203 -0.063384734 -0.11194239 0.02205518 0.013355143 0.0018773064 0.008142302 -0.10267222
-0.0050473805 0.06599785 -0.051796466 -0.056828078 -0.05176774 0.003919155 0.061736457 0.034550406
-0.044178445 0.040396664 0.0015193289 -0.0005767441 0.0005516176 0.04325197 -0.06934086 -0.06206426
00000000: ef35 b93c 12d6 7e3c 9e78 663d d3b8 d93c
00000010: ba1b cbbc 3aee 663e e36f 29bc 832b 3e3d
00000020: 29cc 963d fc31 73bd 95c4 603d cdaf 943d
00000030: dba5 acbc a573 52bc 17ce d23d 8f42 c2bd
00000040: b122 bfbc 4003 a2bc be94 2dbc d220 153d
00000050: 55ae 5a3d 7e71 f03d db87 32bd ed48 493e
00000060: 6f2e 79bd 8565 303d d253 dd3d 1f31 e63d
00000070: 1a02 163d 0733 29bd 6655 2a3c 93f0 7a3d
00000080: ecdb 0d3b 13ff 7ebd b9c2 d83d 8c1d d1bb
00000090: 44d6 593c fdc5 503d 0996 433c 0b75 1fbb
000000a0: 9bd1 b0bd 9793 1abd e207 8f3b 50ee 7dbd
000000b0: 2e34 d93c d51d 343c be84 97bd b3a2 20bc
000000c0: aae8 093d 8514 5a3c 2ad3 2d3d 4e4b 10bd
000000d0: 8fce 913d 4685 57bd 7ca0 cdbd 3c2f ac3c
000000e0: b48d 4abd 09d6 503d 4b31 dabd 795b 8ebd
000000f0: 2b19 b5bc 28d6 92bc 869e ac3d d6d4 9d3c
00000100: a1dd 553d 9850 d3bc c29e 0dbd 6caa 8bbd
00000110: 67ed 2e3d 4599 c03c 20cf 343b e350 08be
00000120: 53b8 7fbc ef9b 973d 9d01 10bd 59cc 293c
00000130: 4b7a 39bc 6b83 a23d 2dea ca3d 6c96 c13c
00000140: 811c 103d 0faf 8dbd d948 bfbd 2484 b43d
00000150: 726f 623c 8b13 4b3d a578 a03d de7c 0bbd
00000160: 49be 833d 7031 8ebd 1b34 b3bc b4f2 963c
00000170: e8a2 8d3d 638e a53d c58b 83bc 34fc ef3d
00000180: 7276 8bbc f339 afbd dfd4 6ebd 40fd adbc
00000190: 3682 bebc 9b7c eb3c 161c 8cbd 717f 363d
000001a0: f959 113d a4c6 773d 70dd 183d 2a62 53bc
000001b0: 3e86 703d 3338 193d 7a9b 2a3d 4b9d a3bc
000001c0: e178 c7bc ea2b 47bd 42fa 43bd 8ffa 44bd
000001d0: ee14 5bbd 7790 b23d 0b94 103c 871a 483d
000001e0: f734 83bc 1329 973d 3c86 1e3e ccba 3ebc
000001f0: c974 e43c 649e 823c d601 693d 7730 b83c
00000200: 2806 953d c3ee 443e 4132 8abd a53f 8a3c
00000210: 75cb 22bd ea9a 08bc 7b4f 60bd 1267 c2bc
00000220: cb6e f63c 11bd 60bd 2066 90bc 713a dcbc
00000230: 4427 3b3c b1ca 363d 1d0c 143d 7526 11bc
00000240: 3a63 c5bc e86e 933b 013d 473d a93e 6ebc
00000250: e671 083d 219f 2cbc a0c6 be3b c959 a2bd
00000260: 30d9 8b3c 4e15 e1bc 6be4 8dbd 2fcd 453d
00000270: 0c6a d33c d769 3f3d 79df 813c 932d 5fbd
00000280: 6ca8 8e3d c6c7 173c 469e b03c 30f2 b3bb
00000290: 9748 4f3c 39f4 abba e809 70bd 0eb8 353d
000002a0: 04b2 3e3e f90d 383d 882a 04bd b705 f6bc
000002b0: 653f 803c 3be8 063d 9b69 c9ba 5e5e 253d
000002c0: 9159 953c 9ae9 0d3d 2102 cabd 2d0f be3c
000002d0: f286 94bb cbd2 55bd 76a3 883c cee1 46bd
000002e0: d7c6 c7bd 7259 c7bd c0bf 80bc a06d e7bc
000002f0: daa8 adbb 1609 1abd e45c 4dbd e7bc cebc
00000300: 4fa4 85bd 20d5 a33d ea0b 1fbd 8148 2abd
00000310: f44a 9cbd e575 113d 41a0 98bc 6d34 943b
00000320: 3f16 063d 6b9f 10bd cb6c cbba 5264 e0ba
00000330: 56cf 2b3d e05e eabc b569 d93c beca 963d
00000340: b777 233d 2534 ac3c ccd3 b63d c059 a83d
00000350: 0267 db3b 6c72 6d3d 3eae 813c aa8d 7d3c
00000360: 2dbf b5bc 1500 4dbd aea7 29bc 9f7c 5ebd
00000370: a6cf b4bc 7a1d 053d 6250 1cbd 5b12 183c
00000380: 97b4 e33c 8db1 073e 388a 96bd c9fb 2f3d
00000390: 32e3 1d3d 0711 c4bd ef13 69bc 4734 073d
000003a0: aa62 4fbd dbcf 81bd 0d42 e5bd 11ad b43c
000003b0: 88cf 5a3c f30f f63a 4a67 053c d045 d2bd
000003c0: 7f64 a5bb e129 873d 8828 54bd 8fc4 68bd
000003d0: 690a 54bd 416c 803b 5edf 7c3d ba84 0d3d
000003e0: 75f4 34bd f976 253d 3824 c73a a430 17ba
000003f0: 6e9a 103a fa28 313d 9502 8ebd 1837 7ebd

net.4.weight f4 [3, 256]
-0.018185785 0.14710213 0.0044956133 -0.025322745 -0.07398588 -0.006722689 0.023542298 -0.3088854
0.28095087 0.3922371 0.04302325 -0.004227523 0.013155514 0.09313665 -0.02703407 -0.09604553
0.1682619 0.008271179 0.044177145 0.037104025 -0.058289647 -0.12208839 0.011777411 0.21743833
-0.10940314 0.040924862 -0.09568882 -0.17061123 -0.082522 0.04103555 0.02762356 -0.16126108
0.048388533 -0.061170805 -0.113770805 0.08754865 -0.08692505 -0.18141848 -0.07471063 -0.6364495
-0.13658485 0.20763707 0.03968774 0.035530016 0.07965456 -0.013654674 -0.06009969 -0.0012568701
-0.020562788 0.09411802 0.04384765 0.04387611 0.010212291 -0.032448605 -0.070142195 -0.033758648
-0.08554857 -0.060891178 -0.10817647 0.017715247 -0.029417848 0.27870315 0.06339071 0.08922301
-0.038500812 0.08853395 0.04505221 0.024148425 0.056605123 -0.013762156 -0.042479962 -0.0144385565
0.22600387 -0.029503519 0.016510185 0.013412984 -0.0059762136 0.021492401 0.002029923 0.028211279
-0.042288013 -0.039094567 -0.035875157 -0.046870552 0.10999683 0.030118724 0.028888373 0.006855042
0.034060754 0.024782589 0.10337714 0.6106351 -0.009016546 0.0512404 -0.0033990624 0.1610793
-0.0004420295 -0.04612997 0.06354225 0.025876867 0.16649175 0.045080643 0.07913569 -0.014913182
-0.1111602 -0.007424709 -0.03993795 0.062149853 -0.030953115 -0.06813729 -0.0056111533 0.05304531
0.007164887 0.0065104896 0.00047957266 -0.027937027 -0.060724124 -0.039173104 -0.0076880557 -0.20949022
-0.025240788 0.19296846 0.0803876 -0.066552125 -0.11332271 0.041086905 -0.1684217 0.032901093
0.03820494 0.08707145 0.08052968 0.021497717 -0.3562915 -0.0074811326 0.046731144 -0.019000547
0.23418461 -0.12775464 0.0155428415 -0.027475137 -0.031105943 0.02250839 -0.0039036593 -0.3469447
-0.013778564 0.00043625347 0.269312 -0.02852772 0.3036849 0.034412645 -0.034381386 0.009098556
-0.02682741 0.007581388 0.0031173918 -0.026539294 -0.039905097 0.044706877 0.0047269147 0.064706765
-0.003343022 -0.034115393 0.12496474 0.016632697 0.00030399105 -0.054196853 0.11513562 0.28794613
0.019737102 -0.010015349 0.05642878 -0.053024244 0.0681616 0.21905512 -0.123799294 -0.007327019
-0.0057531674 -0.04664682 -0.11878717 -0.037383143 -0.01219538 0.05133204 0.00978811 -0.013339112
-0.07559199 0.07519909 0.029500943 0.030782847 0.05928686 -0.045698874 -0.06900596 -0.008526651
-0.0021790415 0.012385696 -0.04671376 0.057443954 -0.051836584 -0.07045228 -0.048595212 -0.006657573
-0.03430894 0.005810812 -0.0021267314 -0.003365073 0.035136227 0.00883532 -0.018686576 -0.81226456
-0.422113 -0.03687965 -0.036791284 0.08660223 0.07324352 -0.041720293 0.122018926 -0.020420546
0.04554597 -0.014876319 -0.0052745896 0.14463614 -0.010769789 -0.053129207 -0.052212656 0.019570347
0.027799917 -0.13109817 -0.04462747 -0.38806188 0.26465958 0.06594901 0.07205733 -0.049425136
0.1397277 0.03700267 -0.07401087 -0.0016174084 -0.23291582 -0.0064062835 0.11190037 -0.09091513
-0.05013189 -0.025735939 -0.0043694335 0.014302514 -0.04807265 -0.044489015 0.18563235 0.06347894
0.034358226 -0.011000821 0.007997345 -0.0838975 -0.02100471 -0.059325375 0.054053467 0.02375795
00000000: 5bfa 94bc f1a1 163e f04f 933b a571 cfbc
00000010: e985 97bd 014a dcbb c7db c03c 3a26 9ebe
00000020: cbd8 8f3e 4dd3 c83e 2639 303d 0987 8abb
00000030: 3a8a 573c 6ebe be3d 8e76 ddbc 85b3 c4bd
00000040: d94c 2c3e d783 073c 18f3 343d 64fa 173d
00000050: 20c1 6ebd 7a09 fabd 0bf6 403c 27a8 5e3e
00000060: c10e e0bd d4a0 273d 80f8 c3bd b6b4 2ebe
00000070: 4b01 a9bd e514 283d ce4a e23c a021 25be
00000080: 0e33 463d 3d8e 7abd ab00 e9bd b54c b33d
00000090: c305 b2bd c4c5 39be e301 99bd 5bee 22bf
000000a0: e6dc 0bbe d09e 543e 9d8f 223d ec87 113d
000000b0: ee21 a33d dbb7 5fbc 182b 76bd 90bd a4ba
000000c0: 4b73 a8bc f3c0 c03d 9899 333d 70b7 333d
000000d0: 7451 273c d4e8 04bd b6a6 8fbd 8246 0abd
000000e0: 1734 afbd 0769 79bd a08b ddbd 911f 913c
000000f0: b3fd f0bc 2eb2 8e3e fdd2 813d 8eba b63d
00000100: 07b3 1dbd 4a51 b53d ab88 383d ebd2 c53c
00000110: c6da 673d aa7a 61bc 78ff 2dbd b28f 6cbc
00000120: 8f6d 673e 5db1 f1bc 5e40 873c 22c2 5b3c
00000130: 1dd4 c3bb d510 b03c 7508 053b 571b e73c
00000140: 3236 2dbd a021 20bd d4f1 12bd 56fb 3fbd
00000150: 0546 e13d 8bbb f63c 4fa7 ec3c 43a0 e03b
00000160: 4a83 0b3d db04 cb3c 65b7 d33d 9552 1c3f
00000170: 23ba 13bc 74e1 513d cec2 5ebb f9f1 243e
00000180: 32c0 e7b9 c8f2 3cbd 7022 823d b9fb d33c
00000190: d07c 2a3e 7ba6 383d e511 a23d 6b56 74bc
000001a0: f5a7 e3bd f94a f3bb fa95 23bd d890 7e3d
000001b0: 6391 fdbc 908b 8bbd c4dd b7bb 0a46 593d
000001c0: 6ec7 ea3b f255 d53b 276f fb39 31dc e4bc
000001d0: dcb9 78bd fa73 20bd 16ec fbbb 9b84 56be
000001e0: c5c5 cebc 8699 453e 41a2 a43d 7b4c 88bd
000001f0: bd15 e8bd be4a 283d bd76 2cbe 4cc3 063d
00000200: c87c 1c3d 8452 b23d bfec a43d fb1b b03c
00000210: d76b b6be 4a24 f5bb 2869 3f3d 09a7 9bbc
00000220: 17ce 6f3e 1dd2 02be 67a7 7e3c 8a13 e1bc
00000230: e4d1 febc 8463 b83c 89d4 7fbb bca2 b1be
00000240: 7cbf 61bc f3b8 e439 43e3 893e f7b2 e9bc
00000250: 967c 9b3e 46f4 0c3d 7fd3 0cbd 1c12 153c
00000260: 28c5 dbbc 4b6d f83b 284d 4c3b ef68 d9bc
00000270: 8773 23bd 8f1e 373d 3ce4 9a3b fb84 843d
00000280: 9a16 5bbb 95bc 0bbd 83ed ff3d 4b41 883c
00000290: fd60 9f39 85fd 5dbd 39cc eb3d ad6d 933e
000002a0: b4af a13c 6b17 24bc dd21 673d f32f 59bd
000002b0: 4f98 8b3d fc4f 603e 7c8a fdbd 7d17 f0bb
000002c0: 1185 bcbb bc10 3fbd b046 f3bd 111f 19bd
000002d0: 22cf 47bc 8c41 523d 4f5e 203c 4a8c 5abc
000002e0: f9cf 9abd fb01 9a3d f6ab f13c 4f2c fc3c
000002f0: c7d6 723d be2e 3bbd ff52 8dbd 5eb3 0bbc
00000300: 40ce 0ebb 60ed 4a3c ed56 3fbd 5a4a 6b3d
00000310: 9952 54bd 4949 90bd c60b 47bd c527 dabb
00000320: 8887 0cbd a068 be3b a260 0bbb 8e88 5cbb
00000330: 01eb 0f3d 05c2 103c 9714 99bc 92f0 4fbf
00000340: 321f d8be 1e0f 17bd 75b2 16bd 835c b13d
00000350: b300 963d e6e2 2abd 0fe5 f93d fd48 a7bc
00000360: 698e 3a3d cebb 73bc 77d6 acbb 7f1b 143e
00000370: c573 30bc 039e 59bd f0dc 55bd fe51 a03c
00000380: a7bc e33c 993e 06be 4bcb 36bd 0cb0 c6be
00000390: 7681 873e 4610 873d cb92 933d 0372 4abd
000003a0: c714 0f3e 1d90 173d 0393 97bd 38ff d3ba
000003b0: 7c81 6ebe cdeb d1bb 052c e53d b631 babd
000003c0: 1957 4dbd 2dd4 d2bc 772d 8fbb 1755 6a3c
000003d0: d4e7 44bd 1d3a 36bd 6816 3e3e 3f01 823d
000003e0: 36bb 0c3d ca3c 34bc 4c07 033c 74d2 abbd
000003f0: 1212 acbc 2aff 72bd 2b67 5d3d 08a0 c23c

net.4.bias f4 [3]
0.04246017 -0.0051795063 0.00047390818
00000000: b7ea 2d3d d9b8 a9bb e176 f839
