src/checkpoints/sac_critic_350.pth (torch, 577890 bytes, 10 tensors)

q1.0.weight f4 [256, 21]
0	0xbdbdfc96	-0.092766926
1	0xbe3abf31	-0.18236996
2	0x3da80ecc	0.08205947
3	0xbf5b4486	-0.85651433
4	0xbf03825e	-0.513708
5	0xbecad289	-0.3961375
6	0x3db110fa	0.08645816
7	0x3d760cd0	0.060070813
8	0x3cf5b16f	0.029991833
9	0x3d8c5939	0.06852955
10	0xbddb9fed	-0.10723863
11	0xbd5e4f27	-0.054274704
12	0xbe5393b5	-0.20661815
13	0xbe17d06c	-0.148256
14	0xbe439cdc	-0.19102806
15	0xbcaa06f0	-0.020755261
16	0x3df26bce	0.11836968
17	0xbdf0cd96	-0.117579624
18	0xbeb95861	-0.3620024
19	0xbb08e8f5	-0.0020890806
20	0x3de81632	0.113323584
21	0xbe374543	-0.17897515
22	0x3e8b7b92	0.27242714
23	0xbe03233d	-0.12806411
24	0xbe1386ea	-0.14406934
25	0xbd891262	-0.06692959
26	0xbc6f996d	-0.014623982
27	0x3e38cfb4	0.18047982
28	0xbe2a6c35	-0.1664284
29	0xbdf4629f	-0.11932873
30	0xbd64d853	-0.055870365
31	0x3dba470a	0.09095581
32	0x3da4545c	0.08023903
33	0xbe20970b	-0.15682618
34	0xbe49b01d	-0.19696088
35	0x3cf2a410	0.029619247
36	0x3de7e15a	0.11322279
37	0xbe1316e0	-0.14364195
38	0x3e42b20f	0.19013236
39	0x3dda0e57	0.10647266
40	0x3e1989d0	0.14993978
41	0x3e80335a	0.25039178
42	0xbdf3437a	-0.118781045
43	0x3d08ced3	0.033400368
44	0xbbeb6531	-0.007183694
45	0xbf08670b	-0.5328223
46	0xbeb1fcb6	-0.34763116
47	0xbea8238c	-0.3283962
48	0xbd662227	-0.056184914
49	0xbc14ae01	-0.009074689
50	0xbbe932b6	-0.007116641
51	0xbd9565d5	-0.072948135
52	0xbc9435fd	-0.01809215
53	0xbe9f5c9b	-0.3112534
54	0xbc8e38c8	-0.01736106
55	0xbc754aa0	-0.014971405
56	0x3df1972e	0.11796413
57	0x3cb48bc0	0.022039294
58	0x3d04b5bc	0.032399878
59	0xbe1759d2	-0.14780357
60	0xbdb6fa7c	-0.08934495
61	0x3d2add8d	0.041715194
62	0x3e8783f8	0.26467872
63	0x3d0ff23f	0.035143133
64	0x3c910c86	0.017706167
65	0xbecfc640	-0.4058094
66	0xbd9b5624	-0.075847894
67	0x3df91384	0.121619254
68	0xbefa2457	-0.4885585
69	0xbd782a93	-0.060587477
70	0x3e5adc5a	0.2137312
71	0x3dc68b9b	0.096945964
72	0x3db670d3	0.08908238
73	0x3e1aa9c9	0.1510383
74	0xbe5c2da6	-0.21501788
75	0xbdde4d78	-0.1085462
76	0xbe19cc1d	-0.1501927
77	0xbe55285d	-0.20816179
78	0xbe55c63f	-0.20876406
79	0x3da1231e	0.07868026
80	0x3e2fff27	0.17187177
81	0xbe2d230a	-0.16907898
82	0xbcb1e39e	-0.021714982
83	0xbc97ace0	-0.01851505
84	0x3e2cb299	0.16865005
85	0xbe484ad2	-0.19559792
86	0x3e2ba0f9	0.16760625
87	0xbe04a0d3	-0.12951975
88	0x3e66f73c	0.2255525
89	0xbd527b4f	-0.051387127
90	0xbda0a6f9	-0.078443475
91	0xbe7b5eb0	-0.24547839
92	0x3dcf6c9d	0.10128138
93	0x3d1f797b	0.038934212
94	0xbdb791bd	-0.08963344
95	0x3e796193	0.24353628
96	0xbe1f29e4	-0.15543324
97	0xbe2c051a	-0.16798821
98	0xbe4f72e2	-0.20258668
99	0x3d8711d6	0.06595199
100	0xbdb65b2a	-0.08904107
101	0x3e120a0f	0.1426165
102	0xbeb1c3d6	-0.34719723
103	0xbe8cb225	-0.27479663
104	0xbd9228ac	-0.07136664
105	0xbe6c47fb	-0.23074333
106	0xbc000397	-0.007813356
107	0x3e593066	0.21209869
108	0xbe1964e9	-0.149799
109	0xbec93b28	-0.39302945
110	0xba835b7c	-0.0010021771
111	0xbdf9d62b	-0.121990524
112	0x3d65dadd	0.056116927
113	0xbc354c85	-0.011065607
114	0x3e04415f	0.12915562
115	0x3dae6de9	0.085170574
116	0x3b63b0d3	0.0034742847
117	0xbd2275cc	-0.03966312
118	0x3dcf6d96	0.10128324
119	0xbe17f1df	-0.1483836
120	0xbe19e07f	-0.15027045
121	0xbdf51490	-0.119668126
122	0x3dd9ec0a	0.10640724
123	0xbe69addc	-0.22820228
124	0xbebebbf4	-0.37252772
125	0xbdcf5ee2	-0.10125519
126	0xbdf4a162	-0.11944844
127	0xbe077e8a	-0.13231865
128	0x3e02d232	0.12775496
129	0xbe02a9a9	-0.12760033
130	0x3d83e642	0.064404026
131	0x3e590172	0.21191958
132	0xbcf5ebdc	-0.030019693
133	0x3d395504	0.045247093
134	0xbdc29307	-0.095006995
135	0xbe1bacf7	-0.152027
136	0x3d59ea8e	0.053202204
137	0xbe76bd2d	-0.24095602
138	0x3e09fdbb	0.13475697
139	0x3daab566	0.0833538
140	0x3d789494	0.06068857
141	0x3dc8e622	0.09809519
142	0x3c522040	0.012825072
143	0x3d9d8542	0.076914325
144	0xbd89f5fc	-0.06736371
145	0xbda8e14e	-0.082460985
146	0x3ea65187	0.32484075
147	0xbe5ffeb0	-0.218745
148	0x3e5a8528	0.21339858
149	0x3d50d789	0.0509868
150	0xbd3d9fd7	-0.046295013
151	0x3e62c692	0.22146061
152	0x3deb2ee2	0.114835516
153	0x3e231144	0.15924555
154	0x3bd86b00	0.0066045523
155	0x3d72e67b	0.059301835
156	0xbe5bdda0	-0.21471262
157	0x3c66f8ee	0.014097435
158	0xbe7dc8eb	-0.24783675
159	0xbc859568	-0.016306594
160	0x3dd113f2	0.102088824
161	0x3e20f58d	0.1571867
162	0xbdde1dbf	-0.10845517
163	0xbdc50289	-0.09619624
164	0x3e3e0f43	0.1856051
165	0xbd9d9140	-0.0769372
166	0x3e3929cd	0.18082352
167	0x3dd570e5	0.104219235
168	0x3e65d765	0.22445448
169	0x3e216c3f	0.15763949
170	0x3e00a847	0.12564193
171	0x3de9ef2e	0.11422573
172	0xbe565903	-0.20932393
173	0xbdbe47d1	-0.09291042
174	0x3d884d6f	0.06655394
175	0x3dd25c54	0.102715164
176	0x3e450ee5	0.19243963
177	0x3e35bc9e	0.17747733
178	0xbdf6cdd2	-0.12050976
179	0xbcd2a7ce	-0.025714781
180	0xbd9a53ee	-0.075355396
181	0x3ddf7baa	0.10912259
182	0xbd19ca38	-0.037546366
183	0x3b06a700	0.0020546317
184	0xbe0ad5a0	-0.13558054
185	0xbe363cde	-0.17796656
186	0xbe390eea	-0.18072096
187	0xbe493944	-0.19650751
188	0x3d0ef1fd	0.034898747
189	0xbb0a444c	-0.0021097837
190	0xbcd6d134	-0.026222803
191	0xbdaa8275	-0.08325664
192	0xbe45fceb	-0.19334762
193	0x3ebd8ae5	0.3702003
194	0xbe8f7014	-0.28015196
195	0xbba7afc7	-0.00511739
196	0xbdc5cb62	-0.09657933
197	0x3ce221f7	0.027604086
198	0x3dc645b6	0.09681265
199	0xbd92337c	-0.07138726
200	0xbdda0126	-0.1064475
201	0x3e104975	0.14090522
202	0xbdc71bd0	-0.09722102
203	0x3dd04e3e	0.101711735
204	0xbce00568	-0.027346328
205	0xbe2733ac	-0.16328305
206	0x3e2ea339	0.17054452
207	0xbe99e145	-0.3005468
208	0xbd86d315	-0.065832295
209	0xbe435a2f	-0.19077371
210	0xbe320851	-0.17385985
211	0x3dfdb9be	0.12388943
212	0x3dc1d593	0.09464564
213	0x3d847deb	0.064693294
214	0x3e5cc8d9	0.21560992
215	0x3e524db1	0.2053745
216	0xbe119c4c	-0.14219779
217	0xbe395cc5	-0.18101795
218	0x3e8012d1	0.25014356
219	0x3dd479e3	0.103748105
220	0x3de61914	0.11235252
221	0x3b8395d1	0.0040156622
222	0x3d1bbec4	0.038023725
223	0x3e52ef7d	0.2059917
224	0x3bb6bee0	0.0055769533
225	0xbcbea588	-0.02327229
226	0x3e41a42f	0.18910287
227	0x3db3e552	0.08783974
228	0xbd8542a3	-0.065068506
229	0x3e2ddb42	0.16978171
230	0x3e834b0a	0.25643188
231	0x3dc78cd4	0.09743658
232	0x3de9e686	0.11420922
233	0xba5a0cb8	-0.0008317935
234	0xbd9b4bb5	-0.07582799
235	0xbd49d287	-0.04927304
236	0x3db05be5	0.086112775
237	0x3e074fe5	0.13214071
238	0x3ddfb38c	0.10922918
239	0xbdf42f37	-0.11923068
240	0xbd8cc5ef	-0.0687369
241	0x3e5bbeaf	0.21459459
242	0xbb982e83	-0.0046442165
243	0x3d1a7994	0.037713602
244	0x3e3d72b3	0.18500786
245	0x3dc7e326	0.09760122
246	0xbd391f48	-0.045195848
247	0xbda75a56	-0.08171527
248	0x3dded6ea	0.10880835
249	0xbe470bd4	-0.19438106
250	0xbcff93fd	-0.031198496
251	0x3e2d116e	0.1690118
252	0x3e4cd55b	0.20003264
253	0x3e367043	0.17816262
254	0xbe148c26	-0.14506587
255	0x3e0acd00	0.13554764

q1.0.bias f4 [256]
0	0x3eb2c3df	0.34915063
1	0xbd4134ea	-0.047169603
2	0x3f1f3dcc	0.6220367
3	0xbe396930	-0.18106532
4	0x3e9bc2ce	0.30422062
5	0x3ef5dd04	0.48020184
6	0x3ecb28b9	0.39679506
7	0x3bbff042	0.0058574984
8	0x3f1b8e53	0.60764045
9	0x3e196777	0.14980875
10	0x3ede2e69	0.43394783
11	0x3ea5530d	0.32289925
12	0x3e8c8b43	0.27449998
13	0x3e89dcd8	0.26926303
14	0xbe802b39	-0.25032976
15	0x3e2b52b9	0.16730775
16	0x3e16a81c	0.14712566
17	0xbde12739	-0.10993809
18	0x3e84625b	0.2585629
19	0x3e865c52	0.2624231
20	0x3edd2fd1	0.43200544
21	0xbee49d1e	-0.4465112
22	0x3ed199a9	0.40937546
23	0x3ee441d6	0.4458148
24	0x3e99bb4e	0.30025715
25	0x3f39a9d1	0.72524744
26	0xbdb573c0	-0.08859968
27	0x3e6c06b4	0.23049432
28	0xbe9ecc67	-0.31015322
29	0xbeeb8954	-0.4600321
30	0x3f2926bf	0.66074747
31	0xbed67fba	-0.41894323
32	0x3d946a9b	0.07246896
33	0x3f19d803	0.6009523
34	0x3efed891	0.49774602
35	0x3ebc64f7	0.3679578
36	0xbe98d9f9	-0.298538
37	0xbdd64a6b	-0.10463413
38	0x3daf318e	0.08554374
39	0x3f1ee35a	0.6206566
40	0xbe3e3162	-0.18573526
41	0x3f43a74a	0.7642714
42	0xbecf115b	-0.4044293
43	0x3eb8e525	0.36112323
44	0xbf0b1f22	-0.5434438
45	0x3eae3cb6	0.34030694
46	0x3efcfc72	0.4941135
47	0x3f2f1f62	0.6840726
48	0xbec4c53a	-0.38431722
49	0xbebc03fa	-0.36721784
50	0x3d70a1ab	0.05874793
51	0x3ed28d73	0.41123542
52	0x3f1b8af0	0.60758877
53	0xbde52adf	-0.11189818
54	0x3efbfff1	0.49218705
55	0x3f106aeb	0.56413144
56	0xbee0acaf	-0.43881747
57	0x3e27dfda	0.16393986
58	0x3db2b59d	0.08726046
59	0x3e42d6ee	0.19027302
60	0xbf0bbed5	-0.5458806
61	0x3e015de6	0.12633476
62	0x3f021099	0.50806576
63	0xbee6b489	-0.45059612
64	0xbe543795	-0.20724328
65	0x3f2686f3	0.65049666
66	0xbdba4f00	-0.09097099
67	0xbb006465	-0.001959109
68	0x3f06de98	0.526834
69	0x3ed3f297	0.4139602
70	0x3e380067	0.17968903
71	0x3f0c0665	0.5469726
72	0x3da3b72b	0.07993921
73	0x3eb9aff8	0.36267066
74	0xbebb7d6c	-0.36619127
75	0x3e44cb40	0.19218159
76	0xbe43f77c	-0.19137377
77	0xbeaa2211	-0.33229116
78	0x3e230b76	0.15922341
79	0xbdbbd33e	-0.091711506
80	0xbeaf6bfa	-0.34262067
81	0x3f305bd8	0.6889014
82	0x3e2d5a89	0.16929068
83	0xbe85cc36	-0.26132363
84	0x3d3efedd	0.046629775
85	0x3f0ba74f	0.5455217
86	0x3efe5179	0.49671534
87	0x3e92ee68	0.28697515
88	0x3eec7949	0.46186283
89	0xbe1b686e	-0.15176556
90	0x3f1b5f80	0.60692596
91	0x3cfdee7b	0.030997505
92	0xbeead41e	-0.45864958
93	0x3f001230	0.5002775
94	0xbec631b0	-0.38709784
95	0x3dbd31d2	0.09238018
96	0xbe783dd6	-0.24242339
97	0x3f2ad103	0.66725177
98	0x3eb74ad5	0.3579928
99	0x3ee30032	0.44336087
100	0xbefac22b	-0.48976263
101	0xbe489929	-0.19589676
102	0x3e9eec5d	0.31039706
103	0x3e72374e	0.2365391
104	0xbee9451b	-0.45560536
105	0xbea3c2a5	-0.3198444
106	0x3f121301	0.5706025
107	0x3f02fbc7	0.5116543
108	0x3eefaffe	0.4681396
109	0x3f324fe4	0.69653153
110	0xbf0112ce	-0.5041932
111	0xbef41bd4	-0.4767748
112	0x3db4c904	0.08827403
113	0x3e93e27f	0.2888374
114	0x3ec2a22e	0.38014358
115	0xbb68d744	-0.00355287
116	0x3ed20071	0.41015962
117	0xbe3851a3	-0.17999892
118	0x3f0e6496	0.5562223
119	0xbe57266b	-0.21010749
120	0xbe139325	-0.144116
121	0xbe60cebb	-0.21953861
122	0x3ed2a5ce	0.41142124
123	0x3f56d667	0.839209
124	0xbe9fa5ab	-0.31181082
125	0x3f2fcfdd	0.6867655
126	0xbe9579bf	-0.29194447
127	0xbeec15f3	-0.46110496
128	0x3eede81f	0.46466157
129	0x3e821416	0.2540595
130	0xbe8ea130	-0.2785735
131	0x3e3a657d	0.18202777
132	0x3f3f7d27	0.7480034
133	0x3f05b9f1	0.5223685
134	0xbe60cbaf	-0.21952699
135	0x3f01dc78	0.50727034
136	0x3f46fbdf	0.77728075
137	0x3f0757ef	0.5286855
138	0x3eb87f80	0.36034775
139	0xbe86d616	-0.2633521
140	0x3f0f8cd6	0.56074274
141	0x3f1342db	0.5752389
142	0xbee4b9ec	-0.44673097
143	0x3f1973c9	0.599423
144	0x3f0c0880	0.5470047
145	0xbead354f	-0.33829734
146	0xbe89c85e	-0.2691068
147	0xbe8228bb	-0.254217
148	0x3efc0f38	0.4923036
149	0xbeb50761	-0.35357192
150	0x3f092a82	0.53580487
151	0x3e968874	0.2940098
152	0x3dc1a67e	0.09455584
153	0x3ea74147	0.3266699
154	0x3f130181	0.5742417
155	0x3ec438e5	0.38324657
156	0xbe8ecd76	-0.2789113
157	0x3e567679	0.20943631
158	0x3e12f1f7	0.14350115
159	0x3f1987d5	0.5997289
160	0x3dfda0df	0.12384199
161	0xbdacdfa0	-0.084410906
162	0xbe23509c	-0.15948719
163	0x3f089623	0.5335409
164	0x3e65150d	0.22371311
165	0xbd4c7944	-0.049920335
166	0x3f0bb8fe	0.5457915
167	0x3e4731aa	0.19452539
168	0xbd250682	-0.04028941
169	0x3f2d6de2	0.6774579
170	0x3f137b2d	0.57609826
171	0xbeaf40c6	-0.34229106
172	0xbe950b32	-0.29110104
173	0x3d5a6188	0.05331567
174	0xbed61d9f	-0.41819474
175	0xbe8b0262	-0.27150255
176	0xbe288bf3	-0.16459636
177	0x3f10fd07	0.5663609
178	0x3e966964	0.29377282
179	0x3f001289	0.5002828
180	0x3e930399	0.28713682
181	0x3f35b73e	0.7098273
182	0xbec9ff5f	-0.39452645
183	0x3d39c332	0.04535217
184	0x3e2ab719	0.16671409
185	0x3ee4a997	0.44660637
186	0x3f0251c5	0.5090602
187	0x3f1411c8	0.5783963
188	0x3e981725	0.29705158
189	0x3f2cfaad	0.6757
190	0x3c5c6afd	0.013453242
191	0x3ef47077	0.47742054
192	0xbedde85a	-0.43341333
193	0x3e82fe94	0.25584853
194	0x3f325946	0.6966747
195	0x3eb56731	0.3543029
196	0x3ef26cc6	0.47348613
197	0x3ead84d5	0.33890405
198	0x3f058f76	0.5217203
199	0x3f0cbe18	0.5497756
200	0xbe8770af	-0.26453158
201	0x3ef9f467	0.48819277
202	0x3e8ec1cf	0.2788224
203	0xbef1cd46	-0.47226924
204	0x3da62601	0.081127174
205	0x3f340a63	0.7032835
206	0x3e1d053f	0.15334032
207	0x3efb8a47	0.49128935
208	0x3f13d5f1	0.57748324
209	0xbe93e0a5	-0.28882328
210	0x3dfb7b63	0.122793935
211	0x3dea7afc	0.11449239
212	0x3ee6e026	0.45092887
213	0x3f063007	0.52417034
214	0x3d7988b4	0.060921386
215	0x3f1316a1	0.57456404
216	0x3f0f70b3	0.5603134
217	0x3e0c73e4	0.13716084
218	0x3ef392ac	0.4757284
219	0xbe4d1eb5	-0.20031245
220	0x3dca4272	0.09875955
221	0x3e9f5da0	0.31126118
222	0xbe946680	-0.2898445
223	0x3f03ab1d	0.51432973
224	0x3ec017b5	0.37518087
225	0x3e20e216	0.15711245
226	0xbef23927	-0.4730923
227	0xbeabfb41	-0.3359013
228	0xbf22e638	-0.63632536
229	0x3e8583f3	0.26077232
230	0x3e904bad	0.28182736
231	0xbca69e53	-0.020339167
232	0x3e41eab6	0.18937191
233	0x3de3bc74	0.11119929
234	0x3f099724	0.5374625
235	0xbe3e8143	-0.18603997
236	0x3f1da1f7	0.61575264
237	0x3f476936	0.77894914
238	0xbe0d04a0	-0.13771296
239	0x3f1c5e5a	0.6108147
240	0x3ed01339	0.40639666
241	0xbeb5f783	-0.355404
242	0x3edd5ebf	0.43236348
243	0x3d3ae6fd	0.045630444
244	0xbe857892	-0.2606855
245	0x3e365747	0.17806731
246	0x3dc09da3	0.09405067
247	0x3ef37485	0.47549835
248	0x3e95e120	0.2927332
249	0x3edec1e2	0.43507296
250	0x3f0242ec	0.50883365
251	0x3ee7e956	0.4529521
252	0x3f0a73b3	0.54082793
253	0x3f230832	0.6368438
254	0xbe3e9832	-0.18612745
255	0xbeccd0f1	-0.4000316

q1.2.weight f4 [256, 256]
0	0x3d1790dc	0.037003383
1	0x3c8160c7	0.015793217
2	0x3d2ecf86	0.04267838
3	0xbd6aa763	-0.05728854
4	0xbca76c07	-0.020437254
5	0xbcb58292	-0.022156987
6	0x3c724699	0.01478734
7	0x3d5c964e	0.05385428
8	0x3cff20c0	0.031143546
9	0x3d00cd7d	0.03144597
10	0xbd3cc617	-0.04608735
11	0xbc0d74ef	-0.008633836
12	0xbd5a7a2b	-0.053339165
13	0x3c566941	0.013086618
14	0x3c10ff9d	0.008850005
15	0x3d238cff	0.039929386
16	0xbce9a44c	-0.028520726
17	0xbd17ef1c	-0.037093267
18	0x3d17726d	0.03697436
19	0x3bc739ea	0.006079902
20	0x3d62df41	0.055388693
21	0x3b9d67c4	0.0048036296
22	0x3caddaca	0.02122249
23	0x3bd34ac0	0.00644812
24	0xbd7106dd	-0.058844436
25	0xbcde8d9f	-0.02716714
26	0xbd1cc576	-0.03827425
27	0xbd85d02b	-0.065338455
28	0x3d2d6879	0.04233596
29	0x3d63403e	0.055481188
30	0x3ca82bee	0.02052876
31	0x3cbc7ee4	0.023009725
32	0x3b87d2c9	0.0041450006
33	0x3caee77a	0.021350611
34	0xbd519428	-0.051166683
35	0xbd57ea2c	-0.052713558
36	0xbd31f6d4	-0.043448284
37	0x3bdb6f6e	0.006696633
38	0x3cdd84ef	0.027040927
39	0x3d38fce0	0.045163035
40	0xbbe59ae0	-0.007006988
41	0xba017c63	-0.00049394945
42	0xbd6f692a	-0.0584499
43	0x3b869cda	0.0041080536
44	0x3d1ba44d	0.037998486
45	0x3cf17ebe	0.02947938
46	0x3bc4368c	0.005987948
47	0x3ceda4b1	0.029009195
48	0xbc8970f2	-0.01677749
49	0xbd21d2c6	-0.03950765
50	0xbd17525d	-0.036943782
51	0xbc404b0a	-0.011736641
52	0x3d3cc1ad	0.04608314
53	0xbcd535c8	-0.026026621
54	0xbd44c6bd	-0.048041094
55	0x3cb541be	0.022126075
56	0x3d356771	0.044288103
57	0xbd8bcaa4	-0.0682576
58	0x3d0aa48e	0.033848338
59	0x3d24fd21	0.040280465
60	0x3b4d3f50	0.0031318255
61	0x3b96ef86	0.00460619
62	0xbcd6d95a	-0.026226688
63	0xbcb63d4e	-0.02224603
64	0x3d57be38	0.05267164
65	0x3b7066cf	0.0036682372
66	0xbd602514	-0.05472286
67	0xbd3da2b2	-0.046297736
68	0xbc456ae3	-0.01204941
69	0xbc13401a	-0.008987451
70	0xbd477ec5	-0.04870488
71	0xbc79ff81	-0.015258671
72	0xbd3d4f2f	-0.046218093
73	0x3c09952d	0.008397383
74	0xbd287bfe	-0.041133873
75	0x3cfd41f1	0.030915232
76	0xbd70ee14	-0.0588208
77	0x3d4cb0d5	0.049973328
78	0x3d0081be	0.03137373
79	0x3cf7e68c	0.0302613
80	0x3cd918f4	0.026501156
81	0xbd523f3a	-0.05132983
82	0x3ce4fb37	0.02795182
83	0xbbe47b0a	-0.006972675
84	0xbd7035fc	-0.058645234
85	0xbd33371d	-0.043753732
86	0xbd4a1d0c	-0.049344108
87	0xbd2dd533	-0.04243965
88	0x3d10770b	0.03526978
89	0xbd5154b4	-0.05110617
90	0xbd093264	-0.033495322
91	0x3d39c52c	0.045354053
92	0xbd7f8b39	-0.062388632
93	0x3d2b53cf	0.041827973
94	0x3d0a062e	0.0336973
95	0xbb864be7	-0.0040984037
96	0xbd37b5ee	-0.044851236
97	0xbd7782c9	-0.06042746
98	0x3c089d5a	0.008338297
99	0xbbcf8c10	-0.0063338354
100	0x3b46e700	0.003035009
101	0xbd74eedf	-0.059798118
102	0x3c9985ea	0.018740613
103	0xbb822d10	-0.003972657
104	0xbd29a682	-0.04141856
105	0xbcb96eb4	-0.022635795
106	0xbcc4a607	-0.02400495
107	0x3c73823c	0.014862593
108	0x3d14f811	0.036369387
109	0xbce90e4c	-0.0284492
110	0xbcec5e44	-0.028853543
111	0xbc315ac6	-0.010824865
112	0xbc4d1076	-0.012516132
113	0x3cfe34fc	0.031031124
114	0xbd0c6f78	-0.034285992
115	0x3ce42b4c	0.027852677
116	0x3b0ae7b4	0.0021195235
117	0x3d2a8ac2	0.041636236
118	0x3cdc0bb6	0.026861053
119	0x3ce667c7	0.028125657
120	0xbc9a5499	-0.018839167
121	0xbd00a816	-0.0314103
122	0xbcd4fff2	-0.02600095
123	0x3ca78d58	0.02045314
124	0x3d1fd438	0.039020747
125	0xbc8ecd57	-0.017431898
126	0x3cb82294	0.022477426
127	0xbd47dd2f	-0.04879492
128	0xbc0d8ea5	-0.008639966
129	0x3beb2719	0.0071762917
130	0xbc0c0fb3	-0.008548665
131	0x3d4d7562	0.050160773
132	0xbcd9bfa4	-0.02658064
133	0xbc32f158	-0.010921799
134	0xbd22e568	-0.03976956
135	0xbca5835b	-0.020204237
136	0xbd78a2b3	-0.060702037
137	0xbb147119	-0.002265042
138	0xbd4244f1	-0.04742903
139	0x3c695828	0.0142422095
140	0xbd614f75	-0.055007417
141	0xbcb97e28	-0.022643164
142	0x3c079161	0.008274407
143	0x3d1c8d48	0.038220674
144	0x3cbe2b60	0.023214042
145	0x3c7c52e4	0.015400622
146	0x3d2b8ff5	0.041885335
147	0xbbac0064	-0.00524907
148	0x3c4b4a34	0.012407828
149	0x3d11c2d5	0.035586197
150	0xbc66bf44	-0.014083687
151	0xbcb0d0b3	-0.02158389
152	0xbc80dcd7	-0.015730305
153	0xbc83184d	-0.016002798
154	0x3bc8d46f	0.0061288397
155	0xbd5a188f	-0.053246077
156	0x3d602aa9	0.054728184
157	0x3d217d37	0.039426055
158	0xbcfa6c3a	-0.030569185
159	0xbd63d628	-0.055624157
160	0xbd16a700	-0.036780357
161	0xbd7370f8	-0.059433907
162	0x3d17d9f4	0.03707309
163	0x3bdad254	0.006677905
164	0x3d1fee54	0.039045647
165	0x3c02831b	0.007965828
166	0x3d183d2e	0.03716772
167	0xbbf36f37	-0.0074290293
168	0x3d31c60b	0.04340176
169	0xbd6f75bc	-0.05846189
170	0xbd817f65	-0.06323127
171	0xbcdf2ed0	-0.027244002
172	0x3cd29de4	0.025710054
173	0xbcbfe62c	-0.023425184
174	0x3d4590af	0.048233684
175	0x3cb3f80c	0.021968864
176	0x3d770704	0.060309425
177	0x3c530fad	0.012882155
178	0x3cd17b2e	0.025571432
179	0x3b9ca965	0.0047809356
180	0x3d365f86	0.044524692
181	0x3c94378c	0.018092893
182	0xbc948d02	-0.018133644
183	0xbd1f735e	-0.038928382
184	0xbcabc1b1	-0.020966383
185	0xbc665591	-0.014058487
186	0x3d2d3804	0.04228975
187	0x3cfd9652	0.030955467
188	0x3d4b2f93	0.049605917
189	0xbd7fd765	-0.062461276
190	0xbd1ceea7	-0.038313534
191	0xbc3aeb52	-0.011408644
192	0xbd1834a2	-0.03715957
193	0x3d3f3cbb	0.046688776
194	0xbd46262c	-0.048376247
195	0xbd5da367	-0.05411091
196	0xbd49fffe	-0.0493164
197	0x3cff3aa4	0.031155892
198	0x3bbf7365	0.0058426135
199	0xbb9a39db	-0.004706604
200	0x3c7b0f92	0.0153235365
201	0xbd332377	-0.043734994
202	0xbd61c0a1	-0.055115346
203	0x3d464cab	0.04841296
204	0x3caa690f	0.020802049
205	0xbd897019	-0.06710834
206	0xbc784b38	-0.015154652
207	0x3c9932bc	0.01870095
208	0x3d19fa79	0.037592385
209	0xbd1d7700	-0.038443565
210	0xbd1ea648	-0.038732797
211	0xbd54f3ff	-0.051990505
212	0x3ac6e027	0.0015173004
213	0xbd567083	-0.052353393
214	0x3cd677d4	0.026180185
215	0xbd263d67	-0.0405859
216	0x3cba5e4a	0.022750039
217	0xbb0790da	-0.0020685703
218	0x3cdff225	0.027337143
219	0xbd268919	-0.04065809
220	0x3c810a3f	0.015751956
221	0xbc3c720c	-0.0115018
222	0xbd71c8a6	-0.059029244
223	0xbc657841	-0.014005722
224	0x3d0e366f	0.03471988
225	0xbd03904a	-0.032120027
226	0x3cedb55c	0.029017143
227	0xbbd6322a	-0.0065367417
228	0xbb82ff6c	-0.003997734
229	0xbd671211	-0.056413714
230	0xbd0cf3a3	-0.034412038
231	0xbbf2278d	-0.0073899687
232	0x3d03c37a	0.032168843
233	0x3d57934b	0.052630704
234	0x3d5a20b8	0.05325386
235	0x3d0d569b	0.03450642
236	0x3cd689ff	0.026188849
237	0xbd60b843	-0.054863226
238	0xbc885cb4	-0.016645767
239	0x3d1a717b	0.03770588
240	0x3d22cd19	0.039746378
241	0xbd44c630	-0.04804057
242	0x3d4e49c5	0.05036332
243	0xbd40cc70	-0.047069967
244	0xbca4e346	-0.020127904
245	0xbd0b58d2	-0.034020253
246	0xbd393440	-0.045215845
247	0x3c1fe936	0.009760192
248	0xbd23edbf	-0.040021654
249	0xbd50bd05	-0.050961513
250	0xbc173d14	-0.009230871
251	0xbd0b4424	-0.03400053
252	0x3d55be01	0.052183155
253	0x3d20e396	0.039279543
254	0xbd5c07e3	-0.05371846
255	0x3d1e0786	0.038581394

q1.2.bias f4 [256]
0	0x3cd8cacd	0.02646389
1	0xbe0bd87c	-0.13656801
2	0xbaf7c921	-0.0018904546
3	0x3f0740db	0.52833337
4	0x3e730612	0.23732784
5	0xbd3246fe	-0.043524735
6	0xbcbd70be	-0.023125049
7	0x3e933960	0.2875471
8	0xbd696cf8	-0.056988686
9	0xbd01aaaa	-0.0316569
10	0xbcf63f16	-0.030059379
11	0xbd1af464	-0.037830725
12	0x3e85f4d3	0.2616335
13	0xbe110e3d	-0.14165588
14	0x3e667059	0.22503795
15	0x3d37f4a7	0.044911053
16	0x3e98f044	0.29870808
17	0x3d3dc994	0.046334818
18	0x3ec7a5d6	0.3899371
19	0x3d5a1983	0.053246986
20	0x3ec1813a	0.37793905
21	0xbe062f5e	-0.13104007
22	0x3d3ddb04	0.046351448
23	0xbe4e1272	-0.20124224
24	0xbe85ecb3	-0.2615715
25	0x3eba38d9	0.36371496
26	0xbc414630	-0.011796519
27	0x3e80a1a8	0.25123334
28	0xbc4d6a05	-0.012537484
29	0xbd1daddb	-0.03849588
30	0x3e8fec6f	0.28110072
31	0xbcf98095	-0.03045682
32	0x3d2b2d73	0.04179139
33	0x3ce0c305	0.027436743
34	0x3d2f572b	0.04280774
35	0xbe332638	-0.17495048
36	0x3bf5b9a8	0.0074989386
37	0x3e4fbb50	0.20286298
38	0x3d3867ef	0.045020994
39	0x3ea6c054	0.3256861
40	0x3d2af750	0.04173976
41	0xbe8b29c8	-0.27180314
42	0xbd845161	-0.06460834
43	0x3bd8c915	0.0066157677
44	0x3eb4c313	0.3530508
45	0x3e6c00fd	0.23047252
46	0x3e407a1d	0.18796583
47	0x3ec57b08	0.38570428
48	0x3c8e3deb	0.01736351
49	0x3e8e91d1	0.27845624
50	0x3ec2e6e5	0.38066784
51	0x3e415266	0.18879089
52	0x3c354db4	0.011065889
53	0x3eee4758	0.46538806
54	0xbcc66d2c	-0.02422198
55	0xbd372ff3	-0.044723462
56	0x3e9f7594	0.31144392
57	0x3e83eef2	0.25768238
58	0xbcbccb10	-0.023046046
59	0x3e81dd75	0.2536427
60	0x3ea1dd7d	0.31614295
61	0x3b6bbbe1	0.003597014
62	0x3e52e65b	0.20595686
63	0x3e612fa9	0.21990837
64	0x3eab62e3	0.33473882
65	0xbd18dc62	-0.03731955
66	0x3e7d795e	0.24753329
67	0x3d485dcf	0.048917588
68	0x3e8046a9	0.2505391
69	0x3edd7a13	0.43257198
70	0x3e8b249a	0.27176362
71	0x3d49a891	0.049233023
72	0x3d20ed39	0.039288733
73	0x3d0a03c4	0.033694997
74	0x3ee596c2	0.44841582
75	0x3e34bf50	0.17651105
76	0x3e527ef2	0.20556238
77	0x3cc8492f	0.02444896
78	0xbe2af491	-0.16694857
79	0x3d382635	0.044958312
80	0xbe476665	-0.19472654
81	0xbd5ec0c3	-0.05438305
82	0x3f0fe6d6	0.562116
83	0x3ebb08cf	0.36530158
84	0x3e8eaef9	0.2786787
85	0x3e8e52ee	0.27797645
86	0x3ecfd380	0.4059105
87	0x3e41a593	0.18910818
88	0x3e960b01	0.2930527
89	0xbd6fa420	-0.05850613
90	0xbe69841f	-0.22804306
91	0x3c4bba10	0.0124344975
92	0x3e63e118	0.22253835
93	0x3cafdba3	0.021467036
94	0xbd606642	-0.05478502
95	0x3e91c920	0.2847376
96	0x3d0d75ac	0.03453605
97	0x3e4cd877	0.2000445
98	0x3ca27178	0.019829497
99	0x3ecacd16	0.39609593
100	0x3e31667c	0.17324251
101	0xbd8239ec	-0.06358704
102	0x3d1a0a88	0.0376077
103	0x3e8150aa	0.25256854
104	0x3ed8154d	0.4220375
105	0x3ee8d92c	0.4547819
106	0xbd442234	-0.04788418
107	0x3e76c7c1	0.24099638
108	0xbe15fb64	-0.14646679
109	0x3e6609ce	0.22464678
110	0x3e961ac3	0.29317293
111	0x3ce8091a	0.028324652
112	0xbe1a805e	-0.1508803
113	0xbea0d563	-0.314128
114	0x3e817e1d	0.2529153
115	0x3c1bc995	0.00950851
116	0x3ecd5c45	0.4010946
117	0x3e927bbd	0.2861003
118	0x3e8a2e97	0.2698867
119	0xbd07a765	-0.033118624
120	0x3ef5aebf	0.47984883
121	0xbe0e0802	-0.13870242
122	0x3e4936c4	0.19649798
123	0x3cd64dd8	0.026160166
124	0xbd55fad0	-0.052241147
125	0x3e9890a8	0.29797864
126	0x3e72e4b3	0.23720054
127	0xbdea2dd9	-0.11434526
128	0xbd56e5b3	-0.052465152
129	0x3e8f20e9	0.27954796
130	0xbcfec194	-0.031098165
131	0x3e56ac4b	0.20964162
132	0x3e912cd1	0.28354505
133	0x3e6b22ac	0.22962445
134	0x3edb4b22	0.4283076
135	0x3d12fd6a	0.035886206
136	0x3ef290c0	0.4737606
137	0x3d55444f	0.052067097
138	0x3d52db77	0.05147883
139	0xbcfa6661	-0.030566396
140	0x3e917b1d	0.2841424
141	0x3e96c07d	0.29443732
142	0x3d1507d5	0.036384422
143	0x3bf36a01	0.007428408
144	0x3c4c38a0	0.012464672
145	0x3ea6db9d	0.32589427
146	0xbe1a9ee0	-0.15099669
147	0x39a27b19	0.00030990763
148	0xbe2b797b	-0.1674556
149	0x3d2db3de	0.042407863
150	0xbcee0aa4	-0.029057808
151	0xbe2d9303	-0.16950612
152	0xbcec67b8	-0.02885805
153	0x3ebcd892	0.3688398
154	0xbd76f69a	-0.06029377
155	0x3e8135b5	0.25236288
156	0x3c952206	0.0182047
157	0x3e71ffd0	0.23632741
158	0xbd29c3d7	-0.041446533
159	0xbd649513	-0.05580623
160	0xbc466a72	-0.0121103395
161	0x3d2be80f	0.041969355
162	0x3eafeea6	0.34361762
163	0x3eac334a	0.3363288
164	0x3e797e6e	0.24364635
165	0x3e885b16	0.26631993
166	0xbc69db7c	-0.014273521
167	0x3e7fb647	0.24971877
168	0xbd1670d1	-0.036728684
169	0x3e90c074	0.2827183
170	0x3e8c61b4	0.27418292
171	0x3c3cdace	0.0115267765
172	0x3d54db9b	0.051967245
173	0x3eda5fe9	0.426513
174	0x3e6f606f	0.2337663
175	0x3c9f00f5	0.019409636
176	0x3e71392f	0.2355697
177	0xbe1eef75	-0.15521033
178	0x3e86ad2d	0.26303998
179	0xbd24b88a	-0.040215053
180	0xbd139ed4	-0.036040142
181	0x3e92b43d	0.28653136
182	0xbbe107df	-0.0068673934
183	0x3e7ad0da	0.24493733
184	0xbc8d2108	-0.017227665
185	0xbe48f6b4	-0.1962536
186	0xbd493594	-0.04912336
187	0x3ea5be03	0.3237153
188	0x3e975ed0	0.29564524
189	0x3e817768	0.25286412
190	0xbe34118d	-0.1758482
191	0x3b3ead0b	0.002909484
192	0xbcc83357	-0.024438543
193	0xbe2bb777	-0.16769205
194	0xbdfea29a	-0.124333575
195	0xbd82a3c2	-0.063788906
196	0xbe2b9622	-0.1675649
197	0x3bd95580	0.006632507
198	0xbd4b457a	-0.049626805
199	0x3e935afa	0.28780347
200	0xbd9c906d	-0.076447345
201	0x3ed6897d	0.4190177
202	0xbd1a4a36	-0.03766843
203	0x3eb3096c	0.34968126
204	0xbd1aeef0	-0.037825525
205	0x3c62d68e	0.013845099
206	0xbd079e5b	-0.033110004
207	0xbe493dd1	-0.19652487
208	0x3ed02565	0.4065353
209	0x3bc60460	0.006043002
210	0x3edeb104	0.43494427
211	0x3eb6c2e6	0.3569557
212	0x3e4af453	0.19819765
213	0x3edf088a	0.43561202
214	0x3e80de3b	0.25169548
215	0x3ef6af59	0.48180655
216	0x3ed16d8b	0.40903887
217	0x3c512643	0.01276547
218	0x3ea41012	0.3204351
219	0xbe28178b	-0.16415231
220	0xbcfd5761	-0.030925455
221	0xbe28bf25	-0.16479166
222	0xbd11d8bb	-0.03560708
223	0x3ee90f2a	0.45519382
224	0x3ea00fac	0.31261957
225	0x3d216d6d	0.039410997
226	0x3e891159	0.26771048
227	0x3bf738eb	0.007544627
228	0x3e8bdbc4	0.27316105
229	0x3e87ca84	0.26521695
230	0x3ee7b3c5	0.4525434
231	0x3e462ad1	0.1935227
232	0x3e98b4af	0.2982535
233	0x3e90b48a	0.2826274
234	0x3eaf2d3d	0.34214202
235	0x3ed472f7	0.4149396
236	0x3ee98473	0.45608863
237	0x3c185c64	0.009299371
238	0xbd0b17c8	-0.033958226
239	0x3ece85b4	0.40336382
240	0x3e745e1e	0.23864028
241	0x3e73c0f8	0.2380408
242	0x3e999fb7	0.30004665
243	0xbb293e08	-0.0025824327
244	0x3e83e4d5	0.25760522
245	0xbe18a6e7	-0.14907418
246	0xbd75a5e2	-0.05997265
247	0x3f0e7e3c	0.5566137
248	0x3e77462c	0.24147862
249	0xbc5b96e0	-0.013402671
250	0x3e8e9583	0.27848443
251	0x3ee7fb9e	0.45309156
252	0x3eedf0f8	0.46472907
253	0xbd2d4fbd	-0.042312372
254	0xbb801090	-0.0039082244
255	0x3c3383bd	0.010956702

q1.4.weight f4 [1, 256]
0	0x3d4c5f47	0.04989555
1	0xbb892fdd	-0.004186614
2	0x3d3067e2	0.04306782
3	0xbf3b4ac6	-0.7316097
4	0xbe30e32d	-0.1727416
5	0x3c553a03	0.013014319
6	0x3e9132b3	0.28358993
7	0xbe347b3d	-0.17625137
8	0x3bbe28f0	0.00580322
9	0x3c4e42d1	0.012589172
10	0xbc001951	-0.007818536
11	0x3d1ab752	0.037772484
12	0xbe5541bc	-0.20825857
13	0x39cb59e8	0.00038786163
14	0xbe0a81f1	-0.13526131
15	0xbafc4fa3	-0.0019249808
16	0xbded8352	-0.11597313
17	0xbd6a14b2	-0.057148643
18	0xbe809a65	-0.25117794
19	0x3d3d3430	0.046192348
20	0xbe74bd22	-0.23900273
21	0xbd4abea2	-0.049498208
22	0x3d09a5d2	0.033605404
23	0x3d874e88	0.066067755
24	0x3d53aed4	0.0516804
25	0xbe9e4c93	-0.30917796
26	0x3d5f9eb3	0.054594707
27	0xbe4b25e9	-0.1983868
28	0x3c9d3df1	0.019194575
29	0xbc60c13e	-0.0137179475
30	0xbe5719fa	-0.21006003
31	0x3afef2b1	0.001945099
32	0x3d5590e2	0.052140124
33	0xbb8e5804	-0.0043439884
34	0xbd2f7f0a	-0.042845763
35	0x3d486961	0.048928622
36	0x3d35ee6e	0.044416837
37	0xbe40efdc	-0.18841499
38	0xbb004fda	-0.0019578845
39	0xbe5004fc	-0.20314401
40	0x3b1f14e1	0.002427392
41	0x3d5c3e1b	0.053770166
42	0x3cdc34ce	0.026880648
43	0x3cfb9389	0.030709999
44	0xbe22cf3b	-0.15899365
45	0xbe0c0ede	-0.13677546
46	0xbe2fa242	-0.1715174
47	0xbe5301a3	-0.20606093
48	0x3d464005	0.048400898
49	0xbe40cf3f	-0.18829058
50	0xbe469b07	-0.19395076
51	0xbe214064	-0.1574722
52	0x3a80416f	0.0009785126
53	0xbf352243	-0.70755404
54	0xbae625dc	-0.001755889
55	0x3d4e60c0	0.050385237
56	0xbe39756b	-0.18111198
57	0xbe176e4d	-0.1478817
58	0xbb26d840	-0.0025458485
59	0xbe09fd15	-0.1347545
60	0xbe770a83	-0.24125104
61	0x3d3b2e7c	0.045698628
62	0xbe11a2c6	-0.1422225
63	0xbe6224fb	-0.2208442
64	0xbe16eb87	-0.14738284
65	0x3d5bf8e4	0.053704157
66	0xbe080f20	-0.1328702
67	0x3d437c19	0.04772577
68	0xbe6e170f	-0.23250984
69	0xbe9cb45c	-0.30606353
70	0xbe4ca345	-0.19984157
71	0x3d000bee	0.031261377
72	0x3d6dd664	0.058065787
73	0x3ce7c150	0.02829042
74	0xbeefb295	-0.46815935
75	0xbe157b0e	-0.14597723
76	0xbe2d1db4	-0.16905862
77	0x3b6fa71c	0.003656811
78	0x3a903ec1	0.001100503
79	0x3d1fe956	0.039040886
80	0x3cb46ff6	0.022026043
81	0x3c3cff81	0.011535526
82	0xbf327eec	-0.6972492
83	0xbe737c56	-0.23777899
84	0xbe5b4545	-0.21413143
85	0xbe3b7085	-0.18304642
86	0xbe91792b	-0.28412756
87	0xbe0f6bc9	-0.1400596
88	0xbee1d7d0	-0.44109964
89	0x3d1b70d6	0.037949406
90	0x3d12ce04	0.035841003
91	0x3d4c5412	0.049884863
92	0xbe3535f6	-0.17696366
93	0x3cba58a9	0.022747355
94	0x3b829ec0	0.0039862096
95	0xbe276673	-0.16347675
96	0x3cdcdb81	0.026960136
97	0xbdf757a7	-0.12077265
98	0xbca09000	-0.019599915
99	0xbe662b9d	-0.22477575
100	0xbe246b44	-0.16056544
101	0x3d5266c1	0.051367525
102	0x3cced671	0.025248738
103	0xbe396b8d	-0.18107434
104	0xbefdd6ce	-0.49577945
105	0xbe9a875a	-0.3018139
106	0x3cfcae40	0.030844808
107	0xbe4179dd	-0.18894143
108	0x3de60b87	0.112326674
109	0xbe2e86e0	-0.17043638
110	0xbe524252	-0.20533112
111	0x3d2a26af	0.041540798
112	0x3ccaa4eb	0.024736842
113	0x3e0c355e	0.13692233
114	0xbe2025b4	-0.15639383
115	0x3d04a3e1	0.03238285
116	0xbe1a578d	-0.1507246
117	0xbe220094	-0.15820533
118	0xbe21f591	-0.15816332
119	0x3d3e5f0d	0.046477366
120	0xbe39df50	-0.18151593
121	0x3f33688b	0.70081395
122	0xbe035fa6	-0.12829456
123	0xbba1e9ee	-0.0049412167
124	0xbcef2ed8	-0.029197142
125	0xbe16061c	-0.14650768
126	0xbe32849e	-0.17433402
127	0x3d49a4e0	0.049229503
128	0x3b3042bb	0.0026895243
129	0xbe1880ea	-0.14892927
130	0x3d0a05ad	0.03369682
131	0xbe208374	-0.15675145
132	0xbe312336	-0.17298588
133	0xbe212349	-0.15736116
134	0xbe881872	-0.2658115
135	0x3d39cc27	0.04536071
136	0xbf357bb8	-0.70891905
137	0x3cf677f6	0.030086499
138	0x3b6f9473	0.0036556988
139	0x3ccfd949	0.025372164
140	0xbe11a84e	-0.1422436
141	0xbe0f6e10	-0.1400683
142	0x3c9779f0	0.018490762
143	0xb9c363fb	-0.0003726779
144	0x3cfac463	0.030611223
145	0xbe5b8c66	-0.21440277
146	0x3f62ca5c	0.88590026
147	0x3d11521c	0.035478696
148	0xbced14be	-0.028940555
149	0x3ca0225e	0.019547638
150	0xbd317d2c	-0.043332264
151	0x3d3943ba	0.045230605
152	0x3e7f3fac	0.24926633
153	0xbea93f94	-0.3305632
154	0x3c9c8b41	0.01910937
155	0xbe0ecdd0	-0.13945699
156	0x3c3481fe	0.011017321
157	0xbe1fb5f4	-0.15596753
158	0x3d111499	0.035420034
159	0x3cd17411	0.02556804
160	0xba36644a	-0.0006957693
161	0x3d231b71	0.039821092
162	0xbe8e2279	-0.27760676
163	0xbe39f5fd	-0.18160243
164	0xbe34a741	-0.17641927
165	0xbe34d8a6	-0.1766077
166	0x3d391bb4	0.045192435
167	0xbe422994	-0.18961173
168	0x3bc86d7d	0.0061165676
169	0xbe3a5058	-0.18194711
170	0xbe2baca5	-0.16765077
171	0x3d26de1d	0.040739167
172	0x3d574436	0.052555285
173	0xbeac79d9	-0.33686712
174	0xbe221ffb	-0.15832512
175	0x3ba0706b	0.0048962138
176	0xbe055e18	-0.13024175
177	0x39f259b7	0.0004622468
178	0xbe1e00da	-0.15430012
179	0x3ce2fe6b	0.027709207
180	0x3d017fb4	0.031615928
181	0xbe5df695	-0.21676095
182	0x3b506f59	0.003180465
183	0xbe557bd2	-0.20848015
184	0x3c9e090d	0.019291425
185	0x3dc51f15	0.09625069
186	0x3d6d3253	0.05790932
187	0xbe6b129e	-0.2295632
188	0xbe08261d	-0.13295789
189	0xbe1e65b2	-0.15468481
190	0x3dc2cb32	0.09511413
191	0x3d2d9180	0.042375088
192	0x3d27874e	0.04090052
193	0x3db63aa8	0.088979065
194	0xbc677fcc	-0.01412959
195	0x3b5fa2e4	0.003412419
196	0x3ddf1e2c	0.10894427
197	0x3d44b1b7	0.048021045
198	0x3e1a6a5e	0.15079638
199	0xbe1dce2f	-0.15410684
200	0x3d06b746	0.032889627
201	0xbe7b7eda	-0.24560109
202	0x3cac5cf5	0.02104042
203	0xbe4a9d42	-0.19786552
204	0x3d376458	0.04477343
205	0x3d4df485	0.05028202
206	0x3ce63ff8	0.028106675
207	0x3e210337	0.15723883
208	0xbf0a5201	-0.5403138
209	0x3c89f952	0.016842518
210	0xbf0c2a44	-0.5475199
211	0xbe69cfd9	-0.22833194
212	0xbe3f388d	-0.18673916
213	0xbee8cc6b	-0.4546846
214	0xbea48706	-0.32134265
215	0xbf3c30b5	-0.7351182
216	0xbe964e7f	-0.29356763
217	0x3d061ddf	0.03274333
218	0xbe26f546	-0.16304502
219	0x3fa4f206	1.288636
220	0x3d4c9d90	0.04995495
221	0x3d94437f	0.07239436
222	0x3c8363e1	0.016038837
223	0xbf1cd7c1	-0.61266714
224	0xbe134e0c	-0.14385241
225	0x3c0705cb	0.008241127
226	0xbe3857d3	-0.18002252
227	0x3d581312	0.052752562
228	0xbe1ca1de	-0.15296122
229	0xbe25bfc3	-0.16186433
230	0xbe5661d1	-0.20935751
231	0xbe286ada	-0.1644701
232	0xbe3acd90	-0.18242478
233	0xbe5a70d8	-0.21332109
234	0xbe65c2b0	-0.22437549
235	0xbe758248	-0.2397548
236	0xbe92f436	-0.28701943
237	0x3c29ce47	0.010364122
238	0x3d023fde	0.03179919
239	0xbe4a2ba7	-0.19743215
240	0xbe2ee857	-0.17080818
241	0xbe364e8a	-0.17803398
242	0xbe1b3b0d	-0.15159245
243	0x3d16d35a	0.036822654
244	0xbee8dbc4	-0.45480168
245	0x3ba2b5a4	0.004965501
246	0x3c134ebc	0.00899094
247	0xbf35ee5a	-0.7106682
248	0xbe48dc89	-0.19615377
249	0xb9b8ff36	-0.00035285362
250	0xbe293e56	-0.16527686
251	0xbe8238de	-0.2543401
252	0xbea94b6a	-0.3306535
253	0x3d6afc25	0.05736937
254	0xbbd51960	-0.006503269
255	0x3d101235	0.035173614

q2.0.weight f4 [256, 21]
0	0x3e3c1836	0.1836861
1	0x3e03017e	0.12793538
2	0x3e87a025	0.26489368
3	0x3eb7390b	0.35785708
4	0x3df339d4	0.11876264
5	0x3e1fce18	0.15605962
6	0xbd203f5a	-0.039122917
7	0x3e8381bf	0.25684926
8	0x3e74f1d6	0.23920378
9	0x3e074c45	0.13212688
10	0x3e3a3422	0.1818395
11	0xbe428e38	-0.18999565
12	0x3e40288b	0.18765466
13	0xbd0dac50	-0.034588158
14	0xbe286208	-0.16443646
15	0xbe3cb2dc	-0.18427604
16	0x3df4bf12	0.11950506
17	0x3e34dc19	0.17662086
18	0x3e00b458	0.12568796
19	0x3e279392	0.16364887
20	0x3d840573	0.06446352
21	0xbd195337	-0.037432875
22	0xbe253bc3	-0.16136079
23	0xbc3f6dfe	-0.011683939
24	0xbdf2c2ab	-0.11853536
25	0xbc0056b8	-0.007833175
26	0xbbe32d30	-0.006932877
27	0xbcfa5ed8	-0.030562803
28	0xbd378f88	-0.044814616
29	0xbd6f8ab0	-0.058481872
30	0x3ddea46e	0.10871206
31	0xbd2f8f78	-0.04286143
32	0xbe0cb48a	-0.13740745
33	0xbde5d1e7	-0.11221676
34	0xbe3397d6	-0.1753839
35	0xbd9fb684	-0.07798484
36	0xbdfed582	-0.12443067
37	0x3ca40c88	0.020025507
38	0xbd512914	-0.051064566
39	0xbdc2c47f	-0.09510135
40	0xbe8e49c3	-0.2779065
41	0x3ba660fb	0.005077479
42	0x3e337715	0.17525895
43	0x3d48e63b	0.04904769
44	0xbd50948b	-0.05092291
45	0x3db6aa70	0.08919227
46	0xbe81cf94	-0.25353682
47	0x3d3182a0	0.043337464
48	0xbdc7ad08	-0.097498
49	0x3e3b5342	0.18293479
50	0xbd28a3a9	-0.041171703
51	0xbdf0cba2	-0.1175759
52	0x3df04efc	0.11733815
53	0xbe6a3835	-0.22873004
54	0xbe56892d	-0.20950766
55	0x3e1e45c1	0.15456297
56	0xbd26e884	-0.040749088
57	0x3d46c384	0.048526302
58	0x3e574b81	0.21024896
59	0xbe2a26fa	-0.16616431
60	0x3e8bf2d4	0.273337
61	0x3ce9733f	0.028497336
62	0xbc14d161	-0.009083123
63	0x3c8f31e1	0.017479839
64	0xbe0f47e1	-0.13992263
65	0x3e00b828	0.1257025
66	0x3e893738	0.2679994
67	0xbe86a139	-0.26294878
68	0xbe2835f5	-0.16426833
69	0x3c081d73	0.0083078025
70	0xbdbddb54	-0.09270349
71	0x3cec461b	0.028842023
72	0xbf1a899c	-0.60366225
73	0x3c58576b	0.013204436
74	0x3d92aecb	0.07162245
75	0xbd5c3b28	-0.053767353
76	0x3e27a3bf	0.16371058
77	0xbe149690	-0.1451056
78	0xbdb76bfa	-0.08956142
79	0x3bf372c0	0.0074294508
80	0xbe04b6c8	-0.1296035
81	0xbd7c2e03	-0.061567318
82	0xbdf6a0bd	-0.12042377
83	0xbe9b3d8b	-0.3032039
84	0x3e56979f	0.20956276
85	0x3cda28d2	0.026630793
86	0xbdd6180c	-0.10453805
87	0xbe9ae259	-0.30250815
88	0x3e3ac0ab	0.1823756
89	0xbe153449	-0.14570726
90	0x3c53b100	0.012920618
91	0xbe0261fc	-0.1273269
92	0xbbc8bbc0	-0.006125897
93	0x3d11959c	0.03554307
94	0xbe10435a	-0.14088193
95	0xbdd72b34	-0.10506287
96	0xbe35fde2	-0.1777263
97	0x3dd0660e	0.101757154
98	0xbe2359fd	-0.15952297
99	0x3e552c15	0.20817597
100	0xbdc1994f	-0.094530694
101	0x3e51ffa3	0.20507674
102	0xbd73ed49	-0.059552465
103	0x3de43497	0.11142843
104	0xbe2699f3	-0.16269664
105	0x3be61311	0.007021316
106	0x3e323c76	0.17405877
107	0xbd944180	-0.07239056
108	0x3dd66960	0.104693174
109	0x3dd4d0fb	0.10391422
110	0x3e6a9781	0.22909357
111	0xbe22b9a9	-0.15891136
112	0xbe10c102	-0.14136127
113	0xbcb5b4fa	-0.022181023
114	0xbe693dc3	-0.22777466
115	0x3d81513d	0.06314323
116	0x3d243261	0.040087108
117	0xbdef8349	-0.116949625
118	0xbdcdae9d	-0.100430705
119	0x3e141dc3	0.14464478
120	0x3df5232e	0.119696006
121	0x3d2a6404	0.04159929
122	0xbd8ad34e	-0.067785844
123	0x3d9acce6	0.075586125
124	0xbe0fa14c	-0.14026374
125	0x3e873d53	0.26413974
126	0x3e2315cd	0.15926285
127	0xbd481d66	-0.04885616
128	0x3da8329b	0.08212777
129	0x3eb6ded7	0.35716888
130	0xbc6e8dc9	-0.014560171
131	0xbe46bf4e	-0.19408914
132	0xbd1e0a4f	-0.03858405
133	0x3ed20468	0.41018987
134	0xbe3deac0	-0.18546581
135	0x3e2121ca	0.15735546
136	0x3c956d1d	0.018240506
137	0x3d6ff948	0.058587343
138	0x3dde64da	0.1085908
139	0xbe19b1c6	-0.15009221
140	0x3e45600b	0.19274919
141	0xbdfdc20c	-0.12390527
142	0x3df6cc16	0.12050645
143	0x3d90d9ea	0.07072814
144	0x3e8c3fb5	0.27392355
145	0x3e23aa12	0.15982845
146	0xbddb95c8	-0.10721928
147	0x3d32b09f	0.04362547
148	0x3deeea0b	0.11665734
149	0x3e1f7073	0.1557024
150	0x3d1b17ed	0.037864614
151	0x3cc470d6	0.023979586
152	0xbe234f6a	-0.15948263
153	0xbdb08c29	-0.086204834
154	0x3d46e658	0.048559517
155	0x3d2b4383	0.04181243
156	0xbd7c25f0	-0.061559618
157	0x3e13ded7	0.14440475
158	0xbd0e6a90	-0.034769595
159	0x3e20fba9	0.15721
160	0x3dfa9fea	0.122375324
161	0x3d8e7536	0.0695595
162	0x3e4c80e5	0.19971044
163	0xbe1b4098	-0.1516136
164	0xbd7e8cb0	-0.06214589
165	0xbde0d1fa	-0.1097755
166	0xbd39fcc3	-0.045407068
167	0xbca0446b	-0.019563874
168	0xbe0659f4	-0.13120252
169	0x3d1930e0	0.037400126
170	0xbd42faee	-0.047602586
171	0xbdf6daff	-0.12053489
172	0xbe4fffb7	-0.20312391
173	0xbe05fd9d	-0.13085027
174	0xbe1e391a	-0.1545147
175	0xbd977074	-0.073944956
176	0xbe16d1bc	-0.14728445
177	0xbe10d9ee	-0.14145634
178	0x3e49dcbb	0.19713108
179	0xbddc04d9	-0.10743112
180	0x3c87e2f0	0.016587704
181	0x3cf830b8	0.030296668
182	0xbe4e8d21	-0.20171024
183	0x3d9ca45e	0.07648538
184	0x3d7019d4	0.05861838
185	0xbd6d84a4	-0.057987824
186	0x3d2cf183	0.04222251
187	0xbe3b9975	-0.18320258
188	0xbe764f58	-0.24053705
189	0x3e2fbaea	0.17161146
190	0x3e3c240d	0.18373127
191	0x3e34bd32	0.17650297
192	0x3d242ec1	0.04008365
193	0xbe2ec02c	-0.17065495
194	0xbe2a9546	-0.16658506
195	0xbcccbea4	-0.024993248
196	0xbe3887f2	-0.18020609
197	0x3e533b53	0.20628099
198	0xbdaac397	-0.08338087
199	0x3e63f24a	0.22260395
200	0x3d4e4411	0.050357882
201	0x3dfccd1e	0.123438105
202	0xbd8d6f2e	-0.069059715
203	0x3d445c54	0.047939613
204	0xbcb83e88	-0.022490755
205	0xbe0f5efc	-0.14001077
206	0xbe0a00dc	-0.1347689
207	0x3d73c173	0.05951066
208	0xbe1d3786	-0.15353212
209	0xbdd6ce1f	-0.10488533
210	0x3e64e1d3	0.2235177
211	0xbe112631	-0.14174725
212	0xbe98a202	-0.29811102
213	0x3edd7fc4	0.4326154
214	0xbd8d8abf	-0.06911229
215	0x3d2fb015	0.042892534
216	0xbbdf64a7	-0.0068174186
217	0xbe01bcf4	-0.12669736
218	0xbdb4746c	-0.08811268
219	0xbf182dcc	-0.5944488
220	0x3e17df8a	0.14831367
221	0xbb53fa82	-0.003234536
222	0xbd9060b6	-0.07049696
223	0x3de07116	0.109590694
224	0x3e17ba59	0.1481718
225	0xbe2e37aa	-0.17013422
226	0x3e4d8257	0.20069252
227	0x3d905f06	0.07049374
228	0x3e9f6e29	0.31138733
229	0xbda5b3d9	-0.08090944
230	0xbe563559	-0.20918788
231	0x3d503d2b	0.050839584
232	0xbe5f3a04	-0.21799475
233	0xbca0d611	-0.019633325
234	0x3e303378	0.17207134
235	0xbeefc9bc	-0.468336
236	0x3ca7d61b	0.020487836
237	0xbe5ddef5	-0.21667083
238	0x3e397082	0.18109325
239	0x3e2af8b4	0.16696435
240	0xbe3268c0	-0.17422771
241	0x3d935ec8	0.071958125
242	0x3d9af482	0.075661674
243	0xbcbe5978	-0.023236021
244	0xbb9ec080	-0.004844725
245	0x3df374a2	0.1188748
246	0x3e36d9bb	0.17856495
247	0xbe00f3c0	-0.12592983
248	0x3e59df8f	0.21276687
249	0x3e6ce777	0.23135172
250	0xbe3fee73	-0.18743305
251	0xbd0b9714	-0.034079626
252	0x3e1ac072	0.15112475
253	0xbe4d0062	-0.20019677
254	0xbe14743e	-0.14497468
255	0x3e375010	0.17901635

q2.0.bias f4 [256]
0	0xbd1ff46f	-0.03905147
1	0x3f0a331f	0.53984255
2	0x3eab63ac	0.3347448
3	0x3eb320d0	0.3498597
4	0xbec34ce6	-0.38144606
5	0x3f1d8418	0.61529684
6	0xbece2ae8	-0.4026711
7	0x3f0d1c1c	0.55121017
8	0x3ed5f5b7	0.41789028
9	0x3e8371f8	0.2567289
10	0x3dc05289	0.09390742
11	0x3f0c855a	0.5489098
12	0x3eee9726	0.46599692
13	0x3d942abb	0.07234713
14	0x3f2337f0	0.6375723
15	0x3f21e423	0.63238734
16	0x3f203cd7	0.62592834
17	0xbf30ffec	-0.69140506
18	0x3f17caf1	0.5929404
19	0x3d060e17	0.03272828
20	0x3e692501	0.22768022
21	0x3e9ada6d	0.3024477
22	0x3ecab206	0.39588946
23	0x3d64a363	0.05581988
24	0x3f17ce15	0.5929883
25	0x3e95cff8	0.2926023
26	0x3d51e4c5	0.051243562
27	0x3f400bb3	0.7501785
28	0xbeafe679	-0.34355524
29	0x3eafc4ae	0.34329742
30	0x3edc4189	0.4301875
31	0x3f146cfc	0.57978797
32	0x3f116dd6	0.5680822
33	0x3ea13386	0.31484622
34	0x3d81c469	0.063362904
35	0xbf093a7c	-0.53604865
36	0xbedbf26c	-0.4295839
37	0x3ec3a4d9	0.38211706
38	0x3f384afe	0.7198943
39	0x3e2fdfad	0.1717517
40	0x3ec442ef	0.38332316
41	0xbed17275	-0.40907636
42	0x3f01e408	0.50738573
43	0x3f128f19	0.572496
44	0x3f1e695d	0.6187952
45	0x3bdf56cb	0.0068157665
46	0xbeef787d	-0.46771613
47	0x3ed10e1f	0.40831086
48	0x3e01674c	0.12637061
49	0x3f0c62ed	0.5483845
50	0x3f22ad26	0.63545454
51	0x3f309bcc	0.6898773
52	0x3eaf1361	0.34194472
53	0xbafccbc0	-0.0019286796
54	0xbecd8e83	-0.4014779
55	0x3ea45241	0.32094005
56	0x3f137dba	0.5761372
57	0x3f256893	0.6461269
58	0xbeaf743a	-0.3426836
59	0x3f169c06	0.5883182
60	0x3f17f6ee	0.5936116
61	0x3d837f5a	0.06420775
62	0x3ec103f6	0.37698334
63	0x3f27af54	0.65501904
64	0x3f3d90ea	0.74049246
65	0x3ea993df	0.3312063
66	0xbc001717	-0.007818005
67	0xbdbd70c7	-0.09250026
68	0x3cc61adc	0.02418273
69	0xbea2b6b3	-0.31780013
70	0xbe7222ac	-0.23646039
71	0xbe9f0f46	-0.3106634
72	0x3f31c21f	0.6943683
73	0x3e42d265	0.19025572
74	0x3f08fa4f	0.5350694
75	0x3eeff66a	0.46867687
76	0x3ed12161	0.4084578
77	0x3f26cda1	0.65157515
78	0xbe138dc6	-0.14409551
79	0x3f424e88	0.7590108
80	0x3f15e5ff	0.5855407
81	0x3ea36bbe	0.31918138
82	0xbe2754e5	-0.16340978
83	0x3ecbbdf9	0.39793375
84	0x3f15cb3f	0.58513254
85	0xbeb581fd	-0.35450736
86	0x3ecdf158	0.40223193
87	0x3e81213e	0.25220674
88	0x3e4542fb	0.19263832
89	0x3ee394bc	0.44449413
90	0x3f3676bb	0.7127492
91	0x3efdb701	0.49553683
92	0x3ed8151e	0.4220361
93	0xbed7220c	-0.42018163
94	0xbec130a7	-0.3773243
95	0x3e98061b	0.29692158
96	0xbf114196	-0.567407
97	0x3f0beaf0	0.5465536
98	0xbc649a8c	-0.0139528625
99	0x3f1d5bd6	0.61468256
100	0x3ea57a7e	0.32320017
101	0x3f223810	0.63366795
102	0x3ee32076	0.44360703
103	0x3f0b7d6d	0.5448826
104	0xbe59fe39	-0.21288384
105	0x3f2b8f39	0.67015415
106	0xbbddc0fe	-0.006767391
107	0x3ebb975c	0.36638916
108	0x3eb2a428	0.34890866
109	0xbe884996	-0.26618642
110	0x3f24c3c8	0.6436124
111	0x3f15e5ff	0.5855407
112	0xbf0b8c97	-0.545114
113	0xbe7158e1	-0.23569061
114	0xbd6d6ba7	-0.057963993
115	0xbeab9555	-0.3351237
116	0x3eec67bd	0.46172896
117	0x3e140092	0.14453343
118	0x3e50c9cb	0.20389478
119	0x3f423526	0.7586235
120	0x3dd8a7ff	0.10578918
121	0x3dc92104	0.0982075
122	0xbdc1f31f	-0.094702
123	0x3e87cfdf	0.2652578
124	0x3f2b8739	0.6700321
125	0x3ddba596	0.107249424
126	0x3f1bed10	0.60908604
127	0x3f44acdc	0.7682626
128	0x3f30a8f0	0.6900778
129	0x3ee50d57	0.4473674
130	0x3f025c05	0.5092166
131	0xbeb8aef5	-0.36070982
132	0xbe7dde0a	-0.24791732
133	0x3e0e1253	0.13874178
134	0x3f27af6d	0.65502053
135	0x3f182cca	0.5944334
136	0x3e95208c	0.29126394
137	0x3f36c718	0.7139754
138	0xbd98ab30	-0.074545264
139	0x3f0e5e20	0.55612373
140	0x3f015f53	0.5053608
141	0xbeaeb332	-0.3412109
142	0x3ec8358e	0.3910336
143	0x3efc147e	0.49234384
144	0x3e35a429	0.17738403
145	0x3e590fde	0.21197459
146	0x3f102777	0.5631022
147	0x3f1200d1	0.57032496
148	0x3f17c42b	0.59283704
149	0x3f06eee5	0.52708274
150	0xbef5dfeb	-0.48022398
151	0x3f44a214	0.7680981
152	0x3f13fb9a	0.5780579
153	0xbeabb2e1	-0.3353491
154	0x3cb3ce82	0.021949057
155	0x3ecea8f0	0.40363264
156	0x3cff6db5	0.031180242
157	0x3f187229	0.59549195
158	0x3c686642	0.014184536
159	0x3ec3aa54	0.38215888
160	0xbe2cfd95	-0.16893609
161	0x3f2e4398	0.6807189
162	0x3f145114	0.57936215
163	0xbea94c5e	-0.33066076
164	0xbee3ce3e	-0.44493288
165	0x3e969a42	0.29414564
166	0x3f19dceb	0.6010272
167	0x3f014c68	0.5050721
168	0x3f0d2574	0.55135274
169	0x3f14e978	0.58168745
170	0xbe3bec8d	-0.18351956
171	0xbebf6bc9	-0.3738692
172	0x3e85d2ee	0.2613749
173	0x3eb74f41	0.35802653
174	0x3f5bf0db	0.8591439
175	0xbee85a6d	-0.4538149
176	0x3da22b15	0.079183735
177	0x3f0f7b30	0.56047344
178	0x3f021350	0.5081072
179	0xbeb8e9b6	-0.36115807
180	0xbeb33003	-0.34997568
181	0xbeb1474d	-0.3462471
182	0x3e59353d	0.21211715
183	0x3ecfc875	0.40582624
184	0x3e66e84c	0.22549552
185	0xbe9eabc4	-0.30990422
186	0x3e512051	0.20422484
187	0x3eb0f92d	0.34565106
188	0x3e3738aa	0.1789271
189	0xbe9119fe	-0.28340143
190	0x3ec97940	0.3935032
191	0x3e94adb5	0.29038778
192	0xbee25d5d	-0.44211856
193	0xbe00ac79	-0.12565793
194	0xbeb038d1	-0.34418347
195	0x3f0f6bdf	0.56023973
196	0x3e7dffaa	0.2480456
197	0x3ece87e0	0.4033804
198	0x3eae7a35	0.34077612
199	0x3f0427f3	0.5162346
200	0xbcb56189	-0.022141235
201	0x3f234bcc	0.6378753
202	0x3f063749	0.5242811
203	0xbf017b83	-0.5057909
204	0x3d2e635c	0.042575225
205	0xbd9d763d	-0.07688568
206	0x3efe6bbd	0.49691573
207	0x3eb2d9a5	0.34931675
208	0x3e877d71	0.26462892
209	0xbdde8b81	-0.10866452
210	0x3ee504a4	0.44730103
211	0xbed61fb3	-0.4182106
212	0xbf031bc2	-0.5121423
213	0x3e30ed88	0.17278111
214	0xbe255afe	-0.16147992
215	0x3ea8ebf4	0.32992518
216	0x3eddf6df	0.4335241
217	0x3e8b14e9	0.2716439
218	0xbed38799	-0.4131439
219	0x3ecac28a	0.39601547
220	0x3e85319f	0.2601442
221	0xbeaa5f40	-0.33275795
222	0xbebc9878	-0.36835074
223	0x3f2739ad	0.6532238
224	0x3f2415b7	0.64095634
225	0xbd0792de	-0.033099048
226	0x3f413f35	0.7548707
227	0x3f202312	0.62553513
228	0x3ea1bab7	0.31587765
229	0x3eea51e1	0.45765594
230	0x3e6baba5	0.23014696
231	0x3ee15036	0.4400651
232	0x3ef39f02	0.4758225
233	0xbe903cf0	-0.28171492
234	0x3e8b3881	0.27191547
235	0x3ea496e0	0.32146358
236	0xbebbd4c1	-0.36685756
237	0xbe9a0481	-0.3008156
238	0x3ee6195a	0.44941217
239	0x3f09596a	0.5365206
240	0x3e9edb61	0.31026748
241	0x3ed19d1c	0.40940177
242	0xbeb90620	-0.36137486
243	0x3ec63f7e	0.38720316
244	0x3f192d9a	0.5983521
245	0xbee53abc	-0.44771373
246	0x3f690255	0.91019183
247	0x3eade47f	0.3396339
248	0x3b94c06c	0.00453954
249	0xbe4ddfcf	-0.20104907
250	0x3e99ebc5	0.3006269
251	0x3df33b53	0.118765496
252	0x3e3976fd	0.18111797
253	0x3f1bcc3e	0.60858524
254	0xbe903660	-0.28166485
255	0x3f300b38	0.6876712
