src/checkpoints/sac_actor_0.pth (torch, 288432 bytes, 6 tensors)

net.0.weight f4 [256, 18]
0	0x3d6cfd1a	0.057858564
1	0x3d9a1d13	0.07525077
2	0xbd60331e	-0.05473625
3	0x3e6b6680	0.2298832
4	0x3e745c29	0.23863281
5	0xbda84749	-0.082167216
6	0xbdc2f027	-0.09518462
7	0x3e14732c	0.1449706
8	0x3e2e8968	0.17044604
9	0x3e160863	0.14651637
10	0xbe2a0881	-0.16604806
11	0x3d284a44	0.04108645
12	0xbd3ca704	-0.046057716
13	0x3c988138	0.018616304
14	0x3c153a20	0.009108096
15	0x3dcaa5c2	0.09894897
16	0x3e28cae1	0.16483642
17	0xbabe9780	-0.0014541
18	0x3d9c2136	0.07623522
19	0x3d86843a	0.06568189
20	0xbd967edd	-0.07348416
21	0x3e2bc389	0.1677381
22	0xbd893c63	-0.06700971
23	0x3e6d161e	0.23152968
24	0x3d8ce3fd	0.06879423
25	0x3e563e14	0.20922118
26	0xbe3d6ec2	-0.18499282
27	0xbcd243fd	-0.025667185
28	0xbd88aa6e	-0.06673132
29	0x3d2e5514	0.042561606
30	0xbcb6ec18	-0.022329375
31	0xbdd28f80	-0.10281277
32	0xbd7a5f04	-0.06112577
33	0x3e280c99	0.16411056
34	0xbe523dad	-0.2053134
35	0x3c55f3e0	0.013058633
36	0xbe57cd5b	-0.2107443
37	0xbdd997a2	-0.10624625
38	0xbcdecc0d	-0.027196908
39	0x3d9b324a	0.07577951
40	0x3d0f8998	0.03504333
41	0xbe264861	-0.16238548
42	0x3d5ac2eb	0.053408545
43	0x3daa2c7b	0.08309265
44	0x3e4e5d2c	0.2015273
45	0x3e054588	0.13014805
46	0xbe6d8553	-0.2319539
47	0xbe3646a8	-0.1780039
48	0xbca05220	-0.01957041
49	0x3db7b7ea	0.08970626
50	0x3ca50d18	0.020147845
51	0x3e523055	0.2052625
52	0xbe0efc24	-0.13963372
53	0x3da57432	0.08078803
54	0x3dc9622c	0.09833178
55	0x3e497ebe	0.19677255
56	0x3c9a0ca4	0.018804856
57	0x3d2f361a	0.042776205
58	0xbe0edc93	-0.1395133
59	0xbdefb986	-0.11705308
60	0x3dec6e6a	0.11544497
61	0xbd0fe1fb	-0.03512762
62	0x3e0e3ba9	0.13889946
63	0xbe2aa0ea	-0.16662946
64	0xbe701669	-0.23446049
65	0x3d8351c3	0.06412079
66	0x3e6564fd	0.22401805
67	0xbe163856	-0.14669928
68	0x3e2056fb	0.1565818
69	0xbd1f2be8	-0.03886023
70	0x3dabb29a	0.08383675
71	0x3e42c2e9	0.19019665
72	0xbdd32bd8	-0.10311097
73	0xbdb60d16	-0.08889215
74	0x3d075cfc	0.03304766
75	0xbd53574c	-0.051596925
76	0xbbcd2140	-0.006260067
77	0xbda2bae0	-0.079458
78	0xbe4b886c	-0.1987626
79	0xbd4e6824	-0.050392285
80	0xbe2b6b32	-0.1674011
81	0xbe55b9a0	-0.20871592
82	0xbe570960	-0.2099967
83	0x3e00ed4d	0.12590523
84	0xbe55f3b6	-0.2089375
85	0x3e5b0d8f	0.21391891
86	0xbd1f77fc	-0.038932785
87	0x3e0d474b	0.13796727
88	0x3de682e6	0.11255436
89	0x3e48fecf	0.19628452
90	0xbe6f0ae2	-0.23343995
91	0x3c2509a0	0.010073096
92	0xbe3a254a	-0.18178287
93	0x3e6ed8eb	0.23324935
94	0x3e457499	0.1928276
95	0xbcf6d0f0	-0.030128926
96	0xbe321763	-0.17391734
97	0x3daa214a	0.08307131
98	0xbd8665e2	-0.06562401
99	0xbdb1fb08	-0.086904585
100	0x3d1579f4	0.036493257
101	0xbe40213c	-0.18762678
102	0x3e6b147b	0.22957031
103	0x3da4bd76	0.08043949
104	0xbdb0825a	-0.086186126
105	0x3e54720d	0.20746632
106	0x3e2d242b	0.16908328
107	0x3e44c03b	0.19213955
108	0x3dbc6c0a	0.09200294
109	0x3e5d28d0	0.215976
110	0xbe3373ad	-0.17524596
111	0xbd58b2c8	-0.052904874
112	0x3e266970	0.16251159
113	0xbd878d4e	-0.066187486
114	0x3d668d20	0.05628693
115	0x3d4d4888	0.050118
116	0x3d82b4d4	0.063821465
117	0x3dabc523	0.0838721
118	0xbe70ab15	-0.23502763
119	0x3e5697bd	0.20956321
120	0x3d974a42	0.073872104
121	0x3e481ec7	0.1954299
122	0x3d7bcbf4	0.0614738
123	0xbde73f83	-0.11291411
124	0x3dfcc602	0.123424545
125	0x3e28e651	0.16494109
126	0x3e70d91b	0.23520319
127	0x3e1f4223	0.15552573
128	0xbe1dc636	-0.15407643
129	0xbd018983	-0.031625282
130	0xbdef0430	-0.116707206
131	0xbe0cdb2b	-0.13755481
132	0xbe491480	-0.19636726
133	0xbdfcff90	-0.12353432
134	0xbe1a895e	-0.15091464
135	0xbe5ca90b	-0.2154886
136	0xbe5495a9	-0.20760216
137	0x3d8d7992	0.06907953
138	0x3da9bca6	0.08287935
139	0xbe4aaac0	-0.19791698
140	0xbe005266	-0.12531433
141	0x3cdef798	0.027217671
142	0x3cd8b8b8	0.026455268
143	0x3e089c01	0.13340761
144	0xbbce2095	-0.006290505
145	0x39a92f80	0.00032269582
146	0xbe506e26	-0.20354518
147	0x3d1f8edf	0.038954612
148	0x3e5e7242	0.21723273
149	0x3e3b6a53	0.18302278
150	0x3e6a697b	0.228918
151	0x3e232b11	0.15934397
152	0x3cf68da3	0.030096835
153	0xbba4ed17	-0.005033146
154	0xbe4bdf6e	-0.1990945
155	0xbe495865	-0.19662626
156	0x3c719330	0.014744565
157	0x3e7047b1	0.23464848
158	0x3e57c997	0.21072994
159	0x3e397ddd	0.1811442
160	0xbdf1da76	-0.11809246
161	0x3dcd2866	0.10017471
162	0xbe19ff7d	-0.15038867
163	0xbe35a87a	-0.1774005
164	0x3dca03ec	0.09864029
165	0x3d5245c7	0.051336076
166	0xbe146819	-0.14492835
167	0x3dd467ab	0.103713356
168	0xbd837449	-0.06418664
169	0xbe40b07e	-0.18817326
170	0x3e05a0c2	0.13049605
171	0x3e1d056d	0.15334101
172	0xbd31e8a9	-0.043434773
173	0x3e4a5755	0.19759877
174	0xbd3c31fc	-0.045946106
175	0xbe6e45f6	-0.23268875
176	0x3e2f2a6f	0.17106031
177	0x3e3bc6bd	0.18337531
178	0x3dd07462	0.10178448
179	0xbe404cc2	-0.18779281
180	0xbd44fcba	-0.04809258
181	0xbae5147d	-0.001747742
182	0xbd322dca	-0.0435007
183	0x3cd8aae1	0.026448669
184	0xbe14bf89	-0.1452619
185	0xbd6b3296	-0.05742129
186	0xbe0199b6	-0.12656292
187	0x3e13de82	0.14440349
188	0x3e2aa2bd	0.16663642
189	0x3e1b1401	0.1514435
190	0xbe511194	-0.20416862
191	0x3db4bf8c	0.08825597
192	0xbe65d0b1	-0.2244289
193	0xbe66d69f	-0.22542809
194	0x3e610a13	0.219765
195	0x3d57ba84	0.05266811
196	0x3e6ece5d	0.23320909
197	0x3d64afe4	0.055831805
198	0xbe5dd1ed	-0.21662112
199	0xbd6f5e41	-0.058439497
200	0x3e5e11a4	0.21686417
201	0xbccc8ab9	-0.024968492
202	0xbdfa47e4	-0.12220743
203	0x3c443aa4	0.011976872
204	0x3e0eae58	0.13933694
205	0x3e763a95	0.24045785
206	0xbe494a93	-0.19657354
207	0xbd8fd174	-0.07022372
208	0x3d3b8f55	0.04579099
209	0xbc2fd18c	-0.010731112
210	0xbe044a0e	-0.12918875
211	0x3e334c53	0.17509584
212	0x3e11b2f5	0.14228423
213	0xbd4a2758	-0.049353927
214	0x3e695a19	0.22788276
215	0x3e4d9793	0.20077352
216	0xbe1fea78	-0.15616786
217	0xbe059c80	-0.13047981
218	0x3d585e14	0.052824095
219	0x3da7a3be	0.08185528
220	0xbdf71191	-0.120638974
221	0xbe3af1b8	-0.18256271
222	0xbc1f3110	-0.009716287
223	0xbe4ca174	-0.19983464
224	0x3cea16c8	0.028575316
225	0x3a68c500	0.0008879453
226	0x3e1053ab	0.14094417
227	0xbdd8c576	-0.10584538
228	0x3dfda27a	0.123845056
229	0xbdbe0370	-0.092779994
230	0x3e060ddf	0.13091229
231	0xbd56c754	-0.052436188
232	0xbe1fa236	-0.15589222
233	0xbe29f3ea	-0.16596952
234	0x3d7cc25c	0.061708793
235	0x3db3b6ee	0.087751254
236	0xbe6b0914	-0.22952682
237	0x3c8b5e58	0.01701276
238	0xbe555729	-0.2083403
239	0xbdae038c	-0.0849677
240	0x3b1cc700	0.0023922324
241	0x3e256295	0.16150887
242	0xbe2f43e0	-0.17115736
243	0x3d7969dc	0.06089197
244	0xbe6d8928	-0.23196852
245	0xbddf4c88	-0.10903269
246	0x3d8db01a	0.06918354
247	0x3e6f8cf1	0.23393609
248	0x3e3ac379	0.1823863
249	0x3d617dac	0.05505149
250	0xbe11d39f	-0.14240883
251	0xbe277f2d	-0.16357107
252	0xbe6d7352	-0.23188522
253	0x3ddb283a	0.10701032
254	0xbe5090b8	-0.20367706
255	0xbda68a94	-0.081319004

net.0.bias f4 [256]
0	0xbdad0912	-0.08448996
1	0x3e4453e0	0.19172621
2	0xbdc48b64	-0.09596899
3	0x3e421fcb	0.1895744
4	0x3e015193	0.12628774
5	0x3d94600e	0.072448835
6	0xbe4f4562	-0.20241311
7	0x3dac03fc	0.083991975
8	0x3c081d93	0.008307832
9	0x3e246312	0.16053417
10	0x3d8b243d	0.06794021
11	0x3e3c3d7c	0.1838283
12	0xbdde7d7c	-0.10863778
13	0x3e1a61cb	0.15076368
14	0xbe6bfeee	-0.23046467
15	0x3d1410db	0.036148887
16	0xbcc99319	-0.024606274
17	0xbe475c7e	-0.19468877
18	0xbe19fd44	-0.1503802
19	0xbe3d90d3	-0.18512277
20	0xbd3d79cb	-0.04625873
21	0x3d981bac	0.07427153
22	0x3e2e0406	0.16993722
23	0xbd885809	-0.066574164
24	0xbe10ebea	-0.14152494
25	0x3d9cee80	0.07662678
26	0xbd09b2eb	-0.033617895
27	0xbce55ef5	-0.02799938
28	0x3cc910e3	0.024544185
29	0x3e1d63f1	0.15370156
30	0xbe173570	-0.14766479
31	0xbd9ceef6	-0.07662766
32	0x3e1dc4c3	0.1540709
33	0xbd750703	-0.05982114
34	0xbe389aff	-0.18027876
35	0x3bee835c	0.007278843
36	0x3bde65cc	0.0067870375
37	0xbe210437	-0.15724264
38	0xbe390666	-0.18068847
39	0x3cffb4bd	0.031214112
40	0x3d553344	0.052050844
41	0xbe04d1a2	-0.12970594
42	0x3e4cc41a	0.19996682
43	0xbe36245b	-0.17787306
44	0xbc9238ac	-0.017849289
45	0xbce81280	-0.028329134
46	0xbe676be5	-0.22599752
47	0xbcc3eaa8	-0.023915604
48	0x3e582614	0.21108276
49	0x3e57ae3a	0.21062556
50	0x3ca477f8	0.020076737
51	0xbafb0c80	-0.0019153506
52	0x3d5b9cd2	0.053616352
53	0x3cfd197a	0.030895937
54	0xbcf75681	-0.030192615
55	0xbc4547ba	-0.012041027
56	0x3c9a1479	0.01880859
57	0x3e2b48f8	0.16727054
58	0xbdf74298	-0.120732486
59	0xbe3f7016	-0.18695101
60	0xbe69b419	-0.22822608
61	0x3e004129	0.12524857
62	0xbd4b7a78	-0.049677342
63	0xbdcd3e49	-0.100216456
64	0xbe43afce	-0.19110033
65	0x3cc78f58	0.024360344
66	0xbe34b95e	-0.17648837
67	0x3d8b847b	0.06812378
68	0x37dd6cc8	2.6395908e-05
69	0xbc2a4f38	-0.010394864
70	0x3e4b1be1	0.19834854
71	0x3dd47607	0.103740744
72	0x3e696993	0.2279418
73	0xbe0869ac	-0.1332156
74	0x3e1720ae	0.1475856
75	0x3e55c913	0.20877485
76	0xbd378c74	-0.04481168
77	0x3d481c45	0.048855085
78	0xbe6105b5	-0.21974833
79	0xbcfda138	-0.030960664
80	0x3e385d03	0.18004231
81	0xbe1affac	-0.15136594
82	0x3e02fe77	0.12792383
83	0x3db0bca2	0.08629729
84	0xbe1f6392	-0.15565327
85	0x3e0db1f2	0.13837412
86	0xbe215f20	-0.15758944
87	0x3d0e9859	0.03481326
88	0xbd9ca3e4	-0.07648447
89	0xbe3067b1	-0.17227055
90	0x3daf8686	0.0857058
91	0x3dec1c7e	0.11528872
92	0xbe7009c8	-0.23441231
93	0xbe10dfef	-0.14147924
94	0xbe4e5e71	-0.20153214
95	0x3e25f155	0.16205342
96	0x3e64bd8b	0.2233793
97	0xbc8ea8c6	-0.017414462
98	0x3dc21d78	0.09478277
99	0x3dbbdbd6	0.0917279
100	0x3e0750b1	0.13214375
101	0xbdcf0e0a	-0.101100996
102	0xbdb210e0	-0.08694625
103	0xbe397e75	-0.18114646
104	0xbd9c8fe8	-0.076446354
105	0xbddcc45a	-0.107796386
106	0xbda7acb6	-0.08187239
107	0xbe464d1e	-0.19365355
108	0xbdad78c8	-0.08470303
109	0xbde21df5	-0.1104087
110	0x3dba8463	0.09107282
111	0xbe222d72	-0.15837649
112	0xbe6c2db3	-0.23064308
113	0xbe5fbc7c	-0.21849245
114	0xbd752f7f	-0.05985975
115	0xbc157c6d	-0.009123904
116	0x3e2784ca	0.16359249
117	0x3e5668b7	0.20938383
118	0xbe084193	-0.13306265
119	0x3d3c242c	0.045932934
120	0x3dcdf2a3	0.10056045
121	0xbbef447d	-0.0073018656
122	0x3e0fb291	0.14032961
123	0x3e340508	0.17580044
124	0xbe6f55cb	-0.23372571
125	0x3ccbfd38	0.024901018
126	0xbda1db31	-0.079031356
127	0x3d9858e5	0.0743883
128	0x3e66901f	0.22515915
129	0xb940f705	-0.00018402569
130	0xbe591309	-0.21198668
131	0x3e30b925	0.17258127
132	0xbe309d34	-0.17247468
133	0x3dd623f2	0.10456075
134	0xbe4ca967	-0.19986497
135	0xbe349926	-0.17636546
136	0x3e54c346	0.20777616
137	0x3e2ff3f7	0.17182909
138	0x3c877918	0.016537234
139	0xbe68b236	-0.22724232
140	0x3e02990d	0.12753697
141	0x3dae4360	0.085089445
142	0x3d02617d	0.031831253
143	0x3d12911c	0.03578292
144	0x3c996fd7	0.018730087
145	0x3e6c1aeb	0.23057143
146	0x3d8d06f5	0.068860926
147	0x3e6786be	0.22609994
148	0x3db63e16	0.08898561
149	0xbe12c4ed	-0.14332934
150	0xbe67eac5	-0.22648151
151	0xbda8c779	-0.082411714
152	0x3dbe572c	0.092939705
153	0xbd230bfc	-0.03980635
154	0x3e5c5632	0.21517256
155	0x3e07312c	0.13202351
156	0xbe32b411	-0.17451502
157	0xbc4817d2	-0.01221271
158	0x3d794203	0.06085397
159	0x3d3ccf86	0.046096347
160	0x3db88946	0.09010558
161	0x3e02151a	0.12703362
162	0xbd342d2c	-0.04398839
163	0xbd5c9ba6	-0.053859375
164	0xbd90eea0	-0.07076764
165	0x3d21c9fb	0.039499264
166	0x3e5e0c5f	0.21684407
167	0x3d1fb909	0.038994823
168	0xbdba50f8	-0.09097475
169	0x3d599afc	0.05312632
170	0x3d40ab8a	0.047038592
171	0x3d790bb4	0.060802177
172	0x3df7de8a	0.12102993
173	0x3c715a1c	0.014730956
174	0x3e6cfc4b	0.23143117
175	0x3cbd1ce8	0.023085073
176	0x3e18dc2b	0.14927737
177	0xbc3af906	-0.011411911
178	0xbd34940e	-0.04408651
179	0xbccb2387	-0.024797214
180	0xbe5a2821	-0.2130437
181	0xbd2fb3d6	-0.042896114
182	0xbe03601a	-0.12829629
183	0xbd2d387f	-0.042290207
184	0xbe1789b2	-0.1479862
185	0xbd8dea4e	-0.06929456
186	0x3e2b04de	0.16701075
187	0x3d0fa451	0.035068814
188	0x3de8cd19	0.11367244
189	0xbe730c3c	-0.23735136
190	0x3e093b98	0.1340164
191	0x3dced8fe	0.10099982
192	0x3da94650	0.08265364
193	0xbc8becfe	-0.01708078
194	0x3e253bd7	0.16136108
195	0x3d9db1f2	0.07699956
196	0x3d28dd5c	0.04122673
197	0x3e094f40	0.13409138
198	0xbd5bd8f1	-0.05367369
199	0xbe351954	-0.17685443
200	0xbd97478a	-0.07386692
201	0xbd9c1b85	-0.076224364
202	0xbd397602	-0.045278557
203	0xbe67d05b	-0.22638075
204	0xbe05985d	-0.13046403
205	0x3da36909	0.07979018
206	0xbdd8ac3c	-0.10579726
207	0xbdcc0be3	-0.09963205
208	0x3e572e4e	0.21013758
209	0x3e307db3	0.1723545
210	0xbd7e136c	-0.06203024
211	0xbdb59466	-0.088661954
212	0xbe569e0d	-0.20958729
213	0xbd80da02	-0.06291582
214	0x3e05551f	0.13020752
215	0xbd1cd41e	-0.03828823
216	0x3df38475	0.118904985
217	0xbe600e10	-0.21880364
218	0xbd121bb4	-0.03567095
219	0x3c6eebee	0.014582617
220	0x3e6d040e	0.23146078
221	0xbddedb60	-0.10881686
222	0xbe1e3cf1	-0.15452935
223	0xbd9a5508	-0.0753575
224	0xbe27c475	-0.16383536
225	0xbe66b8db	-0.22531454
226	0xbdbe8870	-0.09303367
227	0xbc913b51	-0.01772848
228	0xbe6ec8b2	-0.23318747
229	0xbd6d7612	-0.05797393
230	0xbc968dee	-0.018378224
231	0x3c476940	0.01217109
232	0xbe166d5f	-0.1469016
233	0x3e53c2f3	0.20679836
234	0xbcd2b12b	-0.025719246
235	0x3cdcd1d8	0.02695553
236	0x3d4cb8e4	0.049981013
237	0x3d427d9b	0.047483068
238	0xbd9efb7c	-0.077628106
239	0xbe209ef8	-0.15685642
240	0xbe65617a	-0.22400466
241	0xbddd4fb5	-0.108062185
242	0x3bf1de80	0.0073812604
243	0xbd37131c	-0.04469596
244	0x3d589624	0.05287756
245	0xbc9b32d5	-0.018945137
246	0x3c98e95c	0.018665962
247	0x3e317ca3	0.17332701
248	0x3e0bb302	0.13642505
249	0xbe0f1139	-0.13971414
250	0x3dcd37a2	0.10020377
251	0xbac50800	-0.0015032291
252	0xbe19b7ea	-0.15011564
253	0xbd858cb7	-0.0652098
254	0x3e46b1c9	0.19403757
255	0x3d0834ee	0.033253603

net.2.weight f4 [256, 256]
0	0x3d282365	0.04104938
1	0x3d4a4dff	0.04939079
2	0x3bfe7380	0.0077652335
3	0xbc4b5e2f	-0.012412592
4	0x3d4e3c3e	0.05035042
5	0x3d7b4bc8	0.061351568
6	0x3c48355d	0.012219754
7	0xbce9b388	-0.02852799
8	0xbc7cbd50	-0.015425995
9	0xbd06d547	-0.03291824
10	0xbcf0c632	-0.029391382
11	0xbc0b47fa	-0.008501047
12	0xbc568028	-0.013092078
13	0x3c3af008	0.011409767
14	0xbd3313d2	-0.043720074
15	0x3d481ebc	0.048857436
16	0xbd3f3db4	-0.046689704
17	0xbd0e199e	-0.0346924
18	0xbcb8c5b8	-0.022555217
19	0xbcd4fb4c	-0.025998734
20	0x3cf0574c	0.029338501
21	0x3a8d7ee0	0.0010795258
22	0xbd84fe8f	-0.06493866
23	0x3d27562b	0.04085366
24	0xbd447bef	-0.047969755
25	0x3d58645d	0.05283009
26	0xbd2e5479	-0.04256103
27	0x3c7e8a02	0.015535833
28	0x3ccef543	0.025263434
29	0xbcc3aba4	-0.023885556
30	0xbc154a4c	-0.009111952
31	0x3c711718	0.014714979
32	0xbc3e3997	-0.01161041
33	0x3d188c03	0.0372429
34	0x3d164a42	0.03669191
35	0x3ccc3f85	0.024932632
36	0xbcf97f1a	-0.030456115
37	0xb9f5e200	-0.00046898425
38	0xbc52e556	-0.012872061
39	0x3ca5737c	0.020196669
40	0xbd12d7d4	-0.03585036
41	0x3d2c724d	0.042101193
42	0xbcc4163e	-0.023936387
43	0xbc629b88	-0.013831027
44	0xbc02f49f	-0.0079928925
45	0x3d2df704	0.0424719
46	0xbcf89558	-0.03034465
47	0x3d71bb76	0.059016667
48	0x3c55115a	0.013004625
49	0xbaee1155	-0.0018163124
50	0x3d224aba	0.039622046
51	0x3d2ae7ba	0.041724898
52	0x3d5790ab	0.0526282
53	0x3bb796da	0.0056026997
54	0xbd07c32c	-0.033145115
55	0x3d24ceb8	0.040236205
56	0x3cf27ff1	0.029602023
57	0xbd160251	-0.036623303
58	0x3d4126fe	0.047156326
59	0x3d2ee603	0.042699825
60	0x3d23ff26	0.04003825
61	0xbc7e45f0	-0.015519604
62	0xbcece960	-0.028919876
63	0x3c7292e3	0.014805528
64	0x3d18cabd	0.03730272
65	0xbd0c0ff2	-0.034194894
66	0xbc521359	-0.012821996
67	0xbd49476c	-0.04914038
68	0xbc0e41b2	-0.008682655
69	0xbc728764	-0.014802787
70	0x3ccb74e0	0.024836004
71	0xbc64f9c7	-0.013975567
72	0xbbe36c70	-0.006940417
73	0xbc6c2da8	-0.014415182
74	0x3be3c59e	0.006951048
75	0xbd2f4d95	-0.042798597
76	0x3cc0e3a0	0.02354604
77	0x3d392de3	0.045209777
78	0xbcaf41fa	-0.021393765
79	0x3ceac678	0.02865909
80	0xbc394530	-0.0113079995
81	0xbd50336a	-0.050830282
82	0x3d57dd89	0.052701507
83	0xbc4f7500	-0.012662172
84	0xbccea2dc	-0.025224142
85	0x3d22333b	0.03959964
86	0xbd1ad0c5	-0.037796754
87	0x3c6d8de1	0.014499159
88	0x3ca82d50	0.02052942
89	0x3d5fcdd2	0.054639645
90	0x3d7810f2	0.060563035
91	0x3d56cea6	0.05244317
92	0xbd564e44	-0.052320734
93	0x3c3e5156	0.011616072
94	0x3d757958	0.059930176
95	0xbd3b3d84	-0.045712963
96	0xbd6937ba	-0.05693791
97	0xbd00aaed	-0.031413008
98	0xbd5f7d1b	-0.05456267
99	0xbd58d652	-0.052938767
100	0x3d72deda	0.05929456
101	0x3c42ee04	0.011897568
102	0xbcf0b288	-0.029382005
103	0xbcc4471c	-0.023959689
104	0x3c749a36	0.014929345
105	0x3cd22594	0.025652684
106	0x3c972fb4	0.018455364
107	0x3d0e1d92	0.03469617
108	0xbcd86900	-0.026417255
109	0xbcf64e54	-0.030066647
110	0x3d027f9a	0.03185997
111	0xbd5a4802	-0.05329133
112	0xbd58acb9	-0.052899096
113	0x3d5808aa	0.052742638
114	0x3d1c75d8	0.038198322
115	0xbb9cb588	-0.0047823824
116	0x3cf488ac	0.029850326
117	0xbca3cfb0	-0.019996494
118	0xbc80b2bc	-0.015710227
119	0xbd597d32	-0.05309791
120	0x3d405e65	0.04696502
121	0xbd07ec29	-0.033184204
122	0xbd52977f	-0.05141401
123	0x3d0f9027	0.035049584
124	0xbc34f60d	-0.011044991
125	0x3c00be08	0.007857807
126	0x3c2e6797	0.010644815
127	0x3c63b4e8	0.013898112
128	0xbd243540	-0.040089846
129	0x3d6d93c9	0.058002267
130	0xbcb7e83e	-0.022449609
131	0x3d194f20	0.037428975
132	0xbc99b984	-0.018765219
133	0xbd26983a	-0.04067252
134	0xbce89874	-0.028393008
135	0x3d0d6928	0.034524113
136	0xbcb8f092	-0.02257565
137	0xbbc6ff70	-0.006072931
138	0xbd34ce78	-0.044142216
139	0xbc47fb28	-0.012205876
140	0xbce29607	-0.02765943
141	0x3c91530b	0.017739793
142	0xbc213c4c	-0.009841036
143	0xbb9400dc	-0.004516704
144	0x3bfadc03	0.007655622
145	0xbd29337d	-0.04130887
146	0xbd0087fb	-0.03137968
147	0xbd13e77d	-0.036109436
148	0xbd80d6ce	-0.06290971
149	0x3ced5337	0.028970344
150	0xbc299ccc	-0.010352325
151	0x3d2283ef	0.039676603
152	0xbd3e1aac	-0.046412155
153	0xbd66eb5a	-0.056376792
154	0xbcf6ab9b	-0.030111125
155	0x3d4b7ba5	0.049678463
156	0xbd5c0805	-0.053718586
157	0xbd59d338	-0.05317995
158	0x3c954fbe	0.0182265
159	0xbd5f3148	-0.054490358
160	0x3c45cb3d	0.012072382
161	0x3d6ba910	0.057534277
162	0x3d2aba1c	0.041681394
163	0x3c69c87e	0.0142689925
164	0x3cc99628	0.024607733
165	0x3d3486b0	0.04407376
166	0x3d039975	0.03212877
167	0x3c54b668	0.012982942
168	0xbc9bfff8	-0.019042954
169	0xbd34cd90	-0.044141352
170	0x3d03b764	0.032157317
171	0xbd5b8a78	-0.05359885
172	0xbb5551c0	-0.0032549948
173	0xbccad3dd	-0.024759227
174	0x3cd105f4	0.025515534
175	0x3d77c764	0.060492888
176	0x3b85f502	0.004088045
177	0x3cbba516	0.022905868
178	0xbcf3240e	-0.029680278
179	0xbd2ae860	-0.041725516
180	0xbb955f4f	-0.004558481
181	0x3be543d2	0.00699661
182	0xbd7b7e4e	-0.06139975
183	0xbcf572a5	-0.029961893
184	0x3be38d30	0.006944321
185	0x3d4f07cd	0.05054455
186	0xbcb2892b	-0.021793922
187	0x3b331d3f	0.0027330664
188	0xbb7ae9df	-0.003828637
189	0x3bd7a7b0	0.006581269
190	0x3c839228	0.016060904
191	0xbd329a3a	-0.043604113
192	0xbd42b60f	-0.047536906
193	0x3aef8733	0.0018274545
194	0x3d127c36	0.035762988
195	0xbd04e73c	-0.032447085
196	0x3d1c8f09	0.038222346
197	0xbcca68e7	-0.024708224
198	0x3d0e1545	0.034688253
199	0xbc27a6ed	-0.010232669
200	0xbd19f6fb	-0.037589055
201	0xbcf6f7a9	-0.03014739
202	0xbd5d22f4	-0.053988412
203	0x3d7a6932	0.06113548
204	0x3d3cf9ca	0.046136655
205	0x3a962e2e	0.0011457854
206	0x3cca2f0e	0.02468064
207	0xbd68c797	-0.05683097
208	0x3d465f7b	0.0484309
209	0xbb4d1fb3	-0.0031299412
210	0x3b000f60	0.0019540414
211	0x3d09d174	0.033647016
212	0xbd18e504	-0.03732778
213	0xbd49781a	-0.049186803
214	0xbcc95154	-0.024574913
215	0xbd28d484	-0.041218296
216	0xbc8ddafd	-0.017316336
217	0xbc4cb310	-0.012493864
218	0xbd072144	-0.03299071
219	0xbcb34717	-0.021884484
220	0x3d58ca60	0.052927375
221	0x3caf7cc0	0.02142179
222	0x3cc5169c	0.024058633
223	0x3bfd2e30	0.0077264532
224	0xbd2a7d86	-0.041623615
225	0xbc529e01	-0.012855054
226	0x3d0e2f66	0.03471317
227	0x3c8132db	0.01577132
228	0x3c92404a	0.017852921
229	0x3d6ebb81	0.058284286
230	0xbd0e4eb0	-0.03474301
231	0xbd721892	-0.059105463
232	0x3cdd2eb4	0.026999809
233	0xbbf4a700	-0.007466197
234	0x3cdce418	0.026964232
235	0xbb440920	-0.0029912665
236	0xbd7c5d74	-0.06161256
237	0x3d3c6f62	0.04600466
238	0x3c9ae1d2	0.018906508
239	0xbc4c6838	-0.01247602
240	0xbd50335c	-0.05083023
241	0xbae800db	-0.001770045
242	0xbd68b9d2	-0.056817837
243	0x3c8dc93c	0.01730787
244	0xbd067dd9	-0.03283486
245	0xbca05f45	-0.019576678
246	0x3d0f61a6	0.035005234
247	0xbd2e22b5	-0.042513568
248	0xbd3a7080	-0.045517445
249	0xbc53a5fa	-0.01291799
250	0x3cbc005f	0.022949396
251	0x3d7afd5e	0.061276786
252	0xbd31eb27	-0.04343715
253	0x3d3f9271	0.046770517
254	0xbd4da9d9	-0.050210807
255	0xbd3b12bb	-0.04567216

net.2.bias f4 [256]
0	0x3d22b8a1	0.039726857
1	0x3ceaf9fa	0.028683651
2	0x3d0c70c3	0.034287225
3	0x3d4bd234	0.049761012
4	0xbb95b5e0	-0.0045688003
5	0x3d472d33	0.04862709
6	0x3cd1c3e9	0.025606113
7	0xbd02a652	-0.031896897
8	0xbcabff97	-0.020995898
9	0xbd634452	-0.055485077
10	0x3d49744c	0.049183175
11	0x3cd1ab90	0.025594503
12	0xbd271ede	-0.04080092
13	0xbc86c9b4	-0.016453601
14	0xbb2f59fd	-0.0026756518
15	0xbd873b45	-0.06603102
16	0xbd6f22ed	-0.058382917
17	0xbd1cea67	-0.03830948
18	0xbc4ce0f4	-0.012504805
19	0x3d077bef	0.033077177
20	0xbd02016d	-0.03173964
21	0xba88b2ef	-0.0010429303
22	0xbd04a333	-0.0323822
23	0x3d36acdc	0.044598445
24	0xbcfec8a8	-0.03110154
25	0x3c8c30db	0.01711314
26	0x3d21b2bb	0.03947709
27	0x3cd06acc	0.02544155
28	0x3d321f62	0.04348696
29	0xbc9710ed	-0.018440688
30	0x3c6ec311	0.014572875
31	0x3d22bfa4	0.039733544
32	0xbcb016e8	-0.021495298
33	0xbd689409	-0.056781802
34	0x3d42b11b	0.047532182
35	0xbc228880	-0.009920239
36	0x3c57d772	0.013173925
37	0x3d189da7	0.037259724
38	0xbcbc2c3a	-0.022970308
39	0xbccb0cd8	-0.024786398
40	0x3c215418	0.00984671
41	0xbcd8adf9	-0.026450144
42	0xbd6548cf	-0.05597764
43	0xbd5793ce	-0.052631192
44	0x3ccbf57a	0.024897326
45	0xbc9741b0	-0.01846394
46	0xbc305e99	-0.010764741
47	0xbb350340	-0.0027620345
48	0xbb9cb1c0	-0.0047819316
49	0xbc91fb9b	-0.01782017
50	0xbd4837bc	-0.048881277
51	0x3c5cd700	0.013478994
52	0x3d783150	0.060593903
53	0xbd0f4989	-0.034982238
54	0xbd4f3c9c	-0.05059491
55	0x3d2186fd	0.039435375
56	0xbd4dd5f8	-0.050252885
57	0x3c90b35c	0.01766365
58	0xbd06a484	-0.032871738
59	0xbd6aac51	-0.05729324
60	0xbbc8b02e	-0.006124518
61	0x3c676ea9	0.0141255045
62	0x3d85d863	0.06535413
63	0x3d6277d8	0.055290073
64	0x3d2b7014	0.041854933
65	0x3cd6b547	0.026209487
66	0x3c065805	0.008199696
67	0xbd154688	-0.036444217
68	0x3d5b509c	0.053543672
69	0x3d33e43a	0.043918826
70	0x3ca5777f	0.020198582
71	0xbd6d6461	-0.057957057
72	0xbb960166	-0.0045778034
73	0x3cd6aa9f	0.026204405
74	0x3d5dd620	0.054159284
75	0x3cbc56cd	0.022990609
76	0x3c042bd4	0.00806709
77	0x3d2dd43c	0.04243873
78	0x3d5ab591	0.05339581
79	0x3d5d149a	0.053974725
80	0x3d37a77c	0.04483746
81	0xbd65e4c3	-0.056126367
82	0xbd84fac4	-0.06493142
83	0x3d70f67f	0.058828827
84	0xbd03c057	-0.03216585
85	0x3cc9378e	0.024562623
86	0x3d195830	0.037437618
87	0xbccb3c0b	-0.024808904
88	0x3bdbd7d1	0.006709077
89	0xbd52901b	-0.05140696
90	0xbc80f81c	-0.015743308
91	0x3d10a86e	0.035316877
92	0xbd2d5323	-0.042315613
93	0x3d7ad816	0.06124123
94	0x3d46a482	0.04849673
95	0x3d883a85	0.06651787
96	0xbb253226	-0.0025206893
97	0xbce14aa0	-0.027501404
98	0xbd1d5042	-0.038406618
99	0xbb294160	-0.002582632
100	0xbccdb258	-0.025109455
101	0x3cdac551	0.026705416
102	0xbd0278be	-0.03185343
103	0xbce2f0c8	-0.027702704
104	0xbd3ea325	-0.046542305
105	0xb9a91a55	-0.0003225381
106	0xbd782852	-0.060585327
107	0xbd695816	-0.05696877
108	0xbad0768a	-0.0015904468
109	0x3d2d611b	0.042328935
110	0x3d2077b2	0.03917665
111	0xbd1e9834	-0.03871937
112	0xbd319335	-0.04335328
113	0xbadc9b76	-0.0016830999
114	0xbcbe5740	-0.023234963
115	0xbd05597c	-0.032556042
116	0xbd7727ce	-0.060340695
117	0x3c1f9d80	0.009742141
118	0x3cbef53e	0.0233103
119	0xbcf017a0	-0.02930814
120	0x3d48789c	0.048943147
121	0x3d79f7d9	0.06102738
122	0x3d2f831c	0.042849645
123	0x3d15f296	0.0366083
124	0xbc9edbd4	-0.019391932
125	0x3c227b20	0.009917051
126	0xbd3618bb	-0.04445718
127	0xbd247606	-0.04015162
128	0x3d2aa1b1	0.041658107
129	0x3d65a4c0	0.05606532
130	0xbd5928cb	-0.05301742
131	0x3cd58628	0.026064947
132	0xbd67cc94	-0.056591585
133	0xba953ad1	-0.0011385327
134	0xbcffde68	-0.031233981
135	0xbc342540	-0.010995209
136	0x3d4f265a	0.050573684
137	0xbd1d1243	-0.038347494
138	0xbceb6276	-0.028733473
139	0xbd69847c	-0.057011113
140	0x3cc14443	0.02359212
141	0x3c95c4a2	0.018282238
142	0x3d55a6c6	0.052161
143	0xbd4c1577	-0.049825158
144	0xbcacf0b0	-0.021110862
145	0x3d5c2156	0.05374273
146	0x3cde04e8	0.027101949
147	0x3c2a3f31	0.010391043
148	0x3c3663ee	0.0111322235
149	0x3d057c46	0.03258922
150	0x3c6ff3b3	0.014645505
151	0xbc3c5528	-0.011494912
152	0x3d695285	0.056963462
153	0xbd351c9c	-0.044216737
154	0xbd324530	-0.043523014
155	0x3a1c9f06	0.0005974624
156	0x3d5bfb8f	0.0537067
157	0x3ce6557a	0.02811693
158	0x3c05b7c5	0.00816149
159	0xbc471970	-0.012152061
160	0x3d09bba8	0.03362623
161	0x3cb8c00e	0.022552516
162	0xbd599deb	-0.053129118
163	0xbd4457d5	-0.047935326
164	0xbbdaa746	-0.0066727726
165	0x3cfa385f	0.030544458
166	0xbc8d0f72	-0.017219279
167	0x3cff8ab7	0.031194074
168	0x3d664dc9	0.056226525
169	0xbcb938dd	-0.022610122
170	0xbc63b5e2	-0.013898345
171	0xbcb29534	-0.021799661
172	0xbc9d4030	-0.019195646
173	0xbc8823e9	-0.016618686
174	0xbd007a90	-0.031366885
175	0x3d0832ad	0.033251453
176	0xbb71dd76	-0.0036905683
177	0x3d3d6f6c	0.04624884
178	0xbd320ac3	-0.043467294
179	0x3d014317	0.031558122
180	0xbc183dc8	-0.009292074
181	0xbcfc9094	-0.030830659
182	0x3baf4aa4	0.005349474
183	0xbcf54698	-0.029940888
184	0xbd54822f	-0.051881965
185	0xbd25efd1	-0.04051191
186	0xbcd573c4	-0.026056178
187	0xbd31f63b	-0.043447714
188	0x3c0ad7a8	0.008474268
189	0xbd167a2f	-0.036737617
190	0xbd5606b2	-0.05225248
191	0xbd6eb2b2	-0.058275886
192	0xbd68338b	-0.05668978
193	0x3d277d15	0.040890772
194	0xbccfdcf7	-0.025373919
195	0xbcc9ccec	-0.024633847
196	0xbd37e4f9	-0.0448961
197	0x3d1776fd	0.03697871
198	0xbc340eb8	-0.010989837
199	0x3d171539	0.036885474
200	0x3d3459d4	0.04403098
201	0xbc90f29e	-0.017693814
202	0x3c309e50	0.010779932
203	0x3c1d6873	0.009607422
204	0x3d0d22aa	0.034456886
205	0xbd02810b	-0.031861346
206	0x3d06cdd4	0.032911137
207	0x3d0d472b	0.0344917
208	0x3ad90294	0.0016556554
209	0x3d2adc75	0.04171415
210	0x3d54bf64	0.051940337
211	0x3d73916c	0.059464857
212	0x3cec5d54	0.028853096
213	0x3c70ad15	0.0146897035
214	0x3d354221	0.04425252
215	0x38f6d394	0.000117696036
216	0xbc5b8eb2	-0.01340072
217	0xbd05b170	-0.03263992
218	0x3a941440	0.0011297539
219	0xbd3d827a	-0.04626701
220	0x3aabeea0	0.001311738
221	0xbcfbe6bf	-0.030749677
222	0xbcb695ec	-0.022288285
223	0xbc0525df	-0.008126705
224	0x3d3b0e8b	0.045668166
225	0x3d43a80d	0.047767688
226	0xbd750c68	-0.059826285
227	0x3ad06998	0.001590061
228	0x3c6f0e18	0.014590763
229	0xbd22ac8b	-0.03971533
230	0xbd052564	-0.03250636
231	0x3d535a14	0.051599577
232	0xbb2f0880	-0.0026707947
233	0xbd342a72	-0.04398579
234	0xbd6d0d5e	-0.057874076
235	0x3bc994cb	0.0061517707
236	0x3d225d7a	0.039639927
237	0x3c5e7790	0.013578311
238	0x3bac8474	0.005264813
239	0xbd6c8c9a	-0.057751276
240	0x3ba3fb70	0.005004339
241	0x3c5fb68f	0.013654365
242	0xbd2c1dc5	-0.042020578
243	0xbd5693c4	-0.052387014
244	0xbc6c4950	-0.014421776
245	0x3c8c392d	0.017117107
246	0x3d693941	0.056939367
247	0x3d37897c	0.04480885
248	0xbcd4213c	-0.025894754
249	0x3d55f33a	0.052233912
250	0xbc0389a2	-0.00802842
251	0x3d3df59c	0.04637681
252	0xbbdfa943	-0.0068255975
253	0x3d2fbfe6	0.042907618
254	0xbd364ead	-0.044508625
255	0xbd3c5764	-0.04598178

net.4.weight f4 [3, 256]
0	0xbd1ad943	-0.037804853
1	0x3d4408cf	0.047859963
2	0x3bb40547	0.005493793
3	0xbc4fb3b7	-0.012677125
4	0x3c4f6a20	0.0126595795
5	0xbbe21b48	-0.006900225
6	0x3d0ecb78	0.03486201
7	0x3cbd170c	0.023082279
8	0x3d83a608	0.06428152
9	0x3cf70170	0.030152053
10	0x3d82415f	0.06360125
11	0x3b981c97	0.00464208
12	0x3a8f3a7a	0.0010927462
13	0x3d03e277	0.032198396
14	0xbc871bff	-0.016492842
15	0xbca4232e	-0.020036306
16	0xbc0c0dad	-0.008548182
17	0x3c911255	0.017708937
18	0x3d4ba820	0.049720883
19	0x3c539110	0.012913004
20	0xbd0499c6	-0.032373212
21	0xbc80e99d	-0.015736395
22	0xbd16f2e6	-0.03685274
23	0x3d51465f	0.0510925
24	0xbd678cef	-0.05653089
25	0x3cfb2048	0.030655041
26	0xbc8360fa	-0.016037453
27	0xbaf5c42f	-0.0018750484
28	0xbd568bfd	-0.052379597
29	0x3d254116	0.040345274
30	0x3d3e2975	0.046426255
31	0xbd0a290e	-0.03373056
32	0x3d6df01d	0.058090318
33	0xbc3478dd	-0.011015144
34	0xbcfd6e11	-0.030936273
35	0xbabcbab2	-0.0014398901
36	0x3d821a60	0.06352687
37	0xbd4de3d7	-0.050266113
38	0xbbe6a36c	-0.0070385244
39	0xbd0f522a	-0.034990467
40	0xbd4b94c4	-0.04970242
41	0x3d7185b4	0.0589654
42	0x3d095593	0.033528876
43	0x3cd87e19	0.026427316
44	0xbd530893	-0.05152185
45	0xbb5dd5e0	-0.0033849403
46	0xbd324e01	-0.04353142
47	0x3c5bc630	0.013413951
48	0x3d406fbc	0.04698156
49	0x3d52402b	0.051330727
50	0xbc1b635e	-0.00948414
51	0x3d1c6e13	0.038190912
52	0x3bc38afa	0.005967495
53	0xbc5ee407	-0.013604171
54	0xbd59a464	-0.05313529
55	0xbc3bfbde	-0.011473624
56	0x3ca0fc0c	0.019651435
57	0xbd735220	-0.059404492
58	0xbc5abf35	-0.013351251
59	0x3c822947	0.015888823
60	0xbcef2097	-0.029190345
61	0x3d558cad	0.052136112
62	0x3d83c21f	0.0643351
63	0x3c1cc262	0.009567829
64	0xbd287c45	-0.041134138
65	0x3d65676d	0.056006838
66	0x3d88b33e	0.06674813
67	0x3cfca52c	0.030840479
68	0x3b9e7290	0.0048354343
69	0xbcb78b9b	-0.022405436
70	0xbd310d7d	-0.043225754
71	0x3b7e885f	0.0038838608
72	0xbb976dd2	-0.004621246
73	0xbbb9186f	-0.0056486647
74	0xbd7283fc	-0.0592079
75	0xbacdbd40	-0.001569666
76	0xbcca48fa	-0.024693001
77	0x3d51d4ae	0.051228218
78	0xbc49366c	-0.012281042
79	0xb8f990be	-0.000119002056
80	0xbd470662	-0.04859007
81	0xbd43a19c	-0.047761545
82	0xbd5a53c5	-0.053302545
83	0xbcc8a3f7	-0.024492247
84	0x3b8aa844	0.0042314846
85	0xbd2eb125	-0.042649407
86	0x3cfc5e88	0.030806795
87	0x3c12d1db	0.008961166
88	0xbd299d11	-0.041409556
89	0x3c5ddf4a	0.013542006
90	0x3cab4571	0.020907136
91	0x3d8cc49d	0.068734385
92	0xbd02c5f4	-0.031927064
93	0x3d060e6e	0.032728605
94	0xbbf2db9c	-0.0074114334
95	0x3d88bfa9	0.06677181
96	0x3d18c22e	0.03729456
97	0xbc6a55b8	-0.0143026635
98	0x3d7a02a6	0.061037682
99	0x3ca8aec0	0.02059114
100	0x3d72ee60	0.059309363
101	0x3d7ffce2	0.062497027
102	0x3c67c980	0.014147162
103	0x3d579348	0.052630693
104	0xbc4623f7	-0.012093536
105	0xbc64ab25	-0.01395682
106	0x3b5f507f	0.003407508
107	0x3ca6ff5f	0.020385442
108	0xbbe6469c	-0.0070274603
109	0xbd03cf78	-0.03218028
110	0x3ce83ce5	0.02834935
111	0x3d60a65e	0.05484616
112	0xbd281630	-0.041036785
113	0x3cf7ae45	0.030234465
114	0xbc88f6cf	-0.01671925
115	0xbce5da8a	-0.02805831
116	0xbb7887c0	-0.003792271
117	0xbd66d79c	-0.056357965
118	0xbc0e80bb	-0.008697684
119	0xbd7cb4b4	-0.06169577
120	0xbd3230b7	-0.04350349
121	0x3d485052	0.048904724
122	0x3d22bf33	0.039733123
123	0xbd040890	-0.03223473
124	0xbd589e92	-0.0528856
125	0x3cab75e0	0.02093023
126	0x3cc239c3	0.023709184
127	0xbc25dbd0	-0.010123208
128	0x3b182207	0.0023213641
129	0x3d3e5ebf	0.046477076
130	0x3d877e3f	0.066158764
131	0x3cd97a90	0.0265477
132	0xbcf85115	-0.0303121
133	0x3caa63b7	0.0207995
134	0x3ae77fc0	0.0017661974
135	0xbd6e1ab8	-0.05813095
136	0x3d5ce400	0.053928375
137	0x3c841927	0.016125275
138	0x3d581f5f	0.052764293
139	0xbd2a359c	-0.041555032
140	0xbd0d98b3	-0.034569453
141	0xbd2c1a6e	-0.042017393
142	0xbc5afc28	-0.013365783
143	0xbd36af91	-0.044601027
144	0xbc75bb58	-0.0149982795
145	0xbc500dfa	-0.012698645
146	0x3d8b62d7	0.068059616
147	0xbbbc1e0d	-0.005740887
148	0x3d67847d	0.056522835
149	0x3d357292	0.044298716
150	0xbd41b871	-0.047295038
151	0xbc96d0c8	-0.018410102
152	0xbd5cb043	-0.053879034
153	0x3d569bec	0.052394792
154	0xbc7821a9	-0.015144744
155	0x3d1d25e0	0.0383662
156	0xbd348e31	-0.044080917
157	0x3cedf1ba	0.029045928
158	0x3d168083	0.036743652
159	0x3d3be1ac	0.045869514
160	0xbd264583	-0.040593635
161	0xbd2e438b	-0.042544883
162	0x3d5dab58	0.054118484
163	0x3d89c2b0	0.06726587
164	0x3c976762	0.018481914
165	0xbc876f7c	-0.016532652
166	0x3d3a9ed6	0.045561634
167	0x3d772516	0.060338102
168	0x3d3479f4	0.044061616
169	0xbbed3595	-0.0072390535
170	0x3cb8650b	0.022509119
171	0xbd658792	-0.056037493
172	0x3cf1b1fc	0.029503815
173	0x3d69fc50	0.05712539
174	0xbd5517aa	-0.05202452
175	0x3ceaaf7c	0.02864813
176	0x3bb0da9c	0.005397154
177	0xbd4c6eb2	-0.049910255
178	0xbd03b8b9	-0.032158587
179	0xba9aead0	-0.0011819247
180	0xbca9e7a4	-0.020740338
181	0xbc0dc21f	-0.008652239
182	0x3c927a09	0.017880457
183	0xbccc7baa	-0.024961311
184	0xbcd31872	-0.025768492
185	0x3d4c6823	0.049904
186	0x3d81b683	0.063336395
187	0xbcba7e00	-0.02276516
188	0xbc808a8b	-0.015691062
189	0xbd3c3d91	-0.04595715
190	0x3cea3f68	0.028594688
191	0xbc98fbd4	-0.018674769
192	0xbb1f9473	-0.0024349957
193	0x3bf92933	0.0076037883
194	0xbd287ca0	-0.041134477
195	0x3ce3dfe0	0.027816713
196	0xbc65e641	-0.014031948
197	0xbd427de6	-0.047483347
198	0xbd46ec28	-0.04856506
199	0x3cdec5aa	0.027193863
200	0xbd33761e	-0.043813817
201	0xba9d2bed	-0.001199124
202	0xbc04df28	-0.008109845
203	0xbc9ed4be	-0.019388553
204	0x3d74127b	0.059587937
205	0xbbf0caa3	-0.007348375
206	0xbc9b5b8d	-0.018964553
207	0xbd313e0f	-0.043272074
208	0xbbf44438	-0.0074544214
209	0xbd1965d2	-0.03745062
210	0xbcfa4c5f	-0.030553995
211	0x3d41f340	0.047351122
212	0x3bf8ffa0	0.0075988322
213	0xbcf5f83d	-0.030025596
214	0x3c1239a3	0.0089248745
215	0x3d10eed5	0.035384018
216	0x3cf6da5e	0.030133422
217	0xbc963440	-0.018335462
218	0x3c9fc5c8	0.01950349
219	0x3d83c3fe	0.06433867
220	0xbd379042	-0.04481531
221	0xbd72470c	-0.059149787
222	0xbd6124ed	-0.054966856
223	0xbc177c11	-0.009245888
224	0x3c9cf811	0.019161256
225	0x3d558c13	0.05213554
226	0xbd6516f0	-0.055930078
227	0xbd51c703	-0.051215183
228	0x3c7d9160	0.015476555
229	0x3c4a1937	0.012335113
230	0x3c992110	0.018692523
231	0xbd510456	-0.051029526
232	0x3d1d6f22	0.038436063
233	0x3d14a1e2	0.036287196
234	0xbc354968	-0.011064865
235	0x3cc28a1b	0.023747494
236	0xbcdd7e74	-0.027037837
237	0xbc94f474	-0.01818297
238	0x3d77ee1d	0.060529817
239	0xbd25d81f	-0.040489312
240	0x3d1eda82	0.038782604
241	0xbc9f7d43	-0.01946891
242	0xbb962910	-0.0045825318
243	0x3bc25070	0.005929999
244	0xbcd0fb0f	-0.025510339
245	0xbd5d3092	-0.0540014
246	0x3cfb73e6	0.030694913
247	0x3d812def	0.06307589
248	0x3d57537c	0.05256985
249	0xbc80c8fc	-0.015720837
250	0x3cefad3d	0.029257411
251	0x3c75c040	0.014999449
252	0x3cc8cb5a	0.024511028
253	0xbd1a2f62	-0.037642844
254	0x3d7166b1	0.058935825
255	0x3cf87cac	0.030332886

net.4.bias f4 [3]
0	0x3c0274ea	0.007962445
1	0x3c960d77	0.018316967
2	0xbbb2f975	-0.0054618665
