src/checkpoints/sac_actor_final.pth (torch, 288472 bytes, 6 tensors)

net.0.weight f4 [256, 18]
00000000: addc 5e3d 5a0f 733d 00ec dcbd f122 e13e
00000010: 53e1 bf3e 8081 41be 8c44 0abe 04a7 703d
00000020: 26ec 383e dd2a b53d 5267 2fbe 5fc4 a93c
00000030: 04a7 3cbd 3881 983c 203a 153c c2a5 ca3d
00000040: e1ca 283e 8097 beba 454e aa3c ac7e b83c
00000050: 0b1c c8bd 3bbf fb3e b6a3 20bd 7d58 0d3f
00000060: 4fb5 65bc 0d23 6f3e a702 a0be d560 87bd
00000070: 7173 203c b424 cb3d 18ec b6bc 808f d2bd
00000080: 045f 7abd 990c 283e ad3d 52be e0f3 553c
00000090: 8bb2 10be dbfe 20be aa91 7ebb d561 19be
000000a0: c42b 71bd ae0f a3be 61c3 9a3d 9820 c63d
000000b0: 5004 683e 6547 353e 7071 83be 5daa f9bd
000000c0: 2052 a0bc eab7 b73d 180d a53c 5530 523e
000000d0: 24fc 0ebe 3274 a53d 32f2 dabc acf3 bf3d
000000e0: 2050 38be 0fd0 e33b aa8e afbe d75c c4be
000000f0: da34 183e 6162 7fbe 1e9b f13d 6612 89be
00000100: b771 1cbe 1540 b0bd fd64 653e 5638 16be
00000110: fb56 203e e82b 1fbd 9ab2 ab3d e9c2 423e
00000120: bfe1 d5bc 63b0 99bd bcb2 583d 92fe 213f
00000130: 4be1 723e aad1 093e adf6 5dbe b7aa 063e
00000140: 9209 eebb 3f4d a1be 0bf1 92be 003f 3f3e
00000150: b6f3 55be 8f0d 5b3e fc77 1fbd 4b47 0d3e
00000160: e682 e63d cffe 483e 2573 3dbe cd1c 803d
00000170: f6ef 84be d0c7 723e c755 c43e 7eea 3fbd
00000180: 950a 84be 2d56 a13e 58ee 64bc 63bc 52ba
00000190: d923 19bd e75a a93d 7b14 6b3e 76bd a43d
000001a0: 5a82 b0bd 0d72 543e 2b24 2d3e 3bc0 443e
000001b0: 6cea 543d 832c 003e 4fb2 75be e7c6 5fbd
000001c0: 2e63 893e 3ce7 de3d d3fe 47be 228c dd3d
000001d0: 5142 d03d 5259 83bc 5749 fdbe b415 5e3e
000001e0: 424a 973d c71e 483e f4cb 7b3d 833f e7bd
000001f0: 02c6 fc3d 51e6 283e 1a2e 4a3e dc20 ca3d
00000200: 3e1b 5abe 719b 07be 1f38 85be b1af 04bf
00000210: 0993 afbe 5c8e 56be b6b8 40be 81d5 57be
00000220: fb95 53be 166f d6bd a6bc a93d c0aa 4abe
00000230: 6652 00be 98f7 de3c b8b8 d83c 019c 083e
00000240: 2306 6a3d 191e cbbc b1fa 9fbe 0c3d d53d
00000250: ae9d 6d3e 4fc1 823e 6f18 6f3e 1330 533e
00000260: f513 393d 4185 0fbd 1930 8ebe 7536 a6be
00000270: 3093 713c b147 703e 97c9 573e dd7d 393e
00000280: 76da f1bd 6628 cd3d cf21 51be 1d2a 32be
00000290: 7de1 163e 0504 aa3e 4d23 f9bd 84f3 e73e
000002a0: 00e5 adbc 7008 4dbe f6f7 f93d 8416 b63d
000002b0: 3342 debd 02c1 863e fc31 3cbd f645 6ebe
000002c0: 6f2a 2f3e bdc6 3b3e 6274 d03d c24c 40be
000002d0: 5d6e 2bbd 050a 8ebd fbd6 99bd 61ec 273a
000002e0: 883c fa3c 5e80 653c 9a53 b5be bcf9 c63d
000002f0: 036a 023e 025f 003e 1849 23be d24b 233d
00000300: b1d0 65be 9fd6 66be 130a 613e 84ba 573d
00000310: 5dce 6e3e e4af 643d d459 43be f6c4 a2bd
00000320: 85c2 453e 4326 793e 7136 38be 83c7 b23e
00000330: d603 213e fd47 ba3e 21ee 2abe 4de4 69bd
00000340: b12d 39bd d47a 80bd 0e4a 04be 534c 333e
00000350: f5b2 113e 5827 4abd 195a 693e 9397 4d3e
00000360: bb65 58be 35f5 a5bd 73d6 f53d db58 163e
00000370: 91fd 5dbe dd9b b3be eff0 0dbd fb25 1dbe
00000380: f3e6 a33d 2448 9c3d c15a 233e 3715 d2bd
00000390: 7aa2 fd3d 7003 bebd df0d 063e 54c7 56bd
000003a0: 36a2 1fbe eaf3 29be 557d a03d 1153 bb3d
000003b0: 53d6 34be 7b7a ba3e c4b5 0bbe ce68 873e
000003c0: 2498 973d a901 373e 76e8 18be 1333 c83d
000003d0: 1727 a2be fc49 c93b 1ab0 8d3d f18c 6f3e
000003e0: 79c3 3a3e ac7d 613d 9fd3 11be 2d7f 27be
000003f0: d7d7 99be 7e1e 1d3e d83d 9abe 5a46 8ebe
0.05440967 0.059340812 -0.10787201 0.4397197 0.37476596 -0.18897057 -0.13502711 0.05875303
0.18058833 0.08846066 -0.17129257 0.02072352 -0.046057716 0.018616304 0.009108096 0.09894897
0.16483642 -0.0014541 0.020789275 0.02252134 -0.09770974 0.49169335 -0.039218627 0.5521315
-0.014020278 0.23353215 -0.31252024 -0.06610266 0.009793148 0.0991911 -0.022329375 -0.10281277
-0.06112577 0.16411056 -0.2053134 0.013058633 -0.14130609 -0.1572222 -0.0038844147 -0.14978726
-0.05887963 -0.318479 0.07556797 0.096741855 0.22657895 0.17703016 -0.25672483 -0.12190697
-0.01957041 0.08970626 0.020147845 0.2052625 -0.13963372 0.08078803 -0.026726816 0.093726486
-0.17999315 0.0069522928 -0.34288532 -0.3835208 0.14863911 -0.24939872 0.117971644 -0.2677185
-0.15277754 -0.08605973 0.22401805 -0.14669928 0.1565818 -0.03886023 0.08383675 0.19019665
-0.02610862 -0.07504346 0.05290483 0.6327907 0.23718755 0.13458887 -0.2167613 0.1315106
-0.0072643245 -0.31504247 -0.28699526 0.18676376 -0.2089375 0.21391891 -0.038932785 0.13796727
0.11255436 0.19628452 -0.18500955 0.06255493 -0.25964326 0.23709035 0.38346693 -0.04685449
-0.25789323 0.3151106 -0.013972841 -0.0008038936 -0.037387703 0.08269291 0.22957031 0.08043949
-0.086186126 0.20746632 0.16908328 0.19213955 0.051981375 0.1251698 -0.239938 -0.054633047
0.2683348 0.10883948 -0.19530801 0.10817744 0.10168899 -0.016033802 -0.49470016 0.21687967
0.073872104 0.1954299 0.0614738 -0.11291411 0.123424545 0.16494109 0.19744149 0.09869549
-0.21299455 -0.1324289 -0.2601938 -0.51830584 -0.34291866 -0.20952743 -0.18820462 -0.21077539
-0.20662682 -0.10470407 0.08287935 -0.19791698 -0.12531433 0.027217671 0.026455268 0.13340761
0.05713476 -0.024794625 -0.3124595 0.104120344 0.23204681 0.25538108 0.23349164 0.20623808
0.045185048 -0.03503919 -0.2777107 -0.32463422 0.014744565 0.23464848 0.21072994 0.1811442
-0.11809246 0.10017471 -0.20423053 -0.17398877 0.14734454 0.33206192 -0.12164936 0.45302975
-0.02122736 -0.2002275 0.12205498 0.08891013 -0.1085247 0.26319128 -0.045946106 -0.23268875
0.17106031 0.18337531 0.10178448 -0.18779281 -0.041853298 -0.06935505 -0.075117074 0.00064057676
0.030546442 0.014007656 -0.35415345 0.09715602 0.12735753 0.12536243 -0.15945852 0.03986723
-0.2244289 -0.22542809 0.219765 0.05266811 0.23320909 0.055831805 -0.19077235 -0.079477236
0.19312485 0.24331002 -0.17989518 0.3491784 0.1572412 0.36383048 -0.16692401 -0.05710249
-0.04520959 -0.062734276 -0.12918875 0.17509584 0.14228423 -0.049353927 0.22788276 0.20077352
-0.21132557 -0.0810341 0.120037936 0.14682333 -0.21678759 -0.35079852 -0.0346536 -0.1534652
0.080030344 0.07630947 0.15952589 -0.10257953 0.123845056 -0.092779994 0.13091229 -0.052436188
-0.15589222 -0.16596952 0.07836405 0.09146703 -0.17659883 0.3642157 -0.13643557 0.26447147
0.074020654 0.17871727 -0.14932427 0.09775367 -0.31670448 0.006142853 0.06918354 0.23393609
0.1823863 0.05505149 -0.14240883 -0.16357107 -0.30047485 0.15343663 -0.30125308 -0.2778805

net.0.bias f4 [256]
00000000: 06e4 ecbd 10ed 733e 44c9 ed3d aa46 4f3e
00000010: b1d8 283e fff0 a63e 57da 7dbe 9a8e c03d
00000020: 090c efbc 145e 0c3e c25a 813e e647 2e3e
00000030: 7156 a7bc 4e47 08bb 5b83 e43c 7dcd 813d
00000040: a58f 03be 01e5 85be e94a 16be ecb4 68be
00000050: 1576 18be f545 153d b63d 5e3e 1abc f5bc
00000060: f384 90bd b3f5 ac3d d84f 01be 32a1 b7bd
00000070: 9935 29bd f76b 863e 1809 2c3d 6485 a03d
00000080: 6a31 1b3e ca30 fbbd f192 9dbe c3cf fdbc
00000090: 1681 ff3b 1c70 0cbe 09f2 65be 9d7a 313d
000000a0: 2153 b93c cac1 febd e064 843e 2ad7 27be
000000b0: f117 993c af19 90bd f99c afbd 6b17 dc3d
000000c0: 1aaa ed3d 6385 533e c427 66bd 46bb 00bc
000000d0: 8829 4f3e c145 e33c cd60 9e3d 951f ac3d
000000e0: 709b b03d d7cd fc3d 9dcf bb3c 5342 1fbe
000000f0: bf44 78be b683 d93d 8869 bf3d 9978 1bbe
00000100: 05f4 70be d3e5 973a 71b4 60be a9ba 1f3d
00000110: 60f7 40bd 4f0a dd3d 3d84 653e c6f8 1f3e
00000120: d122 a33d 44b7 90be 79e3 c7bd ca54 193e
00000130: d032 883b 0987 6abd d699 063d a1f0 df3d
00000140: 04e3 b53e e745 b7bd 5e08 e93d 3de2 4b3e
00000150: 9af2 8d3d ba16 2e3c 02f9 1dbe 9288 9a3d
00000160: 0063 563d f456 45be c4a6 603d 9d0e 743e
00000170: 6b12 cebd 3efb 64be cf74 39be c3f7 8f3e
00000180: bbd1 f53d 7590 cabd d71b 663d d043 f3bc
00000190: 3ab3 063e 301a e8bd bf5c e5bd 4bc2 58be
000001a0: 05c4 0fbe 4b7b d6bd b66d ce39 8ebb 1dbe
000001b0: ef6a eebc d5b9 0abc 9a46 363e c224 c03d
000001c0: fc89 a0be bbcf 88be f021 b6bd 4b0b d53b
000001d0: fad4 243e 3807 8c3e 0664 4fbe 2908 353e
000001e0: d04c cc3d c3a3 8ebd 80d7 fbbc 3fa2 65bd
000001f0: 93f2 b0bd 9d68 253e f4c5 f7bd 091e a2bd
00000200: 2853 2d3e eb04 103e b60a 98be 6d0b 1f3e
00000210: d063 c6bd 3cd3 e43d 6d90 22be ca62 84be
00000220: b750 6b3e e2aa 2f3e abd8 b6bc 3af6 a1be
00000230: a396 823e a1bc 79bd 592c cbbd 2531 af3d
00000240: 32d0 30bd 121a a03d f8cd cd3d 4c73 7f3e
00000250: b40f c63d da2a 39be a789 54be 264b 49be
00000260: 1cdb acbc a3be 43be 1253 eb3d d3b0 143e
00000270: d86d 86be ee49 843b 2631 2d3d 31f3 f23d
00000280: 7da6 053e 2fdc e3bd b172 81bb 365d dabd
00000290: 0b22 28be 75b4 833d e553 563e 8ab0 34bc
000002a0: 395f 653d 132a 133d abe8 5f3d 1a9f 8d3c
000002b0: 679c 46bc 19a5 673d b684 b73e aa35 713c
000002c0: 8361 193d f087 a2bd c220 d53b d6c5 a8bd
000002d0: f83b 68be 6568 cdbd d834 00be 5c92 0cbe
000002e0: db9e 3abe 300a 14be bf70 b73d d383 f2bb
000002f0: 2356 3e3e 10a7 96be b0b3 233e d018 323e
00000300: 2440 273e 41a8 d9bd 5f6b 323e e63f 99bd
00000310: 2473 0b3d f1db c33d 47b6 95bd 75e8 47bd
00000320: 9520 ffbd 8717 d6bd ae4b 78bd c734 883d
00000330: 36dd 16be a0f2 cfbd 1670 b6bd 7490 8abd
00000340: 9a5b 793e 471a 6c3d 1c6b 01bd 6f01 e8ba
00000350: c7cc 4bbe 7486 16be bdcb 843e ef57 0abe
00000360: 43d4 5d3d d19b 55be 99ae 1d3e 0659 183b
00000370: c412 a93e d842 0fbe 4b99 0dbd 7819 13be
00000380: b0b1 72be db15 89be c2bd 5cbc 23c0 ea3d
00000390: 42d7 95be c917 a8bd 11eb b0bc b123 2abd
000003a0: cea3 eebd ddc3 6c3e 3ed8 693d f29f 503e
000003b0: 41c1 be3d 9026 713d 91ae 35bd 01fb 903d
000003c0: 8e4f 0cbd 5d77 adbd 7a48 b23d c892 e5bd
000003d0: 5051 173e 4afd b13d 7694 34be 5e8a bc3d
000003e0: e9c4 9e3e 8c4d 88be fe01 ac3d 8002 173e
000003f0: 3cba 1cbd 26fe b63c 6cee 7e3e 8c4c e73c
-0.115669295 0.23820901 0.11610654 0.202418 0.16488911 0.3260574 -0.24790321 0.09402199
-0.029180543 0.13707763 0.25264555 0.17019615 -0.02042696 -0.0020794454 0.027894666 0.06338022
-0.12847765 -0.2615128 -0.14677013 -0.22725266 -0.14888795 0.03644367 0.21703228 -0.02999692
-0.07056608 0.08445301 -0.12628114 -0.089662924 -0.04131088 0.26254246 0.04200086 0.07837942
0.15155569 -0.12265165 -0.3077617 -0.030982858 0.0077973707 -0.13714641 -0.2245561 0.043329824
0.022622647 -0.12439306 0.25858212 -0.16390672 0.018688174 -0.07036149 -0.08574862 0.10746654
0.1160471 0.20656352 -0.056190267 -0.0078571495 0.20230687 0.027743222 0.07733307 0.08404461
0.08623397 0.12343948 0.022926146 -0.15552644 -0.24244975 0.10620825 0.093463 -0.15182723
-0.23530586 0.0011588879 -0.21943833 0.038996372 -0.047110915 0.10792982 0.22413726 0.15622243
0.07965625 -0.2826482 -0.09760184 0.1497375 0.004156448 -0.057257686 0.032861553 0.10934568
0.35524762 -0.0894888 0.11378549 0.19910522 0.06931038 0.010625536 -0.1542702 0.0754558
0.052340508 -0.19271451 0.05484654 0.238337 -0.10062107 -0.22361466 -0.18110965 0.28118715
0.120028935 -0.09890834 0.056178894 -0.029695421 0.13154307 -0.1133312 -0.111993305 -0.21167867
-0.1403962 -0.10472735 0.00039373123 -0.15403578 -0.029103724 -0.008467157 0.1780037 0.09382011
-0.31355274 -0.26720986 -0.08893192 0.0065015904 0.16096869 0.27349257 -0.20253 0.17678894
0.09975588 -0.06964829 -0.030742407 -0.056062933 -0.08640017 0.16153188 -0.120983034 -0.07915885
0.16926253 0.14064376 -0.29695672 0.15531702 -0.096870065 0.11173102 -0.15875407 -0.2585662
0.22980009 0.1715503 -0.022320112 -0.31633168 0.25505552 -0.060970906 -0.09920568 0.085542955
-0.0431673 0.078174725 0.10049051 0.24946326 0.09670964 -0.18082753 -0.20755635 -0.19657573
-0.021100573 -0.19115691 0.11490454 0.14520578 -0.2625568 0.0040371334 0.0422832 0.11862791
0.13051791 -0.11125981 -0.00395044 -0.1066231 -0.16419236 0.06430904 0.2093044 -0.011028418
0.055999015 0.035928797 0.05466525 0.01728778 -0.01212225 0.056553934 0.35843438 0.014722267
0.03744651 -0.07936084 0.006504149 -0.08240859 -0.22679126 -0.10029677 -0.12520158 -0.13727707
-0.18224661 -0.14457011 0.089570515 -0.0074009686 0.18587546 -0.29424334 0.15986514 0.17392278
0.16333061 -0.10627795 0.17423771 -0.07482891 0.034045354 0.09563435 -0.07310157 -0.048805673
-0.124573864 -0.10453706 -0.06061905 0.066506915 -0.14732823 -0.10153699 -0.089080974 -0.067658335
0.2435135 0.057642248 -0.031596288 -0.0017700623 -0.19902335 -0.14699727 0.2593669 -0.13510107
0.054157507 -0.2086022 0.15398635 0.0023246421 0.3302213 -0.13990343 -0.03457002 -0.14365184
-0.23700595 -0.26774487 -0.013472976 0.114624284 -0.2926579 -0.08207662 -0.021596463 -0.041537944
-0.11652337 0.23121591 0.05709099 0.20373514 0.09314204 0.058874667 -0.044355933 0.07079125
-0.034255557 -0.08470032 0.0870523 -0.11209637 0.14777112 0.08690889 -0.17634758 0.09206079
0.31009606 -0.26621664 0.083988175 0.14747047 -0.038263544 0.022337984 0.24895638 0.028234743

net.2.weight f4 [256, 256]
00000000: 020b d53c ba67 2f3d 8ec6 b6bc caeb 5cbc
00000010: d18b 353d fbc6 433d fa89 1fbb 0d40 1fbd
00000020: 62ad 33bd 179f f7bc bc10 12bd 026f cabb
00000030: 346f 9fbc 7ded 3abc d213 33bd 7717 093d
00000040: 3cb1 6cbd 1463 2dbd 7c17 29bd 805a 65bd
00000050: 84fe a13c 159a f4bb e371 95bd 39e9 f13c
00000060: 8e85 83bd 0f77 153d 884a 6fbd 9649 203c
00000070: 8827 103c a4ab c3bc 34bd afbc 4a2f 933c
00000080: fda2 cebc 7a4f fc3c 1276 c73c 028b 393c
00000090: 906b f9bc b69e 9dbc 3276 eebc 9cfe 6d3b
000000a0: d4d7 12bd 5b0e 3b3d 31b3 9ebc 6eea 0bbd
000000b0: bed2 9ebc 7095 ca3c 0986 5dbd 2bcc ff3c
000000c0: f5cd a93a 85a7 b43a ba4a 223d e720 ed3c
000000d0: 0dd8 513d 7b73 21bc 2074 68bd 490f d83c
000000e0: 0913 c43c ac45 5bbd cbba 263d 4768 c03c
000000f0: 7671 d53c 7b1f 5abd 7bee e8bc 55d6 de3b
00000100: f318 ab3c cf94 44bd 13d1 afbc 62b8 72bd
00000110: 2357 97bc d1f0 79bc d3c4 7b3c c47d 6fbc
00000120: c312 59bc dfe9 aabc 5f95 1abc 6cff 36bd
00000130: 794b 2a3c 5ed3 133d 564d ebbc c1b5 803c
00000140: 993d 8fbc c4c1 87bd e6b2 203d 0075 4fbc
00000150: dca2 cebc 86f5 0f3d 9d7c 3dbd 5c3b 00bb
00000160: eba4 473c 1ddf 1e3d b7d0 7a3d 268c 303d
00000170: 1223 74bd ccc1 cdbb ff15 183d 4861 55bd
00000180: 0ebc 93bd e92f 22bd 9379 85bd 44e3 4ebd
00000190: 7dda 493d 5d22 b43a cec3 0fbd 659b 00bd
000001a0: 2f59 883c 67b4 543c 8621 b43b 5d96 ea3c
000001b0: 6670 63bd 696b 32bd 6fe8 5c3c 0248 5abd
000001c0: 6fa0 6bbd aa3c c83c 01ce b83c e404 b8bc
000001d0: 3a61 073d b0cf a3bc 0d93 8abc a515 89bd
000001e0: b04d 2f3d 7cd1 1dbd 2d75 68bd 5f68 0d3d
000001f0: 2671 02bd 08be 003c 1896 2bbc 0ab6 f8ba
00000200: 4035 24bd eed2 1d3d 7a39 01bd 5d2e a63c
00000210: a22b 2bbd c80f 32bd 4c6e 2abd 0477 d93c
00000220: 1170 19bd 1c40 e1bc 2ad7 93bd a844 99bc
00000230: 0845 c4bc 4197 413c e992 d0bc 014d bdbc
00000240: 0c1d 0bbc 8184 31bd 9bd2 d9bc 06b3 19bd
00000250: d1ae 8dbd 4464 e03c 158a 25bd e357 113d
00000260: b036 78bd 1233 65bd 4be1 0cbd 435c d33c
00000270: c580 76bd 3678 7bbd 9c7c d93a c43a 72bd
00000280: 9064 7c3c 54f1 283d c1e9 dc3c 3027 8c39
00000290: cbf4 083c c2c1 0f3d 1794 583c dcd5 c13b
000002a0: 4b08 d0bc 90cd 34bd 8305 fc3c d3d0 75bd
000002b0: 28e4 37bc bedd 20bd 4c69 413c 64c7 773d
000002c0: 9140 34bc 0dd3 6e3c 3692 56bd c517 75bd
000002d0: 04f5 35bc 50cb 00bc bad7 a7bd 39c3 3fbd
000002e0: 34c8 5b3a 0e6c 353d 3c7c f3bc 0c2e 8abc
000002f0: b1fc 26bb add2 06bc b3ef 323c 00e0 57bd
00000300: 3054 61bd dc32 d4bb 367c 123d 8e64 80bd
00000310: 2a14 a63c c2f2 0ebd b792 473c ad8a e2bc
00000320: 6838 2cbd 4404 e4bc 14f0 8cbd 3fa0 413d
00000330: a251 013d 8efc c4bb 40d1 8c3c 973c 47bd
00000340: 328c 3a3d 1c43 82bc 600f 003b 9742 f33c
00000350: a61d 8cbd 53b2 5ebd 15f1 44bd e9c8 1cbd
00000360: c56a 06bd 3d69 23bd 055d 44bd fa82 1dbd
00000370: 57bb 413d f80d 433c d29e 903c 302e fd3b
00000380: 5ab6 6abd d447 b4bc d5e0 003d 883e f63a
00000390: 8207 be3b e6ff 263d b98d 2fbd 682f 86bd
000003a0: 8420 b03c 5701 cebc 18e4 dc3c 4f69 2ebc
000003b0: 3cc4 79bd 1383 2e3d cf9d 903b 3c1c 13bd
000003c0: 4394 69bd a522 b0bc 6b4c 74bd 3cc9 8d3c
000003d0: 6745 0cbd 1fa7 b5bc 26f0 cc3c 8968 70bd
000003e0: c058 75bd a843 c9bc b276 803c 9420 553d
000003f0: 9909 52bd bdec 183d 0d41 58bd 3a1f 5abd
0.026006225 0.04282353 -0.022311475 -0.013483951 0.044322792 0.047797184 -0.0024343715 -0.038879443
-0.043866523 -0.030227227 -0.03566049 -0.006177784 -0.019462205 -0.011409161 -0.043720074 0.033469643
-0.05778621 -0.042330816 -0.041282162 -0.05599451 0.019774683 -0.007464657 -0.07297113 0.029530155
-0.06421958 0.036490496 -0.058420688 0.009783169 0.0087984875 -0.023885556 -0.021452524 0.017966885
-0.025224203 0.030799616 0.024348292 0.011324646 -0.030446798 -0.019240718 -0.029109094 0.003631509
-0.03585036 0.045667987 -0.019372554 -0.034159116 -0.0193876 0.02472946 -0.054082904 0.031225285
0.0012955057 0.0013782835 0.039622046 0.028946353 0.051231433 -0.009854193 -0.05675137 0.026374476
0.023934858 -0.05353324 0.040705483 0.023487223 0.026055079 -0.05325268 -0.028434029 0.0068004527
0.02088592 -0.047993477 -0.021461999 -0.059257872 -0.018474167 -0.015255169 0.015366751 -0.014617387
-0.013249102 -0.020863472 -0.009435027 -0.044677183 0.010393971 0.036090247 -0.0287234 0.015711667
-0.017485427 -0.06628755 0.03923311 -0.012662172 -0.025224142 0.03514626 -0.04626142 -0.001956663
0.012185316 0.038786996 0.061234202 0.043102406 -0.05960376 -0.006279206 0.037130352 -0.052094728
-0.07213603 -0.039596472 -0.06517329 -0.050509706 0.049280632 0.0013743151 -0.035098843 -0.031398196
0.016644089 0.012982464 0.0054971604 0.028636152 -0.055527113 -0.043559466 0.013483151 -0.05329133
-0.05752605 0.02444299 0.022559168 -0.02246327 0.033051707 -0.019996494 -0.016915822 -0.066935815
0.042798698 -0.038529858 -0.056752373 0.034523364 -0.031846188 0.007857807 -0.010472797 -0.001897515
-0.040089846 0.038531236 -0.031548955 0.02028578 -0.04178966 -0.04347208 -0.041609094 0.026546009
-0.03746039 -0.02749639 -0.07218774 -0.018709496 -0.023958698 0.011815847 -0.025460677 -0.023108007
-0.008490812 -0.043339256 -0.026589682 -0.037524246 -0.06918109 0.02739156 -0.04041489 0.035484206
-0.06059903 -0.055956908 -0.034394544 0.02580083 -0.060181398 -0.06139394 0.0016592923 -0.059138075
0.015404835 0.041245773 0.026966931 0.00026732078 0.008359144 0.03509689 0.013218901 0.0059153866
-0.02539458 -0.044141352 0.030764347 -0.060013603 -0.01122383 -0.03927397 0.01180489 0.060492888
-0.011001722 0.014576686 -0.05238553 -0.05983712 -0.01110578 -0.0078609735 -0.081954435 -0.04681704
0.00083840196 0.044292502 -0.029722326 -0.01686766 -0.0025480206 -0.00822894 0.010921407 -0.052703857
-0.055011928 -0.0064757895 0.035762988 -0.06269179 0.020273287 -0.03489948 0.012180976 -0.027654016
-0.04204598 -0.027834065 -0.06881729 0.047271963 0.03157199 -0.006011552 0.017189622 -0.048641767
0.045543857 -0.01590114 0.0019540414 0.029694838 -0.068415925 -0.054369282 -0.048081476 -0.03827754
-0.032816667 -0.039895285 -0.047940273 -0.038454987 0.0472978 0.011905186 0.017653856 0.0077264532
-0.05730281 -0.022006907 0.031464417 0.0018786946 0.005799235 0.040771388 -0.042859767 -0.06552011
0.02149988 -0.025147123 0.026964232 -0.010645225 -0.06097816 0.04260547 0.0044133435 -0.0359156
-0.05702616 -0.021500895 -0.05964319 0.01730787 -0.034245875 -0.022174416 0.025016855 -0.058693442
-0.05989909 -0.024568394 0.015681598 0.052033022 -0.051278684 0.037335146 -0.052796412 -0.053252436

net.2.bias f4 [256]
00000000: ef35 b93c c61d b63a 381d 663d d3b8 d93c
00000010: 946b 31bd b64e 593e f3c1 6abc 2cf3 ff3c
00000020: d3f5 483d ae99 51bd b96c 653d 1e63 9a3d
00000030: 0a57 82bc da39 42bb 3d9d bc3d 8413 98bd
00000040: 1d29 15bd b1ec 9ebc 0d6a 97bc cd6d 283d
00000050: 30ab 803d f227 da3d 87ee 52bd 06ea 6a3e
00000060: f590 8cbd b366 ba3c 0473 013e ab0d f83d
00000070: c8cd 143d c0a4 dfbc 762a af3b ac01 6e3d
00000080: 1197 3abc a025 28bd 9ada ba3d 25a0 4c3c
00000090: 3d76 323c bcef 5f3d 0996 433c 0b75 1fbb
000000a0: 9bd1 b0bd a1dc 13bd f001 95bc 50ee 7dbd
000000b0: f107 b83c a62d e7bb 9f82 a0bd b3a2 20bc
000000c0: 14e1 4b3d e733 7d3b 5e38 92bb 4e4b 10bd
000000d0: d91d ce3d d37d 8fbd f6bf afbd 1870 b03c
000000e0: 7605 89bd cec6 bc3c 444d f1bd 795b 8ebd
000000f0: 2b19 b5bc be58 083c c863 ad3d 739b 8c3c
00000100: a897 583d 3453 343b c29e 0dbd 6f2e b6bc
00000110: 497b 8c3d 2692 be3c 20cf 343b 0c15 0dbe
00000120: 3e73 71bb 3e46 6a3d e8c0 49bd 59cc 293c
00000130: 4b7a 39bc 20a0 bd3d 9156 ce3d 2489 ee3c
00000140: 811c 103d 0faf 8dbd d948 bfbd 5aff be3d
00000150: 75be 543d 5336 a63d ed97 783d de7c 0bbd
00000160: e4f9 2e3d 01d7 67bd a5fd 7fbc 6019 8d3b
00000170: 9b14 983d 7f39 993d 4c83 1bbd ce6e 123e
00000180: 4959 a9bc 9e78 e2bd dfd4 6ebd 40fd adbc
00000190: 916f 6abc 3036 b93c 16c4 9cbd 908e 8f3d
000001a0: a701 2b3d fca2 813d f799 9b3d cd03 a7bc
000001b0: 2d3f 703d a480 053d e97b da3c c790 89bc
000001c0: f286 24bd a96d 27bd 9250 9bbd 8ffa 44bd
000001d0: eb2d 2fbd c4a2 903d 0b94 103c e85c dc3c
000001e0: db45 42bc 7180 b13d 3a5a 093e abd3 d0bc
000001f0: fa0f 9f3c 5e16 0bbd ca31 743d 7730 b83c
00000200: 6993 6a3d 84f7 513e 3411 80bd a53f 8a3c
00000210: 8f4e 40bd 6382 50bc dfa9 2ebd fd39 3bbd
00000220: 9718 d83c bef0 49bd 94d0 d5bc 5c04 bfbc
00000230: 4427 3b3c 3e3a 263d 1d0c 143d 2934 53bc
00000240: 3a63 c5bc 790f 04bc ef01 293d 0204 54bc
00000250: f34e d63c db80 cebc a0c6 be3b 411a c0bd
00000260: 30d9 8b3c d46b dcbc 6be4 8dbd 045b 873d
00000270: 0c6a d33c 7b88 193d d5f7 4c3c 12eb a5bd
00000280: b555 543d c6c7 173c e365 78ba e5d1 edba
00000290: 742d 853c 39f4 abba f325 65bd 93f4 313d
000002a0: b32b 2d3e f90d 383d 882a 04bd b705 f6bc
000002b0: 8ae8 e8bb 4583 c83c 3cc2 c63b d1bd df3c
000002c0: d95a 983c 9ae9 0d3d 8321 e2bd b367 36bc
000002d0: dedc b6ba a31c 84bd 988f ca3b 5d3c 5ebd
000002e0: f513 c6bd 7ce3 0fbe afd7 2fbd 3207 4fbd
000002f0: 16be a53c 1609 1abd 87dc 44bd 7d52 8ebd
00000300: bff1 63bd 5095 4f3d ea0b 1fbd e3bb 0ebd
00000310: f44a 9cbd cd00 093d 41a0 98bc 3d09 443c
00000320: 3f16 063d 6b9f 10bd cb6c cbba 5264 e0ba
00000330: 3a5b 213d 6e96 4d3d 5d0c a93c 76da 7b3d
00000340: 2fe9 f83c 2534 ac3c 5928 cc3d ba3b 9b3d
00000350: 5799 733b 4281 703d 25a4 a93c 975b c339
00000360: 89d9 c4bc 1500 4dbd 4ad2 fabc a515 99bd
00000370: 7b86 48bc a156 dd3c 6250 1cbd a8d8 193d
00000380: 97b4 e33c 5925 e73d f93c a4bd c9fb 2f3d
00000390: 0dee 283d 89ab dbbd 602f 16bc 4734 073d
000003a0: 8705 efbc dbcf 81bd da2b c5bd 9678 953c
000003b0: 4cf7 85bb f30f f63a b992 863c 9c93 e7bd
000003c0: 5eca 66bb 06de 773d 8828 54bd 8fc4 68bd
000003d0: ae3d 6abd 416c 803b 945b 823d ba84 0d3d
000003e0: 75f4 34bd ef41 fd3c bf63 2dbb 1701 173a
000003f0: f491 a73b ae2b 2a3d 9502 8ebd 1837 7ebd
0.022608725 0.0013894371 0.05618021 0.026577389 -0.043315485 0.21221432 -0.014328468 0.031243883
0.04906256 -0.05117195 0.05601189 0.07538436 -0.015910644 -0.0029636533 0.09209678 -0.07425597
-0.03641616 -0.019399973 -0.018483186 0.04112034 0.062826514 0.1065215 -0.05149701 0.22940835
-0.06863586 0.022754049 0.12641531 0.12111982 0.03632906 -0.027300239 0.005345638 0.058107063
-0.011388556 -0.041051507 0.09123726 0.012489353 0.010892448 0.054671988 0.011937627 -0.0024331238
-0.08633729 -0.03609908 -0.0181894 -0.06199485 0.022464724 -0.0070550023 -0.07837414 -0.0098044155
0.049775198 0.0038635673 -0.004462286 -0.035228066 0.10064287 -0.07006421 -0.085815355 0.021537825
-0.06690495 0.023044016 -0.117823154 -0.06951041 -0.022106728 0.008321939 0.084662974 0.017163968
0.052879006 0.0027515413 -0.03457523 -0.022238938 0.06859452 0.023263048 0.0027589276 -0.1377756
-0.0036842371 0.057195894 -0.049256235 0.010363662 -0.011320661 0.09259057 0.10075105 0.029118128
0.035183433 -0.069181554 -0.093400665 0.09326048 0.051939446 0.0811583 0.060691763 -0.03405463
0.042718783 -0.056601528 -0.015624438 0.0043060035 0.07425805 0.0748167 -0.03796701 0.14300081
-0.020672457 -0.11058162 -0.05830848 -0.021238923 -0.014308826 0.022608846 -0.07654588 0.070096135
0.041749623 0.06329915 0.07597726 -0.020387555 0.058654 0.032593384 0.026670413 -0.016792668
-0.040167756 -0.040876064 -0.07583727 -0.048090514 -0.0427684 0.07062295 0.008824359 0.02689977
-0.011857475 0.086670764 0.13413325 -0.025491556 0.019416798 -0.033956878 0.059617795 0.022484047
0.057269488 0.20504576 -0.06253281 0.016876051 -0.04694992 -0.012726399 -0.04264247 -0.0457096
0.026378913 -0.049301855 -0.026100434 -0.023317508 0.011422936 0.040582888 0.036144365 -0.012890854
-0.024095166 -0.00806033 0.04126161 -0.012940409 0.026160693 -0.025207927 0.005822018 -0.093800075
0.017071337 -0.026906885 -0.06928333 0.06609157 0.025807403 0.037483674 0.01251026 -0.08101477
0.05183955 0.009263938 -0.00094756315 -0.0018144218 0.016257025 -0.0013119049 -0.055944394 0.043446135
0.16911201 0.0449352 -0.032267123 -0.030032022 -0.007107799 0.024476657 0.006065635 0.027312191
0.018598007 0.034646608 -0.11041548 -0.011133122 -0.0013951322 -0.064507745 0.0061816685 -0.054256786
-0.09671775 -0.14051622 -0.0429303 -0.05054397 0.020232242 -0.03760632 -0.048061874 -0.06949327
-0.05565047 0.050679505 -0.03882972 -0.03484715 -0.07631484 0.03344803 -0.018631103 0.011965093
0.03273606 -0.035308283 -0.0015520094 -0.0017119742 0.03939364 0.05019229 0.020635778 0.061487637
0.030384628 0.021020958 0.09968633 0.07579751 0.0037170255 0.05871702 0.020708153 0.00037261538
-0.02402951 -0.050048906 -0.030617852 -0.074748315 -0.012239094 0.027018847 -0.038162597 0.037560135
0.027796073 0.112864204 -0.08019442 0.04296473 0.041242648 -0.10726077 -0.0091665685 0.03300884
-0.02917744 -0.063384734 -0.09627505 0.018245976 -0.004088318 0.0018773064 0.016427385 -0.11307451
-0.0035215835 0.060514472 -0.051796466 -0.056828078 -0.05718773 0.003919155 0.063651234 0.034550406
-0.044178445 0.030915229 -0.0026457158 0.0005760355 0.0051138345 0.041545562 -0.06934086 -0.06206426

net.4.weight f4 [3, 256]
00000000: 5bfa 94bc 07aa 203e b091 103d a571 cfbc
00000010: 165f 8bbd dd36 31bc b785 a73c a7a4 ffbe
00000020: c44f 943e 2492 e03e 351b 8a3c 09db a83c
00000030: 6460 af3c c942 a73d f288 d3bc b32b c9bd
00000040: e9c5 2c3e 1c03 c53c 62dd b93c e7e4 f13c
00000050: 0b87 7bbd 3f6f 48be 8fd6 a03c 8055 333e
00000060: d7f3 c4bd 1e22 dd3c 888a 14be 29c8 53be
00000070: 8cf6 5bbd a6ae 22bb 08d7 333d de0e 25be
00000080: 086e 343d 50db 91bd 8719 dcbd b221 b73d
00000090: 6175 a1bd 0942 67be e301 99bd 5bee 22bf
000000a0: e6dc 0bbe de91 623e 7748 ed3c ec87 113d
000000b0: 99fd 9c3d 03f8 59bd 4c0f 99bd 90bd a4ba
000000c0: c2db 52ba 63c5 d33d ec57 7a3d 70b7 333d
000000d0: cfd2 5d3d 6411 ebbd bf4e c4bd e52d 60bc
000000e0: e645 babd 4b91 73bd 9204 dabd 911f 913c
000000f0: b3fd f0bc f5cb bd3e c981 e63d 53da ce3d
00000100: d722 43bc dd1d ba3d ab88 383d fd0b 0f3e
00000110: 50c4 7c3d 02f9 05bd 78ff 2dbd 10e0 4fbb
00000120: 54d6 893e 1c6c f3bc 1395 52bc 22c2 5b3c
00000130: 1dd4 c3bb 6e34 003d 38e7 583c 2a8d 073d
00000140: 3236 2dbd a021 20bd d4f1 12bd 87bd 33bd
00000150: 2df1 983d e069 443d 983a b03b 43a0 e03b
00000160: cb7a 043d a5bc 4a3b 6bb0 e53d ee57 1a3f
00000170: bdbe 5bbb 26af 153d 8c82 e33a af53 683e
00000180: 07e5 733c 87c1 b9bd 7022 823d b9fb d33c
00000190: db23 653e 86be 243d 17ac cc3d 5390 96bc
000001a0: 7907 e2bd 3b1f 9dbc ef20 57bd af7d 923d
000001b0: 0898 62bc 9ccf 1fbd 7008 993c 7350 9b3d
000001c0: 7c96 b9bc 262f a1ba 3257 e63c 31dc e4bc
000001d0: 7de2 38bd 57b2 aebc 16ec fbbb 5876 61be
000001e0: cd6e b9bc 07e9 1f3e 728a 723d 7831 8cbd
000001f0: 18de dbbd d0a5 1c3d 0473 36be 4cc3 063d
00000200: 2675 353c 3cee 7f3d 04c2 8f3d fb1b b03c
00000210: 1198 babe e636 703c bdbb 5a3d deab 44bc
00000220: fe5b 843e e446 b6bd a1e4 5d3c 8a1c 75bc
00000230: e4d1 febc 342e d53c 89d4 7fbb 89c9 b1be
00000240: 7cbf 61bc 0ee5 3b3c 7d8b 8c3e 0735 cbbc
00000250: 4ea8 c03e 058b 173d 7fd3 0cbd dec1 f43c
00000260: 28c5 dbbc ab50 93bc 284d 4c3b 2068 f6bc
00000270: 8773 23bd d052 223d fc1d 8e3d 5af6 bc3d
00000280: fa2f cf3a 95bc 0bbd 2a92 033e 4d58 d53c
00000290: 275e e3ba 85fd 5dbd 3d5a f63d f66c 933e
000002a0: 0e06 ce3b 6b17 24bc dd21 673d f32f 59bd
000002b0: 47db 823d e555 8e3e b7f8 e6bd 8529 403c
000002c0: 407d f83b bc10 3fbd 0429 01be 5caa c1bc
000002d0: c074 8fba 5c03 423d b3e1 173b 5cdf 023d
000002e0: 8a44 0cbe 5300 463e d119 113d 6c5e 3c3d
000002f0: eadb 873d be2e 3bbd c77a 3cbe 08f9 863c
00000300: 6214 763c d6bf b53c ed56 3fbd 74bc 6a3d
00000310: 9952 54bd d6a0 37bd c60b 47bd 483c 0abd
00000320: 8887 0cbd a068 be3b a260 0bbb 8e88 5cbb
00000330: b7f3 283d 9caa 39bd 86d7 78bc e35d 46bf
00000340: 54fe d5be 1e0f 17bd 7aaa 4bbc 7e84 8d3d
00000350: 2b78 a33d abb3 edbc 7667 133e 6f84 33bc
00000360: 3161 fd3c cebb 73bc b425 4cbc aacb 503e
00000370: 8c1a 163c 20d6 c8bc f0dc 55bd 2237 fd3c
00000380: a7bc e33c 07cb e2bd c98b 8abd 0cb0 c6be
00000390: 620f 8f3e e5d3 7f3d e193 963d 0372 4abd
000003a0: 0676 4c3e 1d90 173d a283 c3bd 4495 b0ba
000003b0: c230 52be cdeb d1bb 4938 ee3d aeb7 c5bd
000003c0: 3f59 97bd 9d51 643d 772d 8fbb 1755 6a3c
000003d0: 2402 ebbc 1d3a 36bd 785e 4c3e 3f01 823d
000003e0: 36bb 0c3d c065 59bb ddeb 743c 4d01 e9bd
000003f0: 1222 debc 1bfe 89bc 2b67 5d3d 08a0 c23c
-0.018185785 0.1568986 0.03529519 -0.025322745 -0.068052456 -0.010816303 0.020449502 -0.49930307
0.28967106 0.43861496 0.016858676 0.020612257 0.021408267 0.08167035 -0.025822137 -0.09822788
0.16872372 0.024049334 0.022688571 0.029528094 -0.061408084 -0.19573687 0.01963356 0.17513084
-0.09616821 0.026993807 -0.1450597 -0.20681824 -0.053701922 -0.0024823337 0.04390624 -0.16118953
0.044050246 -0.07121909 -0.107470565 0.08941974 -0.078837164 -0.22583784 -0.07471063 -0.6364495
-0.13658485 0.22125956 0.028965218 0.035530016 0.076655574 -0.053215038 -0.07473621 -0.0012568701
-0.0008043611 0.10340383 0.061119005 0.04387611 0.05415612 -0.114779264 -0.09585332 -0.013682817
-0.09095363 -0.059464734 -0.10645403 0.017715247 -0.029417848 0.3706967 0.11255223 0.10100236
-0.011910162 0.09087727 0.04505221 0.13969417 0.061710656 -0.032708175 -0.042479962 -0.0031719245
0.26921332 -0.029714637 -0.012852925 0.013412984 -0.0059762136 0.0313 0.013238721 0.03309361
-0.042288013 -0.039094567 -0.035875157 -0.04388192 0.07467876 0.047952533 0.0053780787 0.006855042
0.032343667 0.0030935195 0.1121529 0.6029042 -0.0033530437 0.036543988 0.0017357632 0.22688173
0.014886147 -0.090701155 0.06354225 0.025876867 0.22376959 0.04022076 0.09993761 -0.018379366
-0.110365815 -0.01917993 -0.052521642 0.071528785 -0.013830192 -0.03901635 0.018680781 0.07583704
-0.022654764 -0.0012297377 0.02811775 -0.027937027 -0.04513787 -0.021325273 -0.0076880557 -0.22017801
-0.022635842 0.15616237 0.059214063 -0.06845373 -0.107357204 0.03824407 -0.17817312 0.032901093
0.011075294 0.062483057 0.070194274 0.021497717 -0.36444142 0.014661526 0.053401697 -0.012003867
0.25851434 -0.0890024 0.013543279 -0.0149604175 -0.031105943 0.026023008 -0.0039036593 -0.34724072
-0.013778564 0.011468185 0.2745017 -0.024805559 0.37628406 0.036997814 -0.034381386 0.0298776
-0.02682741 -0.017982801 0.0031173918 -0.030078948 -0.039905097 0.039629757 0.06939313 0.09226675
0.0015807145 -0.034115393 0.12848726 0.026043082 -0.0017346785 -0.054196853 0.1202893 0.28794068
0.006287343 -0.010015349 0.05642878 -0.053024244 0.0638948 0.27799907 -0.11277907 0.011728649
0.0075832903 -0.04664682 -0.12613302 -0.023640804 -0.0010944828 0.047366485 0.0023175299 0.031951293
-0.1369802 0.19336061 0.03542501 0.045988485 0.06633742 -0.045698874 -0.18406211 0.01647617
0.015019508 0.022186201 -0.04671376 0.05730863 -0.051836584 -0.04483112 -0.048595212 -0.033748895
-0.03430894 0.005810812 -0.0021267314 -0.003365073 0.04124805 -0.04532872 -0.015188104 -0.7748701
-0.417956 -0.03687965 -0.0124307815 0.069100365 0.079819046 -0.029016336 0.14394936 -0.010956868
0.030930134 -0.014876319 -0.012460161 0.20390192 0.009161603 -0.024516165 -0.052212656 0.030910078
0.027799917 -0.11073881 -0.06764943 -0.38806188 0.27941424 0.062457938 0.073524244 -0.049425136
0.19966897 0.03700267 -0.09546591 -0.0013472219 -0.20526412 -0.0064062835 0.11631829 -0.09654175
-0.07390069 0.055741895 -0.0043694335 0.014302514 -0.028687544 -0.044489015 0.19957912 0.06347894
0.034358226 -0.003317222 0.014948812 -0.11377201 -0.027115855 -0.0168448 0.054053467 0.02375795

net.4.bias f4 [3]
00000000: 53e8 2b3d 1ed1 8139 841d 1f3c
0.04196961 0.00024760602 0.009711627
