src/checkpoints/sac_actor_200.pth (torch, 288452 bytes, 6 tensors)

net.0.weight f4 [256, 18]
00000000: f9fd 83be b4f8 453d ed47 ea3d eb94 b4bd
00000010: e8b5 8ebe c88d 0a3e 6bf6 5d3d 3eb6 40be
00000020: 3ed6 a7bd 9707 a23d 15f0 133e 3a17 51be
00000030: da4e ea3d 83b2 2c3e ee75 d23d c093 87bd
00000040: 8183 203e 7c7a 00bd 6526 023e 108e fc3d
00000050: b444 4abd 380c d23d 93e4 e53e fca4 233d
00000060: 9cb2 07bd c969 0bbe dae5 6abe d8e1 03be
00000070: dccd 08be ba2b 453c 70f7 87bc 46aa a3bd
00000080: 76c6 a8bd 26a6 9bbd e758 583e 00a8 1d3c
00000090: 89ea fdbc 1ec4 933c 2729 573d c38c 5bbf
000000a0: 5e6a 383e 06e4 c1bd 1464 5abe d7b9 8a3d
000000b0: 8655 1c3e aa12 01be e1b4 20bd 7033 65be
000000c0: 9031 103c 801b 9c3b 6200 24be 189b f03c
000000d0: 3c2b 3ebd 8754 173e c4f1 cc3d 3ae6 e73c
000000e0: 38c5 80be cf60 7ebd 7308 0ebe b84c 72bd
000000f0: 9503 0d3e 6b82 65be 2e51 06be d869 c63d
00000100: da62 2a3c e2ab c73e 01c8 613e 2b25 223e
00000110: 5227 dc3d 0eac 8f3d 1baf 413e 28a5 56bd
00000120: 0b2b 12bc 9d01 1c3b 1582 46bd 2f78 303d
00000130: 494c 1a3e 97da 4b3e 4dac 273e 1f02 a3bd
00000140: de06 73be 7cc9 513e 5437 2dbe b56d 1f3e
00000150: 259c f6bd 283f 803c cf34 423e b4a2 023d
00000160: 67a5 45be 8c18 1fbe 7a5e 363c 60db 5abe
00000170: fe7c e03c 192f 08be 3d37 0bbe 6b58 b03d
00000180: 3dd4 493e 9e76 04be 949e ec3d 06ca 953b
00000190: 2229 78be f75d 033d f9b4 5a3e eb77 6f3e
000001a0: bc07 2fbe ce15 d83d bc80 613d 683e 9b3c
000001b0: 75d9 f33d e3bb 0fbe 06d6 f73c b10d 1b3e
000001c0: 7a8c a23e 0d82 813d 382b f3bc 2fa7 7c3e
000001d0: 4ded e03d 8f4c 06be 7cf5 b9bc 16cc 043e
000001e0: 427b d53d 8b76 4d3e d47a 513d f8a5 ca3c
000001f0: 6d27 57be 2a2f 51be 79ed c6bd 5bdf 9fbd
00000200: 58f5 2f3e 07a5 34bf 06e0 8cbe 19d2 c63d
00000210: 8bda 70bd 4434 91bb 013a ca3d ebb2 96be
00000220: 0614 5c3d 6f34 9bbe 62e5 6cbe e726 64be
00000230: 41ff eebd 8277 03be 7bbc 3b3e 913e 033e
00000240: fc8d d5bd 3736 f43c 6fa5 493d 4856 b63e
00000250: cecd c3be 83bb 62be ba9d 843d 95df f2bd
00000260: 264e a73d f497 b63c a0a0 e7bd be2b 99be
00000270: b129 1b3e a0c2 67bd 0c9b 603d 98ee 3abd
00000280: ecef 613d 4445 633d f228 95bc 87f7 b13d
00000290: 3d55 0dbc 5ec0 3e3d 7276 7f3e bc82 b1be
000002a0: 5298 2f3e eedd edbe b7b2 5d3c 560d eb3d
000002b0: 5b08 1fbe 57af fc3d d6dc cc3d 8cca 50be
000002c0: d0e8 4c3c cc72 37bd a766 413e 880d 873c
000002d0: b53d fc3d bd59 45be 7801 1a3e 6588 00bd
000002e0: c1e5 f4bd 8dc9 e93d 9d2d 313e e9c6 06bd
000002f0: e848 1abe c913 8bbd 453f 5e3e 325c aebc
00000300: a042 c9bb 93d7 703e ff8c 6abe 1430 77bd
00000310: ffe3 23be 18ad 823c 0558 dcbe f479 afbd
00000320: a022 113d 9ecb b4be f1f2 5abc 4fa4 963e
00000330: 3f72 da3d 822d b8bd 6069 92bd dc3a 60be
00000340: c207 a93d 0cb5 19be 6673 803d 1c36 433d
00000350: 725e d63d b64c a3bd 0104 433e 7c58 d4bd
00000360: a56b a8bc 11f8 c8bd 0f02 d23d e51b cf3d
00000370: ac12 b6bd 7592 b3bd 0f8b 0c3e 209c 35be
00000380: 2e0d f63d c4b4 573d 7d27 8dbe e277 333e
00000390: 2017 6ebd 407e 4ebc d7a0 253e 1f9a 5c3e
000003a0: 0887 6fbd 26ab ff3d bd41 b03c 2e99 47bb
000003b0: 6692 d23d e06a 82be af1b 39bd adb4 4a3c
000003c0: 1424 3bbd 6d6d b4be c0c3 113d daa1 e93b
000003d0: e3a7 2e3e a984 443e e0b6 6fbe f878 923c
000003e0: 7698 ea3d 6d28 1d3e 309e 9fbd 12ea f83d
000003f0: feb5 12bc 6206 74be 3b6d 723d 5c76 953e
-0.25779703 0.048332885 0.114395 -0.08817466 -0.27873158 0.13530648 0.05419008 -0.1881952
-0.0819516 0.07911604 0.14447053 -0.20419016 0.11440821 0.16864972 0.102763996 -0.06619978
0.15675165 -0.03136681 0.12709959 0.12331784 -0.049381927 0.10256237 0.4490095 0.039952263
-0.03312932 -0.13614573 -0.22939244 -0.12879121 -0.13359779 0.012034351 -0.01659748 -0.079914615
-0.082409784 -0.0760005 0.21127664 0.009622574 -0.030995624 0.018037852 0.05252948 -0.8576166
0.18009326 -0.0946732 -0.2132724 0.067737274 0.15267 -0.12604776 -0.039235 -0.22382903
0.008800879 0.0047640204 -0.16015771 0.02937083 -0.04642795 0.14778338 0.10007051 0.028308023
-0.25150466 -0.062104043 -0.1387041 -0.059155196 0.13770898 -0.22413032 -0.13116905 0.09688157
0.010399545 0.38998324 0.22048952 0.15834491 0.10749687 0.07015239 0.18914454 -0.0524036
-0.008921395 0.0023804673 -0.0484639 0.043083366 0.15068163 0.19907604 0.16374321 -0.07959389
-0.23733088 0.20487016 -0.16915637 0.15569194 -0.12041501 0.015655115 0.18965457 0.031893447
-0.19301377 -0.15536708 0.011130923 -0.21372747 0.02740335 -0.13299216 -0.1359529 0.086106144
0.19709869 -0.12935874 0.11553684 0.004571202 -0.24234441 0.032072034 0.21358098 0.23385589
-0.17092794 0.10551034 0.05505441 0.018950656 0.11906711 -0.14036517 0.030253422 0.15141942
0.317478 0.06323633 -0.029683694 0.2467315 0.109827615 -0.13115142 -0.022700064 0.12968478
0.104239 0.20064752 0.05114253 0.024737343 -0.21011133 -0.20428148 -0.09713263 -0.078062735
0.17183435 -0.7056431 -0.27514666 0.09708042 -0.05880217 -0.0044312794 0.098743446 -0.2943338
0.053730033 -0.3031344 -0.23134378 -0.22280465 -0.116697796 -0.12838557 0.18333618 0.12816836
-0.10427472 0.029811008 0.049230035 0.35612702 -0.38242954 -0.22141843 0.064753965 -0.11859051
0.081692025 0.022289254 -0.11309934 -0.29916185 0.15152623 -0.056582093 0.054835364 -0.045637697
0.055160448 0.05548598 -0.018208 0.0868979 -0.008626279 0.046570174 0.24947527 -0.34670055
0.1714795 -0.4645838 0.0135313785 0.11477153 -0.15530531 0.12338131 0.100030586 -0.20389766
0.012506679 -0.044787213 0.18886815 0.016485944 0.12316457 -0.19272514 0.15039623 -0.031380076
-0.119578846 0.11415396 0.17302556 -0.03290454 -0.15066874 -0.06790883 0.21703823 -0.021284197
-0.0061419755 0.23519735 -0.22905348 -0.060348585 -0.16004942 0.015951678 -0.43035904 -0.085681826
0.03543341 -0.35311598 -0.013363586 0.29422233 0.10666322 -0.08993055 -0.07149005 -0.21897453
0.08253433 -0.1501047 0.062720105 0.047659025 0.10467233 -0.07973616 0.19044496 -0.103684396
-0.020559141 -0.0981294 0.10254299 0.10112742 -0.0889028 -0.08768169 0.13724922 -0.17735338
0.120142326 0.052662626 -0.2756919 0.175262 -0.058127522 -0.0126033425 0.16174637 0.21543168
-0.058478385 0.12483816 0.021515721 -0.0030456292 0.102818295 -0.25472164 -0.045192417 0.012372178
-0.045688704 -0.35239735 0.035587072 0.00712989 0.17056231 0.19191231 -0.23409605 0.017879948
0.11454861 0.15347452 -0.07793844 0.1215402 -0.008954523 -0.2383056 0.0591862 0.29191864

net.0.bias f4 [256]
00000000: 45a1 95bd 1a5f b9be 75c9 653e cb58 85be
00000010: 4b12 573e 534e c33c c842 9b3d 402a c23c
00000020: 96ab 85be 2677 dd3d e860 033d 6dcd 053e
00000030: f176 cd3d 3acf 8bbe 7eeb fd3d 3bb5 0abe
00000040: 7e06 d73d 94b0 85be 9078 37be 9811 3b3e
00000050: 4a00 8d3e 3e3f bbbe f492 d4bc 0dec 2ebe
00000060: 1a5c dfbd 3cbb e93b b7cb d9bd 539b 673d
00000070: 07a5 a4be 3f68 17bd 5db3 2e3d eb5b 003d
00000080: 9fd0 db3d 626e a13e 659e 4fbe 364b b13e
00000090: 69d5 f6bd a5bc eb3d f2b2 2c3e 7455 f23d
000000a0: 608e abbe 35cd 58be ca82 993e 09b4 cabc
000000b0: b963 ab3e 3231 55be 1a62 03be e185 9fbe
000000c0: e29a 2e3e 4984 fa3d 3847 ef3e 6f12 48be
000000d0: be87 b7be e26f 9dbe 29cb 23bd 9ec3 0ebe
000000e0: b0b1 9f3e 8724 8fbe 3899 843d 2a0d 903d
000000f0: f0cf bc3d 6972 81be e800 c03e 26af 92be
00000100: 103d 7ebe 80f5 f0bd fdd2 2f3e 06f9 0e3c
00000110: 3a59 8cbe af33 8cbe d4f8 9abc f929 03be
00000120: f213 dc3e 460f e43d 1f94 d2ba 0711 48bc
00000130: 9822 29be 25fa b13d 86c3 ad3d a5c6 a7bc
00000140: cc50 2f3e 6b99 69be fb7d fd3c 825b ddbc
00000150: 22bd 58be f65c 3cbe 9971 39be 67ce babe
00000160: 78f3 4dbe 7c09 6fbc 8852 75be e75a aabd
00000170: afd4 d9bc 0c48 b6bd f1c7 36be a45c 16be
00000180: cd2a 1fbe d3e7 23be 365a f93d 9409 483d
00000190: 301b 80be 65e7 813d 9c88 5dbe b99d 24be
000001a0: 1901 a1be 2f00 01be 5f20 b83e 1880 a0be
000001b0: 09f6 09be 07e6 d23e c6d5 683e 3e6f 89ba
000001c0: 4395 6cbd 5c43 8a3e 8327 073a 4735 e73d
000001d0: b71c 19be 7699 9dbd 2b97 d9bd 78fd ac3e
000001e0: 4519 933e 2050 0d3e a604 19bd b917 94bd
000001f0: 9f7a b7be 6ef2 0fbe 68c1 3dbe 6869 12be
00000200: e2eb cc3d 5709 3fbe 5eea bcbe 9d8c 2bbe
00000210: 5ece 33be b5ba 663e b36e 25be 613d 54be
00000220: 4ad3 b7be 1072 9cbc db8b 12bd e027 9ebe
00000230: 05f6 c53e 3805 823d dfa4 55bc 3d29 b83d
00000240: 31df 76bd 8fa6 e8bd 3da6 11be 1a2c 9dbe
00000250: d3ea 8b3e 0790 e9be fe44 803d 0649 823d
00000260: 9dfb 8a3e d4b1 aabd 3558 f7bc 7da7 90be
00000270: de9c 6a3e 81ae 58be 29d1 bebd df3c 603e
00000280: d9bf 6bbe 69b1 b3bd d928 70be d2f7 d9bd
00000290: 6b70 93bd d79a 5dbe b264 8bbb 0c1a 9bbe
000002a0: d784 a1bc 7d29 eebd 061c 50bd 3cd9 c83e
000002b0: e5ca 2f3e 5536 cf3d fa6f 05bd ca99 a43e
000002c0: 7d57 5bbe 933d b33e f86d e33e 1c83 9ebe
000002d0: 11cf 843e 50cb 4e3e e5b6 6b3e b24c 8bbe
000002e0: e886 993e 289e 1a3e 0738 2c3e c2c5 003c
000002f0: 2ae0 a53e 2072 4f3e 1292 f53e 82b7 cd3d
00000300: 949a 59be e385 0a3e 650d b8be 9dbf a3bc
00000310: 3d4f 863e 1b7b adbe 13ee 8abe ac61 d6bd
00000320: 019e a33e d97d 033e 08f8 16be 5c29 0e3e
00000330: 2bc7 73be 2e8e d23e f011 afbd 9edd d9bd
00000340: 0c13 243e ccc2 a33e 3c64 56be b7f1 ccbc
00000350: bc57 923e ccf1 92be 6111 95be 320e f83c
00000360: b263 3c3e 28fe ca3e a1e6 14be bf50 8abd
00000370: 8761 103e 3085 95bd eb62 a6be 91f5 703d
00000380: a0f2 45be 2e4b 97be fb85 90bb 9330 5cbe
00000390: cfb6 7a3e 3b15 e83d 4e61 90be 4087 a3bd
000003a0: 0824 d03d 9eda 3bbe a74f 4c3d 9b34 8cbe
000003b0: 042b 45be ad83 81be 13bb 8fbe e4dc b53d
000003c0: 1025 73bc 179b e23b 381d 2cbe 88a4 14be
000003d0: 906d 733e 8d33 c1ba 40fd 7b3e 42b8 d83e
000003e0: 467c 8abe bb9a 1dbe e352 663e fd16 1d3e
000003f0: a5cc 413d 92e0 c6be 3932 ac3e f406 b33e
-0.0730615 -0.3620537 0.22440131 -0.26044306 0.21003072 0.023841059 0.07581097 0.023701787
-0.26107472 0.108137414 0.03207484 0.13066645 0.10032452 -0.2730654 0.12398432 -0.13545696
0.10499285 -0.2611128 -0.17917085 0.1826843 0.27539283 -0.36571687 -0.025948979 -0.17082234
-0.10906239 0.007132916 -0.10634559 0.056544613 -0.32157156 -0.03696465 0.042651523 0.03133766
0.10733151 0.31529528 -0.20275266 0.34627694 -0.120524235 0.115105905 0.16865137 0.11832705
-0.3350706 -0.2117203 0.29982597 -0.02474405 0.3347452 -0.20819548 -0.12830392 -0.3115683
0.1705127 0.12232263 0.46734023 -0.19538282 -0.3584575 -0.30749422 -0.03998867 -0.1394181
0.31190252 -0.27957556 0.06474537 0.07033761 0.092193484 -0.252826 0.3750069 -0.28649253
-0.24827981 -0.117655754 0.1717033 0.008726364 -0.27411824 -0.2738318 -0.018917479 -0.1280898
0.42983967 0.11135726 -0.0016065872 -0.012211091 -0.16517103 0.086902894 0.08484559 -0.020480463
0.17120665 -0.2281243 0.030943861 -0.027021173 -0.21165898 -0.18394837 -0.1810974 -0.36485597
-0.20112407 -0.014589664 -0.23957264 -0.083181195 -0.026590673 -0.089004606 -0.17849709 -0.14683777
-0.15543671 -0.16006403 0.121754095 0.04883726 -0.25020742 0.06342963 -0.21634144 -0.16075791
-0.3144615 -0.12597726 0.35962197 -0.31347728 -0.13472761 0.41191122 0.22737798 -0.0010485423
-0.057759535 0.27004516 0.0005155729 0.11289459 -0.1495236 -0.07695286 -0.10624536 0.3378713
0.28730217 0.13800097 -0.03735795 -0.07231087 -0.3583574 -0.14057323 -0.1853081 -0.14298022
0.100059286 -0.18655907 -0.36897558 -0.16752858 -0.17559192 0.2253216 -0.1615551 -0.20726539
-0.35903388 -0.019097358 -0.035777908 -0.30889797 0.3866426 0.06348652 -0.013039797 0.089922406
-0.060271446 -0.113598935 -0.14223571 -0.3069771 0.27327594 -0.45617697 0.06263159 0.06361584
0.2714509 -0.08334699 -0.030193428 -0.28252783 0.22911403 -0.21160318 -0.09317238 0.2189822
-0.23022403 -0.08774073 -0.23453082 -0.10642971 -0.071991764 -0.21641098 -0.004253947 -0.3029331
-0.019716663 -0.11629007 -0.050807975 0.39228237 0.17167242 0.10117785 -0.032577492 0.32148582
-0.21420093 0.35007915 0.44419837 -0.30959404 0.2593923 0.20194745 0.23018987 -0.2720695
0.29985738 0.15099394 0.16818248 0.007859649 0.32397586 0.20258379 0.47963005 0.10044767
-0.21250373 0.13527636 -0.3594772 -0.01998883 0.2623233 -0.33882985 -0.2713476 -0.10467848
0.31956485 0.12840976 -0.14743054 0.13882965 -0.23806445 0.411241 -0.08548343 -0.10637973
0.16022891 0.31984556 -0.20936674 -0.025017602 0.2858256 -0.287001 -0.29114822 0.030280206
0.18397406 0.3964703 -0.14541103 -0.06753682 0.14099704 -0.07300794 -0.32497343 0.05882794
-0.19330835 -0.29549545 -0.004410503 -0.21502905 0.24483798 0.113321744 -0.28199238 -0.07984781
0.101631224 -0.18345115 0.04988065 -0.27383885 -0.1925469 -0.25295773 -0.28072414 0.08880022
-0.014840379 0.006915461 -0.16808021 -0.14515889 0.23772264 -0.0014740095 0.24608326 0.42328078
-0.27047938 -0.15391056 0.22492556 0.153408 0.047314305 -0.3884321 0.33632067 0.34966242

net.2.weight f4 [256, 256]
00000000: d7ae 813c 4a6f d5bd 38e4 15bd 3e77 27bd
00000010: 3a37 1c3e cc7f c4bc cbaf e6bc 8c47 dbbc
00000020: 2a01 08be 5c91 67bd 656d 473d 89b7 023e
00000030: 8f87 953c 33c5 cdba fcac 29bd 6085 de3c
00000040: 3bc5 083e a9b8 623c f8b1 08bc cff0 c7bc
00000050: 48bc f6bd bd58 6c3b bd0c c7bc 9dc6 d03c
00000060: 7c89 92be af06 cbbd e477 953c 24b3 6bbd
00000070: 7726 56bd 0a94 a1ba 2195 7f3d 9ff5 3f3d
00000080: f7e7 eabd c810 023e b878 d8bd c5e3 fd3d
00000090: da1b 903d 20fe 1d3e bdf5 6d3d 4883 19be
000000a0: 0b2d 13be 654c e8bd 58d9 aa3d e311 71bd
000000b0: d3b0 893b 8631 153d 43a6 b63d bfc8 15be
000000c0: ee02 01bd 5abd 0a3e 3559 bbbc 7288 15be
000000d0: 9043 00be 8fe8 b2bd 5e7d ab3c a3f1 8bbd
000000e0: b8e6 30bd a32b 5ebd 7f8b eb3c 7fc8 6d3b
000000f0: 3838 7cbd 49c6 22bd 7f44 753c 449f 873d
00000100: ac69 cebd dcf4 1a3d 5af0 343c ad68 8d3d
00000110: 8856 d0bd f709 0ebe 8926 c33c 3799 d93d
00000120: 7ea0 95bb ed78 7bbb eb6d 4e3c 85d4 03bc
00000130: 73f0 f0bc 8736 8c3d bbf8 493b 7a0c 853c
00000140: 0139 c73c 8e96 b4bd 928d 813d 0522 4d3a
00000150: a566 30bd 5819 773d 62fd 913d 9b4b 0cbe
00000160: d875 aabd 84a2 b53d 98b7 583b a67a c2bd
00000170: ff04 83bd db53 81bd 8882 54bd 9632 7ebd
00000180: c05b 0fbe 3f98 493c 33d3 08bf 981d 4a3e
00000190: 91bb 713c 703b 2dbd dc96 11bd 027f b63d
000001a0: 9bc8 2e3d baea 6fbd 34d0 f7bd 7c88 51bd
000001b0: 3d79 dfbc 2154 d1be c737 143e dd3b 62bd
000001c0: c5d9 8d3d 0866 1abe fbae f7bc 9aa8 4ebe
000001d0: f2ab 903b c977 423d 8273 87bd 93d3 a33d
000001e0: 6610 7bbc 0865 94bc ad45 6d3c 9926 143c
000001f0: de0b ccbd d1ef 18bd 99d5 5ebd dc15 9d3d
00000200: 69b7 183d d504 b5bd 02a6 88bd c5e5 8bbd
00000210: 3763 aebd e0e6 1c3d 016d 213e 3cc0 81bd
00000220: de17 21be 5c06 b63c e439 933c c305 14bc
00000230: 3a2a 0e3e 13bf 85bd 85ed f8bd 06d1 613d
00000240: 5a72 533c f67e 4dbd d014 2c3e ab27 ffbc
00000250: c796 7ebe 396e 4bbd 59cd 9c3d 2405 a53d
00000260: 5af2 cabd 807f 95bc 0db0 2f3e 1142 83bd
00000270: 6efa a7bd 4568 0bbc 2002 52bb 68d4 05be
00000280: f987 b4bd 71c1 7ebe f0ee c0bd caf7 043d
00000290: 1b20 4eba 5968 e4bd a406 0a3e 8a79 3dbc
000002a0: 4396 6dbc 00f4 babb 68f9 c6bd 02a3 bb3d
000002b0: 4850 bb3c 7d1f 0dbe 32fc 733e 5b2e 83be
000002c0: ce2f 34bd e91a 98bd 07a6 b13c c88d 90bd
000002d0: 2efa c63d b12f b43c 2368 05be 907c dcbd
000002e0: eb52 c63a fa95 2c3c 37b2 9a3c cbce 66bd
000002f0: 891e ddbb 298e 89bd 21e1 36be 2bf6 463c
00000300: 6185 a1bd bf4e 51bc 9713 b0bc 4ff4 14bd
00000310: 4c17 b43d fe80 823d b843 3ebd b5d6 60bd
00000320: 8e01 bf3c 4e1a 8f3d 6d10 88bd 3614 febc
00000330: 3aff 74bd 7619 a8be 07d1 223d dc09 8cbd
00000340: 163f 0e3e 3310 acbe 3b21 c1bc dd1c 2dbd
00000350: 4f19 1c3e 14ac 32be 5bc1 92bd 4192 ca3c
00000360: 42b9 acbc edc9 293d 0490 50bd 535b 3abd
00000370: 9a9a e43d b4c5 87bd 9a89 13be 8891 e2bd
00000380: 5df3 dbbe a117 1ebd f6db b9bd 37e6 13bd
00000390: c6c0 dc3c 718b 1b3d 6b37 733d 86e4 81bd
000003a0: 9c91 8dbd 93a1 21bd 6c8e 77bc c49c d1bc
000003b0: 1723 58bd 8823 f5be 9083 c7bc 523c 95bc
000003c0: e811 00be 9ae4 bb3b bd3a 91bd 6ea4 a5bd
000003d0: 050e 7ebd 246f eabb 1f99 f1bd 077e b53d
000003e0: e2f2 7bbd ed7d 4cbc 9b64 8c3c 7836 21bc
000003f0: 4e99 033a 813d a1bd 1305 29bd df0d 76bc
0.01583044 -0.10421617 -0.0365946 -0.040885203 0.15255442 -0.02398672 -0.028159996 -0.026767515
-0.13281694 -0.05653511 0.04868831 0.12765326 0.018253116 -0.0015699029 -0.041424736 0.027163208
0.13356487 0.013837972 -0.008343212 -0.024406819 -0.120476305 0.0036063634 -0.024298066 0.025485331
-0.28620517 -0.09913384 0.018245645 -0.05754389 -0.052282777 -0.0012327444 0.06239808 0.046865102
-0.11470025 0.12701714 -0.105699 0.12396959 0.07036562 0.15428972 0.058095682 -0.14991486
-0.14372651 -0.11342696 0.08342236 -0.05885495 0.0042019873 0.036424182 0.08918431 -0.1462736
-0.031496935 0.13548794 -0.022869686 -0.14602831 -0.12525773 -0.08735763 0.020933803 -0.06833198
-0.04318878 -0.054240834 0.02875304 0.0036282835 -0.061577052 -0.03973988 0.014969944 0.066221744
-0.10078749 0.037831172 0.011043632 0.06904731 -0.101727545 -0.13870989 0.023822086 0.106249265
-0.0045662513 -0.0038371638 0.012599449 -0.008046274 -0.02941153 0.06846338 0.003081842 0.0162413
0.024319174 -0.088177785 0.063258305 0.00078251987 -0.04306664 0.060326904 0.07128407 -0.13700716
-0.08323258 0.08868888 0.0033068415 -0.094960496 -0.06397437 -0.06314822 -0.051882297 -0.06205996
-0.13999844 0.012304365 -0.53447264 0.19737852 0.014754192 -0.042293012 -0.03554426 0.089109436
0.04267178 -0.058573462 -0.121002585 -0.051155552 -0.02727949 -0.40884498 0.14474402 -0.05523287
0.06926302 -0.15077984 -0.030234804 -0.20181504 0.0044150287 0.047477517 -0.06613828 0.07999339
-0.015323734 -0.018114582 0.014481944 0.0090424055 -0.09963201 -0.03733808 -0.05440292 0.07670185
0.03728429 -0.08838812 -0.066722885 -0.068309344 -0.085150175 0.038306117 0.15764238 -0.06335494
-0.15731761 0.02221983 0.01797194 -0.009034577 0.13883296 -0.06530585 -0.12154678 0.05513098
0.0129056815 -0.050169908 0.16804814 -0.031146845 -0.24862204 -0.049665663 0.076563545 0.08057621
-0.09909506 -0.018249273 0.17157002 -0.064090855 -0.082020625 -0.0085087465 -0.0032044724 -0.13069308
-0.08814997 -0.2487848 -0.09420574 0.032462873 -0.00078630605 -0.11152715 0.13479096 -0.011564622
-0.014501157 -0.0057053566 -0.09715539 0.09161951 0.02286543 -0.13781543 0.23826674 -0.25621304
-0.043990903 -0.07427008 0.021685613 -0.070582926 0.09715687 0.021995397 -0.13028006 -0.10765946
0.0015130913 0.010533804 0.018883808 -0.056349557 -0.006748025 -0.06716568 -0.17859317 0.012143652
-0.07886768 -0.012775122 -0.021493716 -0.036365803 0.08793506 0.063722596 -0.0464513 -0.05489226
0.023316171 0.06987439 -0.06643758 -0.031015497 -0.059813716 -0.32831925 0.039750125 -0.06837818
0.13891253 -0.3360611 -0.023575416 -0.042263854 0.1524403 -0.17448455 -0.07165786 0.024727942
-0.021084432 0.041452337 -0.050918594 -0.04549725 0.111623004 -0.06629506 -0.1440796 -0.11062914
-0.4295911 -0.038596753 -0.09075157 -0.03610822 0.02694739 0.03797478 0.059379023 -0.063424155
-0.069125384 -0.03946073 -0.01510964 -0.025587447 -0.05276784 -0.4787867 -0.024354726 -0.01821724
-0.1250683 0.0057340385 -0.070912816 -0.08088003 -0.06202509 -0.0071543623 -0.11796784 0.088619284
-0.061510928 -0.012481195 0.017137816 -0.0098396465 0.00050200976 -0.07873059 -0.041264605 -0.015017956

net.2.bias f4 [256]
00000000: 1b94 323e 87b6 433e ca2c 31bd 990e ecbc
00000010: afe2 fe3a 6d38 e43d 7a05 c6bc 58cb 8a3d
00000020: ed20 003d 1d9c 5d39 d0a0 faba 4e57 6e3d
00000030: 6c59 3bbc ae0d 923d d145 5f3d 277c 9d3d
00000040: 86bb 22bd 6b84 be3c 4d2f b4bc 629a 133e
00000050: f26a 0d3c 977b 06bd bcb7 6f3b 1987 0f3d
00000060: b40d 1cbd baa0 1bbc fdff 15be 570e 4abd
00000070: 16a4 aabb ce86 b9bc 4cc8 25bd 9793 903d
00000080: 6de3 fabd 149b 963c 60f9 27bd cfa2 28bb
00000090: 8f6b 953d 763d d83b 9b64 633c 2a90 3bbd
000000a0: 05c9 0c3e 1b83 02bc 7f8a e6bc 9bce 0e3d
000000b0: b564 953c 7afe 113e 3e52 8abd 0c92 4f3d
000000c0: 1771 04bd 6f91 573c 42cd e83c 3d14 6fbd
000000d0: 1e6b c53c 6d6f 8e3d cd3d 9fbd 8596 a23d
000000e0: 8f0f 2d3c 93fc 253e 652e 9d3c 3977 f4bc
000000f0: 66c5 82bd 9b10 8ebd a6e8 afbb dd9f b03d
00000100: edf9 913d 33cb f83c 9754 40bd ebb5 25bd
00000110: a265 60bc 4ceb cc3b da67 063e 0040 acbd
00000120: d6c4 823c 9fa6 88bd ea90 f43d e49b 24be
00000130: f7cc 3dbd 9815 923c c819 99bc 6959 99bd
00000140: 19e5 2dbd b3ff e03d f067 53bd f800 063d
00000150: 93de 6c3d 6994 4d3e 69d4 70be 863b 07bd
00000160: 3f9b 1fbe 488b 07bd 6ace a63a dc37 c8bd
00000170: ac60 a6bd 734b 15bd 2bfd 223d bde3 99bd
00000180: 3658 ffbb 2c83 3739 ab23 cfbd a3b2 71bd
00000190: 6deb ccbb f94e 07bc 72e9 93bd 90c8 d93d
000001a0: a5ee 59bd 9876 8d3d 3910 13bd 3cf1 22bd
000001b0: ee9c 3abd 7596 b33c f343 973d df11 173d
000001c0: 6150 fa3d f349 98bd b089 05bd b5bc 063d
000001d0: 7a1a e63d 6a7a 40bd 7fe5 8fbd 8fc8 c1bc
000001e0: 29e6 1c3d 372e 063e 6425 e73d ef6b 70bc
000001f0: f255 0f3c 6d7b 82bd 0dd7 963b f4cb e63d
00000200: 6816 4abd 2d50 723c ceef ab3c 7a64 c63d
00000210: 4233 ab3b 6e6f 92bc 4b99 94bd 2b94 51bd
00000220: b240 123e c464 41bd 1828 ad3d 0549 9b3d
00000230: 7990 aabc 52a9 0dbd e7a1 5f3d 48b9 083d
00000240: 6d66 f3bd 5d4b c1bc afbb 463d 8107 1fbd
00000250: ed27 2c3d 01a8 053d 401e 96bc 0933 68bd
00000260: 9b5c dc3c f91c ca3a b43e 9abd cc15 983d
00000270: cb53 a03d 2a59 40bc 3d0e f4bd 5827 e9bd
00000280: 5b1b 4f3e 2ae9 a1bc ee64 58bc 853b bfbd
00000290: 9acc b53c 9135 d6bd 2210 233e da68 b23b
000002a0: 3669 7cbd 7458 d3bc f5eb 06be 1e1a 32bd
000002b0: ab4d f7bc 887b 54bc 52fa db38 818f 8abd
000002c0: 9cf2 5d3d 6256 3f3d d8fc a9bc 7f4b 0a3c
000002d0: 10a4 3d3d ef45 b73c f7b1 b73c 94b4 a23d
000002e0: 9072 cebc d05b 67bd a841 033e f5c8 9d3d
000002f0: 8f20 253d cb10 bdbd 8bd9 bf3d 8774 233c
00000300: 4bc4 68bd d191 aebb a6b2 47bc 74db bdbb
00000310: ef04 bcbb 97b3 40bd d59e 013d 8107 51bc
00000320: 0838 dfbd 6b2d f43c 47cc 8bbd 6d48 8c3b
00000330: 4a2c 2c3c d16f a6bc cc87 03bd 79d5 823d
00000340: bdc0 aebd de3b 68bd 7e14 78bd cbbd 51bc
00000350: 434f 983d 7323 093d 5723 c23c 587f dbbc
00000360: 90c7 83bd a055 bcbd e429 8a3c 9cb6 7fbd
00000370: 6f1e 593b 2145 193e bcf5 99bd 9a8f b43c
00000380: 3431 c8bc d876 67bd dee4 39bd d685 54bc
00000390: 5ac4 a83d 3e26 033d 68dc a43c d033 213d
000003a0: 2d7e 483d a00d 893c 276c e23c 2963 81bd
000003b0: 585d b9bc 7259 d43c 0c2e dc3c 48ee 423c
000003c0: 1374 0c3d b711 0d3e d39c 03bd 5ada fdbc
000003d0: 1faa 9abd 22bc 45bc e810 243d 27b8 b23d
000003e0: acfb b9bd f0cc 323c ce7c 4bbb b4ac 8e3d
000003f0: bdd4 c5bd 3b43 c8bc a667 53bd c76a 023d
0.1743931 0.19112597 -0.043255605 -0.028815554 0.0019446219 0.11143575 -0.024172533 0.06777066
0.0312814 0.00021134359 -0.0019121412 0.05818873 -0.011434894 0.071315154 0.05450994 0.07689696
-0.039729618 0.023256501 -0.021995211 0.14414361 0.008631455 -0.03283271 0.003657802 0.03504095
-0.038099006 -0.009498769 -0.14648433 -0.04933008 -0.005207549 -0.022647288 -0.04047422 0.070594005
-0.12250409 0.018384494 -0.041009307 -0.0025731807 0.07295906 0.0065991236 0.013878967 -0.045791782
0.13748558 -0.007965828 -0.028142212 0.034865003 0.018236497 0.14257231 -0.06753968 0.05067639
-0.032334413 0.013157233 0.028418187 -0.05836891 0.024098929 0.069548465 -0.077754594 0.079388656
0.0105627915 0.1620963 0.019187162 -0.029842006 -0.06385307 -0.06936761 -0.00536831 0.086242415
0.07127748 0.03037033 -0.04695567 -0.040456694 -0.013696106 0.0062536355 0.13125554 -0.084106445
0.015963 -0.066724055 0.11941703 -0.16075093 -0.046338048 0.017832562 -0.018689051 -0.07487757
-0.042454813 0.10986271 -0.051612794 0.032715768 0.05782945 0.20076145 -0.23518528 -0.03301575
-0.15586565 -0.033091813 0.0012726311 -0.09776279 -0.081239074 -0.036448907 0.03979222 -0.07514141
-0.007792498 0.00017501105 -0.10114225 -0.059008252 -0.006253651 -0.008258575 -0.072222605 0.106339574
-0.053206105 0.069073856 -0.035904143 -0.03978084 -0.045559816 0.02192233 0.07386007 0.036882278
0.12222362 -0.0743598 -0.032602012 0.03289481 0.11235519 -0.046991743 -0.07026195 -0.023655204
0.038305435 0.13103567 0.112864286 -0.014674171 0.008748518 -0.06371198 0.004603273 0.1126937
-0.049337775 0.014789623 0.020988371 0.09687133 0.0052246163 -0.0178754 -0.07255801 -0.051166695
0.14282492 -0.04721524 0.08454913 0.07582287 -0.020820843 -0.034585305 0.05459776 0.033379823
-0.118847705 -0.023595506 0.048518833 -0.038825516 0.042030264 0.032630924 -0.018324971 -0.056689296
0.026899626 0.0015420011 -0.07531491 0.074260324 0.07828482 -0.011740008 -0.11916778 -0.11384457
0.20225279 -0.019764502 -0.013207657 -0.09337524 0.022192288 -0.10459436 0.15924123 0.005444628
-0.061623774 -0.025799014 -0.13175948 -0.04348194 -0.030188402 -0.012968905 0.000104893596 -0.067656524
0.05418645 0.04671324 -0.020750448 0.008440851 0.04629904 0.022372214 0.022423727 0.07944599
-0.025201112 -0.056484044 0.12818015 0.07704345 0.040314253 -0.09231719 0.09367665 0.009976513
-0.056827825 -0.0053274413 -0.012188589 -0.005793983 -0.005737893 -0.04704627 0.031645615 -0.012758137
-0.10899359 0.029806813 -0.06826072 0.0042810948 0.010508606 -0.02031699 -0.032111928 0.06388373
-0.08532856 -0.05669772 -0.060566418 -0.012801598 0.07436993 0.033481073 0.023698492 -0.02679412
-0.06434548 -0.09196019 0.016865678 -0.06243001 0.0033129712 0.14967777 -0.07517573 0.02204113
-0.024437524 -0.056509823 -0.04538428 -0.012971362 0.08240576 0.032018892 0.02012463 0.039356053
0.048948456 0.01673013 0.027639462 -0.063177414 -0.022627518 0.025921557 0.026877426 0.011897631
0.034290385 0.13776289 -0.03213198 -0.030987907 -0.07551979 -0.01206878 0.040055186 0.087265305
-0.09081206 0.010913119 -0.0031049731 0.06966534 -0.09659717 -0.02444612 -0.05161252 0.031840112

net.4.weight f4 [3, 256]
00000000: c93c 19bd 20d2 5cbd ae57 863c f817 e4bc
00000010: f598 3f3c f0f9 f4bd 8626 fe3c 3ac8 cbbd
00000020: e833 a7bd 1d3d 653e ea42 a83c da27 d9bc
00000030: ce39 1fbd 95ad 9c3c 54f2 803d 5096 f23d
00000040: 7de5 3b3d 5263 b63c 22bc ecbd 8b60 45bd
00000050: a153 803b 1ed2 2fbb df83 313c b816 2fbb
00000060: 5a3a 4ebd db49 043d 3685 623d 5e4b 853b
00000070: af13 b93c 9a64 a8bc 0a5e 373e 26d5 e93b
00000080: ac78 9cbd bcad a23c 8fbc fdbc adb8 cf3c
00000090: b0a7 713d b4b5 e33e ca55 5cbd f543 54bd
000000a0: 91a5 30be 0101 adbd ee2a 013e 78b0 0b3e
000000b0: e37c bf3c 7f3d 47bd cb1a efba 957e a13c
000000c0: 58f6 f6bb 20a2 243c f1dc 18bb 2058 c0ba
000000d0: c4ae aa3b fde6 90bd aa49 cb3c c30c d4bd
000000e0: cc14 e1bc de2d 0cbf 91f9 643d f6fe 1e3b
000000f0: 313c fe3c 09cf 94ba 78f7 0ebd e41c 95bd
00000100: 7bcd 04bd a3fa a73d dd1d 4f3c 306b 623d
00000110: 8ff7 173d 7402 6dbe d982 06be 78db 193d
00000120: c00d 6cba e47f f23c 9b0a c8bd 6975 dbbc
00000130: 6261 4a3d 175a e3bc 0ab1 45bd bf9e 453d
00000140: 2c6f b9bc 6af6 fb3d 83ce 15bd ead3 6839
00000150: 9dc9 ef3d 0df9 5cbe 7a80 16be f0e8 56bd
00000160: 3d76 863c 896d 823b 13d9 913b a051 893c
00000170: a215 823d 187c a8bb 0163 d53e d1e6 093d
00000180: 2ede 943d 73f3 36bc 0400 6fbd 68b7 44bd
00000190: fe0e 29bd 17ab 5f3d ed24 443c 6d42 dcbd
000001a0: a2d9 803d 20f2 5dbe 7124 ea3c 1822 423d
000001b0: b9eb 4f3b 151c 7cbd 4e9a 0d3e 686e ce3c
000001c0: b9b9 05be 4132 b33c c977 87bd bf7c 14bd
000001d0: 081a ffbd dd09 703d 5dd3 423d 600a d73c
000001e0: dbd2 5cbd cc43 913c e3f9 79bd 8abd 5abd
000001f0: 95de d93c 1072 e33c aa31 e03c 1d40 aabd
00000200: 40db 523d 8673 ee3c f9ea 3b3d e978 04bd
00000210: 1b51 f53b 3768 2b3c 7586 273d 3912 1e3d
00000220: 07b8 02be fb94 f53d 901d 0e3d 49df ecbb
00000230: dd6a 723c 2ae4 863d 2e0d fcbd 9cc1 59bd
00000240: a15f 76bd 8635 41ba 9386 9cba 6b71 463d
00000250: ebe3 003c afb4 c43c 543a 993b b856 be3c
00000260: 5673 2dbc 7963 323d fcbe 9e3d 1ec8 ad3d
00000270: f35d 5abd c57f 3cbd d5a9 febd d85f 753d
00000280: 7102 04bd 32cf a03e e032 07bc 8ca4 213d
00000290: 17fe 2a3d bd0f 57bc 9fe7 eebd 572b 31bd
000002a0: 6e2f 81bb 8ff5 ea3c e594 9ebd a304 4e3e
000002b0: d2b2 f93d eae0 523d bc8b 543a 7b81 e1bc
000002c0: e59d 04bc 7edf b93a e52c f63c 800a 96bc
000002d0: 977b 563e 78e7 543d c8de 00bd fbe1 bfbd
000002e0: b947 90bd d615 97bd 5039 d5bd a9b9 cd3d
000002f0: 3fa1 363d 1010 453c ae47 71bd 0d89 01ba
00000300: e116 583d aa78 b8bc 67c3 003d 2e76 f9bc
00000310: f632 b23b 1758 07bd 392d 5ebd 4ec7 75bc
00000320: 2637 8b3b 8225 983c ba3d e4bb 31c2 d83d
00000330: 8259 f33c 0644 383c 174c 323d 0a74 7cbd
00000340: cc95 19bd 2282 013c 9606 3f3d 5a25 2dbe
00000350: 5203 31bd 012a 1c3d 5204 81bc f7ed e83c
00000360: 3c9c d7bc c098 cbbc 32fb 403d d97e 323e
00000370: f5dc 28bd c158 9bbd 0154 3b3d b013 0e3d
00000380: 89f0 fb3c 616b 30bd f6d4 a3bd f397 8b3d
00000390: 16b2 3abd f125 c63b 2e64 203d d05e cb3b
000003a0: 5b5e 3e3d 8c19 47bd 45e5 f3bc d801 0fbd
000003b0: c7f3 683c c1dc 3a3d 43bd 043d 8541 5ebc
000003c0: 6f0d c0bd eabf d9bd dc13 d8bc 9c0d 05bf
000003d0: c6a5 a63c d236 3ebd 54d0 e93c 635a 68bd
000003e0: 9a0e 0fbc 399c 423d f93e cc3e a620 6ebc
000003f0: 16c5 603c 12e3 8fba 7bf3 803a 954e 193d
-0.037411485 -0.05391133 0.01639923 -0.02784346 0.011694183 -0.11961734 0.031024229 -0.099502996
-0.08164197 0.22386594 0.02053972 -0.02650826 -0.038873486 0.01912574 0.062962204 0.11845076
0.045873154 0.022264156 -0.11559321 -0.048187774 0.0039162193 -0.002682812 0.010834663 -0.0026716422
-0.050348617 0.032296997 0.05530282 0.0040678224 0.022592394 -0.020555783 0.17906967 0.007136005
-0.07640204 0.019858234 -0.0309737 0.025356615 0.05899781 0.44474566 -0.053792752 -0.05182262
-0.17250659 -0.08447457 0.12614033 0.13641536 0.02337498 -0.04864263 -0.0018242238 0.01971368
-0.0075366907 0.010048419 -0.002332505 -0.0014674701 0.005208822 -0.070753075 0.0248154 -0.103539966
-0.027475737 -0.5475749 0.055902068 0.0024260855 0.03103456 -0.0011353205 -0.034903973 -0.07280901
-0.032422524 0.08202102 0.012641397 0.055278003 0.037101325 -0.23145467 -0.13135852 0.037562817
-0.00090047345 0.029601999 -0.09767648 -0.026789384 0.049409278 -0.02775292 -0.04826454 0.048247095
-0.022636019 0.12302859 -0.036573898 0.00022204188 0.117083766 -0.2157938 -0.14697447 -0.05246824
0.016413802 0.0039803428 0.004450926 0.016762555 0.063517824 -0.0051417463 0.41677096 0.03366739
0.0726894 -0.011166441 -0.058349624 -0.048026472 -0.041274063 0.054606523 0.011971694 -0.10754857
0.0629151 -0.21674395 0.02858183 0.047395796 0.0031726195 -0.06155022 0.13828394 0.02519913
-0.13059129 0.021874549 -0.06614644 -0.03625178 -0.12456137 0.058603156 0.047564853 0.026250064
-0.053912025 0.017732523 -0.061029326 -0.053403415 0.026595393 0.02776435 0.027367432 -0.0831301
0.051478624 0.02910782 0.045878384 -0.03234187 0.007486475 0.0104618585 0.040899713 0.038591597
-0.12765513 0.119913064 0.03469616 -0.007228766 0.014795986 0.065864876 -0.12307201 -0.053163156
-0.060149793 -0.00073703413 -0.0011941962 0.048448008 0.00786684 0.024011938 0.0046761427 0.02323471
-0.01058658 0.043551896 0.07751271 0.08485435 -0.053312253 -0.046020288 -0.12434737 0.059905857
-0.03222889 0.31408077 -0.008251876 0.039463565 0.041746225 -0.013126311 -0.11665272 -0.043254223
-0.0039424216 0.028681545 -0.07743243 0.20118956 0.121923104 0.051484026 0.000810798 -0.027527561
-0.008094286 0.0014180986 0.030050704 -0.018315554 0.20945583 0.05197856 -0.03146246 -0.09369274
-0.0704493 -0.07377212 -0.10411322 0.100451775 0.04458737 0.012027755 -0.05890625 -0.00049413816
0.052756194 -0.022518475 0.03143635 -0.03045186 0.005438204 -0.033042993 -0.054242346 -0.015001131
0.0042485176 0.018572573 -0.006965366 0.10583914 0.029705767 0.011246687 0.043529596 -0.0616341
-0.037496373 0.007904561 0.04663714 -0.1690878 -0.043216057 0.038125996 -0.01574913 0.028433783
-0.026319616 -0.02485311 0.04711456 0.17431201 -0.041226346 -0.07585288 0.04573441 0.034686744
0.030754345 -0.043071155 -0.079996035 0.068160914 -0.045579992 0.0060470034 0.03915804 0.006206371
0.046476703 -0.048608348 -0.02977241 -0.034913868 0.014218277 0.045620684 0.032407057 -0.013565426
-0.09377562 -0.10632308 -0.026376657 -0.5197389 0.020342719 -0.046439 0.028541721 -0.056726824
-0.008731509 0.047512267 0.39891794 -0.014534151 0.013718864 -0.0010977706 0.0009838188 0.037428457

net.4.bias f4 [3]
00000000: af65 febc c672 d53d e730 333b
-0.031054346 0.10422282 0.002734238
