src/checkpoints/sac_actor_50.pth (torch, 288442 bytes, 6 tensors)

net.0.weight f4 [256, 18]
00000000: abc5 693d 5bd9 c83d 240a 91bd bb20 7d3e
00000010: c7a5 aa3e 4ff2 26be f60e 19be bd69 fd3d
00000020: 5c56 f93d 5f5a 0d3e c12c 20be e95a bfbc
00000030: 04a7 3cbd 3881 983c 203a 153c c2a5 ca3d
00000040: e1ca 283e 8097 beba fa77 c43d a5ea 943d
00000050: 4ca9 6cbd 923b 623e 271d edbb 9738 903e
00000060: 98dc a73c 12fb 5c3e a8d5 69be e19a 11bd
00000070: a51a d9bd bb21 2d3d 18ec b6bc 808f d2bd
00000080: 045f 7abd 990c 283e ad3d 52be e0f3 553c
00000090: 8084 15be e003 f3bd cf97 c0bc 7bda 823c
000000a0: 1104 13be 2b05 8bbe 6c6b b53d ba6d c93d
000000b0: c72a 7a3e c5e3 343e 808f 84be 2fe2 3dbe
000000c0: 2052 a0bc eab7 b73d 180d a53c 5530 523e
000000d0: 24fc 0ebe 3274 a53d 4953 ae3c a5b2 c63d
000000e0: 9163 5dbd c10b 853d c423 60be c048 81be
000000f0: 5ea5 2a3e e90e f8bd b498 0d3e 5f9c 92be
00000100: d018 42be 72c1 d9bc fd64 653e 5638 16be
00000110: fb56 203e e82b 1fbd 9ab2 ab3d e9c2 423e
00000120: 4514 32bd 0498 92bd 5deb 8f3d 04d9 ee3c
00000130: b468 533c 4256 063d 3b97 0abe 928a 963d
00000140: 2339 e5bd 160b 80be a931 4abe be85 3b3e
00000150: b6f3 55be 8f0d 5b3e fc77 1fbd 4b47 0d3e
00000160: e682 e63d cffe 483e 8e6b 80be 134f e73d
00000170: 7d7c 81be 8e11 803e 9087 a13e 09b6 0abd
00000180: 9004 4bbe 8d1a 573e 23ec 7dbc d849 9ebc
00000190: 7d33 a13c 5abb c2bd 7b14 6b3e 76bd a43d
000001a0: 5a82 b0bd 0d72 543e 2b24 2d3e 3bc0 443e
000001b0: e90b a33d d024 603e c2d1 32be 9d10 0fbd
000001c0: 458e 323e fb08 113d 8bcf b4bd 802b c33d
000001d0: 91a7 b73c d1ba 253d 4efe 99be 8a34 063e
000001e0: 424a 973d c71e 483e f4cb 7b3d 833f e7bd
000001f0: 02c6 fc3d 51e6 283e 0ddf 683e e37e 2d3e
00000200: cb12 2cbe b249 d1bc 8765 96bd 68c7 babe
00000210: 9768 a0be 8cef 3ebe 41e1 69be 5925 68be
00000220: 395e 49be 2481 88bb a6bc a93d c0aa 4abe
00000230: 6652 00be 98f7 de3c b8b8 d83c 019c 083e
00000240: 9fc4 913d b75f 2b3c 0eb2 87be 56ef 4c3d
00000250: b828 4d3e c0cc 513e c2cb 793e ab9b 393e
00000260: 45d3 823d a53f fabc 66eb 85be 396c 8cbe
00000270: 3093 713c b147 703e 97c9 573e dd7d 393e
00000280: 76da f1bd 6628 cd3d 7549 0ebe f4b0 f5bd
00000290: 3e7c ff3d d4df 023e b522 dabd 514a 833e
000002a0: c12e f5bd f770 7fbe fb6f ea3d 3085 233e
000002b0: 33d8 a9bd 238e 683e fc31 3cbd f645 6ebe
000002c0: 6f2a 2f3e bdc6 3b3e 6274 d03d c24c 40be
000002d0: b16a 66bd ae1d 4dbd c2d6 5abc 59db 4c3c
000002e0: e6a2 6fbe ca5b 81bd 1a85 18be b6c6 c23d
000002f0: d1ed 173e 23ab 023e fb92 75be c160 e33c
00000300: b1d0 65be 9fd6 66be 130a 613e 84ba 573d
00000310: 5dce 6e3e e4af 643d 4663 4fbe 4a5a 7ebd
00000320: 1b74 493e 521b 033d d118 3fbe 1dae 0c3e
00000330: 6b5c 313e e4b2 983e 05a8 54be 622f 3fbd
00000340: 290b 45bd 29f3 b4bd 0e4a 04be 534c 333e
00000350: f5b2 113e 5827 4abd 195a 693e 9397 4d3e
00000360: 35bc 53be c062 72bd d421 013e 5fa3 cb3d
00000370: cd0e 7abe 9b58 5fbe f03c 603b a5d8 2dbe
00000380: ccbd 843d fab9 8f3d 7bf7 293e 2efc cfbc
00000390: 7aa2 fd3d 7003 bebd df0d 063e 54c7 56bd
000003a0: 36a2 1fbe eaf3 29be 39d1 d73d b085 ea3d
000003b0: fe5b 3ebe 3a65 ce3d fe9e 38be 65dc e13d
000003c0: aef7 003e 4a50 7f3e b351 96bd 37c6 253e
000003d0: 0e0a 4ebe b2f9 ed3c 1ab0 8d3d f18c 6f3e
000003e0: 79c3 3a3e ac7d 613d 9fd3 11be 2d7f 27be
000003f0: 21bf 9bbe 0fd0 323e bc81 a2be 38e1 4abe
0.057073276 0.09807082 -0.07082012 0.24719517 0.33329603 -0.16303371 -0.14947113 0.123736836
0.12174675 0.13804005 -0.15642072 -0.023358779 -0.046057716 0.018616304 0.009108096 0.09894897
0.16483642 -0.0014541 0.09593196 0.072713174 -0.05777864 0.22093037 -0.0072361412 0.28168175
0.02049093 0.2158015 -0.2283541 -0.035548095 -0.10600785 0.042268496 -0.022329375 -0.10281277
-0.06112577 0.16411056 -0.2053134 0.013058633 -0.14601326 -0.118659735 -0.023509888 0.01597332
-0.1435702 -0.2715238 0.0885838 0.09835382 0.24430381 0.17665012 -0.25890732 -0.18543313
-0.01957041 0.08970626 0.020147845 0.2052625 -0.13963372 0.08078803 0.021279948 0.097020425
-0.054050032 0.064963825 -0.21888644 -0.25250816 0.16664645 -0.12112219 0.13827783 -0.28634927
-0.18954778 -0.0265815 0.22401805 -0.14669928 0.1565818 -0.03886023 0.08383675 0.19019665
-0.04347636 -0.07157901 0.07027314 0.029156215 0.012903381 0.032797106 -0.13534252 0.07350649
-0.111925386 -0.25008458 -0.19745506 0.18312737 -0.2089375 0.21391891 -0.038932785 0.13796727
0.11255436 0.19628452 -0.25082058 0.11294379 -0.2529029 0.25013393 0.31548738 -0.03386501
-0.19825959 0.21006222 -0.015498194 -0.01932232 0.019677872 -0.09508391 0.22957031 0.08043949
-0.086186126 0.20746632 0.16908328 0.19213955 0.07961256 0.21889043 -0.17462829 -0.034927953
0.17437084 0.035408955 -0.08828648 0.09529781 0.02241877 0.040461365 -0.30076832 0.1310598
0.073872104 0.1954299 0.0614738 -0.11291411 0.123424545 0.16494109 0.22741337 0.16942935
-0.16804044 -0.025547836 -0.073435836 -0.3648026 -0.31329796 -0.18646067 -0.22839834 -0.22670497
-0.1966485 -0.0041657854 0.08287935 -0.19791698 -0.12531433 0.027217671 0.026455268 0.13340761
0.071175806 0.010459832 -0.26503032 0.050032936 0.20035064 0.20488262 0.24394134 0.18125789
0.06387953 -0.030547926 -0.26156157 -0.27426317 0.014744565 0.23464848 0.21072994 0.1811442
-0.11809246 0.10017471 -0.13895209 -0.11996642 0.12474869 0.12780696 -0.10651151 0.25642636
-0.11971808 -0.24945436 0.1144714 0.15968776 -0.0829319 0.22710471 -0.045946106 -0.23268875
0.17106031 0.18337531 0.10178448 -0.18779281 -0.056254093 -0.050077133 -0.013356866 0.012503468
-0.23401985 -0.063163355 -0.14894524 0.09510557 0.14836814 0.12760596 -0.2398185 0.027756097
-0.2244289 -0.22542809 0.219765 0.05266811 0.23320909 0.055831805 -0.20252714 -0.062097825
0.19673197 0.032008477 -0.1866181 0.13738294 0.17320411 0.29823983 -0.2076722 -0.046676047
-0.048106346 -0.088354416 -0.12918875 0.17509584 0.14228423 -0.049353927 0.22788276 0.20077352
-0.20677264 -0.059176207 0.1261056 0.0994327 -0.24419709 -0.21811144 0.003421601 -0.16977175
0.064815134 0.07017894 0.16598313 -0.025388803 0.123845056 -0.092779994 0.13091229 -0.052436188
-0.15589222 -0.16596952 0.10537953 0.1145128 -0.1858978 0.10077901 -0.180294 0.11028365
0.12594482 0.24932972 -0.07339802 0.16188894 -0.20121023 0.029049728 0.06918354 0.23393609
0.1823863 0.05505149 -0.14240883 -0.16357107 -0.30419257 0.1746218 -0.31739604 -0.19812477

net.0.bias f4 [256]
00000000: bbdb a1bd b7a5 b73d 7d52 543d 35cc e73d
00000010: def3 063e c1c9 353e b9e0 64be 5a5f bb3d
00000020: 4735 a13c e5ae 4c3e 38f4 353e 25e2 2f3e
00000030: 94d3 2fbd e0f0 433e 4d95 8bbd b152 973d
00000040: 50b7 a2bc d0f5 65be c7b9 c2bd 18ef 44be
00000050: a2c1 ecbd cd90 de3c 9443 0e3e 5eb9 aebd
00000060: 5a04 2ebd 9027 4b3d e24e 32bd 9479 40bd
00000070: 2d0c bdbc 4a44 5d3e 6192 04be deeb 733d
00000080: 5f48 ef3d 2946 33bd 13a2 7dbe 87c8 adbc
00000090: 2bfe abbc 36cc edbd e76c 31be 3093 7b3d
000000a0: 67d8 01bd 7f40 debd 427b 6e3e d6a4 93bd
000000b0: 7d56 bebc b802 4cbd 08e4 35be 702e 843d
000000c0: a386 213e f041 023e ef2e e3bc f734 673d
000000d0: 4bc6 233e d4d2 caba e6d7 b93d 756c 88bc
000000e0: 7f2b 83bb 9ab6 5d3e e295 053d f536 2bbe
000000f0: 8912 36be 5591 363e f829 dd3d d86e 27be
00000100: 7cb3 4fbe 430d ea3b e4a8 4bbe c1f3 083d
00000110: 933b 373c 99e8 253d 6575 7f3e 1293 d33d
00000120: 6a24 6f3e 34d3 37be e004 e53d def9 d93d
00000130: 9c2c 1cbc 9682 483c e260 fbbd 14c4 a73c
00000140: b76a 963e 99ca e9bc 211a d63d e5aa 163e
00000150: 69f5 8bbd c322 8c3d 07b2 42be 1f44 81bd
00000160: 2566 793d 51dd e7bd db91 f93d 9e2b 3f3e
00000170: b176 50be e278 24be b5ce 53be b8df 793e
00000180: 5cc2 3d3e 7afd 42bd 57b2 9e3c 8fe8 f93d
00000190: db0a 943d fce2 08be 57c3 a4bd 7030 19be
000001a0: 2f09 95bd d3dd bebd 76e4 c2ba 20e9 09be
000001b0: f910 08bd 05c7 c4bd 7087 c23d 33c3 9fbd
000001c0: 7d2a 92be ac95 58be a503 adbd 76aa d0bc
000001d0: 131f f53d bc31 a63e 9c7d 1fbe 7821 fa3d
000001e0: 7038 da3d cbf0 e3bc 0521 ff3c df11 b03d
000001f0: 83f8 7abe 7e0d c03d f0cd e7bc eac8 01bb
00000200: ae54 7e3e 1092 1d3d dd72 82be 9c3b 7d3e
00000210: b03c 11be 9a8e 063e fd85 38be eb6c 62be
00000220: e7cb 383e 5671 4d3e c11a 253c d3c2 7bbe
00000230: 2182 3d3e a913 053d 9986 6ebc 6159 af3d
00000240: b33e 3d3c 542e 7a3e 3096 053e f815 853e
00000250: ed84 683d 47e7 15be 1ba4 49be 7c86 09be
00000260: aa08 c03d a207 d43d 7a96 3f3e 9f72 5c3e
00000270: 1ab2 39be 0088 1ebd 42c1 693c 39ca cf3d
00000280: 590e 253e 681f 683d 9cb9 903b 3854 bbbd
00000290: 3b4c e7bc 9af0 943d 1b8a 8a3e 2f24 343d
000002a0: 26df e3bd f62a 093e 48ee 7b3d 8e42 f13d
000002b0: eab5 4e3e a650 c83b cddc 973e bb92 04bc
000002c0: 9a17 2c3e d3de 37bd 7ce4 07bc c747 8dbc
000002d0: b63f 4abe 0e0d 96bd ea27 2cbd 3849 64bd
000002e0: 7c6d f1bd 9b2f 10be 8523 0d3e fc95 dc3c
000002f0: 47b9 1b3e ae4e 72be 7eb2 353e 8528 2d3e
00000300: f0b4 023e 9fee c9bc f8eb 173e a558 543d
00000310: 37a0 543d a6d5 b33d 411f b4bc d02d 17be
00000320: 38cb a3bd 38fe c6bd ec84 0abd 94e2 29be
00000330: 802a 10be 5dc4 773d d088 a3bd e782 5cbd
00000340: 4073 903e b12a c23d c736 68bb 2f9b 12be
00000350: 0dfa 23be 6fe3 53bd 31a9 223e bfa0 05be
00000360: 66b2 2a3e 7c7d 2fbe 0100 91bc 681c 383d
00000370: 2d7d d23d 4e92 8dbc b100 44be 82b5 fcbc
00000380: 1474 2bbe 3a33 81be 1555 b7bc bd79 fa3b
00000390: 4523 75be 9c88 cabd d19e b6bc a569 cbbc
000003a0: 30ae 5cbd 7fb4 423e 30aa 1e3d 5b3e 2c3e
000003b0: 5a50 d13d 8075 a3bb 881c a1bd 34f5 993a
000003c0: 72f5 7dbd c7a1 44bd 971b fb3d 8095 c6bd
000003d0: 35fc c73d 903f 163c 1c90 973d 0bc1 de3d
000003e0: 0d87 373e b657 45be c65e 463e 9192 14bc
000003f0: 7b95 51be db9e 913d 2a1f 803e f7d6 f8bc
-0.079032384 0.089671545 0.05183648 0.11318246 0.13178965 0.17752744 -0.2235135 0.09149046
0.019678725 0.19988592 0.17768943 0.17176111 -0.042926386 0.19134855 -0.06815586 0.07388819
-0.0198628 -0.22457051 -0.095080905 -0.19231832 -0.1156037 0.027168656 0.13892967 -0.0853145
-0.04248462 0.049598277 -0.04353226 -0.046990946 -0.023077095 0.21608081 -0.12946464 0.059551112
0.116837256 -0.04376808 -0.24768858 -0.021213783 -0.02099522 -0.11611216 -0.17326699 0.061419666
-0.031700518 -0.108521454 0.23289207 -0.07209174 -0.0232346 -0.04980728 -0.17762768 0.0645417
0.15774016 0.12720466 -0.02773234 0.056446996 0.15993612 -0.0015474209 0.090743825 -0.016653279
-0.004002988 0.21651688 0.032613643 -0.16720183 -0.17780508 0.17828877 0.107990205 -0.16350877
-0.20283312 0.007142694 -0.19888645 0.033435587 0.011183637 0.040505026 0.24947126 0.10330786
0.23353735 -0.17951661 0.111825705 0.106433615 -0.00953212 0.012238165 -0.12274338 0.02047924
0.29378292 -0.028538989 0.104542024 0.14713629 -0.06833918 0.06842568 -0.19013225 -0.06311821
0.06088843 -0.1132151 0.12186023 0.18668982 -0.20357777 -0.16061738 -0.20684321 0.24401748
0.18531173 -0.047605015 0.019372148 0.1220256 0.07228633 -0.13367838 -0.080450706 -0.14959884
-0.07277142 -0.09319653 -0.0014869112 -0.13467836 -0.03321931 -0.096082725 0.09498489 -0.07800903
-0.2854804 -0.21150845 -0.08447961 -0.025471907 0.119688176 0.3245982 -0.1557526 0.12213415
0.10655296 -0.02782478 0.031143675 0.08597159 -0.24508862 0.093775734 -0.02829644 -0.0019803592
0.2483699 0.038469374 -0.2547826 0.2472977 -0.14183307 0.13140336 -0.18019862 -0.22111861
0.18046533 0.20062765 0.010077179 -0.24586038 0.18506671 0.032489453 -0.014558458 0.085619695
0.011550593 0.24431735 0.13045573 0.25993323 0.056767393 -0.14639007 -0.19691508 -0.13430208
0.093766525 0.10353018 0.18709746 0.215281 -0.18134347 -0.03870392 0.014267268 0.10145993
0.16118754 0.056670576 0.0044166576 -0.09146923 -0.028234592 0.072724536 0.2705849 0.04397982
-0.111265466 0.13395295 0.06150654 0.117802724 0.20186582 0.0061131297 0.29660645 -0.008091624
0.16805878 -0.044890236 -0.008294221 -0.01724614 -0.19750866 -0.07326709 -0.042030253 -0.05573389
-0.117884606 -0.1408066 0.13783081 0.026926987 0.15207396 -0.23662826 0.1774387 0.16909988
0.12764335 -0.024649916 0.14836109 0.05184235 0.051910605 0.087809846 -0.02198756 -0.1476357
-0.07997745 -0.09716457 -0.03381817 -0.16590339 -0.14078712 0.06049 -0.07985079 -0.053835776
0.2821293 0.09480799 -0.003543304 -0.1431701 -0.16013356 -0.05173057 0.15884854 -0.13049601
0.16669616 -0.17137712 -0.017700197 0.044948965 0.10277782 -0.017281678 -0.19140889 -0.030848268
-0.16743499 -0.25234395 -0.022379437 0.007643907 -0.23939236 -0.098893374 -0.022292526 -0.024830649
-0.053877056 0.19014166 0.038736522 0.16820662 0.10220404 -0.0049883723 -0.0786677 0.001174605
-0.062001653 -0.048005845 0.12261122 -0.096964836 0.097649015 0.009170428 0.074005336 0.10876664
0.17922612 -0.1927174 0.1937209 -0.009068147 -0.20467179 0.071103774 0.25023776 -0.03037594

net.2.weight f4 [256, 256]
00000000: 5cde 203d 70ea 3e3d c0a7 2cbb caeb 5cbc
00000010: 3e3c 4e3d 2f3e 663d 63cd 1b3c 070e 04bd
00000020: 2faf 0cbd be30 0cbd e144 00bd 39f0 21bc
00000030: 346f 9fbc be8c 883a d213 33bd 1375 423d
00000040: 8c1c 5abd 3a2a 28bd cfbc eebc cba5 29bd
00000050: 1374 e83c 41a2 a638 4db4 85bd 39e9 f13c
00000060: bf64 4abd feee 543d 0a99 34bd 9649 203c
00000070: 94a9 ca3c a4ab c3bc 39bf 33bc 1817 713c
00000080: ef90 51bc 7a4f fc3c 0831 123d 1812 c53c
00000090: da20 fdbc 40c7 e6bb aa81 6ebc 9cfe 6d3b
000000a0: d4d7 12bd 591a 143d acd7 c9bc 0288 6abc
000000b0: 74bd 13bc cb7a 253d c992 36bd 069c 213d
000000c0: f0be 473c bf69 41bb ba4a 223d 04f3 0f3d
000000d0: 0dd8 513d b1e2 a83b 490c 42bd 490f d83c
000000e0: 4a66 eb3c 3731 2bbd cbba 263d e69c f43c
000000f0: 5f9f 173d 4887 0ebd 60e9 ecbc 49ba 5b3c
00000100: 3975 163d 07b4 11bd 7aba 68bc 2a89 4ebd
00000110: b098 28bc d1f0 79bc e074 cb3c c47d 6fbc
00000120: 706c e3bb dfe9 aabc bd8d ba3b 6cff 36bd
00000130: 6fe7 8a3c f6d9 2f3d 7470 b1bc 78c6 ea3c
00000140: 993d 8fbc ef8c 68bd bf28 543d 0075 4fbc
00000150: dca2 cebc c104 203d e62e 1ebd 0fc7 5f3c
00000160: 52f5 593c b89f 453d f210 783d a6ce 563d
00000170: 1223 74bd c1fd 363c 63cf 433d 4861 55bd
00000180: 8270 6cbd 0066 06bd e911 64bd 52d6 58bd
00000190: 7dda 493d e5d8 333c cec3 0fbd 659b 00bd
000001a0: 93a4 473c 67b4 543c 9135 463c 5d96 ea3c
000001b0: ae75 27bd 5d71 fbbc d9ac fe3c 0248 5abd
000001c0: 1966 5fbd 32fd 0a3d 7f77 163d ff11 c1bb
000001d0: bd8a ea3c b0cf a3bc 6caf 8cbc a515 89bd
000001e0: b640 3e3d 1aae 0bbd 95a1 54bd 5f68 0d3d
000001f0: 14bd 4cbc 08be 003c c004 1e3c d31e 543c
00000200: 4035 24bd 6fb9 693d e6d3 bbbc 7ddb 133d
00000210: 394d 04bd 3a98 26bd c4c3 0dbd 6cde 073d
00000220: 51c5 c0bc b9a6 96bc ac1d 79bd a844 99bc
00000230: ebeb edbc 80e6 8b3c 4769 30bc 0f9f fabb
00000240: 04cd e43b eceb 2fbd 2647 02bd 06b3 19bd
00000250: bc74 82bd 462b e93c c226 c1bc 4235 1a3d
00000260: b036 78bd 5aeb 66bd a112 fbbc ea59 233d
00000270: f4ab 65bd 08cc 61bd b3db 8b3c 12ea 64bd
00000280: c929 2e3c bea5 683d 1cba 2a3d 795a 513c
00000290: cbf3 b93c 79d6 303d 6be2 fd3c 82be 1f3c
000002a0: 4b08 d0bc 90cd 34bd 8305 fc3c d3d0 75bd
000002b0: 3e91 1bbc 232e d6bc 4c69 413c 64c7 773d
000002c0: 6361 393b 1a65 a43c 6bc4 15bd 5642 2ebd
000002d0: 9222 1cbc d612 a93b 14c6 98bd a0cb febc
000002e0: 34c8 5b3a c3d9 4a3d 2f23 b8bc f392 503a
000002f0: 5fcd 2abc add2 06bc fd66 423b 3a9a 32bd
00000300: d89e 46bd 7bb1 1439 367c 123d d0f2 1ebd
00000310: 0c10 183d bcf8 d0bc 4ac2 d33c cd8f 34bc
00000320: 1d60 1dbd cba6 02bd 055a 60bd 3fa0 413d
00000330: a593 223d ab3e 063a a658 c43c 9b63 6abd
00000340: 58c0 403d 2f1c 80bb 600f 003b e424 053d
00000350: b541 53bd f022 4fbd e623 1ebd 9f78 2fbd
00000360: 773a 99bc 2618 05bd a7ee 21bd 334f d4bc
00000370: f860 543d c07c af3c d342 bf3c 302e fd3b
00000380: a5a3 2dbd 9504 72bc 662f 0e3d 822f 723c
00000390: 5fbe 8c3c 79b9 6b3d 82fc 13bd 9218 72bd
000003a0: b42e dd3c 3ce2 80bc 18e4 dc3c 2009 44bb
000003b0: 745d 7cbd 626f 3c3d d477 913c 608c d8bc
000003c0: 4394 69bd 3129 a4bb d2b9 68bd 3cc9 8d3c
000003d0: 6745 0cbd 1fa7 b5bc 9d44 0b3d 2e27 33bd
000003e0: 0470 4ebd dabd 63bc cc32 9d3c 9420 553d
000003f0: ea90 36bd 360e 3a3d 0d41 58bd 9a51 3dbd
0.03927456 0.046610296 -0.0026345104 -0.013483951 0.05035042 0.056211647 0.009509417 -0.03223994
-0.034346756 -0.03422617 -0.031315688 -0.009883934 -0.019462205 0.0010417921 -0.043720074 0.047474932
-0.05324988 -0.041055895 -0.029142765 -0.041417878 0.028375661 7.945719e-05 -0.0652853 0.029530155
-0.049412485 0.051985733 -0.044091262 0.009783169 0.024739064 -0.023885556 -0.010970884 0.014714979
-0.0127909025 0.030799616 0.03569129 0.02405648 -0.030899454 -0.0070427954 -0.0145572815 0.003631509
-0.03585036 0.03615794 -0.024638973 -0.014314653 -0.009017337 0.040400308 -0.04457358 0.039455436
0.012191519 -0.0029512492 0.039622046 0.035143867 0.051231433 0.005153977 -0.047374997 0.026374476
0.028735299 -0.04179498 0.040705483 0.029859971 0.037017222 -0.034796983 -0.028919876 0.013411113
0.036732886 -0.035572078 -0.014204616 -0.05042378 -0.01029031 -0.015255169 0.024836004 -0.014617387
-0.006940417 -0.020863472 0.005693166 -0.044677183 0.01695606 0.042932473 -0.021660067 0.02865909
-0.017485427 -0.05677503 0.05179667 -0.012662172 -0.025224142 0.039067034 -0.038618945 0.013658299
0.013303118 0.048248023 0.060563035 0.05244317 -0.05960376 0.011168898 0.0478052 -0.052094728
-0.057724483 -0.03281212 -0.055681143 -0.052938767 0.049280632 0.010977005 -0.035098843 -0.031398196
0.012185234 0.012982464 0.012097732 0.028636152 -0.040883712 -0.030693704 0.03108828 -0.05329133
-0.054540727 0.033932872 0.036735054 -0.005892038 0.028630609 -0.019996494 -0.017173491 -0.066935815
0.046448432 -0.034101583 -0.05191191 0.034523364 -0.012496252 0.007857807 0.009644687 0.012946802
-0.040089846 0.05706161 -0.02292819 0.036097992 -0.032300208 -0.04067252 -0.034610525 0.033171102
-0.023531588 -0.018390046 -0.060819313 -0.018709496 -0.029043159 0.017077684 -0.010767288 -0.007648356
0.0069824476 -0.042949602 -0.031806134 -0.037524246 -0.063699216 0.028463017 -0.023578051 0.037648447
-0.06059903 -0.056376792 -0.030648531 0.03988067 -0.05607219 -0.05512622 0.017072534 -0.05588729
0.01063008 0.05679869 0.041681394 0.012777918 0.022699257 0.043173287 0.030991754 0.00975001
-0.02539458 -0.044141352 0.030764347 -0.060013603 -0.009495078 -0.026145047 0.01180489 0.060492888
0.0028286807 0.02006774 -0.036564272 -0.04254373 -0.009529727 0.005159716 -0.074596554 -0.031102955
0.00083840196 0.04952408 -0.022477714 0.00079564675 -0.010424941 -0.00822894 0.0029663437 -0.043604113
-0.04849133 0.00014180497 0.035762988 -0.038805783 0.03712468 -0.02550923 0.02584948 -0.011020613
-0.03842174 -0.031897347 -0.05477335 0.047271963 0.039691586 0.00051210326 0.023968052 -0.057223897
0.047058433 -0.0039096097 0.0019540414 0.032505885 -0.051576335 -0.05057043 -0.038608454 -0.042839643
-0.018704636 -0.032493733 -0.039534237 -0.025916671 0.05185029 0.02142179 0.023347294 0.0077264532
-0.04239239 -0.0147716 0.03471317 0.014781835 0.01718062 0.057549927 -0.036129482 -0.059105463
0.026999809 -0.015732877 0.026964232 -0.0029912665 -0.06161256 0.04600466 0.017757334 -0.026434124
-0.05702616 -0.005009793 -0.056817837 0.01730787 -0.034245875 -0.022174416 0.03400098 -0.043738537
-0.050399795 -0.013900245 0.01918926 0.052033022 -0.044571795 0.04542371 -0.052796412 -0.0462204

net.2.bias f4 [256]
00000000: 8040 1c3d bfac bf3d 74aa 363d 41c3 113d
00000010: 5c10 6fbc 2c9f 103d 5c67 f03c f4bc 20bd
00000020: 743f 8fbc 7c4f 7cbd 810c 6c3d 2925 173d
00000030: faa2 1abd 4dc3 9cbb aaf0 513b d798 9dbd
00000040: 96e0 88bd 9daa 6abc dd5c 03bd 258b eb3c
00000050: b9fe 573d 1856 913d 76c6 2fbd 8368 933d
00000060: bc6c 84bd 9f63 2ebc 571a 9b3d affb ae3d
00000070: 1301 aa3c d0a4 54bc ddf5 3b3a e9b0 4d3d
00000080: facc 8b3c 88d8 7cbd ee7a f23d ac4e d3bc
00000090: 79b4 10bc c516 de3c 93d2 35bb 4602 fdbc
000000a0: b3a8 63bd 76dc 1dbd 3bf3 c6bc f7da 57bd
000000b0: ae05 a73c 65ce 6f3d b4fc 87bd d866 57bc
000000c0: 3fea e83c 639a 153d 8078 03bc cd3a c4bc
000000d0: 605a 3c3d 6d0a 41bd 9c2e bebd f43a 653d
000000e0: d20d 6abd 6fb9 983d 40be 92bd 795b 8ebd
000000f0: f793 ccbb de18 003c 74d2 963d dad7 3d3d
00000100: 2d87 3d3d 1203 c6ba ead3 dcbc da61 34bd
00000110: 9c1d b53c 88ea 8b3d 20cf 343b 8311 b2bd
00000120: 68d3 b83c 89f5 5f3c 046d a63d dbc1 b73c
00000130: fe3f 6d3a 27fd 5c3d b572 b43d cf7a 2d3d
00000140: 811c 103d 7f5a 74bd de93 94bd 231a 593d
00000150: f17d 253c edc7 943d 995c e13c 5066 cdbc
00000160: cfdc 1d3d 4f2d 8fbd 33d8 13bd fe7b 243d
00000170: 8a8c afbd b173 d63d 057c 0e3c 9f3b a53d
00000180: aa36 78bc 04bd 95bd 7976 6dbd 5f0a 40bc
00000190: 6350 88bc 4135 383d 7e1c 4c3d 5a83 0e3d
000001a0: 84f5 0d3c 8169 bf3c 609a 1b3c 6e9b 13bd
000001b0: 4685 9f3d 77d8 713d 9338 313d 0757 05bd
000001c0: d271 3bbc 500b 00bd 0def 52bc 8ffa 44bd
000001d0: 35de 89bd f27e e23c 3eda 953c e75c 903c
000001e0: 05d1 e33c 15a6 663d 8cc8 143e 2bca 8b3d
000001f0: 3235 4b3d c9ec 7c3d 9428 aabc cd0f 363b
00000200: bdbc babb 28e8 953d 76ce b5bd a53f 8a3c
00000210: f7ed 9bbd f15b f9bb 89a0 4ebd 78c8 d6ba
00000220: 6cd9 163d 2243 1dbd 0bcf b4bc 9735 6abd
00000230: 9373 ab3c 084a 803d 3efd 3a3d debb f53c
00000240: 3a63 c5bc 35ae 0f3d 271f c53c b517 453d
00000250: cdb6 913b 3715 bf3c a19f 543c 3cbb 0e3d
00000260: 87e2 d93c 9fbb 15bd 8fca 74bd 3c82 ff3c
00000270: b6a3 083d ad96 8d3d 9f6f 763b 24a9 5dbc
00000280: 9ff3 533d 68a3 993c 8041 31bd 4170 e2bc
00000290: 7d6c 4e3c 39f4 abba 3fc8 15bc a8ef 073d
000002a0: 875f a53d 1a23 633d 882a 04bd b705 f6bc
000002b0: bb6a d93c db26 7dbb 38ac 30bc 5419 433d
000002c0: dacd 02bc 9ae9 0d3d 40ff 83bd 7d49 fa3c
000002d0: a7c9 393c 7d7f f23a 1fe4 143d fc5f 71bc
000002e0: 1a15 3bbd d907 73bd 92fc 52bc 9ed0 36bd
000002f0: 7847 7f3b 1609 1abd c819 adbc ed49 7c3a
00000300: 33ff 1abd 8406 e23c ea0b 1fbd 1018 87bc
00000310: 55e6 88bd 0a79 283d 41a0 98bc 5fd9 af3c
00000320: ac11 273d 2705 b5bc 1dc6 713b 5264 e0ba
00000330: 28b6 5a3d 644c 8dbb 50dc ed3c 723c 1d3d
00000340: e86b ad3b 2534 ac3c 87ce 9c3d 3928 783d
00000350: 6db4 fc3c 50ec 393c 4f1f 343d ec49 803b
00000360: 0664 0abc 1500 4dbd 5f15 0cbd 9fce 37bd
00000370: 24f8 8ebc 259c 1f3d 4990 cebc bf0d d63c
00000380: 66ad 2c3d b44c 063d 388a 96bd f0d7 fc3c
00000390: 6a0b 053e baa3 7cbd e436 21bc fbe8 2d3d
000003a0: bfd0 30bc 942e 5dbd f4aa afbd 80ce e1bc
000003b0: 9bb4 f23c f30f f63a d65d 00bc a5e9 a6bd
000003c0: c72e 08bc 63aa 183d f73c 2dbd 8fc4 68bd
000003d0: 3d42 96bc 416c 803b 5d22 3f3d d884 0d3d
000003e0: 6dfd 0dbd c291 483d afd6 d03b a2ec dd3c
000003f0: 17c0 c33c 2ee5 4f3d e97e 7bbd 0647 57bd
0.03814745 0.093591206 0.04459615 0.0355866 -0.014591303 0.035308048 0.02934616 -0.0392427
-0.017486311 -0.06159924 0.057629112 0.036900673 -0.037753083 -0.004784024 0.0032034316 -0.076951675
-0.06683461 -0.014322904 -0.032070983 0.028752873 0.052733157 0.07096499 -0.042913876 0.071976684
-0.06466052 -0.010643869 0.07573383 0.085440986 0.020752465 -0.0129787475 0.00071701204 0.050217543
0.017065514 -0.061729938 0.11839853 -0.02579435 -0.0088320905 0.027110467 -0.002774392 -0.030884873
-0.055580806 -0.038540326 -0.024285903 -0.052699056 0.02038845 0.058546443 -0.06639996 -0.013147078
0.02843201 0.036524188 -0.008024335 -0.02395382 0.045984626 -0.047129083 -0.09286234 0.055964425
-0.057142086 0.07457244 -0.071651936 -0.06951041 -0.0062432247 0.007818429 0.073643595 0.04634843
0.04627149 -0.0015107116 -0.026956517 -0.04403863 0.022108845 0.06831843 0.0027589276 -0.08694746
0.022561744 0.01366938 0.08126262 0.022431305 0.0009050368 0.053952362 0.08810941 0.042353448
0.035183433 -0.059656616 -0.07254766 0.05300344 0.010100828 0.07264695 0.027509974 -0.0250732
0.038540658 -0.06991064 -0.036094856 0.04015731 -0.085717276 0.10471285 0.008696561 0.080680124
-0.015149752 -0.073114425 -0.057974312 -0.011721223 -0.016639894 0.044972662 0.04983186 0.034793235
0.0086644925 0.023365738 0.009497255 -0.0360369 0.07789092 0.059044328 0.043266844 -0.0325537
-0.011440711 -0.03126079 -0.012874377 -0.048090514 -0.06731836 0.027648423 0.018292543 0.017622424
0.02780963 0.056310732 0.14529628 0.0682567 0.049611278 0.061749253 -0.020771302 0.0027780414
-0.005698769 0.07319671 -0.0887727 0.016876051 -0.076137476 -0.007609837 -0.050446067 -0.0016386649
0.036828443 -0.0383941 -0.022071382 -0.057180014 0.020929134 0.0626412 0.045651667 0.029996809
-0.024095166 0.035078246 0.024062706 0.048118312 0.0044468404 0.023325546 0.012977512 0.03484653
0.026597274 -0.036555883 -0.059763487 0.03119003 0.033359252 0.06913505 0.0037603152 -0.013529096
0.051746007 0.018754676 -0.043275356 -0.027641417 0.012599108 -0.0013119049 -0.009141981 0.03318754
0.08074861 0.055453397 -0.032267123 -0.030032022 0.02654015 -0.0038627896 -0.010783248 0.047631577
-0.007983649 0.034646608 -0.064451694 0.03055262 0.011339582 0.0018501129 0.036350366 -0.014732357
-0.04567442 -0.059333656 -0.0128776 -0.044632547 0.003895251 -0.03760632 -0.021130458 0.0009624053
-0.037841033 0.027590998 -0.03882972 -0.016490966 -0.06684557 0.041131057 -0.018631103 0.021465955
0.040788338 -0.022097183 0.0036891766 -0.0017119742 0.053396374 -0.004312085 0.029035717 0.038387723
0.0052924044 0.021020958 0.076565795 0.060585234 0.030847752 0.011347845 0.04397517 0.003915062
-0.008446699 -0.050048906 -0.03420007 -0.044874784 -0.017452307 0.03896727 -0.025215285 0.026129602
0.042157553 0.032787994 -0.07350582 0.030864686 0.12992635 -0.06167958 -0.009839747 0.042458516
-0.010791956 -0.0539995 -0.085775286 -0.027564287 0.029627135 0.0018773064 -0.007834872 -0.08150033
-0.008311934 0.03727187 -0.04229447 -0.056828078 -0.018342132 0.003919155 0.04666363 0.034550518
-0.034665514 0.04896713 0.0063732485 0.027090374 0.023895307 0.050755672 -0.061400328 -0.052557968

net.4.weight f4 [3, 256]
00000000: f6e5 19bd a9c7 c43d 1676 8138 14c6 73bc
00000010: f1d5 b23c 6b43 42bb 9501 7e3d 0571 0a3c
00000020: 377f 803d 9fae 253e 9104 6d3d 3ee3 113c
00000030: c4e5 d839 2919 ac3d 1d4c 18bd 5e58 09be
00000040: 5abb 873d 6ef3 e93c 57c0 923d 7f87 d83c
00000050: b63a afbd 7738 74bd 63d2 c5bc 7cc9 993d
00000060: b91f c5bd 6670 e93c a5fa 9bbd 9ac3 debd
00000070: b83e 85bd 1ee5 233d 0e74 953d b013 c9bd
00000080: 4951 ed3d 7e86 01bc 6aa2 46bd 0807 893d
00000090: a5c7 6e3d 0e9a 00be 4f59 993c 1114 36bd
000000a0: 5aee eebd 5c05 e83d 0709 3b3c 2271 d93c
000000b0: bfef 4fbd 4335 69ba 916f e5bc 4fee e63b
000000c0: 4f63 b9bc d754 dc3d 99a7 463d 7ae5 243d
000000d0: fd06 cc3b f678 9bbc 016a 95bd 56a3 f2bc
000000e0: 4d00 98bd 5890 df3c 8d37 e3bd 911f 913c
000000f0: 9abb eebc e8a2 323e af37 8f3d 22ae 193d
00000100: cf6a 38bd 4358 f73b 1dc3 1e3d 1082 3c38
00000110: e3af a43c af6b f43b 78ff 2dbd 5fa9 45bd
00000120: 3e26 043e f58a 9abc 3158 f93b 1ed4 bcba
00000130: 07eb c3bc 5234 343d 7eaa d9bc 6b45 c63a
00000140: 3236 2dbd da19 47bd 1c32 3ebd 75da c2bc
00000150: 1f62 ab3b d39d 343c 24d5 1e3d 6e9a 05b9
00000160: 410b abbc e873 05bc 4910 bc3d 41ad 743d
00000170: 7c99 d8bc 35d8 bb3d 15c4 34bd 040a 383d
00000180: 0ef6 0d3d d8a4 5bbd be91 823d 375f 873c
00000190: 6def b53d 834c 413d 77ec 9a3c 5222 293d
000001a0: 60e6 e2bd dbd6 513c 4134 0fbb 6e72 f73a
000001b0: f4b9 5ebd bbfd cfbd 3dfb f03c d8c0 9c3d
000001c0: 7607 23bd 3665 063c 3b4c 10bd 31dc e4bc
000001d0: e5f5 51bd ea97 87bd 32e2 0bbc 2a3b c6bd
000001e0: e5d7 32bd faa7 103e 57a8 eb3d 5ba0 8bbd
000001f0: 5e47 c3bd 6877 983d 2266 b33b 45c2 acbb
00000200: 0eea 903c 7452 283d 030d b43d fb1b b03c
00000210: 851b 59be 5a5b 133d 4de7 e4bc aafd 94bd
00000220: 6a95 bd3d 73b7 833c b618 133d 7f8b 29bd
00000230: 1f7f 0cbd 9b9d f13c bb9a 50bc dd50 bfbd
00000240: 7cbf 61bc 702f 053c 17e9 a43d e0e2 37bc
00000250: 3b3c cc3d d278 263d bcb0 40bd 44db 8b3c
00000260: 2ede 14bd 6858 8c3d 8302 143b d1f7 8ebc
00000270: b3f1 eabc a4d2 823d f695 233d 3970 983d
00000280: 99b3 83bd 9eb8 2cbd 0201 a93d f921 623d
00000290: a76e a43c 85fd 5dbd aedd 2b3d d75b 763d
000002a0: 5dea 503d 4cb2 0bbd dd21 673d f32f 59bd
000002b0: 5f42 883d f946 913d 666c 26be 76f5 d03c
000002c0: 7854 64bb bc10 3fbd dcdc 72bd 81d8 89bd
000002d0: f7cb 99bd 8b40 e73b 6ea4 5d3c af22 f3bb
000002e0: 63de 1cbd b2a9 3a3c b52a 6b3d 4d98 af3c
000002f0: f6a1 bc3c be2e 3bbd d4e5 b9bc f291 c93c
00000300: dbd9 3fbc f54f 463c ed56 3fbd 3502 823d
00000310: 7de1 55bd 7467 babd c60b 47bd a5f2 bb3c
00000320: 8349 31bd 765c 09ba 27cb b93b 8e88 5cbb
00000330: b285 733d 7971 8f3c da14 99bc 9792 95bd
00000340: e2cb 1dbd 1e0f 17bd b038 20bd c01b 953d
00000350: 6e1b ee3c 3bca 25bd b83d a93c 0d7d c93c
00000360: 3d84 fc3c cebb 73bc d134 5cbc 1175 033e
00000370: b385 98bc db89 b9bd fb0f 60bd 1579 4cbc
00000380: 86c9 9f3c 0a68 093c 4bcb 36bd 739f 86bd
00000390: e18a 533e e7c6 9f3b dce9 6e3d 3150 65bd
000003a0: dfae d73d b207 063d 45a6 89bd b1f9 e33b
000003b0: b299 d2bc cdeb d1bb 9eca a33d a97b abbd
000003c0: 98c6 d0bc 57ec bc3b de19 8fbb 1755 6a3c
000003d0: 8e92 a2bc 1d3a 36bd ddf6 173e 3f01 823d
000003e0: 91b0 333d 751c 80bc ee28 a23c 5a65 f13c
000003f0: 0b54 d43c 8731 89bd d467 8a3d 72c5 f63c
-0.037572823 0.09608395 6.1731946e-05 -0.0148787685 0.02183053 -0.0029642235 0.062013227 0.0084497975
0.06274264 0.16179894 0.057865683 0.008904276 0.0004136992 0.084032364 -0.037181962 -0.13412616
0.06627531 0.02855846 0.07165592 0.026431797 -0.0855612 -0.05962416 -0.024148172 0.07509133
-0.09625191 0.028495979 -0.07616166 -0.10877152 -0.06506103 0.040013425 0.07297526 -0.09818208
0.115877695 -0.007905601 -0.048494734 0.06690794 0.058295865 -0.12558767 0.018719343 -0.04445273
-0.11666556 0.11329147 0.0114157265 0.026543204 -0.05076575 -0.0008896181 -0.0280073 0.0070474516
-0.022630362 0.107583694 0.048499677 0.04025791 0.006226419 -0.018978577 -0.07295609 -0.0296189
-0.07421932 0.027290508 -0.1109458 0.017715247 -0.02914219 0.17444956 0.06993043 0.03751958
-0.045023736 0.0075483634 0.038760293 4.4943823e-05 0.0201034 0.007459126 -0.042479962 -0.048257228
0.12905213 -0.018865088 0.00760939 -0.0014406478 -0.02391578 0.04399521 -0.026570555 0.0015126889
-0.042288013 -0.04860864 -0.046434507 -0.023785809 0.005230203 0.011023956 0.038777485 -0.00012741398
-0.02087939 -0.00814531 0.09182794 0.05973554 -0.026440375 0.091720976 -0.04413231 0.044931427
0.034658484 -0.053624004 0.06375454 0.016524894 0.088835575 0.047192108 0.018911583 0.041292496
-0.11079097 0.012807573 -0.0021851214 0.0018878707 -0.054376557 -0.10155817 0.029416675 0.076539695
-0.039802037 0.0082028415 -0.03522895 -0.027937027 -0.051259894 -0.06620772 -0.008537816 -0.096792534
-0.043662924 0.14126578 0.11506718 -0.06817695 -0.095350966 0.0744465 0.0054748217 -0.005272182
0.017689731 0.04109426 0.08791544 0.021497717 -0.21201904 0.03597579 -0.027942324 -0.07274945
0.09257014 0.016078686 0.035912238 -0.0413928 -0.03430092 0.029494097 -0.012732203 -0.09341595
-0.013778564 0.008128986 0.08052271 -0.011223525 0.099724256 0.040642567 -0.047043547 0.017072327
-0.0363447 0.068528 0.0022584505 -0.017452152 -0.028679704 0.06387833 0.039937936 0.0744328
-0.0643074 -0.042168252 0.08252145 0.05520818 0.020072294 -0.054196853 0.041959457 0.06014618
0.051004756 -0.034105584 0.05642878 -0.053024244 0.06653284 0.07093615 -0.16252288 0.02550767
-0.0034840386 -0.04664682 -0.05929266 -0.06730748 -0.07509606 0.0070572547 0.013527973 -0.007419906
-0.038298022 0.011392998 0.057413775 0.021434927 0.023026448 -0.045698874 -0.022692598 0.024605725
-0.011709656 0.012104024 -0.04671376 0.06348077 -0.052216996 -0.09101763 -0.048595212 0.02294285
-0.043282997 -0.0005239913 0.0056699696 -0.003365073 0.059453674 0.017510163 -0.0186867 -0.073033504
-0.038524516 -0.03687965 -0.03911656 0.072806835 0.029065814 -0.040476065 0.020659313 0.024595762
0.030824775 -0.014876319 -0.013440327 0.12837626 -0.01861844 -0.09059497 -0.05470274 -0.01248004
0.019505274 0.008386621 -0.04462747 -0.06573381 0.20658447 0.004876006 0.058328494 -0.05598468
0.10531401 0.032722183 -0.067211665 0.006957256 -0.025708053 -0.0064062835 0.079976305 -0.08373196
-0.025485322 0.0057654786 -0.0043670973 0.014302514 -0.019845273 -0.044489015 0.14840265 0.06347894
0.04386956 -0.01563857 0.019794907 0.029467274 0.025918981 -0.066989 0.06758085 0.030123446

net.4.bias f4 [3]
00000000: dced 253d 9d90 ab3c 1372 91bc
0.040510044 0.02094298 -0.01775459
