src/checkpoints/sac_critic_250.pth (torch, 577890 bytes, 10 tensors)

q1.0.weight f4 [256, 21]
-0.11083312 -0.17548846 0.09377863 -0.72859406 -0.4024227 -0.2649783 0.07129712 0.009760032
0.0068633053 0.07749479 -0.1358999 -0.03217054 -0.20661815 -0.148256 -0.19102806 -0.020755261
0.11836968 -0.117579624 -0.30122983 0.008726739 0.0856736 -0.17615438 0.27288234 -0.12989745
-0.063571215 -0.056736317 -0.019354887 0.1882642 -0.14362141 -0.115258045 -0.039296113 0.09528223
0.09661127 -0.15682618 -0.19696088 0.029619247 0.11322279 -0.14364195 0.19013236 0.14339982
0.1557241 0.25102338 -0.110139705 0.031808432 -0.0046676653 -0.5289597 -0.31600654 -0.26861185
-0.056184914 -0.009074689 -0.007116641 -0.072948135 -0.01809215 -0.3112534 -0.01736106 -0.014971405
0.11796413 0.022039294 0.032399878 -0.14780357 -0.066549405 0.047721315 0.2998965 0.03256908
0.022277094 -0.37746602 -0.07323022 0.10618867 -0.47027183 -0.06487374 0.1779838 0.08441891
0.085741326 0.13931906 -0.2208128 -0.1085462 -0.1501927 -0.20816179 -0.20876406 0.07868026
0.17187177 -0.14693882 -0.042430785 -0.017881256 0.18491547 -0.1894039 0.17129852 -0.10828726
0.18583873 -0.062390756 -0.08234797 -0.25826353 0.0975798 0.03226868 -0.0951051 0.23842074
-0.15543324 -0.16798821 -0.20258668 0.06595199 -0.08904107 0.1426165 -0.33762085 -0.2704064
-0.06916407 -0.22386444 -0.0028899633 0.21428469 -0.12642324 -0.40200895 8.733752e-05 -0.12458151
0.04647442 -0.028041441 0.1345461 0.07341065 0.0047529046 -0.03966312 0.10128324 -0.1483836
-0.15027045 -0.119668126 0.10640724 -0.23095922 -0.35897785 -0.09506121 -0.1120009 -0.13114756
0.11627163 -0.15972884 0.053598307 0.23633368 -0.030019693 0.045247093 -0.095006995 -0.152027
0.053202204 -0.24095602 0.13475697 0.0833538 0.06068857 0.09809519 0.012825072 0.076914325
-0.058789317 -0.07673866 0.30388525 -0.2136177 0.21197382 0.045655515 -0.012218913 0.21002242
0.1063933 0.1492926 0.02365951 0.050525565 -0.21555744 0.005675426 -0.2490099 -0.016306594
0.102088824 0.1571867 -0.10845517 -0.09619624 0.1856051 -0.06871798 0.17925403 0.09966324
0.22711095 0.15622811 0.123836905 0.11528464 -0.22344223 -0.09831815 0.061334312 0.09660408
0.18247047 0.17737183 -0.12995163 -0.026478931 -0.075355396 0.10912259 -0.037546366 0.0020546317
-0.13558054 -0.17796656 -0.1853404 -0.20095858 0.03163501 -0.00048912864 -0.036897276 -0.0031435934
-0.14503941 0.3572954 -0.24184902 -0.00511739 -0.09657933 0.027604086 0.09681265 -0.07138726
-0.1064475 0.14090522 -0.09722102 0.101711735 -0.027346328 -0.16328305 0.17054452 -0.28989285
-0.06624713 -0.14219819 -0.1731448 0.11925427 0.08955495 0.0655708 0.20097952 0.19502896
-0.14649892 -0.18519041 0.24091771 0.10485624 0.103661045 0.0044971015 0.038023725 0.2059917
0.0055769533 -0.02327229 0.18910287 0.08783974 -0.06927375 0.15995392 0.25053382 0.09971872
0.11293725 -0.0029906638 -0.06249934 -0.058711242 0.0815544 0.13055828 0.10717892 -0.12553094
-0.065590076 0.20892438 -0.002212158 0.037713602 0.18500786 0.09760122 -0.045195848 -0.08171527
0.10880835 -0.19029868 -0.033355072 0.16723537 0.19886285 0.17560522 -0.14687227 0.14413278
00000000: 7afc e2bd 3fb3 33be 030f c03d 2485 3abf
00000010: 590a cebe 3cab 87be 3904 923d 8be8 1f3c
00000020: 94e5 e03b 97b5 9e3d 5829 0bbe 42c5 03bd
00000030: b593 53be 6cd0 17be dc9c 43be f006 aabc
00000040: ce6b f23d 96cd f0bd cc3a 9abe 99fa 0e3c
00000050: a475 af3d d061 34be 3cb7 8b3e d603 05be
00000060: a031 82bd 5764 68bd 248e 9ebc 55c8 403e
00000070: 7e11 13be 690c ecbd f6f4 20bd 5423 c33d
00000080: 21dc c53d 0b97 20be 1db0 49be 10a4 f23c
00000090: 5ae1 e73d e016 13be 0fb2 423e 67d7 123e
000000a0: 2376 1f3e 2386 803e ed90 e1bd 8f49 023d
000000b0: 37f3 98bb e769 07bf 9ccb a1be 7e87 89be
000000c0: 2722 66bd 01ae 14bc b632 e9bb d565 95bd
000000d0: fd35 94bc 9b5c 9fbe c838 8ebc a04a 75bc
000000e0: 2e97 f13d c08b b43c bcb5 043d d259 17be
000000f0: 0e4b 88bd 6d77 433d 098c 993e 2867 053d
00000100: 747e b63c 3a43 c1be baf9 95bd 7279 d93d
00000110: 78c7 f0be 86dc 84bd 6341 363e d2e3 ac3d
00000120: 2699 af3d a8a9 0e3e c01c 62be 784d debd
00000130: 1dcc 19be 5d28 55be 3fc6 55be 1e23 a13d
00000140: 27ff 2f3e 2177 16be e7cb 2dbd b67b 92bc
00000150: 7b5a 3d3e 19f3 41be e168 2f3e b6c5 ddbd
00000160: 824c 3e3e 738d 7fbd 0da6 a8bd 1e3b 84be
00000170: ebd7 c73d 2a2c 043d 76c6 c2bd 9124 743e
00000180: e429 1fbe 1a05 2cbe e272 4fbe d611 873d
00000190: 2a5b b6bd 0f0a 123e a4dc acbe b572 8abe
000001a0: e4a5 8dbd b83c 65be 8a65 3dbb 726d 5b3e
000001b0: 1875 01be 1ed4 cdbe f928 b738 9724 ffbd
000001c0: f65b 3e3d 2ab7 e5bc 74c6 093e 5358 963d
000001d0: 41be 9b3b cc75 22bd 966d cf3d dff1 17be
000001e0: 7fe0 19be 9014 f5bd 0aec d93d 9380 6cbe
000001f0: f2cb b7be 74af c2bd ba60 e5bd 8c4b 06be
00000200: d21f ee3d f58f 23be e689 5b3d 7501 723e
00000210: dceb f5bc 0455 393d 0793 c2bd f7ac 1bbe
00000220: 8eea 593d 2dbd 76be bbfd 093e 66b5 aa3d
00000230: 9494 783d 22e6 c83d 4020 523c 4285 9d3d
00000240: 11cd 70bd 2929 9dbd d996 9b3e 99be 5abe
00000250: aa0f 593e 4701 3b3d d631 48bc 1e10 573e
00000260: bbe4 d93d 29e0 183e 97d1 c13c e5f3 4e3d
00000270: 17bb 5cbe edf8 b93b 74fc 7ebe 6895 85bc
00000280: f213 d13d 8df5 203e bf1d debd 8902 c5bd
00000290: 430f 3e3e 03bc 8cbd 5e8e 373e 3e1c cc3d
000002a0: c68f 683e 43fa 1f3e 349e fd3d 5a1a ec3d
000002b0: 0ace 64be 075b c9bd b039 7b3d 5cd8 c53d
000002c0: 8ad9 3a3e f6a0 353e 0a12 05be 58ea d8bc
000002d0: ee53 9abd aa7b df3d 38ca 19bd 00a7 063b
000002e0: a0d5 0abe de3c 36be e0c9 3dbe 16c8 4dbe
000002f0: b693 013d de38 00ba 9921 17bd bf04 4ebb
00000300: 3685 14be 6cef b63e 45a7 77be c7af a7bb
00000310: 62cb c5bd f721 e23c b645 c63d 7c33 92bd
00000320: 2601 dabd 7549 103e d01b c7bd 3e4e d03d
00000330: 6805 e0bc ac33 27be 39a3 2e3e d66c 94be
00000340: 93ac 87bd 679c 11be df4c 31be 953b f43d
00000350: 9668 b73d fc49 863d 93cd 4d3e acb5 473e
00000360: d003 16be 8ea2 3dbe 22b3 763e debe d63d
00000370: 3e4c d43d 6c5c 933b c4be 1b3d 7def 523e
00000380: e0be b63b 88a5 bebc 2fa4 413e 52e5 b33d
00000390: 65df 8dbd f6ca 233e f845 803e 5439 cc3d
000003a0: a54b e73d 03ff 43bb 4fff 7fbd 337b 70bd
000003b0: fe05 a73d 12b1 053e 9f80 db3d 2f8b 00be
000003c0: 1754 86bd 46f0 553e daf9 10bb 9479 1a3d
000003d0: b372 3d3e 26e3 c73d 481f 39bd 565a a7bd
000003e0: ead6 de3d a8dd 42be 549f 08bd c03f 2b3e
000003f0: b4a2 4b3e dbd1 333e af65 16be 8b97 133e

q1.0.bias f4 [256]
0.35159934 -0.04428335 0.61349326 -0.17180654 0.2979724 0.48011002 0.37343588 0.00046751832
0.59578013 0.16060841 0.42667493 0.31462553 0.26970923 0.26722446 -0.2600928 0.20765144
0.13904735 -0.09827907 0.27057502 0.27612257 0.42164135 -0.42343634 0.39544705 0.4344938
0.27944437 0.7097788 -0.0976891 0.22515352 -0.31691343 -0.46704993 0.65757465 -0.40380603
0.07195639 0.58938915 0.47925872 0.35498294 -0.28573278 -0.09194296 0.07314178 0.6068046
-0.18573526 0.7504201 -0.39330545 0.33894566 -0.5428748 0.3174595 0.48329005 0.6725785
-0.3430467 -0.3768485 0.029200068 0.4108051 0.5863809 -0.11338154 0.4889582 0.5648117
-0.41502804 0.15859962 0.09178357 0.19837119 -0.5306934 0.12652272 0.50201267 -0.42521924
-0.21936938 0.6386574 -0.121284164 -0.024306092 0.52719414 0.40243927 0.15915558 0.5459042
0.0788974 0.37522045 -0.36444107 0.18980362 -0.19137377 -0.30788907 0.15392426 -0.086257264
-0.3183959 0.67656773 0.16684128 -0.25095394 0.040799823 0.54164165 0.48433864 0.28128776
0.46822032 -0.09580787 0.59257025 0.027710225 -0.45364577 0.4918125 -0.3464525 0.08910219
-0.22950806 0.64145076 0.35492644 0.43360427 -0.4588448 -0.20087478 0.29604578 0.22547919
-0.41569087 -0.29840058 0.55934745 0.5049081 0.45144257 0.6846138 -0.4647922 -0.45748428
0.11897183 0.28828138 0.36950138 0.0028320153 0.3998776 -0.20669957 0.54919744 -0.2053721
-0.14262126 -0.21388005 0.40309933 0.8114557 -0.2901012 0.6752494 -0.21731047 -0.38850433
0.4597342 0.25214761 -0.31331924 0.1785686 0.7239317 0.5392851 -0.23113008 0.50025064
0.73722947 0.5231931 0.35012636 -0.26146594 0.54548764 0.5787578 -0.44243836 0.59931207
0.55368805 -0.36412972 -0.25942478 -0.24907811 0.4842633 -0.3380142 0.52279097 0.28930297
0.0865906 0.29866993 0.56599355 0.38200966 -0.27459636 0.20771275 0.13693798 0.58861864
0.122079946 -0.06604196 -0.16316275 0.52330583 0.21480654 -0.065662965 0.5335001 0.17180817
-0.025079811 0.66584015 0.5670461 -0.33152604 -0.29105195 0.054609034 -0.36297813 -0.2766196
-0.17988184 0.5457403 0.27142203 0.49329606 0.28539237 0.69763166 -0.35573226 0.06830361
0.16705821 0.45112896 0.49753368 0.5690712 0.28690532 0.66236883 0.036394387 0.47844863
-0.3983818 0.24554116 0.68460953 0.34882522 0.4614925 0.32866907 0.5165208 0.55015785
-0.2550025 0.477214 0.27037457 -0.45926756 0.08394608 0.69312274 0.15380946 0.48783004
0.56723875 -0.2760402 0.11610015 0.12465519 0.4411539 0.51600015 0.05436261 0.56549996
0.5640238 0.13980426 0.46853662 -0.20493934 0.10128657 0.30133158 -0.28430918 0.51274616
0.35720974 0.1431472 -0.46769646 -0.31535572 -0.6129263 0.26024687 0.2770863 -0.006825916
0.18858291 0.10407526 0.5313346 -0.15722981 0.6034881 0.76890874 -0.13830341 0.5976975
0.39636788 -0.31802493 0.42382634 0.033960972 -0.25425583 0.18706658 0.100750655 0.473615
0.29285586 0.43756115 0.4971849 0.4492891 0.527861 0.6103526 -0.17521001 -0.40569752
00000000: d404 b43e 7562 35bd e50d 1d3f 0eee 2fbe
00000010: d78f 983e fbd0 f53e fd32 bf3e 3f1d f539
00000020: 0c85 183f 8876 243e 2375 da3e 9916 a13e
00000030: 5417 8a3e a5d1 883e e22a 85be 94a2 543e
00000040: 6e62 0e3e 8946 c9bd cf88 8a3e f05f 8d3e
00000050: 60e1 d73e a6cc d8be 0978 ca3e f975 de3e
00000060: 5513 8f3e 10b4 353f 3911 c8bd a58e 663e
00000070: 7a42 a2be 2b21 efbe d056 283f aabf cebe
00000080: df5d 933d 35e2 163f 6661 f53e 53c0 b53e
00000090: 914b 92be 974c bcbd 5ccb 953d 8c57 1b3f
000000a0: 6231 3ebe 881b 403f 555f c9be 498a ad3e
000000b0: d8f9 0abf 0d8a a23e cb71 f73e 1b2e 2c3f
000000c0: d1a3 afbe 49f2 c0be fb34 ef3c 0c55 d23e
000000d0: 0f1d 163f 9534 e8bd bb58 fa3e 8097 103f
000000e0: 8e7e d4be f067 223e 06f9 bb3d d121 4b3e
000000f0: 86db 07bf 2c8f 013e e783 003f 56b6 d9be
00000100: 5ea2 60be 0d7f 233f d563 f8bd 921d c7bc
00000110: 32f6 063f 850c ce3e aef9 223e 61c0 0b3f
00000120: f694 a13d e51c c03e 0598 babe e15b 423e
00000130: 7cf7 43be a3a3 9dbe 529e 1d3e a6a7 b0bd
00000140: ca04 a3be 8b33 2d3f 71d8 2a3e 097d 80be
00000150: b71d 273d 07a9 0a3f 3cfb f73e f304 903e
00000160: 93ba ef3e eb36 c4bd afb2 173f 8e00 e33c
00000170: 4244 e8be d9ce fb3e 3962 b1be 367b b63d
00000180: 2904 6bbe 1e36 243f ebb8 b53e 6101 de3e
00000190: b5ed eabe 1eb2 4dbe 5093 973e 04e4 663e
000001a0: 6fd5 d4be f6c7 98be 6531 0f3f a841 013f
000001b0: 7b23 e73e da42 2f3f 3ef9 edbe 613b eabe
000001c0: 81a7 f33d 9e99 933e 492f bd3e 5599 393b
000001d0: c2bc cc3e 0da9 53be 3498 0c3f 104d 52be
000001e0: 4f0b 12be 5f03 5bbe 0963 ce3e 90bb 4f3f
000001f0: 2588 94be 25dd 2c3f a386 5ebe 0aea c6be
00000200: 4862 eb3e 7e19 813e 616b a0be b0da 363e
00000210: 9753 393f 970e 0a3f 5dad 6cbe 6d10 003f
00000220: 12bb 3c3f fcef 053f c343 b33e ddde 85be
00000230: 14a5 0b3f 7929 143f 4887 e2be 846c 193f
00000240: 80be 0d3f 366f babe 53d3 84be 550e 7fbe
00000250: 5cf1 f73e 3210 adbe a1d5 053f 851f 943e
00000260: 6a56 b13d 44eb 983e f4e4 103f c596 c33e
00000270: e597 8cbe a7b2 543e 7839 0c3e b6af 163f
00000280: 0d05 fa3d 0241 87bd 2314 27be 5ff7 053f
00000290: 3ff6 5b3e 4e7a 86bd 7693 083f 7bee 2f3e
000002a0: 2d74 cdbc 8074 2a3f ef29 113f c8bd a9be
000002b0: c304 95be b9ad 5f3d 45d8 b9be 16a1 8dbe
000002c0: f232 38be a3b5 0b3f d4f7 8a3e 4d91 fc3e
000002d0: f31e 923e fd97 323f 8a22 b6be c3e2 8b3d
000002e0: 4f11 2b3e 60fa e63e bcbc fe3e a6ae 113f
000002f0: 41e5 923e 0191 293f 4812 153d 38f7 f43e
00000300: b3f8 cbbe 246f 7b3e 9242 2f3f 3899 b23e
00000310: bf48 ec3e 5047 a83e b53a 043f 25d7 0c3f
00000320: b08f 82be 6555 f43e 896e 8a3e 1e25 ebbe
00000330: eceb ab3d 7e70 313f 3a80 1d3e dcc4 f93e
00000340: 8f36 113f 2455 8dbe eac5 ed3d 384b ff3d
00000350: edde e13e 9618 043f 54ab 5e3d 9bc4 103f
00000360: dd63 103f d928 0f3e 08e4 ef3e 9edb 51be
00000370: 556f cf3d 2248 9a3e f990 91be 5543 033f
00000380: 32e4 b63e 2e95 123e e975 efbe 4e76 a1be
00000390: bde8 1cbf 143f 853e 41de 8d3e efab dfbb
000003a0: e11b 413e 6925 d53d 8b05 083f da00 21be
000003b0: 327e 1a3f 34d7 443f 699f 0dbe b402 193f
000003c0: bbf0 ca3e 2ad4 a2be c4ff d83e a91a 0b3d
000003d0: d22d 82be 628e 3f3e 5c56 ce3d aa7d f23e
000003e0: 34f1 953e 0408 e03e 058f fe3e 3909 e63e
000003f0: e621 073f 1140 1c3f 416a 33be 96b7 cfbe

q1.2.weight f4 [256, 256]
0.037003383 0.015793217 0.04267838 -0.05728854 -0.020437254 -0.022156987 0.01478734 0.05385428
0.031143546 0.03144597 -0.04608735 -0.008633836 -0.053339165 0.013086618 0.008850005 0.039929386
-0.028520726 -0.037093267 0.03697436 0.006079902 0.055388693 0.0048036296 0.02122249 0.00644812
-0.058844436 -0.02716714 -0.03827425 -0.065338455 0.04233596 0.055481188 0.02052876 0.023009725
0.0041450006 0.021350611 -0.051166683 -0.052713558 -0.043448284 0.006696633 0.027040927 0.045163035
-0.007006988 -0.00049394945 -0.0584499 0.0041080536 0.037998486 0.02947938 0.005987948 0.029009195
-0.01677749 -0.03950765 -0.036943782 -0.011736641 0.04608314 -0.026026621 -0.048041094 0.022126075
0.044288103 -0.0682576 0.033848338 0.040280465 0.0031318255 0.00460619 -0.026226688 -0.02224603
0.05267164 0.0036682372 -0.05472286 -0.046297736 -0.01204941 -0.008987451 -0.04870488 -0.015258671
-0.046218093 0.008397383 -0.041133873 0.030915232 -0.0588208 0.049973328 0.03137373 0.0302613
0.026501156 -0.05132983 0.02795182 -0.006972675 -0.058645234 -0.043753732 -0.049344108 -0.04243965
0.03526978 -0.05110617 -0.033495322 0.045354053 -0.062388632 0.041827973 0.0336973 -0.0040984037
-0.044851236 -0.06042746 0.008338297 -0.0063338354 0.003035009 -0.059798118 0.018740613 -0.003972657
-0.04141856 -0.022635795 -0.02400495 0.014862593 0.036369387 -0.0284492 -0.028853543 -0.010824865
-0.012516132 0.031031124 -0.034285992 0.027852677 0.0021195235 0.041636236 0.026861053 0.028125657
-0.018839167 -0.0314103 -0.02600095 0.02045314 0.039020747 -0.017431898 0.022477426 -0.04879492
-0.008639966 0.0071762917 -0.008548665 0.050160773 -0.02658064 -0.010921799 -0.03976956 -0.020204237
-0.060702037 -0.002265042 -0.04742903 0.0142422095 -0.055007417 -0.022643164 0.008274407 0.038220674
0.023214042 0.015400622 0.041885335 -0.00524907 0.012407828 0.035586197 -0.014083687 -0.02158389
-0.015730305 -0.016002798 0.0061288397 -0.053246077 0.054728184 0.039426055 -0.030569185 -0.055624157
-0.036780357 -0.059433907 0.03707309 0.006677905 0.039045647 0.007965828 0.03716772 -0.0074290293
0.04340176 -0.05846189 -0.06323127 -0.027244002 0.025710054 -0.023425184 0.048233684 0.021968864
0.060309425 0.012882155 0.025571432 0.0047809356 0.044524692 0.018092893 -0.018133644 -0.038928382
-0.020966383 -0.014058487 0.04228975 0.030955467 0.049605917 -0.062461276 -0.038313534 -0.011408644
-0.03715957 0.046688776 -0.048376247 -0.05411091 -0.0493164 0.031155892 0.0058426135 -0.004706604
0.0153235365 -0.043734994 -0.055115346 0.04841296 0.020802049 -0.06710834 -0.015154652 0.01870095
0.037592385 -0.038443565 -0.038732797 -0.051990505 0.0015173004 -0.052353393 0.026180185 -0.0405859
0.022750039 -0.0020685703 0.027337143 -0.04065809 0.015751956 -0.0115018 -0.059029244 -0.014005722
0.03471988 -0.032120027 0.029017143 -0.0065367417 -0.003997734 -0.056413714 -0.034412038 -0.0073899687
0.032168843 0.052630704 0.05325386 0.03450642 0.026188849 -0.054863226 -0.016645767 0.03770588
0.039746378 -0.04804057 0.05036332 -0.047069967 -0.020127904 -0.034020253 -0.045215845 0.009760192
-0.040021654 -0.050961513 -0.009230871 -0.03400053 0.052183155 0.039279543 -0.05371846 0.038581394
00000000: dc90 173d c760 813c 86cf 2e3d 63a7 6abd
00000010: 076c a7bc 9282 b5bc 9946 723c 4e96 5c3d
00000020: c020 ff3c 7dcd 003d 17c6 3cbd ef74 0dbc
00000030: 2b7a 5abd 4169 563c 9dff 103c ff8c 233d
00000040: 4ca4 e9bc 1cef 17bd 6d72 173d ea39 c73b
00000050: 41df 623d c467 9d3b cada ad3c c04a d33b
00000060: dd06 71bd 9f8d debc 76c5 1cbd 2bd0 85bd
00000070: 7968 2d3d 3e40 633d ee2b a83c e47e bc3c
00000080: c9d2 873b 7ae7 ae3c 2894 51bd 2cea 57bd
00000090: d4f6 31bd 6e6f db3b ef84 dd3c e0fc 383d
000000a0: e09a e5bb 637c 01ba 2a69 6fbd da9c 863b
000000b0: 4da4 1b3d be7e f13c 8c36 c43b b1a4 ed3c
000000c0: f270 89bc c6d2 21bd 5d52 17bd 0a4b 40bc
000000d0: adc1 3c3d c835 d5bc bdc6 44bd be41 b53c
000000e0: 7167 353d a4ca 8bbd 8ea4 0a3d 21fd 243d
000000f0: 503f 4d3b 86ef 963b 5ad9 d6bc 4e3d b6bc
00000100: 38be 573d cf66 703b 1425 60bd b2a2 3dbd
00000110: e36a 45bc 1a40 13bc c57e 47bd 81ff 79bc
00000120: 2f4f 3dbd 2d95 093c fe7b 28bd f141 fd3c
00000130: 14ee 70bd d5b0 4c3d be81 003d 8ce6 f73c
00000140: f418 d93c 3a3f 52bd 37fb e43c 0a7b e4bb
00000150: fc35 70bd 1d37 33bd 0c1d 4abd 33d5 2dbd
00000160: 0b77 103d b454 51bd 6432 09bd 2cc5 393d
00000170: 398b 7fbd cf53 2b3d 2e06 0a3d e74b 86bb
00000180: eeb5 37bd c982 77bd 5a9d 083c 108c cfbb
00000190: 00e7 463b dfee 74bd ea85 993c 102d 82bb
000001a0: 82a6 29bd b46e b9bc 07a6 c4bc 3c82 733c
000001b0: 11f8 143d 4c0e e9bc 445e ecbc c65a 31bc
000001c0: 7610 4dbc fc34 fe3c 786f 0cbd 4c2b e43c
000001d0: b4e7 0a3b c28a 2a3d b60b dc3c c767 e63c
000001e0: 9954 9abc 16a8 00bd f2ff d4bc 588d a73c
000001f0: 38d4 1f3d 57cd 8ebc 9422 b83c 2fdd 47bd
00000200: a58e 0dbc 1927 eb3b b30f 0cbc 6275 4d3d
00000210: a4bf d9bc 58f1 32bc 68e5 22bd 5b83 a5bc
00000220: b3a2 78bd 1971 14bb f144 42bd 2858 693c
00000230: 754f 61bd 287e b9bc 6191 073c 488d 1c3d
00000240: 602b be3c e452 7c3c f58f 2b3d 6400 acbb
00000250: 344a 4b3c d5c2 113d 44bf 66bc b3d0 b0bc
00000260: d7dc 80bc 4d18 83bc 6fd4 c83b 8f18 5abd
00000270: a92a 603d 377d 213d 3a6c fabc 28d6 63bd
00000280: 00a7 16bd f870 73bd f4d9 173d 54d2 da3b
00000290: 54ee 1f3d 1b83 023c 2e3d 183d 376f f3bb
000002a0: 0bc6 313d bc75 6fbd 657f 81bd d02e dfbc
000002b0: e49d d23c 2ce6 bfbc af90 453d 0cf8 b33c
000002c0: 0407 773d ad0f 533c 2e7b d13c 65a9 9c3b
000002d0: 865f 363d 8c37 943c 028d 94bc 5e73 1fbd
000002e0: b1c1 abbc 9155 66bc 0438 2d3d 5296 fd3c
000002f0: 932f 4b3d 65d7 7fbd a7ee 1cbd 52eb 3abc
00000300: a234 18bd bb3c 3f3d 2c26 46bd 67a3 5dbd
00000310: feff 49bd a43a ff3c 6573 bf3b db39 9abb
00000320: 920f 7b3c 7723 33bd a1c0 61bd ab4c 463d
00000330: 0f69 aa3c 1970 89bd 384b 78bc bc32 993c
00000340: 79fa 193d 0077 1dbd 48a6 1ebd fff3 54bd
00000350: 27e0 c63a 8370 56bd d477 d63c 673d 26bd
00000360: 4a5e ba3c da90 07bb 25f2 df3c 1989 26bd
00000370: 3f0a 813c 0c72 3cbc a6c8 71bd 4178 65bc
00000380: 6f36 0e3d 4a90 03bd 5cb5 ed3c 2a32 d6bb
00000390: 6cff 82bb 1112 67bd a3f3 0cbd 8d27 f2bb
000003a0: 7ac3 033d 4b93 573d b820 5a3d 9b56 0d3d
000003b0: ff89 d63c 43b8 60bd b45c 88bc 7b71 1a3d
000003c0: 19cd 223d 30c6 44bd c549 4e3d 70cc 40bd
000003d0: 46e3 a4bc d258 0bbd 4034 39bd 36e9 1f3c
000003e0: bfed 23bd 05bd 50bd 143d 17bc 2444 0bbd
000003f0: 01be 553d 96e3 203d e307 5cbd 8607 1e3d

q1.2.bias f4 [256]
0.02646389 -0.109521165 -0.0018904546 0.51787025 0.22086078 -0.043524735 -0.040530685 0.27102333
-0.056988686 -0.0316569 -0.030059379 -0.037830725 0.24493948 -0.12036889 0.2088569 0.05303699
0.2827819 0.046334818 0.373066 0.053246986 0.36111346 -0.104740895 0.046351448 -0.18687387
-0.24683592 0.34666485 -0.011796519 0.23456731 -0.012537484 -0.03849588 0.26439 -0.03045682
0.04179139 0.027436743 0.04280774 -0.15922229 0.0074989386 0.18625498 0.045020994 0.30900592
0.04173976 -0.25436756 -0.06460834 0.0066157677 0.33667436 0.21430363 0.17146498 0.36901248
0.01736351 0.26184344 0.36404288 0.17238972 0.011065889 0.45322084 -0.016344834 -0.037073787
0.294865 0.24140784 -0.023046046 0.2374631 0.29930067 0.013126412 0.1897189 0.20316629
0.31840548 -0.03731955 0.23139372 0.048917588 0.23952587 0.41551873 0.25510663 0.049233023
0.039288733 0.033694997 0.4306336 0.1602505 0.1890891 0.055521727 -0.14557903 0.044958312
-0.17737691 -0.05438305 0.53923064 0.34848204 0.26194146 0.261421 0.38893142 0.17288855
0.27185154 -0.05850613 -0.21053785 0.0124344975 0.20601013 0.021467036 -0.05478502 0.26831082
0.03453605 0.18408142 0.019829497 0.3793118 0.15682828 -0.06358704 0.0376077 0.23602878
0.4148108 0.4377421 -0.04788418 0.22437273 -0.13562946 0.20816731 0.27647614 0.028324652
-0.13820732 -0.2993486 0.23655412 0.00950851 0.38478398 0.2697285 0.25349784 -0.033118624
0.46328512 -0.12729013 0.180385 0.026160166 -0.052241147 0.28172082 0.22068343 -0.09938443
-0.052465152 0.2632395 -0.031098165 0.19326127 0.26707095 0.21323466 0.41136712 0.035886206
0.45884213 0.052067097 0.05147883 -0.009217816 0.267876 0.27820665 0.036384422 0.007428408
0.012464672 0.30915937 -0.16173415 0.00030990763 -0.1403419 0.042407863 -0.029057808 -0.15263183
-0.024255397 0.3517434 -0.06029377 0.2361406 0.0182047 0.2199432 -0.02959677 -0.05580623
0.004504484 0.041969355 0.3427766 0.3197663 0.22712584 0.2497717 -0.014273521 0.23310311
-0.036728684 0.2661764 0.2576954 0.0115267765 0.051967245 0.40940726 0.21739362 0.019409636
0.21947934 -0.12979688 0.24668773 -0.040215053 -0.036040142 0.26977044 -0.0068673934 0.22822505
-0.017227665 -0.18179725 -0.04912336 0.306915 0.27950752 0.23649783 -0.16187865 0.002909484
-0.024438543 -0.15716618 -0.093259014 -0.063788906 -0.15257186 0.006632507 -0.03950076 0.27143717
-0.076447345 0.40216732 -0.03766843 0.33303142 -0.037825525 0.013845099 -0.03805264 -0.18967439
0.41555053 0.006043002 0.41724825 0.34016937 0.1816085 0.4354928 0.2390839 0.4786938
0.39203456 0.01276547 0.30399373 -0.17248352 -0.030925455 -0.14994086 -0.03560708 0.43524608
0.29634288 0.039410997 0.2511517 0.007544627 0.25680625 0.2488115 0.4358019 0.17708053
0.28167775 0.2659023 0.3253654 0.39810362 0.43908298 0.009299371 -0.033958226 0.3866948
0.22216259 0.22150695 0.2837084 -0.0025824327 0.24593425 -0.13191316 -0.05997265 0.5418526
0.2248288 1.3573854e-05 0.2620465 0.43618298 0.4476309 -0.042312372 -0.0039082244 0.010956702
00000000: cdca d83c a24c e0bd 21c9 f7ba 2593 043f
00000010: 5429 623e fe46 32bd 8103 26bd 92c3 8a3e
00000020: f86c 69bd aaaa 01bd 163f f6bc 64f4 1abd
00000030: 6ad1 7a3e f783 f6bd 95de 553e 513d 593d
00000040: cac8 903e 94c9 3d3d 8202 bf3e 8319 5a3d
00000050: dde3 b83e 6582 d6bd 04db 3d3d dd5b 3fbe
00000060: 8ec2 7cbe 0e7e b13e 3046 41bc 6a32 703e
00000070: 056a 4dbc dbad 1dbd 205e 873e 9580 f9bc
00000080: 732d 2b3d 05c3 e03c 2b57 2f3d 2b0b 23be
00000090: a8b9 f53b a0b9 3e3e ef67 383d 0636 9e3e
000000a0: 50f7 2a3d 773c 82be 6151 84bd 15c9 d83b
000000b0: 9560 ac3e 6972 5b3e 8494 2f3e 34ef bc3e
000000c0: eb3d 8e3c 5810 863e d463 ba3e ee86 303e
000000d0: b44d 353c 900c e83e 9ae5 85bc afda 17bd
000000e0: 8cf8 963e 9e33 773e 10cb bcbc 8729 733e
000000f0: f03d 993e 2a10 573c ac45 423e d30a 503e
00000100: 0b06 a33e 62dc 18bd 7af2 6c3e cf5d 483d
00000110: 4546 753e dfbe d43e 569d 823e 91a8 493d
00000120: 39ed 203d c403 0a3d 027c dc3e b518 243e
00000130: 93a0 413e c06a 633d ab12 15be 3526 383d
00000140: 4ba2 35be c3c0 5ebd 050b 0a3f 3d6c b23e
00000150: 311d 863e f9d8 853e 0522 c73e b209 313e
00000160: 2030 8b3e 20a4 6fbd 3c97 57be 10ba 4b3c
00000170: 52f4 523e a3db af3c 4266 60bd 0960 893e
00000180: ac75 0d3d d77f 3c3e 7871 a23c 2835 c23e
00000190: 9897 203e ec39 82bd 880a 1a3d 87b1 713e
000001a0: 1562 d43e bc1f e03e 3422 44bd f7c1 653e
000001b0: 73e2 0abe d029 553e 488e 8d3e 1a09 e83c
000001c0: 3886 0dbe 3844 99be 3e3b 723e 95c9 1b3c
000001d0: 6802 c53e db19 8a3e 78ca 813e 65a7 07bd
000001e0: b533 ed3e 5858 02be d8b6 383e d84d d63c
000001f0: d0fa 55bd b63d 903e d6fa 613e 108a cbbd
00000200: b3e5 56bd 54c7 863e 94c1 febc 48e6 453e
00000210: 86bd 883e 305a 5a3e b69e d23e 6afd 123d
00000220: 5bed ea3e 4f44 553d 77db 523d 5306 17bc
00000230: 0b27 893e 1a71 8e3e d507 153d 016a f33b
00000240: a038 4c3c 234a 9e3e a39d 25be 197b a239
00000250: c9b5 0fbe deb3 2d3d a40a eebc 854b 1cbe
00000260: 41b3 c6bc b617 b43e 9af6 76bd d7ce 713e
00000270: 0622 953c ca38 613e ed74 f2bc 1395 64bd
00000280: 5a9a 933b 0fe8 2b3d 6a80 af3e 69b8 a33e
00000290: ad93 683e 27c4 7f3e 7cdb 69bc 95b2 6e3e
000002a0: d170 16bd 4648 883e a7f0 833e ceda 3c3c
000002b0: 9bdb 543d d49d d13e 6f9c 5e3e f500 9f3c
000002c0: 31bf 603e 79e9 04be b59b 7c3e 8ab8 24bd
000002d0: d49e 13bd 5a1f 8a3e df07 e1bb d4b3 693e
000002e0: 0821 8dbc 0f29 3abe 9435 49bd f623 9d3e
000002f0: 9c1b 8f3e 7d2c 723e 84c3 25be 0bad 3e3b
00000300: 5733 c8bc 2cf0 20be 95fe bebd c2a3 82bd
00000310: cc3b 1cbe 8055 d93b 8dcb 21bd d0f9 8a3e
00000320: 6d90 9cbd e0e8 cd3e 364a 1abd 1883 aa3e
00000330: f0ee 1abd 8ed6 623c 16dd 1bbd 013a 42be
00000340: 0ac3 d43e 6004 c63b 90a1 d53e ae2a ae3e
00000350: 94f7 393e eaf8 de3e 69d2 743e 5b17 f53e
00000360: c1b8 c83e 4326 513c 11a5 9b3e 859f 30be
00000370: 6157 fdbc 198a 19be bbd8 11bd 93d8 de3e
00000380: 41ba 973e 6d6d 213d f596 803e eb38 f73b
00000390: 1c7c 833e 71c8 7e3e 6d21 df3e 9954 353e
000003a0: 1138 903e 5924 883e 4b96 a63e 3dd4 cb3e
000003b0: 7ccf e03e 645c 183c c817 0bbd dcfc c53e
000003c0: 977e 633e b8d2 623e 3a42 913e 083e 29bb
000003d0: 30d6 7b3e 3e14 07be e2a5 75bd dab6 0a3f
000003e0: 8539 663e 42bb 6337 f52a 863e 6053 df3e
000003f0: e12f e53e bd4f 2dbd 9010 80bb bd83 333c

q1.4.weight f4 [1, 256]
0.04989555 0.028498942 0.04306782 -0.69717395 -0.17869875 0.013014319 0.27216488 -0.18159604
0.00580322 0.012589172 -0.007818536 0.037772484 -0.21458918 0.017914305 -0.13929524 -0.018156132
-0.12032062 -0.057148643 -0.25587198 0.046192348 -0.24412715 0.027818603 0.033605404 0.10751161
0.07039099 -0.31376302 0.054594707 -0.20337512 0.019194575 -0.0137179475 -0.21542871 0.001945099
0.052140124 -0.0043439884 -0.042845763 0.06827548 0.044416837 -0.1954422 -0.0019578845 -0.20835519
0.002427392 0.076513 0.026880648 0.030709999 -0.1641875 -0.14171991 -0.17757551 -0.20992061
0.048400898 -0.19312312 -0.19878103 -0.16280787 0.0009785126 -0.6527998 -0.014784971 0.02905548
-0.18587495 -0.15275957 -0.0025458485 -0.13952965 -0.24684379 0.05522799 -0.14751473 -0.22743268
-0.15172727 0.053704157 -0.13754565 0.04772577 -0.24336644 -0.31005985 -0.20506151 0.031261377
0.058065787 0.02829042 -0.42801687 -0.15089144 -0.17385446 0.05286632 0.012846765 0.039040886
0.06662137 0.011535526 -0.65826297 -0.24319981 -0.21916768 -0.18746698 -0.28868154 -0.14419745
-0.40617406 0.037949406 0.07576055 0.049884863 -0.18288341 0.022747355 0.0039862096 -0.16881953
0.026960136 -0.12557432 -0.019599915 -0.22925466 -0.16549057 0.051367525 0.025248738 -0.18566677
-0.502369 -0.30605274 0.030844808 -0.19587617 0.12696442 -0.17569993 -0.21216194 0.041540798
0.048138365 0.15833111 -0.1612115 0.03238285 -0.15644273 -0.16345963 -0.16250116 0.046477366
-0.1867315 0.57167524 -0.13334058 -0.0049412167 -0.029197142 -0.151557 -0.17981417 0.07056015
0.0026895243 -0.15359181 0.03369682 -0.16221356 -0.17742486 -0.1616756 -0.27002272 0.04536071
-0.6668883 0.030086499 0.0036556988 0.04966096 -0.14675409 -0.14471744 0.018490762 -0.0003726779
0.030611223 -0.21954627 0.85975415 0.035478696 0.03629966 0.019547638 -0.043332264 0.065278314
0.14295335 -0.3349121 0.01910937 -0.14335172 0.011017321 -0.1617917 0.061902735 0.02556804
0.0064883935 0.039821092 -0.28175813 -0.18768266 -0.1823778 -0.18138431 0.045192435 -0.19460705
0.0061165676 -0.18709803 -0.1728188 0.040739167 0.052555285 -0.3411354 -0.16379517 0.0048962138
-0.13453114 0.0176433 -0.15870048 0.027709207 0.031615928 -0.22124426 0.003180465 -0.2142949
0.019291425 0.11550565 0.05790932 -0.23475069 -0.13745517 -0.16058531 0.11612537 0.042375088
0.04090052 0.101248935 0.033969842 0.003412419 0.12803835 0.048021045 0.19003448 -0.15988468
0.032889627 -0.25117314 0.02104042 -0.20327103 0.04477343 0.05028202 0.048386477 0.16551313
-0.53671056 0.016842518 -0.5142801 -0.23368694 -0.19109447 -0.45324272 -0.3154237 -0.69735515
-0.29826996 0.03274333 -0.16852307 1.2519708 0.04995495 0.108925454 0.016038837 -0.57355106
-0.14927024 0.008241127 -0.18660402 0.052752562 -0.15820676 -0.16863531 -0.21211915 -0.17007427
-0.1880302 -0.21916932 -0.2288304 -0.24512601 -0.29136112 0.010364122 0.03179919 -0.20163567
-0.17598774 -0.18288969 -0.15637293 0.036822654 -0.41276392 0.036323685 0.00899094 -0.6640757
-0.20179725 0.034654167 -0.17006044 -0.25950152 -0.3346614 0.05736937 -0.006503269 0.035173614
00000000: 475f 4c3d 9d76 e93c e267 303d fe79 32bf
00000010: cefc 36be 033a 553c 3259 8b3e 50f4 39be
00000020: f028 be3b d142 4e3c 5119 00bc 52b7 1a3d
00000030: 44bd 5bbe 05c1 923c 69a3 0ebe 2bbc 94bc
00000040: a86a f6bd b214 6abd a701 83be 3034 3d3d
00000050: 78fc 79be d7e3 e33c d2a5 093d 0c2f dc3d
00000060: 2729 903d 8ca5 a0be b39e 5f3d 9141 50be
00000070: f13d 9d3c 3ec1 60bc 5899 5cbe b1f2 fe3a
00000080: e290 553d 0458 8ebb 0a7f 2fbd 04d4 8b3d
00000090: 6eee 353d 0022 48be da4f 00bb 105b 55be
000000a0: e114 1f3b d9b2 9c3d ce34 dc3c 8993 fb3c
000000b0: c520 28be 061f 11be 5bd6 35be 6ef5 56be
000000c0: 0540 463d 11c2 45be 418d 4bbe 1bb7 26be
000000d0: 6f41 803a e31d 27bf aa3c 72bc c205 ee3c
000000e0: 0156 3ebe 016d 1cbe 40d8 26bb dce0 0ebe
000000f0: 9ec4 7cbe bf36 623d 1a0e 17be 1de4 68be
00000100: 655e 1bbe e4f8 5b3d c4d8 0cbe 197c 433d
00000110: 0d35 79be 2ac0 9ebe a5fb 51be ee0b 003d
00000120: 64d6 6d3d 50c1 e73c 0725 dbbe 4983 1abe
00000130: e706 32be 5b8a 583d 3d7b 523c 56e9 1f3d
00000140: c970 883d 81ff 3c3c ec83 28bf 5f09 79be
00000150: 7e6d 60be 58f7 3fbe 11ce 93be 7fa8 13be
00000160: 0cf6 cfbe d670 1b3d 5928 9b3d 1254 4c3d
00000170: ca45 3bbe a958 ba3c c09e 823b 07df 2cbe
00000180: 81db dc3c 8e96 00be 0090 a0bc bcc1 6abe
00000190: 5c76 29be c166 523d 71d6 ce3c 6e1f 3ebe
000001a0: 419b 00bf f2b2 9cbe 40ae fc3c c393 48be
000001b0: f602 023e afea 33be fb40 59be af26 2a3d
000001c0: bc2c 453d 8d21 223e a114 25be e1a3 043d
000001d0: 8632 20be f661 27be b466 26be 0d5f 3e3d
000001e0: 8b36 3fbe 4f59 123f 6f8a 08be eee9 a1bb
000001f0: d82e efbc c231 1bbe 3521 38be d781 903d
00000200: bb42 303b 2c47 1dbe ad05 0a3d 501b 26be
00000210: ddae 35be 4a8e 25be 6b40 8abe 27cc 393d
00000220: 31b9 2abf f677 f63c 7394 6f3b 4a69 4b3d
00000230: b446 16be cf30 14be f079 973c fb63 c3b9
00000240: 63c4 fa3c bdd0 60be d918 5c3f 1c52 113d
00000250: f4ae 143d 5e22 a03c 2c7d 31bd a3b0 853d
00000260: 5d62 123e 9979 abbe 418b 9c3c cbca 12be
00000270: fe81 343c b9ac 25be b98d 7d3d 1174 d13c
00000280: 979c d43b 711b 233d 9a42 90be e22f 40be
00000290: 3fc1 3abe cfbc 39be b41b 393d 1247 47be
000002a0: 7d6d c83b a096 3fbe 69f7 30be 1dde 263d
000002b0: 3644 573d 4da9 aebe ecb9 27be 6b70 a03b
000002c0: 88c2 09be af88 903c 6182 22be 6bfe e23c
000002d0: b47f 013d db8d 62be 596f 503b 1f70 5bbe
000002e0: 0d09 9e3c 3a8e ec3d 5332 6d3d 7c62 70be
000002f0: 0cc1 0cbe 7a70 24be 23d3 ed3d 8091 2d3d
00000300: 4e87 273d 9a5b cf3d f623 0b3d e4a2 5f3b
00000310: 7c1c 033e b7b1 443d 6698 423e cfb8 23be
00000320: 46b7 063d c499 80be f55c ac3c 4826 50be
00000330: 5864 373d 85f4 4d3d e630 463d 467c 293e
00000340: dd65 09bf 52f9 893c dca7 03bf a14b 6fbe
00000350: 45ae 43be 6e0f e8be 377f a1be de85 32bf
00000360: d7b6 98be df1d 063d 5091 2cbe 9440 a03f
00000370: 909d 4c3d 4f14 df3d e163 833c 3ed4 12bf
00000380: 4cda 18be cb05 073c 2015 3fbe 1213 583d
00000390: f400 22be bcae 2cbe c335 59be f327 2ebe
000003a0: fd8a 40be ec6d 60be 8452 6abe 5002 7bbe
000003b0: 492d 95be 47ce 293c de3f 023d 9579 4ebe
000003c0: 2136 34be 6f47 3bbe 3a20 20be 5ad3 163d
000003d0: cb55 d3be 25c8 143d bc4e 133c dd00 2abf
000003e0: f0a3 4ebe 87f1 0d3d 5324 2ebe 62dd 84be
000003f0: bd58 abbe 25fc 6a3d 6019 d5bb 3512 103d

q2.0.weight f4 [256, 21]
0.18489529 0.12711252 0.26278582 0.37266374 0.10979342 0.14340982 -0.046276223 0.24932897
0.22768557 0.1291134 0.16965666 -0.19239597 0.18765466 -0.034588158 -0.16443646 -0.18427604
0.11950506 0.17662086 0.135457 0.15739092 0.060577806 -0.039745368 -0.15429005 -0.0015901057
-0.10607856 -0.0010861163 -0.0026040757 -0.030562803 -0.044814616 -0.058481872 0.10871206 -0.04286143
-0.13740745 -0.11221676 -0.1753839 -0.07798484 -0.12443067 0.020025507 -0.051064566 -0.0936975
-0.2771139 -0.0049661356 0.18713604 0.052708928 -0.0488079 0.020105118 -0.22418685 0.05311521
-0.08908316 0.15643604 -0.042372346 -0.10577721 0.12087615 -0.23313366 -0.20950766 0.15456297
-0.040749088 0.048526302 0.21024896 -0.16616431 0.25525028 0.04096243 0.0038621225 0.0148698855
-0.13093503 0.12676093 0.27332637 -0.2533635 -0.16808838 0.0025429404 -0.11734079 0.01821659
-0.58843434 0.006248025 0.04110796 -0.053767353 0.16371058 -0.1451056 -0.08956142 0.0074294508
-0.1296035 -0.068921246 -0.098225884 -0.30477852 0.210969 0.03332698 -0.09956339 -0.24286416
0.13262199 -0.14270546 0.012920618 -0.1273269 -0.006125897 0.03554307 -0.14088193 -0.10506287
-0.1777263 0.101757154 -0.15952297 0.20817597 -0.094530694 0.20507674 -0.06991388 0.11735995
-0.16483393 0.011389617 0.17465596 -0.06954342 0.08286602 0.10679661 0.229715 -0.15891136
-0.14136127 -0.022181023 -0.22777466 0.06314323 0.040087108 -0.116949625 -0.100430705 0.14464478
0.119696006 0.04159929 -0.067785844 0.076006964 -0.14188083 0.26381162 0.15763055 -0.045070406
0.086020425 0.31846455 -0.0076101148 -0.17918469 -0.0390286 0.39970264 -0.19180584 0.15715669
0.014270306 0.05608932 0.1085908 -0.15009221 0.19274919 -0.12390527 0.12050645 0.07072814
0.2627494 0.15898792 -0.107920796 0.04496331 0.115416564 0.1554253 0.029832726 0.0066810367
-0.1734675 -0.09347432 0.037739042 0.030703181 -0.065331936 0.13388427 -0.039317124 0.15721
0.122375324 0.0695595 0.19971044 -0.1516136 -0.06214589 -0.11640567 -0.04842556 -0.022966206
-0.14958677 0.040587 -0.029211478 -0.09241795 -0.20633122 -0.107335776 -0.1545147 -0.073944956
-0.14728445 -0.14145634 0.19713108 -0.10743112 0.016587704 0.030296668 -0.20171024 0.07648538
0.05861838 -0.057987824 0.0010672382 -0.18991026 -0.26048452 0.17509322 0.18468069 0.1769541
0.04582736 -0.1820667 -0.17770872 -0.031122439 -0.18836085 0.19607663 -0.08601473 0.2121343
0.047981318 0.123438105 -0.069059715 0.047939613 -0.022490755 -0.14001077 -0.1347689 0.06398571
-0.15690762 -0.1066222 0.21656471 -0.16134037 -0.3063336 0.44705632 -0.08232199 0.070115745
-0.010860016 -0.12466162 -0.09093509 -0.5842745 0.14469452 0.004200997 -0.07049696 0.109590694
0.1481718 -0.17013422 0.20069252 0.07049374 0.3082759 -0.05904725 -0.17589203 0.05084988
-0.19727463 -0.01005383 0.13333376 -0.42652583 0.05685094 -0.2074899 0.17256951 0.16968739
-0.15705448 0.07503206 0.091176435 -0.023236021 -0.004844725 0.1188748 0.17856495 -0.12592983
0.21276687 0.20024191 -0.16489989 -0.016266156 0.13721393 -0.1933366 -0.13984513 0.12088958
00000000: 3155 3d3e c929 023e dd8b 863e c8cd be3e
00000010: 5fdb e03d 06da 123e 238c 3dbd 1850 7f3e
00000020: 6826 693e 4e36 043e 7aba 2d3e 7303 45be
00000030: 8b28 403e 50ac 0dbd 0862 28be dcb2 3cbe
00000040: 12bf f43d 19dc 343e 3db5 0a3e 162b 213e
00000050: 6f20 783d 0acc 22bd 36fe 1dbe 186b d0ba
00000060: b73f d9bd 045c 8eba 24a9 2abb d85e fabc
00000070: 888f 37bd b08a 6fbd 6ea4 de3d 788f 2fbd
00000080: 8ab4 0cbe e7d1 e5bd d697 33be 84b6 9fbd
00000090: 82d5 febd 880c a43c 1429 51bd 7ae4 bfbd
000000a0: e0e1 8dbe f7ba a2bb 97a0 3f3e 51e5 573d
000000b0: cbea 47bd 7db3 a43c 3d91 65be 568f 593d
000000c0: 3b71 b6bd c530 203e a08e 2dbd b9a1 d8bd
000000d0: ea8d f73d 97ba 6ebe 2d89 56be c145 1e3e
000000e0: 84e8 26bd 84c3 463d 814b 573e fa26 2abe
000000f0: 2ab0 823e 39c8 273d aa1b 7d3b d2a0 733c
00000100: d513 06be 9ecd 013e 6ff1 8b3e dcb8 81be
00000110: 5c1f 2cbe 76a7 263b 5e50 f0bd f53a 953c
00000120: a2a3 16bf 3cbc cc3b d260 283d 283b 5cbd
00000130: bfa3 273e 9096 14be fa6b b7bd c072 f33b
00000140: c8b6 04be 9526 8dbd a72a c9bd ee0b 9cbe
00000150: 4208 583e df81 083d e4e7 cbbd 62b1 78be
00000160: 0fce 073e 6121 12be 00b1 533c fc61 02be
00000170: c0bb c8bb 9c95 113d 5a43 10be 342b d7bd
00000180: e2fd 35be 0e66 d03d fd59 23be 152c 553e
00000190: 4f99 c1bd a3ff 513e 022f 8fbd 6a5a f03d
000001a0: 3aca 28be 849b 3a3c 03d9 323e c86c 8ebd
000001b0: a9b5 a93d 2eb8 da3d 693a 6b3e a9b9 22be
000001c0: 02c1 10be fab4 b5bc c33d 69be 3d51 813d
000001d0: 6132 243d 4983 efbd 9dae cdbd c31d 143e
000001e0: 2e23 f53d 0464 2a3d 4ed3 8abd 8aa9 9b3d
000001f0: 3549 11be 5112 873e e769 213e bf9b 38bd
00000200: 7a2b b03d c90d a33e 455e f9bb 317c 37be
00000210: 74dc 1fbd d3a5 cc3e c068 44be afed 203e
00000220: 00ce 693c eabd 653d da64 de3d c6b1 19be
00000230: 0b60 453e 0cc2 fdbd 16cc f63d ead9 903d
00000240: 1787 863e bbcd 223e 9405 ddbd 732b 383d
00000250: 855f ec3d cf27 1f3e c363 f43c 99ec da3b
00000260: 77a1 31be 776f bfbd 4194 1a3d 3d85 fb3c
00000270: c0cc 85bd f518 093e fe0a 21bd a9fb 203e
00000280: ea9f fa3d 3675 8e3d e580 4c3e 9840 1bbe
00000290: b08c 7ebd 1966 eebd e159 46bd a023 bcbc
000002a0: 462d 19be 8e3e 263d e94c efbc 9f45 bdbd
000002b0: 7e48 53be dcd2 dbbd 1a39 1ebe 7470 97bd
000002c0: bcd1 16be eed9 10be bbdc 493e d904 dcbd
000002d0: f0e2 873c b830 f83c 218d 4ebe 5ea4 9c3d
000002e0: d419 703d a484 6dbd 92e2 8b3a d677 42be
000002f0: 3a5e 85be a34b 333e ef1c 3d3e 7533 353e
00000300: 78b5 3b3d b16f 3abe 46f9 35be 7cf4 febc
00000310: abe1 40be 50c8 483e 7e28 b0bd bc39 593e
00000320: 0f88 443d 1ecd fc3d 2e6f 8dbd 545c 443d
00000330: 883e b8bc fc5e 0fbe dc00 0abe f10a 833d
00000340: 64ac 20be bd5c dabd 24c3 5d3e 6936 25be
00000350: c2d7 9cbe 91e4 e43e 6e98 a8bd d898 8f3d
00000360: 35ee 31bc 974e ffbd 2d3c babd 0393 15bf
00000370: cd2a 143e 84a8 893b b660 90bd 1671 e03d
00000380: 59ba 173e aa37 2ebe 5782 4d3e 065f 903d
00000390: 57d6 9d3e 87db 71bd 0a1d 34be f747 503d
000003a0: 5c02 4abe d2b8 24bc a588 083e 9861 dabe
000003b0: 88dc 683d 3b78 54be 10b6 303e 88c2 2d3e
000003c0: e4d2 20be 69aa 993d b6ba ba3d 7859 bebc
000003d0: 80c0 9ebb a274 f33d bbd9 363e c0f3 00be
000003e0: 8fdf 593e 370c 4d3e 84db 28be 9a40 85bc
000003f0: cf81 0c3e 08fa 45be 9033 0fbe f594 f73d

q2.0.bias f4 [256]
-0.046479564 0.5201716 0.32976735 0.33268273 -0.3692353 0.60787547 -0.39281845 0.5393018
0.4131119 0.24986719 0.08037354 0.5443623 0.47055098 0.07748507 0.6322736 0.620636
0.61583114 -0.6829868 0.58876586 0.024876531 0.22034986 0.29774007 0.37645367 0.06772862
0.58673114 0.28750515 0.05984031 0.74701405 -0.29936174 0.3399934 0.41648754 0.56795585
0.5707174 0.31623182 0.035589404 -0.5282711 -0.40375838 0.37544486 0.70797455 0.17158516
0.3753287 -0.41498783 0.5041638 0.56665325 0.6050427 0.014052963 -0.4712953 0.4147202
0.121485 0.5283184 0.6268471 0.6743107 0.3353006 0.006581711 -0.39651543 0.3185878
0.57510316 0.637083 -0.31638423 0.56762594 0.58396477 0.08951625 0.37558168 0.6592711
0.70948565 0.32452163 -0.0034784859 -0.09072446 0.019149674 -0.3040333 -0.2398542 -0.29882246
0.68800926 0.18342802 0.5251802 0.45207223 0.41373095 0.638056 -0.16234249 0.7535956
0.5661909 0.30486435 -0.14895119 0.39664117 0.5756297 -0.35487285 0.39553806 0.24788353
0.20067774 0.44324595 0.68490845 0.45227918 0.43433803 -0.40261528 -0.3625721 0.2873174
-0.566507 0.5330175 -0.01573858 0.6025942 0.3207374 0.6268748 0.43366608 0.5367859
-0.20870526 0.6447273 -0.0064952923 0.3605243 0.39139977 -0.26618642 0.6370068 0.5792895
-0.5315938 -0.23511039 -0.06554434 -0.31288287 0.45244518 0.15613678 0.21645695 0.74841315
0.10172478 0.10371289 -0.08262968 0.27007034 0.6650246 0.067806214 0.596348 0.7581926
0.6923371 0.43682715 0.50340194 -0.2917354 -0.25370377 0.13442333 0.6346053 0.5758198
0.28332013 0.69992214 -0.08030453 0.5446462 0.5076024 -0.32480156 0.3570797 0.49981114
0.18185946 0.20670076 0.5554896 0.57887536 0.58775663 0.5212881 -0.47096696 0.76204145
0.56779647 -0.31044725 0.01531003 0.3942804 0.038947053 0.5847345 0.017209403 0.37298265
-0.15733638 0.6427337 0.5709113 -0.2886484 -0.43188348 0.310465 0.59056455 0.49646476
0.5418861 0.57058346 -0.17066324 -0.37247667 0.27124962 0.35041174 0.82219195 -0.40391448
0.11362776 0.5595449 0.49453664 -0.33619457 -0.32727045 -0.30570963 0.21219547 0.40732712
0.21607359 -0.29138204 0.19790082 0.33819696 0.18834758 -0.25143477 0.39054668 0.28236073
-0.42240128 -0.11132435 -0.32417563 0.5530588 0.2754684 0.40236324 0.3401127 0.5061651
-0.020605143 0.6186201 0.5167976 -0.50473034 0.045406695 -0.09340406 0.47398528 0.33803052
0.26201293 -0.110086665 0.41314462 -0.4010105 -0.49352133 0.16705471 -0.122005865 0.32305482
0.42866307 0.26461688 -0.40638077 0.38606435 0.25752777 -0.32779905 -0.3655051 0.646575
0.61872804 -0.040922973 0.7307872 0.6177346 0.29409906 0.46411708 0.22930495 0.44247326
0.45278868 -0.2609043 0.24323824 0.3160761 -0.35609633 -0.3216251 0.45993927 0.5355266
0.30172786 0.40598682 -0.35853654 0.38351044 0.5916149 -0.43719655 0.8842677 0.3436751
0.0001950914 -0.18168232 0.2917061 0.108209096 0.15140171 0.5967029 -0.25361648 0.6748727
00000000: 5b61 3ebd f729 053f 44d7 a83e 6455 aa3e
00000010: 690c bdbe ba9d 1b3f 801f c9be af0f 0a3f
00000020: 6783 d33e 2fdd 7f3e e29a a43d 545b 0b3f
00000030: 0fec f03e 7eb0 9e3d afdc 213f 00e2 1e3f
00000040: 1ca7 1d3f 39d8 2ebf 5cb9 163f dec9 cb3c
00000050: 65a3 613e 6371 983e 89be c03e 4db5 8a3d
00000060: 0334 163f e033 933e 1d1b 753d 503c 3f3f
00000070: f145 99be 9d13 ae3e db3d d53e 8e65 113f
00000080: 891a 123f 23e9 a13e 32c6 113d c63c 07bf
00000090: 6bb9 cebe 4f3a c03e d23d 353f 05b4 2f3e
000000a0: 152b c03e 4979 d4be e110 013f 3010 113f
000000b0: 14e4 1a3f 663e 663c 9e4d f1be 3556 d43e
000000c0: 21cd f83d e03f 073f 0d79 203f a09f 2c3f
000000d0: 85ac ab3e 65ab d73b 1204 cbbe f11d a33e
000000e0: f639 133f df17 233f 1dfd a1be ef4f 113f
000000f0: b77e 153f 4c54 b73d 3e4c c03e fec5 283f
00000100: daa0 353f b327 a63e 4ff7 63bb bfcd b9bd
00000110: c7df 9c3c 41aa 9bbe 579c 75be 42ff 98be
00000120: 6021 303f 8ed4 3b3e 3672 063f 0376 e73e
00000130: 8bd4 d33e a357 233f 1c3d 26be a4eb 403f
00000140: e3f1 103f 2e17 9c3e a986 18be 8d14 cb3e
00000150: 785c 133f e5b1 b5be f783 ca3e 2ed5 7d3e
00000160: 777e 4d3e 22f1 e23e 2956 2f3f 2391 e73e
00000170: 8e61 de3e 9723 cebe 0da3 b9be 441b 933e
00000180: 9a06 11bf d673 083f 32ee 80bc 9d43 1a3f
00000190: b137 a43e de7a 203f 7b09 de3e cd6a 093f
000001a0: d5b6 55be d90c 253f 76d6 d4bb a496 b83e
000001b0: 8d65 c83e 9649 88be e112 233f 514c 143f
000001c0: 8816 08bf c7c0 70be 1c3c 86bd 2f32 a0be
000001d0: e5a6 e73e 52e2 1f3e e4a6 5d3e 0198 3f3f
000001e0: 1555 d03d 6c67 d43d c039 a9bd a946 8a3e
000001f0: 0d3f 2a3f fcdd 8a3d 43aa 183f e918 423f
00000200: 013d 313f cfa7 df3e f3de 003f 585e 95be
00000210: 76e5 81be 45a6 093e 7e75 223f ed68 133f
00000220: 560f 913e 192e 333f b476 a4bd ef6d 0b3f
00000230: 3bf2 013f 644c a6be 27d3 b63e 3fe7 ff3e
00000240: 5e39 3a3e 5da9 533e 9134 0e3f 2d31 143f
00000250: 3877 163f 2373 053f 9522 f1be 2615 433f
00000260: 1c5b 113f f1f2 9ebe ecd6 7a3c 1fdf c93e
00000270: f286 1f3d 29b1 153f bcfa 8c3c 95f7 be3e
00000280: ca1c 21be 328a 243f 3e27 123f b9c9 93be
00000290: d51f ddbe 45f5 9e3e 3d2f 173f a130 fe3e
000002a0: 0cb9 0a3f c211 123f 58c2 2ebe 43b5 bebe
000002b0: 3be1 8a3e 2b69 b33e 2c7b 523f e1cd cebe
000002c0: acb5 e83d 563e 0f3f e833 fd3e b221 acbe
000002d0: fe8f a7be f985 9cbe c549 593e 2e8d d03e
000002e0: 6542 5d3e 0730 95be 83a6 4a3e 2728 ad3e
000002f0: 30de 403e 0fbc 80be bcf5 c73e 9691 903e
00000300: fb44 d8be 05fe e3bd 59fa a5be 4395 0d3f
00000310: 320a 8d3e 8e02 ce3e 4023 ae3e 0994 013f
00000320: 1ecc a8bc e35d 1e3f d94c 043f 0236 01bf
00000330: 5ffc 393d a14a bfbd 33ae f23e 5612 ad3e
00000340: 8f26 863e 1e75 e1bd b187 d33e 4051 cdbe
00000350: d4ae fcbe 6410 2b3e 36de f9bd 7167 a53e
00000360: ba79 db3e dd7b 873e 2411 d0be 3aaa c53e
00000370: aeda 833e 47d5 a7be 7c23 bbbe f085 253f
00000380: f664 1e3f d99e 27bd df14 3b3f db23 1e3f
00000390: 2794 963e c1a0 ed3e ebce 6a3e db8b e23e
000003a0: ebd3 e73e 4095 85be 7213 793e bad4 a13e
000003b0: 4252 b6be 0cac a4be 297d eb3e 4518 093f
000003c0: 137c 9a3e 81dd cf3e 1a92 b7be 7b5b c43e
000003d0: 1374 173f 3ad8 dfbe 5e5f 623f 2ff6 af3e
000003e0: 7391 4c39 ee0a 3abe 805a 953e bb9c dd3d
000003f0: 0d09 1b3e 85c1 183f 05da 81be 75c4 2c3f

q2.2.weight f4 [256, 256]
0.07434081 0.28920776 0.024550796 0.07149678 -0.057301946 0.16345927 -0.11028058 0.09668443
0.19169284 0.0032213063 0.1710376 0.1364427 0.07884016 -0.19286926 0.2452932 0.13920568
0.106179796 -0.10586618 0.008433482 -0.009966101 -0.014625035 0.23917493 0.28547025 0.10216888
0.061233874 0.085115336 0.07020545 0.3118291 0.01334753 -0.010278544 0.060929887 0.09903557
0.3297704 0.19320975 0.33218363 -0.025532728 -0.07482753 0.009071013 0.43288916 0.04142639
0.036890384 -0.0060129953 0.08982476 0.18471012 0.2537948 -0.06991233 0.056048214 0.20548306
0.12975305 0.20248151 0.41549623 0.10431167 0.039838687 0.018393327 -0.13662764 0.22889858
0.10973592 0.12207885 0.0716058 0.29654327 0.08200628 0.23301049 -0.00014791654 0.14631787
0.39499325 0.11113832 0.0136168795 0.050080765 0.06679313 0.0030010226 -0.022198167 -0.0071748346
0.18139338 0.07159902 0.04120312 0.03823402 0.10582363 0.12455583 0.4036957 0.21520881
0.25157553 0.16802117 0.037930634 0.06105893 0.05859249 -0.05438741 0.023877917 0.45604485
0.037616473 0.06339135 0.39363724 0.55311346 0.09793491 -0.14226046 -0.14534408 0.40775567
-0.11120879 0.14233227 -0.6416663 0.14348958 0.03392935 0.07494434 0.13623334 0.03827759
-0.16402435 0.45641035 -0.17873016 -0.008078849 0.025416434 0.2848563 0.039934628 0.12879859
-0.123157606 -0.043407496 0.07731895 -0.016819011 0.21000326 0.065411344 0.058895577 0.35027996
0.018276433 0.9043109 0.018651977 0.017848672 0.08945769 0.27933556 0.07484718 0.1597256
0.31776848 0.043449406 0.076908045 -0.037675053 -0.022854326 0.043632094 0.057342775 0.32664633
-0.002120217 0.43998334 0.13661787 0.06184917 0.12999317 -0.038079415 0.20303288 0.06628984
-0.012240951 0.04257039 0.10951139 0.2436488 0.08382177 0.16520146 -0.084741056 0.2674584
0.051233917 -0.06423511 0.18718056 0.064429104 0.036723208 0.09632371 -0.013775177 0.012694156
0.07373962 0.4476966 0.20661713 -0.007932001 -0.3339409 0.09549906 0.06590887 0.17285964
0.08608329 0.11890862 0.097866654 0.076713674 0.22011025 0.19101386 0.38779622 0.022804698
0.35224485 0.080531344 0.13150829 -0.06457796 -0.17034422 -0.0029101784 -0.0062321713 0.015135282
0.19559343 -0.1270885 0.09685565 0.067500934 0.13568851 0.023549888 0.05758295 0.30191344
-0.09826667 -0.07552776 -0.049999204 0.20686352 0.06834819 0.043060254 -0.016019806 0.123747125
0.06810875 0.4504418 0.12833528 -0.103391744 0.16878775 0.013731003 0.24220945 0.12029125
0.055073634 -0.14926842 0.069816105 -0.06566471 -0.044502586 0.2042543 0.014939415 0.010786103
0.11957601 0.05452092 -0.18662189 0.016537294 0.01924184 -0.020053208 -0.025407586 0.029548228
0.36420798 -0.36228395 0.52108467 0.12822309 0.40754727 0.039262395 -0.026947029 0.108134985
0.22758721 -0.3636449 0.20266038 0.09795591 -0.011899595 -0.5710058 0.22330704 0.04601531
-0.014476546 0.07209184 -0.11758427 0.029452924 0.19313288 -0.051475022 0.4850573 0.23780683
-0.0624727 0.35047388 0.030772444 0.20004195 0.11911069 0.04272191 0.015377806 0.13165629
00000000: ff3f 983d 0a13 943e c01e c93c e76c 923d
00000010: 72b5 6abd de61 273e c9da e1bd 7d02 c63d
00000020: 214b 443e 8d1c 533b 7b24 2f3e a3b7 0b3e
00000030: f376 a13d 857f 45be 242e 7b3e ef8b 0e3e
00000040: cb74 d93d 5ed0 d8bd 962c 0a3c db48 23bc
00000050: d89d 6fbc 46ea 743e 2829 923e eb3d d13d
00000060: 5fd0 7a3d f350 ae3d e0c7 8f3d 10a8 9f3e
00000070: 99af 5a3c 5767 28bc 9e91 793d 29d3 ca3d
00000080: aad7 a83e c7d8 453e f913 aa3e 032a d1bc
00000090: 2d3f 99bd 969e 143c a6a3 dd3e b8ae 293d
000000a0: 5f1a 173d a908 c5bb 0bf6 b73d a624 3d3e
000000b0: 64f1 813e 322e 8fbd d092 653d 276a 523e
000000c0: fcdd 043e 5057 4f3e ecbb d43e 5ba1 d53d
000000d0: e42d 233d 9aad 963c 1ee8 0bbe 6464 6a3e
000000e0: 3abd e03d 7a04 fa3d 10a6 923d 85d4 973e
000000f0: e9f2 a73d 4d9a 6e3e 0b1a 1bb9 5ad4 153e
00000100: 8e3c ca3e 7d9c e33d 5519 5f3c 7d21 4d3d
00000110: d6ca 883d ceac 443b eed8 b5bc e01a ebbb
00000120: 30bf 393e 82a2 923d 9ac4 283d 479b 1c3d
00000130: 0fba d83d 2117 ff3d 34b1 ce3e b35f 5c3e
00000140: 82ce 803e be0d 2c3e 275d 1b3d ee18 7a3d
00000150: aefe 6f3d 55c5 5ebd 9f9b c33c b67e e93e
00000160: bb13 1a3d 53d3 813d d28a c93e d898 0d3f
00000170: 1992 c83d baac 11be 14d5 14be 5ac5 d03e
00000180: 6fc1 e3bd 8dbf 113e 3e44 24bf efee 123e
00000190: 81f9 0a3d 6b7c 993d c180 0b3e f6c8 1c3d
000001a0: 00f6 27be 9eae e93e 0a05 37be 265d 04bc
000001b0: 2036 d03c afd8 913e 7e92 233d c7e3 033e
000001c0: 0e3a fcbd 0fcc 31bd 6659 9e3d 06c8 89bc
000001d0: 180b 573e 62f6 853d 7d3c 713d e557 b33e
000001e0: 75b8 953c eb80 673f 08cc 983c 6137 923c
000001f0: 9835 b73d 1205 8f3e 7a49 993d 1c8f 233e
00000200: 8db2 a23e 01f8 313d f781 9d3d 2851 1abd
00000210: ff38 bbbc 91b7 323d 42e0 6a3d 303e a73e
00000220: 57f3 0abb 7f45 e13e 8ee5 0b3e 8e55 7d3d
00000230: ee1c 053e 29f9 1bbd dae7 4f3e f8c2 873d
00000240: 458e 48bc 4a5e 2e3d 8247 e03d 127f 793e
00000250: c0aa ab3d 922a 293e b88c adbd 4ff0 883e
00000260: a8da 513d b38d 83bd 43ac 3f3e 68f3 833d
00000270: 136b 163d 5e45 c53d 48b1 61bc 26fb 4f3c
00000280: cc04 973d 7d38 e53e 7193 533e 39f5 01bc
00000290: 4dfa aabe 0395 c33d 3bfb 863d 1e02 313e
000002a0: 704c b03d 5d86 f33d 506e c83d 0f1c 9d3d
000002b0: 9564 613e 2399 433e 3a8d c63e ebd0 ba3c
000002c0: 7059 b43e 9eed a43d 1caa 063e 7341 84bd
000002d0: b76e 2ebe b1b8 3ebb 3e37 ccbb f9f9 773c
000002e0: a549 483e 7d23 02be 415c c63d ee3d 8a3d
000002f0: eef1 0a3e b2eb c03c 19dc 6b3d 6694 9a3e
00000300: 0940 c9bd 4cae 9abd f7cb 4cbd 08d4 533e
00000310: 23fa 8b3d f35f 303d f83b 83bc 226f fd3d
00000320: 9a7c 8b3d 4fa0 e63e 536a 033e 0dbf d3bd
00000330: b2d6 2c3e 00f8 603c c105 783e 425b f63d
00000340: e494 613d d2d9 18be bffb 8e3d 387b 86bd
00000350: 5848 36bd 0a28 513e 73c4 743c 32b8 303c
00000360: 44e4 f43d 5451 5f3d cf19 3fbe 3879 873c
00000370: 10a1 9d3c a046 a4bc 9223 d0bc 200f f23c
00000380: 7879 ba3e 487d b9be ce65 053f ea4c 033e
00000390: 09aa d03e 9bd1 203d 04c0 dcbc e075 dd3d
000003a0: 9f0c 693e aa2f babe 3486 4f3e 1c9d c83d
000003b0: 85f6 42bc 702d 12bf 9aaa 643e 8d7a 3c3d
000003c0: 092f 6dbc e3a4 933d 06d0 f0bd 4247 f13c
000003d0: a0c4 453e 79d7 52bd 6e59 f83e a283 733e
000003e0: 60e3 7fbd 5071 b33e 7e16 fc3c ccd7 4c3e
000003f0: 4ef0 f33d 2bfd 2e3d 31f3 7b3c e8d0 063e
