PPO/ppo_models/best_model_actor.pth (torch, 285996 bytes, 8 tensors)

actor.0.weight f4 [256, 12]
000000 78 da 52 3d 7e 12 ec bc 6b 85 34 3e 80 bf 56 3b
       0.05147788 -0.028817412 0.1762902 0.0032767951
000010 1b 0a 0c be 46 e4 01 3e 1d 16 ff 3d 45 5a 31 be
       -0.1367573 0.12684736 0.1245539 -0.17319591
000020 e8 f9 3d be b5 94 54 be 0e 14 7a be 5f ba 76 be
       -0.18552363 -0.20759852 -0.24421713 -0.24094532
000030 74 0b b5 3d f5 36 26 3e 02 81 5d 3e 70 ab 61 3d
       0.08840075 0.16231902 0.21631244 0.055095136
000040 c0 42 78 3d 60 08 0d 3d 1d c9 42 be 92 6a 5d bd
       0.060610533 0.034431815 -0.19022031 -0.05405671
000050 e0 a0 a4 bd 86 68 71 be 3c 76 89 bc 50 d5 5a 3e
       -0.08038497 -0.23575029 -0.016780011 0.21370435
000060 5d b6 8b 3e 59 9b be bd 95 80 88 bd d2 9c 43 be
       0.2728757 -0.09306974 -0.0666515 -0.19102791
000070 84 e3 a0 3d 90 25 d6 3c be 30 22 3e 24 69 4b 3e
       0.07855895 0.026140958 0.15838906 0.19864327
000080 f6 ee 80 3e b5 45 f4 3d a0 9d e4 3c c3 dc 41 3b
       0.25182313 0.11927358 0.027907193 0.0029581047
000090 d5 e7 35 be ab cd 9e 3d f7 6a 0a be 28 90 a7 3d
       -0.17764218 0.07754072 -0.13517366 0.081817925
0000a0 c0 9c f6 3d 88 0f 6e 3d 8e 30 35 3d 02 ee 47 be
       0.120416164 0.05812028 0.04423576 -0.19524387
0000b0 9f 1a 40 be 28 46 a7 3d 26 6b 8e 3e b2 89 9a 3e
       -0.18760155 0.08167678 0.27816123 0.30183178
0000c0 b1 3e 85 be 21 eb a2 bd 10 6a 81 3d d0 39 31 3d
       -0.26024392 -0.079550035 0.06319058 0.043268025
0000d0 28 45 ee 3d 2e 50 40 be 18 2a 27 be 5e 62 01 3e
       0.11634284 -0.18780586 -0.16324651 0.1263518
0000e0 8f db 44 3e a3 4b 1a be 55 76 99 bd 31 86 0a 3e
       0.1922438 -0.15067916 -0.07493273 0.13527752
0000f0 d8 1b b2 3b 47 92 81 bd 23 2e 73 be 92 ef 8f 3e
       0.005435448 -0.06326728 -0.23748069 0.28112465
000100 88 68 54 3d c0 b2 99 3c 98 ea e0 bd 73 ce 31 3e
       0.0518575 0.018761992 -0.10982245 0.1736391
000110 8b a1 4c 3e 11 d9 d8 3d 86 e9 1c 3e 30 87 23 be
       0.19983499 0.10588277 0.15323457 -0.15969539
000120 58 d6 49 3d 48 d2 6f be 22 65 8e be ba 5d 2c 3e
       0.04927668 -0.2342006 -0.27811533 0.16832629
000130 e4 34 d2 3d 78 4e 70 3d 00 4d 0f bc a9 2d 93 be
       0.10263994 0.058668584 -0.008746386 -0.28745773
000140 10 7b a4 3c 02 36 81 be e2 6a 8e 3e f6 ed 5e be
       0.020078212 -0.25236517 0.2781592 -0.21770462
000150 21 84 9d 3d 3d 14 15 3e b2 f8 37 3d 04 68 77 be
       0.07691217 0.14558502 0.04491491 -0.24160773
000160 b8 67 38 3e d0 48 69 3d 91 bd 03 3e d3 44 8f 3e
       0.18008316 0.056954205 0.12865283 0.27982196
000170 ad bc 27 3e 3c c5 c9 bd db 05 df bd 5e 4c 9a 3e
       0.16380568 -0.098520726 -0.10889789 0.3013639
000180 9d 2b e7 bd bb cd 8a be 86 fe 36 3e 3a 6c 89 bd
       -0.112876154 -0.27110085 0.1787053 -0.06710096
000190 38 4f 67 3e b2 b4 90 3e 8c 27 2d be 85 54 fd bd
       0.22588813 0.2826286 -0.16909617 -0.123696364
0001a0 72 8a 16 3e 13 d9 85 3e 90 72 8f 3e 2f 78 6f 3e
       0.1470125 0.26142177 0.28017092 0.2338569
0001b0 64 e4 07 3e bf 1c 99 3d 39 34 ab bd 50 eb b9 3c
       0.13270718 0.07476186 -0.0835957 0.022695214
0001c0 8c a2 84 be 00 6f bc bd fd c9 02 3e 03 f5 0b be
       -0.25905263 -0.09200859 0.12772365 -0.13667683
0001d0 09 2b 51 3e cd 1b 9f bc a3 cc e9 3d d3 08 86 3e
       0.20426573 -0.019422436 0.114159845 0.26178607
0001e0 ea 99 15 3e b1 a8 34 3c e8 58 88 be 70 4f c8 bc
       0.14609495 0.011026547 -0.2663033 -0.024451941
0001f0 c3 3e 72 be 2e d2 53 be b0 4c 8e 3e 91 0f 13 3e
       -0.23656754 -0.20685646 0.27792883 0.14361407
000200 68 6b 1a be 56 89 dc 3d 4a da 83 3e 3f ba d1 bc
       -0.15080035 0.10768382 0.2575248 -0.025601504
000210 33 2d d7 bd 30 06 02 3e 07 e8 c0 3c 54 c0 54 be
       -0.10506668 0.12697673 0.02354814 -0.20776492
000220 18 06 00 bd 00 6b 8c 3a fc 27 28 bd 5e 3e 61 3b
       -0.03125581 0.0010713041 -0.041053757 0.003436945
000230 49 ea 87 be 8d 4e d2 bd 82 e1 f0 bd 98 c6 22 3e
       -0.26545933 -0.102688886 -0.11761762 0.1589607
000240 d0 a3 bb bd 8e 9c b7 bd 26 3e 70 be d4 90 3e bd
       -0.09162104 -0.08965407 -0.23461208 -0.046524838
000250 c4 aa 13 be a8 5e 1e 3d ee 0e 0b 3e e4 d6 87 bd
       -0.1442061 0.03866449 0.13579914 -0.06632784
000260 33 40 86 be 30 cb 8b be 44 2a 39 3e b6 ec c8 bd
       -0.26220855 -0.27303457 0.1808253 -0.09810774
000270 62 f9 1d 3e f1 b3 91 be 95 58 85 be ac 23 3e be
       0.15427163 -0.28457597 -0.26044145 -0.18568295
000280 54 84 13 3e 6e 5a 9b bd 72 bf 64 3e b1 01 59 3e
       0.14405948 -0.075856075 0.22338656 0.21192051
000290 e4 f6 55 be 85 25 54 be 90 a7 94 be 25 d2 08 3e
       -0.20894963 -0.20717438 -0.2903409 0.13361414
0002a0 aa 84 85 be 2b 81 94 3e d8 6c b2 bd 3e a5 84 3e
       -0.26077777 0.29004797 -0.087121665 0.2590732
0002b0 ae ea 4e be 8c 2d 00 3e 76 34 76 3e 1f ab f2 3c
       -0.2020671 0.12517375 0.2404345 0.029622613
0002c0 cf 9a 36 be a5 c3 58 3d af ad c6 bc 64 00 84 3d
       -0.17832492 0.052920956 -0.02425274 0.06445387
0002d0 3b 8d 59 be df 6f 9d 3d 3c 67 9b bd 84 7e 87 3d
       -0.21245281 0.07687353 -0.0758805 0.06615928
0002e0 13 30 88 be 48 22 26 be a7 b1 ca bd b0 07 ec bd
       -0.26599178 -0.16224015 -0.09897166 -0.11524904
0002f0 64 41 c6 3d 3d 3c 7a 3e 9f 98 69 be b2 52 75 3e
       0.09680441 0.24437042 -0.22812127 0.23957327
000300 54 46 40 3e f6 0b ba 3c af a2 8c be 00 44 75 3d
       0.18776828 0.022710782 -0.27467868 0.059879303
000310 20 2d 06 bd f8 ee c6 3d 04 d4 02 be 1a 86 b9 3d
       -0.03275788 0.097135484 -0.1277619 0.09058781
000320 0e 81 b5 bc d0 09 ce bd f0 79 dc bc 2a fd 8b 3e
       -0.022156265 -0.10060465 -0.026913613 0.27341586
000330 14 85 ea 3c 5a 52 42 be 4c c6 80 3d 74 03 9f 3d
       0.02862791 -0.18976727 0.06287822 0.077643305
000340 40 45 31 bd 98 22 2b be 85 a3 1b 3d b3 0d 23 3e
       -0.043278933 -0.16712415 0.03799774 0.15923195
000350 5a be 17 3e e1 63 11 bc 8c ae 8f 3d c6 b5 2c bd
       0.14818707 -0.008873911 0.07015714 -0.04216554
000360 46 9a 4f 3e ac 52 5d 3d ea 19 3f 3e 48 b7 02 3e
       0.20273694 0.05403392 0.18662229 0.12765229
000370 6c 78 f6 3d a8 1e 62 bd 11 f4 0c 3d 75 20 a3 bd
       0.120346874 -0.055205017 0.034412447 -0.07965175
000380 02 d2 3c 3e e8 fd 8e 3e 7c 76 30 be bb 73 19 be
       0.18439487 0.2792809 -0.17232698 -0.14985554
000390 bf ee d9 3d 46 89 75 be 9c b8 2f 3d d8 c0 78 3e
       0.1064124 -0.23978147 0.042900667 0.24292314
0003a0 17 e7 08 be 20 d3 86 bc d2 74 f5 3b b2 8b 8e 3e
       -0.13369404 -0.016458094 0.0074907327 0.27840954
0003b0 94 84 28 be 29 39 8e be 34 a4 6b 3e a0 f1 62 be
       -0.16456825 -0.27777985 0.23011857 -0.22162485
0003c0 60 a6 11 3e 1d 98 00 be b9 b3 13 be b0 1e 3d 3e
       0.14223623 -0.12558027 -0.14424028 0.18468738
0003d0 40 51 78 3c 88 89 40 3e 7b b4 5c be 06 00 ea bd
       0.01515609 0.18802464 -0.21553223 -0.11425786
0003e0 66 fb c4 bd b8 35 c3 3d e2 86 86 be 16 ce 53 be
       -0.09618263 0.095317304 -0.26274782 -0.20684084
0003f0 a0 5e fc 3d 66 be 71 be 34 7b 42 be 3c ba 4e bd
       0.12322736 -0.23607787 -0.18992311 -0.050470576

actor.0.bias f4 [256]
000000 12 d7 c1 3b 22 e8 21 be bc 50 32 bd 1e cd 42 3e
       0.005915531 -0.15811208 -0.043534026 0.19023558
000010 b7 38 02 3e 0b 34 d6 3d 82 82 47 3e 8b 6b 43 3e
       0.12716947 0.10459145 0.19483379 0.19083993
000020 30 63 d4 3d d4 21 8e 3e f3 5b c7 3c c7 d5 92 3c
       0.10370481 0.27760184 0.024335837 0.017924203
000030 f4 03 50 be fe 67 49 3d e1 a9 7e be 4f a9 01 be
       -0.20314008 0.04917144 -0.24869491 -0.12662242
000040 6b e5 5f be cb 39 01 be 8d a7 6a be 80 e0 01 3e
       -0.2186486 -0.12619703 -0.22915478 0.12683296
000050 84 f3 3e 3e 50 98 63 3d 27 dc 58 3e a9 f5 69 3a
       0.18647581 0.05556518 0.21177731 0.0008924851
000060 22 d2 79 be be 79 aa bd 4e 03 91 bd ee 24 53 3e
       -0.24396566 -0.08324002 -0.070807084 0.20619556
000070 36 74 fb 3d a8 6a ec 3d 3f 03 85 3e 71 fa 9e 3d
       0.12278025 0.115437806 0.2597904 0.07762612
000080 41 36 45 3e ee e3 eb 3d 9d f1 81 3e 24 59 73 be
       0.19258977 0.115180835 0.2537965 -0.23764473
000090 74 29 90 3d 3c 93 b2 bd 1e 9c e2 3d e0 d0 19 3e
       0.070391566 -0.08719489 0.11064933 0.15021086
0000a0 70 eb 87 be c1 45 40 3e b6 d1 67 3e c5 e8 48 be
       -0.26546812 0.18776609 0.22638592 -0.19620045
0000b0 3b a7 65 3e 21 a5 15 3e 90 ff 80 3e 7d a5 5c 3e
       0.22427075 0.14613773 0.2519498 0.21547504
0000c0 e8 a7 97 3e 74 93 50 3d 08 9f 90 3e 4d cb 42 3e
       0.2962029 0.050921872 0.2824633 0.19022866
0000d0 0c 47 91 3e d0 fd 8f 3d 72 2c 39 be 58 de f1 3d
       0.28374517 0.07030833 -0.18083361 0.11809987
0000e0 51 b5 03 3e 2e 52 0f 3e 6d 1e 69 be 32 3e 62 3d
       0.12862135 0.13996193 -0.22765513 0.055235095
0000f0 a0 5e c2 3d 21 27 8f 3c 50 8a 25 3e 64 27 8b be
       0.094907045 0.017474713 0.16166043 -0.2717849
000100 a5 23 43 be 0a 66 0e 3e d2 0d 02 be 99 1f 0b 3e
       -0.19056566 0.13906112 -0.12700585 0.13586272
000110 06 1b 07 bd dd e4 c2 3d 5c cd 87 be 7f a7 86 bd
       -0.032984756 0.095163085 -0.26523864 -0.06574916
000120 4f ef 74 3e d9 ca 23 3d 2b 39 57 3d e7 15 84 3e
       0.23919414 0.039988372 0.052544754 0.2579796
000130 11 00 0e be 82 5e 04 3e 88 d8 14 3e fa 46 d9 3d
       -0.13867213 0.12926677 0.14535725 0.10609241
000140 b2 14 e2 bd fd 64 bf bd f8 35 22 3e f9 5b 95 bd
       -0.110391036 -0.09345434 0.158409 -0.07292933
000150 60 b5 42 3e 32 f7 25 be 39 df 7f 3d 6c b1 b8 bc
       0.19014502 -0.16207579 0.06246874 -0.022545539
000160 f8 17 b0 3d d1 c5 ec 3c c0 c8 a2 3b aa 0e 72 3e
       0.08598322 0.02890292 0.004967779 0.23638406
000170 82 d0 71 be c5 e1 1d 3d 26 ba 7a be d4 95 1a 3e
       -0.23614696 0.03854539 -0.24485072 0.15096217
000180 a8 ee 6a be 54 e0 fe bd fa d3 80 bd de 1e 81 3e
       -0.22942603 -0.12445131 -0.06290431 0.25218862
000190 7e 7f a0 bd 2a c1 87 bc e0 a8 35 3d bb 78 6a 3e
       -0.07836817 -0.0165716 0.044350505 0.22897618
0001a0 5a d9 ed 3d 75 a8 8b be 0e a5 2d 3e f1 e0 fd bd
       0.11613722 -0.2727696 0.16957495 -0.1239642
0001b0 93 59 29 3e 67 41 6f be 9d 61 e9 3d b5 01 68 be
       0.16538076 -0.23364793 0.113955714 -0.22656901
0001c0 4d cf d7 3d c6 a7 98 3c 41 47 b6 3d 9c 9a 3f 3e
       0.10537586 0.018634688 0.08900309 0.18711323
0001d0 0f e6 ab 3d 1e 7b 47 be 08 dd 72 3e c0 25 a1 3c
       0.083934896 -0.19480559 0.23717129 0.01967132
0001e0 a6 45 bb bd 83 ec 4d be 47 22 00 bd 16 eb 84 be
       -0.09144144 -0.20109753 -0.03128269 -0.25960606
0001f0 63 3a 79 be 50 a8 53 3e a3 d9 84 3e c4 59 14 be
       -0.24338679 0.20669675 0.25947294 -0.14487368
000200 1d e2 92 3b 04 7f 8f 3e cd bb 30 be 06 9a 6d 3e
       0.004482521 0.28026593 -0.1725914 0.23203287
000210 e0 49 35 be 01 aa 18 3e 40 f9 c9 3c 1c 27 44 3d
       -0.17703962 0.14908601 0.024654984 0.04788886
000220 39 81 18 3e 70 73 81 3e 50 7a 8c 3c 0d 84 70 be
       0.14893045 0.25283384 0.017148167 -0.23487873
000230 29 e9 b3 bc be 86 13 be 8e 21 f6 bd a9 b1 2e be
       -0.021961765 -0.14406869 -0.12018119 -0.1705996
000240 3e 62 89 bd aa 42 bb bd 3e d4 0d 3e 33 70 8c 3e
       -0.06708191 -0.091435745 0.13850495 0.2742935
000250 a8 d1 3b 3d c1 d5 86 be f6 3a 12 3e f5 71 36 3e
       0.04585424 -0.26334956 0.14280304 0.17816909
000260 0e f0 0e be fa aa d6 bd 4c a1 34 bd 2c 76 1b be
       -0.13958761 -0.1048183 -0.044099137 -0.15181798
000270 df 5c 85 bd 3a 82 15 3e 22 42 1e 3e 7a c0 4a 3d
       -0.065118544 0.14600459 0.15454915 0.049499966
000280 28 f8 f4 bc 28 66 65 3e 2a 48 0f be c0 17 92 bd
       -0.029903486 0.22402251 -0.13992372 -0.07133436
000290 eb e8 1e be 1f b6 05 be da fc a3 3c 29 40 31 3e
       -0.15518539 -0.13057755 0.02001803 0.17309631
0002a0 a0 a2 d9 3d 0f 14 9d bd fa d7 e0 3c 8a 28 95 bd
       0.106267214 -0.076698415 0.027446736 -0.07283123
0002b0 85 87 82 3d b7 48 d0 3d f9 fa 31 3e 08 48 71 bc
       0.063735045 0.10170119 0.17380895 -0.014726646
0002c0 c2 2b 5a be 29 bf b0 bd 85 84 35 bd 55 80 35 be
       -0.21305755 -0.08630211 -0.044315834 -0.17724736
0002d0 66 4e a8 3d dd 36 80 3e 46 c8 66 be 56 dc fa bd
       0.08218078 0.25041857 -0.22537336 -0.12249057
0002e0 9c 3f 05 3e e0 93 28 3e e0 e3 85 bd 3d 62 7f 3b
       0.13012546 0.1646266 -0.06537604 0.0038968467
0002f0 8f 3d 0a be a1 12 46 3e 6e ae 76 3e 77 2a 89 be
       -0.13500045 0.19343044 0.24089977 -0.2679021
000300 13 f1 03 be e4 7f 16 3d 26 88 4e be 0d 67 78 3e
       -0.12884931 0.03674306 -0.20169124 0.24258061
000310 4b 68 e4 3d e2 c0 11 bd 42 00 8e be cb 0d 90 be
       0.11152705 -0.035584338 -0.27734572 -0.28135523
000320 1d 4b 06 be 14 bb e7 bd a1 b3 02 be 37 2f 70 bc
       -0.13114591 -0.11314979 -0.12763835 -0.014659694
000330 1b 89 e3 3d 88 3d 07 3b 97 b2 78 3e 74 2e 33 3d
       0.11110135 0.002063604 0.24286877 0.043745473
000340 9f 12 26 3e 45 85 1f 3e e4 34 8c 3e 9c d0 66 3e
       0.16218041 0.15578182 0.27384102 0.22540516
000350 cc d2 b6 bc 6d 17 2f 3c 78 ea 2f be f6 19 52 bd
       -0.022317313 0.0106867375 -0.17179286 -0.05129429
000360 65 ac a0 3d 00 ac ad 3d e2 ff 8a bd 05 3b 21 3d
       0.07845382 0.08480072 -0.06787087 0.039362926
000370 e2 3e 8f be 81 ce 05 3d eb de 43 be 3a 41 95 bc
       -0.27977663 0.03266764 -0.19128005 -0.018219579
000380 d5 1e 88 3e e2 08 2d 3e e2 17 da 3d 71 fb 86 bd
       0.26586023 0.1689792 0.106490865 -0.065909274
000390 60 54 db bd 61 f8 51 be 07 07 8e 3e 68 49 5f 3d
       -0.10709453 -0.20504905 0.27739736 0.054513365
0003a0 97 e7 be 3d 8b 3f 8a 3e b0 5b ec 3d 63 d6 19 be
       0.09321516 0.27001604 0.115409255 -0.15023188
0003b0 ad 52 21 bb e3 7f d2 3d fd 66 ee 3d fc 83 7b 3a
       -0.002461593 0.10278299 0.11640737 0.00095945573
0003c0 e6 13 02 3d 9b 47 66 3e a6 76 2e be 6b 84 a2 bc
       0.031757258 0.22488253 -0.17037448 -0.019838532
0003d0 9f 8e 78 bd 2c 4e 80 3e c6 91 5c bd e0 49 89 3d
       -0.06068289 0.2505964 -0.053849958 0.06703544
0003e0 10 b7 7f 3e 1b 5a cd 3d e4 53 ea 3d 08 d3 62 be
       0.24972177 0.10026952 0.11441782 -0.22150815
0003f0 95 80 1b be 08 fc 28 bd cb f4 8e 3e 19 c4 32 3d
       -0.15185769 -0.04125598 0.27921137 0.043644045

actor.2.weight f4 [256, 256]
000000 9c f4 a0 3c f3 b9 1a 3d 43 5f 37 bb 68 a6 a3 3c
       0.019647889 0.03777499 -0.0027980364 0.01997681
000010 cb 52 83 ba 4f a8 cb bc 68 f1 14 bd cd 9a 45 bd
       -0.0010019181 -0.02486053 -0.036363035 -0.048243333
000020 75 15 c5 bc 00 33 7a 3d 12 99 38 bc 25 c0 0c bd
       -0.024058083 0.061083794 -0.011266964 -0.03436293
000030 26 ae 2e 3d 50 8a 03 bd b3 23 73 3d 78 9a 58 bd
       0.04264655 -0.032114327 0.059360217 -0.052881688
000040 91 cc 81 3d 38 76 b2 bc 48 58 ac bc 84 ac 6f 3d
       0.06337846 -0.021784887 -0.02103819 0.058514133
000050 58 bf 64 3d 68 e3 10 3d e0 86 83 bc 50 44 37 3d
       0.055846542 0.03537312 -0.016055524 0.044742882
000060 9f 93 33 3d e1 38 e6 3c f7 93 90 3c 3c 33 3f bd
       0.043841954 0.028103294 0.01764868 -0.04667972
000070 b0 24 df bb f4 6a 1b 3d 19 02 f4 3c 15 03 08 bd
       -0.0068097934 0.037943795 0.029786156 -0.033206064
000080 20 c6 96 bd 79 5e a6 bb 5f 08 60 3d f8 32 72 3c
       -0.07362008 -0.00507718 0.054695483 0.01478266
000090 78 50 18 bc 26 d6 10 3d 0f 65 d0 3c 60 82 30 bc
       -0.009296529 0.035360478 0.025438813 -0.010773271
0000a0 8e c3 2d bd ba 3b 4f bd 96 98 43 bd 14 06 ed 3c
       -0.042422824 -0.05059407 -0.04775294 0.028933562
0000b0 b0 83 8f bc 2a d1 4b 3d d1 40 de 3c ce 13 02 3d
       -0.017518848 0.04976002 0.027130516 0.03175717
0000c0 c4 54 31 bd b7 1c b1 bc c0 e1 5e bd eb cb 24 3b
       -0.04329373 -0.021620138 -0.05441451 0.0025145959
0000d0 40 80 3a 3b 08 0e c7 3c 2a 24 47 bd 12 ed 8c bd
       0.002845779 0.024298683 -0.048618473 -0.06881155
0000e0 1a 72 3d bd e6 3a 7d 3d ae 95 3c 3d 65 15 53 bd
       -0.046251394 0.061823748 0.046041183 -0.051534075
0000f0 fa ea 85 bd 20 0c 9d 3c cf e3 10 bb 10 ae 81 3b
       -0.06538959 0.01917082 -0.002210844 0.0039575174
000100 dd 8d f1 3c 0a f3 c8 bc fc 30 92 3c 2e c6 83 3d
       0.029486591 -0.024529953 0.017845623 0.06434284
000110 c4 66 5d bd 49 5a 5a bd ee dc 0f 3d fc d1 39 3d
       -0.054053083 -0.05330876 0.035122804 0.045366272
000120 38 6b 76 bd b0 77 c9 bc 58 e0 72 bc 20 64 0d bd
       -0.060160846 -0.024593204 -0.0148239955 -0.034519315
000130 e4 fe fd bc d5 02 6a bc d2 fe 40 bd 47 ff d5 3c
       -0.03100533 -0.014282902 -0.047118016 0.026122702
000140 e9 c5 f3 ba d7 6f 7b 3c 69 b9 0f bd 27 51 ef bc
       -0.001859841 0.015346489 -0.03508893 -0.029213501
000150 d0 f1 74 3c c2 cf 19 bd b5 07 26 bd a3 0c 35 3d
       0.014950231 -0.03755165 -0.040534694 0.044201504
000160 30 a0 14 bc 6c 60 03 3d 9c c8 98 3c e6 4b cc 3c
       -0.009071395 0.032074377 0.018650346 0.024938535
000170 b6 43 27 3d e5 c2 88 3d 44 4f 0b 3c fb 26 7b 3d
       0.04083606 0.06677798 0.008502785 0.06131647
000180 50 c5 73 bd df 65 2f ba 94 e7 dc bc b1 05 54 3d
       -0.059514344 -0.00066909 -0.026965894 0.05176324
000190 e8 2b 7e 3c 21 5a 1d bd 1a ae 17 bd f9 2f 84 bc
       0.015513398 -0.03841603 -0.03703127 -0.016136156
0001a0 0e 06 6e bd 98 27 86 3c c3 55 71 3c b8 b6 6d bd
       -0.058111243 0.016376302 0.01472992 -0.058035582
0001b0 43 d9 e8 bc c8 72 ce 3c a9 3d 3b bc cd ec 95 bc
       -0.028423911 0.025201216 -0.011428275 -0.018301392
0001c0 82 d0 76 3d 1e e7 90 3b 6f 9d 8a 3d 70 84 37 bc
       0.060257442 0.0044220826 0.06768309 -0.011201009
0001d0 33 5a a6 bc 8c a2 3b bd 60 53 b5 3c 56 cb 6a bd
       -0.020306682 -0.045809314 0.022134483 -0.057322823
0001e0 e0 c2 e7 bc a0 2f 87 bc 70 07 1a 3b 51 30 85 3d
       -0.028291166 -0.016502202 0.0023502968 0.06503356
0001f0 4a 21 76 bd 28 bd 71 bd dc a8 57 3d 08 f3 45 bc
       -0.06009034 -0.059018284 0.05265127 -0.012081869
000200 16 fc 1a bd 98 a6 66 3c e9 f5 f4 bc 40 f6 11 bb
       -0.037838064 0.014077805 -0.029902415 -0.002227202
000210 a6 7d 35 3b 34 65 37 bd 61 35 45 bd c2 19 69 3d
       0.00276933 -0.04477425 -0.04814661 0.05690933
000220 e4 bb 75 bd c7 62 47 bd 73 a3 1d bd 46 f8 89 3c
       -0.05999364 -0.048678186 -0.038485955 0.016842019
000230 c9 08 0a 3d 52 7d 4d 3d 0b 10 ea 3c 61 2b 85 bd
       0.033699784 0.050168343 0.028572103 -0.065024145
000240 af 7f 7f 3d 99 84 08 bd e1 45 02 3d 7c 24 e5 3c
       0.062377628 -0.03332958 0.031804923 0.027971499
000250 12 23 ae 3b 91 19 20 bc 00 11 3c bd e3 a0 08 3d
       0.0053142393 -0.0097717205 -0.04591465 0.03335656
000260 1c 24 d7 3c fe 76 19 bd 24 c8 38 bc 29 44 fe 3b
       0.026262335 -0.037466995 -0.011278186 0.00775959
000270 f4 49 1b bc 34 89 ec bc 25 37 1d 3d 0f f1 bb 3c
       -0.009478081 -0.028874017 0.038382668 0.022942094
000280 80 21 53 3d 30 64 b7 bb 7c 9e 44 3d 31 77 5f 3d
       0.05154562 -0.00559666 0.048002705 0.05455703
000290 11 6f 12 3d 7a 1f 31 3d 80 25 6d 3d fc 8d 10 bd
       0.035750452 0.04324291 0.05789709 -0.035291657
0002a0 70 e5 a0 bc f5 f9 bc bb 20 c8 48 bc 3e 99 45 bd
       -0.019640654 -0.005767102 -0.012254745 -0.048241846
0002b0 15 f0 e7 bc 85 d7 89 3b 2a e2 a9 bc 50 a5 ac bb
       -0.028312722 0.0042066 -0.020737726 -0.00526873
0002c0 a2 a0 36 bc 46 91 80 3d da 5a 10 3d 06 19 cf 3c
       -0.011146696 0.06277709 0.035242893 0.025280487
0002d0 2e 17 52 bd 92 c0 12 bd b4 a7 ff bc 0a 37 ce 3c
       -0.051291637 -0.03582818 -0.031207897 0.025172729
0002e0 8f dd 85 bc 00 42 ac 3b f8 f1 1d bd c5 6e 30 3d
       -0.016340999 0.0052568913 -0.038560838 0.043074388
0002f0 84 85 44 3d 98 08 49 3d 60 3d b0 bc 7f d1 15 bd
       0.047978893 0.04908046 -0.02151364 -0.036576744
000300 78 e1 56 bc b0 22 fc bb 96 1a 64 bd 8c 90 71 bd
       -0.013115279 -0.0076945648 -0.055689417 -0.05897574
000310 80 fc c1 ba 9d 23 c6 3c 94 a4 0b 3d c3 8f 3d bc
       -0.0014799982 0.024186904 0.0340925 -0.01156992
000320 dc 5a c2 3c b8 86 1c bd 07 ab 1a bd b7 e9 48 bd
       0.023724966 -0.038214415 -0.03776076 -0.049051013
000330 20 a5 7e bc 40 ea e8 bc 2d 6e 6f bc fd 79 19 bd
       -0.015542299 -0.028432012 -0.01461367 -0.037469853
000340 29 15 8e 3b 14 e5 98 3c da 8c 69 3d b8 40 6e 3c
       0.0043360186 0.01866392 0.057019092 0.014541797
000350 74 52 91 3c 24 f8 5c bd 20 20 60 3c 72 c6 f8 bc
       0.017739512 -0.053947583 0.013679534 -0.030368064
000360 97 22 09 3d ce 2f 4f 3d 47 75 28 ba 82 42 2b bd
       0.033480253 0.0505827 -0.0006426167 -0.041811474
000370 da e4 fc bb cd 2c 22 bd 06 10 4e bd dd 00 9d bd
       -0.007717711 -0.039593507 -0.05030825 -0.0766618
000380 eb 12 df 3c 9b 10 3d 3d 22 90 7f 3d 1c 9d e9 3c
       0.0272307 0.046158414 0.062393315 0.028517298
000390 b4 29 82 bc 6c c6 12 bd 5b bb 3c ba 7e 9e 2b bd
       -0.015889026 -0.03583376 -0.0007199549 -0.041899197
0003a0 6c 55 65 3b 14 be 2e bd ea 51 3d 3b 66 1d 45 bd
       0.0034993542 -0.04266174 0.0028887936 -0.04812374
0003b0 14 91 f8 3c 23 3a 75 bd 27 8b 12 bd ce 1b 40 3d
       0.030342616 -0.059869897 -0.035777237 0.046901517
0003c0 04 9a 23 bd f3 8d 1d bd 0c dd 89 bd ec a2 63 bd
       -0.039941803 -0.03846545 -0.067316145 -0.055575296
0003d0 20 d4 d6 bb 7e 43 72 3d 1e 7c 53 bd 48 14 0e bd
       -0.006556049 0.059146397 -0.05163204 -0.03468731
0003e0 09 90 a6 bc 1e 30 73 bd 1a c7 d9 bc 20 5f 96 bb
       -0.020332353 -0.05937206 -0.026584197 -0.0045889765
0003f0 8b 24 a3 3b 94 3c 34 bd d1 18 00 3d 68 a3 42 3c
       0.0049787215 -0.044003084 0.031273667 0.011879779

actor.2.bias f4 [256]
000000 68 bb 2b 3d 6e 19 b5 bc 1e 40 6c bb 3e 65 41 bd
       0.04192677 -0.022106852 -0.003604896 -0.047215693
000010 47 64 b7 bc de dd 44 bd 68 d3 a7 bc 74 70 f3 bc
       -0.022386683 -0.04806315 -0.020486549 -0.029716708
000020 d7 1f e1 3c 90 2c 68 3c ad 9b 5e 3d ab 40 89 3c
       0.027481003 0.014170781 0.054347683 0.016754469
000030 67 fb 14 3d 50 7f ef ba f3 78 5a 3d c2 70 c4 ba
       0.03637257 -0.0018272195 0.053338002 -0.0014987218
000040 c4 da cf bc 51 dc 61 3c 63 09 bf 3c ed f0 85 3b
       -0.02537287 0.013785438 0.023319906 0.0040875585
000050 ee 3b 2b bb 15 78 2f bd 93 c1 01 bd 00 e2 2d b9
       -0.002612825 -0.04283913 -0.031678747 -0.00016582757
000060 33 25 d7 3c 8b 1d 1f bc 3c c4 47 bd a6 3a 06 3d
       0.026262855 -0.009711633 -0.048771128 0.032770775
000070 57 dc 0c bd bf bf 0e 3d 98 b8 6f bc 20 44 99 bb
       -0.03438982 0.034850832 -0.014631413 -0.0046773106
000080 20 54 d8 3c 98 aa a0 bc 30 8f 92 bb 07 2c 0c 3b
       0.026407301 -0.019612595 -0.0044726357 0.0021388547
000090 b0 c2 3e bd 47 92 05 3d 61 36 14 bd dd d5 49 bd
       -0.046572387 0.032610204 -0.036184672 -0.04927622
0000a0 c4 f0 23 3d fa 7a 85 3b 40 59 d1 3c 43 f6 48 3d
       0.040024534 0.004073498 0.025555253 0.04906298
0000b0 ec 96 52 3d 9c 66 2e 3d e8 3c f1 bc f4 c8 9f bc
       0.05141346 0.042578325 -0.029447988 -0.019505002
0000c0 f9 41 ad bc 66 4e af 3c 2c 74 8e 3c e6 ad 77 bd
       -0.021149622 0.021399688 0.01738938 -0.060468577
0000d0 ff 85 a1 bc b8 81 54 bd 51 8d 52 bd 70 63 62 bd
       -0.019717215 -0.051881522 -0.0514043 -0.055270612
0000e0 60 18 4f 3c d8 94 a5 bc 59 94 75 3d 43 9b 68 3d
       0.012640089 -0.020212576 0.05995593 0.056788694
0000f0 64 7b d6 3c a4 1b dd bc 46 1d 64 3d 93 db 3f bc
       0.026181884 -0.02699072 0.05569198 -0.011710065
000100 a7 33 a2 3c da 3f 7d bd 29 91 06 bc e0 22 68 bb
       0.01980002 -0.06182847 -0.00821332 -0.0035421178
000110 9a 65 54 3d 55 92 d3 bc 4c 1c 95 3c 68 6c 34 bd
       0.051854707 -0.025826612 0.01820197 -0.044048697
000120 11 ed 36 3d 7c 0c 0c bd a1 2b 10 3d 6c 6a f1 bc
       0.044659678 -0.034191594 0.035197858 -0.029469691
000130 48 6d 87 3d 87 d6 a5 bc 16 b1 8b 3b 14 97 44 3d
       0.066126406 -0.020243896 0.0042630536 0.04799564
000140 ae e1 7d 3d ac 52 a1 bc ce bb 1f 3d bc 3e d7 3c
       0.061982803 -0.019692741 0.038997464 0.026275031
000150 7c be 97 bc 2f 48 ff 3c e3 9f 1b bc e8 57 b1 bc
       -0.018523447 0.03116235 -0.009498569 -0.021648362
000160 c0 cc 6a 3d 20 c5 e5 bb 7a 74 9a 3c cc 43 2a 3d
       0.05732417 -0.0070120245 0.018854368 0.041568562
000170 35 6b 52 bc d6 3a c2 3c b6 c7 81 bd ee 72 46 3d
       -0.012842943 0.023709696 -0.0633692 0.04844945
000180 00 9d 6c 3c e8 2f 00 3d f7 7e fd bc 21 e2 4f bc
       0.014441729 0.031295687 -0.03094433 -0.012688191
000190 15 a9 6a bc 1f 73 cb 3c d8 1e 56 3c 7c 65 24 bd
       -0.014322539 0.024835167 0.013068877 -0.040135846
0001a0 a8 04 28 3d 4e e3 cf 3c fd ed 11 bc a2 7c 01 3c
       0.041020066 0.025376942 -0.0089068385 0.00790325
0001b0 ec ec 5d 3d 77 84 43 3c 06 5b b3 3c 2f 56 4b 3c
       0.054181024 0.011933438 0.02189399 0.0124106845
0001c0 d8 46 26 bc 96 54 5b 3c d1 34 41 bc ce 32 a7 3c
       -0.010148726 0.013386866 -0.011792378 0.020409968
0001d0 64 d2 96 3c 68 d6 8e bc 4d 0a 0e 3d f1 95 80 bc
       0.018410869 -0.017436221 0.034677792 -0.015696498
0001e0 8c 8a 4d 3d 50 21 84 bc 58 e3 a0 bc 17 16 8e 3d
       0.050180957 -0.016129166 -0.019639656 0.06937807
0001f0 f0 e4 79 3d b5 bb 68 3c d8 90 62 3d a6 17 06 bd
       0.061009347 0.014204909 0.055313915 -0.032737397
000200 9d e0 91 bc 21 f9 c4 bb 64 31 80 3d 88 98 19 3d
       -0.0178073 -0.006011144 0.062594205 0.03749898
000210 83 32 48 3d 8b 18 5c bd 38 3c 98 3c 34 d9 64 bd
       0.048876297 -0.053734343 0.018583402 -0.055871204
000220 18 0f 3c 3d 46 08 75 3d 2a 93 4c bd d7 3a 50 bd
       0.045912832 0.059822343 -0.049945034 -0.050837364
000230 27 e3 31 bd ce b1 21 bd 5c 92 29 bd d4 14 04 3d
       -0.04342952 -0.03947621 -0.041399345 0.032246426
000240 bb 19 06 3d 82 de 38 bd 7c 85 0d bd 3b 19 5c 3a
       0.032739382 -0.045134075 -0.03455113 0.00083960936
000250 6a e0 00 bd 16 59 59 bc 0b 93 58 3c f0 37 47 3d
       -0.031464018 -0.013265869 0.0132186515 0.04863733
000260 54 69 3c 3d 42 c8 78 3d da 1c 21 bd c8 8a 0b 3d
       0.045998886 0.060737856 -0.039334156 0.0340679
000270 85 26 fe bc 12 1c 20 bd e2 25 20 3d 5b fb 6d 3d
       -0.031024227 -0.03908927 0.039098628 0.05810104
000280 03 77 93 3c 6e cb 90 3c 7d 84 3d bd be ca 4f bd
       0.018001085 0.017675128 -0.04626893 -0.05073046
000290 83 95 4f 3d a2 ed 85 bc 82 2b 28 3d 43 55 fc bb
       0.050679695 -0.016348664 0.041057117 -0.0077005937
0002a0 91 66 e2 3c 2a 24 94 3c a0 bb 24 3d 73 bb af bc
       0.027636798 0.01808365 0.040217996 -0.021451687
0002b0 8e 79 1e bd 20 bd f0 3b 55 24 29 bc 5a 08 a1 3c
       -0.038690142 0.007346764 -0.010323604 0.019657303
0002c0 9c 56 71 bd 39 14 5a bc 46 78 87 bc 00 31 ef ba
       -0.058920488 -0.0133104855 -0.016536843 -0.0018248856
0002d0 30 c3 53 3d 0b 55 f8 3c d0 a8 54 bd ee d3 d1 bc
       0.051699817 0.03031399 -0.051918805 -0.025613751
0002e0 a5 2e df bb 4b 70 f6 bc 7f 01 74 3d ce 72 40 bd
       -0.0068109804 -0.030082842 0.05957174 -0.046984486
0002f0 64 4a 82 bc a6 b0 2a bc 21 01 24 bd b6 7f 90 bc
       -0.015904613 -0.010418093 -0.04004014 -0.017639022
000300 bb 51 3e 3d 2d 5e 69 bd 24 e3 51 bd a7 14 40 bc
       0.046464663 -0.05697458 -0.05124201 -0.011723674
000310 58 1e 41 3d b1 74 41 bd 86 c7 8a bc b3 fe ea 3c
       0.04714808 -0.047230426 -0.016940843 0.028685903
000320 96 7c de bc a4 27 a1 3c 4c 9e 7a 3d ff c6 41 3b
       -0.027159017 0.019672222 0.06118612 0.0029568074
000330 75 92 99 bc a1 02 1d bc 0a 61 23 bd 1f 43 31 bd
       -0.018746594 -0.009583146 -0.039887466 -0.043276902
000340 2f 08 3f bd 9c 5b 04 bd f0 b4 65 bd 1b 35 c5 3c
       -0.046638664 -0.032313928 -0.05608076 0.024073174
000350 be 68 09 3d 01 0e a8 bc f6 ab 05 3d d2 3f 9a bc
       0.033547156 -0.02051449 0.032634698 -0.01882926
000360 9e b3 7a 3d 0f 4c 82 bd 4e cb 22 3c 10 a9 30 3d
       0.061206453 -0.06362163 0.009936167 0.04312998
000370 3d 0f 91 3c 7e 36 d2 3c 03 4f 94 3d 78 c8 2b 3d
       0.017707461 0.02566075 0.07241633 0.04193923
000380 91 90 c8 3c ce 90 d8 3c 94 03 6f bd fe a3 cc 3c
       0.024482997 0.026436236 -0.05835302 0.024980541
000390 fb 9f 18 3c 25 8c 31 3c a9 64 51 bd 61 08 91 3c
       0.009315486 0.010836636 -0.051121388 0.01770419
0003a0 f6 ce 0c 3d 78 65 bc 3c ef 60 48 bd 0e 35 09 3d
       0.03437706 0.022997603 -0.048920568 0.033497863
0003b0 49 6b 14 3d 26 8f 86 3c 68 4f 41 bd 01 b2 22 3d
       0.036235128 0.01642568 -0.04719487 0.03972054
0003c0 37 eb 4f 3a e6 25 de 3c ad b1 82 3d 3a d8 44 bd
       0.0007931473 0.02711768 0.06381545 -0.048057772
0003d0 8c 20 8b bc 2a 3f e0 3c 48 c6 e0 bc 6c 34 38 3c
       -0.016983293 0.027373869 -0.027438298 0.011242967
0003e0 04 25 f1 bb 4a 06 09 ba ab 13 2a bc bc 39 f3 3c
       -0.007359149 -0.00052270724 -0.010380666 0.029690616
0003f0 df 50 22 3d 8a 68 fe 3c 5f cf 8e 3d 0b 46 35 bd
       0.039627906 0.031055707 0.06973147 -0.04425625

mean.weight f4 [3, 256]
000000 47 60 9b 3c 69 70 d4 bc 79 eb 2f bd 1b f1 13 3d
       0.018966807 -0.025932508 -0.042949174 0.036118608
000010 f8 81 b6 bc 98 b0 ff bc e7 88 ec bc 79 a2 14 3d
       -0.02227877 -0.031212136 -0.028873874 0.03628776
000020 d4 38 19 bd e9 e9 6b bd 11 b0 8a 3c a3 7e 12 bd
       -0.03740771 -0.05759612 0.016929658 -0.0357653
000030 b1 bd 1a bd 55 ad 50 3d 53 78 78 bc 54 44 c0 3a
       -0.03777856 0.050946552 -0.015165406 0.0014668801
000040 95 63 3e 3b f3 76 1d bd 74 65 b9 bc 57 8f 55 bd
       0.0029051055 -0.038443517 -0.022631384 -0.052138653
000050 e3 c8 4e bd c9 7d fc 3c 60 d1 bd bc 80 0d 86 bc
       -0.05048455 0.030821698 -0.023171127 -0.01636386
000060 ff 84 46 3d e5 cc 88 bc 62 20 40 ba 43 0b 8a 3d
       0.04846668 -0.016699264 -0.0007329044 0.06740429
000070 f1 96 73 3b ef 05 3e bd 3d 02 59 bc 5c 92 c9 bc
       0.0037168826 -0.046392377 -0.013245163 -0.024605922
000080 f4 5b c7 3c 09 9a 00 3d c5 f6 29 bd a0 64 6b bd
       0.024335839 0.0313969 -0.041495103 -0.05746901
000090 0b 1c 38 3d eb d9 d1 3b 63 34 6a 3c 7d 59 75 3d
       0.04494862 0.0064041517 0.0142947165 0.059899796
0000a0 46 9d 6f 3d b3 24 03 3d b0 b7 95 3b f2 ad e4 39
       0.058499597 0.03201742 0.0045690164 0.00043617148
0000b0 70 fe af 3c 8c af ba 3b c6 69 40 bd b4 8a 35 bd
       0.02148363 0.0056971963 -0.046975873 -0.04432173
0000c0 4b 65 a7 bc cc 7e 77 3d be 2c 50 3d 11 66 25 bd
       -0.020434042 0.060423657 0.05082392 -0.04038054
0000d0 af 28 0c 3d 32 6c 39 3d 44 29 11 3c a4 d6 ed 3c
       0.034218486 0.0452692 0.008859936 0.029033013
0000e0 d0 54 95 bc 36 21 15 bd b2 c4 08 3d 6d 6f 87 bb
       -0.018228918 -0.036408626 0.03339071 -0.004133156
0000f0 dc 5c 28 3d 46 88 11 3c d9 a2 5f 3b 3d f2 44 bd
       0.041104183 0.008882588 0.0034124164 -0.04808258
000100 8b 10 3c 3d 1d 7a 62 bd 4e a9 ac bc d4 a2 66 bd
       0.045914214 -0.055292238 -0.021076825 -0.05630763
000110 1b 1c 2d 3d fc f4 0a 3d 52 27 0a 3d 70 27 ed 3b
       0.04226313 0.03392504 0.033728905 0.0072373673
000120 9c 6f ea 3b ce 38 4e 3c 96 c7 2d 3a fb 49 49 bc
       0.007154418 0.0125867855 0.0006629167 -0.012285705
000130 4f f9 1a 3d 16 5b f7 bc 62 6c 02 bd 30 14 f3 3b
       0.037835415 -0.0301948 -0.031841643 0.007418178
000140 b0 61 ab 3b 2c f3 8f bc b8 14 51 3d e1 70 34 bd
       0.005230151 -0.017572008 0.05104515 -0.044052962
000150 e4 1d cb bc 01 53 87 bc 9c c5 c5 ba 32 88 b7 bb
       -0.024794526 -0.016519072 -0.0015088799 -0.0056009525
000160 f6 c3 02 bd 0c 86 96 3c 9e 45 c1 3c bf 1e bd 3c
       -0.031925164 0.018374465 0.023592766 0.02308595
000170 67 02 32 3d 17 8a 5f bd 12 83 9d 3c 58 07 9b ba
       0.043459322 -0.054575052 0.019227538 -0.001182775
000180 60 58 5b bb 86 a1 08 3d 5e 02 6c bd f4 3f 3a 3d
       -0.0033469424 0.033357166 -0.057619445 0.045471147
000190 40 ab 69 bb 59 87 1b bd 08 6f f0 bc 90 bb 0b 3c
       -0.0035655051 -0.037970874 -0.029349819 0.008528605
0001a0 5a f9 9a 3c 22 79 8e bc 7d 98 56 3d f0 d0 eb 3c
       0.018917728 -0.017391745 0.052391518 0.028786153
0001b0 49 5f 36 3d db 6e 87 3d df db e5 3c d7 84 ff bc
       0.044524465 0.06612941 0.028058944 -0.031191273
0001c0 d8 05 de bc 2d 76 4b bd 0b 03 7b 3d c4 4c 41 bd
       -0.027102396 -0.049673248 0.0612822 -0.04719235
0001d0 a4 52 30 bd 75 cd 5b bd 93 23 19 3d dc b5 61 bd
       -0.043047562 -0.053662736 0.03738744 -0.055105075
0001e0 b9 67 fd 3c 1c 2a fe 3c 25 59 1e bc 80 32 83 3d
       0.030933248 0.031025939 -0.009664808 0.064061165
0001f0 d4 79 21 3d 76 04 61 3d f3 8d c8 bc e4 9c 41 3d
       0.039422825 0.054935895 -0.02448175 0.047268763
000200 38 42 12 bb 00 c7 f1 3b 54 f3 3d bc 00 75 d3 3a
       -0.0022317301 0.007378459 -0.0115936585 0.0016132891
000210 59 4b 56 3c 4b ff 5a 3d e6 77 49 bd 27 5b 17 3d
       0.013079488 0.053466123 -0.04918661 0.036952164
000220 59 91 8c bc ee 5b 8c 39 6e 7b 06 3d a7 a2 29 bd
       -0.01715915 0.00026771374 0.032832555 -0.041414883
000230 9a c6 69 bd 08 34 7f 3c 3a 31 14 bd 0c ba 64 3d
       -0.057074167 0.01557637 -0.03617976 0.05584149
000240 0f 8a 92 3c a8 ca 5b bc 80 b8 80 ba 0c c6 6d bd
       0.017888097 -0.013415016 -0.000982061 -0.0580502
000250 55 a6 62 bd 8a 17 84 bd 2a 47 74 3c 1f 70 e2 ba
       -0.055334408 -0.06449802 0.014909545 -0.0017275846
000260 80 c5 e2 bb 70 68 21 bc 8c 93 91 3c 44 b1 80 3d
       -0.0069205165 -0.00985156 0.017770551 0.06283811
000270 2a d1 82 3d 30 f6 6a 3c 2d c6 82 bb 3d ca 9e 3c
       0.06387551 0.014340922 -0.0039909096 0.019383544
000280 e4 0a 67 bd 9f 0d 6f 3d 9b 07 84 3d a0 45 49 3b
       -0.05640687 0.0583626 0.06446763 0.0030711666
000290 8d 22 5c 3d d2 f0 80 bd 02 fc 70 3d a0 81 29 bc
       0.053743888 -0.06295933 0.058834083 -0.010345846
0002a0 cc d6 8c 3d 93 2a b5 bc 07 dc 6c 3d 6d 6c 3c bc
       0.06876907 -0.022115028 0.057827022 -0.01150046
0002b0 da bd 2d 3d 1a af 7d bd 23 1f 0d 3d ce 9f 9d bc
       0.042417385 -0.061934568 0.034453522 -0.01924124
0002c0 de 6c 5b 3b fb 2b de bc c2 f2 58 3a 54 54 de bc
       0.0033481638 -0.02712058 0.000827592 -0.02713982
0002d0 36 24 45 bd 3b af 1a 3c e2 6e 5c 3d 3b 67 5f bd
       -0.048130237 0.009441192 0.053816684 -0.054541808
0002e0 83 2a 48 bd 12 1c 29 3c d7 02 53 bd d0 92 fe bc
       -0.048868667 0.010321634 -0.05151638 -0.031075865
0002f0 67 1e e3 3c 29 28 44 bc 58 6e 16 3d 27 2e 9f 3c
       0.027724458 -0.011972466 0.036726326 0.019431187
000300 ef 9c 9c bb b3 5b 20 bd de a4 a7 39 6a 5f 2e 3d
       -0.00477945 -0.03914995 0.00031975558 0.042571463
000310 78 49 71 3d 7e 12 cf 3c 2b d9 d6 bc e3 33 94 bb
       0.058907956 0.025277372 -0.0262266 -0.004522787
000320 b1 a0 85 3d c4 dd ea bc 87 b0 59 bc 6a 0c 3a bd
       0.0652479 -0.0286702 -0.013286716 -0.045421995
000330 a8 7b 0e 3d 70 93 12 3d 90 6a ca bc 2a fe 87 bc
       0.034785897 0.03578514 -0.024709016 -0.016600687
000340 5d a6 03 bd 0f 12 14 3d 77 20 82 3d f5 84 16 bd
       -0.03214108 0.036150035 0.063538484 -0.03674789
000350 7d e6 91 bc 9d f9 0d bc cd 92 cb bc 57 fa 83 bc
       -0.0178101 -0.0086654695 -0.024850274 -0.016110582
000360 ae 76 64 bd af 1d 52 3d 4d 59 4c 3d 6a ed 40 bd
       -0.055777244 0.05129784 0.04988985 -0.047101416
000370 f1 e2 10 3d e9 3b 30 bd aa 82 18 3d 3a d1 39 3d
       0.03537268 -0.043025885 0.037233986 0.04536555
000380 64 67 d4 3c cf e7 1b bd ae 06 6f 3b cd 02 39 3c
       0.025928207 -0.038062867 0.0036472487 0.011292172
000390 ba da 3e bc 95 12 0a 3d 66 d8 f7 bc 05 84 1c 3d
       -0.011648828 0.033709127 -0.030254554 0.03821184
0003a0 b5 f6 27 3d 60 e8 7f 3d 2a 69 d9 3c 50 80 ba 3c
       0.041006763 0.06247747 0.026539404 0.022766262
0003b0 76 dc f1 3c 29 1b 3e bd 10 20 61 3d d4 da 66 3d
       0.02952407 -0.04641262 0.054962218 0.056361035
0003c0 af 8a e7 bc 78 b4 5b bd bd 9e 97 3d e7 b8 3b bd
       -0.028264372 -0.053638905 0.07403324 -0.045830633
0003d0 30 c9 d2 bc 30 a2 64 3c 01 20 06 bd 37 ff 97 3d
       -0.0257307 0.013954684 -0.032745365 0.07421725
0003e0 ab 5c 55 bd bc 69 f3 bc 96 0b 0b 3d 5c c0 9b 3c
       -0.05209033 -0.029713504 0.033946596 0.019012623
0003f0 8e 90 e5 3c cb 0b 07 bc 19 a9 1d 3d 7e c1 65 3d
       0.02802303 -0.008242558 0.038491342 0.05609273

mean.bias f4 [3]
000000 f1 02 19 ba 3d 67 61 3c 5b 0c 26 bd
       -0.0005836925 0.013757524 -0.040539127

log_std.weight f4 [3, 256]
000000 e2 13 7a 3d 12 b9 14 bd a0 6e ff bb 76 6b 3d bc
       0.061054118 -0.03630931 -0.00779517 -0.011561265
000010 a1 41 31 bd 9c 32 00 3d 92 1e 60 bd 34 33 1a 3d
       -0.04327548 0.031298265 -0.054716654 0.037646487
000020 4c 64 20 3d 21 9b 5b bd 15 02 6b bc 22 7c 48 bd
       0.03915815 -0.05361474 -0.014343758 -0.048946507
000030 78 62 13 3d db f1 5b bd 75 d7 9b 36 e4 c6 68 3d
       0.03598258 -0.05369745 4.6444425e-06 0.056830302
000040 00 a1 01 3d 7a f7 27 3c 01 75 32 bd e2 7a 21 3d
       0.031647682 0.010251874 -0.043568615 0.03942383
000050 e0 2a cf bb 62 e3 58 bd b8 de 43 bd a8 cf ea bc
       -0.00632225 -0.052951224 -0.047819823 -0.028663471
000060 4c 2f 46 3d e0 77 20 3b 05 a9 46 3d 5d 0d 8c bc
       0.04838495 0.0024485514 0.048501033 -0.017096216
000070 5b ef 89 bc 03 af 08 3d 21 e9 2d 3d 6c 04 1e bd
       -0.016837766 0.03337003 0.042458657 -0.038578436
000080 ae 49 39 3d f4 db af 3c b4 ca ac bc 56 f4 16 bb
       0.045236282 0.021467187 -0.02109275 -0.002303382
000090 88 27 37 bd d6 1c d2 3c 5b bc 38 bd 80 37 5b bd
       -0.044715434 0.025648516 -0.045101505 -0.053519726
0000a0 fe 90 6f 3d 97 85 c9 3a fc fd 72 bd 1e 60 6f 3d
       0.058487885 0.0015374896 -0.05932425 0.058441274
0000b0 30 15 05 bc c8 29 04 3d ac 07 61 bd 3c 29 ef 3c
       -0.008122727 0.03226641 -0.054938957 0.029194467
0000c0 73 6f cd bc a0 aa 2b 3d a5 4c ab bc 0e 5d 0d 3d
       -0.025077557 0.041910768 -0.02091057 0.034512572
0000d0 06 a3 3a 3d 20 6a b5 bb cc 58 ff bc fe 0e 48 bc
       0.045565628 -0.0055363327 -0.031170271 -0.012210606
0000e0 fc 47 35 3d 64 40 d9 bc 20 f8 eb 3c 44 f0 69 bd
       0.044258103 -0.026519962 0.028804839 -0.0571139
0000f0 8e 87 1e bd 20 ca 06 bd 6a ca 4c bd 08 5d 38 bd
       -0.038703494 -0.032907605 -0.049997725 -0.045010597
000100 10 ac 01 3d f7 fe 4a bd 19 30 de 3c 12 26 03 bd
       0.031658232 -0.04955956 0.027122544 -0.03201873
000110 43 08 09 bd 1c ce 61 3d 08 bf 6a bd e8 6c 56 3c
       -0.033455145 0.0551282 -0.057311088 0.013087489
000120 12 4b a8 3c 9d 6c 1a bd 2d 67 7c 3d 71 fd e0 3c
       0.020543609 -0.037701238 0.061621834 0.0274646
000130 85 f2 80 3d bd 5c 1d 3d 73 51 67 3d d0 a7 ae 3b
       0.06296257 0.03841852 0.05647416 0.0053300634
000140 60 ff 86 3b 98 8a a6 bc 58 73 ea bc a0 a5 2f 3b
       0.0041197985 -0.020329759 -0.028619453 0.00268016
000150 55 47 64 bd 98 b8 4c bd db 7d f3 3c b9 6f 38 3d
       -0.05573209 -0.04998073 0.029723099 0.045028422
000160 4f fe 82 3d f8 91 93 bc 37 a7 ca bc c6 8b 22 3d
       0.06396162 -0.01801394 -0.024737937 0.03968408
000170 a7 e2 c2 bc d0 bb 5f 3d f6 00 69 bd ef de e8 3c
       -0.023789717 0.05462247 -0.056885682 0.028426616
000180 52 56 49 bd ee 87 2e 3d 39 2a c2 3a 18 d1 1b bd
       -0.049154587 0.0426101 0.0014813609 -0.038041204
000190 00 52 74 bd 98 f6 b0 bb f4 b2 43 3d 36 d2 7c 3d
       -0.059648514 -0.00540049 0.047778085 0.06172391
0001a0 22 99 38 bd fa 80 43 3d 66 80 3d 3d 53 f7 66 3b
       -0.045067914 0.047730424 0.04626503 0.0035242632
0001b0 dd e7 6d 3d b1 cb 0a bd 0a c2 59 3d 83 73 42 3c
       0.05808245 -0.03388566 0.053163566 0.01186836
0001c0 00 b2 a6 bc 00 3c 42 3b 1f ef 38 bd 80 c3 65 3a
       -0.020348549 0.0029637814 -0.04514992 0.00087647885
0001d0 3e 8b 49 3d 5f 76 11 3d 79 61 5a bd d7 d8 56 bd
       0.049205057 0.035513278 -0.053315613 -0.05245289
0001e0 b8 0a 5b bd 20 f1 09 3d b7 1d 85 3c 7a 4e 75 3b
       -0.05347702 0.03367722 0.01624952 0.003743081
0001f0 ef 93 06 bd 70 68 c3 3c 68 87 54 3d a0 8b 30 3c
       -0.032855924 0.02385351 0.051886946 0.010775477
000200 d8 e6 66 bd 3c 6c 60 bd 1a 58 53 3c 5c 29 56 bd
       -0.056372494 -0.05479072 0.012899423 -0.052285537
000210 66 b7 91 3c 88 d4 57 bc 90 df d9 bc 95 4e 6d bd
       0.017787647 -0.01317323 -0.02659586 -0.05793627
000220 15 e8 64 bd 1d 09 da 3c 42 74 78 bc 4b 2c 40 bd
       -0.055885393 0.026615674 -0.015164437 -0.04691724
000230 8f 4a b8 bc 88 86 44 3d 58 8d de bc 7e 33 2d bd
       -0.02249649 0.04797986 -0.027167007 -0.042285435
000240 6b ba 31 3d 2e 82 37 bd f8 c9 6f 3d c4 44 2e bd
       0.043390673 -0.044801883 0.05854222 -0.04254605
000250 20 76 18 bc 03 5a 57 bd 66 78 87 3d 3c 7a d2 bc
       -0.009305507 -0.052576076 0.06614761 -0.025693052
000260 90 6d b6 3b 7e 31 10 3d 30 14 ff bb e0 0e 52 3b
       0.00556726 0.03520345 -0.007784389 0.0032052323
000270 60 87 d6 bc 2b 2f 59 bb 58 8e 29 3d 87 d4 f2 3c
       -0.026187599 -0.0033139687 0.041395515 0.029642357
000280 f2 e9 4e bd 55 9a 5f bd 9d 45 29 3d a4 b3 bf 3c
       -0.050516076 -0.054590542 0.041326154 0.023401089
000290 68 a2 4e 3d 92 18 75 3d 30 9f d3 bc e8 02 5b 3c
       0.05044785 0.059837885 -0.025832742 0.013367392
0002a0 40 4e 8e bb e0 ab 18 3d 55 30 70 bc 7e 2e e7 bb
       -0.004342824 0.037273288 -0.014659961 -0.007055103
0002b0 10 fa 1c 3c 44 78 fd bc 08 bd 75 3d 02 3d e7 bc
       0.009581104 -0.030941136 0.059994727 -0.028227333
0002c0 4b c8 5b 3d e0 46 57 bc 6d d9 82 3d 64 2a 2d bd
       0.05365781 -0.0131394565 0.06389127 -0.042276755
0002d0 5c ec e0 bc 42 05 9a 3c 4c dd c7 bc ed 6f 19 3d
       -0.027456455 0.018801335 -0.024397515 0.037460256
0002e0 77 1d 93 3b ea 79 6a bd 24 be b9 3c 4d 1e 20 bd
       0.0044895965 -0.057245173 0.022673674 -0.039091397
0002f0 90 15 75 3d da ad 59 3d 28 f4 16 3c 5b 40 46 bd
       0.059835017 0.053144313 0.009213485 -0.048401218
000300 12 73 0f 3d 17 09 d0 3c 72 da 0d bd d8 d4 1e bc
       0.03502185 0.02539496 -0.034632154 -0.009694301
000310 c8 21 5d 3c 5d f6 c8 bc 52 8c a4 bc 9d 82 15 3d
       0.013496824 -0.024531538 -0.020086441 0.036501516
000320 5f 33 a9 3c a0 d8 13 bd 2b 8d 2c bd fb 12 05 bd
       0.020654378 -0.03609526 -0.042126816 -0.032488804
000330 d5 af 5e bd b4 93 2f 3c 47 eb cf 3b b8 9e 36 bd
       -0.054366905 0.0107163675 0.006345186 -0.04458496
000340 1a 80 bd 3c 40 92 a4 3c bf 12 1f bd fe 4e 3d bb
       0.023132373 0.020089269 -0.038836237 -0.0028886194
000350 74 54 6e 3c 4f 1b d7 bc 81 55 fe 39 f6 b4 1e bd
       0.014546502 -0.026258139 0.0004851036 -0.038746797
000360 20 ba 11 bc 94 30 af bc b3 2d ec 3c d4 f9 fc 3c
       -0.008894473 -0.021385469 0.028830385 0.030880846
000370 54 9e 3e 3d 7c 75 83 3c 01 35 ba 3c 12 99 34 bd
       0.046537712 0.016047232 0.022730352 -0.04409129
000380 fa 14 3f 3d ba d2 05 3c 34 40 2c bd 0e 9a 33 3d
       0.046650864 0.008167917 -0.042053416 0.04384809
000390 98 a7 50 bd c5 d7 66 bd 61 17 32 bd a0 36 42 bc
       -0.05094108 -0.056358118 -0.043479327 -0.011853844
0003a0 b8 86 ef 3c d8 46 0c bc 69 c8 65 bd 8e 53 05 bd
       0.029239044 -0.008561812 -0.05609933 -0.032550387
0003b0 39 17 a9 3c 10 ae cd 3c be 81 5b 3d 2a 47 49 3c
       0.020640956 0.025107414 0.05359053 0.012285033
0003c0 90 3e 44 bc 93 a5 0e 3c 9c 9b 87 3c 58 6b 75 3d
       -0.011977807 0.008706468 0.016553693 0.059916824
0003d0 d0 68 74 3d 64 d6 0c bd 3f 57 81 bc 44 f6 10 3d
       0.05967027 -0.034384146 -0.015788672 0.035391107
0003e0 4f f4 d3 bc 00 de 47 3d d5 7c 33 3d e0 59 d1 3b
       -0.025873331 0.0487957 0.04382022 0.0063888878
0003f0 23 6e 27 3d cb 5a 21 bd 1f e8 de 3c b7 a8 b9 bc
       0.04087652 -0.039393228 0.027210293 -0.022663457

log_std.bias f4 [3]
000000 25 e6 64 bc 1c 82 81 3d 7e 75 f2 3b
       -0.013970886 0.063236445 0.00739926
