SAC_Model/new_model/sac_critic_150.pth (torch, 565602 bytes, 10 tensors)

q1.0.weight f4 [256, 15]
000000 6f a7 2d be 17 90 c6 be d5 d7 d9 be 68 59 28 3e
       -0.16958402 -0.38781807 -0.4254748 0.16440356
000010 d0 ec 1b 3d e4 43 12 be e7 f2 00 3f 2e f0 00 bf
       0.03806764 -0.1428371 0.5037064 -0.50366485
000020 e1 66 90 3e ff a6 bb be 22 28 02 3d 5d 58 73 be
       0.2820349 -0.36650845 0.031776555 -0.23764177
000030 4b cf 0b 3e 7c ed 52 3e ac d4 4a bc c6 63 70 3e
       0.13653295 0.20598406 -0.0123798065 0.2347556
000040 72 b0 03 be c7 59 23 be 7f ca 47 be 58 95 04 3e
       -0.12860277 -0.15952216 -0.1951084 0.12947595
000050 fe c3 3b 3e 30 3a 8e 3e c1 54 4c 3e e0 a6 c6 3e
       0.18336484 0.2777877 0.19954206 0.3879919
000060 c9 31 be 3d f1 a3 06 3f 2c eb 6f be 07 f0 3d 3e
       0.092868395 0.52593905 -0.23429555 0.18548594
000070 a0 82 37 be 1b d9 0e bf 37 dc 53 3e 5c 3c 88 3e
       -0.17920923 -0.55800027 0.20689474 0.2660855
000080 5b 04 fe 3e ba 7a 63 be 18 c7 f6 3d 8c 5e 64 bd
       0.49612698 -0.22214785 0.12049693 -0.05575423
000090 8f 31 8a bb 71 94 54 bd f5 55 d8 bc 1d 55 63 3d
       -0.0042173336 -0.051899377 -0.026408175 0.055501092
0000a0 8e 3f cf 3d 6c 11 0e 3f de 52 bf bd df 9b aa 3e
       0.10119544 0.55495334 -0.093419775 0.33322045
0000b0 a0 31 cc 3e c9 20 a3 be 43 90 df 3e a3 74 35 be
       0.3988161 -0.3186095 0.4366475 -0.17720275
0000c0 88 4b 33 3e da 46 58 3e 00 2c 70 bb d4 6c 9f 3e
       0.17509282 0.21120778 -0.003664732 0.31137717
0000d0 84 3e dc be 6c 2b 12 bf 4f ed 5e 3e d3 bb 96 bd
       -0.43016446 -0.57097507 0.21770214 -0.073600434
0000e0 15 89 a9 be 7a 71 46 3c 0b 9d cb 3e 77 dc 69 be
       -0.33112398 0.012112016 0.39768252 -0.22838007
0000f0 8f d9 28 bf 61 50 af bf 91 c6 dc 3d e8 47 b1 3d
       -0.6595697 -1.3696405 0.10780061 0.08656293
000100 2a c5 39 3e 6e 84 80 be e9 0c 5d be f5 43 63 be
       0.18141618 -0.25101036 -0.21586956 -0.22193892
000110 a4 e8 9f 3e 20 33 80 bf 54 1a bb 3c 83 48 b2 bd
       0.31232178 -1.0015602 0.022839703 -0.08705237
000120 85 3f 86 be 16 24 5c bf f8 52 08 be 17 6f 51 bf
       -0.26220337 -0.8599256 -0.133129 -0.81810135
000130 70 1a 5a bf 1e 1f a7 bc d6 40 62 be c8 72 9e 3d
       -0.8519659 -0.02040058 -0.22095045 0.077367365
000140 bf 86 74 be 24 7c 0c 3e c3 fd 19 bf 93 c0 02 be
       -0.23879527 0.13719231 -0.60152835 -0.12768774
000150 40 4f 0e bf 0b 61 14 3e f7 e4 cd 3e 93 93 ea be
       -0.55589676 0.14490144 0.4021375 -0.45815715
000160 99 e1 8a bf 45 8d 06 be 45 b6 aa 3e b1 46 da bd
       -1.0850097 -0.13139828 0.33342186 -0.106580146
000170 ee 5c e6 be 0a 71 7d be 88 69 2f 3e fc 44 58 be
       -0.44992775 -0.24750152 0.171301 -0.21120065
000180 d5 2a 71 3e 47 e9 08 3e 0c cc 89 bd 3a 2e 32 3d
       0.23551495 0.13370238 -0.06728372 0.043501116
000190 dd 16 5c 3f e4 a8 b8 bd 87 c1 d5 3d 36 23 4b be
       0.85972387 -0.09016588 0.10437303 -0.1983765
0001a0 b4 23 5a bf 40 54 08 3e 72 d1 e4 3b 7d 93 1d 3f
       -0.8521073 0.13313389 0.0069829756 0.61553174
0001b0 68 9f 4a be 1e a5 01 be e2 41 01 be 57 ab af 3e
       -0.19787371 -0.12660643 -0.12622789 0.3431041
0001c0 9f de 12 3e 04 e8 31 3e 02 73 f4 3d 53 dd 3b 3d
       0.14342736 0.17373663 0.119359985 0.045865368
0001d0 47 f6 dd 3e ac 49 2e 3d 26 32 e5 3d 80 80 04 3f
       0.43351957 0.042550728 0.11191206 0.51758575
0001e0 82 df 86 3e 6c be f1 bd 85 51 6e 3e 8f 82 40 be
       0.26342398 -0.11803898 0.23273285 -0.18799804
0001f0 60 ea 47 3d 73 fe 0d be 57 2f 0b bf 3a a2 35 3e
       0.0488075 -0.13866596 -0.5436911 0.17737666
000200 f1 d5 03 be 88 d3 8c bd 2c 2f 88 bf 62 21 cf 3e
       -0.12874581 -0.06876284 -1.0639396 0.40455157
000210 93 07 0a 3e d8 57 3f be c7 da 1a 3e cc 5a 2a 3e
       0.13479452 -0.18685853 0.1512252 0.16636199
000220 9c b7 4a 3c c4 ef 93 bd f0 b9 4a 3d 00 b9 51 3d
       0.012372877 -0.07223466 0.04949373 0.05120182
000230 80 83 6d bb 27 6b 85 be 39 7e 9f 3e 44 ac c6 3d
       -0.003624171 -0.26058313 0.31150988 0.09700826
000240 e8 77 09 3e 91 bb a7 3e c3 ba 67 be ac 1c a7 bd
       0.13424647 0.3276029 -0.22629838 -0.081597656
000250 35 7b 2a 3e 9a 3c a7 bc 7d 74 da bd 03 d1 a9 bd
       0.16648562 -0.02041464 -0.106667496 -0.08291819
000260 65 a4 9e bd 0f ef 57 be 9c 20 b7 bd c6 c9 3d 3e
       -0.077461995 -0.21087287 -0.089417666 0.18534002
000270 8c 0e da 3c 56 7c 4d be ea de 2e be e0 6c 0a be
       0.026618265 -0.20066962 -0.17077222 -0.13518095
000280 33 ec 58 be cf b3 a3 3e ac 11 80 3e 7c a5 6f bd
       -0.21183853 0.3197312 0.25013483 -0.058507428
000290 0c 98 66 3e 33 2e 9d 3d e8 e1 40 3d d5 6a fe 3e
       0.22518939 0.076748274 0.04709044 0.4969088
0002a0 80 e5 7f bb 48 14 c3 3d 49 a6 04 be 4a a8 df 3b
       -0.0039046705 0.09525353 -0.12954058 0.0068254815
0002b0 d1 4d 8d be 89 ba b5 3c 9c de a0 bb 18 8e 82 bf
       -0.27598432 0.022183673 -0.0049093496 -1.0199614
0002c0 cb f0 c8 3e ea 1e 56 bd 50 05 06 3e 53 6f 04 3f
       0.3924621 -0.052275576 0.13087964 0.5173237
0002d0 fe 73 ee 3e 1d 7d 81 bc db fa ae be 6c 41 17 3e
       0.4657287 -0.015806729 -0.34175763 0.1477105
0002e0 d4 ff 5d bd 98 10 8d bc 29 87 82 be 2c 64 f4 3d
       -0.054199055 -0.017219827 -0.25493744 0.11933169
0002f0 e1 37 12 3e 22 7b 99 3d 34 97 c1 3e e3 da c0 bc
       0.14279129 0.07494189 0.3781067 -0.023541873
000300 da 49 3f 3e 89 f6 f3 bd 20 53 c0 be 2f 6f 73 3e
       0.18680516 -0.11912257 -0.3756342 0.23772882
000310 c5 1e e6 3e 22 bb 4d bd 1e 57 7c be c0 6a 14 be
       0.4494535 -0.050227292 -0.24642608 -0.14493847
000320 d6 67 da bd c9 69 b2 be 9d da 51 3d 07 08 16 bf
       -0.106643364 -0.34846333 0.051233876 -0.58606
000330 c7 89 f0 3e 34 44 00 bf bc 60 0b 3e 5b 02 a0 3c
       0.46980116 -0.5010407 0.1361112 0.019532373
000340 2e 1e bc 3e e7 a2 18 3f 54 8b 4d 3d c8 22 8a 3e
       0.36741775 0.5962357 0.0501817 0.2697966
000350 6f f2 29 3f 58 75 54 3e ae 72 3d 3e 80 cc 8b bb
       0.6638555 0.20747888 0.18500778 -0.0042663217
000360 1d 2c e2 bd 4c c1 06 3e ed 2a 9b 3e d6 df c9 3b
       -0.1104357 0.13159674 0.30306187 0.0061607165
000370 ac 92 5c be ef 6b 19 3f e3 a3 97 3e 8f 63 92 3e
       -0.21540326 0.5993032 0.29617223 0.28591582
000380 6a b4 df 3d 14 c1 86 bf bd 13 2e bf f8 7c 84 bf
       0.10923083 -1.0527673 -0.6799887 -1.0350637
000390 08 86 3f be 00 15 73 3c d4 3a b7 bd ba 1a 03 3e
       -0.18703473 0.01483655 -0.089467674 0.12803164
0003a0 26 87 8b bf bb 29 47 3e dc c4 93 be ed 54 7b be
       -1.0900619 0.19449513 -0.2886113 -0.24544115
0003b0 44 7e 88 bf 83 09 b9 bf 06 24 2b bb 58 ab b2 be
       -1.0663533 -1.4456028 -0.0026114 -0.3489635
0003c0 b3 24 ac 3d 58 77 85 3e 17 0c 46 3e 1b 7e 48 be
       0.08405437 0.26067615 0.1934055 -0.19579355
0003d0 40 d3 f6 3b 20 8d 26 3c 2f 76 31 3e 35 c5 a0 3e
       0.007532507 0.010165483 0.1733024 0.31400457
0003e0 f9 c3 1e 3d 27 28 3d 3e 8e 30 34 be 12 20 d2 3e
       0.038761113 0.18472348 -0.17596647 0.41040093
0003f0 a3 ba 52 be b9 34 c1 bd 9b a0 43 3b 98 c3 93 bd
       -0.20579009 -0.09433884 0.0029850367 -0.07215041

q1.0.bias f4 [256]
000000 e7 d7 dd be 44 ab ca 3e 91 8f a3 3e 7a e7 0c bf
       -0.43328783 0.3958379 0.3194547 -0.55040705
000010 d8 31 96 ba 6f 91 0b 3f 73 28 80 3d 8e ff 80 3e
       -0.0011458946 0.5451879 0.06257715 0.25194973
000020 8e 31 25 3c 0e 5f e2 3e 12 83 38 bf f9 3e 9b 3d
       0.010082616 0.44213146 -0.72075 0.075803705
000030 08 e4 5f 3e ba e0 7b be 7d 50 be 3e ad 75 cf 3e
       0.21864331 -0.24597445 0.37170783 0.40519467
000040 9f 02 bd 3e e6 56 99 be af 43 e9 bd 2d ba 01 3e
       0.36916062 -0.2994911 -0.11389863 0.12668677
000050 c4 0d 1e bf 37 e0 87 3e 20 6e b3 3e 0d 05 83 3d
       -0.61739755 0.2653825 0.35044956 0.06397448
000060 3f 0f 1c bf 84 ab a2 3e 72 39 3d bf 6a d5 cf be
       -0.60960764 0.3177148 -0.7391578 -0.4059251
000070 13 2f b6 3e a4 50 a5 3e 18 c6 05 bf 04 22 df 3d
       0.3558279 0.32288086 -0.5225539 0.1089516
000080 66 0c 7f 3e b1 7c 59 3e 0f f7 55 bf ee 91 90 bd
       0.24907073 0.21238972 -0.83580106 -0.07059084
000090 4c 41 79 bd fd f0 b2 3e 0f f7 69 be bb a8 18 3f
       -0.060853288 0.34949484 -0.22848152 0.5963246
0000a0 1a 79 60 3e aa 79 33 bf e3 63 e0 3d a4 bc 90 3e
       0.21921197 -0.7010752 0.10956552 0.2826892
0000b0 fc 45 bf 3e 2e 11 ea be 71 52 88 3e 72 bd 36 3e
       0.3735808 -0.45716232 0.26625398 0.17845705
0000c0 62 21 46 3e 66 3b 0a 3f ec 11 b1 bd 4f 63 13 be
       0.19348672 0.53996885 -0.086459965 -0.14393352
0000d0 6e 2a 0a be 63 f1 f1 3d 7f aa 17 be a7 bd 9c 3e
       -0.13492748 0.11813619 -0.14811133 0.30613443
0000e0 53 06 03 bd 42 51 c8 3e 41 56 90 3e a5 9b 0a 3f
       -0.031988453 0.39124495 0.28190807 0.54143745
0000f0 68 e5 83 3d 15 06 c7 be 33 f1 1a bf 73 fa d4 be
       0.0644024 -0.38871828 -0.6052429 -0.41597328
000100 eb e6 d3 3e 51 f9 0a 3e 3f 0f c8 3e cf d7 b8 3b
       0.41387114 0.13571669 0.39074132 0.0056409608
000110 63 33 05 bb 50 56 25 3e 1e 7f 7a 3e e9 12 0b bf
       -0.0020324818 0.16146207 0.24462554 -0.5432573
000120 ac c3 6a 3c 20 52 95 3f 1c fe 24 bf 4a 19 f2 bd
       0.014328878 1.1665688 -0.6445024 -0.1182123
000130 79 28 32 3b 25 c5 30 bf c7 c4 c2 be ad f1 8f 3c
       0.0027184768 -0.6905082 -0.38040754 0.017571295
000140 34 e8 ce be aa 97 1f 3f 2f 69 ce 3e e2 1e 0e 3e
       -0.40411532 0.62340796 0.40314624 0.13878968
000150 b0 1d 36 bf 2a b1 21 3e 8b 95 40 be 64 d4 05 bf
       -0.7113905 0.15790239 -0.18807046 -0.5227721
000160 7f 08 34 bf f0 06 fd 3e 1c 16 d4 3e 35 6a 64 bd
       -0.70325464 0.49419355 0.41423118 -0.05576535
000170 7d 1d 92 3e 59 a7 11 3e 92 17 63 3d df e9 d7 3e
       0.28538123 0.14223994 0.0554424 0.42170617
000180 88 dd 55 3e 48 c7 54 be cc e6 35 be 5f 5b 95 3e
       0.20885289 -0.20779145 -0.17763823 0.29171273
000190 e2 8b a8 3e 65 2e c6 bd 2c 15 ab bd 12 45 aa 3e
       0.32919222 -0.09676818 -0.083536476 0.3325582
0001a0 8a 35 f2 3e 61 4f fb be f8 5a 00 bd 9c 09 17 3f
       0.47306472 -0.49084 -0.031336755 0.5899904
0001b0 bb 44 27 bd 4b 82 aa 3e b5 b7 de 3d c0 c5 c5 3e
       -0.04083703 0.3330253 0.10874883 0.38627434
0001c0 34 a9 f8 3e 69 72 22 3d bb ea ef 3d 16 00 ad 3d
       0.48566592 0.03965989 0.11714693 0.08447282
0001d0 80 c2 73 3e 1f fa 34 bf 90 da e0 bc 10 6a 16 3f
       0.23804665 -0.70694155 -0.027447969 0.5875559
0001e0 f6 ff b3 3e 03 44 12 3e 99 ff d2 bb b3 d9 e4 be
       0.3515622 0.14283757 -0.006439161 -0.4469734
0001f0 c2 69 02 3f 32 84 53 3e 1b 15 62 3e d4 e5 8e 3e
       0.50942624 0.20655897 0.22078364 0.2790972
000200 a2 10 15 bd 67 21 c9 3e 99 43 4b 3e 99 aa b5 3e
       -0.036392815 0.39283296 0.19850005 0.35481718
000210 f2 86 c6 3e 8c 0d 4e 3e eb a4 2f bf a5 fd 2b 3d
       0.3877483 0.20122355 -0.6861102 0.04198994
000220 1b 55 a7 3e 93 8c 28 bf c5 37 8a bd 77 6a 9d 3e
       0.32682118 -0.658395 -0.067489184 0.3074529
000230 3d ab 8b 3e cd 4d 92 bd e1 15 5a bf 27 89 89 bd
       0.27279082 -0.071437456 -0.85189635 -0.06715613
000240 d0 d7 b0 3e 7e 48 44 bf 73 42 5b 3e 53 c6 08 3d
       0.34539652 -0.76673114 0.21412067 0.03339226
000250 bb 46 5b bf fe b8 1f bf da 51 89 3d d4 01 42 bf
       -0.856548 -0.6239165 0.06705065 -0.7578404
000260 85 8c c4 3d e5 8a fc 3e 08 50 cb 3e 9a 87 11 3f
       0.095971145 0.49324718 0.39709496 0.56847537
000270 fd de e8 bc a6 76 39 3e 8d f8 d6 3e a3 c9 79 be
       -0.028426642 0.18111667 0.41986504 -0.24393325
000280 10 e2 40 3e 83 10 d3 3e e0 53 ba 3c 00 e1 2d bf
       0.18836236 0.41223535 0.022745073 -0.6792145
000290 a2 84 19 bd 63 d8 c7 3d 2b 5c b8 3e 99 4b c7 3d
       -0.037480004 0.09758069 0.3600782 0.09731216
0002a0 c6 7a 61 3e a8 cc 07 3e 44 33 8d 3d 2c 5a c3 3e
       0.2201949 0.13261664 0.06894544 0.38154733
0002b0 6f 95 10 3e 61 6c dc be 3e f6 eb 3d 14 2f 3a 3f
       0.14119504 -0.43051437 0.11521576 0.72728086
0002c0 08 fd 5c be d3 21 d8 3d d4 7e d4 bd 7d d1 38 bf
       -0.21580899 0.105533265 -0.10375753 -0.72194654
0002d0 9a 0a 36 bd 7a 63 e4 3e 9a 7d 77 be b3 c4 f5 3b
       -0.044443704 0.44607145 -0.24169007 0.007500255
0002e0 3d 56 50 be 1f 1c 4c 3e ec 8a 0a 3e 6c bc 36 3c
       -0.20345397 0.19932602 0.13529557 0.011153322
0002f0 90 89 2a bf b0 aa ad 3e 6c 77 86 3e 1f 81 ca be
       -0.66616154 0.33919287 0.26262987 -0.39551637
000300 87 b2 0c bf 4d 6f cb 3c b5 71 17 be 98 b4 d8 3e
       -0.5495991 0.024833346 -0.1478947 0.42325282
000310 ca 98 35 bf 74 36 5c bd e0 63 a9 3d 28 6e bc be
       -0.7093626 -0.053762868 0.08271003 -0.36802793
000320 9d 7a 37 3e 28 84 d7 3e e7 f1 12 3e 7f 5b 5a 3e
       0.17917867 0.42093015 0.14350091 0.21323965
000330 1d 11 7f 3e 94 91 95 bd 77 1e 41 be 11 a1 5b bf
       0.24908872 -0.073031574 -0.18859278 -0.8579264
000340 40 57 be 3e 6a e9 80 3e e4 08 80 3e 0f 7c 52 bf
       0.3717594 0.2517808 0.25006783 -0.8222055
000350 c1 43 3c 3e af a3 b9 bd 95 2b 20 3d 0b 1b 0c bf
       0.18385221 -0.09064423 0.039104063 -0.54728764
000360 01 49 1d bd b2 e9 13 3e be 24 56 3e af cb 5e 3e
       -0.0383997 0.14444616 0.20912454 0.21757387
000370 64 f2 05 bf 2e 7d 35 3f d0 30 ef 3d 7e 6c ee 3d
       -0.52322984 0.70894134 0.11679232 0.11641787
000380 a0 95 5c be 31 84 3e 3e f7 dd 86 3e 71 9a 82 bd
       -0.21541452 0.18605115 0.2634122 -0.063771136
000390 f0 6e 62 3e 5a 61 a9 3e 42 6b de be 34 55 c8 3e
       0.22112632 0.33082086 -0.43441206 0.39127505
0003a0 fb 1d 95 3e b3 a5 f2 bd d6 0c bc 3e 26 9b 6e 3e
       0.29124436 -0.11848011 0.36728543 0.23301372
0003b0 69 bb 56 bf 25 83 db 3e b2 06 d4 3b e6 c3 16 bd
       -0.83879715 0.42873493 0.0064705247 -0.036807917
0003c0 89 dd d1 3e 5e 59 ac 3e cd 98 a6 3e 78 1e 78 3e
       0.4098933 0.33661932 0.32538453 0.24230373
0003d0 e0 bd 02 bf f2 2c 0c bd 66 0b 68 3e 4a 8e e8 3e
       -0.51070976 -0.03422255 0.22660598 0.45421058
0003e0 c0 26 9c 3e 24 6a 35 be 81 fb 93 3e 10 3b 7b bd
       0.30498314 -0.1771627 0.2890282 -0.061335623
0003f0 84 b8 f1 3d c2 16 10 bf 72 05 0c 3f 4e a5 ea 3e
       0.11802772 -0.56284726 0.5469581 0.45829242

q1.2.weight f4 [256, 256]
000000 89 e9 f4 be 13 47 28 3e 74 e7 3e 3e 32 2d 48 bf
       -0.47834423 0.16433363 0.1864298 -0.7819396
000010 5b 04 98 3e f7 18 9f 3e 0b e3 6a 3e 7c 67 78 3e
       0.29690823 0.31073734 0.22938173 0.24258226
000020 d8 fb 8a 3d 9c da 21 3d a7 93 bf be 9c da 23 be
       0.06786317 0.039515123 -0.37417337 -0.16001362
000030 a5 f8 35 3e c3 ef 86 be a6 a9 5a 3e 67 47 45 3f
       0.17770632 -0.263548 0.21353778 0.77062076
000040 53 b8 10 3e 13 64 1a 3d ce 0a 2e 3d b2 07 6e 3e
       0.14132814 0.037693094 0.042490773 0.23245123
000050 9b 3d aa be b2 cc 82 3e da 14 60 3f 53 fb 9b 3e
       -0.33250126 0.25546795 0.87531817 0.30465183
000060 76 58 88 be 9a 77 88 3e 49 0b fb be 70 1c 84 be
       -0.2662999 0.2665375 -0.49032047 -0.25802946
000070 47 4a 87 3e d2 79 2c 3e 11 3e 97 be ae b8 ab be
       0.26423857 0.16843346 -0.2953954 -0.33539337
000080 8f 33 20 3e 46 12 21 3e 4f 0b 1c bf 66 5f ed 3d
       0.15644668 0.15729627 -0.60954756 0.115904614
000090 be f0 e8 be 69 c7 21 3e 5f 29 93 be d9 83 5c 3f
       -0.45496172 0.15798725 -0.287425 0.86138684
0000a0 3c a1 da 3d af cb 0a bf f5 74 53 be 57 e8 cb 3d
       0.10675284 -0.54217046 -0.20650084 0.09956425
0000b0 a3 52 1f 3e 21 26 34 3e 66 ac f2 3e 67 45 0f 3e
       0.15558867 0.1759267 0.47397155 0.13991319
0000c0 c7 51 46 3e 81 2d 95 3e 83 ce e2 3d 80 6c c4 be
       0.19367133 0.2913628 0.11074545 -0.3836403
0000d0 2a 0e 82 bd d6 d7 4a 3e 6c 62 0a 3e 86 3d 09 3e
       -0.06350358 0.19808897 0.13514107 0.13402376
0000e0 01 3d 8b bc 09 d8 c5 3d 4a 5b be 3e 65 03 3a 3e
       -0.016996862 0.09660346 0.37179023 0.18165357
0000f0 2d 73 25 3e 83 95 45 bf 78 04 89 be ea 3b 26 bf
       0.16157217 -0.7718126 -0.26761222 -0.6493517
000100 d3 1f f9 3e 4b d0 bb be 99 f3 89 3e bc fe 49 3e
       0.48657092 -0.36682352 0.26943663 0.1972608
000110 9d d0 c9 3d 96 8d 3b bd a7 3c 4c 3e bc 22 a4 be
       0.09854243 -0.045789324 0.19945012 -0.3205775
000120 a8 f0 be 3d 62 bd 4e 3f 93 15 80 bf 54 46 71 3e
       0.09323245 0.80757725 -1.0006584 0.23561984
000130 9e 40 23 3f ca c1 89 be ad d1 f4 be df f7 48 3e
       0.63770473 -0.26905662 -0.4781622 0.19625805
000140 09 85 29 be 92 21 4c be 9e 63 81 3e d4 e8 bd be
       -0.16554655 -0.19934681 0.25271314 -0.37091696
000150 42 eb 8e be a9 15 e0 3d 27 6f 02 bf bb 8d 12 bf
       -0.27913862 0.10941631 -0.50950855 -0.57247514
000160 90 04 ea be 47 ec 86 3e 04 43 3a bc 9f ed 61 3e
       -0.45706606 0.2635214 -0.011368517 0.22063302
000170 57 7d 4c 3e d3 16 24 3e b8 ee fa be 3e b0 50 3e
       0.19969688 0.16024332 -0.49010253 0.20379731
000180 d8 d5 b6 be 79 af 09 bf d7 3c 47 bf 04 dd e6 3e
       -0.35710025 -0.53783375 -0.7782721 0.45090497
000190 38 e4 1d 3e e2 e3 cb bd 96 1f cf be b3 86 24 3e
       0.1541909 -0.099555746 -0.40453786 0.16067009
0001a0 7f b4 3f 3e fc 6b 33 be f1 35 96 3c 7e b4 16 3f
       0.18721198 -0.17521662 0.018336268 0.5886916
0001b0 4f bc 3c bd 79 ba 4f 3e ee 4f 95 3f 34 95 c9 be
       -0.046078023 0.20285977 1.1665018 -0.39371645
0001c0 d0 26 eb 3d 2a f4 34 3e 49 b8 44 be 8d 61 1f 3e
       0.11482012 0.17671266 -0.19210924 0.15564556
0001d0 e7 c1 18 3e 0f 21 25 be d2 c3 a3 3d b2 a4 d8 3d
       0.14917718 -0.16125892 0.07996334 0.10578288
0001e0 f4 93 d0 3d d7 bc 74 3e 86 b4 a2 3c db c2 2a bf
       0.1018447 0.23900162 0.01986147 -0.66703576
0001f0 6f f0 de 3e 66 8e bd 3f dc d2 9f 3e 0b 7a 73 3e
       0.4354281 1.4809082 0.3121556 0.23777024
000200 98 2e 85 3e d5 48 29 3e 96 97 b9 3f a0 7f f2 3d
       0.2601211 0.1653169 1.4499385 0.11840749
000210 64 35 15 bc 66 7d da 3c 1e c2 a5 be 79 96 d8 be
       -0.009106968 0.026671123 -0.32374662 -0.42302302
000220 0d 72 2f 3e 85 b9 06 bf 5d fe 2d 3e c1 4f 40 3e
       0.1713335 -0.5262683 0.16991563 0.18780424
000230 d1 5e 2b 3e fa 91 77 3f 3b 52 09 bf 49 f5 07 3e
       0.16735388 0.9670712 -0.536411 0.13277163
000240 a7 f6 4b 3e aa 4f 0c bf ff 0b 1b 3f ce e1 4f 3e
       0.19918309 -0.5480906 0.6056518 0.20300981
000250 7d ee 00 bf fc 0d 8c be c8 77 d7 be e7 d1 84 be
       -0.50363904 -0.2735442 -0.42083573 -0.25941393
000260 03 75 3f be 3a b6 58 3f be aa 59 3e e6 83 8c 3f
       -0.1869698 0.84653056 0.21256539 1.0977752
000270 98 32 89 be 44 a2 25 3e 93 3b d3 3e 10 5a a2 be
       -0.26796412 0.1617518 0.4125639 -0.31709337
000280 1e 5b 25 3e 93 3b 73 3d f0 f8 61 3e 03 20 a5 be
       0.1614804 0.059382986 0.22067618 -0.32250986
000290 b1 29 e1 3d 1c 1e 0f 3e 85 03 83 3e 5e 2f 34 3f
       0.1099428 0.1397633 0.25588623 0.70384777
0002a0 75 db 00 3e 41 39 6d 3e 60 81 7b 3d 26 50 9b 3f
       0.12583716 0.23166372 0.06140268 1.2133834
0002b0 40 92 5e 3e 52 4f d5 be 5b af 02 3d c8 af 6e 3e
       0.21735477 -0.4166208 0.031905513 0.23309243
0002c0 89 2a a9 be ad 02 7b 3e 94 1b a3 3f 5c 1c 31 bf
       -0.33040264 0.2451274 1.2742791 -0.691839
0002d0 93 24 b7 bd 6d 84 56 3e e0 f5 dd be 8f e4 86 3e
       -0.08942523 0.20948954 -0.4335165 0.2634625
0002e0 0f e5 70 bd 45 c6 6b 3e ca 68 4e 3e 6c 60 a2 be
       -0.058812197 0.23024853 0.20157161 -0.3171419
0002f0 dc fa ea be c7 47 40 3e a5 96 3c 3e 2f 1c a7 bd
       -0.45894516 0.18777381 0.18416841 -0.081596725
000300 ff 2c 5b be de 60 47 3e 5d 01 4b 3e 94 5f 4b 3e
       -0.21403883 0.19470546 0.19824739 0.19860679
000310 91 55 0f bf cc 25 b4 3e 1f 34 9d bc db de 0d bf
       -0.5598994 0.35185087 -0.019189892 -0.55418175
000320 9a ad 71 3e fc 93 6b 3d 29 07 0b 3e 0c bf d6 3e
       0.2360138 0.057514176 0.1357695 0.41942632
000330 b6 c5 c3 ba b6 93 d8 3e a7 b5 67 bf c0 40 0d bf
       -0.0014936242 0.42300195 -0.90511554 -0.55176926
000340 e4 cf 70 3e a5 52 42 3e 22 d5 37 3c 94 c5 a7 be
       0.23516804 0.18976839 0.011220248 -0.32767928
000350 f4 2d 7c 3e a7 7d 60 3e cb 74 d8 3d bc 7e b0 be
       0.24626905 0.21922933 0.105691515 -0.3447169
000360 b9 56 e3 bd 0d aa 34 3e 3f 6a 10 3e 37 e0 11 3e
       -0.111005254 0.17642994 0.1410303 0.14245687
000370 61 b9 9e be fa 06 39 3e 9d 0e 8c 3d 07 e6 31 3e
       -0.31000808 0.18069068 0.06838725 0.17372905
000380 15 25 48 be 3e 0e 38 3e 12 01 43 bd 56 ba 3b 3d
       -0.19545396 0.17974183 -0.047608443 0.045832
000390 e3 11 72 3e ce 7a 6c 3e 35 e9 83 3d 6c 57 58 3e
       0.23639636 0.23093721 0.06440965 0.21127099
0003a0 4d 43 69 3e 10 df 63 3c b7 64 99 3e 29 e6 45 3e
       0.2277958 0.013908163 0.29959652 0.1932608
0003b0 6a 54 9e be a8 bc fc 3c 3a 04 ca 3e 5e 7e 01 bf
       -0.30923778 0.030851677 0.3945635 -0.50583446
0003c0 cb dc 3e 3e d5 c2 03 3e 71 64 53 3f 75 71 54 3e
       0.18638913 0.12867291 0.82575136 0.20746405
0003d0 82 ab 80 be e3 59 07 3e 08 93 b8 3d 81 41 a3 3e
       -0.2513085 0.13217883 0.09012419 0.31885913
0003e0 9a 87 d6 be cb 1b 9b be 5b 26 34 3e f0 ad 0f 3e
       -0.4190033 -0.30294642 0.17592756 0.14031196
0003f0 b7 59 0a bf 41 dd 6d bd a5 48 8a 3f a4 b3 ec 3e
       -0.54043144 -0.058072332 1.0803419 0.46230805

q1.2.bias f4 [256]
000000 11 0a 9f 3e 37 ac 2a be 63 f9 6d 3e 4e 93 db bc
       0.31062368 -0.16667257 0.23239665 -0.026803639
000010 d4 17 07 3e 8b 69 bb bd 58 01 8f 3e 28 0f f5 bd
       0.13192683 -0.0915099 0.27930713 -0.119657815
000020 f5 61 15 3e d2 cf f4 bb af b9 2d 3e 5e b0 6e bd
       0.14588149 -0.007471063 0.16965364 -0.058273666
000030 c4 b9 f8 bd 28 dc e2 3d 45 06 2a be 07 1b 98 3d
       -0.12144807 0.11077148 -0.16603954 0.0742703
000040 05 a4 17 3e 0b 57 cd 3d 64 d8 12 3e ec c2 5a 3e
       0.14808662 0.10026368 0.14340359 0.2136342
000050 89 06 4b bd b8 15 1f 3c a4 72 12 3e 49 30 01 3d
       -0.04956678 0.009709768 0.14301544 0.03154019
000060 60 28 32 bd 9e cd 0f 3e aa d1 eb bd 6a 63 dd 3e
       -0.043495536 0.1404328 -0.115145996 0.4323991
000070 d6 7f a9 3c a9 51 14 3e 5c 26 08 be b3 67 2f 3e
       0.02069084 0.14484276 -0.13295883 0.17129402
000080 a0 18 2d 3e f4 5f 3e be 45 3e bd bc af 69 45 3e
       0.16903925 -0.1859129 -0.023100981 0.19278596
000090 02 85 d8 bd e4 f9 99 3d d2 16 9b 3e 96 f2 f4 bd
       -0.10572244 0.07518366 0.30290848 -0.11960332
0000a0 29 1c d7 bd 95 65 5f 3d 46 5c 3d 3e 44 21 d8 bc
       -0.10503418 0.054540236 0.18492231 -0.02638305
0000b0 17 24 80 bc 6f e3 8f bd 81 30 22 3e 3d e2 64 3d
       -0.015642209 -0.070258014 0.15838815 0.05587982
0000c0 b9 e3 f4 bd 49 da 4e 3e 79 fc 63 3d aa f6 3f 3e
       -0.11957497 0.20200457 0.0556607 0.18746439
0000d0 f9 f1 16 3e fe 5b da bc 79 b8 06 3e cc 1b 07 be
       0.14740743 -0.026655193 0.13156308 -0.13194197
0000e0 39 57 4b 3b 31 20 58 3e a1 7a 3a bc 9a fc cf bd
       0.003102733 0.2110603 -0.011381776 -0.10155602
0000f0 1a be 3b 3b 4c 8c 17 bd 41 6c 62 3e 0f 9c 0e 3e
       0.0028647245 -0.036999032 0.22111608 0.13926719
000100 9d a8 1a bd 5d c5 49 bd 71 d2 23 3f 24 7d 88 bd
       -0.03775846 -0.049260486 0.63992983 -0.06664494
000110 f9 d8 26 be 37 eb 65 bd 01 7b d3 3d ad 91 d5 3d
       -0.16293706 -0.05613252 0.103261955 0.10428176
000120 af 10 99 3d f5 2c 13 3e 60 ba 89 bd 98 70 d4 bd
       0.07473885 0.14372618 -0.06725001 -0.10373038
000130 86 c4 d9 3d 4f 25 23 be 09 b5 69 3e dc 7c 8e bd
       0.10633187 -0.15932201 0.22822966 -0.06957409
000140 b9 e6 7b 3e 86 4d 94 3e 24 63 8c 3e 11 59 b0 bd
       0.24599732 0.28965396 0.27419388 -0.08610738
000150 55 d6 b8 3e 02 c0 20 3e 65 7b e4 3d 8a 0d 3a be
       0.36101022 0.15698245 0.11156348 -0.18169227
000160 0e 66 92 3e 3f c3 27 3e fc 87 b9 bd 9f 9f 64 bd
       0.28593487 0.16383074 -0.0905914 -0.05581629
000170 96 1c 49 3e 90 8b 48 bd d3 cd 74 3d 06 ee d5 bd
       0.19639811 -0.048961222 0.0597666 -0.1044579
000180 21 00 36 3e ea a5 42 3e 60 35 88 bd 20 8d c9 bc
       0.17773487 0.19008604 -0.066508055 -0.024603426
000190 c1 a7 b0 3e c5 f7 aa bd 9e 26 9b bd 4c 21 f5 bd
       0.34502986 -0.083480395 -0.07575725 -0.119692415
0001a0 2c a7 de bd c2 2a 46 3d f2 31 df bd 79 b7 69 3e
       -0.10871729 0.04838062 -0.10898198 0.22823896
0001b0 39 0a 23 be d7 6d a6 bd 4d 64 1e 3e ea ac 9d 3d
       -0.15921868 -0.08126419 0.15467949 0.07698996
0001c0 2a ca de bd 60 14 7a 3e b4 d4 82 3b 12 88 94 bd
       -0.108784035 0.24421835 0.0039926413 -0.07252516
0001d0 73 98 66 3e 0a dd 32 bc 7b 18 43 be 49 09 4d bd
       0.22519092 -0.010916958 -0.19052307 -0.050057683
0001e0 1f d1 80 3d 1d d4 a3 3e f9 7d 55 3e d7 f7 5a be
       0.06289887 0.31997767 0.20848836 -0.21383606
0001f0 98 a2 00 be 5c 79 9a 3e 26 4a 92 bd 70 ad a2 3e
       -0.12562025 0.30170715 -0.07143049 0.31772947
000200 ea bf b2 3d e2 a1 3a bd d5 b1 0e 3e e1 51 f0 bd
       0.08728011 -0.04556454 0.13935025 -0.11734367
000210 ea 06 97 bd 4f d8 1f 3e ef 37 f1 3d 23 de 40 3d
       -0.07374366 0.15609859 0.117782466 0.047086846
000220 64 7a 08 be 79 9e f3 3c e6 18 b5 bc d8 72 4e 3e
       -0.13327938 0.029738652 -0.022106599 0.20160997
000230 e9 ed 31 3d 07 0e 1c 3d 6e ad 52 3e 2d e8 df 3c
       0.04343978 0.038099315 0.2057397 0.02733239
000240 09 ef bd 3e f6 d3 1d bd 81 9d 6b bd 40 23 86 bd
       0.37096432 -0.03853222 -0.057523254 -0.06549692
000250 05 fd e8 3d 7d fb 89 3e 04 44 69 bc 42 53 2f be
       0.11376385 0.26949683 -0.014237408 -0.17121604
000260 d8 4e 2a be aa 53 a4 bd 40 88 bc 3d d4 d8 ad 3d
       -0.16631639 -0.0802377 0.09205675 0.08488622
000270 99 37 4e bd 2c fb b1 bc 8b c3 18 3d 48 b4 73 bc
       -0.05034599 -0.021726213 0.03729586 -0.014874525
000280 40 53 53 3e 75 d3 03 3e 30 c7 55 3e 5b 1a 8a bd
       0.20637226 0.12873633 0.20876765 -0.06743308
000290 64 e6 67 3e 04 d6 0f be fd 01 78 bd 97 f2 50 3c
       0.22646481 -0.14046484 -0.06054877 0.01275315
0002a0 77 b8 8c bc 58 17 80 bd 78 20 37 bd fa 70 4e bc
       -0.017177803 -0.062544525 -0.0447087 -0.012600178
0002b0 29 d4 23 3e 80 47 31 bd 5b fb 8a bd 6a ca 88 3d
       0.15998901 -0.04328108 -0.067862235 0.066792324
0002c0 24 e1 86 bd e5 10 2e bd 17 ea f1 bd 06 f4 05 3e
       -0.06585911 -0.04249658 -0.11812227 0.13081369
0002d0 f8 3a 4a 3e 45 9e cb 3d d7 f2 b2 3e 5e 83 0e 3e
       0.19749057 0.09942297 0.34950897 0.139173
0002e0 ac 46 1c be 11 e6 40 3e 4d 21 55 bd 24 0b 91 bd
       -0.15261334 0.18837763 -0.05203371 -0.07082203
0002f0 f8 16 9b 3e 26 ec 82 3e 0a 35 08 bd 0c 41 1e bb
       0.3029096 0.25570792 -0.033253707 -0.0024147658
000300 cf 33 77 3b 03 32 7c 3d 89 cf 0b 3e 7b 1f 13 3e
       0.003772009 0.061571132 0.13653387 0.14367478
000310 88 3b bc bd 58 87 df bd 94 05 6b 3e 6a 6a 2f 3e
       -0.09191042 -0.10914487 0.22951347 0.17130437
000320 e8 1c 15 bd e9 39 0e bd 34 94 e3 3d c0 8b 29 3e
       -0.03640452 -0.034723196 0.11112252 0.16557217
000330 18 fd 00 3d 41 31 12 be 1e df 33 3e 0c 41 0b be
       0.03149137 -0.14276601 0.17565581 -0.13599032
000340 0c 0b 69 3e 52 5b 99 bb fe a1 0b 3e 30 dc a9 bc
       0.2275812 -0.0046800757 0.13636014 -0.020734876
000350 de 33 4d bd 06 e0 3f 3e 50 94 90 3e 09 77 a0 3e
       -0.050098293 0.18737802 0.28238153 0.31340817
000360 b4 80 d6 3c 10 ab b4 3d 57 f4 f7 bc 94 21 22 3e
       0.026184417 0.0882169 -0.030267878 0.15833122
000370 80 1b 47 3e b4 a2 85 3e cc 9b 4c 3e ab 47 85 bc
       0.19444084 0.26100695 0.19981307 -0.016269526
000380 6e a7 25 3e d5 20 bd 3e fd f1 46 3e df 55 56 3e
       0.1617715 0.3693911 0.19428249 0.20931195
000390 76 dc 1a 3e 1e 61 1b 3e ac 1d 54 3e 91 f9 83 3b
       0.15123162 0.15173766 0.20714444 0.0040275534
0003a0 c4 e2 b3 bd 64 98 32 3e 02 0e ed 3e f7 a6 9d 3e
       -0.087834865 0.17440945 0.4629975 0.30791447
0003b0 c2 72 3b 3e 29 58 23 3d c2 23 5c 3c 86 6e 90 3e
       0.18305495 0.039878998 0.01343626 0.28209323
0003c0 e2 af 41 3d 2b 90 ce bd ad 68 87 bd f5 b3 51 3a
       0.047286876 -0.100860916 -0.06611762 0.0007999533
0003d0 18 fa 8e 3e 44 e5 d0 3d 78 7b 84 bd dd 15 9b bc
       0.2792518 0.10199979 -0.06468862 -0.018931324
0003e0 a9 d6 7e bc 27 fc df bd 86 50 97 bd d8 14 d0 bd
       -0.015554109 -0.10936766 -0.073884055 -0.10160226
0003f0 40 f8 1f be dd d2 08 3d 9b 36 8d 3d a8 57 84 3e
       -0.15622044 0.03340422 0.06895181 0.25848126

q1.4.weight f4 [1, 256]
000000 20 35 28 bf 57 a1 84 3f f7 ce a0 be 28 fe a2 3f
       -0.6570606 1.0361737 -0.31407902 1.2733812
000010 23 96 96 bf da db c4 3f 9d 26 39 bf ad b2 34 3f
       -1.1764568 1.5379593 -0.72324544 0.7058514
000020 95 9a a6 be ea 7e 99 3f cd f9 a8 be 7a ab 45 3f
       -0.32539812 1.1991856 -0.33003083 0.7721478
000030 0a 50 47 3f ec ef ae be 0b 9b 88 3f f1 4a 0a bf
       0.77856505 -0.3416742 1.0672315 -0.540206
000040 b0 7e b3 be 83 83 ae be 8f eb aa be 9e 35 9e be
       -0.35057592 -0.3408471 -0.33382842 -0.30900282
000050 c9 a7 47 3f fb 7d 2f 3f ca 65 d1 be 0c 54 b2 3f
       0.77990395 0.68551606 -0.4089797 1.3931899
000060 46 06 4c 3f d5 38 c4 be e5 89 b5 3f 40 ef 36 bf
       0.7969707 -0.3832461 1.4182707 -0.71458817
000070 35 00 a7 3f 07 fd af be 52 e8 4d 3f 6f 68 a4 be
       1.3046938 -0.34372732 0.8043262 -0.32110927
000080 2b 95 c3 be f6 f1 d5 3f 00 97 9e 3f d9 fa 9d be
       -0.38199744 1.6714466 1.2389832 -0.30855444
000090 bd bd a4 3f a8 97 ad be c3 d4 2b bf 5b 5f 42 3f
       1.2870404 -0.33904767 -0.67121524 0.7592675
0000a0 d6 b7 56 3f 3e d9 af 3f ea 18 97 be d6 d6 51 3f
       0.8387426 1.3738172 -0.29511195 0.8196844
0000b0 bc 49 8d 3f 80 4b 9f 3f ba ac b1 be 98 d7 91 bf
       1.1038127 1.2444916 -0.34702092 -1.1393919
0000c0 aa 4a 6e 3f 71 42 b6 be bf 46 9e 3f 4f 8f bb be
       0.9308268 -0.35597566 1.236534 -0.36632773
0000d0 7e 01 ad be 24 b2 84 3f 3d 91 b7 be 08 91 85 3f
       -0.337902 1.0366864 -0.35852996 1.0434885
0000e0 85 1e ad 3f 69 06 b6 be ca a9 95 3f 33 1a 9f 3f
       1.3524939 -0.35551766 1.169244 1.242987
0000f0 08 56 79 3f 89 4a 4d 3f 1c cb 91 be 3b 64 9e be
       0.973969 0.80191857 -0.28475273 -0.30935845
000100 23 43 9c 3f aa 8e a6 3f b9 3f c3 bf 91 d0 9f 3f
       1.2207989 1.3012288 -1.5253822 1.2485524
000110 5e fa 33 3f 4c 3e 17 3f 10 f2 b0 be a1 42 c1 be
       0.70303905 0.5907943 -0.3455968 -0.37746146
000120 a0 7c b6 be 13 39 b4 be b6 5f 4f 3f 49 ee 9f 3f
       -0.35641956 -0.35199794 0.8100542 1.2494594
000130 e0 6d c4 be 79 b2 61 3f ad 09 ba be 3e c3 a3 3f
       -0.38365078 0.8816295 -0.36335507 1.2793958
000140 8a 83 b6 be 30 e6 29 bf 6b 98 aa be 65 1a 4a 3f
       -0.3564723 -0.66366863 -0.3331941 0.78946525
000150 7f a1 28 bf 60 40 94 be a3 e2 8c 3f 61 59 85 3f
       -0.65871423 -0.28955364 1.1006664 1.0417901
000160 38 57 db be a7 38 b0 be 83 46 9f 3f d6 ca 64 3f
       -0.4283998 -0.34418222 1.2443393 0.89372003
000170 68 b0 bc be f6 8c 37 3f d7 b5 a7 3f 30 d6 86 3f
       -0.36853337 0.71699464 1.3102368 1.0534115
000180 07 d0 9e be 6a 96 c1 be aa ab 56 3f 55 fd 4b 3f
       -0.31018087 -0.3781007 0.8385569 0.7968343
000190 c2 a6 2d bf 52 6e a6 3f 58 57 9b 3f ba c2 a1 3f
       -0.6783258 1.3002417 1.213603 1.2637551
0001a0 e4 e9 5a 3f 4a df 9b 3f 9e 47 c2 3f 87 49 b7 be
       0.8551314 1.2177517 1.5178106 -0.35798284
0001b0 f5 28 8c 3f b1 05 3f 3f da c6 b6 be 74 96 83 3f
       1.0949999 0.7461806 -0.35698587 1.028029
0001c0 4c 0c a7 3f 84 3f b3 be 31 cb 89 3f c6 16 99 3f
       1.3050628 -0.35009396 1.0765134 1.1960075
0001d0 c4 ba b9 be b5 42 86 3f d6 be 10 40 c6 38 87 3f
       -0.36275303 1.0489107 2.2616477 1.0564201
0001e0 9b 3f 4c 3f 80 55 29 bf 0e 3d c1 be 3b b8 88 3f
       0.79784554 -0.6614609 -0.37741894 1.0681223
0001f0 2b 3f d7 3f f5 ba ae be 40 ba c4 3f a1 ad 36 bf
       1.6816152 -0.34127012 1.5369339 -0.71358687
000200 64 50 a6 3f 6d cf a7 3f fe d4 ad be 74 a3 c5 3f
       1.2993283 1.3110176 -0.33951563 1.5440507
000210 c1 c3 6f 3f 75 81 b0 be 65 66 d0 be 94 c4 81 3f
       0.9365807 -0.34473768 -0.4070312 1.0138116
000220 f3 7d 8b 3f 85 83 9b 3f c5 8e a0 3f 37 20 40 bf
       1.0897812 1.2149512 1.254357 -0.75049156
000230 e4 83 82 3f dd 22 8f 3f dc 08 cd be 61 4d a3 3f
       1.01965 1.1182514 -0.40045822 1.2757989
000240 56 fe 2d bf 77 e6 9e 3f 29 91 de 3f 0c 57 a8 3f
       -0.6796621 1.2414082 1.7388049 1.3151565
000250 55 32 0c bf 45 65 b7 be 9f e3 94 3f ca 43 85 3f
       -0.547643 -0.3581945 1.1631964 1.0411313
000260 43 6b 34 3f 2d a6 78 3f 24 4f 0b bf 2d fd 81 3f
       0.7047617 0.97128564 -0.54417634 1.0155388
000270 f4 11 a3 3f 9a 1f a4 3f f8 6f 39 3f 00 b4 a1 3f
       1.2739854 1.2822144 0.72436476 1.2633057
000280 77 17 c8 be a6 7c a1 be f3 60 94 be 62 08 ad 3f
       -0.39080402 -0.31540412 -0.28980216 1.3518183
000290 e0 dd ad be 4f 58 6a 3f 8e 2a 98 3f fe 94 8a 3f
       -0.3395834 0.91541 1.1887987 1.0826719
0002a0 6c c6 97 3f 60 df 55 3f 06 cc 6f 3f 3c e5 9a 3f
       1.1857429 0.8354397 0.9367069 1.2101207
0002b0 f3 48 a2 be a7 d1 4c 3f 0f a0 b1 3f 6e ce 94 bf
       -0.3169628 0.80007404 1.3876971 -1.1625497
0002c0 aa 6b 96 3f 3a d6 a0 3f b8 a5 4c 3f da 1a 0d bf
       1.1751606 1.2565377 0.79940367 -0.551191
0002d0 e8 a8 b6 be 73 c4 31 3f 36 9d 77 bf 35 7a c7 be
       -0.3567574 0.6944038 -0.9672426 -0.38960424
0002e0 2a b7 c2 3f 99 98 b5 be 7c b1 61 3f b9 27 8d 3f
       1.5212147 -0.35467985 0.88161445 1.1027747
0002f0 b1 56 26 bf fb ed 1c bf 83 d0 a1 3f cf 60 9a 3f
       -0.6497603 -0.6130063 1.2641758 1.2060794
000300 bf a0 54 3f e4 21 0c bf d0 23 b9 be 4b 65 aa be
       0.8305778 -0.54739213 -0.36160135 -0.33280405
000310 de 19 9e 3f 5a 83 57 3f dd 47 aa be a1 a2 cd be
       1.2351644 0.841848 -0.33257952 -0.40163139
000320 5b b5 67 3f 22 b2 90 3f ab 34 b7 be 1d ea 91 bf
       0.905111 1.1304362 -0.3578237 -1.1399571
000330 76 6d 81 3f 90 42 67 3f 17 58 bd be 3f 15 d4 3f
       1.011153 0.9033594 -0.3698127 1.6568984
000340 e3 2f cb be d4 8a 97 3f ce 67 c3 be 06 4e a9 3f
       -0.39684972 1.1839242 -0.38165134 1.3226936
000350 29 f1 95 3f e8 00 c6 be 39 07 c3 be 73 0b 26 bf
       1.1714221 -0.38672566 -0.38091448 -0.6486122
000360 da 0d 93 3f 7e c9 b2 be 75 2e 4d 3f ee 55 a6 be
       1.1488602 -0.3491935 0.8014901 -0.32487434
000370 1d 95 b7 be 37 f7 bc be ac 9b 1e bf 87 da 9a 3f
       -0.35855952 -0.3690736 -0.61956286 1.2097939
000380 ea e5 c1 be 6c 8f 27 bf 58 f6 bb be f1 5f b0 be
       -0.37870723 -0.6545322 -0.36711383 -0.34448197
000390 04 c3 b8 be 13 db ab be 82 8e a7 be 8f 34 98 3f
       -0.36086285 -0.33565578 -0.32725912 1.189104
0003a0 eb df 45 3f 86 69 a8 be 65 f1 50 bf 1f 50 26 bf
       0.77294797 -0.32893008 -0.8161834 -0.64966005
0003b0 76 85 b3 be 2c b4 8d 3f 8c 65 76 3f 36 75 bf be
       -0.3506276 1.1070609 0.962487 -0.37394112
0003c0 8d d4 03 bf fa 35 8c 3f 71 96 a7 3f 8c e7 40 3f
       -0.514962 1.0953972 1.3092786 0.7535331
0003d0 49 3d 36 bf 9e 34 a4 be 28 66 3e 3f 19 b5 9d 3f
       -0.71187264 -0.32071394 0.7437463 1.2320892
0003e0 ec b9 79 3f 38 b1 a0 3f 0e 1f 3f 3f 57 44 4d 3f
       0.9754932 1.2554083 0.7465676 0.80182403
0003f0 2b 02 6e 3f 5c d5 1b 3f 0d 96 fb be 99 f2 c2 be
       0.9297206 0.60872436 -0.49137917 -0.38075712

q2.0.weight f4 [256, 15]
000000 33 6d d4 bd 47 32 5d 3e 18 82 b1 be 46 3c 23 3e
       -0.103723906 0.2160121 -0.34669566 0.15940961
000010 b8 72 62 3d 95 1d 80 be 2e 33 8f 3e 04 be 01 3e
       0.055285186 -0.2502257 0.27968735 0.12670141
000020 8c ce d5 3e dd 37 a1 3e 4f c6 f4 3e 84 fb 10 3e
       0.41759145 0.31487933 0.47807547 0.14158446
000030 67 1d 56 be 8b a4 99 be 42 f7 54 bf 16 57 89 bb
       -0.20909654 -0.3000835 -0.83189785 -0.0041912897
000040 fb 22 1d bd 9f 8d c5 bc 60 4f 05 bd f8 3d 4a bd
       -0.038363438 -0.024115382 -0.0325464 -0.049375504
000050 4c 70 6d 3e 6a 87 04 3f ea 44 91 be c2 eb de 3e
       0.23187369 0.51769125 -0.2837289 0.43539244
000060 37 a7 6b be 4a 7e 0c 3f 57 44 8a 3d 04 b7 94 bd
       -0.23013006 0.548802 0.06751316 -0.0726147
000070 fe b9 c2 3d cc 8b 14 bf 7d 1b 8d be a6 28 a0 be
       0.095081314 -0.58025813 -0.27560034 -0.31281012
000080 8c 14 30 3e 7d 13 71 be 38 7e d1 bd 20 a6 2b bd
       0.17195338 -0.2354259 -0.102291524 -0.041906476
000090 80 17 56 3e b9 e5 58 3d ca b6 9a 3e 12 9b 94 be
       0.20907402 0.052953456 0.30217582 -0.2902456
0000a0 0b 3f 00 bd e6 c2 4a 3e 7f e1 9d be 93 9d 7f be
       -0.031310122 0.1980091 -0.30836102 -0.24962454
0000b0 b4 8f 57 3e dc 36 b6 3e 88 e0 c0 bb 5b 6f 81 bd
       0.21050912 0.3558873 -0.005886141 -0.063200675
0000c0 de c7 72 be 28 8c f8 bc 9e 0f b7 bd d0 84 3c bf
       -0.23709056 -0.03034027 -0.089385256 -0.73640156
0000d0 9e 49 f8 3e e4 7e 4d be 3d c4 d7 3d 7b 64 5a 3e
       0.48493665 -0.20067936 0.10535476 0.21327393
0000e0 20 b8 a1 bd df 5d 01 3f e8 b8 3b be 50 01 d3 3e
       -0.07896447 0.5053386 -0.18332255 0.4121194
0000f0 80 6f 92 be af 91 30 3e ea 22 a6 3e 99 bd 78 be
       -0.28600693 0.17243074 0.32448512 -0.24291076
000100 00 6e cb bc f6 98 01 3e 4b 0c 9c 3e 31 9f 1c be
       -0.024832726 0.12656006 0.3047813 -0.15295102
000110 d2 59 b0 bd d5 1a b2 3d 29 dc bf be 45 b2 86 3d
       -0.08610882 0.08696524 -0.37472656 0.06576971
000120 28 98 11 3e cc 93 db 3c 4b 1f 8f 3e 14 e1 17 bd
       0.14218199 0.026803873 0.27953562 -0.037079886
000130 eb 23 8c be 83 38 19 be 58 e1 29 bd 8e 9a d2 bd
       -0.27371153 -0.14962964 -0.04147467 -0.10283385
000140 6a 28 42 3e c2 84 c7 bd 42 74 82 3e 57 af 81 3e
       0.18960729 -0.097421184 0.25479323 0.25329086
000150 75 3b be be 69 ab a5 3e be 91 db 3d 48 32 3b 3e
       -0.37154737 0.32357338 0.107211575 0.182809
000160 18 b7 bb bd 09 b9 6c 3e 5f 33 2c 3e a9 31 ad 3e
       -0.09165782 0.2311746 0.16816472 0.3382695
000170 a6 59 ab 3c af 0b 16 be c2 1e 1f be 44 de fb 3d
       0.020916771 -0.14652894 -0.15539077 0.12298253
000180 35 ab 77 bd d7 5d b6 3d b8 f8 92 3c 43 da 97 3e
       -0.06046601 0.08904617 0.017940864 0.29658708
000190 b0 49 67 be ec 64 1e 3a 81 25 0c 3e e7 b5 19 3e
       -0.22586703 0.000604226 0.13686182 0.15010796
0001a0 fe 4b 72 3e 94 30 4b 3e 26 50 32 3d b2 7d ff 3c
       0.23661801 0.1984275 0.043533467 0.031187866
0001b0 10 a0 d4 bc 92 4c b9 bd 20 9a c1 3d 82 67 3e 3c
       -0.02595523 -0.09047808 0.09453225 0.011621358
0001c0 23 eb b4 3d 41 87 2c 3e 2d 8c 8e 3e ff fb e2 3e
       0.08833911 0.1684847 0.2784132 0.44332883
0001d0 82 bf 82 be 5f 29 61 3e 93 67 a6 be 16 59 14 bf
       -0.25536734 0.21988438 -0.32500896 -0.57948434
0001e0 ad 7a 13 be a4 7a df 3c 28 a3 fe bd c4 98 e4 3d
       -0.14402266 0.02728016 -0.12433463 0.1116195
0001f0 7a 30 15 3e f2 f1 08 be b1 78 0e be 4b 47 09 3e
       0.14569274 -0.13373545 -0.13913228 0.13406102
000200 e7 61 e4 be 12 e4 aa bc 75 73 c8 be 99 cd 07 3e
       -0.44605944 -0.020860706 -0.39150587 0.13262023
000210 b8 b9 35 3e 06 90 bc bd a0 38 4f 3e 04 5f c2 be
       0.17746627 -0.09207158 0.20236444 -0.37963116
000220 6a 91 22 3d 76 b2 db 3e ba d0 2d be 10 5d c3 3c
       0.03968946 0.42909592 -0.16974154 0.023848087
000230 9c 95 9f 3d ea 2b 4e bd b1 46 54 be 9b ef 6d 3e
       0.077922076 -0.05033485 -0.20730092 0.23235933
000240 22 4b 2b 3d b9 8d f8 be 1a 7f 14 3e af 4e ff bd
       0.0418197 -0.48545626 0.1450161 -0.124661796
000250 1b e3 9f be a9 d8 8a 3d 86 2c c2 bd b0 60 b2 bd
       -0.31227955 0.06779606 -0.094811484 -0.08709848
000260 57 ce 42 3e b0 4e b2 bd 10 41 91 3d cc b1 67 be
       0.19024025 -0.08706415 0.07092488 -0.22626418
000270 0d de 6b be da 31 61 3e c1 4a e3 bd 58 6d 8f 3e
       -0.23033924 0.21991673 -0.110982426 0.2801311
000280 22 29 93 3d 11 29 76 3e bc 60 0d be 5b ed 6e 3e
       0.0718558 0.24039103 -0.13806432 0.23332731
000290 bf ff cb 3e 29 c8 71 be ac 92 8c 3e 25 93 b4 3d
       0.39843556 -0.23611511 0.27455652 0.08817128
0002a0 58 87 9e bd 30 4e 56 3d 84 d3 37 be 50 67 f4 bd
       -0.077406585 0.05232066 -0.1795178 -0.11933768
0002b0 05 bc 3b 3e 6f 25 9a 3d cd 0a 46 3e 2e 6c b9 3e
       0.18333443 0.07526671 0.19340058 0.36215347
0002c0 4b c9 6a be d6 69 8a 3e ff 91 82 bc ab 06 09 bf
       -0.2292835 0.2703387 -0.015938757 -0.535258
0002d0 07 e1 d2 3c 9f e7 8e 3e 5b db b4 be 36 65 3f 3e
       0.025742067 0.27911088 -0.35323605 0.18690953
0002e0 3c ee 55 3e 5e 8f b9 bd 7c 83 87 bd 71 2d 5d 3d
       0.2089166 -0.09060548 -0.066168755 0.053998414
0002f0 18 2f f0 bc 68 eb d9 bc 20 97 d3 3e 08 d8 e1 be
       -0.029319331 -0.026601508 0.41326237 -0.4411013
000300 a4 ca a1 be 92 da 1b 3e da a7 bc be 51 b0 d2 3d
       -0.31599915 0.15220097 -0.3684681 0.10287536
000310 b3 b9 eb bd 05 f2 09 be a0 bf a0 bd ac 52 f5 3d
       -0.11510029 -0.1347123 -0.078490496 0.11978659
000320 a8 37 de bd 32 86 fb bd 23 36 d6 3d 58 28 ad bc
       -0.10850459 -0.12281455 0.104595445 -0.021137401
000330 14 cb 73 3e 3c 0f d5 3e 7c 2f 99 3c c6 b1 6b 3d
       0.23807937 0.41613185 0.0186994 0.057542585
000340 7e 73 51 be 69 bd ed be 20 8e ce 3d 90 78 54 be
       -0.20454213 -0.4643357 0.10085702 -0.20749116
000350 08 b3 68 3d 08 7c 1a bd 6e 1c e2 bd 00 5f 8f 3d
       0.056811363 -0.03771594 -0.11040579 0.07000542
000360 6f ad 7b be 18 f5 51 be fc 91 6e be c0 4c a6 bd
       -0.24577878 -0.20503652 -0.23297876 -0.08120108
000370 10 45 e9 bd 18 79 89 bc f0 ea 13 bc 8e 5a 5b be
       -0.11390126 -0.016781375 -0.009028181 -0.21421263
000380 d4 20 12 bd f0 ce 6b 3d 68 ac af bd 9a 61 c5 bd
       -0.03567584 0.057570398 -0.08577806 -0.09637757
000390 58 a3 b4 3d 95 e2 36 be 4e 0b 5b be 69 2d 83 be
       0.08820218 -0.17859872 -0.21391031 -0.25620583
0003a0 70 2a 27 be b0 fc 40 be 34 73 d6 3d 6a 3b 23 be
       -0.16324782 -0.18846393 0.10471192 -0.15940633
0003b0 82 ca 40 3e 82 9e 55 3e 82 a2 d4 bd ec d9 72 3e
       0.1882725 0.20861247 -0.103825584 0.23715943
0003c0 f6 3c fa bd f3 68 18 be ef 36 cc 3e 26 4d 9c bd
       -0.122186586 -0.14883785 0.3988566 -0.076319024
0003d0 80 f9 48 bb 2c 14 83 be cf 2f 31 be 46 53 de 3d
       -0.0030666292 -0.25601327 -0.17303394 0.10855727
0003e0 f9 85 79 be e0 bc be 3d 25 c3 88 be 15 97 8d 3e
       -0.24367513 0.09313369 -0.26711383 0.2765433
0003f0 79 08 d2 bc 0f 17 58 3b 2f 03 c6 3e 7a f6 8b bf
       -0.025638806 0.0032972728 0.38674304 -1.0934594

q2.0.bias f4 [256]
000000 b2 46 b7 3e f6 f3 6a bd a4 5f 0c be 0b 03 e8 bd
       0.35796124 -0.057361566 -0.13708359 -0.113287054
000010 b9 09 46 be 3e 2e 6e 3e 94 ac 1c 3d 38 dc 8d 3e
       -0.19339646 0.23259827 0.03825052 0.27707076
000020 c2 40 b1 3e c7 2d b3 3e a0 a8 92 3d df 2f c4 bd
       0.3461972 0.34995863 0.07161069 -0.09579443
000030 47 58 4d be b9 db 2a 3e f0 69 12 bc 38 ce 95 bd
       -0.20053206 0.1668538 -0.00893639 -0.07314724
000040 39 10 7c be 33 22 ac 3e 95 f2 0d be cb e7 ef 3d
       -0.24615563 0.33619842 -0.13862069 0.11714133
000050 2c ce ad 3c 68 ed 5c be 9f 6d 12 3f 11 eb 3d 3d
       0.021216474 -0.21574938 0.5719852 0.046366755
000060 ac 6f b5 3e 89 54 27 3e d1 a1 bb bd 4b 05 a6 3e
       0.3543676 0.16340841 -0.091617234 0.32425913
000070 09 54 7a be ff 1f 56 bd 1b 64 70 be 65 17 34 3e
       -0.2444612 -0.052276608 -0.23475687 0.1758705
000080 73 bc e2 3e 17 9b cb 3e 7e 91 75 3e 5e 13 90 3d
       0.442844 0.39766762 0.23981282 0.07034944
000090 60 8f 70 bd 23 55 94 3d 2f a4 d0 3d 84 12 3d 3e
       -0.058730483 0.07242801 0.101875655 0.18464094
0000a0 15 65 3e 3e a6 65 c3 bd 83 6a 66 3e ea 31 40 3e
       0.18593247 -0.09540872 0.22501568 0.1876904
0000b0 ff d6 4b 3b 0a eb 92 3e 46 2e b7 bc 19 57 d4 3e
       0.003110349 0.28694946 -0.022360932 0.414727
0000c0 7f cc 18 3d 60 c8 a0 bd c5 3e 56 3e 66 59 38 be
       0.037304398 -0.078507185 0.20922382 -0.18002853
0000d0 d6 78 25 be 93 ac bb bd 42 22 f5 3e 44 39 1c be
       -0.16159377 -0.09163775 0.478777 -0.1525622
0000e0 09 35 56 bd 54 14 95 3e 8e d5 5e be e1 e1 c2 3e
       -0.052296672 0.29117072 -0.21761152 0.38062957
0000f0 33 8b 51 3e 44 52 26 3e 5f b8 99 3e 7a cc 8d 3e
       0.20463257 0.1624232 0.30023476 0.27695066
000100 af 3d 55 bc 62 13 0e 3e 99 af a6 bd 5b fb 1b 3f
       -0.013015195 0.13874581 -0.08138961 0.60930413
000110 5f 83 59 be bb 09 eb 3e 8c 1e b2 3e 36 54 19 3f
       -0.2124152 0.4590586 0.3478893 0.5989412
000120 4c 06 a1 3e 70 e7 a3 3e 03 6b c8 bd e5 4b 12 3d
       0.31450117 0.3201251 -0.09786036 0.03571691
000130 b3 f8 99 bd 36 0f db 3e 0d 56 28 be b9 e8 31 3e
       -0.07518139 0.42785043 -0.16439076 0.17373933
000140 e7 72 bd 3e 52 1d e9 3e aa 2a 9f 3e e1 47 07 3e
       0.37001726 0.45530182 0.31087238 0.13211013
000150 03 5d 58 ba 16 5c cc bd ec 88 93 3e 3d 00 0f 3e
       -0.0008253606 -0.099785015 0.288154 0.13964935
000160 29 fe 91 3e 48 3b 29 be 43 d9 42 bd 8f 44 6a 3e
       0.2851422 -0.1652652 -0.04757048 0.22877716
000170 9e b2 6a 3e 26 b9 f1 3e cd e7 c6 bd a7 41 80 bc
       0.229197 0.4721157 -0.09712181 -0.015656305
000180 83 d1 bc 3d e0 65 5a be 76 82 53 3e 93 04 99 3e
       0.09219649 -0.21327925 0.20655236 0.29886302
000190 cc 2e 20 3e 8b 6b 24 3e 12 a2 07 3e 3c 7f 6b 3e
       0.15642852 0.1605665 0.13245419 0.22997755
0001a0 51 5c 33 3e c7 05 a1 3e e6 7e 8a bd 59 29 b9 3e
       0.17515685 0.3144972 -0.06762485 0.36164358
0001b0 97 93 d1 3e e8 d2 27 3e b8 b7 2d 3e 91 71 d9 3e
       0.40932915 0.16389048 0.16964614 0.42469457
0001c0 40 77 cb 3e ff 76 a3 3e 19 d6 da 3e 24 e5 b3 3e
       0.39739418 0.31926724 0.4274147 0.35135758
0001d0 04 6e 55 3e aa 03 16 3f f0 77 d9 3c 2b fb 18 3e
       0.20842749 0.5859934 0.026546448 0.14939563
0001e0 59 17 a1 3e 96 9d e8 bd 50 a2 c2 bc 7b 32 1a bd
       0.31463125 -0.11358182 -0.023759037 -0.0376458
0001f0 a6 1c d7 bd 92 31 0d be 22 26 41 be 3e ea 41 3d
       -0.10503511 -0.13788441 -0.18862203 0.04734253
000200 61 10 41 3e ae 69 41 be 4a 7a db bc 55 77 44 bd
       0.18853904 -0.1888797 -0.02679171 -0.047965366
000210 77 20 5d be 64 9d bc 3e 39 0a 14 3e 74 f0 e4 3e
       -0.21594416 0.3683883 0.14457025 0.447147
000220 53 20 23 be 3d 8e f0 3e 7a 81 3a be 20 5b eb 3e
       -0.159303 0.4698352 -0.18213454 0.4596796
000230 3c 7d 78 3e 8a ab b5 bd 25 17 b1 3e 87 f7 b3 bc
       0.24266523 -0.08870609 0.3458797 -0.021968616
000240 29 c2 b3 bd 83 7d b7 3d 3b 2a 82 bd 67 30 54 3e
       -0.087772675 0.08959486 -0.06355711 0.20721589
000250 a1 ed 73 3e c6 46 f8 3d 01 84 6d 3b 9e 5d 21 3d
       0.23821117 0.12122874 0.003624201 0.03939592
000260 60 8a b8 3e fe b8 a6 3e 77 22 eb 3d c2 65 71 be
       0.36043072 0.32563013 0.11481183 -0.23573974
000270 cd 01 62 3d a9 85 71 3e d7 fe 07 3c 8b ab 9f 3e
       0.0551775 0.23586144 0.008300505 0.31185564
000280 b4 48 8c bd 84 cd 01 3e cc 90 cb bd ee d6 3b be
       -0.068498045 0.12676054 -0.09939727 -0.18343708
000290 dd f4 57 3e 81 e4 98 be ac 46 3f be af 62 3c bd
       0.21089502 -0.29861835 -0.18679303 -0.04599255
0002a0 72 4b 8d 3e ec 8f 1f 3d 8c 21 33 be 28 af 1c bd
       0.27596623 0.038955614 -0.17493266 -0.03825298
0002b0 22 d4 91 3e 53 56 06 3e 4f dd fb 3d 98 74 71 be
       0.28482157 0.13118868 0.12298071 -0.23579633
0002c0 82 65 9b bd 1c 41 50 3f 31 db ad 3e 57 33 7e 3e
       -0.075877205 0.8134935 0.33956292 0.24824272
0002d0 00 16 b2 bd 3b 02 88 3e 78 ea 6d 3e 1a 4d 55 3e
       -0.086956024 0.26564202 0.23233974 0.20830193
0002e0 18 c8 c0 3d 28 f3 ad 3e 9e 46 47 bd 74 87 30 3f
       0.09413165 0.33974576 -0.04865133 0.68956685
0002f0 b3 05 4c 3d 43 21 d9 3e 2d 73 ee bd 3b b3 35 3f
       0.049810123 0.4240819 -0.11643062 0.7097661
000300 a6 89 99 bd 6d 42 76 be a0 52 9f 38 0f 97 cb 3e
       -0.074969575 -0.24048777 7.597101e-05 0.39763686
000310 80 ae b4 3e 57 90 3b 3d 9d eb 8b bc 60 e0 8f be
       0.35289383 0.04579195 -0.017080123 -0.28100872
000320 dc 42 50 bd 55 4c 8b 3d 36 ba c6 bc 1f 41 a6 3e
       -0.050845012 0.068016686 -0.024258714 0.32471558
000330 92 ba 92 bd 13 8d dd 3d 2b 73 a8 bd 01 8d ca 3e
       -0.07164492 0.108179234 -0.082250915 0.39560702
000340 6a cf 29 3f 10 ac 62 3e 03 d0 23 be 83 8e bc 3e
       0.66332114 0.22135949 -0.15997319 0.36827478
000350 d5 7e d6 3d a1 ef 34 3e 43 cb cc 3e 84 6c 95 bd
       0.1047341 0.17669536 0.39998826 -0.07296088
000360 79 f2 8d bb 01 17 62 be a7 65 4b 3e af 4f fc bd
       -0.0043318835 -0.22079088 0.19862996 -0.12319886
000370 58 f0 c2 3e d7 2f aa 3e df dd 35 3e 6c 46 8e 3e
       0.38073993 0.33239624 0.17760418 0.27788103
000380 70 d7 e7 3d d9 6c 94 3e 93 ab c2 3e 30 ba 8b bd
       0.11320388 0.28989294 0.38021526 -0.06822622
000390 b5 20 2c 3e 65 f9 87 3e 6c 51 ae 3e ac 0d e0 3e
       0.16809352 0.2655746 0.34046495 0.4376043
0003a0 bc e7 1f 3d 73 85 8c bd 3b 2a 87 bc d9 9f 9e 3e
       0.03903936 -0.06861391 -0.01649963 0.3098133
0003b0 ee 85 12 be 53 ad 75 bd bc 6b 17 be 00 02 23 3e
       -0.14308903 -0.059979748 -0.14787191 0.15918732
0003c0 91 45 28 be 5d 34 1a 3e b3 19 f1 bd 35 11 4c 3f
       -0.16432787 0.15059038 -0.1177248 0.79713756
0003d0 39 cd d6 3e 30 67 57 3d 17 5e 32 be e1 ef 9b 3e
       0.41953447 0.05258864 -0.17418705 0.3045645
0003e0 33 48 8b 3d 65 60 08 3f e8 6b 04 3f 5e ba 14 3e
       0.0680088 0.53272086 0.5172715 0.14524218
0003f0 eb f0 dc 3c 7e 53 b6 3e 04 90 c4 3e 01 a9 0c 3e
       0.026970347 0.35610574 0.38391125 0.13736345
