astar/checkpoints1/sac_actor_100.pth (torch, 290116 bytes, 6 tensors)

weight f4 [256, 18]
0	0xbe57db0f	-0.21079658
1	0xbe5bdf24	-0.2147184
2	0xbdad58c2	-0.08464195
3	0xbda5b541	-0.08091212
4	0x3e3eaa80	0.18619728
5	0x3e2c162a	0.1680533
6	0x3e16e97a	0.14737502
7	0x3d46086d	0.04834788
8	0x3c528d40	0.012851059
9	0x3da2afaf	0.07943665
10	0xbd3edbbf	-0.046596285
11	0x3e3b5715	0.18294938
12	0x3e4dc415	0.2009433
13	0xbc20f2e0	-0.009823531
14	0xbe40bcfe	-0.18822095
15	0xbd9d78e4	-0.07689074
16	0xbe5b0f4a	-0.21392551
17	0x3e4f51bf	0.20246027
18	0xbd84e0ce	-0.064881906
19	0x3dab320e	0.083591565
20	0xbe485bb9	-0.1956624
21	0x3e5f21d5	0.2179025
22	0xbe117bf2	-0.14207438
23	0x3e1a55c1	0.15071775
24	0xbd3e5258	-0.046465248
25	0x3de72602	0.11286546
26	0xbe5c9f12	-0.21545056
27	0xbcabf228	-0.020989493
28	0xbc9b8e88	-0.018988863
29	0xbdee7429	-0.116432495
30	0x3e3571a9	0.17719139
31	0x3e1062c7	0.1410018
32	0xbe05866b	-0.13039558
33	0xbe62bd38	-0.22142494
34	0xbddeb6ec	-0.10874733
35	0xbc4f3070	-0.012645826
36	0x3e861ed2	0.2619539
37	0xbc959271	-0.018258305
38	0x3e80a370	0.25124693
39	0x3e9e3c7a	0.30905515
40	0xbdf8a1aa	-0.1214021
41	0xbdf828d4	-0.12117162
42	0x3e675d1b	0.2259411
43	0xbdaec66d	-0.085339405
44	0xbe055205	-0.13019569
45	0x3d77b203	0.0604725
46	0xbdbf4ce6	-0.09340839
47	0x3e59ad2c	0.21257466
48	0x3e05656b	0.13026969
49	0xbe24d4f9	-0.16096868
50	0x3dd21826	0.10258512
51	0x3e2cf715	0.1689113
52	0xbe0ec9d0	-0.13944173
53	0x3d592e54	0.053022698
54	0x3d6b4b89	0.057445083
55	0x3e34baf9	0.1764945
56	0xbd383298	-0.044970125
57	0xbde213c6	-0.11038928
58	0x3bdf5623	0.006815688
59	0xbe4456a6	-0.19173679
60	0x3d628782	0.05530501
61	0xbde789ef	-0.113056056
62	0xbd6cda2b	-0.05782525
63	0xbe461d6d	-0.19347163
64	0xbd8c2395	-0.06842724
65	0x3d8afa1b	0.06785985
66	0x3a237400	0.0006235242
67	0x3e6bcca3	0.23027281
68	0x3e3c2b07	0.18375789
69	0xbe14b3f1	-0.14521767
70	0xbdd86ca2	-0.10567595
71	0x3e40ab0f	0.18815254
72	0xbe284e8e	-0.16436216
73	0x3e5c7cf9	0.21532048
74	0x3e0f83d4	0.14015132
75	0xbd41e08c	-0.047333285
76	0xbd087ffb	-0.033325177
77	0xbdfa1cca	-0.12212522
78	0xbda639bd	-0.081164815
79	0xbe75e455	-0.24012883
80	0x3dea2674	0.114331156
81	0x3d92b91a	0.071642116
82	0xbdac47ca	-0.0841213
83	0x3da7f993	0.082018994
84	0xbc0e89e0	-0.008699864
85	0xbe57edbc	-0.21086782
86	0xbe26f2bc	-0.16303533
87	0xbe643d62	-0.2228904
88	0xbd40f76c	-0.04711096
89	0x3dc3f682	0.09568502
90	0x3e2c0268	0.16797793
91	0xbdc0f6b4	-0.09422055
92	0xbc9f70b5	-0.019462923
93	0xbd444e34	-0.047926143
94	0x3c8f2631	0.017474266
95	0x3e96f7cc	0.2948593
96	0xbe0c4992	-0.1369994
97	0x3e0a94fb	0.13533394
98	0x3e4f96b1	0.20272328
99	0xbc76af73	-0.015056479
100	0xbe27cd6b	-0.16386954
101	0x3e7fcfbc	0.24981588
102	0xbd102b70	-0.035197675
103	0x3e08c887	0.13357745
104	0x3cf2fcb8	0.029661521
105	0xbd80928a	-0.0627795
106	0x3e30f85d	0.17282243
107	0xbe02d1e0	-0.12775373
108	0xbcd1cdc4	-0.025610812
109	0xbd0de5f3	-0.034643125
110	0xbd086fcd	-0.033309747
111	0x3e4a010a	0.19726959
112	0x3e11962f	0.14217447
113	0xbe1c3eee	-0.15258381
114	0xbe6b898f	-0.23001693
115	0x3b5e15bb	0.0033887464
116	0x3e114f39	0.14190377
117	0x3e80c62a	0.25151187
118	0xbe4d3b96	-0.20042261
119	0x3e570350	0.20997357
120	0x3d3bfdf4	0.045896485
121	0x3e26e4c5	0.16298206
122	0x3ddffd0a	0.10936935
123	0x3d926da2	0.07149817
124	0x3e556841	0.20840551
125	0x3dbd9c5e	0.0925834
126	0x3d72909c	0.05921994
127	0xbd9605f2	-0.07325353
128	0xbe5d5f33	-0.21618347
129	0xbd80b944	-0.062853366
130	0x3da85fda	0.08221407
131	0xbd16b540	-0.036793947
132	0xbc8045c0	-0.01565826
133	0xbe663f64	-0.22485119
134	0xbd34e6c0	-0.044165373
135	0xbd3bd568	-0.045857817
136	0xbdbd3614	-0.0923883
137	0x3d30d21c	0.043169126
138	0xbe528ea0	-0.2056222
139	0xbdd80ee2	-0.10549714
140	0x3e5f98d9	0.2183565
141	0x3e460c9f	0.19340752
142	0xbddd89a6	-0.1081727
143	0xbd8cc350	-0.068731904
144	0x3e1aaedb	0.15105765
145	0xbe3db99f	-0.1852784
146	0x3d4647e4	0.048408404
147	0x3e2c60a4	0.1683374
148	0x3e54ab98	0.20768583
149	0x3daaab98	0.0833351
150	0x3e078b9a	0.13236848
151	0xbd216bb3	-0.03940935
152	0x3e72c88a	0.23709312
153	0xbe0355ee	-0.12825748
154	0x3be1b991	0.0068885763
155	0x3e1308a9	0.14358772
156	0xbda54442	-0.0806966
157	0x3e2edffb	0.1707763
158	0x3cce51d8	0.02518551
159	0x3dc4ae12	0.09603514
160	0x3e46e479	0.19423093
161	0xbb0338c0	-0.002002284
162	0xbdf5c637	-0.12000697
163	0x3e81df2d	0.25365582
164	0x3e86753e	0.26261324
165	0x3ea4a4c5	0.3215696
166	0x3e84a913	0.25910243
167	0x3cdc96af	0.02692732
168	0xbbde863c	-0.0067909043
169	0xbd22f382	-0.03978301
170	0x3d7c877a	0.061652638
171	0x3e4457ab	0.19174068
172	0xbe0ef2cb	-0.13959806
173	0x3dcbad3b	0.099451505
174	0xbe2d7095	-0.16937478
175	0x3d08a8bc	0.033364043
176	0x3e4d3b5b	0.20042174
177	0x3e259b69	0.16172566
178	0xbe6f48eb	-0.2336766
179	0x3bc1a4e0	0.005909547
180	0xbda436ff	-0.08018302
181	0x3e18bdf7	0.14916216
182	0xbd2354ca	-0.039875783
183	0xbe92a41e	-0.28640836
184	0x3d80d882	0.062912956
185	0xbe33787e	-0.17526433
186	0x3e2f9b6f	0.17149137
187	0x3e166797	0.14687954
188	0x3e64131e	0.22272918
189	0xbe2169d0	-0.1576302
190	0x3d19e9c4	0.037576452
191	0x3e483e3e	0.19554994
192	0x3db3a536	0.08771746
193	0x3d5a1ba4	0.053249016
194	0x3d82f16e	0.06393705
195	0xbdb9bd8e	-0.09069358
196	0x3b998600	0.0046851635
197	0x3dcb53c6	0.09928088
198	0xbe63a3a7	-0.22230397
199	0x3dd3694a	0.10322817
200	0xbe4eb23e	-0.20185181
201	0xbe5aed32	-0.21379545
202	0xbdd05fc8	-0.10174519
203	0xbdfe8169	-0.12427027
204	0xbe543fb8	-0.20727432
205	0xbdda6942	-0.106646076
206	0x3e46c193	0.1940978
207	0xbe0207d0	-0.12698293
208	0xbe4fa156	-0.20276389
209	0x3e0a5811	0.13510157
210	0x3e14fd81	0.14549829
211	0x3e4d7a3b	0.20066158
212	0x3d09cc74	0.033642247
213	0xbe4c1e3e	-0.19933411
214	0xbd61622c	-0.055025265
215	0x3ccb7c68	0.024839595
216	0xbd2ed30c	-0.04268174
217	0xbc3055e9	-0.01076267
218	0xbcf80ac4	-0.030278571
219	0xbe0c4726	-0.13699016
220	0xbe83b78b	-0.2572597
221	0xbde49d17	-0.11162775
222	0x3c5e1ad5	0.013556202
223	0x3d2fed6a	0.042951025
224	0x3e3eec7b	0.18644898
225	0x3e0140c5	0.12622364
226	0x3e639c8d	0.22227688
227	0x3de7c6ae	0.11317192
228	0x3e578399	0.21046294
229	0x3d9152f6	0.07095902
230	0x3e42a055	0.19006474
231	0xbe179fa4	-0.14806992
232	0xbe5a77a9	-0.21334709
233	0xbd7f3ebc	-0.062315688
234	0x3c3bba5a	0.011458004
235	0x3e65201b	0.22375529
236	0xbdb2f870	-0.08738792
237	0x3d66799a	0.056268312
238	0x3e142d04	0.14470297
239	0x3d913a10	0.07091153
240	0x3e49ba7e	0.19700047
241	0xbe6322e8	-0.22181284
242	0xbe2f25a1	-0.17104198
243	0x3d3cdd12	0.046109267
244	0x3dbda39d	0.092597224
245	0xbd1afa94	-0.037836626
246	0x3e30602b	0.17224185
247	0xbe277d21	-0.16356327
248	0x3d6b2dc4	0.057416692
249	0x3e4b26c1	0.19839002
250	0x3e65b64d	0.22432823
251	0x3dbd6476	0.09247677
252	0x3e285f23	0.16442542
253	0xbde7c316	-0.113165066
254	0x3d7d8bc7	0.06190088
255	0xbcf386d9	-0.029727386

bias f4 [256]
0	0x3da57736	0.08079378
1	0x3e11df69	0.1424538
2	0xbde312c2	-0.11087562
3	0x3d640aad	0.055674244
4	0xbe4ed3a3	-0.2019792
5	0xbe26f37e	-0.16303822
6	0xbe4019e4	-0.18759876
7	0xbcd93528	-0.026514605
8	0xbd6c8ea1	-0.05775321
9	0x3e4d5be1	0.2005458
10	0xbd8a0b61	-0.067404516
11	0xbe1b7e66	-0.15184936
12	0xbc93e6d7	-0.018054409
13	0xbd80529b	-0.06265756
14	0x3dba0ab5	0.090840735
15	0x3e2f0ec6	0.1709548
16	0xbe4b9406	-0.19880685
17	0xbbeb7e40	-0.007186681
18	0x3e4b1404	0.19831854
19	0x3e75e81a	0.24014321
20	0x3b333847	0.0027346776
21	0x3e817971	0.25287965
22	0xbd9fd35e	-0.07803987
23	0xbde0b585	-0.10972122
24	0xbc5f8ba4	-0.013644133
25	0x3d8ad090	0.067780614
26	0x3e4704bd	0.19435401
27	0x3e6ec6c1	0.23318006
28	0x3e5e7ddd	0.217277
29	0xbcc0dc5c	-0.023542576
30	0xbd387d81	-0.045041565
31	0x3d2a9e4c	0.04165487
32	0xbe11f0d0	-0.14252019
33	0x3e3ffda9	0.18749107
34	0xbd531290	-0.051531374
35	0xbdf96734	-0.121778876
36	0xbddd45f6	-0.108043596
37	0x3e3fcf8c	0.18731517
38	0x3e234df7	0.1594771
39	0x3dd2ab96	0.10286634
40	0x3e030458	0.12794626
41	0x3dc83194	0.09775081
42	0xbdfded5d	-0.12398789
43	0xbd31dae9	-0.04342166
44	0xbd9fe579	-0.0780744
45	0xbe41da1f	-0.18930863
46	0x3e16e1c0	0.14734554
47	0xbdf825fd	-0.12116621
48	0x3e00d54a	0.12581363
49	0x3e5b0ead	0.21392317
50	0xbe5957eb	-0.21224944
51	0xbdf95bea	-0.12175734
52	0xbdda00c1	-0.10644675
53	0x3e6ee792	0.23330525
54	0x3e43558f	0.19075607
55	0x3c693450	0.014233664
56	0xbcff12b6	-0.031136852
57	0x3e6e09e9	0.23245968
58	0xbe3e601d	-0.18591352
59	0x3ac90fbf	0.0015339776
60	0x3e3fcdbc	0.18730825
61	0x3bdcb693	0.0067356317
62	0xbe00b01e	-0.12567183
63	0x3e495d50	0.19664502
64	0x3e5979a9	0.21237816
65	0x3d1e06b4	0.03858061
66	0xbde04fbe	-0.109527096
67	0xbe11f21c	-0.14252514
68	0xbe41b143	-0.18915276
69	0xbe1d08e5	-0.15335424
70	0xbd6e3b25	-0.058161873
71	0xbd9a4ddc	-0.07534382
72	0x3cc2d8cc	0.023785017
73	0xbe65cbd8	-0.22441041
74	0xbe0a6342	-0.13514426
75	0xbe313091	-0.17303683
76	0xbe28d950	-0.16489148
77	0x3e16bed5	0.14721234
78	0x3e08ca17	0.13358341
79	0xbdc6f9fe	-0.09715651
80	0x3e44458d	0.19167157
81	0x3dcbace9	0.09945089
82	0x3e2142c4	0.15748125
83	0xbe6047d0	-0.21902394
84	0x3d627273	0.05528493
85	0xbe61a751	-0.22036482
86	0xbd931f36	-0.071836874
87	0x3e4bfd2f	0.199208
88	0xbe3de02b	-0.18542545
89	0xbe55e736	-0.20888981
90	0x3d8b27c5	0.06794695
91	0xbd7faa10	-0.062418044
92	0xbd2b444c	-0.04181318
93	0x3d5206d8	0.051276058
94	0xbcbc0190	-0.022949964
95	0x3d0f13ac	0.03493087
96	0xbd9a8832	-0.075455084
97	0x3dd74118	0.105104625
98	0x3dd3c3b7	0.10340064
99	0x3dcea17c	0.100893945
100	0xbe543fe4	-0.20727497
101	0xbd319366	-0.04335346
102	0xbd4408b1	-0.04785985
103	0x3c8dc91e	0.017307814
104	0x3e635d2b	0.2220351
105	0x3e53e0c3	0.20691209
106	0x3dfecc26	0.12441282
107	0x3c63cdab	0.0139040155
108	0x3e29e3cd	0.16590805
109	0xbe06b9a8	-0.1315676
110	0x3d7c83ec	0.061649248
111	0xbd8c8685	-0.06861595
112	0xbe1e322a	-0.15448824
113	0x3d7dfed0	0.062010586
114	0x3e06788b	0.13131921
115	0xbde32b9a	-0.11092301
116	0x3ce97121	0.028496327
117	0xbe544475	-0.2072924
118	0xbdfa04dc	-0.12207958
119	0xbe541629	-0.20711578
120	0x3da96e0d	0.08272944
121	0xbd202c8e	-0.03910499
122	0x3d3130ed	0.04325955
123	0xbd9e420e	-0.07727443
124	0xbd5498de	-0.051903598
125	0x3e2ece6f	0.17070936
126	0xbe4e2275	-0.20130332
127	0x3e5d0856	0.21585211
128	0x3ca197bb	0.019725671
129	0xbd7619bd	-0.06008314
130	0x3e486923	0.19571356
131	0xbcfb3024	-0.030662604
132	0xbdf7efe2	-0.12106301
133	0x3ce6c031	0.028167816
134	0xbe499b39	-0.19688119
135	0xbdbaa52f	-0.091135375
136	0x3df8aeb0	0.12142694
137	0x3d81ec45	0.06343893
138	0x3e63b2d5	0.22236188
139	0xbd16a3d8	-0.036777347
140	0x3ccc95c4	0.024973758
141	0x3e614ffc	0.22003168
142	0xbdd7ec93	-0.1054317
143	0xbe37a6d1	-0.17934729
144	0xbdb77efd	-0.08959768
145	0x3df009fe	0.11720656
146	0xbe11024a	-0.1416103
147	0xbd299a43	-0.04140688
148	0xbe16b7ad	-0.14718504
149	0x3e6febf8	0.23429859
150	0x3e7a683d	0.24453826
151	0x3e04fe1f	0.12987565
152	0xbdca0f66	-0.09866218
153	0xbdb580f6	-0.08862488
154	0xbcdf0954	-0.027226128
155	0x3e055572	0.13020876
156	0x3e843b9c	0.25826728
157	0xbd8844b4	-0.06653729
158	0xbe179805	-0.14804085
159	0xbe1be4df	-0.15224026
160	0xbd82b129	-0.06381447
161	0xbe57122c	-0.21003026
162	0xbe6ce70d	-0.23135014
163	0xbe17dcce	-0.14830324
164	0x3ddf2036	0.108948156
165	0x3e11d61b	0.14241831
166	0x3df2dbee	0.118583545
167	0x3e879344	0.26479542
168	0x3e1b7999	0.15183105
169	0xbde4eb8d	-0.1117774
170	0xbe058c9d	-0.13041921
171	0x3e6064a3	0.2191339
172	0xbc9eb4ab	-0.019373259
173	0x3e119eae	0.14220688
174	0x3cf92bbb	0.03041636
175	0x3e44bc28	0.19212401
176	0x3cf56920	0.029957354
177	0xbe09f0ca	-0.1347076
178	0x3d92ac5e	0.07161783
179	0x3d2ce385	0.042209167
180	0x3e62f710	0.2216456
181	0x3e2bdbda	0.16783085
182	0x3d90bf62	0.070677534
183	0x3e013951	0.1261952
184	0x3e664496	0.22487101
185	0xbd1fb343	-0.038989317
186	0xbdce3084	-0.10067847
187	0x3e3b22c9	0.18274988
188	0xbd096fe5	-0.033553977
189	0xbe0324a9	-0.12806953
190	0xbd1d9078	-0.038467854
191	0xbe3f511f	-0.18683289
192	0x3d770064	0.060303107
193	0xbcb17b64	-0.021665283
194	0xbd34514c	-0.044022843
195	0x3e393c0e	0.18089315
196	0x3eb78323	0.35842237
197	0xbdba7f78	-0.09106344
198	0xbe2cd563	-0.16878276
199	0xbaf59fd3	-0.0018739648
200	0xbc1eda70	-0.009695634
201	0x3e07e58a	0.13271156
202	0xbcf249de	-0.029576238
203	0xbdce76c2	-0.10081245
204	0x3c9a07d4	0.01880256
205	0xbddcdc7b	-0.10784241
206	0xbdf06af6	-0.11739151
207	0x3e3b8e7c	0.18316072
208	0xbe1d0db6	-0.15337262
209	0x3e6b0a68	0.22953188
210	0xbd8d5d78	-0.069025934
211	0xbd1ea3ee	-0.038730554
212	0x3e616e8f	0.22014831
213	0x3e64f15b	0.22357695
214	0xbdef70e4	-0.11691454
215	0xbe042de8	-0.12908137
216	0x3e210f71	0.15728547
217	0xbe201f52	-0.15636948
218	0xbe62a4ce	-0.2213318
219	0xbe0083b3	-0.1255024
220	0x3dda0446	0.10645346
221	0xbdc4a9c0	-0.0960269
222	0x3e29bbca	0.16575542
223	0xbe0fb8ae	-0.14035293
224	0x3dca33a9	0.09873135
225	0xbc93d36d	-0.018045152
226	0xbe0a1489	-0.13484396
227	0xbd97caa5	-0.07411698
228	0xbe2a966f	-0.16658948
229	0x3cff58f8	0.031170353
230	0x3de21555	0.11039225
231	0xbe2c1540	-0.16804981
232	0xbd8392b2	-0.06424464
233	0x3bd03180	0.006353557
234	0xbe6fed72	-0.23430422
235	0xbd2273a4	-0.039661065
236	0x3e4976f5	0.19674285
237	0x3deb7106	0.11496167
238	0x3e331d9b	0.17491762
239	0xbe0b9425	-0.13630731
240	0x3df8b91f	0.12144684
241	0x3d5f6c57	0.05454668
242	0xbc40027a	-0.01171934
243	0xbe68d671	-0.22738053
244	0xbc3dbdd8	-0.011580907
245	0xbd7aee3d	-0.061262358
246	0x3d6cc4d6	0.057804905
247	0x3e78665f	0.24257801
248	0xbe6efae3	-0.23337893
249	0x3d04954c	0.032368943
250	0x3e783be4	0.24241596
251	0xbe3c7f4d	-0.18407936
252	0x3d99dc34	0.075127035
253	0x3e36ce3a	0.17852107
254	0x3e32dd5b	0.17467253
255	0xbde7bdc2	-0.1131549

weight f4 [256, 256]
0	0x3da8b9fc	0.08238599
1	0x3d5f124e	0.054460816
2	0x3c251b37	0.010077289
3	0x3d5a880a	0.053352393
4	0xbe0e492b	-0.13895099
5	0xbb04c9cb	-0.002026188
6	0x3e0fb535	0.14033969
7	0xba377680	-0.0006998554
8	0x3d5a7c27	0.053341057
9	0x3ca5b274	0.020226695
10	0x3baa914f	0.0052053104
11	0x3b5dfa00	0.0033870935
12	0x3d64f428	0.055896908
13	0x3d6dd321	0.058062676
14	0x3d8c6e5d	0.068569876
15	0x3dddeb5b	0.10835906
16	0x3d697e0e	0.05700498
17	0xbd6a66c4	-0.05722691
18	0x3d0e2224	0.034700528
19	0xbcd0527a	-0.025429953
20	0xbd268897	-0.040657606
21	0x3e184e0b	0.14873521
22	0xbc725361	-0.014790387
23	0xbd8dad76	-0.06917851
24	0x3ae56ff1	0.0017504675
25	0x3d02915d	0.03187691
26	0xbd0bea5c	-0.03415905
27	0xbc14c5f0	-0.009080395
28	0x3cf8e840	0.030384183
29	0xbd215b5b	-0.039393764
30	0xbb83b34c	-0.0040191766
31	0xbd6d4c74	-0.05793424
32	0x3c10efc9	0.008846232
33	0x3c95898c	0.018254064
34	0x3c92cf19	0.017921017
35	0x395d932e	0.00021131031
36	0xbd6566b7	-0.05600616
37	0x3d54350b	0.0518084
38	0x3dc2cf5a	0.095122054
39	0x3c9da618	0.019244239
40	0xbd2c419a	-0.04205475
41	0x3d3b2c54	0.04569657
42	0xbc97b006	-0.018516552
43	0xbcbb8ec5	-0.022895226
44	0x3cc5b8c1	0.02413595
45	0xbd062ef6	-0.03275963
46	0x3d9ec310	0.07752049
47	0x3d295120	0.041337132
48	0xbc659437	-0.014012388
49	0x3c86c1e6	0.01644988
50	0xbcc0b53c	-0.02352392
51	0x3d3a97fe	0.045555107
52	0xbc8bed2a	-0.017080862
53	0xbd134a52	-0.03595955
54	0xbb8a0de9	-0.004213084
55	0x3d64ea82	0.055887707
56	0xbe0a325e	-0.13495776
57	0x3b459631	0.0030149336
58	0x3bc936df	0.0061405743
59	0x3d94ac14	0.07259384
60	0x3c09888f	0.0083943745
61	0x3d997b7b	0.07494255
62	0x3d521c2e	0.051296405
63	0x3da69ece	0.08135758
64	0xbd66e0a2	-0.05636657
65	0xbd08d15d	-0.03340279
66	0xbcf484e9	-0.029848533
67	0xba3b9700	-0.00071559846
68	0x3b690238	0.00355543
69	0x3b6d111c	0.0036173528
70	0x3d92018e	0.07129203
71	0x3c37e1a2	0.011223229
72	0xbd885f06	-0.06658749
73	0x3d24244e	0.040073685
74	0xbd50f4bc	-0.051014647
75	0xbe16923e	-0.14704224
76	0xbd299dea	-0.041410364
77	0x3c0cf51a	0.008603359
78	0x3d5d22f0	0.053988397
79	0x3da9bad2	0.08287586
80	0xbb842e50	-0.004033841
81	0xbd73db6c	-0.05953543
82	0x3d8ae20f	0.067813985
83	0xbcf90de8	-0.030402139
84	0xbc832f38	-0.016013727
85	0x3e11b7d4	0.14230281
86	0x3cd69d3c	0.026198022
87	0xbd3f01a4	-0.046632424
88	0xbd6483ee	-0.05578988
89	0x3be3fb60	0.0069574565
90	0x3beaeb82	0.007169188
91	0xbcb75d78	-0.022383437
92	0xbd0fc3ba	-0.03509877
93	0x3df84b0f	0.12123691
94	0x3d5a5a18	0.053308576
95	0x3d3604d0	0.044438183
96	0xbd769322	-0.06019891
97	0x3d801b4a	0.06255205
98	0x3d221a6e	0.039575987
99	0xbcc5ed75	-0.02416108
100	0xbd52cc15	-0.05146416
101	0x3bcc4c10	0.0062346533
102	0x3d1678a3	0.036736142
103	0x3c449e5a	0.012000645
104	0x3db5c652	0.08875717
105	0x3d481601	0.04884911
106	0x3e182d4e	0.14861032
107	0x3ce89545	0.02839149
108	0x3baf38ca	0.005347346
109	0xbcb68b90	-0.022283345
110	0xbafa4680	-0.0019094497
111	0x3d9a84e2	0.07544877
112	0x3de8a5a1	0.11359716
113	0xbd6912c8	-0.056902677
114	0xbd21d20e	-0.039506964
115	0x3d41b366	0.04729023
116	0x3c4fb658	0.0126777515
117	0x3d371af4	0.04470344
118	0xbd0d96a4	-0.03456749
119	0x3d286b84	0.04111816
120	0x3d83e39f	0.064399
121	0x3db99232	0.09061088
122	0x3c95afbe	0.018272277
123	0x3d4e46c6	0.050360464
124	0x3d0cfc17	0.0344201
125	0x3d34b225	0.044115204
126	0x39bf75ba	0.00036518072
127	0xbb84e00f	-0.00405503
128	0xbd710ece	-0.05885201
129	0x3d58b9ee	0.05291169
130	0x3b5eb540	0.0033982545
131	0xbd2c51ac	-0.042070076
132	0x3e004f5e	0.12530276
133	0x3dbbbd82	0.09167005
134	0xbcf1b645	-0.029505858
135	0xbd8c46e6	-0.0684946
136	0xbdda044e	-0.10645352
137	0x3e026643	0.12734322
138	0x3ded5d3b	0.11590048
139	0xbd04c7bc	-0.032417044
140	0xbdf4029d	-0.11914561
141	0x3ca4567c	0.02006077
142	0xbd6c280e	-0.057655387
143	0xba5c2680	-0.0008398071
144	0xbd1ae39d	-0.037814725
145	0xbd7a15a4	-0.061055794
146	0x3d1cf706	0.038321517
147	0xbd4c4bd5	-0.049877007
148	0xbba19b09	-0.0049318117
149	0xbd215923	-0.039391648
150	0x3dd5b3dd	0.10434697
151	0xbce20420	-0.027589858
152	0xbd0d6529	-0.034520302
153	0x3c2d3938	0.010572724
154	0x3d1cc41f	0.038272973
155	0xbd472170	-0.048615873
156	0xbd4c323c	-0.049852595
157	0x3d442804	0.047889724
158	0x3d8d4030	0.068970084
159	0xbcda69f8	-0.026661858
160	0x3bc4a2aa	0.0060008364
161	0xbd524f6a	-0.051345266
162	0x3d6e575d	0.058188785
163	0x3c28fb4d	0.010313821
164	0x3b8dfa40	0.0043328106
165	0xbd822507	-0.06354719
166	0xbbcac3fc	-0.006187914
167	0xbe223fe5	-0.15844686
168	0x3d43db8a	0.04781679
169	0xbd091d90	-0.03347546
170	0x3da7b52d	0.081888534
171	0xbd5777a0	-0.052604318
172	0x3db38fb5	0.08767644
173	0x3d302518	0.043004125
174	0xbd17b2f0	-0.037035882
175	0xbcd441da	-0.025910307
176	0xbdb63912	-0.08897604
177	0x3c59b80b	0.013288508
178	0x3c7bc9db	0.01536795
179	0xbd98031b	-0.07422467
180	0x3d7a676c	0.061133787
181	0xbd8935f3	-0.06699743
182	0xbcb2f702	-0.021846298
183	0xbd6a8771	-0.057258073
184	0x3d2eb914	0.042656973
185	0x3d93a6a5	0.07209519
186	0x3ce86b2e	0.02837142
187	0x3cd2d957	0.025738401
188	0xbd366d1b	-0.044537645
189	0xbd2a975d	-0.041648258
190	0x3c90eb64	0.017690368
191	0x3c9434cf	0.018091587
192	0x3c780678	0.015138261
193	0xbc2eebda	-0.010676349
194	0xbcc79686	-0.024363767
195	0xbba544a6	-0.005043584
196	0xbdc3becd	-0.09557877
197	0xbe406473	-0.18788318
198	0xbd99d19d	-0.07510684
199	0xbd382545	-0.044957418
200	0xbd5e71c8	-0.05430773
201	0x3c4d801c	0.012542751
202	0x3e13f6a1	0.1444955
203	0x3d1f0b30	0.03882903
204	0x3d4c1685	0.049826164
205	0xbd1edaa9	-0.03878275
206	0xbd28bc1e	-0.041195028
207	0x3d5713fc	0.052509293
208	0xbd479efd	-0.048735607
209	0xbd97c2f8	-0.07410234
210	0x3b0e808a	0.0021744096
211	0xbbd66f84	-0.0065440554
212	0x3c829ed8	0.015944883
213	0x3cc32cb7	0.023825033
214	0xbcbaef89	-0.022819297
215	0x3dbecddd	0.09316609
216	0xbd027c64	-0.03185691
217	0xbd2f13c9	-0.042743478
218	0xbca7fcbc	-0.020506255
219	0x3d784ac0	0.060618162
220	0xbd711202	-0.058855064
221	0xbcd2eff0	-0.025749177
222	0x3d28670c	0.0411139
223	0x3d86de5a	0.06585379
224	0x3d89ae04	0.06722644
225	0x3ca6b5f3	0.020350432
226	0x3d5d5a8f	0.05404144
227	0x3d465bbe	0.048427336
228	0xbd221d9d	-0.039579023
229	0x3ce71f58	0.028213188
230	0x3dd18430	0.10230291
231	0x3d857fef	0.06518542
232	0x3d62efd4	0.0554045
233	0xbd7c16fa	-0.06154535
234	0xb9551200	-0.00020319968
235	0x3d875b95	0.06609265
236	0x3d2a0bd4	0.041515186
237	0xbd3e3c86	-0.04644444
238	0x3d44a234	0.04800625
239	0xbd569bf1	-0.05239481
240	0x3d1999cd	0.03750019
241	0x3aaf4874	0.0013373033
242	0x3d0b7502	0.034047134
243	0x3da54b71	0.0807103
244	0x3d45e7f7	0.048316922
245	0x3d6e6e50	0.05821067
246	0x3c120509	0.008912333
247	0xbd77c253	-0.060488056
248	0xbd3d0b32	-0.046153255
249	0x3cd753b5	0.026285032
250	0xbd8e251b	-0.06940671
251	0xbd474032	-0.048645206
252	0x3c6573aa	0.014004627
253	0xbd48b1f1	-0.048997823
254	0xbc19c706	-0.00938583
255	0x3d1b715b	0.0379499

bias f4 [256]
0	0x3cf1796c	0.029476844
1	0x3b57731b	0.0032875005
2	0xbb753550	-0.003741581
3	0x3d04d119	0.032425974
4	0xbd4eeb60	-0.05051744
5	0xbd3e6506	-0.046483062
6	0x3cb43dcc	0.022002123
7	0xbc42d8b9	-0.011892491
8	0xbd10f85c	-0.035393104
9	0x3d2510e3	0.040299308
10	0xbd3ed6f2	-0.046591707
11	0xbd7fb63d	-0.062429655
12	0x3d2e2b8a	0.04252199
13	0xbd33feaa	-0.04394404
14	0x3ca39264	0.019967265
15	0x3ca77b29	0.02044447
16	0x3d3c7ab2	0.04601545
17	0x3a142e15	0.0005652619
18	0x3d17f39e	0.037097566
19	0xbd38607c	-0.04501389
20	0xbc9e4fcc	-0.01932516
21	0xbce8f507	-0.02843715
22	0xbcb4ff6f	-0.022094456
23	0x3d2e7834	0.042595103
24	0xbca43579	-0.020045029
25	0x3d1c5de7	0.03817549
26	0xbd4b8853	-0.049690556
27	0x3b44a3da	0.003000489
28	0x3c0ad630	0.008473918
29	0xbcf7606f	-0.03019735
30	0xbcb042f3	-0.021516299
31	0xbd72b730	-0.059256732
32	0x3b8e8fa4	0.0043506194
33	0x3c6a5a59	0.014303767
34	0xbd2d322d	-0.04228418
35	0xbd503f53	-0.05084164
36	0xba40c9cc	-0.0007354289
37	0xbd2ec7af	-0.042670902
38	0xbc2459ac	-0.010031145
39	0xbc0e5c21	-0.008688957
40	0x3d28d0e4	0.04121484
41	0x3d967ae6	0.0734766
42	0x3cb557d3	0.022136604
43	0x3d3381d4	0.043824986
44	0x3d3537c9	0.044242654
45	0xbd341362	-0.043963797
46	0xbd344b0a	-0.044016875
47	0xbccecdd0	-0.025244623
48	0xbccfb413	-0.02535442
49	0xba95ec40	-0.0011438206
50	0x3ae24413	0.0017262719
51	0x3cfa3e1e	0.030547198
52	0xbd86cfce	-0.06582604
53	0x3b83f3e7	0.004026878
54	0xbc60f1e2	-0.013729544
55	0xbcc107a2	-0.02356321
56	0xbc817ea8	-0.015807465
57	0x3c608010	0.0137024075
58	0xbcfd3c19	-0.030912446
59	0xbb2792a0	-0.0025569573
60	0xbca9d596	-0.020731729
61	0x3c405449	0.011738845
62	0x3ca44eb3	0.020057058
63	0xbc369333	-0.0111434935
64	0xbd10b633	-0.03533001
65	0x3bf33164	0.0074216593
66	0x3d73200e	0.05935674
67	0x3d5a5b24	0.053309575
68	0xbd24fced	-0.04028027
69	0xbb1b0c15	-0.0023658324
70	0x3d226d2c	0.039654896
71	0x3d094a87	0.03351834
72	0xbbb685c9	-0.0055701477
73	0x3cb75e6e	0.022383895
74	0xba38a82f	-0.0007044104
75	0xbca4d08b	-0.020118972
76	0xbd08c6f3	-0.033392858
77	0xbbdbcb9c	-0.0067076217
78	0xbd4f2373	-0.050570916
79	0xbd6a4864	-0.057197943
80	0xbcce2ca9	-0.02516778
81	0x3d251901	0.04030705
82	0xbcd20cca	-0.025640864
83	0x3d57e804	0.0527115
84	0x3cc4813e	0.023987409
85	0x3d86f776	0.06590168
86	0xbd2e3154	-0.04252751
87	0x3ce711ff	0.028206823
88	0xbbbe77d8	-0.0058126263
89	0x3d1b2b9c	0.037883386
90	0xbd514511	-0.051091257
91	0xbd2a7faf	-0.041625675
92	0x3c73fdec	0.014892083
93	0xbd48b296	-0.048998438
94	0x3ba21545	0.004946383
95	0xbcbd8358	-0.023133919
96	0xbca79e25	-0.020461151
97	0xbd4a1220	-0.04933369
98	0x3bb235d0	0.005438544
99	0x3d4afb02	0.049555786
100	0x3d045a02	0.0323124
101	0xbd23e7b6	-0.0400159
102	0x3ceca7dd	0.028888637
103	0x3bdf15bb	0.0068080104
104	0x3cb6c47b	0.022310486
105	0xbd79bd3e	-0.06097149
106	0x3ce927ba	0.028461326
107	0xbbfe25ac	-0.0077559557
108	0x3d06505d	0.032791484
109	0xbc8e4fbb	-0.017372003
110	0xbd841e3b	-0.064510785
111	0xbcbb2891	-0.022846492
112	0x3c1f5e28	0.009727038
113	0x3d827b46	0.06371169
114	0xbd82b0ec	-0.063814014
115	0xbd3da92a	-0.046303906
116	0xbb882558	-0.0041548423
117	0x3d160654	0.03662713
118	0x3ce010ed	0.02735182
119	0xbce34d89	-0.027746933
120	0x3b6673ec	0.003516431
121	0x3d83a686	0.06428246
122	0xbd0eaa32	-0.03483028
123	0x3c20b5c5	0.009808962
124	0x3cd2fc6a	0.025755126
125	0x3bb732b9	0.0055907634
126	0xbb6f29e0	-0.0036493465
127	0xbcf758c1	-0.030193688
128	0xbd57d6ce	-0.052695088
129	0xbd7db133	-0.06193657
130	0xbca460dc	-0.020065717
131	0x3d6a4511	0.057194773
132	0x3d688c03	0.05677415
133	0x3c3ca5f1	0.011514173
134	0xbd2683f0	-0.04065317
135	0x3d2fd6aa	0.04292933
136	0xbbea879a	-0.0071572782
137	0x3ce8d2a7	0.02842076
138	0x3d330e76	0.043714963
139	0x3d18831d	0.037234414
140	0x3c95bfba	0.018279899
141	0xbc8f0162	-0.017456714
142	0x3cbc5241	0.02298844
143	0x3c708b98	0.014681719
144	0x3d84042f	0.064461105
145	0x3d4f02cd	0.05053978
146	0x3d1bb2a2	0.038012154
147	0x3ceb9580	0.02875781
148	0x3c14ffe9	0.009094217
149	0x3d56c39b	0.052432638
150	0xbc861887	-0.016369117
151	0xbd280a5d	-0.04102551
152	0xbbc3477c	-0.0059594493
153	0x3cf76151	0.030197771
154	0x3d5d5ad9	0.054041717
155	0xbd812c62	-0.063072935
156	0x3c9444e3	0.018099254
157	0x3d420aa9	0.047373448
158	0xbd6d677a	-0.05796001
159	0x3c6deaba	0.014521295
160	0x3d7b46b6	0.061346732
161	0xbd2da30e	-0.04239183
162	0x3d53d199	0.05171356
163	0xbcfe10fd	-0.03101396
164	0x3d4933e3	0.04912175
165	0x3cce74a9	0.025202112
166	0x3d27fcc6	0.041012548
167	0xbd7066fe	-0.05869197
168	0xbd74a62c	-0.059728786
169	0xbd34655b	-0.044041973
170	0xbd52f716	-0.05150517
171	0x3cb1ceb8	0.021705016
172	0xbc9f85e8	-0.019473031
173	0x3d648195	0.05578764
174	0x3c368d3a	0.0111420695
175	0x3c892ccb	0.016744992
176	0x3d2d7c5f	0.042354938
177	0x3ca6193d	0.020275706
178	0xba6648d0	-0.00087846536
179	0xbca30464	-0.019899555
180	0x3be6c6c8	0.0070427395
181	0x3d61e662	0.05515135
182	0xbd0b3e9e	-0.033995263
183	0x3996fa90	0.00028796913
184	0xb9f7985e	-0.00047225034
185	0xbccea711	-0.025226148
186	0xbd405bf0	-0.04696268
187	0xbd32736c	-0.043567106
188	0xbd05b766	-0.032645606
189	0x3d74bdab	0.059751194
190	0x3da6af07	0.081388526
191	0x3c78b33e	0.015179453
192	0xbd456e60	-0.048200965
193	0x3c555317	0.013020298
194	0x3d3f72a3	0.046740185
195	0xbc9f4f0b	-0.01944687
196	0xbcbb36e0	-0.022853315
197	0xbc3215d0	-0.010869458
198	0x3d134621	0.035955552
199	0xbd7cc16f	-0.06170791
200	0xbcaea89f	-0.02132064
201	0x3d4e28d3	0.0503319
202	0xbae09ea3	-0.0017137121
203	0x3d84781d	0.06468222
204	0xbc430918	-0.011904024
205	0xbca2b6e0	-0.019862592
206	0x3d082bc3	0.03324486
207	0xbbc871f4	-0.0061171
208	0x3d398aef	0.045298513
209	0xbd1c3032	-0.0381319
210	0xbd68273a	-0.056678034
211	0x3d1aa1d8	0.037752002
212	0xbd0457fe	-0.03231048
213	0x3d3de46c	0.04636042
214	0x3caf25b1	0.021380277
215	0xbd633a8a	-0.05547575
216	0xbc937b01	-0.018002989
217	0x3d0b115f	0.033952113
218	0x3d73b170	0.05949539
219	0x3cae92b4	0.021310188
220	0x3d4b521c	0.049638852
221	0xbbbd02ba	-0.0057681473
222	0xbc6c0988	-0.014406569
223	0xbd4dc8c0	-0.05024028
224	0xbd2bf6f5	-0.041983563
225	0x3d3d9d11	0.04629237
226	0x3cc8531c	0.024453692
227	0x3d23bb01	0.039973263
228	0xbd5209c2	-0.051278837
229	0x3c0bcf6c	0.00853334
230	0x3bef7534	0.007307673
231	0x3d501a92	0.05080659
232	0x3c50e17e	0.012749074
233	0xbd47fca4	-0.04882492
234	0x3a8cea0d	0.0010750905
235	0xbd5c1f20	-0.05374062
236	0xbbf27cd0	-0.0074001327
237	0x3cd3e504	0.02586604
238	0x3d0ac19d	0.03387605
239	0xbd3c9146	-0.04603698
240	0x3b8f3551	0.0043703695
241	0xbd60a043	-0.054840337
242	0xbc5b5c7c	-0.013388749
243	0x3d75b0fd	0.059983242
244	0xbca5f61c	-0.020258956
245	0x3d2c8657	0.042120304
246	0xbd64dbe6	-0.055873774
247	0x3d366d7d	0.04453801
248	0x3d6e5a38	0.058191508
249	0xbd2d3046	-0.042282365
250	0x3d23d00c	0.03999333
251	0xbd88aee5	-0.066739835
252	0xbd2c6e31	-0.042097274
253	0x3d047960	0.032342315
254	0x3d5c127c	0.053728566
255	0xbd12cf26	-0.035842083

weight f4 [3, 256]
0	0x3bf57d8d	0.0074917735
1	0xbd69b634	-0.057058528
2	0x3d367e93	0.044554304
3	0x3cb130cb	0.021629712
4	0x3d82fab1	0.06395472
5	0x3cd951bc	0.026528232
6	0xbcb06fdc	-0.021537714
7	0x3cb424a0	0.02199012
8	0xbbf190d0	-0.0073719993
9	0x3d48659a	0.04892502
10	0xbaa7370f	-0.0012757498
11	0xbd0a66f5	-0.033789594
12	0xbcff748c	-0.031183504
13	0xbd24b866	-0.04021492
14	0x3d81d94d	0.06340275
15	0x3d353db5	0.0442483
16	0xbd425245	-0.04744174
17	0x3da82925	0.08210973
18	0x3cd4ddf0	0.025984734
19	0xbd0e8b76	-0.03480097
20	0x3ae335c0	0.0017334744
21	0xbd5833ae	-0.05278366
22	0x3d14b0ec	0.03630154
23	0xbcdacf16	-0.026710074
24	0xbb20d96c	-0.0024543656
25	0xba33e2f1	-0.0006862125
26	0xbd19bfe1	-0.037536506
27	0x3ce598b5	0.028026918
28	0xbc7b0468	-0.015320875
29	0x3cb1abb5	0.021688322
30	0x3d320cb4	0.043469146
31	0xbd572aaa	-0.052530922
32	0x3d19cf24	0.03755106
33	0x3d37f282	0.044909008
34	0xba7515e0	-0.0009349268
35	0xbc428e6c	-0.011874776
36	0x3adfebdb	0.001708384
37	0xb911b755	-0.00013896574
38	0xbd1a17be	-0.0376203
39	0x3cbc750c	0.023005031
40	0x3d4287e2	0.04749287
41	0xbcdadb00	-0.026715755
42	0xbcdc463c	-0.02688896
43	0x3d80ebe3	0.06294992
44	0xbcb2e9b2	-0.02183995
45	0x3cacd670	0.021098346
46	0xbc5ecb2d	-0.013598246
47	0x3ca66da4	0.020315953
48	0x3d39d91d	0.04537307
49	0xbad6d3c0	-0.0016390011
50	0x3be1b924	0.0068885256
51	0x3d7b86ea	0.06140796
52	0xbd31d177	-0.043412652
53	0x3d1565f2	0.036474176
54	0x3d06cadf	0.032908317
55	0xbcb64425	-0.02224929
56	0x3cc98fd0	0.024604708
57	0x3d37b4f9	0.044850323
58	0x3d9b855e	0.07593797
59	0x3d602e00	0.05473137
60	0xbc7f7dd4	-0.015593965
61	0x3cfbcc38	0.030737028
62	0x3ce226b4	0.027606346
63	0xbcd9d983	-0.026592975
64	0x3d1f15a6	0.038839005
65	0x3da42648	0.08015114
66	0xbd3c9b4f	-0.04604655
67	0x3c9369c7	0.017994775
68	0x3d243741	0.040091757
69	0x3d81e16f	0.06341826
70	0xbd29853f	-0.04138684
71	0xbcaafbfb	-0.020872107
72	0xbc7fe347	-0.015618152
73	0xbd0e874c	-0.034796998
74	0x3d7bc015	0.06146248
75	0x3d0e5c34	0.0347559
76	0x3d54777b	0.051871758
77	0xbb79c325	-0.00381107
78	0x3d3d8e76	0.04627844
79	0xbd2008ae	-0.039070778
80	0xbd582b5f	-0.052775737
81	0x3d041602	0.03224755
82	0xbc6b4634	-0.014359999
83	0xbd4b1af9	-0.04958627
84	0xbcdcbd34	-0.026945688
85	0x3d6431a9	0.055711422
86	0xbd525904	-0.051354423
87	0x3d8f96d2	0.070111886
88	0x3d189698	0.037252992
89	0x3df6b86d	0.12046895
90	0x3c0604be	0.008179842
91	0x3db06d89	0.08614642
92	0x3c01abe9	0.007914522
93	0xbba6e670	-0.0050933883
94	0xbd281a0f	-0.041040476
95	0xbb476e20	-0.003043063
96	0x3d344c0e	0.044017844
97	0xbb988fe8	-0.004655827
98	0xbc5713d0	-0.013127282
99	0xbd591c52	-0.053005524
100	0x3d52ff36	0.05151292
101	0xbaf11840	-0.0018394068
102	0xbb4faaa6	-0.0031687408
103	0x3a43d5e0	0.00074705295
104	0xbcb55954	-0.022137322
105	0xbd0a038b	-0.033694785
106	0xbb650f39	-0.00349517
107	0xbd59cf52	-0.05317623
108	0xbc5039c8	-0.012709089
109	0x3d005ba6	0.031337403
110	0xbd3aefde	-0.04563891
111	0xbd1cdc7a	-0.0382962
112	0xbb2768d2	-0.0025544656
113	0xbd465092	-0.04841668
114	0xbd2b84ca	-0.041874684
115	0x3c84bdf4	0.016203858
116	0x3d8daa0c	0.069171995
117	0x3d8a113a	0.06741567
118	0xbd23abf8	-0.039958924
119	0xbd09b236	-0.03361722
120	0xbcb57ddd	-0.022154743
121	0x3ced13b2	0.028940056
122	0x3d814dd4	0.06313673
123	0xbc9dcbde	-0.01926225
124	0x3dcf015c	0.10107681
125	0x3d713c87	0.058895614
126	0xbb8d0400	-0.0043034554
127	0x3c1294e5	0.008946632
128	0x3d213c38	0.03936407
129	0xbd35a18c	-0.044343516
130	0xbd2b389b	-0.04180203
131	0x3d1cfb1a	0.038325407
132	0x3d241923	0.040063035
133	0x3d58a782	0.052894123
134	0xbd4acc82	-0.04951144
135	0xbad025b5	-0.0015880378
136	0xbd326292	-0.043551035
137	0x3c106cee	0.008815033
138	0x3cd76cb4	0.02629695
139	0x3d7d0534	0.06177254
140	0x3d822400	0.06354523
141	0xbcd7ce02	-0.02634335
142	0x3d7dbb32	0.0619461
143	0x3df0df8d	0.11761389
144	0x3dac1b0d	0.08403597
145	0xbb0b8b8f	-0.00212929
146	0x3cdd3341	0.027001979
147	0xbc893b68	-0.01675196
148	0x3d369d11	0.044583384
149	0x3d5bf8e7	0.05370417
150	0x3d8bfe62	0.06835629
151	0xbc5f06c9	-0.013612458
152	0x3ceccbc2	0.028905753
153	0x3d477520	0.048695683
154	0x3ce5558a	0.02799489
155	0xbca2cfec	-0.019874536
156	0x3d8987d9	0.06715364
157	0x3d8b5d69	0.06804926
158	0xbd2809b3	-0.041024875
159	0xbd3cbed4	-0.046080425
160	0x3d60a266	0.054842375
161	0xbd05eaf4	-0.032694772
162	0x3d802f71	0.06259049
163	0xbd2de386	-0.04245331
164	0x3d5b870d	0.05359559
165	0xbbeaace0	-0.0071617216
166	0xbc4dc570	-0.01255928
167	0x3d894cc7	0.06704097
168	0xbd085db7	-0.0332925
169	0xbd26bbe5	-0.040706534
170	0xbd6aa67a	-0.05728767
171	0x3d440766	0.04785862
172	0xbd6666f1	-0.056250516
173	0x3d6c15df	0.057638045
174	0xbcbd0173	-0.02307198
175	0x3ca57015	0.020195046
176	0x3c1e5a29	0.009665051
177	0xbc91242c	-0.017717443
178	0xbd03099c	-0.031991586
179	0x3de0b0d0	0.10971224
180	0x3d22e257	0.039766636
181	0x3b93f566	0.0045153378
182	0xbd0933e9	-0.03349677
183	0x3d81357f	0.06309032
184	0xbd3065a7	-0.043065693
185	0x3da4a7b8	0.08039802
186	0x3c2d0dd3	0.010562378
187	0x3c1a60ae	0.009422464
188	0x3c91a9f4	0.017781235
189	0x3d2449e1	0.04010952
190	0x3d3a1196	0.045426928
191	0x3ce85c43	0.028364306
192	0x3caf717d	0.02141642
193	0x3d8617c7	0.06547504
194	0x3d4e8e3b	0.05042861
195	0x3d46ec6d	0.048565317
196	0xbd1788f7	-0.036995854
197	0x3e07f327	0.13276349
198	0x3c241805	0.010015492
199	0x3d41e40d	0.047336627
200	0xbaa7b506	-0.0012795038
201	0xbc88466f	-0.016635148
202	0x3d76abfe	0.06022262
203	0x3c33ea21	0.010981114
204	0x3d56aeea	0.052412905
205	0x3bd73180	0.00656718
206	0x3ce4e2e6	0.027940225
207	0x3d88ac01	0.06673432
208	0x3d41958d	0.047261763
209	0x3d7f3850	0.062309563
210	0xbc813ce0	-0.015776098
211	0x3d61ca23	0.055124413
212	0xbb1a6aa0	-0.0023562089
213	0xbb0c9b20	-0.0021454766
214	0x3d6ddaa5	0.058069844
215	0x3d901cc9	0.0703674
216	0x3d486dd4	0.048932865
217	0x3d91fb68	0.0712803
218	0x3d3a6f78	0.04551646
219	0x3d3defa2	0.04637111
220	0x3c9bd764	0.019023605
221	0x3d55141b	0.052021127
222	0x3c55706d	0.013027293
223	0xbc2412d2	-0.010014253
224	0xbd2497d9	-0.040183876
225	0x3d8bc53c	0.06824729
226	0x3d5c885b	0.053840976
227	0x3bae8361	0.00532572
228	0xbd745134	-0.059647754
229	0x3b3cc1d2	0.002880205
230	0xbbd72749	-0.0065659625
231	0xbd5c5f14	-0.05380161
232	0xbb4596d1	-0.0030149708
233	0x3c25b893	0.010114807
234	0x3d779686	0.060446285
235	0xbd2f95dc	-0.042867526
236	0xbc5aaa10	-0.01334621
237	0x3cb82c97	0.0224822
238	0x3d7e14e6	0.06203165
239	0x3d9e9794	0.07743755
240	0xbcf7b01d	-0.030235345
241	0xbcf71d1d	-0.03016525
242	0x3bbe3f9e	0.0058059236
243	0x3d6ea401	0.058261875
244	0xbc33ebf0	-0.010981545
245	0x3c05f2fd	0.008175609
246	0xbd2c878a	-0.042121448
247	0x3bb14e6f	0.0054109613
248	0x3d4d7868	0.050163656
249	0x3cc642ac	0.024201714
250	0xbca74e5f	-0.020423112
251	0x3d14dfcc	0.03634624
252	0x3c7c0aa4	0.015383396
253	0x3c948b49	0.018132823
254	0x3d337128	0.043809086
255	0x3c8d21a2	0.017227951

bias f4 [3]
0	0x3b9ae238	0.0047266744
1	0xbb212c17	-0.002459293
2	0xbb9a303e	-0.004705458
