astar/checkpoints1/sac_critic_final.pth (torch, 577922 bytes, 10 tensors)

q1.0.weight f4 [256, 21]
0.24204223 0.21986029 0.0454648 -0.10531437 -0.29174432 -0.10009045 0.1286824 0.058842707
-0.030582597 0.14222729 -0.16736713 -0.21612588 0.0974047 -0.20785719 -0.0010209531 0.2073993
0.054983452 0.04629816 0.21852629 0.19472711 -0.11090539 0.2193294 0.0027301759 -0.18573767
-0.37475598 -0.29124314 -0.019600406 0.15405889 0.07873397 0.06868679 0.065645196 0.22595069
0.045928452 0.09585248 -0.17081544 -0.07764311 0.15510206 0.10959999 -0.21791671 -0.077111624
0.18251279 -0.1474793 -0.0064638727 -0.2853576 0.016206183 -0.07628748 -0.31471214 0.08344276
0.07379562 0.08914512 -0.0760913 -0.30473816 0.101656005 0.02441166 -0.035475165 0.0622371
-0.09338659 -0.18209037 -0.092071965 -0.052972034 0.100690186 -0.12695748 0.081162766 -0.1893047
0.033623114 0.10771479 -0.089427024 -0.07042457 -0.20326158 -0.111352466 0.06454198 0.046161935
-0.21768206 -0.067298666 -0.1406421 0.1792288 -0.035584733 -0.10585712 -0.19929859 -0.15294428
0.16620092 -0.1318143 -0.15062785 0.17913856 0.11970595 0.036517173 -0.04752431 0.09643013
-0.056644708 -0.005560306 -0.15263411 0.22789334 0.0145139545 -0.101706 0.03602988 0.25079775
-0.1635314 0.15712728 0.05386214 0.026072264 -0.12185067 -0.006207496 0.0036028777 0.0809478
-0.09472268 -0.32032618 0.2184867 -0.17566025 -0.2125624 0.10930198 -0.11317146 -0.018345237
-0.23628126 -0.037913647 -0.040553756 0.11824093 -0.051253743 -0.09570765 0.1250069 0.09240429
-0.0018831193 -0.14194939 0.17537107 0.24001735 0.004508041 -0.0449241 0.06991363 0.1771286
-0.058975726 0.43361887 -0.042178277 -0.120096475 0.14817715 0.24832213 -0.06031617 0.14833969
-0.20353383 0.2001621 -0.11518661 -0.06430252 0.16919477 0.060549483 -0.02479726 -0.15848765
-0.09902875 0.08861808 0.0059700264 0.16193454 0.076088086 0.16056652 -0.07594001 -0.013270363
-0.011044413 -0.1153821 -0.077779725 -0.123133086 -0.122890145 -0.21062946 -0.17658666 -0.1508244
-0.04706697 0.10668416 -0.0108447075 -0.028096661 -0.15843253 -0.12765989 -0.18869938 -0.0625374
-0.022638649 -0.098613314 -0.1444332 -0.10805727 -0.20464528 0.12688641 0.034328327 -0.032206863
-0.14239717 -0.18612294 0.033405736 -0.0585095 -0.12524079 0.17431779 0.0501277 -0.054348737
0.063932076 0.16185878 -0.17801198 -0.060622662 -0.19481476 -0.18183653 0.029148996 0.056127284
-0.045694824 -0.33586872 0.39928392 -0.16877773 -0.06882017 0.1644515 -0.04401943 0.1370862
-0.06494717 0.06671898 0.05382158 -0.14569816 -0.19221954 0.104772404 -0.09755519 0.06437362
-0.055222664 -0.15330271 0.22121337 0.056302685 -0.06776475 0.42264637 0.40642753 0.1539046
-0.013205299 0.10899097 -0.020482663 -0.019605579 -0.12312305 1.5889624e-05 0.19181447 -0.056505755
-0.11290826 0.17586406 0.04730682 -0.063336015 -0.089749455 0.113408744 0.0981636 0.10964495
0.14107017 -0.08752925 0.49975684 0.35816324 0.09996489 -0.069270514 0.17486612 0.13626947
-0.05568406 -0.062416703 0.12503178 -0.21226531 -0.15116853 0.019808814 -0.17276636 0.07605411
-0.015256166 0.04619805 -0.04118781 -0.032633916 0.24286892 -0.15310083 0.06329947 -0.30051646
00000000: ebd9 773e 0e23 613e 4c39 3a3d 0faf d7bd
00000010: 835f 95be 39fc ccbd 52c5 033e 0d05 713d
00000020: 5b88 fabc 08a4 113e 4a62 2bbe 1a50 5dbe
00000030: 1e7c c73d 84d8 54be 80d1 85ba 7b60 543e
00000040: 5436 613d 24a3 3d3d 5bc5 5f3e 8b66 473e
00000050: 5d22 e3bd e397 603e c0ec 323b 0432 3ebe
00000060: 04e0 bfbe d21d 95be 0891 a0bc 9dc1 1d3e
00000070: 473f a13d a9ab 8c3d fd70 863d 9e5f 673e
00000080: 791f 3c3d 4e4e c43d 3eea 2ebe 5a03 9fbd
00000090: 13d3 1e3e f675 e03d 8f25 5fbe b3ec 9dbd
000000a0: a2e4 3a3e d004 17be e5ce d3bb 641a 92be
000000b0: d4c2 843c 9c3c 9cbd f321 a1be 0ae4 aa3d
000000c0: 2822 973d b791 b63d c1d5 9bbd a406 9cbe
000000d0: 0631 d03d f6fa c73c 684e 11bd 54ec 7e3d
000000e0: 7841 bfbd e675 3abe 3a90 bcbd 34f9 58bd
000000f0: a836 ce3d 2401 02be aa38 a63d 17d9 41be
00000100: 64b8 093d 9299 dc3d 8425 b7bd c23a 90bd
00000110: ce23 50be c30c e4bd 962e 843d 4c14 3d3d
00000120: 0ce8 5ebe e2d3 89bd 7c04 10be c187 373e
00000130: 4cc1 11bd 9ecb d8bd ee14 4cbe 6d9d 1cbe
00000140: 9330 2a3e 54fa 06be 303e 1abe 1970 373e
00000150: 6528 f53d 0893 153d daa8 42bd 297d c53d
00000160: 4804 68bd 3a33 b6bb 1e4c 1cbe df5c 693e
00000170: f0cb 6d3c 3c4b d0bd 1194 133d 9068 803e
00000180: c674 27be f9e5 203e 8c9e 5c3d 8095 d53c
00000190: d88c f9bd 4068 cbbb 421e 6c3b f6c7 a53d
000001a0: f7fd c1bd cb01 a4be faba 5f3e 48e0 33be
000001b0: f5a9 59be b7d9 df3d 70c6 e7bd c048 96bc
000001c0: b7f3 71be 574b 1bbd b21b 26bd 4d28 f23d
000001d0: 72ef 51bd 5f02 c4bd cf01 003e 763e bd3d
000001e0: 00d3 f6ba 2e5b 11be 7994 333e 1cc7 753e
000001f0: 30b8 933b 5502 38bd e12e 8f3d 3361 353e
00000200: 8890 71bd 4b03 de3e 21c3 2cbd 24f5 f5bd
00000210: c0bb 173e 2848 7e3e 170e 77bd 5ce6 173e
00000220: 2c6b 50be 4bf7 4c3e f5e6 ebbd 0ab1 83bd
00000230: 6541 2d3e bc02 783d a023 cbbc 964a 22be
00000240: 96cf cabd 657d b53d 36a0 c33b 2bd2 253e
00000250: 12d4 9b3d 8d6b 243e 7086 9bbd f06b 59bc
00000260: a0f3 34bc 734d ecbd fa4a 9fbd 332d fcbd
00000270: d4ad fbbd 40af 57be 22d3 34be b671 1abe
00000280: 4cc9 40bd 3a7d da3d 00ae 31bc f82a e6bc
00000290: 233c 22be 46b9 02be 693a 41be 9c13 80bd
000002a0: b074 b9bc c7f5 c9bd 4ce6 13be 214d ddbd
000002b0: 888e 51be 83ee 013e dc9b 0c3d 58eb 03bd
000002c0: 90d0 11be 0397 3ebe 74d4 083d a8a7 6fbd
000002d0: 1f3f 00be 5d80 323e b452 4d3d c89c 5ebd
000002e0: d2ee 823d 4fbe 253e c648 36be 784f 78bd
000002f0: 857d 47be 5b33 3abe e0c9 ee3c b9e5 653d
00000300: 7f2a 3bbd fcf6 abbe f16e cc3e 12d4 2cbe
00000310: 97f1 8cbd f965 283e b84d 34bd 5360 0c3e
00000320: 0603 85bd f6a3 883d 0474 5c3d e631 15be
00000330: 33d5 44be ea92 d63d 04cb c7bd 51d6 833d
00000340: 2931 62bd 63fb 1cbe c285 623e a59d 663d
00000350: 3fc8 8abd 1b65 d83e 4517 d03e 2b99 1d3e
00000360: 0a5b 58bc a836 df3d 42cb a7bc e19b a0bc
00000370: f027 fcbd b54a 8537 036b 443e 9472 67bd
00000380: 723c e7bd b515 343e ccc4 413d 50b6 81bd
00000390: 90ce b7bd d842 e83d ff09 c93d 888d e03d
000003a0: b374 103e 8942 b3bd 21e0 ff3e 2c61 b73e
000003b0: 64ba cc3d b3dd 8dbd 1b10 333e 398a 0b3e
000003c0: f814 64bd a8a8 7fbd 5508 003e 145c 59be
000003d0: eccb 1abe 1846 a23c aae9 30be 42c2 9b3d
000003e0: 00f5 79bc 2b3a 3d3d 8db4 28bd 24ab 05bd
000003f0: a1b2 783e 77c6 1cbe 27a3 813d 4bdd 99be

q1.0.bias f4 [256]
0.049838405 0.017660275 0.093317814 -0.024170414 -0.03483915 -0.032164436 0.090161815 0.023039281
0.18143646 -0.14928515 -0.00809744 0.021791067 0.14314894 -0.18256713 -0.05345606 0.07686907
-0.082509056 -0.12622705 -0.003536914 -0.005578508 0.12629516 -0.07068656 -0.16052148 -0.01959912
-0.002239941 0.08714993 0.042392973 0.072812736 0.077149235 -0.15433471 0.12648602 0.14247967
-0.1676133 -0.13299218 -0.049260035 -0.06774329 -0.18504682 -0.1214863 -0.10190925 0.121185355
0.08299353 -0.11106194 -0.21270075 0.048420534 0.13981794 -0.1810323 -0.115534976 -0.08873786
0.20034237 0.19804862 -0.03175262 0.14686614 0.14903219 0.24671502 0.01231626 -0.12119982
0.22000834 0.15084592 -0.13163912 0.10975532 0.030797666 -0.11545648 0.13227871 -0.0075476137
-0.19548349 0.07170868 0.20822601 -0.077697955 0.09410702 -0.1422181 0.107808836 -0.12549481
-0.16163301 -0.01627437 -0.20550035 -0.11588692 -0.13001055 0.18634818 -0.12239456 0.23092218
0.03002174 0.09337582 0.22777285 -0.18502446 -0.11026598 -0.09614622 0.06789832 -0.008382105
0.11709984 0.010813862 -0.14093629 0.08698957 -0.107524894 -0.11146381 -0.14318964 0.026056599
0.21033742 -0.01814927 -0.1661073 -0.07656278 -0.21359518 0.016553568 0.08814238 -0.0047235936
-0.05208391 0.053867154 -0.02406761 0.06686561 -0.025155041 -0.16247733 0.10019263 -0.13693717
0.0835775 -0.13531463 -0.12030437 0.14991634 -0.09383985 -0.13292827 -0.10686899 -0.105553046
-0.18541893 -0.15134789 -0.20050281 0.068303004 -0.19826522 -0.045664452 0.077670805 -0.017835291
-0.17493774 -0.07626097 -0.049135525 -0.105822556 0.018941982 0.13238244 0.11747884 -0.017121697
0.29978442 -0.17381303 -0.029622978 -0.031449586 0.20212203 -0.13339444 -0.20851423 -0.08460565
0.22682671 0.007939614 -0.11106866 -0.011117243 -0.18869968 0.073961034 0.100816466 0.1925326
-0.008518266 0.10455842 -0.21522287 0.0020422842 0.17641358 -0.17699106 -0.09855814 0.080312386
0.0009841061 0.21499264 -0.09006712 0.016837435 0.05610667 0.07040207 -0.11278599 -0.013169855
-0.024956807 -0.059769955 0.15419821 -0.21502608 -0.08922784 -0.110809326 0.2233844 -0.11172502
-0.09080438 -0.12042036 0.117339686 -0.060642187 0.19586566 0.15318426 0.107198104 0.17014167
-0.07613587 0.1180199 0.09545415 -0.15564612 0.17261611 0.14504541 0.11982107 0.20834845
0.207452 -0.2043827 0.1842912 0.11754264 0.0041424613 0.10688706 -0.1489375 0.19077359
0.13204893 -0.16052163 0.09568323 0.17629221 0.14729233 0.09351055 0.1026716 -0.1789315
-0.1535936 0.041460555 0.05011994 -0.13947311 0.023127198 -0.13160211 -0.12979978 -0.0771738
0.073916614 0.09653781 -0.16434446 0.13385788 -0.12457657 -0.16253042 -0.15949373 0.0869543
-0.04679637 -0.0020885346 0.0998638 0.218465 0.05855097 0.11060312 0.19145885 0.23019862
0.16211344 -0.16130693 -0.03828952 0.013663981 0.14917552 -0.028146671 -0.102456324 0.078260124
0.031015392 -0.014113024 -0.018856486 0.20970722 0.14408429 0.1738873 0.15836091 0.13753769
-0.017893717 0.18908145 -0.13210851 -0.14185445 0.2144792 0.09103345 -0.047911126 0.026991505
00000000: 5b23 4c3d 48ac 903c 691d bf3d 0801 c6bc
00000010: 7fb3 0ebd dbbe 03bd c2a6 b83d e0bc bc3c
00000020: 7bca 393e 35de 18be 20ab 04bc 2e83 b23c
00000030: a395 123e e1f2 3abe bef4 5abd 886d 9d3d
00000040: 82fa a8bd aa41 01be 92cb 67bb ebcb b6bb
00000050: 8553 013e 1dc4 90bd be5f 24be 558e a0bc
00000060: f9cb 12bb aa7b b23d 41a4 2d3d d81e 953d
00000070: 6b00 9e3d eb09 1ebe 8d85 013e 31e6 113e
00000080: d2a2 2bbe 1a2f 08be e4c4 49bd febc 8abd
00000090: ea7c 3dbe cfcd f8bd ccb5 d0bd 0730 f83d
000000a0: 83f8 a93d 7174 e3bd 3ace 59be 9c54 463d
000000b0: 6f2c 0f3e 8860 39be 9a9d ecbd 32bc b5bd
000000c0: 8d26 4d3e 42cd 4a3e 090f 02bd 1464 163e
000000d0: e59b 183e dda2 7c3e 23ca 493c 9c37 f8bd
000000e0: de49 613e 5a77 1a3e 68cc 06be 66c7 e03d
000000f0: 634b fc3c 7274 ecbd 1274 073e f951 f7bb
00000100: d32c 48be 00dc 923d 3339 553e 1b20 9fbd
00000110: 2ebb c03d 9fa1 11be e1ca dc3d b681 00be
00000120: 2083 25be d451 85bc af6e 52be 1f56 edbd
00000130: 7c21 05be 0fd2 3e3e 00aa fabd dd76 6c3e
00000140: 27f0 f53c d23b bf3d 493d 693e 0d77 3dbe
00000150: 21d3 e1bd 4fe8 c4bd 460e 8b3d 1955 09bc
00000160: 0ad2 ef3d a02c 313c 9a51 10be 9627 b23d
00000170: 0336 dcbd 2347 e4bd 4ea0 12be a674 d53c
00000180: b162 573e c7ad 94bc 0818 2abe f2cc 9cbd
00000190: b2b8 5abe 599b 873c fe83 b43d 60c8 9abb
000001a0: f055 55bd cea3 5c3d 7029 c5bc d6f0 883d
000001b0: f211 cebc 7560 26be cb31 cd3d 4239 0cbe
000001c0: ae2a ab3d eb8f 0abe 2362 f6bd ab83 193e
000001d0: 1b2f c0bd 591e 08be 21de dabd 322c d8bd
000001e0: 76de 3dbe f1fa 1abe 9c50 4dbe 72e2 8b3d
000001f0: 0a06 4bbe a60a 3bbd df11 9f3d 511b 92bc
00000200: e122 33be b62e 9cbd 5542 49bd 7fb9 d8bd
00000210: 372c 9b3c 438f 073e bf98 f03d cd42 8cbc
00000220: 587d 993e 0bfc 31be e3ab f2bc 48d1 00bd
00000230: 14f9 4e3e 8d98 08be c184 55be ba45 adbd
00000240: 4345 683e 2815 023c f777 e3bd 1925 36bc
00000250: 7d3a 41be e278 973d dd78 ce3d 4427 453e
00000260: 3290 0bbc ba22 d63d 6263 5cbe d8d7 053b
00000270: c3a5 343e 253d 35be dad8 c9bd d27a a43d
00000280: 1ffd 803a 0827 5c3e 1c75 b8bd a9ee 893c
00000290: 1cd0 653d f62e 903d 57fc e6bd 60c6 57bc
000002a0: 3872 ccbc 57d1 74bd 23e6 1d3e cc2f 5cbe
000002b0: 16bd b6bd 00f0 e2bd e1be 643e 16d0 e4bd
000002c0: a6f7 b9bd f39e f6bd ca4f f03d f163 78bd
000002d0: 0291 483e 56dc 1c3e ae8a db3d 9e39 2e3e
000002e0: 1fed 9bbd 6bb4 f13d 777d c33d b261 1fbe
000002f0: 47c2 303e c986 143e c064 f53d 4c59 553e
00000300: 4c6e 543e b349 51be d5b6 3c3e 32ba f03d
00000310: 7cbd 873b 9ae7 da3d 1283 18be 275a 433e
00000320: d637 073e c85f 24be 92f5 c33d f285 343e
00000330: cdd3 163e 7682 bf3d 7d45 d23d d239 37be
00000340: a447 1dbe 8bd2 293d 914a 4d3d 0ad2 0ebe
00000350: 4075 bd3c b4c2 06be 3cea 04be 4c0d 9ebd
00000360: 9861 973d 9eb5 c53d ea49 28be 0a12 093e
00000370: 0022 ffbd 606e 26be 5352 23be 1915 b23d
00000380: 8dad 3fbd ccdf 08bb 6485 cc3d 4ab5 5f3e
00000390: 24d3 6f3d e383 e23d ca0d 443e 30b9 6b3e
000003a0: 1101 263e a52d 25be 79d5 1cbd e4de 5f3c
000003b0: 78c1 183e d993 e6bc 9fd4 d1bd d846 a03d
000003c0: fe13 fe3c 503a 67bc eb78 9abc 7dbd 563e
000003d0: d58a 133e 830f 323e 5d29 223e aed6 0c3e
000003e0: d895 92bc 919e 413e 7447 07be 4b42 11be
000003f0: 6fa0 5b3e bf6f ba3d 753e 44bd 4a1d dd3c

q1.2.weight f4 [256, 256]
-0.026592473 -0.013911724 0.10586216 0.0566469 0.10268858 0.15067549 -0.027042491 0.043562166
-0.026104555 0.12951945 0.0859764 0.020144654 -0.15433717 -0.0409059 -0.056726996 -0.010392953
0.047282636 0.08293566 -0.02735727 0.035329774 0.050174505 0.061783567 0.14508061 0.0023406553
0.15661347 -0.021985788 -0.010941215 0.056960247 0.0875056 -0.6311735 0.112067096 0.025477085
0.018029941 0.10242932 0.008365966 -0.0046429443 0.067514904 0.04980759 -0.03401027 -0.22693582
0.06876263 0.10253178 -0.5186063 -0.013519891 0.051427953 -0.0037232551 0.06432823 0.034226514
0.0359335 0.15426028 -0.28046492 -0.43656594 -0.33273882 -0.017393813 0.08867258 0.091274835
-0.008319244 0.06737346 0.02015301 0.10977288 -0.41775808 0.016693465 -0.81605905 -0.01129948
-0.01930122 0.0018908982 -0.35366738 0.033877637 0.011754083 -0.043068446 -0.054260954 0.0034323533
0.08432941 0.2743246 -0.62097496 -0.056593813 -0.029777221 0.06213289 -0.023035804 0.009151525
0.08048687 0.049772598 -0.04802741 0.07291936 -0.027533978 0.023890762 -0.03164343 -0.04557812
0.020955041 0.15198734 -0.03345304 -0.05045186 0.08455437 0.023243899 0.047132798 -0.06432014
0.07928263 0.06167994 -0.0067813555 0.0052686706 0.15511306 0.05141776 0.07668931 0.06564973
0.04793051 0.0872923 -0.009139185 0.099859655 0.29676688 0.03048978 -0.0019074471 0.08303152
0.060647264 -0.039143093 -0.48686635 0.043909542 0.11456986 -0.00090906746 0.03663226 0.024350366
-0.025909007 -0.033887196 -0.02929741 -0.0098229945 -0.028731724 0.05258475 -0.015103556 0.13057369
-0.019802107 0.05556514 0.025168793 0.055934235 0.08642345 0.09876717 0.09968739 0.42277452
0.029065803 -0.07288677 0.094637394 0.04558436 0.049441118 0.20501742 -0.060349047 0.10624872
0.143526 0.05817898 0.03812073 0.17047164 -0.61137897 0.06190228 0.1346042 0.3091321
0.1317482 0.0017847642 -0.018150024 0.034509916 0.0449046 -0.48528427 0.08797517 -0.042721376
-0.032288086 0.2580347 -0.08923382 -0.011862552 0.037680686 -0.06544512 0.107167825 0.044726007
0.4014735 0.10669379 0.060544282 0.030962728 -0.0041324794 0.041769877 -0.10555699 0.066057995
0.05462828 0.054063562 0.029784994 0.1470483 0.01497807 0.117182255 0.036202617 0.027097268
0.059611525 -0.13883036 0.05674476 -0.2583572 -0.054281153 0.5176554 0.109317586 0.02213236
0.021903532 0.12742299 -0.008044031 -0.06052365 0.017076261 0.028420597 -0.00064801594 -0.26838398
-0.00822745 -0.0062249154 -0.11669756 0.07174083 0.08385998 0.045921724 0.022426367 -0.21514858
0.019919446 0.03539545 0.09018436 0.079492316 -0.060445487 0.028922036 -0.3278067 0.041058555
-0.10877124 -0.061069395 -0.0061523016 0.30475432 -0.012302488 0.010720677 0.0544952 0.20830217
-0.027143264 0.08031856 -0.28519374 -0.15558775 -0.039575316 -0.026588285 -0.042501446 -0.032150168
-0.11397554 -0.6231597 0.16750033 0.06121273 -0.10269336 -0.014134238 0.057154324 0.034451786
-0.7340881 0.055205137 -0.12805289 0.00737348 0.031266946 -0.050676443 -0.012534553 0.022984657
0.044335656 -0.038238525 0.047918305 0.10910654 0.09562423 -0.009565783 0.10281117 -0.08948656
00000000: 75d8 d9bc 00ee 63bc 43ce d83d 9406 683d
00000010: 644e d23d ad4a 1a3e 3788 ddbc 3e6e 323d
00000020: 38d9 d5bc bfa0 043e 6514 b03d 6706 a53c
00000030: 900a 1ebe f28c 27bd 915a 68bd 3447 2abc
00000040: 70ab 413d 2cda a93d 5a1c e0bc f4b5 103d
00000050: c883 4d3d c410 7d3d 0390 143e ae65 193b
00000060: 485f 203e 8a1b b4bc c842 33bc 264f 693d
00000070: 2336 b33d 9694 21bf 6f83 e53d 52b5 d03c
00000080: 87b3 933c 77c6 d13d 6811 093c d723 98bb
00000090: 4145 8a3d 0b03 4c3d 5a4e 0bbd dd61 68be
000000a0: 6cd3 8c3d 2ffc d13d 62c3 04bf 8882 5dbc
000000b0: 1ea6 523d db01 74bb 85be 833d 1a31 0c3d
000000c0: 012f 133d 68f6 1d3e 1999 8fbe 9285 dfbe
000000d0: be5c aabe 787d 8ebc f899 b53d 4dee ba3d
000000e0: 704d 08bc 19fb 893d ed17 a53c 9bd0 e03d
000000f0: 63e4 d5be bcc0 883c 3fe9 50bf 7421 39bc
00000100: 981d 9ebc 04d8 f73a e413 b5be 47c3 0a3d
00000110: 3394 403c 8a68 30bd bc40 5ebd 55f1 603b
00000120: e6b4 ac3d 4674 8c3e 37f8 1ebf eace 67bd
00000130: 5cef f3bc 0f7f 7e3d 95b5 bcbc 47f0 153c
00000140: 4dd6 a43d 5ade 4b3d 64b8 44bd bf56 953d
00000150: f08e e1bc 8fb6 c33c 8b9c 01bd 1fb0 3abd
00000160: e8a9 ab3c 92a2 1b3e 0e06 09bd 9ca6 4ebd
00000170: d72a ad3d fd69 be3c 520e 413d 47ba 83bd
00000180: ee5e a23d 1ba4 7c3d 2236 debb d0a4 ac3b
00000190: f5d5 1e3e 6e9b 523d 490f 9d3d 5e73 863d
000001a0: c852 443d 4ec6 b23d 85bc 15bc 3883 cc3d
000001b0: d4f1 973e b4c5 f93c 4e03 faba 6e0c aa3d
000001c0: 4469 783d 8254 20bd 8c46 f9be 7eda 333d
000001d0: 9aa3 ea3d 7c4e 6eba b50b 163d 6b7a c73c
000001e0: 203f d4bc 4dcd 0abd 1f01 f0bc a0f0 20bc
000001f0: cb5e ebbc 1b63 573d e874 77bc 1cb5 053e
00000200: 0738 a2bc 4698 633d c92e ce3c 4c1b 653d
00000210: c7fe b03d 7146 ca3d e728 cc3d e775 d83e
00000220: 681b ee3c a945 95bd 40d1 c13d aab6 3a3d
00000230: c582 4a3d 16f0 513e 9030 77bd ee98 d93d
00000240: 7bf8 123e 154d 6e3d 7c24 1c3d 1e90 2e3e
00000250: 5583 1cbf 3f8d 7d3d afd5 093e 9046 9e3e
00000260: 00e9 063e c0ee e93a 5caf 94bc 455a 0d3d
00000270: e3ed 373d 2e77 f8be 532c b43d 9cfc 2ebd
00000280: 8340 04bd 201d 843e 39c0 b6bd 265b 42bc
00000290: 1057 1a3d 1708 86bd ce7a db3d 9e32 373d
000002a0: ef8d cd3e 4682 da3d 48fd 773d 8ca5 fd3c
000002b0: c069 87bb e416 2b3d 432e d8bd 6a49 873d
000002c0: e7c1 5f3d c171 5d3d a9ff f33c d493 163e
000002d0: 9466 753c 40fd ef3d 3249 143d 17fb dd3c
000002e0: 372b 743d 8c29 0ebe 326d 683d 6547 84be
000002f0: ea55 5ebd 1085 043f e6e1 df3d ec4e b53c
00000300: 096f b33c 2c7b 023e 1dcb 03bc a6e7 77bd
00000310: 84e3 8b3c 50d2 e83c 9ddf 29ba a069 89be
00000320: 6dcc 06bc 60fa cbbb 21ff eebd dbec 923d
00000330: c8be ab3d 6b18 3c3d 80b7 b73c e94f 5cbe
00000340: 1b2e a33c d2fa 103d 94b2 b83d decc a23d
00000350: b095 77bd e8ed ec3c 48d6 a7be 042d 283d
00000360: 75c3 debd e723 7abd 3f99 c9bb c208 9c3e
00000370: 6090 49bc c7a5 2f3c 5c36 5f3d 2a4d 553e
00000380: 8d5b debc 0f7e a43d ea04 92be 6552 1fbe
00000390: ba19 22bd adcf d9bc ff15 2ebd e5af 03bd
000003a0: 026c e9bd 6587 1fbf 3585 2b3e 33ba 7a3d
000003b0: e550 d2bd 4a93 67bc a71a 6a3d 511d 0d3d
000003c0: 33ed 3bbf c81e 623d 4c20 03be 3c9d f13b
000003d0: c511 003d 1a92 4fbd ba5d 4dbc 524a bc3c
000003e0: 4e99 353d 00a0 1cbd fc45 443d 4073 df3d
000003f0: a3d6 c33d cdb9 1cbc aa8e d23d bb44 b7bd

q1.2.bias f4 [256]
-0.039107654 0.07218242 -0.048106417 -0.031949624 0.01155529 0.0288986 0.050046965 0.04866578
0.0328201 -0.014375628 0.04876186 -0.015042782 0.022431223 -0.02171709 0.03367591 -0.006027787
0.021300456 -0.051594384 0.0928445 -0.0024663273 0.004384501 -0.014497988 -0.038886275 0.0260315
0.0041884184 0.012039465 -0.009109503 -0.027823042 -0.06408811 0.0020888618 -0.041867964 -0.0063891886
0.0065699713 -0.011196924 0.06685106 -0.0337875 -0.016279774 0.018712629 0.0722198 0.06944527
0.041549787 0.017202403 -0.0013415926 -0.031611145 0.017663108 0.072257765 -0.040143017 0.0019703442
-0.015830312 0.08542074 0.07791595 -0.035377003 0.061491314 -0.04624909 0.04360069 0.043302782
0.027950445 -0.0017448437 0.02687757 -0.010312753 0.04073509 -0.013151392 0.09190565 0.059137374
0.025624067 -0.0346083 0.017186036 -0.0333537 0.015942112 -0.013004114 -0.03632746 -0.015661657
0.0029119754 0.061339412 -0.03743721 -0.012119639 0.026815243 -0.012815073 0.03002183 0.007405807
0.047836542 -0.0456919 0.01743917 -0.012021894 0.0010744879 0.0077769523 0.064276315 -0.03469759
0.056035895 0.06405626 0.04623184 -0.015110709 -0.022548588 0.0174794 0.02981535 0.018687852
0.05366648 0.02437786 -0.031191053 0.027690254 -0.033635527 -0.057702478 0.058227666 0.0067431834
-0.044108428 -0.01602453 0.039659653 0.06708275 0.0117555335 0.035337687 0.072107546 -0.02757954
0.009798094 0.016864726 0.011428244 -0.010827883 -0.036989648 0.0035516212 0.074981906 0.009908626
0.06626012 0.004294865 0.026963074 -0.035219 0.020216025 -0.053968206 -0.004211351 0.036896404
0.055126034 0.049566798 0.007801105 0.024056964 -0.023929004 0.05263532 0.023582928 0.040704105
-0.040344644 0.081631064 0.053396747 0.037291475 0.04385584 0.013916776 0.008418292 0.049986493
-0.0077640815 0.03527336 -0.039144523 -0.024602778 -0.0032930162 0.02343012 -0.017821945 0.015341123
0.007335235 0.058897752 0.026709264 0.026292525 -0.00089792087 0.046302848 0.022513764 -0.02556657
-0.050896138 0.05806822 0.042473257 0.034144774 0.0234757 -0.017534625 -0.031999066 -0.009171295
0.021344617 -0.043221224 0.0056606233 -0.045027114 -0.018669056 -0.03137437 0.05662815 0.035197422
-0.061231352 0.05565716 0.05812172 -0.03537164 0.07231045 -0.02098022 0.03367112 -0.025638193
0.009013066 0.03498388 0.020652607 -0.038384646 -0.010961512 0.020381816 0.022313224 0.052041788
-0.0070710615 -0.056892917 0.016751677 0.021973493 0.004332796 0.012137055 0.05056148 0.037652265
0.033369407 0.013222071 0.03340221 0.05494618 -0.013464613 0.04326582 0.0123632485 0.050958686
0.03212554 0.025801033 0.05622828 0.05407599 -0.032834075 0.014890858 0.07431388 0.01790411
-0.04709458 0.02076432 -0.0001443484 -0.0032319583 0.033783607 -0.003133148 -0.00793659 -0.0010963185
-0.03657831 -0.03524196 -0.05105015 -0.010840118 -0.024967497 -0.012589023 0.061393097 -0.016730404
-0.048093047 -0.020044794 -0.03529793 0.02028741 -0.015526714 0.05612169 -0.006639065 0.035038985
0.06734067 0.044557985 0.010752714 0.03320882 -0.049464222 -0.007979371 0.030751437 0.06698195
0.05148481 -0.043370634 -0.0013462948 -0.062342346 0.021945052 -0.01239221 -0.01795742 0.022492196
00000000: 592f 20bd 60d4 933d 3c0b 45bd 9cdd 02bd
00000010: 6652 3d3c c2bc ec3c 0cfe 4c3d c555 473d
00000020: 5f6e 063d c187 6bbc 84ba 473d 0076 76bc
00000030: afc1 b73c 0ae8 b1bc c0ef 093d be84 c5bb
00000040: 4b7e ae3c a254 53bd 4225 be3d 1ba2 21bb
00000050: dcab 8f3b f888 6dbc 3747 1fbd 0340 d53c
00000060: 003f 893b 2d41 453c 0640 15bc 26ed e3bc
00000070: a140 83bd 49e5 083b be7d 2bbd 665c d1bb
00000080: ea48 d73b 4e73 37bc 35e9 883d c364 0abd
00000090: 295d 85bc 3a4b 993c f9e7 933d 5239 8e3d
000000a0: 1c30 2a3d 0eec 8c3c 61d8 afba b07a 01bd
000000b0: 39b2 903c e1fb 933d 016d 24bd e420 013b
000000c0: 92ae 81bc 12f1 ae3d 6692 9f3d 7ae7 10bd
000000d0: 51de 7b3d b06f 3dbd a396 323d 425e 313d
000000e0: 55f8 e43c 3db3 e4ba 5a2e dc3c d2f6 28bc
000000f0: d6d9 263d f078 57bc 0839 bc3d 083a 723d
00000100: 90e9 d13c 6fc1 0dbd bbc9 8c3c e49d 08bd
00000110: 0899 823c 350f 55bc 1acc 14bd e04c 80bc
00000120: d7d6 3e3b 093f 7b3d c357 19bd 7391 46bc
00000130: a4ab db3c 50f6 51bc 57f0 f53c 69ac f23b
00000140: 40f0 433d 6e27 3bbd 97dc 8e3c 7af7 44bc
00000150: d5d5 8c3a ced5 fe3b 4da3 833d 0f1f 0ebd
00000160: e585 653d ee2f 833d 995d 3d3d e892 77bc
00000170: d1b7 b8bc f530 8f3c 523f f43c 4417 993c
00000180: 62d1 5b3d 14b4 c73c 6184 ffbc acd6 e23c
00000190: 68c5 09bd 6f59 6cbd 2280 6e3d ecf5 dc3b
000001a0: 0aab 34bd e045 83bc 2972 223d ae62 893d
000001b0: 489a 403c 40be 103d 1fad 933d 7dee e1bc
000001c0: 2f88 203c e527 8a3c 883d 3b3c 6f67 31bc
000001d0: 7582 17bd 51c2 683b 1d90 993d ca57 223c
000001e0: 63b3 873d f0bb 8c3b aae1 dc3c cc41 10bd
000001f0: 149c a53c c40d 5dbd 5fff 89bb af20 173d
00000200: d6cb 613d 8e06 4b3d 69a0 ff3b 1c13 c53c
00000210: c206 c4bc 2298 573d fc30 c13c 59b9 263d
00000220: 6d40 25bd 302e a73d 8cb6 5a3d f2be 183d
00000230: 2ea2 333d 3003 643c e0ec 093c a3be 4c3d
00000240: d669 febb cc7a 103d 0256 20bd c48b c9bc
00000250: a5cf 57bb 86f0 bf3c 54ff 91bc 5559 7b3c
00000260: 695c f03b c53e 713d 63cd da3c 6c63 d73c
00000270: 7362 6bba 0ea8 3d3d c96e b83c fc70 d1bc
00000280: 7878 50bd f1d8 6d3d 70f8 2d3d 64db 0b3d
00000290: 1c50 c03c c6a4 8fbc 7411 03bd 3343 16bc
000002a0: e8da ae3c bd08 31bd c07c b93b 5a6e 38bd
000002b0: d9ef 98bc 6982 00bd ebf2 673d 2c2b 103d
000002c0: bacd 7abd c3f8 633d 0a11 6e3d dae1 10bd
000002d0: 8017 943d b6de abbc baea 093d 3007 d2bc
000002e0: 8aab 133c 424b 0f3d a82f a93c 3839 1dbd
000002f0: ea97 33bc c4f7 a63c 39ca b63c c529 553d
00000300: 5db4 e7bb 8c08 69bd d03a 893c c101 b43c
00000310: 21fa 8d3b 80da 463c 8e19 4f3d 4339 1a3d
00000320: 5cae 083d 63a1 583c c1d0 083d 3f0f 613d
00000330: ae9a 5cbc 8037 313d 398f 4a3c 0eba 503d
00000340: 1296 033d b05c d33c a04f 663d c97e 5d3d
00000350: 067d 06bd c9f8 733c e031 983d a4ab 923c
00000360: 3fe6 40bd ef19 aa3c 3b5c 17b9 43cf 53bb
00000370: ae60 0a3d 8055 4dbb 7908 02bc 58b2 8fba
00000380: 23d3 15bd e059 10bd f619 51bd c09a 31bc
00000390: a388 ccbc 3142 4ebc 5477 7b3d 330e 89bc
000003a0: 37fd 44bd fb34 a4bc 9094 10bd c831 a63c
000003b0: c263 7ebc dbdf 653d 848c d9bb 0a85 0f3d
000003c0: e8e9 893d 6f82 363d 272c 303c f905 083d
000003d0: ff9a 4abd e8bb 02bc 70ea fb3c d52d 893d
000003e0: bce1 523d 68a5 31bd 2876 b0ba b05a 7fbd
000003f0: 1cc6 b33c b208 4bbc 701b 93bc 8e41 b83c

q1.4.weight f4 [1, 256]
0.23331639 0.2633579 -0.20050488 0.2265539 -0.3019313 0.26788923 -0.22536625 -0.47743765
-0.2625308 0.20722787 0.20508544 -0.2851709 0.16718751 0.19185324 -0.006420791 0.22354986
0.1743364 -0.021737196 0.19718245 0.15539062 -0.2450678 -0.29933262 0.22727023 -0.2690056
0.010630913 0.21884535 0.15708323 -0.26553515 -0.9229501 0.16598263 0.056370288 -0.40542704
0.19183762 -0.28601223 -0.2638635 0.21484613 0.22865453 -0.022392482 0.21423031 0.20396554
-0.36136043 0.2360453 -0.33543915 -1.0337245 0.19915248 0.18601866 -0.30117998 -0.2800009
-0.32581365 0.18998407 0.16138108 0.21796289 0.19860438 -0.29655102 0.18822941 0.17412972
0.21597473 0.14728124 -0.37339938 -0.43532115 0.33195987 -0.0059059784 0.21894649 0.19324265
-0.00703793 0.031085517 -0.24039133 0.056595817 -0.29073188 0.18775947 -0.26441798 0.015127553
-0.31084383 0.17381993 -0.8985064 0.29235256 -0.24547665 0.050635003 0.21540186 0.026702313
0.036547974 -0.32252252 0.21285047 0.20158564 0.034326937 0.20405038 -0.2569777 -0.019732233
0.1774845 -0.26717895 -0.2577347 0.23759112 0.019517241 0.20479664 -0.3223563 -0.040320046
-0.33154133 0.2062628 0.19725923 -0.00032449514 0.4366391 -0.23540948 0.052060142 0.3029248
0.0028186217 0.006116286 0.1725896 -0.2798874 0.031050168 -0.29320273 0.2551919 0.14495207
0.19453335 0.22292407 0.20919679 0.16252883 0.17020215 0.20671022 0.17125253 0.2144585
-0.22145508 0.016674437 -0.2890761 0.036812313 0.006381035 0.04037396 0.14336117 -0.24218614
0.00105843 -0.01279749 0.24315272 -0.020020314 0.28705692 0.2223137 0.21298817 0.16002251
-0.24344943 0.22144587 0.16721226 0.025760554 -0.3234773 -0.031080008 -0.0018752813 0.1682714
-0.0015637447 -0.25705114 -0.048496705 0.22737841 0.15137284 0.16869521 -0.26869145 0.19733492
-0.26888353 -0.2776454 0.00037934564 0.22151715 -0.26877007 0.0034115538 0.1345949 0.02763202
-0.9824916 0.32204902 -0.2770767 -0.27214608 0.23361365 0.20884547 0.007941313 -0.0098130675
0.037392333 0.5048968 0.05015962 -0.29153183 0.17309621 0.22592178 0.21429935 0.19332565
0.061431035 -0.27815533 0.19480835 -0.38522562 -0.36274907 0.20858555 0.2094942 -0.49132073
-0.30229163 0.22616193 -0.045033135 0.14612481 0.15138918 -0.26788545 0.2024092 -0.24145293
-0.29933533 0.04669217 0.038765445 0.061825886 -0.27000493 -0.05288461 0.24454457 -0.316781
-0.45283473 0.19201413 -0.027338563 0.17254595 0.1841088 -0.30140802 -0.30140963 0.20236813
0.19888519 0.33215702 0.19194636 -0.32702902 0.16757336 -0.25719273 -0.25276887 0.15059987
0.29149318 0.19805844 -0.3233053 -0.048780035 0.012494892 -0.019960955 0.16369604 0.18525375
-0.04413975 -0.16883957 0.20223178 0.2120832 0.30004355 -0.47942108 0.04041291 -0.30178332
0.30290037 -0.2859416 -0.015291334 -0.23547474 -0.23384039 0.18770061 -0.29909828 -0.23117195
0.22698371 -0.3063839 0.16838495 -0.045422193 -0.0181524 -0.32296658 0.013591275 -0.34322655
0.18864982 -0.05153402 -0.24648061 0.055011146 -0.2618494 0.19934437 -0.0052263737 0.15661344
00000000: 7eea 6e3e d9d6 863e 2751 4dbe bffd 673e
00000010: bd96 9abe c728 893e 69c6 66be b572 f4be
00000020: 706a 86be 8b33 543e eb01 523e ec01 92be
00000030: 3433 2b3e 2d75 443e 8065 d2bb 41ea 643e
00000040: 3e85 323e 3412 b2bc 32ea 493e b81e 1f3e
00000050: 0ef3 7abe 2042 99be 87b9 683e 1abb 89be
00000060: 482d 2e3c ff18 603e 6dda 203e 39f4 87be
00000070: 7546 6cbf 5af7 293e 88e4 663d 2294 cfbe
00000080: 1571 443e 3270 92be 1e19 87be a000 5c3e
00000090: 6a24 6a3e 7070 b7bc 315f 5b3e 58dc 503e
000000a0: 3c04 b9be dcb5 713e aebe abbe 1651 84bf
000000b0: a1ee 4b3e ad7b 3e3e 4334 9abe 475c 8fbe
000000c0: 0cd1 a6be 2f8b 423e 1541 253e aa31 5f3e
000000d0: f25e 4b3e 89d5 97be 36bf 403e 104f 323e
000000e0: 7b28 5d3e e5d0 163e 342e bfbe 6ae2 debe
000000f0: a5f6 a93e f086 c1bb 8233 603e 67e1 453e
00000100: 709e e6bb 0ea7 fe3c 2529 76be 04d1 673d
00000110: cfda 94be 0544 403e cb61 87be 8ed9 773c
00000120: ec26 9fbe dafd 313e 8404 66bf 3caf 953e
00000130: 3b5e 7bbe a666 4f3d 4e92 5c3e cfbe da3c
00000140: 54b3 153d ac21 a5be 79f5 593e 776c 4e3e
00000150: 679a 0c3d 95f2 503e 9592 83be 7ea5 a1bc
00000160: 7fbe 353e aecb 88be cdf5 83be 164b 733e
00000170: 9fe2 9f3c 36b6 513e e30b a5be a226 25bd
00000180: c9bf a9be 8e36 533e 53fe 493e 0021 aab9
00000190: 298f df3e 2f0f 71be 043d 553d f618 9b3e
000001a0: a0b8 383b 206b c83b 54bb 303e 674d 8fbe
000001b0: ec5c fe3c ab1e 96be 83a8 823e 516e 143e
000001c0: c033 473e 3546 643e af37 563e f56d 263e
000001d0: 7949 2e3e d8ab 533e d35c 2f3e 029b 5b3e
000001e0: 1fc5 62be d498 883c c801 94be 82c8 163d
000001f0: 0018 d13b 2a5f 253d 45cd 123e a5ff 77be
00000200: 04bb 8a3a 90ac 51bc 07fd 783e a401 a4bc
00000210: 20f9 923e 34a6 633e 9219 5a3e f1dc 233e
00000220: cf4a 79be b5c2 623e b139 2b3e cc07 d33c
00000230: d19e a5be 809b febc 00cc f5ba 564f 2c3e
00000240: 91f6 ccba 359c 83be 7ba4 46bd e3d5 683e
00000250: 7b01 1b3e 70be 2c3e ed91 89be 2a12 4a3e
00000260: 1aab 89be 8a27 8ebe e9e2 c639 64d5 623e
00000270: 3b9c 89be 6094 5f3b 3fd3 093e 8c5c e23c
00000280: 9284 7bbf 9ce3 a43e ffdc 8dbe bb56 8bbe
00000290: 6b38 6f3e 96db 553e 481c 023c fdc6 20bc
000002a0: b428 193d eb40 013f 2c74 4d3d a943 95be
000002b0: 2240 313e 0a58 673e 4a71 5b3e 29f7 453e
000002c0: 1c9f 7b3d 606a 8ebe d77b 473e 4b3c c5be
000002d0: 3fba b9be 7397 553e a685 563e 648e fbbe
000002e0: f8c5 9abe fe96 673e aa74 38bd bea1 153e
000002f0: c405 1b3e 4828 89be 5b44 4f3e 703f 77be
00000300: 7b42 99be 4a40 3f3d 84c8 1e3d 243d 7d3d
00000310: 163e 8abe 889d 58bd e469 7a3e 1f31 a2be
00000320: f4d9 e7be 5a9f 443e 1ff5 dfbc e3af 303e
00000330: 0487 3c3e 2752 9abe 5d52 9abe 9739 4f3e
00000340: 8fa8 4b3e 7c10 aa3e 968d 443e 5970 a7be
00000350: 5a98 2b3e c4ae 83be ec6a 81be da36 1a3e
00000360: 983e 953e d5cf 4a3e 4688 a5be 93cd 47bd
00000370: 60b7 4c3c 2885 a3bc ef9f 273e 29b3 3d3e
00000380: e2cb 34bd 48e4 2cbe d915 4f3e 572c 593e
00000390: 4f9f 993e ae76 f5be 0288 253d 5883 9abe
000003a0: c215 9b3e f066 92be 8188 7abc 4a20 71be
000003b0: db73 6fbe 9734 403e 6923 99be 57b8 6cbe
000003c0: 6b6e 683e 5ade 9cbe 1b6d 2c3e 9f0c 3abd
000003d0: 58b4 94bc e05b a5be f0ad 5e3c 64bb afbe
000003e0: 6b2d 413e 5615 53bd 6a65 7cbe 5e53 613d
000003f0: 2011 86be ee20 4c3e 0042 abbb 465f 203e

q2.0.weight f4 [256, 21]
-0.12664793 0.13955665 0.03874846 -0.2896786 -0.07883196 -0.009361669 0.15957215 0.21692039
0.036457274 0.009479425 0.096924245 0.25968608 -0.08857727 -0.19816166 -0.14408565 -0.2164373
-0.09874089 -0.09206538 -0.03479708 0.01671077 0.067614995 0.14262986 -0.13680947 -0.056976993
0.48379144 0.677185 0.65041226 -0.14344253 0.15486294 -0.16924673 -0.00570315 -0.11087712
-0.070122756 0.10964273 -0.08108449 -0.20154116 0.080529556 0.08211617 -0.16121265 -0.10271024
-0.13006347 0.039771408 -0.10804506 -0.011257585 0.14671679 -0.31233764 -0.4318598 0.008705668
0.15834288 -0.07005195 0.14136717 -0.0014682388 -0.11827055 0.15856908 0.000827983 -0.20844191
0.118968084 0.20210065 0.031192333 -0.2095259 0.09515234 0.08577155 -0.0876498 -0.2770421
0.12927975 -0.033720143 -0.45464852 -0.013686047 0.14005096 0.1469102 -0.2739463 0.101600066
-0.040696118 -0.14165257 -0.067963056 0.0113503635 0.13340177 0.09433375 0.18350486 -0.1561042
-0.16884205 0.0357907 0.07490929 -0.14109963 0.183822 0.12934652 0.20446914 -0.28359625
-0.24645074 -0.005522877 -0.026620805 0.03040664 0.22033882 -0.14262314 0.04440024 0.07708218
0.15801097 0.18883567 -0.04759386 -0.21604386 -0.030118778 0.031283572 -0.050644517 -0.21025635
-0.056579143 0.22474611 0.19371025 0.22319144 0.5596654 0.5153044 0.041775644 -0.04211757
0.22836123 0.19542538 -0.065132365 -0.19117256 0.03912323 0.21217258 0.030633718 -0.19149558
-0.11976102 -0.213999 -0.065696 0.17467459 -0.16596448 0.17048283 0.11616167 0.20219298
0.08340573 0.17262663 0.343941 -0.11689596 0.19052473 0.11523064 -0.037142556 0.15865187
-0.27931258 0.11243461 -0.18084493 -0.002643764 -0.1337959 -0.2122529 0.06177716 0.112951025
-0.13790849 0.13586771 -0.12633751 -0.053853437 -0.09382375 -0.09698134 -0.088566296 -0.14374478
-0.0210514 -0.19886163 0.18059841 0.054197706 0.15420194 0.2122509 0.06956782 0.19465734
-0.11254433 0.012440145 -0.03347157 0.15941052 0.024902746 0.23379098 0.1291578 0.27809384
-0.33180955 0.026452059 -0.161313 -0.07535009 0.2243263 0.15315019 0.0033458497 -0.22255701
0.047257327 0.12833734 0.04078738 0.02359759 -0.17688549 0.20972757 -0.19112298 0.18504013
-0.16606632 -0.19471128 0.0125039695 -0.11812837 0.16164178 -0.22656952 -0.028980933 -0.17744279
-0.24201119 0.049244095 0.27184197 0.22856498 -0.1364916 -0.21094531 -0.09981766 0.18998659
-0.1167971 -0.1625522 0.019647732 0.047119424 -0.06650616 -0.14737329 0.07477324 0.07547927
-0.23935033 0.06830767 -0.056566462 0.025214098 -0.062267486 0.10946807 -0.035578534 -0.26270232
0.08692402 -0.116707124 0.018775828 0.017919794 0.020983359 -0.22098649 0.1359459 0.0123141855
-0.03748165 0.19159378 0.029899716 -0.024548963 0.082676224 0.014754536 0.0938629 -0.11943171
-0.19732013 0.102687776 -0.13764343 -0.12079643 -0.01125384 -0.013560208 0.08535569 0.04475111
-0.30632097 0.051659353 -0.016991861 -0.13528383 0.21391629 0.0458083 0.020786434 -0.1297515
-0.044339374 -0.10028594 -0.00305033 0.011059141 -0.094024144 0.16246705 0.28480276 0.39878437
00000000: ffaf 01be f0e7 0e3e b5b6 1e3d c150 94be
00000010: a772 a1bd b061 19bc e266 233e 6120 5e3e
00000020: 3954 153d 974f 1b3c 3880 c63d 93f5 843e
00000030: 0068 b5bd e4ea 4abe 308b 13be bda1 5dbe
00000040: aa38 cabd c68c bcbd 6287 0ebd 06e5 883c
00000050: bb79 8a3d 900d 123e c817 0cbe b560 69bd
00000060: 83b3 f73e ff5b 2d3f 6b81 263f 99e2 12be
00000070: 6494 1e3e 044f 2dbe 7de1 babb 8b13 e3bd
00000080: 859c 8fbd 5e8c e03d a00f a6bd ce60 4ebe
00000090: aeec a43d 862c a83d ee14 25be bf59 d2bd
000000a0: 5c2f 05be 58e7 223d ba46 ddbd bc71 38bc
000000b0: ed3c 163e b8ea 9fbe ba1c ddbe 38a2 0e3c
000000c0: a324 223e 6677 8fbd 8ec2 103e eb71 c0ba
000000d0: d537 f2bd ef5f 223e 000d 593a cc71 55be
000000e0: 8aa5 f33d 79f3 4e3e 1087 ff3c f58d 56be
000000f0: 3bdf c23d ffa8 af3d bd81 b3bd 76d8 8dbe
00000100: e961 043e 221e 0abd b1c7 e8be 713b 60bc
00000110: 8569 0f3e a16f 163e b042 8cbe b213 d03d
00000120: f9b0 26bd 5f0d 11be 3730 8bbd e0f6 393c
00000130: 799a 083e 0e32 c13d b3e8 3b3e c8d9 1fbe
00000140: eee4 2cbe 4599 123d 0b6a 993d 6c7c 10be
00000150: d63b 3c3e 6a73 043e 5c60 513e 8733 91be
00000160: 955d 7cbe 40f9 b4bb e013 dabc 5917 f93c
00000170: 80a0 613e cd0b 12be 07dd 353d 43dd 9d3d
00000180: a1cd 213e 235e 413e c8f1 42bd 9a3a 5dbe
00000190: a8bb f6bc 3423 003d a070 4fbd 714d 57be
000001a0: 88bf 67bd d823 663e fb5b 463e 4c8c 643e
000001b0: 3b46 0f3f fdea 033f f01c 2b3d 7983 2cbd
000001c0: 87d7 693e 971d 483e 1e64 85bd bdc2 43be
000001d0: ae3f 203d c543 593e 90f3 fa3c 6b17 44be
000001e0: 4445 f5bd 8e22 5bbe a08b 86bd e5dd 323e
000001f0: 98f2 29be 0d93 2e3e 2be6 ed3d ad0b 4f3e
00000200: a0d0 aa3d 09c5 303e 0919 b03e 2667 efbd
00000210: ea18 433e 0bfe eb3d cb22 18bd a375 223e
00000220: 0f02 8fbe 1e44 e63d 6a2f 39be 0043 2dbb
00000230: cb01 09be d358 59be 0c0a 7d3d de52 e73d
00000240: e237 0dbe e820 0b3e 9f5e 01be 6c95 5cbd
00000250: ab26 c0bd 279e c6bd 3f62 b5bd d531 13be
00000260: fc73 acbc 62a2 4bbe caee 383e 6afe 5d3d
00000270: 1de7 1d3e 4d58 593e 9379 8e3d 4154 473e
00000280: a47d e6bd c0d1 4b3c 7c19 09bd 833c 233e
00000290: d800 cc3c e766 6f3e f141 043e 5162 8e3e
000002a0: f1e2 a9be fdb1 d83c 3c2f 25be 2651 9abd
000002b0: cbb5 653e 67d3 1c3e 0b46 5b3b fce5 63be
000002c0: e690 413d dd6a 033e ab10 273d bc4f c13c
000002d0: 7821 35be d3c2 563e beb5 43be 297b 3d3e
000002e0: 4a0d 2abe 6562 47be 73dd 4c3c 49ed f1bd
000002f0: 6c85 253e d701 68be 6c69 edbc 90b3 35be
00000300: c8d1 77be 2db4 493d df2e 8b3e f00c 6a3e
00000310: 74c4 0bbe 0c02 58be 346d ccbd d88b 423e
00000320: 5133 efbd 1574 26be 48f4 a03c 4c00 413d
00000330: 6234 88bd 06e9 16be b622 993d e094 9a3d
00000340: 4118 75be e4e4 8b3d 3cb2 67bd cc8d ce3c
00000350: 310c 7fbd cc30 e03d ccba 11bd eb80 86be
00000360: 3805 b23d 2504 efbd c4cf 993c 88cc 923c
00000370: 4be5 ab3c 484a 62be 6735 0b3e 70c1 493c
00000380: 5c86 19bd 2931 443e 40f0 f43c e81a c9bc
00000390: 2752 a93d 02bd 713c 313b c03d 9d98 f4bd
000003a0: 4a0e 4abe f84d d23d 66f2 0cbe 1e64 f7bd
000003b0: 0762 38bc a22b 5ebc f7ce ae3d f14c 373d
000003c0: 1ad6 9cbe c298 533d 8432 8bbc d887 0abe
000003d0: df0c 5b3e 7ca1 3b3d 5048 aa3c 94dd 04be
000003e0: 349d 35bd b762 cdbd 0ce8 47bb 6631 353c
000003f0: bb8f c0bd c35d 263e abd1 913e 772d cc3e

q2.0.bias f4 [256]
0.17310648 0.017981308 0.013083233 -0.0068548843 -0.010853344 0.019072665 -0.035146795 -0.16115792
-0.014050352 0.21473686 -0.14940248 0.20017467 0.13078885 -0.093035884 0.21158497 -0.19201782
-0.21382362 -0.049613137 0.13119154 -0.094243474 -0.15309992 -0.07382632 0.013258085 0.20204715
0.21234728 0.12325381 0.16545524 -0.16586186 -0.16499294 0.18833646 -0.08945538 0.24633437
-0.03232515 0.10128306 0.02827648 0.15687029 -0.059686333 0.13006265 -0.15621576 0.22912362
-0.16061923 -0.038600132 0.08275319 0.13553327 -0.03271185 -0.033150434 -0.09889145 -0.19488132
-0.17910129 0.22513598 0.16963826 -0.094992116 -0.0028147737 -0.14619267 -0.17165342 0.124812655
-0.02550112 0.18497418 0.2400523 -0.0028063804 0.05451369 0.10377267 0.020017117 -0.10477961
-0.020013785 -0.12835835 0.13479996 -0.16172835 0.096212685 -0.036714327 0.15991199 0.11435844
0.12614007 0.15617117 -0.17749698 0.06000719 0.19379438 0.24568906 -0.17370504 -0.114327975
0.18869983 0.08471341 -0.059073836 0.22753099 -0.064099774 0.09611727 0.039925948 0.17966753
0.10194966 -0.062921815 -0.051363543 0.15818313 0.21631368 0.09563954 -0.16837412 -0.078656286
-0.17978865 0.2504075 0.13889161 -0.07076962 0.21773994 -0.007343486 0.065763995 0.09680938
-0.012755662 -0.10647092 -0.096670985 0.041165248 -0.04111489 -0.1757601 0.1773366 0.11165258
0.11147315 0.2333817 -0.15820265 0.10029348 -0.061123535 0.15079567 0.16028634 0.16654392
0.1299303 -0.16552553 -0.082240954 -0.16792421 0.14652428 0.17291962 -0.012614284 0.1015408
0.12606081 0.11693554 -0.18866198 0.13582875 -0.14304431 -0.07572962 0.21277504 0.024001436
0.16778715 -0.19478242 -0.18375638 0.058606938 0.0067763133 -0.19945635 0.010756291 0.074801564
0.08107284 0.1271634 -0.14196357 -0.05785789 0.005770547 0.01045767 -0.13808884 -0.11274476
-0.07277243 -0.16296843 0.12839933 -0.09843325 0.1289986 0.1046553 -0.1445051 -0.12908906
-0.042970747 0.13662921 0.10432152 0.17348154 -0.011851753 0.190758 -0.124899015 -0.10357619
0.20636858 -0.11485509 -0.21545906 -0.05072376 0.17248374 -0.19039793 0.109608896 0.09803249
0.10135803 0.07439761 -0.18547894 0.04778533 -0.011414113 -0.10408713 -0.0381082 0.06958429
-0.015002516 0.011099866 -0.13712732 -0.08808032 -0.10037748 -0.12049838 0.077719554 -0.11678223
-0.16375597 0.004154756 -0.06644366 0.09793948 -0.1813707 0.20678778 -0.020906433 0.00016321242
-0.117661044 -0.034328528 0.24166264 0.06775983 0.12247802 0.07886941 -0.004018728 0.018129036
-0.034030106 0.15997791 0.15876265 -0.012949355 -0.0787987 -0.1720472 0.15672587 0.12238174
0.14639677 -0.19292822 -0.15488604 -0.010218726 0.1408175 0.19432604 0.014785052 0.16664064
-0.08949858 -0.12513834 -0.114977926 -0.09708195 0.06911413 -0.09543086 -0.044766996 0.11456796
0.01737059 -0.10931427 -0.17704278 -0.10083253 -0.13175252 -0.017515639 -0.002641365 -0.036829386
-0.055741154 0.18464802 0.04595816 0.08438994 -0.0395316 0.0393631 -0.04677685 -0.028803987
-0.015518233 0.24391794 -0.21309337 -0.14572975 0.046595883 0.15515688 -0.15863273 0.14882915
00000000: d342 313e 894d 933c 0e5b 563c f09e e0bb
00000010: 39d2 31bc 473e 9c3c 16f6 0fbd 9506 25be
00000020: 7333 66bc fbe3 5b3e f7fc 18be 97fa 4c3e
00000030: 83ed 053e 9989 bebd bba9 583e 52a0 44be
00000040: 94f4 5abe 2537 4bbd 1357 063e b902 c1bd
00000050: 3ac6 1cbe 4132 97bd 7038 593c 73e5 4e3e
00000060: 9171 593e 7e6c fc3d 196d 293e b1d7 29be
00000070: e9f3 28be 46db 403e 6234 b7bd 143f 7c3e
00000080: 6067 04bd 7e6d cf3d 14a4 e73c 9ba2 203e
00000090: a879 74bd 252f 053e 06f7 1fbe 629f 6a3e
000000a0: 5e79 24be 2c1b 1ebd 817a a93d 3cc9 0a3e
000000b0: dcfc 05bd c0c8 07bd 9a87 cabd f88e 47be
000000c0: 5466 37be 0c8a 663e a7b5 2d3e 3a8b c2bd
000000d0: 1178 38bb 88b3 15be eac5 2fbe c79d ff3d
000000e0: bae7 d0bc df69 3d3e 45d0 753e 40eb 37bb
000000f0: bf49 5f3d c486 d43d f0fa a33c b196 d6bd
00000100: f3f3 a3bc 5f70 03be 0009 0a3e 1e9c 25be
00000110: 280b c53d c361 16bd f8bf 233e c234 ea3d
00000120: dd2a 013e 56eb 1f3e c5c1 35be 19ca 753d
00000130: 0972 463e ea95 7b3e bcdf 31be c924 eabd
00000140: 873a 413e 397e ad3d 68f7 71bd e2fd 683e
00000150: be46 83bd 22d9 c43d 6489 233d c4fa 373e
00000160: fcca d03d 27dd 80bd 9462 52bd c2fa 213e
00000170: 5581 5d3e aade c33d 446a 2cbe 8c16 a1bd
00000180: 841a 38be 6935 803e 9a39 0e3e aaef 90bd
00000190: 38f7 5e3e a0a1 f0bb 46af 863d ff43 c63d
000001a0: 20fd 50bc 6d0d dabd 70fb c5bd e49c 283d
000001b0: 1668 28bd 75fa 33be ba97 353e 1caa e43d
000001c0: 094c e43d 9dfb 6e3e e0ff 21be ab66 cd3d
000001d0: ac5c 7abd 2e6a 1a3e 1a22 243e 7d8a 2a3e
000001e0: 730c 053e 867f 29be f26d a8bd 53f4 2bbe
000001f0: 760a 163e d711 313e 24ac 4ebc 9ff4 cf3d
00000200: 1616 013e e77b ef3d 9b30 41be b116 0b3e
00000210: 357a 12be 2218 9bbd b3e1 593e a99e c43c
00000220: 65d0 2b3e 0b75 47be a22a 3cbe d40d 703d
00000230: d60b de3b 493e 4cbe 283b 303c 9031 993d
00000240: 8409 a63d 1f37 023e e65e 11be 65fc 6cbd
00000250: db16 bd3b a656 2b3c 2967 0dbe bae6 e6bd
00000260: b609 95bd 32e1 26be 1d7b 033e 5f97 c9bd
00000270: 3618 043e 8555 d63d 25f9 13be ec2f 04be
00000280: 1802 30bd 87e8 0b3e 85a6 d53d 25a5 313e
00000290: db2d 42bc 1156 433e 0ecb ffbd c11f d4bd
000002a0: 4952 533e 2539 ebbd 4da1 5cbe b8c3 4fbd
000002b0: 949f 303e adf7 42be a17a e03d 42c5 c83d
000002c0: cd94 cf3d c65d 983d 31ee 3dbe 8dba 433d
000002d0: 4302 3bbc a22b d5bd 5817 1cbd 3582 8e3d
000002e0: 1dcd 75bc 36dc 353c 1b6b 0cbe 7463 b4bd
000002f0: b592 cdbd dbc7 f6bd 6e2b 9f3d 862b efbd
00000300: a5af 27be 9f24 883b 9d13 88bd 7e94 c83d
00000310: 3eb9 39be 2dc0 533e f843 abbc 0024 2b39
00000320: 46f8 f0bd 129c 0cbd 6976 773e aac5 8a3d
00000330: c2d5 fa3d 4986 a13d 89af 83bb 5883 943c
00000340: 2763 0bbd 40d1 233e ad92 223e 8829 54bc
00000350: 3661 a1bd 242d 30be bf7c 203e 47a3 fa3d
00000360: 09e9 153e fa8e 45be 729a 1ebe 716c 27bc
00000370: 7632 103e 68fd 463e 013d 723c d8a3 2a3e
00000380: 084b b7bd 4424 00be 8c79 ebbd e7d2 c6bd
00000390: b68b 8d3d 4171 c3bd 995d 37bd 9ba2 ea3d
000003a0: c44c 8e3c 29e0 dfbd b44a 35be 4981 cebd
000003b0: 22ea 06be f57c 8fbc c01a 2dbb 69da 16bd
000003c0: d650 64bd 5f14 3d3e a03e 3c3d a2d4 ac3d
000003d0: e3eb 21bd 343b 213d 1599 3fbd 57f6 ebbc
000003e0: 3040 7ebc a0c5 793e 2635 5abe 2e3a 15be
000003f0: 53db 3e3d 72e1 1e3e 9e70 22be ab66 183e

q2.2.weight f4 [256, 256]
-0.034181725 -0.036249757 0.058445867 0.108182214 -0.035339843 -0.116268136 -0.08157898 -0.0064652506
0.1519586 0.015138156 0.03531194 0.19689006 0.043403383 0.0010258481 0.028691951 -0.05411508
0.05036486 0.03340194 0.066325806 0.081209265 -0.016210545 0.03408194 -0.051280297 0.015529225
-0.12162788 -0.17910616 -0.061128706 0.049380712 -0.05668304 -0.039667282 0.046851635 -0.07981522
-0.00038027018 0.063542515 -0.033052698 -0.018511191 0.046809636 0.044136133 -0.004544524 0.13973643
-0.024877526 -0.008304365 0.057570457 0.06238898 0.025476512 -0.0056107864 0.034588087 0.059661433
-0.01957203 -0.011680219 -0.025397621 -0.037634864 -0.030942244 0.034046605 0.024594687 0.016807854
-0.12137666 0.052866813 -0.003530324 0.049340133 0.05266775 0.0012844111 -0.0049922788 -0.02904648
0.027677711 0.018548911 -0.105684765 -0.043414727 0.022001356 -0.030278854 0.009327322 -0.03684497
-0.032962926 0.027700046 -0.10205619 0.052391082 -0.011515603 -0.1007601 0.0051557207 -0.06098119
0.0649932 -0.004754758 0.029735751 -0.065711915 0.02500189 -0.07285413 -0.033389904 0.049669486
-0.0080678575 -0.16619872 -0.059312385 0.0044698343 0.06496824 -0.0045884345 0.03805673 0.01724992
-0.06900278 0.025857989 0.03781319 0.032768067 -0.05797112 -0.017711066 0.0011710152 -0.04212164
0.022888483 -0.03280878 -0.030832984 -0.038971215 0.05543113 0.014032836 -0.079887465 0.04243981
-0.025658017 -0.019751098 -0.054572385 0.056661535 -0.04265046 0.1151537 -0.061154798 0.033712648
0.038533658 0.13420025 0.009974703 -0.03369169 -0.0397118 -0.0028149113 -0.031101821 0.012588117
-0.08592926 0.058656108 0.026651882 0.0028323478 0.07214157 -0.124867775 0.030637229 0.0015955081
-0.020265989 -0.06914384 -0.053974494 0.053240784 -0.039052293 0.111887746 0.062254522 0.0649739
-0.04204704 -0.07535225 -0.010322437 -0.024398409 -0.026179407 -0.22787492 -0.001089789 -0.056867152
0.026331527 -0.038684357 -0.013716701 -0.047300413 0.0872768 -0.02689502 0.057559848 0.007908113
0.01830309 -0.025383336 -0.096426524 0.03471861 -2.1127958e-05 -0.025325663 -0.024230953 0.023386866
-0.044061534 0.035831936 0.016444435 -0.03851678 -0.029432315 0.055488095 0.009546988 -0.022838054
0.101611055 -0.061560534 0.023756493 0.027896576 -0.033232596 -0.041635275 0.05698288 0.13567744
0.06586084 0.056565534 -0.09342541 -0.06778152 -0.056547873 0.04195418 0.030995816 -0.030002346
-0.042613532 0.12636429 0.07742012 -0.0008335039 0.023676604 -0.02681441 -0.04629068 0.006238438
-0.02393835 0.125697 -0.027570307 -0.11617863 -0.021107867 -0.026401808 0.12184249 0.0125761265
-0.0954616 0.07873773 0.04179692 0.06175729 -0.08488583 0.13481545 0.05064635 0.06944817
0.17198955 0.049634688 -0.0045570657 -0.026886994 0.02938415 -0.21738476 -0.0244819 -0.050036866
-0.05608543 -0.036351584 -0.0086881295 -0.046655167 0.011275515 0.008176749 -0.14321914 -0.05706858
0.038991395 -0.04520022 0.036792364 -0.046281353 -0.04526109 -0.05955467 0.060045667 -0.043503214
-0.01793821 0.052287415 0.009796756 -0.088673376 -0.17644511 0.006338388 -0.026848307 -0.008053346
-0.0019534752 -0.0673258 -0.04879979 -0.021855034 -0.030291444 -0.029726215 0.11194463 -0.00093896064
00000000: 2302 0cbd a07a 14bd ef64 6f3d a38e dd3d
00000010: 83c0 10bd fd1d eebd e112 a7bd 74da d3bb
00000020: 099b 1b3e 0706 783c 41a3 103d 8c9d 493e
00000030: bfc7 313d c075 863a 620b eb3c c6a7 5dbd
00000040: 624b 4e3d 79d0 083d d3d5 873d 0b51 a63d
00000050: facb 84bc 8199 0b3d 4a0b 52bd 4a6e 7e3c
00000060: 0a18 f9bd 9b67 37be 1862 7abd 6e43 4a3d
00000070: 7a2c 68bd 297a 22bd 80e7 3f3d 2976 a3bd
00000080: 005f c7b9 9422 823d 4462 07bd c8a4 97bc
00000090: 76bb 3f3d 17c8 343d 3bea 94bb 1117 0f3e
000000a0: f4cb cbbc 080f 08bc 00cf 6b3d 968b 7f3d
000000b0: 1eb4 d03c b0da b7bb 3dac 0d3d 8c5f 743d
000000c0: 8655 a0bc 645e 3fbc ac0e d0bc 0427 1abd
000000d0: 977a fdbc 7474 0b3d cc7a c93c a0b0 893c
000000e0: 5494 f8bd df8a 583d 025d 67bb e118 4a3d
000000f0: 23ba 573d af59 a83a 4596 a3bb e2f2 edbc
00000100: 5ebc e23c e3f3 973c 4171 d8bd a4d3 31bd
00000110: 303c b43c 5c0b f8bc a0d1 183c c0ea 16bd
00000120: 2204 07bd 35eb e23c d602 d1bd 0898 563d
00000130: f1ab 3cbc 505b cebd 52f1 a83b 6ac7 79bd
00000140: 281b 853d cdcd 9bbb 6498 f33c f893 86bd
00000150: c3d0 cc3c 8c34 95bd dac3 08bd 3b72 4b3d
00000160: 0c2f 04bc ff2f 2abe 8bf1 72bd b077 923b
00000170: 120e 853d 945a 96bb 60e1 1b3d b44f 8d3c
00000180: 5451 8dbd 22d4 d33c 01e2 1a3d cf37 063d
00000190: 2073 6dbd cc16 91bc c07c 993a be87 2cbd
000001a0: a180 bb3c 8062 06bd 7495 fcbc 48a0 1fbd
000001b0: c10b 633d fbe9 653c 0a9c a3bd 5ed5 2d3d
000001c0: c330 d2bc 0ecd a1bc 4b87 5fbd ed15 683d
000001d0: 40b2 2ebd b4d5 eb3d 747d 7abd 4616 0a3d
000001e0: 78d5 1d3d ca6b 093e f06c 233c 4c00 0abd
000001f0: d7a8 22bd 607a 38bb 3fc9 febc 643e 4e3c
00000200: aefb afbd 6341 703d 0c55 da3c e99e 393b
00000210: f6be 933d adba ffbd edfa fa3c 5e20 d13a
00000220: dc04 a6bc 499b 8dbd 5c14 5dbd 0213 5a3d
00000230: 4cf5 1fbd 6725 e53d 99fe 7e3d 0911 853d
00000240: 8439 2cbd 4852 9abd 701f 29bc 2cdf c7bc
00000250: 3276 d6bc 0b58 69be 40d7 8eba 88ed 68bd
00000260: 37b5 d73c 7d73 1ebd 04bc 60bc 14be 41bd
00000270: 2ebe b23d f252 dcbc e0c3 6b3d 0891 013c
00000280: 5df0 953c b7f0 cfbc 457b c5bd 1a35 0e3d
00000290: f23b b1b7 c477 cfbc fe7f c6bc d095 bf3c
000002a0: de79 34bd 82c4 123d 7bb6 863c c5c3 1dbd
000002b0: 0a1c f1bc 7c47 633d f86a 1c3c df16 bbbc
000002c0: 7519 d03d e626 7cbd fa9c c23c 5c87 e43c
000002d0: e71e 08bd c089 2abd e166 693d 07ef 0a3e
000002e0: 0ce2 863d 43b1 673d d255 bfbd 0ad1 8abd
000002f0: be9e 67bd 25d8 2b3d f0ea fd3c 7bc7 f5bc
00000300: 878b 2ebd a465 013e 718e 9e3d 807f 5aba
00000310: 70f5 c13c e5a9 dbbc 4c9b 3dbd d06b cc3b
00000320: 5c1a c4bc b7b6 003e 20db e1bc 10ef edbd
00000330: 68ea acbc 9b48 d8bc 8e88 f93d 190c 4e3c
00000340: 5f81 c3bd 3f41 a13d 3f33 2b3d 36f5 7c3d
00000350: 9fd8 adbd 100d 0a3e 8c72 4f3d d83a 8e3d
00000360: 071e 303e be4d 4b3d 7053 95bb 1d42 dcbc
00000370: 07b7 f03c 1c9a 5ebe 448e c8bc 75f3 4cbd
00000380: d6b9 65bd 66e5 14bd a858 0ebc 7d19 3fbd
00000390: f0bc 383c c5f7 053c 0aa8 12be bec0 69bd
000003a0: 71b5 1f3d de23 39bd 97b3 163d 8491 3dbd
000003b0: b163 39bd 99ef 73bd 72f2 753d 6d30 32bd
000003c0: 27f3 92bc 542b 563d 9382 203c 639a b5bd
000003d0: 07ae 34be 41b2 cf3b fbf0 dbbc 2ef2 03bc
000003e0: e005 00bb 1ce2 89bd 4ae2 47bd 5409 b3bc
000003f0: c325 f8bc 6484 f3bc 3a43 e53d 9524 76ba
