astar/checkpoints1/sac_critic_50.pth (torch, 580626 bytes, 10 tensors)

weight f4 [256, 21]
000000 7d 2a 62 3e 77 07 58 3e d7 a7 89 3d 38 29 56 bd
       0.2208652 0.21096598 0.06721466 -0.052285403
000010 85 1e 67 be 23 eb 3e be 37 cc 26 3e a6 4c 14 3d
       -0.22570236 -0.18644385 0.1628884 0.03620591
000020 40 fb 2d bc 3c 1c 0a 3e cb 85 4d be 81 93 46 be
       -0.010618985 0.13487333 -0.20070569 -0.19392206
000030 1e 7c c7 3d 84 d8 54 be 80 d1 85 ba 7b 60 54 3e
       0.0974047 -0.20785719 -0.0010209531 0.2073993
000040 54 36 61 3d 24 a3 3d 3d ec 93 34 3e dc 5c 12 3e
       0.054983452 0.04629816 0.17634553 0.14293236
000050 76 dc 04 be ef 64 54 3e f4 f4 62 bb 64 d9 20 be
       -0.12974724 0.20741628 -0.0034630867 -0.15707928
000060 e6 b7 a6 be a0 b7 91 be 8f f5 16 bd 5f d0 31 3e
       -0.32562178 -0.28460407 -0.036855277 0.17364644
000070 7e 1f 85 3d c7 46 9d 3d 97 af 7a 3d 9b d1 3f 3e
       0.06500147 0.07679515 0.06120261 0.18732302
000080 13 d9 98 3d 4e 4e c4 3d 3e ea 2e be 5a 03 9f bd
       0.074632786 0.09585248 -0.17081544 -0.07764311
000090 13 d3 1e 3e f6 75 e0 3d 8f 25 5f be 8e d9 e4 bd
       0.15510206 0.10959999 -0.21791671 -0.11174308
0000a0 7e 52 35 3e 03 77 33 be ea be 25 bd 50 55 65 be
       0.1770725 -0.17525868 -0.040465273 -0.22395825
0000b0 b5 05 14 3d 89 e6 9f bd 14 3b 34 bd 0b 2f 19 3d
       0.036138255 -0.07807643 -0.044001654 0.03739838
0000c0 f4 fb c0 3d 76 52 63 3d 0c f6 a1 bd 2d 47 7e be
       0.09423056 0.055498563 -0.07908258 -0.24831839
0000d0 4f 06 ce 3d 65 88 3c 3d 68 4e 11 bd 54 ec 7e 3d
       0.10059797 0.046028513 -0.035475165 0.0622371
0000e0 78 41 bf bd e6 75 3a be 3a 90 bc bd 34 f9 58 bd
       -0.09338659 -0.18209037 -0.092071965 -0.052972034
0000f0 f7 27 02 3e dd 70 49 bd 11 dc 0d 3e 17 d9 41 be
       0.12710558 -0.0491799 0.1385348 -0.1893047
000100 64 b8 09 3d 92 99 dc 3d 84 25 b7 bd c2 3a 90 bd
       0.033623114 0.10771479 -0.089427024 -0.07042457
000110 ce 23 50 be c3 0c e4 bd 96 2e 84 3d 4c 14 3d 3d
       -0.20326158 -0.111352466 0.06454198 0.046161935
000120 0c e8 5e be e2 d3 89 bd 7c 04 10 be c1 87 37 3e
       -0.21768206 -0.067298666 -0.1406421 0.1792288
000130 4c c1 11 bd 9e cb d8 bd ee 14 4c be 6d 9d 1c be
       -0.035584733 -0.10585712 -0.19929859 -0.15294428
000140 93 30 2a 3e 54 fa 06 be 30 3e 1a be 19 70 37 3e
       0.16620092 -0.1318143 -0.15062785 0.17913856
000150 25 d8 cd 3d 6d 59 f1 3c b0 b1 93 bd c5 db c5 3d
       0.10050992 0.029461587 -0.072116256 0.09661058
000160 59 32 36 3d 36 98 a8 3c 56 c0 1e be 8d f7 57 3e
       0.04448161 0.020580392 -0.15503058 0.21090527
000170 8b 69 12 3b bc 8b e1 bd e8 ba 35 3d 3c 8b 67 3e
       0.002234074 -0.1101298 0.0443677 0.22611707
000180 c6 74 27 be f9 e5 20 3e 8c 9e 5c 3d 80 95 d5 3c
       -0.1635314 0.15712728 0.05386214 0.026072264
000190 d8 8c f9 bd 40 68 cb bb 3d fe 63 3c 28 7c d5 3c
       -0.12185067 -0.006207496 0.013915596 0.026060179
0001a0 c1 9e bf bd 94 ee 86 be 6c 83 62 3e 78 c4 19 be
       -0.09356452 -0.26353896 0.22120446 -0.15016353
0001b0 c1 b2 c4 3b 02 e6 1b 3d 1a 32 f3 bd a9 1f 3e bb
       0.0060027544 0.03806115 -0.118747905 -0.002901057
0001c0 bd 02 3c be d7 a8 24 bc 52 cf 25 bd 70 26 0d 3e
       -0.1836042 -0.01005002 -0.04048092 0.13784194
0001d0 88 89 d8 bc 5f 02 c4 bd cf 01 00 3e 76 3e bd 3d
       -0.026432768 -0.09570765 0.1250069 0.09240429
0001e0 00 d3 f6 ba 2e 5b 11 be 79 94 33 3e 9c 38 5f 3e
       -0.0018831193 -0.14194939 0.17537107 0.21798939
0001f0 62 69 4d bb 2a fa 24 be 4b 89 a8 3d 96 2b 4c 3e
       -0.003134333 -0.16111055 0.082293116 0.19938502
000200 50 4d fe bd 15 22 48 3e 43 09 00 be 34 36 00 be
       -0.1241709 0.19544251 -0.12503533 -0.12520677
000210 cd 06 15 3e 34 2a 86 3e c1 7a 83 bd f6 48 30 3e
       0.14553376 0.26204073 -0.06419898 0.17215332
000220 2a 62 07 be f4 fd 0a 3e f5 e6 eb bd 0a b1 83 bd
       -0.1322104 0.13573438 -0.11518661 -0.06430252
000230 65 41 2d 3e bc 02 78 3d a0 23 cb bc 96 4a 22 be
       0.16919477 0.060549483 -0.02479726 -0.15848765
000240 30 a5 44 bd cf dc b3 3d 6f d9 e9 3d 2b d2 25 3e
       -0.048009098 0.0878235 0.11418425 0.16193454
000250 12 d4 9b 3d 8d 6b 24 3e 70 86 9b bd f0 6b 59 bc
       0.076088086 0.16056652 -0.07594001 -0.013270363
000260 a0 f3 34 bc 73 4d ec bd fa 4a 9f bd 33 2d fc bd
       -0.011044413 -0.1153821 -0.077779725 -0.123133086
000270 d4 ad fb bd 40 af 57 be 22 d3 34 be b6 71 1a be
       -0.122890145 -0.21062946 -0.17658666 -0.1508244
000280 4c c9 40 bd 3a 7d da 3d 00 ae 31 bc f8 2a e6 bc
       -0.04706697 0.10668416 -0.0108447075 -0.028096661
000290 23 3c 22 be 46 b9 02 be 69 3a 41 be 9c 13 80 bd
       -0.15843253 -0.12765989 -0.18869938 -0.0625374
0002a0 b0 74 b9 bc c7 f5 c9 bd 4c e6 13 be 21 4d dd bd
       -0.022638649 -0.098613314 -0.1444332 -0.10805727
0002b0 88 8e 51 be 83 ee 01 3e dc 9b 0c 3d 58 eb 03 bd
       -0.20464528 0.12688641 0.034328327 -0.032206863
0002c0 90 d0 11 be 03 97 3e be 74 d4 08 3d a8 a7 6f bd
       -0.14239717 -0.18612294 0.033405736 -0.0585095
0002d0 1f 3f 00 be 5d 80 32 3e b4 52 4d 3d c8 9c 5e bd
       -0.12524079 0.17431779 0.0501277 -0.054348737
0002e0 d2 ee 82 3d 4f be 25 3e c6 48 36 be 78 4f 78 bd
       0.063932076 0.16185878 -0.17801198 -0.060622662
0002f0 85 7d 47 be 1c f0 56 be 33 0f e3 3c 82 8c cc 3d
       -0.19481476 -0.20990032 0.027717208 0.09987737
000300 99 f9 c3 3d 5c 92 94 bd 43 32 a5 3e 58 61 15 be
       0.09569091 -0.07254478 0.3226491 -0.14587915
000310 ec 0e c6 bd 76 7a 35 3e 25 4a 41 bd 05 c9 06 3e
       -0.09670815 0.17722496 -0.04718985 0.1316262
000320 b8 c2 a9 bc f6 a3 88 3d 04 74 5c 3d e6 31 15 be
       -0.020722732 0.06671898 0.05382158 -0.14569816
000330 33 d5 44 be ea 92 d6 3d 04 cb c7 bd 2f 4e de 3c
       -0.19221954 0.104772404 -0.09755519 0.02713689
000340 ef 16 83 bd dd 72 17 be b7 25 61 3e ba 89 80 3d
       -0.064008586 -0.1478991 0.21987043 0.06276269
000350 6f a3 c2 bd f0 5d a6 3e d2 2b d0 3e ab 21 57 3e
       -0.09503829 0.32493544 0.40658432 0.21008937
000360 10 55 ae bc cd 14 e1 3d 3b f7 02 bd ab 49 6f bc
       -0.021280795 0.109902956 -0.03197406 -0.014604966
000370 d8 1b a3 bd 58 1d e1 bc 03 6b 44 3e 94 72 67 bd
       -0.07964295 -0.027479813 0.19181447 -0.056505755
000380 72 3c e7 bd b5 15 34 3e cc c4 41 3d 50 b6 81 bd
       -0.11290826 0.17586406 0.04730682 -0.063336015
000390 1d 81 16 bd 4a e0 eb 3d 6c 43 3b 3e 51 c2 ea 3d
       -0.036744226 0.11517389 0.18287438 0.11462844
0003a0 d6 da 10 3e 84 ef fd bd ba 0d c6 3e 24 e6 a3 3e
       0.1414598 -0.123991996 0.38682348 0.3201152
0003b0 c3 8f e4 3d 68 ff ca bd 30 fd 39 3e e4 28 f1 3d
       0.11160233 -0.09911996 0.1816299 0.117753774
0003c0 b5 52 68 bd 1a c5 98 bc 4d 16 b5 3d 14 5c 59 be
       -0.0567195 -0.018648673 0.08842144 -0.21226531
0003d0 ec cb 1a be 18 46 a2 3c aa e9 30 be 42 c2 9b 3d
       -0.15116853 0.019808814 -0.17276636 0.07605411
0003e0 00 f5 79 bc a1 29 aa 3d ad 35 23 bd 0c 0d f5 3c
       -0.015256166 0.08308721 -0.03984611 0.029913448
0003f0 93 4f 51 3e 46 4f 3b be 83 1a 2e 3d a9 56 84 be
       0.20440511 -0.18291959 0.042505752 -0.25847366

bias f4 [256]
000000 77 50 66 3d 8c 0c a4 3c 98 64 cb 3d 08 01 c6 bc
       0.05622908 0.020025514 0.09931296 -0.024170414
000010 b8 94 3d bd ae 5c 2e bc d2 e3 d5 3d e0 bc bc 3c
       -0.046284407 -0.010642214 0.10443844 0.023039281
000020 7b ca 39 3e eb 63 0e be 45 74 44 bc f5 24 3b 3c
       0.18143646 -0.13905303 -0.011990611 0.011422385
000030 18 08 08 3e e1 f2 3a be a8 49 2b bd 19 fd 9c 3d
       0.13284338 -0.18256713 -0.04181829 0.07665462
000040 a7 96 be bd 79 94 10 be 4c 47 a9 bb 3b fb f5 3b
       -0.093060784 -0.14119138 -0.00516597 0.0075067556
000050 85 53 01 3e c5 3c ba bd 17 f4 1b be 06 ce 05 bd
       0.12629516 -0.09093622 -0.15229832 -0.032667182
000060 29 f9 2b 3c 13 56 c8 3d 30 4b 07 3d 90 91 6e 3d
       0.010496416 0.09782042 0.03303069 0.058244288
000070 e2 8e 8e 3d 57 a1 11 be 38 aa ff 3d 25 dc fe 3d
       0.069608465 -0.14221703 0.124836385 0.12444333
000080 13 fa 0f be 24 72 18 be e4 c4 49 bd 15 4f 9f bd
       -0.1406024 -0.14887291 -0.049260035 -0.077787556
000090 ae 49 46 be d0 a7 f7 bd d5 f9 bc bd f7 90 03 3e
       -0.19364044 -0.120925546 -0.09227339 0.12848268
0000a0 2b 58 ac 3d 5f 42 fe bd 8a 36 49 be 9c 54 46 3d
       0.08415254 -0.12415003 -0.19649711 0.048420534
0000b0 6f 2c 0f 3e ba 06 35 be d7 93 e8 bd 32 bc b5 bd
       0.13981794 -0.17678347 -0.11356323 -0.08873786
0000c0 0d a1 4e 3e df 6c 55 3e a8 ad 3f bc 5b ea 22 3e
       0.20178623 0.20842312 -0.011699118 0.15909712
0000d0 b5 74 45 3e 27 5f 6f 3e 23 90 ae 3b 1e 98 c3 bd
       0.19282801 0.23376141 0.005327241 -0.095504984
0000e0 d6 05 53 3e 91 6b 18 3e 06 96 09 be 3e 12 db 3d
       0.20607695 0.14884783 -0.13436136 0.10696839
0000f0 cd 35 9f 3c 72 74 ec bd f9 bd 0f 3e 9f 02 e7 bb
       0.019434834 -0.11545648 0.14037313 -0.007049873
000100 d3 2c 48 be f7 6c 85 3d cf 2f 5a 3e f9 ef a8 bd
       -0.19548349 0.06514924 0.213073 -0.08248896
000110 5c 54 ca 3d 6c ba 0f be cd d3 eb 3d 73 5d e8 bd
       0.098793715 -0.14035958 0.11515007 -0.11345949
000120 cf a7 2c be 5f c6 3b 3c fe 1e 30 be 1f 56 ed bd
       -0.16860889 0.01146087 -0.17199323 -0.11588692
000130 7c 21 05 be 96 d4 49 3e db 27 fb bd c6 50 5e 3e
       -0.13001055 0.19710001 -0.12263461 0.217105
000140 5e b6 ac 3c d2 3b bf 3d c0 79 6f 3e b2 03 46 be
       0.021083053 0.09337582 0.23386288 -0.19337347
000150 21 d3 e1 bd 5c 0c b3 bd 27 46 89 3d 81 be ec ba
       -0.11026598 -0.08742592 0.067028336 -0.0018062146
000160 0a d2 ef 3d d5 45 e7 ba 8f f4 1e be 96 27 b2 3d
       0.11709984 -0.0017644713 -0.15522979 0.08698957
000170 5d 24 00 be 23 47 e4 bd 72 55 13 be cb 03 5b 3d
       -0.12513871 -0.11146381 -0.14388064 0.053470414
000180 74 ab 4b 3e 1a b2 95 bc f3 04 2a be dd 77 93 bd
       0.19889623 -0.018273402 -0.1660345 -0.072005965
000190 9d 8a 46 be c7 4f a3 3c 89 cb 9a 3d 05 8f 0b bc
       -0.19388814 0.019935502 0.075583525 -0.008517985
0001a0 6d b4 6b bd 0e f2 54 3d 6e 85 ce bc 9e 04 4f 3d
       -0.057545114 0.051988654 -0.025210109 0.050541513
0001b0 5c 30 ce bc 75 60 26 be 6d cb d1 3d ed a8 10 be
       -0.025169544 -0.16247733 0.102438785 -0.1412694
0001c0 ae 2a ab 3d be d5 09 be 7f d1 ca bd 1d 5c 1d 3e
       0.0835775 -0.13460442 -0.099032395 0.1536717
0001d0 a3 8b bf bd 36 54 fa bd c3 1e e1 bd a7 fe d8 bd
       -0.093528055 -0.12223093 -0.109921955 -0.10595446
0001e0 76 de 3d be a0 df 1a be 56 7c 3e be 72 e2 8b 3d
       -0.18541893 -0.15124369 -0.18602118 0.068303004
0001f0 14 d4 31 be d7 84 66 bd 79 33 92 3d eb 4a cf bc
       -0.17366058 -0.05627903 0.07138724 -0.025304278
000200 87 27 32 be b6 2e 9c bd 22 cf 0d bd 8e 64 e6 bd
       -0.17397891 -0.07626097 -0.034621365 -0.11249648
000210 ed 5c d5 3c 0c ae 03 3e e0 07 04 3e 14 14 4e bc
       0.026045287 0.12859362 0.12893629 -0.012578029
000220 3b 0d 8a 3e 73 eb 4f be 2e 70 26 bd 48 d1 00 bd
       0.2696322 -0.2030466 -0.040634327 -0.031449586
000230 c8 23 56 3e 4d 1f db bd c1 84 55 be a7 f2 c1 bd
       0.20912087 -0.106993295 -0.20851423 -0.094701104
000240 d9 70 7c 3e a5 13 f5 ba f7 77 e3 bd 40 3c 05 3c
       0.24652423 -0.0018697871 -0.11106866 0.0081320405
000250 61 1c 2a be 22 3a 98 3d 25 69 ba 3d 04 15 5d 3e
       -0.16612388 0.07432963 0.09102086 0.21590048
000260 fe 3c 5b bc ba 22 d6 3d 62 63 5c be 8c 72 b1 3c
       -0.013381241 0.10455842 -0.21522287 0.021661066
000270 54 40 31 3e 66 8a 23 be 33 b6 b1 bd d2 7a a4 3d
       0.17309695 -0.15970764 -0.0867733 0.080312386
000280 64 89 a7 bc ec 61 5e 3e a1 da d6 bd 40 4f 39 3c
       -0.020451255 0.21717042 -0.10490919 0.011310399
000290 1c d0 65 3d 9a 29 96 3d cd 80 c4 bd 60 c6 57 bc
       0.05610667 0.073321536 -0.09594879 -0.013169855
0002a0 7d 0d 6a 3b da 15 56 bd 73 3b 14 3e cc 2f 5c be
       0.0035713606 -0.052266933 0.14475803 -0.21502608
0002b0 16 bd b6 bd 00 f0 e2 bd 4e 22 69 3e fc 66 b9 bd
       -0.08922784 -0.110809326 0.22766992 -0.09052846
0002c0 64 14 aa bd d4 41 07 be 01 4d f3 3d 3e b4 5e bd
       -0.083046705 -0.13208705 0.11879922 -0.05437111
0002d0 68 3f 3e 3e 53 41 17 3e ae 8a db 3d b7 95 1c 3e
       0.18578875 0.14771013 0.107198104 0.15291487
0002e0 52 ed b9 bd cc 1b 0d 3e 86 fe cd 3d af 25 10 be
       -0.090784684 0.13780135 0.10058312 -0.14076875
0002f0 47 c2 30 3e 36 80 1f 3e 01 9c fa 3d ec 1a 57 3e
       0.17261611 0.15576252 0.12236787 0.21006364
000300 9e f7 4b 3e 4f 69 4d be 54 ad 48 3e 32 ba f0 3d
       0.19918677 -0.20059703 0.1959737 0.11754264
000310 dd a5 9a 3b 9a e7 da 3d fa bc 2b be a0 ea 66 3e
       0.0047194795 0.10688706 -0.16771308 0.2255044
000320 c8 81 08 3e c8 5f 24 be bc 00 a0 3d e0 b0 32 3e
       0.13330758 -0.16052163 0.0781264 0.17450285
000330 5d 5d 1c 3e c3 f3 bc 3d 77 92 c9 3d 73 51 45 be
       0.1526999 0.09226181 0.09842389 -0.19269352
000340 60 c5 28 be ff d8 19 3d 45 00 1d 3d b1 4c 15 be
       -0.16481543 0.03756046 0.038330335 -0.14580037
000350 34 2c e9 3b b4 c2 06 be f0 04 a9 bd 4c 0d 9e bd
       0.007115865 -0.13160211 -0.08252895 -0.0771738
000360 da 01 aa 3d 26 71 b6 3d 21 90 33 be 74 51 22 3e
       0.083011344 0.089083 -0.1753545 0.15851384
000370 55 25 f5 bd 9f 01 24 be 64 4d 2d be e0 0f c8 3d
       -0.11970011 -0.16016243 -0.16924053 0.09768653
000380 57 55 4a bd a4 73 da bc 1a 48 d6 3d 79 9b 5c 3e
       -0.049397793 -0.02666647 0.10462971 0.21543683
000390 24 d3 6f 3d a1 7f e7 3d a4 d0 44 3e 2c ab 57 3e
       0.05855097 0.1130364 0.19220215 0.2106139
0003a0 c4 43 18 3e dd c1 03 be 23 91 91 bc 32 d6 44 bb
       0.148696 -0.12866922 -0.017769402 -0.0030034897
0003b0 1c 4f 07 3e 63 f2 76 bc 8a c1 e9 bd 44 a4 9e 3d
       0.13213772 -0.015072438 -0.11413868 0.07746175
0003c0 a9 98 57 3d 50 3a 67 bc c7 50 8d bc 68 73 56 3e
       0.052635822 -0.014113024 -0.017250432 0.20942461
0003d0 89 f6 11 3e 83 0f 32 3e 33 24 1b 3e e4 90 02 3e
       0.14254202 0.1738873 0.15150528 0.12750584
0003e0 d8 95 92 bc 91 9e 41 3e 8e 6f 0a be ff b2 15 be
       -0.017893717 0.18908145 -0.13519117 -0.14619063
0003f0 96 49 60 3e 8b 33 bf 3d fe 4e 5d bd ec 8a 56 bb
       0.21903071 0.09336003 -0.05403041 -0.0032736612

weight f4 [256, 256]
000000 f2 30 45 bd 12 23 ca bc d2 db 80 3d 94 06 68 3d
       -0.04814238 -0.024674926 0.062919274 0.0566469
000010 39 cc 98 3d 3e 19 fa 3d fb 7c 4a bd 3e 6e 32 3d
       0.074608274 0.12211846 -0.049435597 0.043562166
000020 38 d9 d5 bc 9a 1d e3 3d 69 d1 a7 3d 1f 60 09 3c
       -0.026104555 0.110896304 0.08194239 0.008384733
000030 49 b7 be bd f2 8c 27 bd db 45 10 bd e7 c8 17 bd
       -0.093123026 -0.0409059 -0.03522287 -0.03705683
000040 ca 91 e7 3c 6b e1 5a 3d 15 eb ed bc 9f c4 68 bc
       0.02826776 0.05343763 -0.02904276 -0.014207034
000050 c8 83 4d 3d f9 b8 ab 3d 93 fa cf 3d 14 01 b3 bc
       0.050174505 0.0838489 0.10155215 -0.0218511
000060 a0 6a f1 3d 71 02 16 3d f1 66 04 3a 75 e6 b8 3c
       0.11787915 0.036623422 0.000505074 0.022570828
000070 33 a1 f2 3a ec 28 a9 bd 79 8d c2 3d 7f 76 ba bc
       0.0018511176 -0.08259758 0.0949964 -0.022761581
000080 7e 64 ad 3c 21 f7 8f 3d 68 11 09 3c d6 98 0c bd
       0.021166082 0.07029558 0.008365966 -0.034325443
000090 87 8f 4d 3d 36 8d 29 3d aa 12 32 bd 3f 37 63 bd
       0.050185706 0.041394435 -0.04347483 -0.05547261
0000a0 70 91 62 3d 33 35 9e 3d 9b db f1 bd 88 82 5d bc
       0.05531448 0.07724991 -0.118094645 -0.013519891
0000b0 1e a6 52 3d a4 c4 f2 bc 39 e1 da 3d 1a 31 0c 3d
       0.051427953 -0.029634781 0.10687489 0.034226514
0000c0 bc 8d 0b 3d 37 01 cc 3c 09 7a cb bd c7 b8 0d be
       0.034070715 0.024902923 -0.09935386 -0.13840018
0000d0 97 88 ee bc 5d 02 4d 3b d3 ad ce 3d 19 43 0f 3c
       -0.029117865 0.0031281926 0.10091748 0.008744025
0000e0 71 6b d0 3c 23 ac 22 3d 94 21 00 3d 05 13 af 3d
       0.025441857 0.039714944 0.031282023 0.085485496
0000f0 6c 46 c9 bd bc c0 88 3c 36 4a 2b be cb 90 d5 bc
       -0.09827885 0.016693465 -0.16727528 -0.02607002
000100 98 1d 9e bc 14 78 71 3b a3 6a 83 bd 9e 62 73 bc
       -0.01930122 0.0036845254 -0.06416824 -0.014855055
000110 8d 40 00 bc 7c 00 1e bd 35 f3 da bc e1 f5 49 bd
       -0.00782789 -0.03857468 -0.026727298 -0.049306754
000120 81 28 04 3d 08 fd 9e 3d 7b 48 2d bd ea ce 67 bd
       0.03226519 0.07763106 -0.04230545 -0.056593813
000130 5c ef f3 bc e5 12 ed 3d 59 1a 64 bd 95 af 95 bc
       -0.029777221 0.115758695 -0.05568919 -0.0182722
000140 42 6e 3a 3d 5a de 4b 3d 9a e3 0f ba c3 ae 41 3d
       0.045515306 0.049772598 -0.00054889324 0.047285806
000150 f0 8e e1 bc 2c b1 8e bc ec 3e 07 bd 3b 2c 6f bd
       -0.027533978 -0.017418467 -0.03301899 -0.05839179
000160 e8 a9 ab 3c c6 e6 25 3d 93 70 67 bd 9c a6 4e bd
       0.020955041 0.040503286 -0.056503844 -0.05045186
000170 38 11 83 3d fd 69 be 3c 73 ef 95 3c 97 dd 87 3c
       0.063997686 0.023243899 0.018302655 0.016585154
000180 05 b5 38 3d c6 37 c6 3c b0 67 56 3c 82 92 82 bc
       0.04509451 0.024196517 0.013086244 -0.015939001
000190 f8 b6 0e 3d 7f f7 20 3d 7f a7 39 3d d3 90 85 3d
       0.03484246 0.03929853 0.045325752 0.06521764
0001a0 91 ab 5a 3d 0d eb 01 3d 51 e3 0a bd f3 64 91 3d
       0.053386275 0.031718303 -0.033908192 0.07099333
0001b0 3f 83 17 3e b4 c5 f9 3c bb d3 57 bc 26 55 07 3d
       0.1479616 0.03048978 -0.013173039 0.03304019
0001c0 44 69 78 3d 4d 31 2a bd b9 50 93 bd bf 11 12 3d
       0.060647264 -0.041550923 -0.07193131 0.035661455
0001d0 4c c5 b1 3d 43 70 34 bc 25 b7 75 3d 4a c6 bf 3b
       0.086802095 -0.011013093 0.059989113 0.0058524953
0001e0 20 3f d4 bc 2b 5d 02 bd b4 f6 78 3c a0 f0 20 bc
       -0.025909007 -0.031827133 0.015195537 -0.0098229945
0001f0 67 52 77 3d d0 96 49 3d fc 52 51 bd 6b 51 d8 3d
       0.06038132 0.04921609 -0.05110453 0.10562404
000200 d5 1d 65 bd 46 98 63 3d 28 81 0c 3d 18 6f 02 3d
       -0.055936653 0.05556514 0.03430286 0.03184423
000210 fb 49 bd 3d 64 95 90 3d 99 97 b7 3d c3 b7 b1 3d
       0.09242626 0.07059744 0.08964462 0.08677628
000220 09 61 8e 3b db 1c 47 bd c6 f3 97 3d aa b6 3a 3d
       0.0043450636 -0.048611503 0.07419543 0.04558436
000230 fb ee 9c 3c 1a 94 eb 3c 90 30 77 bd a0 26 69 3d
       0.019156924 0.028757144 -0.060349047 0.0569216
000240 53 ec 08 3e 77 0a d4 3c 7c 24 1c 3d 32 e1 13 3e
       0.133714 0.025883896 0.03812073 0.14441374
000250 8f 01 4b be c0 3f 37 3d 8e da d0 3d 96 7b 09 3e
       -0.19824813 0.04473853 0.10197936 0.1342605
000260 9b 05 1b 3d c0 ee e9 3a 5c af 94 bc ca 1c 0b 3d
       0.037847143 0.0017847642 -0.018150024 0.033963002
000270 f5 15 ba 3c 9b 22 47 be b0 1f c6 3d 9c fc 2e bd
       0.022715548 -0.19446795 0.09674013 -0.042721376
000280 7a bd 37 bd 7f 27 b8 3d 45 90 30 bd e3 42 7a 3b
       -0.044858433 0.08991908 -0.043106336 0.003818684
000290 10 57 1a 3d 0a 99 c1 3c 2b 3c 63 3d 9e 32 37 3d
       0.037680686 0.023632545 0.055477303 0.044726007
0002a0 00 4d a0 3d d5 06 b1 3d 1d 2e 3f 3d 8c a5 fd 3c
       0.078271866 0.08643881 0.046674836 0.030962728
0002b0 c0 69 87 bb e4 16 2b 3d 7f 07 31 bd 48 c9 a1 3d
       -0.0041324794 0.041769877 -0.04322004 0.078997195
0002c0 84 2a a8 3c 9e a9 ba 3c 3e b6 88 3c 82 34 37 3d
       0.020528086 0.022785958 0.016688462 0.04472781
0002d0 9a 78 e8 bb 01 f9 8c 3d 32 49 14 3d 4f 5f 27 ba
       -0.007094455 0.06883431 0.036202617 -0.00063847465
0002e0 27 24 08 3d 07 67 d3 bd 56 49 1d 3d b4 f5 e4 bd
       0.033237603 -0.10322385 0.038400017 -0.11179677
0002f0 ea 55 5e bd b8 a0 a5 3d 57 5b a1 3d 70 5e 42 3c
       -0.054281153 0.08087295 0.0787875 0.011863336
000300 c4 05 7a bc d1 c8 01 3d 1f 95 b2 bc a6 e7 77 bd
       -0.015260164 0.031685654 -0.021799622 -0.06052365
000310 ac e8 ef bb 50 d2 e8 3c cb 44 ea bc 26 fe 12 be
       -0.007321438 0.028420597 -0.028597256 -0.14354762
000320 b1 9c a5 bc 60 fa cb bb 9f 09 81 bd 49 0c 3d 3d
       -0.020216318 -0.0062249154 -0.06300663 0.046154294
000330 ef a0 a1 3d 12 10 06 3d dd 01 f3 ba 70 58 0b bd
       0.07892024 0.03273017 -0.0018539984 -0.034019887
000340 9b 25 36 3d fa 52 f9 3c 1a f1 32 3e 3b 5f 48 3d
       0.044469457 0.030435074 0.17474785 0.048918944
000350 74 b5 8b bc e8 ed ec 3c c0 34 66 36 04 2d 28 3d
       -0.017054297 0.028922036 3.4303375e-06 0.041058555
000360 3f cb 99 bd a7 5b 89 bc 35 0c a7 bc 6f e2 df 3d
       -0.07509469 -0.016767336 -0.020391563 0.10931861
000370 78 14 4a bd 14 12 8b bb c0 4d f3 3c 60 9f 1a 3e
       -0.049335927 -0.0042440984 0.02970016 0.15099859
000380 25 0c 0f bd 1e 8c 6d 3d d6 5b e4 bd dc 07 ca bd
       -0.03492369 0.057994954 -0.11150329 -0.0986478
000390 ba 19 22 bd 59 23 79 bd fa dd 29 bc a0 e1 52 bd
       -0.039575316 -0.060824726 -0.010367865 -0.051484704
0003a0 b8 91 52 bd dc 18 36 be 43 b3 21 3d d3 76 0b 3d
       -0.0514085 -0.1778292 0.039477598 0.034048866
0003b0 c0 bd 5b 3c 28 23 e7 3c f3 64 88 3c c3 33 b0 3c
       0.013411939 0.028215006 0.016649699 0.021509057
0003c0 42 7d 1b be c8 1e 62 3d e2 6a 91 bd 24 3b e4 bc
       -0.15184501 0.055205137 -0.071004644 -0.027860232
0003d0 32 5c 5c 3b 1a 92 4f bd 39 5c 07 bd dd 5f 30 3c
       0.0033624289 -0.050676443 -0.033046935 0.010765043
0003e0 4e 99 35 3d 00 a0 1c bd c7 9e 76 3c 02 4e 89 3d
       0.044335656 -0.038238525 0.015052504 0.06704332
0003f0 a1 7e d5 3d ee 7b a1 bc 2d 9f 97 3d ec 3c c2 bc
       0.10424543 -0.019712415 0.07403407 -0.02371069

bias f4 [256]
000000 1e 03 7a bd 16 e7 9e 3d 18 b3 27 bd 50 e4 5c bd
       -0.06103813 0.0775892 -0.04094228 -0.053928673
000010 7d dd 46 3c 1e f6 19 3c fe 73 6f 3d 22 65 4d 3d
       0.012137768 0.009397058 0.05846023 0.050145276
000020 a3 e3 0d 3d ea 81 14 bd d3 44 2c 3d 16 c7 60 bc
       0.03464092 -0.03625671 0.042057823 -0.013719341
000030 09 a2 34 39 6e 8c 2a bd c0 ef 09 3d bc 0e e4 bc
       0.000172265 -0.04163783 0.03367591 -0.027839057
000040 61 61 a5 3b a2 54 53 bd 1c fd 97 3d fd 88 a2 bc
       0.005047009 -0.051594384 0.07421324 -0.019840712
000050 57 f8 ee 3b 1d 5a 24 bc 98 1a 30 bd f2 65 ec 3c
       0.007292788 -0.01003125 -0.04299411 0.028857205
000060 00 3f 89 3b 69 df 2a bb 94 2c 71 bc 10 27 eb bc
       0.0041884184 -0.0026073104 -0.014720101 -0.02870515
000070 9c 99 00 bd 35 d1 27 bb be 7d 2b bd a8 ee 39 bb
       -0.031396493 -0.0025606875 -0.041867964 -0.002837101
000080 38 55 aa ba 19 0c e9 bb b4 43 8b 3d da 9b 62 bd
       -0.0012995368 -0.007112038 0.06800023 -0.055324413
000090 a1 2f 1c bd 3a 4b 99 3c 1c 90 70 3d c3 2b 82 3d
       -0.03813136 0.018712629 0.058731183 0.06356003
0000a0 eb b1 46 3d 70 bb 86 3c 22 f4 2f bb 73 19 67 bc
       0.04850952 0.016446799 -0.0026848395 -0.014105189
0000b0 55 78 85 bb 46 c8 5f 3d 59 fe 1b bd f1 d8 9d 3b
       -0.0040731826 0.054634355 -0.03808436 0.004817121
0000c0 60 de 90 bc 10 bc 8a 3d ab ff 65 3d 6d 0f 6a bd
       -0.017684162 0.06774151 0.056152027 -0.057143617
0000d0 df 76 5e 3d d8 6d 31 bd 31 68 b1 3c b2 33 25 3d
       0.054312583 -0.043317646 0.021656128 0.040332504
0000e0 2d b7 f9 3b 5b 78 e3 bb 21 07 b4 3c 9d 00 ba bb
       0.007620713 -0.0069418377 0.021976056 -0.0056763426
0000f0 96 de 38 3d f0 78 57 bc c2 a2 92 3d ef 08 5b 3d
       0.04513415 -0.013151392 0.0715995 0.053475317
000100 90 e9 d1 3c 6f c1 0d bd b7 cd b7 3c e4 9d 08 bd
       0.025624067 -0.0346083 0.02243696 -0.0333537
000110 79 fa 8a 3c 17 78 0f bd 90 f6 ea bc 98 e7 69 bc
       0.016965138 -0.035026636 -0.028682023 -0.014276408
000120 28 7a aa 3b 47 88 20 3d 10 8b a9 bc ee dd ee ba
       0.0052025504 0.039192464 -0.020696193 -0.0018224099
000130 11 25 de 3c 50 f6 51 bc 54 fb 05 3c 69 ac f2 3b
       0.027117284 -0.012815073 0.008177597 0.007405807
000140 40 f0 43 3d bb 07 3a bd df 52 e1 b9 99 ed 0b bd
       0.047836542 -0.04541753 -0.00042977088 -0.034162138
000150 49 c0 00 3b 89 1e 0a bc 46 e7 92 3d 0f 1f 0e bd
       0.001964586 -0.008430132 0.07173018 -0.03469759
000160 18 74 0b 3d 1d 0d 92 3d b3 11 48 3d 77 45 cc bc
       0.034046263 0.071314074 0.048845004 -0.024935467
000170 d1 b7 b8 bc 19 c3 90 bb 5b eb fb 3c 79 5f 99 3c
       -0.022548588 -0.0044177887 0.030751875 0.018722283
000180 62 79 4d 3d 2d 2e 23 3b db ed 1f bd ac d6 e2 3c
       0.050164588 0.002489935 -0.039045196 0.027690254
000190 e7 56 2c bd 9d 69 6b bd 22 80 6e 3d 1a 32 55 3c
       -0.042075064 -0.057473768 0.058227666 0.013012433
0001a0 0a ab 34 bd e0 45 83 bc 53 e1 fd 3c 5a 50 92 3d
       -0.044108428 -0.01602453 0.030991232 0.07144232
0001b0 48 9a 40 3c e6 bc 1d 3d 68 e3 4f 3d f6 ef fd bc
       0.0117555335 0.038510226 0.05075398 -0.030998211
0001c0 a8 aa a2 3b cf ce 35 3b cd 94 44 3c e7 81 93 bc
       0.0049641915 0.0027741676 0.0119983675 -0.018006278
0001d0 32 3c 2d bd 9f f1 50 bc 3f 9a 5b 3d 1b 6b 18 bc
       -0.042293735 -0.012752919 0.053613897 -0.00930288
0001e0 c2 a8 91 3d f0 bb 8c 3b c3 f4 e7 3c cc 41 10 bd
       0.07112266 0.004294865 0.028314954 -0.035219
0001f0 14 9c a5 3c c4 0d 5d bd 5c 00 91 bb 7c 27 2f 3d
       0.020216025 -0.053968206 -0.0044250917 0.042762265
000200 d6 cb 61 3d 8e 06 4b 3d f6 81 63 bc 1c 13 c5 3c
       0.055126034 0.049566798 -0.013885966 0.024056964
000210 0f 89 88 bc 7d 42 fb 3c ed 45 3b 3c 1b 8c 09 3d
       -0.016666917 0.030671353 0.011430246 0.03358088
000220 37 9f 0b bd f6 9c 8f 3d 63 57 11 3d f2 be 18 3d
       -0.034087386 0.0701236 0.03548373 0.037291475
000230 88 da 34 3d 30 03 64 3c e0 ec 09 3c 4a fd 37 3d
       0.04415372 0.013916776 0.008418292 0.04491929
000240 d6 69 fe bb a6 fc 1b 3d 02 56 20 bd 22 98 34 bd
       -0.0077640815 0.03808274 -0.039144523 -0.044090398
000250 ee a9 40 bc 90 02 ce 3b 70 9a 98 bc d7 21 15 3c
       -0.011759264 0.0062869266 -0.018628329 0.009102306
000260 a7 2a 19 3c 58 e0 78 3d 63 cd da 3c 70 9f a6 3b
       0.009348548 0.060760826 0.026709264 0.0050849244
000270 28 df 52 3a 0e a8 3d 3d 94 51 27 3c fc 70 d1 bc
       0.0008044117 0.046302848 0.010212321 -0.02556657
000280 fb 50 a4 bc 7f cd 82 3d 99 24 2d 3d de 69 1b 3d
       -0.020058146 0.063868515 0.04227123 0.03794276
000290 8c 12 36 3b 1c 27 22 bd 74 11 03 bd 33 43 16 bc
       0.002778205 -0.03958808 -0.031999066 -0.009171295
0002a0 e8 da ae 3c de 92 49 bd c0 7c b9 3b 1a 7b 32 bd
       0.021344617 -0.04921233 0.0056606233 -0.04357443
0002b0 34 4d c4 bc 3b fd 58 bd fd 69 23 3d f5 18 eb 3c
       -0.023962595 -0.052975874 0.039896 0.028698424
0002c0 ba cd 7a bd c3 68 66 3d ca 78 20 3d c5 90 0c bd
       -0.061231352 0.056252252 0.039177693 -0.03431775
0002d0 39 f4 90 3d 96 4b 1e bd f9 9b 68 3c 42 b7 ce bc
       0.07077832 -0.038646303 0.014197343 -0.025233869
0002e0 d4 9c 34 3c b8 4c 82 3c a8 2f a9 3c 35 1c 40 bd
       0.011023719 0.015905723 0.020652607 -0.0469019
0002f0 d4 5f a4 bc 4e a3 ba 3c ac 9e 81 3a 91 11 6b 3d
       -0.020065226 0.022782948 0.0009889207 0.0573898
000300 96 49 8f bb 8c 08 69 bd d0 3a 89 3c c5 bb c4 3c
       -0.004372786 -0.056892917 0.016751677 0.024015317
000310 89 83 f3 3b 80 da 46 3c c8 e3 6e 3d 99 a7 1d 3d
       0.0074314517 0.012137055 0.058322698 0.03848991
000320 ae 04 1a 3d 9c 85 3e 3b c1 d0 08 3d 2f ea 05 3d
       0.03760212 0.0029071337 0.03340221 0.032694038
000330 45 b5 aa bc 40 66 45 3d 83 69 4d 3c 53 a4 ea 3c
       -0.02083839 0.048193216 0.012537363 0.028642809
000340 b6 d8 70 3c 09 10 0e 3d 80 65 62 3d 6d 3b 51 3d
       0.014700105 0.03468326 0.05527258 0.051082063
000350 94 34 10 bd 5a 9f 82 3c 3c 92 9e 3d e7 00 10 3c
       -0.035206392 0.015945125 0.07742736 0.008789278
000360 e3 2b 2a bd 28 0e 39 3c bf 8d 60 bb 92 69 4e b8
       -0.04154576 0.011294879 -0.0034264175 -4.9212547e-05
000370 ae 60 0a 3d 80 55 4d bb a1 aa c6 bc b2 55 bd bc
       0.033783607 -0.003133148 -0.024251284 -0.023112152
000380 23 d3 15 bd 75 13 5e bd 36 14 50 bd cb 8c 06 bd
       -0.03657831 -0.054217774 -0.050800525 -0.032849114
000390 d1 6b 97 bc 13 eb 49 bc 54 77 7b 3d 51 fa 9c bc
       -0.018484028 -0.0123241125 0.061393097 -0.019162329
0003a0 80 4d 2b bd 9e c4 7a bc 90 94 10 bd e5 22 c0 3c
       -0.041821957 -0.015305666 -0.03529793 0.023454139
0003b0 b9 be 32 bc 10 c9 2c 3d 52 cc 03 bb 18 97 25 3d
       -0.01090973 0.042183936 -0.0020110798 0.040427297
0003c0 40 f6 56 3d 62 4f 30 3d 64 e2 99 3b b1 e6 14 3d
       0.052480936 0.043044455 0.0046961773 0.036352817
0003d0 78 a3 3d bd 4f 04 ac bb 70 ea fb 3c d5 9c 91 3d
       -0.046298474 -0.005249537 0.030751437 0.071099915
0003e0 1c 42 fa 3c 68 a5 31 bd 86 f5 87 3b b0 5a 7f bd
       0.030549102 -0.043370634 0.0041491417 -0.062342346
0003f0 c6 70 ec 3c 19 40 10 bd 70 1b 93 bc 2c 0c 89 3c
       0.028862368 -0.03521738 -0.01795742 0.016729437

weight f4 [1, 256]
000000 95 5f eb 3d 88 ae af 3d 58 e9 a4 bd 43 55 e5 3d
       0.1149284 0.08578211 -0.08052319 0.11197903
000010 21 8f 10 be f9 4e e2 3d 04 cc ca bd 1e 70 17 be
       -0.141171 0.11050219 -0.09902194 -0.14788863
000020 21 28 d3 bd 46 c8 d6 3d 80 99 00 3e ae 77 0f be
       -0.10310388 0.10487418 0.12558556 -0.14010498
000030 90 d8 8a 3d 0e 31 a2 3d 80 65 d2 bb f5 a5 f2 3d
       0.06779587 0.07919513 -0.006420791 0.1184806
000040 f7 6e 84 3d 34 12 b2 bc a0 83 b6 3d e2 3b 67 3d
       0.06466477 -0.021737196 0.08911824 0.056453593
000050 81 59 c7 bd 7f 20 10 be 97 6b cc 3d 9a ed ec bd
       -0.097338684 -0.14074896 0.09981459 -0.115687564
000060 48 2d 2e 3c ff 79 f4 3d 11 ff ea 3d 53 07 ba bd
       0.010630913 0.119373314 0.11474431 -0.09083428
000070 58 e2 1d be 63 03 00 3e 88 e4 66 3d d7 49 d7 bd
       -0.15418375 0.12501292 0.056370288 -0.10512131
000080 9e 3b 11 3e 74 c5 12 be b5 3b d2 bd ad a4 e1 3d
       0.14182898 -0.14333135 -0.102652945 0.110177375
000090 c1 6a f6 3d 70 70 b7 bc f6 79 de 3d f9 24 08 3e
       0.120320804 -0.022392482 0.10863106 0.13295354
0000a0 f3 15 c0 bd 60 04 df 3d b9 fb 20 be 7b 6d 90 be
       -0.093791865 0.10889506 -0.15721025 -0.28208527
0000b0 0f e2 bb 3d ac 64 a4 3d 45 3c 18 be 62 78 f5 bd
       0.09173977 0.08027014 -0.14866741 -0.11985852
0000c0 f2 40 06 be 17 3f ac 3d 2e b3 7a 3d ff 1c d7 3d
       -0.13110712 0.08410471 0.061206035 0.105035774
0000d0 90 70 1c 3e 62 b6 17 be 65 aa b8 3d 85 b9 f9 3d
       0.15277314 -0.14815667 0.09016875 0.12193588
0000e0 5d bb dd 3d 94 7b a9 3d d8 ec 24 be 62 fd 1a be
       0.10826752 0.08275524 -0.16105974 -0.1513572
0000f0 60 e2 b4 3d f0 86 c1 bb 73 6f e1 3d 89 32 ef 3d
       0.0883224 -0.0059059784 0.110075854 0.11679561
000100 70 9e e6 bb 0e a7 fe 3c 32 01 d8 bd 04 d1 67 3d
       -0.00703793 0.031085517 -0.10547103 0.056595817
000110 5a b4 14 be cd 0b b5 3d c5 1c 09 be 60 46 6b 3c
       -0.14521924 0.088401414 -0.13389881 0.01436004
000120 1d 00 10 be 0a 90 9c 3d f8 db 37 be a1 13 c0 3d
       -0.14062543 0.07644661 -0.17955005 0.09378744
000130 ed 22 8b bd a6 66 4f 3d 20 e7 dd 3d cf be da 3c
       -0.06793771 0.050635003 0.10835099 0.026702313
000140 54 b3 15 3d 1e f2 1c be e7 08 a9 3d 46 aa bb 3d
       0.036547974 -0.15326735 0.08253651 0.091633365
000150 36 a9 0c 3d 8f 03 aa 3d 89 24 00 be 7e a5 a1 bc
       0.03434106 0.0830146 -0.12513937 -0.019732233
000160 6c a4 84 3d f7 f4 0d be 51 c9 e0 bd 18 c0 f0 3d
       0.064766735 -0.13862978 -0.10975898 0.11755389
000170 9f e2 9f 3c 53 59 c5 3d e8 4d 15 be ab 27 25 bd
       0.019517241 0.09636178 -0.145805 -0.040321033
000180 27 a0 1a be fd 09 c7 3d 7d 5a 15 3e 00 21 aa b9
       -0.15100156 0.09718702 0.145853 -0.00032449514
000190 f2 52 57 3e 16 0f 48 bd 04 3d 55 3d 9d 08 8b 3d
       0.21027735 -0.048842512 0.052060142 0.06788752
0001a0 a0 b8 38 3b 20 6b c8 3b 95 e1 e4 3d a2 08 10 be
       0.0028186217 0.006116286 0.11175839 -0.14065793
0001b0 ec 5c fe 3c 8a ff 0e be f5 85 13 3e 1d a1 c8 3d
       0.031050168 -0.13964668 0.1440657 0.09796355
0001c0 12 76 0c 3e 5b f0 ed 3d b4 1e 81 3d 2b ee ee 3d
       0.13716915 0.1161811 0.06304684 0.11666521
0001d0 c0 7c e8 3d 7d 05 d6 3d f6 cc 73 3d fd f8 d8 3d
       0.11351919 0.104502656 0.059521638 0.10594366
0001e0 0c 22 cd bd d4 98 88 3c 00 ee 05 be 82 c8 16 3d
       -0.100162596 0.016674437 -0.13079071 0.036812313
0001f0 00 18 d1 3b 2a 5f 25 3d 8b 2d ae 3d f5 57 d5 bd
       0.006381035 0.04037396 0.085047804 -0.10417167
000200 04 bb 8a 3a 90 ac 51 bc 84 f2 0d 3e a4 01 a4 bc
       0.00105843 -0.01279749 0.13862044 -0.020020314
000210 46 d3 d7 3d b0 90 d9 3d 3f 02 ce 3d 71 5f d7 3d
       0.10538344 0.106233 0.10059022 0.10516251
000220 e2 3b d9 bd 00 82 e2 3d 9d 52 87 3d cc 07 d3 3c
       -0.10607125 0.11059952 0.06607554 0.025760554
000230 ac c4 20 be 80 9b fe bc 00 cc f5 ba ae b6 01 3e
       -0.15700024 -0.031080008 -0.0018752813 0.12667343
000240 91 f6 cc ba bc 88 c1 bd 7b a4 46 bd a4 30 ec 3d
       -0.0015637447 -0.09449908 -0.048496705 0.11532715
000250 a6 87 bb 3d a1 f0 82 3d b2 49 be bd de a6 fa 3d
       0.09156732 0.063935526 -0.092914 0.12238859
000260 4f cf ee bd dc 02 f9 bd e9 e2 c6 39 c2 9b e4 3d
       -0.11660635 -0.121587485 0.00037934564 0.11162521
000270 18 14 f4 bd 60 94 5f 3b 66 fc a7 3d 8c 5c e2 3c
       -0.11917895 0.0034115538 0.08202438 0.02763202
000280 5b 2b 54 be bb e0 dd 3d 6b 12 d4 bd 73 79 02 be
       -0.20719664 0.108338796 -0.103550754 -0.12741642
000290 29 d5 ff 3d 32 9e d0 3d 48 1c 02 3c fd c6 20 bc
       0.12491829 0.10186423 0.007941313 -0.0098130675
0002a0 b4 28 19 3d 3d 1e 00 3d 2c 74 4d 3d e9 c5 e9 bd
       0.037392333 0.031278837 0.05015962 -0.114147015
0002b0 ff e3 f0 3d 3d a2 f2 3d 57 9c dd 3d e6 b9 13 3e
       0.11762237 0.11847351 0.10820835 0.14426383
0002c0 1c 9f 7b 3d 2c 83 e5 bd 50 91 c6 3d 0c f1 91 bd
       0.061431035 -0.1120666 0.09695685 -0.07126054
0002d0 1f a0 36 be 08 3b c1 3d 9a 74 d7 3d 08 f5 19 be
       -0.17834519 0.094350874 0.10520287 -0.15034878
0002e0 a4 0f 0b be ab 2f ec 3d aa 74 38 bd 38 74 c6 3d
       -0.13580185 0.115325294 -0.045033135 0.09690136
0002f0 0f 9b d3 3d 7a af e1 bd 7b 2e b1 3d 8f 46 f1 bd
       0.103323095 -0.110197976 0.086514436 -0.11781036
000300 e4 d6 06 be 4a 40 3f 3d 84 c8 1e 3d 4f 83 7d 3d
       -0.13167912 0.04669217 0.038765445 0.061892804
000310 d5 fd 05 be 88 9d 58 bd 3c 16 9a 3d e0 9a 14 be
       -0.1308511 -0.05288461 0.07523772 -0.14512205
000320 e4 74 2b be 4f e3 b3 3d 1f f5 df bc 3c d2 89 3d
       -0.16743809 0.0878359 -0.027338563 0.06729552
000330 75 e1 f8 3d 10 05 19 be 3f 91 03 be 4f 98 af 3d
       0.121523775 -0.14943337 -0.12848376 0.085739724
000340 6a 50 b9 3d ea 94 cd 3d 09 4b 81 3d e5 a7 0a be
       0.09048541 0.10038169 0.0631314 -0.13540609
000350 43 1e 01 3e 75 57 c8 bd 60 df cc bd b9 de cf 3d
       0.126092 -0.09782306 -0.10003543 0.10149903
000360 a0 52 bf 3d 28 50 12 3e 10 96 11 be d9 ff 57 bd
       0.09341931 0.1428839 -0.142174 -0.05273423
000370 60 b7 4c 3c 28 85 a3 bc 4d de 81 3d 0a c7 a5 3d
       0.012494892 -0.019960955 0.06341229 0.08094604
000380 e2 cb 34 bd 5c 7b 53 bd 74 90 09 3e 0b 1b c9 3d
       -0.04413975 -0.051631317 0.1343401 0.09819611
000390 b3 f7 97 3d af 78 16 be 02 88 25 3d 5c 5b e3 bd
       0.07420292 -0.14694475 0.04041291 -0.1110141
0003a0 a2 e8 b9 3d 96 74 f0 bd 81 88 7a bc bf 1c c7 bd
       0.09077574 -0.11740987 -0.015291334 -0.0972228
0003b0 91 00 da bd 8d cc a4 3d cf 89 14 be 9c c9 cf bd
       -0.10644639 0.080468275 -0.14505695 -0.10145876
0003c0 a6 e6 fb 3d e3 ae 09 be 24 0f de 3d e3 b8 45 bd
       0.12299852 -0.1344562 0.108427316 -0.048272025
0003d0 32 f7 9a bc bb 55 08 be f0 ad 5e 3c 27 b1 31 be
       -0.0189167 -0.13313954 0.013591275 -0.17352735
0003e0 e8 be a5 3d 56 15 53 bd 2e b7 d5 bd 5e 53 61 3d
       0.08093053 -0.05153402 -0.104353294 0.055011146
0003f0 63 0a ee bd ec 36 9a 3d 00 42 ab bb 20 d5 e4 3d
       -0.11623075 0.07530007 -0.0052263737 0.11173463

weight f4 [256, 21]
000000 27 b0 36 be 69 c7 b0 3d 8d 65 74 bc 2f d0 8a be
       -0.17840634 0.086317845 -0.01491679 -0.27111956
000010 dd 1b b4 3c fc da 8d 3d 6f ce 1e 3e 06 0b 2b 3e
       0.021985942 0.069265336 0.15508436 0.16703424
000020 0d c3 0b 3d 64 f6 37 bd 30 32 d2 3d 2a eb 52 3e
       0.03412156 -0.04491271 0.10263479 0.2059752
000030 00 68 b5 bd e4 ea 4a be 30 8b 13 be bd a1 5d be
       -0.08857727 -0.19816166 -0.14408565 -0.2164373
000040 aa 38 ca bd c6 8c bc bd b9 2d ac bd 4b 11 ae bd
       -0.09874089 -0.09206538 -0.084071584 -0.08499392
000050 06 98 45 bd ce 6b 1d 3e 60 25 1b be 3f 91 fb bc
       -0.048240684 0.15373155 -0.15150976 -0.030708907
000060 00 4d 6e 3e 88 4d c7 3e 74 38 98 3e 49 09 d2 bd
       0.2327156 0.3892634 0.2973057 -0.10255677
000070 f6 b3 29 3e 9e 06 89 bd 47 11 ab bc d7 00 f7 bd
       0.16572556 -0.06690715 -0.020882262 -0.12060707
000080 65 1c 39 bd 5e 8c e0 3d a0 0f a6 bd ce 60 4e be
       -0.045193095 0.10964273 -0.08108449 -0.20154116
000090 ae ec a4 3d 86 2c a8 3d ee 14 25 be f3 39 d0 bd
       0.080529556 0.08211617 -0.16121265 -0.10167303
0000a0 a3 5c 24 be b3 24 b2 3d 78 35 02 be 4f 65 c2 bc
       -0.16050963 0.08698406 -0.12715709 -0.023729948
0000b0 58 ee 25 3e a0 67 3b be f2 1e c1 be ef 83 21 bd
       0.16204202 -0.18301249 -0.37718922 -0.039432462
0000c0 8c 40 34 3e 13 20 ba bd 94 3c 14 3e e1 71 51 bc
       0.17602748 -0.09088149 0.14476234 -0.0127834985
0000d0 69 af 23 be ab 34 32 3e 00 0d 59 3a cc 71 55 be
       -0.15984882 0.17402904 0.000827983 -0.20844191
0000e0 8a a5 f3 3d 79 f3 4e 3e 10 87 ff 3c f5 8d 56 be
       0.118968084 0.20210065 0.031192333 -0.2095259
0000f0 19 c7 6b 3d 2b 1e a1 3d 4c 0c 08 be b1 c7 6a be
       0.05756292 0.07867082 -0.13285941 -0.22927739
000100 bd 58 be 3d 12 24 99 bc 6e 0e 55 be fd 00 8a bd
       0.09294269 -0.018693957 -0.20806286 -0.0673847
000110 de e6 16 3e 60 f2 21 3e 5f 91 6c be da 2a 0c 3e
       0.14736506 0.15815115 -0.2310233 0.13688222
000120 6c 8c a0 bd e6 e3 ff bd b3 74 5a bd e0 f6 39 3c
       -0.07839283 -0.1249464 -0.05333395 0.0113503635
000130 79 9a 08 3e 0e 32 c1 3d b3 e8 3b 3e c8 d9 1f be
       0.13340177 0.09433375 0.18350486 -0.1561042
000140 ee e4 2c be 0c eb 8e 3d 9e aa 02 3d cd 85 10 be
       -0.16884205 0.069784254 0.031900994 -0.14113541
000150 81 a3 4f 3e da 07 1a 3e 12 f9 3a 3e f5 b1 84 be
       0.20277216 0.15042058 0.18259075 -0.2591702
000160 5e 3c 51 be c9 46 bf bc d8 0e 85 bd bb 9a 44 3d
       -0.20433185 -0.023349183 -0.06496972 0.047999125
000170 4e 1c 35 3e 38 94 f6 bd 31 96 76 3d da 10 63 3d
       0.17686579 -0.12039989 0.060201827 0.055435993
000180 a1 cd 21 3e 23 5e 41 3e c8 f1 42 bd 9a 3a 5d be
       0.15801097 0.18883567 -0.04759386 -0.21604386
000190 a8 bb f6 bc 34 23 00 3d 9b 3f 7b bd 4c 63 5e be
       -0.030118778 0.031283572 -0.061339956 -0.21717566
0001a0 04 69 50 bd 3e 24 66 3e a2 a4 48 3e 2b 59 35 3e
       -0.0508814 0.22474763 0.19594052 0.17709796
0001b0 3a 3f c0 3e 96 3f d5 3e cb c7 5b 3d ef 39 9c bd
       0.37548238 0.41650075 0.053657334 -0.076282375
0001c0 fa d1 6b 3e dc 4c 26 3e 6f 42 83 bd 5f 69 12 be
       0.23029318 0.16240257 -0.064091556 -0.14298008
0001d0 9e 62 e7 bb c5 43 59 3e 90 f3 fa 3c 6b 17 44 be
       -0.0070613166 0.21217258 0.030633718 -0.19149558
0001e0 44 45 f5 bd 8e 22 5b be a0 8b 86 bd 07 5b 58 3e
       -0.11976102 -0.213999 -0.065696 0.21128474
0001f0 1c 65 1f be 40 74 72 3e 4c f2 f3 3d 6a 2d 58 3e
       -0.15565914 0.23677158 0.11911449 0.21111074
000200 27 25 53 3c a1 a4 da bd 75 d1 24 3e fe 9b e7 bd
       0.012887276 -0.10675932 0.16095527 -0.1130905
000210 c6 b9 2c 3e 92 f4 f5 3d 8b e2 7f bd b3 b0 2a 3e
       0.16867742 0.12009539 -0.062471908 0.16668968
000220 c0 ba 20 be 44 52 2c 3d 6a 2f 39 be 00 43 2d bb
       -0.1569624 0.042070642 -0.18084493 -0.002643764
000230 cb 01 09 be d3 58 59 be 0c 0a 7d 3d de 52 e7 3d
       -0.1337959 -0.2122529 0.06177716 0.112951025
000240 39 6d 88 bd 7f ff 33 3e c4 ea a3 bc d2 3b bf bd
       -0.066614576 0.17577933 -0.020009406 -0.09337582
000250 9f e3 d7 bd 8a 07 fc bd e3 4e 93 bd a2 f4 d4 bd
       -0.10541462 -0.123061255 -0.07192781 -0.103982225
000260 a9 4c a6 bd 99 7b 1d be 81 cf 0e 3e f9 4a 72 3d
       -0.081200905 -0.1537918 0.13946344 0.05915353
000270 59 3a 13 3e 1a 66 79 3e 82 68 32 3d 41 54 47 3e
       0.14377727 0.24355355 0.043556698 0.19465734
000280 a4 7d e6 bd c0 d1 4b 3c 7c 19 09 bd 83 3c 23 3e
       -0.11254433 0.012440145 -0.03347157 0.15941052
000290 d8 00 cc 3c 48 ea 23 3e 2b c3 18 3d b5 b1 4d 3e
       0.024902746 0.1600734 0.0372955 0.20087321
0002a0 22 25 8d be dc b5 46 bc b3 92 ea bd 22 48 5b 3d
       -0.27567393 -0.01212832 -0.11453762 0.053535588
0002b0 9a 9b cc 3d ed e6 ef 3d ac 17 85 3b 62 cf 31 be
       0.09990616 0.117139675 0.00406166 -0.17364267
0002c0 c5 88 92 3d d4 33 b5 3d fa f7 0f 3d 58 a3 8d 3d
       0.07154993 0.08847776 0.0351486 0.06915921
0002d0 78 21 35 be d3 c2 56 3e be b5 43 be 29 7b 3d 3e
       -0.17688549 0.20972757 -0.19112298 0.18504013
0002e0 4a 0d 2a be 65 62 47 be f0 0c c8 3b 6e b5 3c be
       -0.16606632 -0.19471128 0.006105058 -0.18428585
0002f0 5c 11 1e 3e 39 06 4d be a3 33 6e bd 0e d1 fe bd
       0.1543631 -0.20021905 -0.058154713 -0.12442218
000300 ff 9d 59 be b3 cb bf 3d 2e ac 46 3e 5e 48 83 3e
       -0.21251677 0.093650244 0.19401619 0.2564115
000310 89 6e e8 bd d3 01 2a be 34 c1 05 be 53 2c 57 3e
       -0.11349208 -0.16602258 -0.13061982 0.21013002
000320 fe 04 85 bd 15 74 26 be 48 f4 a0 3c 4c 00 41 3d
       -0.06495093 -0.1625522 0.019647732 0.047119424
000330 62 34 88 bd 06 e9 16 be b6 22 99 3d c6 f4 b7 3d
       -0.06650616 -0.14737329 0.07477324 0.08982234
000340 8c 26 68 be 3d 11 16 3d b8 73 eb bc 0f 04 2c bd
       -0.22670954 0.036637533 -0.028741702 -0.041996058
000350 3a 5e e5 bc c3 09 f8 3c 55 fa 35 be bc 48 6f be
       -0.027999032 0.030278092 -0.17771275 -0.2336759
000360 6b e8 98 3d e3 5d c1 bd e9 e8 d1 3c a3 c3 58 bd
       0.07466205 -0.094417356 0.025623756 -0.05292095
000370 80 41 d1 3b 6e 40 3f be 67 35 0b 3e 70 c1 49 3c
       0.006385982 -0.18676922 0.1359459 0.0123141855
000380 5c 86 19 bd 29 31 44 3e 40 f0 f4 3c e8 1a c9 bc
       -0.03748165 0.19159378 0.029899716 -0.024548963
000390 e1 2d f0 3d a8 96 71 3d 48 bb 2e 3e ac 81 2e be
       0.11727501 0.058981568 0.1706363 -0.17041653
0003a0 f2 21 f2 bd 26 8b bf 3d 29 4b ad bd fd 07 05 3e
       -0.11822881 0.09352712 -0.08461601 0.12991329
0003b0 92 a3 87 bc e8 5d 80 3c e0 30 0c 3d 8f f9 27 3d
       -0.016557489 0.015669778 0.0342263 0.041009482
0003c0 3d 5c 6d be 59 54 87 3d 6c 64 cc bc d8 87 0a be
       -0.23179717 0.06607885 -0.024950229 -0.13528383
0003d0 df 0c 5b 3e 7c a1 3b 3d 50 48 aa 3c 94 dd 04 be
       0.21391629 0.0458083 0.020786434 -0.1297515
0003e0 34 9d 35 bd 3a 78 82 bc 61 64 46 3c 77 fa 97 3d
       -0.044339374 -0.01592647 0.012108893 0.07420819
0003f0 d6 f2 b4 bd 37 28 2f 3e 84 7e 75 3e 77 5a 7a 3e
       -0.0883538 0.17105184 0.23974043 0.24448572

bias f4 [256]
000000 f3 28 17 3e db 27 10 3d d4 4b 06 3c 7e 3b 1a 3c
       0.14761715 0.03519426 0.00819679 0.009413598
000010 96 a1 92 bc ca ef 55 3b d2 88 1f bd 01 8c 26 be
       -0.017899316 0.0032644146 -0.03894884 -0.16264345
000020 db f9 d1 bb 38 a2 78 3e 0e b6 1f be 37 2a 55 3e
       -0.006407959 0.24280632 -0.15596792 0.20816885
000030 d3 37 00 3e 4d d1 cf bd f0 cc 4f 3e 52 a0 44 be
       0.12521295 -0.10147343 0.20293021 -0.19201782
000040 ad 2e 5a be 53 a9 72 bd 1f f6 05 3e fe c6 b3 bd
       -0.21306868 -0.05924351 0.13082169 -0.08778189
000050 30 ca 1c be f2 b8 90 bd 70 38 59 3c 65 b4 44 3e
       -0.15311503 -0.070665255 0.013258085 0.1920944
000060 6f b5 3c 3e a5 40 f5 3d af a2 14 3e b1 d7 29 be
       0.18428586 0.119752206 0.14515184 -0.16586186
000070 ba 45 3a be f4 a2 42 3e 62 34 b7 bd d7 7e 49 3e
       -0.18190661 0.19007474 -0.08945538 0.19677292
000080 60 67 04 bd 78 99 b9 3d f3 61 2b 3d a4 5f 23 3e
       -0.03232515 0.09062475 0.04184146 0.15954453
000090 a8 79 74 bd 0f 20 f4 3d 5f 1d f3 bd b1 9e 71 3e
       -0.059686333 0.11920177 -0.118708365 0.23595692
0000a0 d9 95 19 be 2c 1b 1e bd 67 93 54 3d d8 4e 21 3e
       -0.14998569 -0.038600132 0.051898386 0.15752733
0000b0 04 e8 75 bd c0 c8 07 bd 0c 04 c4 bd 8a f2 35 be
       -0.06003572 -0.033150434 -0.095710844 -0.17768303
0000c0 90 5d 3e be bf d1 63 3e a7 b5 2d 3e 82 06 f5 bd
       -0.18590379 0.2224798 0.16963826 -0.11964132
0000d0 e9 6f 0b bb 88 b3 15 be ea c5 2f be f4 87 04 3e
       -0.002127642 -0.14619267 -0.17165342 0.12942487
0000e0 5c 4f 29 bd 67 60 36 3e 27 33 76 3e 5d 36 b7 bb
       -0.04133545 0.17810212 0.2404295 -0.0055911974
0000f0 4c 19 26 3d ce 85 b7 3d 4f 84 cc 3c 93 ca c9 bd
       0.04055147 0.08961068 0.024965433 -0.09853091
000100 1c 0b e3 bc 0b d2 03 be dc b2 24 3e 8b 22 21 be
       -0.027715258 -0.12873094 0.16083854 -0.15735833
000110 da e2 c2 3d 94 3a 30 bd b9 7d 35 3e c2 34 ea 3d
       0.09515925 -0.043024614 0.1772374 0.11435844
000120 e9 b9 03 3e 9c 4e 0a 3e ad 76 3d be 59 f6 3d 3d
       0.12863888 0.1350655 -0.18502302 0.046377514
000130 94 f2 3b 3e 58 b3 6a 3e 12 99 35 be c9 24 ea bd
       0.18354255 0.22919977 -0.17734173 -0.114327975
000140 e3 c7 45 3e 45 82 88 3d 05 9c 83 bd 6e 65 57 3e
       0.19314532 0.06665472 -0.06426243 0.21034786
000150 bb 94 79 bd 0a 72 a0 3d 64 89 23 3d ba 03 30 3e
       -0.060932856 0.07834251 0.039925948 0.17188922
000160 ef 56 be 3d 9d 8d a8 bd dd 31 66 bd 03 25 37 3e
       0.09293925 -0.082301356 -0.056199897 0.17885213
000170 a3 36 4d 3e 1c f3 ce 3d 44 6a 2c be 8c 16 a1 bd
       0.20040374 0.10104963 -0.16837412 -0.078656286
000180 ad d1 40 be b2 6d 7d 3e e3 51 0c 3e 0c f7 9e bd
       -0.18829985 0.24748877 0.13703112 -0.07761964
000190 a4 73 70 3e a0 a1 f0 bb 46 af 86 3d b0 91 aa 3d
       0.23481613 -0.007343486 0.065763995 0.08328569
0001a0 cb 25 35 bc 8e 9e e3 bd fa 83 ad bd e4 9c 28 3d
       -0.011056374 -0.11114226 -0.08472438 0.041165248
0001b0 aa 2c 3c bd 24 ae 3a be e3 e4 20 3e 89 07 ed 3d
       -0.045941032 -0.18230492 0.15712313 0.11573703
0001c0 6a 6f e8 3d 01 b9 68 3e b9 35 1f be c8 56 c2 3d
       0.113493755 0.22726823 -0.15547837 0.094892085
0001d0 ac 5c 7a bd f9 1b 27 3e 23 22 2b 3e ee c9 27 3e
       -0.061123535 0.16319264 0.16712241 0.16385624
0001e0 32 5a 0c 3e c7 89 18 be f2 6d a8 bd 1e 97 1a be
       0.13706282 -0.14896308 -0.082240954 -0.15096709
0001f0 d0 9c 03 3e cc 87 3e 3e 62 0c 24 bc 2f bf c0 3d
       0.12852788 0.1860649 -0.010012718 0.094114654
000200 9f 2c 03 3e 99 0c f3 3d 3e 47 3e be 1c 73 12 3e
       0.1280999 0.11867637 -0.18581864 0.14301723
000210 15 ec 12 be 79 b5 b7 bd c3 4d 53 3e e4 9b 99 3c
       -0.1434787 -0.0897016 0.20635132 0.018751092
000220 65 d0 2b 3e eb fe 3f be 66 9d 3d be d4 0d 70 3d
       0.16778715 -0.18749587 -0.18517074 0.058606938
000230 d2 39 5d bb 4a 6f 3c be 99 d8 a9 bb 1f 72 8e 3d
       -0.0033756387 -0.18401828 -0.005183291 0.069553606
000240 29 9e d7 3d f6 0e 02 3e e6 5e 11 be c8 e0 cf bc
       0.105282135 0.1270102 -0.14196357 -0.025375739
000250 ce f5 9a 3b 89 62 df b8 8c ed c9 bd ba e6 e6 bd
       0.0047290092 -0.00010651822 -0.098597616 -0.11274476
000260 f2 d8 a4 bd d8 c7 38 be b0 4b 01 3e 5f 97 c9 bd
       -0.080491915 -0.18044984 0.12626529 -0.09843325
000270 50 f9 0a 3e d7 84 e0 3d 23 86 12 be 9a 2e e5 bd
       0.13571668 0.10962837 -0.14308982 -0.11190529
000280 51 d2 29 bc 88 9e 0c 3e ac f2 dd 3d 25 a5 31 3e
       -0.010365085 0.1373235 0.108373016 0.17348154
000290 45 6f a5 bc b7 80 4a 3e ef 07 13 be c1 1f d4 bd
       -0.020194659 0.19775663 -0.14358495 -0.10357619
0002a0 49 52 53 3e 25 39 eb bd d1 b5 6c be 0c af 46 bd
       0.20636858 -0.11485509 -0.23116232 -0.04850678
0002b0 97 09 30 3e ad f7 42 be 5c 5a e7 3d c9 b6 c2 3d
       0.17191158 -0.19039793 0.112965316 0.0950752
0002c0 8d 08 ce 3d c6 5d 98 3d e0 d1 3c be 6b ad 18 3d
       0.10060225 0.07439761 -0.18439436 0.03727476
0002d0 2e 37 ed bc a2 2b d5 bd 0c 9e 5a bd 1b 60 9a 3d
       -0.028956976 -0.10408713 -0.05337338 0.07537862
0002e0 70 b9 25 bd 53 ac 97 3c c5 84 12 be 93 07 ab bd
       -0.04046005 0.018514788 -0.1430846 -0.08351054
0002f0 6d 4c 9e bd 26 eb da bd 26 c3 e7 3d 43 e4 e4 bd
       -0.07729421 -0.10689382 0.113165185 -0.1117635
000300 eb 95 33 be 29 39 98 3c b4 db 7f bd 7e 94 c8 3d
       -0.17537658 0.018581944 -0.062465385 0.09793948
000310 fe 75 2d be 1c 5a 49 3e f8 43 ab bc 00 24 2b 39
       -0.16939542 0.1966328 -0.020906433 0.00016321242
000320 f0 0f f2 bd f5 bb 66 bc 3f 1b 72 3e 01 30 8a 3d
       -0.11819446 -0.014082898 0.23643206 0.06747437
000330 c2 d5 fa 3d 43 29 95 3d 74 a5 b1 3a 6f 53 97 3c
       0.12247802 0.07283261 0.0013553337 0.018472401
000340 86 19 56 bd 59 b7 10 3e 49 b2 22 3e 48 75 24 3c
       -0.052270435 0.14132442 0.15888323 0.010037728
000350 04 a6 bf bd 71 ce 29 be 9a d8 18 3e aa 6d f0 3d
       -0.09357837 -0.16582657 0.14926377 0.11739667
000360 3d 12 1a 3e 31 de 42 be 72 9a 1e be 1d 78 56 bc
       0.1504602 -0.19030072 -0.15488604 -0.013090161
000370 ea 9c 18 3e 99 b3 32 3e 95 e4 8a 3c 99 9d 15 3e
       0.14903608 0.17451324 0.0169547 0.146109
000380 41 69 a3 bd 44 24 00 be 8c 79 eb bd 05 b5 ea bd
       -0.0797906 -0.12513834 -0.114977926 -0.11460308
000390 b6 8b 8d 3d aa 65 cc bd fa a8 66 bd 4a fe 01 3e
       0.06911413 -0.099803284 -0.056313492 0.1269466
0003a0 b9 ab a5 ba 29 e0 df bd a6 e4 2f be 84 0e de bd
       -0.0012639678 -0.10931427 -0.17177066 -0.108426124
0003b0 6a 97 14 be ba bb bd bc c0 1a 2d bb 54 7a 30 bd
       -0.14510885 -0.023160804 -0.002641365 -0.04308541
0003c0 13 fa 61 bd 34 a0 3c 3e e7 bb 2d 3d d5 33 99 3d
       -0.05517013 0.18420488 0.042415526 0.07480589
0003d0 c5 32 4f bd 7a 85 d3 3c 86 c6 2f bd 84 78 d6 bc
       -0.050585527 0.025820483 -0.042913936 -0.026180513
0003e0 30 40 7e bc ca b4 75 3e 26 35 5a be 2e 3a 15 be
       -0.015518233 0.23994747 -0.21309337 -0.14572975
0003f0 02 88 81 3d f1 35 3c 3e 6b 01 ff bd 2c 02 20 3e
       0.063247696 0.18379952 -0.12451442 0.15625829
