astar/checkpoints1/sac_critic_200.pth (torch, 580642 bytes, 10 tensors)

weight f4 [256, 21]
0.23576011 0.21138337 0.061385006 -0.05906419 -0.25494215 -0.15158309 0.13040619 0.051945478
-0.027647965 0.13390207 -0.21078078 -0.20018068 0.0974047 -0.20785719 -0.0010209531 0.2073993
0.054983452 0.04629816 0.20096202 0.17723447 -0.10861297 0.21290427 -0.0034049142 -0.16942772
-0.35760614 -0.29728174 -0.03692307 0.16162388 0.071510345 0.074656725 0.05986212 0.20251319
0.06204134 0.09585248 -0.17081544 -0.07764311 0.15510206 0.10959999 -0.21791671 -0.07987505
0.18205343 -0.1433754 -0.0045094416 -0.28251666 0.015938811 -0.1067213 -0.27229437 0.05793893
0.069350965 0.091057375 -0.07925357 -0.3033244 0.09798134 0.024693543 -0.035475165 0.0622371
-0.09338659 -0.18209037 -0.092071965 -0.052972034 0.1091395 -0.10137697 0.09547401 -0.1893047
0.033623114 0.10771479 -0.089427024 -0.07042457 -0.20326158 -0.111352466 0.06454198 0.046161935
-0.21768206 -0.067298666 -0.1406421 0.1792288 -0.035584733 -0.10585712 -0.19929859 -0.15294428
0.16620092 -0.1318143 -0.15062785 0.17913856 0.119099684 0.034013566 -0.056710552 0.124204986
-0.005787278 0.013307751 -0.15715471 0.22807968 0.012449141 -0.10444935 0.041897513 0.24168622
-0.1635314 0.15712728 0.05386214 0.026072264 -0.12185067 -0.006207496 -0.0017704264 0.06541569
-0.09108982 -0.31880635 0.24057792 -0.14254372 -0.215693 0.032896318 -0.10799499 -0.0019916368
-0.23528738 -0.0274357 -0.01903087 0.12644796 -0.018596265 -0.09570765 0.1250069 0.09240429
-0.0018831193 -0.14194939 0.17537107 0.24815767 0.02809305 -0.057888612 0.10606019 0.20289654
-0.08616358 0.40402317 0.0013531444 -0.11485933 0.11898533 0.28450188 -0.0849391 0.17406061
-0.1756765 0.17318273 -0.11518661 -0.06430252 0.16919477 0.060549483 -0.02479726 -0.15848765
-0.0917377 0.069483064 0.029180726 0.16193454 0.076088086 0.16056652 -0.07594001 -0.013270363
-0.011044413 -0.1153821 -0.077779725 -0.123133086 -0.122890145 -0.21062946 -0.17658666 -0.1508244
-0.04706697 0.10668416 -0.0108447075 -0.028096661 -0.15843253 -0.12765989 -0.18869938 -0.0625374
-0.022638649 -0.098613314 -0.1444332 -0.10805727 -0.20464528 0.12688641 0.034328327 -0.032206863
-0.14239717 -0.18612294 0.033405736 -0.0585095 -0.12524079 0.17431779 0.0501277 -0.054348737
0.063932076 0.16185878 -0.17801198 -0.060622662 -0.19481476 -0.1900086 0.014162585 0.06557247
-0.03583705 -0.28326818 0.35751593 -0.1656397 -0.077067874 0.16811827 -0.05918869 0.13346784
-0.0551702 0.06671898 0.05382158 -0.14569816 -0.19221954 0.104772404 -0.09755519 0.059363548
-0.055324856 -0.123752795 0.2242655 0.06312108 -0.07857845 0.42542684 0.44804543 0.19738993
-0.020196214 0.1128305 -0.029316511 -0.013095699 -0.10742762 -0.01080954 0.19181447 -0.056505755
-0.11290826 0.17586406 0.04730682 -0.063336015 -0.09004436 0.10160762 0.09612085 0.12042136
0.14721723 -0.10318208 0.49610063 0.39084095 0.12340307 -0.0867993 0.18628237 0.1259657
-0.049800787 -0.039758407 0.109454654 -0.21226531 -0.15116853 0.019808814 -0.17276636 0.07605411
-0.015256166 0.04498799 -0.05108004 -0.02847194 0.22238971 -0.18057936 0.0429786 -0.34132132
00000000: 196b 713e e274 583e d86e 7b3d 4bed 71bd
00000010: c787 82be 9938 1bbe 3389 053e c8c4 543d
00000020: fc7d e2bc a01d 093e ebd6 57be 2afc 4cbe
00000030: 1e7c c73d 84d8 54be 80d1 85ba 7b60 543e
00000040: 5436 613d 24a3 3d3d fdc8 4d3e f47c 353e
00000050: 7a70 debd 9403 5a3e fb24 5fbb 767e 2dbe
00000060: 2718 b7be 5035 98be a53c 17bd bb80 253e
00000070: 0474 923d a0e5 983d fb31 753d 9e5f 4f3e
00000080: 0f1f 7e3d 4e4e c43d 3eea 2ebe 5a03 9fbd
00000090: 13d3 1e3e f675 e03d 8f25 5fbe 8895 a3bd
000000a0: 376c 3a3e 00d1 12be f0c3 93bb 06a6 90be
000000b0: 1c92 823c b290 dabd 2b6a 8bbe 5f51 6d3d
000000c0: e107 8e3d 4a7c ba3d b24f a2bd 564d 9bbe
000000d0: 71aa c83d 1d4a ca3c 684e 11bd 54ec 7e3d
000000e0: 7841 bfbd e675 3abe 3a90 bcbd 34f9 58bd
000000f0: 8884 df3d bb9e cfbd e187 c33d 17d9 41be
00000100: 64b8 093d 9299 dc3d 8425 b7bd c23a 90bd
00000110: ce23 50be c30c e4bd 962e 843d 4c14 3d3d
00000120: 0ce8 5ebe e2d3 89bd 7c04 10be c187 373e
00000130: 4cc1 11bd 9ecb d8bd ee14 4cbe 6d9d 1cbe
00000140: 9330 2a3e 54fa 06be 303e 1abe 1970 373e
00000150: 89ea f33d cf51 0b3d 5349 68bd 2f5f fe3d
00000160: 35a3 bdbb c108 5a3c 2aed 20be b88d 693e
00000170: 7bf7 4b3c 8ae9 d5bd ba9c 2b3d 987c 773e
00000180: c674 27be f9e5 203e 8c9e 5c3d 8095 d53c
00000190: d88c f9bd 4068 cbbb a70d e8ba a9f8 853d
000001a0: 4d8d babd 963a a3be 0f5a 763e fbf6 11be
000001b0: a0de 5cbe 4abe 063d 7a2c ddbd 1f86 02bb
000001c0: 2def 70be d5c0 e0bc a1e6 9bbc 937b 013e
000001d0: 3257 98bc 5f02 c4bd cf01 003e 763e bd3d
000001e0: 00d3 f6ba 2e5b 11be 7994 333e 0b1d 7e3e
000001f0: 6523 e63c 9c1c 6dbd 1636 d93d 1cc4 4f3e
00000200: 8876 b0bd 20dc ce3e fe5b b13a 5e3b ebbd
00000210: 95ae f33d 3baa 913e 8df4 adbd f23c 323e
00000220: 8ae4 33be d056 313e f5e6 ebbd 0ab1 83bd
00000230: 6541 2d3e bc02 783d a023 cbbc 964a 22be
00000240: fae0 bbbd 234d 8e3d 6b0c ef3c 2bd2 253e
00000250: 12d4 9b3d 8d6b 243e 7086 9bbd f06b 59bc
00000260: a0f3 34bc 734d ecbd fa4a 9fbd 332d fcbd
00000270: d4ad fbbd 40af 57be 22d3 34be b671 1abe
00000280: 4cc9 40bd 3a7d da3d 00ae 31bc f82a e6bc
00000290: 233c 22be 46b9 02be 693a 41be 9c13 80bd
000002a0: b074 b9bc c7f5 c9bd 4ce6 13be 214d ddbd
000002b0: 888e 51be 83ee 013e dc9b 0c3d 58eb 03bd
000002c0: 90d0 11be 0397 3ebe 74d4 083d a8a7 6fbd
000002d0: 1f3f 00be 5d80 323e b452 4d3d c89c 5ebd
000002e0: d2ee 823d 4fbe 253e c648 36be 784f 78bd
000002f0: 857d 47be 9d91 42be 300a 683c dc4a 863d
00000300: dfc9 12bd 8708 91be 540c b73e 749d 29be
00000310: c3d5 9dbd 3227 2c3e d76f 72bd cbab 083e
00000320: 26fa 61bd f6a3 883d 0474 5c3d e631 15be
00000330: 33d5 44be ea92 d63d 04cb c7bd 3127 733d
00000340: 519c 62bd 1b72 fdbd dba5 653e a045 813d
00000350: bded a0bd 8cd1 d93e 3666 e53e 9620 4a3e
00000360: 8872 a5bc ad13 e73d 2e29 f0bc 588f 56bc
00000370: 0303 dcbd 7f1a 31bc 036b 443e 9472 67bd
00000380: 723c e7bd b515 343e ccc4 413d 50b6 81bd
00000390: 2d69 b8bd a817 d03d 02db c43d 799f f63d
000003a0: 1dc0 163e 2051 d3bd e700 fe3e 4e1c c83e
000003b0: c0ba fc3d d5c3 b1bd cec0 3e3e 27fd 003e
000003c0: e9fb 4bbd b6d9 22bd c329 e03d 145c 59be
000003d0: eccb 1abe 1846 a23c aae9 30be 42c2 9b3d
000003e0: 00f5 79bc 5445 383d 4e39 51bd fc3d e9bc
000003f0: 21ba 633e cce9 38be 540a 303d abc1 aebe

bias f4 [256]
0.045727 0.017974552 0.09075828 -0.024170414 -0.03738159 -0.0174914 0.08868163 0.023039281
0.18143646 -0.14900592 -0.009306886 0.019681709 0.12550949 -0.18256713 -0.0592751 0.079012856
-0.08440146 -0.12784746 -0.011808881 -0.014562374 0.12629516 -0.08678139 -0.15665895 -0.021581842
-0.0021006432 0.09034148 0.039905537 0.071486615 0.07832644 -0.15294595 0.13021806 0.1438642
-0.15312281 -0.13515437 -0.049260035 -0.069906645 -0.18473603 -0.12050726 -0.103115045 0.12165741
0.083991505 -0.11029822 -0.20692486 0.048420534 0.13981794 -0.17892939 -0.11262272 -0.08873786
0.20376754 0.20049624 -0.029188598 0.15106142 0.15370728 0.23865835 0.01325793 -0.11875652
0.22044756 0.14739975 -0.13130353 0.105263375 0.02895553 -0.11545648 0.1358446 -0.00723551
-0.19548349 0.059450638 0.20831849 -0.07859232 0.09589108 -0.1408686 0.111184254 -0.11850189
-0.16370188 -0.0130832875 -0.19704361 -0.11588692 -0.13001055 0.18831936 -0.1250278 0.22994144
0.029133538 0.09337582 0.22939195 -0.18509972 -0.11026598 -0.093762584 0.06863122 -0.0043663685
0.11709984 0.009808533 -0.1467912 0.08698957 -0.10813492 -0.11146381 -0.14356484 0.031439327
0.20847997 -0.01757932 -0.1660345 -0.07471404 -0.21038145 0.01866821 0.07877317 -0.0052360515
-0.05824985 0.05089491 -0.024916079 0.062154416 -0.02565977 -0.16247733 0.10300579 -0.13867518
0.0835775 -0.1342873 -0.11702053 0.15103787 -0.09380661 -0.1389683 -0.1101167 -0.10685748
-0.18541893 -0.15449117 -0.19362842 0.068303004 -0.19784947 -0.047159392 0.07695246 -0.017149294
-0.17570116 -0.07626097 -0.052556954 -0.105798736 0.017194878 0.12902378 0.12216388 -0.015958263
0.2969968 -0.17885588 -0.030479014 -0.031449586 0.2037542 -0.13101397 -0.20851423 -0.08696937
0.22628674 0.008040036 -0.11106866 -0.007141787 -0.18237208 0.07504629 0.0963262 0.19240485
-0.0047310805 0.10455842 -0.21522287 0.0053338725 0.17378655 -0.17194252 -0.09858259 0.080312386
0.0032702275 0.20974296 -0.088798024 0.012926787 0.05610667 0.060601924 -0.11182174 -0.013169855
-0.023415271 -0.05584779 0.15121922 -0.21502608 -0.08922784 -0.110809326 0.23453976 -0.116772026
-0.08837129 -0.1207246 0.11916994 -0.059605382 0.19342211 0.15335204 0.107198104 0.16789936
-0.0760075 0.12369965 0.09561626 -0.14906883 0.17261611 0.14766064 0.121997654 0.20946787
0.20684193 -0.19882978 0.18956916 0.11754264 0.0041651274 0.10688706 -0.15279919 0.19741677
0.1313441 -0.16052163 0.093969345 0.17286496 0.1496247 0.09256786 0.10371514 -0.18402569
-0.16094114 0.04019712 0.04386409 -0.13757682 0.0211847 -0.13160211 -0.12574752 -0.0771738
0.074204415 0.09229901 -0.16605313 0.13733245 -0.12580001 -0.16227677 -0.16090879 0.0868377
-0.045101974 -0.0048348643 0.10115021 0.2059166 0.05855097 0.10592344 0.18252711 0.23056003
0.16208912 -0.15732059 -0.03478941 0.0058049816 0.14094602 -0.021419832 -0.10383662 0.07840748
0.035573132 -0.014113024 -0.020346846 0.20657662 0.14175802 0.1738873 0.15726037 0.13241433
-0.017893717 0.18908145 -0.13046777 -0.14305851 0.21803121 0.09226257 -0.05153603 0.019764518
00000000: 3c4c 3b3d 5e3f 933c 7adf b93d 0801 c6bc
00000010: 701d 19bd 204a 8fbc b79e b53d e0bc bc3c
00000020: 7bca 393e 0295 18be e97b 18bc 893b a13c
00000030: 8f85 003e e1f2 3abe 72ca 72bd 7ed1 a13d
00000040: acda acbd 72ea 02be 097a 41bc 0697 6ebc
00000050: 8553 013e 71ba b1bd 346b 20be 67cc b0bc
00000060: f2aa 09bb f404 b93d fd73 233d 9367 923d
00000070: 9d69 a03d dd9d 1cbe e257 053e 2351 133e
00000080: 3acc 1cbe e865 0abe e4c4 49bd 372b 8fbd
00000090: 712b 3dbe 83cc f6bd fb2d d3bd 8527 f93d
000000a0: bd03 ac3d 08e4 e1bd 1ce4 53be 9c54 463d
000000b0: 6f2c 0f3e 4439 37be bea6 e6bd 32bc b5bd
000000c0: 70a8 503e e34e 4d3e ed1c efbc d8af 1a3e
000000d0: 7165 1d3e db62 743e ca37 593c 9e36 f3bd
000000e0: 01bd 613e f6ef 163e 6f74 06be 5394 d73d
000000f0: 2634 ed3c 7274 ecbd d91a 0b3e db17 edbb
00000100: d32c 48be 8382 733d 7151 553e 03f5 a0bd
00000110: 8b62 c43d dc3f 10be 92b4 e33d 1eb1 f2bd
00000120: 77a1 27be 495b 56bc cdc5 49be 1f56 edbd
00000130: 7c21 05be cad6 403e 4a07 00be c575 6b3e
00000140: 75a9 ee3c d23b bf3d b9e5 6a3e c88a 3dbe
00000150: 21d3 e1bd 9906 c0bd 868e 8c3d c113 8fbb
00000160: 0ad2 ef3d f8b3 203c 6f50 16be 9627 b23d
00000170: d775 ddbd 2347 e4bd a902 13be 86c6 003d
00000180: c67b 553e 8202 90bc f304 2abe ad03 99bd
00000190: 3c6e 57be 13ee 983c d453 a13d 2f93 abbb
000001a0: 6597 6ebd 2e77 503d ce1c ccbc a195 7e3d
000001b0: 7034 d2bc 7560 26be b3f4 d23d de00 0ebe
000001c0: ae2a ab3d 9c82 09be 76a8 efbd aca9 1a3e
000001d0: ae1d c0bd b54d 0ebe dd84 e1bd 18d8 dabd
000001e0: 76de 3dbe ef32 1ebe 8746 46be 72e2 8b3d
000001f0: 0d99 4abe 352a 41bd 4099 9d3d ad7c 8cbc
00000200: 01eb 33be b62e 9cbd f645 57bd 02ad d8bd
00000210: 46dc 8c3c cf1e 043e 0e31 fa3d e7ba 82bc
00000220: f70f 983e ff25 37be 20af f9bc 48d1 00bd
00000230: f1a4 503e 8728 06be c184 55be ff1c b2bd
00000240: b6b7 673e 5bba 033c f777 e3bd a705 eabb
00000250: bfbf 3abe dfb1 993d ac46 c53d c705 453e
00000260: 2e07 9bbb ba22 d63d 6263 5cbe c4c7 ae3b
00000270: 1af5 313e b311 30be abe5 c9bd d27a a43d
00000280: 5051 563b dcc6 563e bddb b5bd e0ca 533c
00000290: 1cd0 653d b939 783d cc02 e5bd 60c6 57bc
000002a0: 62d1 bfbc a7c0 64bd 36d9 1a3e cc2f 5cbe
000002b0: 16bd b6bd 00f0 e2bd 312b 703e 2c26 efbd
000002c0: 02fc b4bd 763e f7bd 5f0f f43d c624 74bd
000002d0: 7210 463e 5108 1d3e ae8a db3d cfed 2b3e
000002e0: d2a9 9bbd 3e56 fd3d 75d2 c33d 80a5 18be
000002f0: 47c2 303e 5a34 173e e8d9 f93d bf7e 563e
00000300: 5fce 533e 099a 4bbe 6b1e 423e 32ba f03d
00000310: 9f7b 883b 9ae7 da3d 6477 1cbe 9f27 4a3e
00000320: 117f 063e c85f 24be 0073 c03d 8303 313e
00000330: 3837 193e 3894 bd3d 9a68 d43d 3b71 3cbe
00000340: c1cd 24be bca5 243d d5aa 333d f0e0 0cbe
00000350: 898b ad3c b4c2 06be f5c3 00be 4c0d 9ebd
00000360: 7cf8 973d 4307 bd3d d509 2abe e1a0 0c3e
00000370: b8d1 00be e22b 26be 46c5 24be f7d7 b13d
00000380: d9bc 38bd c86d 9ebb d727 cf3d cddb 523e
00000390: 24d3 6f3d 63ee d83d 63e8 3a3e ee17 6c3e
000003a0: b1fa 253e a618 21be 577f 0ebd b737 be3b
000003b0: 2754 103e a578 afbc 4ba8 d4bd 1a94 a03d
000003c0: 22b5 113d 503a 67bc 6eae a6bc d288 533e
000003d0: 0429 113e 830f 323e dd08 213e 9f97 073e
000003e0: d895 92bc 919e 413e 5899 05be ee7d 12be
000003f0: 9343 5f3e 29f4 bc3d 7217 53bd 33e9 a13c

weight f4 [256, 256]
-0.025885988 -0.014972472 0.10639939 0.0566469 0.10439775 0.1685706 -0.027640188 0.043562166
-0.026104555 0.113790676 0.10455167 0.025041824 -0.14999191 -0.0409059 -0.04624836 -0.017209126
0.04775354 0.07797536 -0.029395554 0.00434999 0.050174505 0.08524824 0.139474 8.080839e-05
0.16320804 -0.015887843 -0.0024126624 0.048261084 0.07454555 -0.52305925 0.120335296 -0.001352996
0.025630761 0.09442152 0.008365966 -0.009980409 0.07126594 0.04276006 -0.023389533 -0.14856277
0.07820249 0.10565783 -0.42222074 -0.013519891 0.051427953 -0.012965432 0.09229304 0.034226514
0.032595262 0.102998205 -0.28336546 -0.3566637 -0.23832655 -0.009213811 0.08733895 0.06093395
-0.0051571988 0.058282707 0.023246597 0.11281656 -0.28721684 0.016693465 -0.68905604 -0.0203798
-0.01930122 0.0077922354 -0.31490326 0.00904427 0.0006418457 -0.027491864 -0.044545535 -0.022628494
0.066142224 0.1366894 -0.45115235 -0.056593813 -0.029777221 0.08894701 -0.038795855 0.008908897
0.069891535 0.049772598 -0.039931297 0.072999455 -0.027533978 0.00013076926 -0.034697987 -0.062124375
0.020955041 0.10767222 -0.0350412 -0.05045186 0.083040506 0.023243899 0.02797552 -0.051224906
0.06824553 0.04959686 0.013086244 0.0076749856 0.086790435 0.049642086 0.06612835 0.0744627
0.071857825 0.07582869 -0.013658686 0.09517784 0.28912592 0.03048978 -0.011430723 0.071577325
0.060647264 -0.043113224 -0.37752697 0.04063374 0.09543822 0.0042499606 0.038822062 0.02565897
-0.025909007 -0.034414534 0.022620609 -0.0098229945 -0.0032916171 0.06319124 -0.028391268 0.1364581
-0.03263998 0.05556514 0.037679136 0.056004744 0.08357683 0.08254903 0.1109951 0.27659544
0.02512078 -0.055053238 0.094490096 0.04558436 0.037465435 0.10400524 -0.060349047 0.09235536
0.13786285 0.052588724 0.03812073 0.18207105 -0.54498804 0.06985787 0.12613979 0.18698364
0.11037701 0.0017847642 -0.018150024 0.03145579 0.03852812 -0.4587868 0.09566674 -0.042721376
-0.032224394 0.18884969 -0.0813605 -0.008181335 0.037680686 -0.03850134 0.09934825 0.044726007
0.2938442 0.10178383 0.062350113 0.030962728 -0.0041324794 0.041769877 -0.095005825 0.05955806
0.038852636 0.041539025 0.030294864 0.10864218 0.014283193 0.118454255 0.036202617 0.022317499
0.05687319 -0.136289 0.07110549 -0.24254693 -0.054281153 0.4269952 0.10801468 0.020506963
0.013739194 0.11501913 -0.01925973 -0.06052365 0.009982099 0.028420597 -0.0028745302 -0.18171626
-0.00033211583 -0.0062249154 -0.11018275 0.06696866 0.09037005 0.045377217 0.018350279 -0.15319163
0.031090362 0.042213995 0.10969411 0.075813025 -0.055826325 0.028922036 -0.20609756 0.041058555
-0.107316814 -0.0429867 -0.0029841743 0.19506514 -0.025800826 0.017925618 0.05334213 0.19693509
-0.036365133 0.076655485 -0.296504 -0.14591043 -0.039575316 -0.034834627 -0.047345012 -0.034692224
-0.0927326 -0.37196562 0.11691305 0.061286118 -0.06491698 0.0029118443 0.044870675 0.025038088
-0.579619 0.055205137 -0.11924622 -0.0017990979 0.02614785 -0.050676443 -0.016246438 0.026612742
0.044335656 -0.038238525 0.04561141 0.10430459 0.10066328 -0.016546851 0.100977145 -0.0753553
00000000: da0e d4bc 194f 75bc ece7 d93d 9406 683d
00000010: 7dce d53d c59d 2c3e ad6d e2bc 3e6e 323d
00000020: 38d9 d5bc 160b e93d 301f d63d 8324 cd3c
00000030: 7b97 19be f28c 27bd ec6e 3dbd 27fa 8cbc
00000040: 3799 433d 8cb1 9f3d f2ce f0bc 5c8a 8e3b
00000050: c883 4d3d a196 ae3d 46d2 0e3e ad77 a938
00000060: 0220 273e 3927 82bc c21d 1ebb 6aad 453d
00000070: 56ab 983d 36e7 05bf 5a72 f63d 0357 b1ba
00000080: 9af7 d13c 1260 c13d 6811 093c df84 23bc
00000090: e1f3 913d 2c25 2f3d 689b bfbc d720 18be
000000a0: a128 a03d 2263 d83d 512d d8be 8882 5dbc
000000b0: 1ea6 523d f76c 54bc 2204 bd3d 1a31 0c3d
000000c0: 9c82 053d b9f0 d23d 4715 91be a09c b6be
000000d0: e00b 74be 86f5 16bc c3de b23d e195 793d
000000e0: b8fd a8bb d9b9 6e3d a66f be3c 5e0c e73d
000000f0: 160e 93be bcc0 883c fa65 30bf 8af3 a6bc
00000100: 981d 9ebc 0256 ff3b 003b a1be 6b2e 143c
00000110: 8941 283a 9e36 e1bc 6175 36bd 645f b9bc
00000120: 9375 873d 4ef8 0b3e 71fd e6be eace 67bd
00000130: 5cef f3bc da29 b63d 67e8 1ebd 9ff6 113c
00000140: 4b23 8f3d 5ade 4b3d 008f 23bd bd80 953d
00000150: f08e e1bc 1b1f 0939 7a1f 0ebd 2176 7ebd
00000160: e8a9 ab3c 4183 dc3d 5d87 0fbd 9ca6 4ebd
00000170: 2411 aa3d fd69 be3c eb2c e53c 35d1 51bd
00000180: 50c4 8b3d 1426 4b3d b067 563c 727e fb3b
00000190: 2fbf b13d 8055 4b3d 4d6e 873d e67f 983d
000001a0: 322a 933d 124c 9b3d aec8 5fbc 99ec c23d
000001b0: 5008 943e b4c5 f93c ed47 3bbc 2297 923d
000001c0: 4469 783d 7e97 30bd 374b c1be 916f 263d
000001d0: 1d75 c33d 4143 8b3b e203 1f3d c332 d23c
000001e0: 203f d4bc 41f6 0cbd db4e b93c a0f0 20bc
000001f0: 2cb8 57bb 696a 813d ce94 e8bc acbb 0b3e
00000200: 80b1 05bd 4698 633d 7055 1a3d 3b65 653d
00000210: 542a ab3d 770f a93d 6651 e33d eb9d 8d3e
00000220: 18ca cd3c 817f 61bd 0684 c13d aab6 3a3d
00000230: 5b75 193d b300 d53d 9030 77bd cf24 bd3d
00000240: eb2b 0d3e 4667 573d 7c24 1c3d d570 3a3e
00000250: 5684 0bbf a511 8f3d ca2a 013e a478 3f3e
00000260: 580d e23d c0ee e93a 5caf 94bc c9d7 003d
00000270: a9cf 1d3d 1ae6 eabe ecec c33d 9cfc 2ebd
00000280: bafd 03bd d061 413e 55a0 a6bd 020b 06bc
00000290: 1057 1a3d 95b3 1dbd 1877 cb3d 9e32 373d
000002a0: bf72 963e 0a74 d03d d562 7f3d 8ca5 fd3c
000002b0: c069 87bb e416 2b3d 6a92 c2bd 27f3 733d
000002c0: f123 1f3d d324 2a3d ef2c f83c cb7f de3d
000002d0: 0e04 6a3c 2598 f23d 3249 143d 30d3 b63c
000002e0: ddf3 683d 588f 0bbe c19f 913d 395e 78be
000002f0: ea55 5ebd 1d9f da3e cd36 dd3d 38fe a73c
00000300: 5b1a 613c 268f eb3d 95c6 9dbc a6e7 77bd
00000310: f58b 233c 50d2 e83c 9d62 3cbb d413 3abe
00000320: d51f aeb9 60fa cbbb 7ea7 e1bd dd26 893d
00000330: ef13 b93d 76dd 393d 5353 963c 44de 1cbe
00000340: 37b1 fe3c 95e8 2c3d 4ea7 e03d dc43 9b3d
00000350: 25aa 64bd e8ed ec3c 3d0b 53be 042d 283d
00000360: ebc8 dbbd d212 30bd 2392 43bb 28bf 473e
00000370: 415c d3bc bfd8 923c 477d 5a3d 5aa9 493e
00000380: 9bf3 14bd 8dfd 9c3d 5fcf 97be 8b69 15be
00000390: ba19 22bd c1ae 0ebd d8ec 41bd 6f19 0ebd
000003a0: 97ea bdbd 4772 bebe 1c70 ef3d 2707 7b3d
000003b0: 32f3 84bd a4d4 3e3b 50ca 373d ad1c cd3c
000003c0: e961 14bf c81e 623d 5d37 f4bd b5cf ebba
000003d0: 0434 d63c 1a92 4fbd 4017 85bc f702 da3c
000003e0: 4e99 353d 00a0 1cbd 08d3 3a3d a59d d53d
000003f0: 8d28 ce3d 438d 87bc 1bcd ce3d e153 9abd

bias f4 [256]
-0.044807483 0.080427885 -0.041421898 -0.037645098 0.012178092 0.024823861 0.05695061 0.046938483
0.034975816 -0.02006172 0.04766169 -0.013628375 0.016751764 -0.028293032 0.03367591 -0.0117187975
0.016873697 -0.051594384 0.08622678 -0.0056222016 0.007007503 -0.010154432 -0.036955047 0.028130047
0.0041884184 0.00950598 -0.014167996 -0.028555933 -0.06083531 -0.0015882537 -0.041867964 -0.006244139
0.00041929894 -0.00845361 0.0677011 -0.03948225 -0.0219708 0.018712629 0.070085764 0.06835359
0.044126384 0.016229529 -0.0025078335 -0.029184202 0.011969477 0.067945376 -0.03917656 0.0044884547
-0.016883893 0.081638426 0.07009027 -0.041072164 0.055589404 -0.043477196 0.037920468 0.039228063
0.019247374 -0.0037206975 0.02233002 -0.011675623 0.042602498 -0.013151392 0.08428595 0.057838615
0.025624067 -0.0346083 0.021579748 -0.0333537 0.0169804 -0.018687546 -0.028988073 -0.015661657
0.004758582 0.055664726 -0.036370225 -0.004184184 0.02604017 -0.012815073 0.024330292 0.007405807
0.047836542 -0.045285128 0.011134912 -0.017711096 0.0010744879 0.0045410697 0.07138781 -0.03469759
0.050340272 0.070633315 0.048273638 -0.018346842 -0.022548588 0.011795046 0.031027 0.018687852
0.051251747 0.018686952 -0.038822297 0.027690254 -0.04026081 -0.05788791 0.058227666 0.0087709455
-0.044108428 -0.01602453 0.031972524 0.0708037 0.0117555335 0.03745269 0.06640695 -0.032237686
0.0057869717 0.0152874775 0.016975157 -0.017806014 -0.04111076 0.00011561357 0.066537656 0.0038195227
0.07027012 0.004294865 0.028220968 -0.035219 0.020216025 -0.053968206 -0.007924702 0.04188299
0.055126034 0.049566798 0.0021114 0.024056964 -0.016267812 0.046935353 0.021121973 0.034979288
-0.033851042 0.08036601 0.049281348 0.037291475 0.044051696 0.013916776 0.008418292 0.045735747
-0.0077640815 0.03669615 -0.039144523 -0.030336397 -0.008322035 0.018830946 -0.018131927 0.0145434635
0.00836346 0.060853023 0.026709264 0.020594355 0.0006964891 0.046302848 0.013771159 -0.02556657
-0.04664436 0.06022259 0.0426116 0.036765363 0.015664456 -0.02321502 -0.031999066 -0.009171295
0.021344617 -0.044535924 0.0056606233 -0.0438198 -0.022791972 -0.037068084 0.05153714 0.029773176
-0.061231352 0.056786552 0.05120684 -0.03718166 0.070829764 -0.028448587 0.027916625 -0.030290896
0.009701775 0.028287128 0.020652607 -0.045408662 -0.019415919 0.022668239 0.01661248 0.055800278
-0.0052016885 -0.056892917 0.016751677 0.021973493 0.00700801 0.012137055 0.05834944 0.038288377
0.032541476 0.007995454 0.03340221 0.04796048 -0.018023735 0.04774219 0.0126706725 0.045261506
0.028586939 0.028241443 0.0574267 0.050831985 -0.03744657 0.015431493 0.07747069 0.0105001945
-0.042041145 0.012708201 -0.002988511 -0.0032319583 0.033783607 -0.003133148 -0.009982863 -0.006777539
-0.03657831 -0.04112683 -0.054831453 -0.016532002 -0.022573086 -0.017821522 0.061393097 -0.018919773
-0.041512653 -0.014992762 -0.03529793 0.02224126 -0.012383757 0.053198073 -0.0016293316 0.04017662
0.0646687 0.04354308 0.0061394824 0.03320882 -0.049464222 -0.0045024445 0.030751437 0.07210917
0.045792017 -0.043370634 0.0033705388 -0.062342346 0.02819905 -0.018079778 -0.01795742 0.018266596
00000000: 0d88 37bd 60b7 a43d 02aa 29bd bf31 1abd
00000010: 9f86 473c 695b cb3c 0b45 693d 9142 403d
00000020: cd42 0f3d 7a58 a4bc e738 433d 8c49 5fbc
00000030: ff3a 893c cac6 e7bc c0ef 093d 3300 40bc
00000040: b53a 8a3c a254 53bd ab97 b03d 723a b8bb
00000050: 329f e53b c65e 26bc 2d5e 17bd fc70 e63c
00000060: 003f 893b f8be 1b3c e220 68bc 22ee e9bc
00000070: 722e 79bd f32c d0ba be7d 2bbd a29b ccbb
00000080: 5ad5 db39 0381 0abc e0a6 8a3d 24b8 21bd
00000090: 1bfc b3bc 3a4b 993c 2089 8f3d f8fc 8b3d
000000a0: debd 343d caf3 843c 775a 24bb b513 efbc
000000b0: a01b 443c f226 8b3d 9a77 20bd e313 933b
000000c0: 1750 8abc 0c32 a73d 7d8b 8f3d 493b 28bd
000000d0: b7b1 633d 2515 32bd 7e52 1b3d 9bad 203d
000000e0: abac 9d3c f2d6 73bb 72ed b63c 1d4b 3fbc
000000f0: f57f 2e3d f078 57bc 1d9e ac3d 2fe8 6c3d
00000100: 90e9 d13c 6fc1 0dbd 03c8 b03c e49d 08bd
00000110: 7b1a 8b3c a016 99bc 6578 edbc e04c 80bc
00000120: e1ed 9b3b b200 643d f2f8 14bd 7b1b 89bb
00000130: 3252 d53c 50f6 51bc 5250 c73c 69ac f23b
00000140: 40f0 433d e67c 39bd 356f 363c dc16 91bc
00000150: d5d5 8c3a 41cd 943b c633 923d 0f1f 0ebd
00000160: 9a31 4e3d 33a8 903d 94ba 453d 1e4c 96bc
00000170: d1b7 b8bc 0240 413c 562c fe3c 4417 993c
00000180: 5aed 513d 6115 993c 2104 1fbd acd6 e23c
00000190: 85e8 24bd e01b 6dbd 2280 6e3d 03b4 0f3c
000001a0: 0aab 34bd e045 83bc 9ff5 023d 8801 913d
000001b0: 489a 403c fe67 193d 5e00 883d aa0b 04bd
000001c0: a3a0 bd3b 5478 7a3c 7c0f 8b3c ebdd 91bc
000001d0: c263 28bd 9075 f238 e544 883d f550 7a3b
000001e0: c8e9 8f3d f0bb 8c3b a92f e73c cc41 10bd
000001f0: 149c a53c c40d 5dbd 9cd6 01bc 808d 2b3d
00000200: d6cb 613d 8e06 4b3d 6a5f 0a3b 1c13 c53c
00000210: 1344 85bc 493f 403d fd07 ad3c 7146 0f3d
00000220: 64a7 0abd ef96 a43d 3ddb 493d f2be 183d
00000230: 8d6f 343d 3003 643c e0ec 093c 6855 3b3d
00000240: d669 febb b44e 163d 0256 20bd 0984 f8bc
00000250: 2559 08bc 5b43 9a3c 6889 94bc b547 6e3c
00000260: e506 093c 0541 793d 63cd da3c 7eb5 a83c
00000270: 9894 363a 0ea8 3d3d 6da0 613c fc70 d1bc
00000280: 280e 3fbd f6ab 763d 8089 2e3d 4797 163d
00000290: bf52 803c 6d2d bebc 7411 03bd 3343 16bc
000002a0: e8da ae3c 4d6b 36bd c07c b93b 647c 33bd
000002b0: 3bb6 babc b4d4 17bd 9c18 533d e0e6 f33c
000002c0: bacd 7abd 0499 683d 43be 513d cc4b 18bd
000002d0: 320f 913d 030d e9bc 68b1 e43c 9d24 f8bc
000002e0: 32f4 1e3c 68ba e73c a82f a93c 6ffe 39bd
000002f0: 220e 9fbc beb2 b93c e516 883c d58e 643d
00000300: ed72 aabb 8c08 69bd d03a 893c c101 b43c
00000310: 73a3 e53b 80da 463c d3ff 6e3d 46d4 1c3d
00000320: 364a 053d 5dff 023c c1d0 083d 3572 443d
00000330: 83a6 93bc 518d 433d a798 4f3c 2164 393d
00000340: 282f ea3c 995a e73c 4238 6b3d 3335 503d
00000350: 9361 19bd 5fd4 7c3c f4a8 9e3d 0209 2c3c
00000360: 5633 2cbd 0f36 503c e5da 43bb 43cf 53bb
00000370: ae60 0a3d 8055 4dbb 2a8f 23bc 1e16 debb
00000380: 23d3 15bd 9b74 28bd f296 60bd 1f6e 87bc
00000390: 31eb b8bc 71fe 91bc 5477 7b3d a4fd 9abc
000003a0: 2c09 2abd 34a4 75bc 9094 10bd 4e33 b63c
000003b0: 3ee5 4abc 39e6 593d 4c8f d5ba 3d90 243d
000003c0: 0671 843d 3b5a 323d b62d c93b f905 083d
000003d0: ff9a 4abd 3e89 93bb 70ea fb3c f9ad 933d
000003e0: 6990 3b3d 68a5 31bd 42e4 5c3b b05a 7fbd
000003f0: b201 e73c 0b1c 94bc 701b 93bc d4a3 953c

weight f4 [1, 256]
0.20812447 0.19462372 -0.17076671 0.20232603 -0.2531285 0.23221396 -0.1923459 -0.36900622
-0.21911933 0.18587305 0.16766474 -0.23878352 0.14627929 0.16698751 -0.006420791 0.20050983
0.15064155 -0.021737196 0.17368078 0.13441768 -0.19928591 -0.2572798 0.19239485 -0.22210571
0.010630913 0.19761637 0.14556664 -0.20825383 -0.7698922 0.15207028 0.056370288 -0.31286255
0.17654312 -0.23865438 -0.21115848 0.19127713 0.20547737 -0.022392482 0.19175646 0.17093025
-0.2805296 0.19836473 -0.2798932 -0.89429843 0.17527607 0.16170089 -0.24930237 -0.2328569
-0.26405093 0.166963 0.13904768 0.1942265 0.18425287 -0.25690526 0.16671894 0.1595
0.19318308 0.118645914 -0.3117397 -0.33002537 0.21755666 -0.0059059784 0.19503447 0.1559635
-0.00703793 0.031085517 -0.19968037 0.056595817 -0.24331313 0.16597235 -0.23183858 0.015127553
-0.25637028 0.15339659 -0.7602038 0.20476095 -0.18854675 0.050635003 0.19254708 0.026702313
0.036547974 -0.26846278 0.18720955 0.17883311 0.034326937 0.17912033 -0.22480603 -0.019732233
0.15310948 -0.23535569 -0.21273427 0.20858079 0.019517241 0.18336296 -0.27388194 -0.040320046
-0.27705973 0.18297257 0.1817628 -0.00032449514 0.38334984 -0.1579098 0.052060142 0.19439454
0.0028186217 0.006116286 0.15351903 -0.23715432 0.031050168 -0.24569423 0.23010142 0.13186401
0.17732203 0.19894946 0.1663517 0.14849095 0.1554385 0.1839278 0.1474978 0.19143933
-0.18501794 0.016674437 -0.23870718 0.036812313 0.006381035 0.04037396 0.12878138 -0.20511241
0.00105843 -0.01279749 0.22098663 -0.020020314 0.21230428 0.19681798 0.18852216 0.14219747
-0.20800698 0.19633277 0.14443311 0.025760554 -0.27474666 -0.031080008 -0.0018752813 0.15493421
-0.0015637447 -0.20427912 -0.048496705 0.20199941 0.13064833 0.14689055 -0.21358351 0.16618945
-0.21940286 -0.23201273 0.00037934564 0.19687991 -0.21891232 0.0034115538 0.11635578 0.02763202
-0.8243395 0.21789525 -0.22380367 -0.22528659 0.20990437 0.18803357 0.007941313 -0.0098130675
0.037392333 0.36271012 0.05015962 -0.23877464 0.15776135 0.20245694 0.1915121 0.17800607
0.061431035 -0.22864527 0.17258269 -0.27834138 -0.3056717 0.18481141 0.18716006 -0.3696108
-0.24543291 0.20134433 -0.045033135 0.12934406 0.13396926 -0.21849819 0.1768903 -0.20014983
-0.24842897 0.04669217 0.038765445 0.061825886 -0.22513033 -0.05288461 0.1767386 -0.26190588
-0.34741035 0.16732965 -0.027338563 0.1501923 0.16032337 -0.26247674 -0.24644555 0.17739922
0.17480336 0.21837224 0.15275729 -0.26914006 0.15509352 -0.2036419 -0.21014139 0.13654572
0.19999275 0.17939828 -0.26839942 -0.048780035 0.012494892 -0.019960955 0.14254692 0.16367286
-0.04413975 -0.102792226 0.19303027 0.18851677 0.19258313 -0.35733068 0.04041291 -0.23963626
0.21071237 -0.24218513 -0.015291334 -0.18925805 -0.1912309 0.16486874 -0.2607628 -0.19706301
0.20441143 -0.25370392 0.14498617 -0.045422193 -0.0181524 -0.27698207 0.013591275 -0.30255416
0.16553599 -0.05153402 -0.20920955 0.055011146 -0.2253607 0.17551748 -0.0052263737 0.1442109
00000000: 951e 553e 714b 473e 78dd 2ebe 8e2e 4f3e
00000010: 0f9a 81be 7fc9 6d3e 53f6 44be 62ee bcbe
00000020: d160 60be 8155 3e3e 4eb0 2b3e ab83 74be
00000030: 3dca 153e c6fe 2a3e 8065 d2bb 7352 4d3e
00000040: c741 1a3e 3412 b2bc 60d9 313e caa4 093e
00000050: 9b11 4cbe 2eba 83be 2803 453e ae6f 63be
00000060: 482d 2e3c f25b 4a3e 6c0f 153e 7e40 55be
00000070: a817 45bf 50b8 1b3e 88e4 663d 852f a0be
00000080: b8c7 343e d061 74be ee39 58be 27de 433e
00000090: a968 523e 7070 b7bc ce5b 443e 5708 2f3e
000000a0: 93a1 8fbe 2020 4b3e 294e 8fbe bef0 64bf
000000b0: 927b 333e eb94 253e 1f49 7fbe 0a72 6ebe
000000c0: af31 87be 59f8 2a3e 8462 0e3e 50e3 463e
000000d0: c9ac 3c3e 1689 83be 5fb8 2a3e f853 233e
000000e0: c9d1 453e a1fc f23d 599c 9fbe 16f9 a8be
000000f0: 2cc7 5e3e f086 c1bb 1eb7 473e e5b4 1f3e
00000100: 709e e6bb 0ea7 fe3c 0379 4cbe 04d1 673d
00000110: 1427 79be a8f4 293e 1867 6dbe 8ed9 773c
00000120: f742 83be ff13 1d3e b79c 42bf dbac 513e
00000130: 6612 41be a666 4f3d 102b 453e cfbe da3c
00000140: 54b3 153d f473 89be dcb3 3f3e 0720 373e
00000150: 679a 0c3d 526b 373e 8d33 66be 7ea5 a1bc
00000160: bbc8 1c3e 1501 71be 03d7 59be 3496 553e
00000170: 9fe2 9f3c 80c3 3b3e 413a 8cbe a226 25bd
00000180: c6da 8dbe 295d 3b3e 0720 3a3e 0021 aab9
00000190: 6e46 c43e 1bb3 21be 043d 553d 5d0f 473e
000001a0: a0b8 383b 206b c83b 1834 1d3e 95d8 72be
000001b0: ec5c fe3c 4597 7bbe b59f 6b3e 5c07 073e
000001c0: e893 353e 68b9 4b3e 1a58 2a3e 030e 183e
000001d0: 452b 1f3e 9257 3c3e aa09 173e ac08 443e
000001e0: 5875 3dbe d498 883c a86f 74be 82c8 163d
000001f0: 0018 d13b 2a5f 253d 44df 033e fd08 52be
00000200: 04bb 8a3a 90ac 51bc 524a 623e a401 a4bc
00000210: 4b66 593e a78a 493e f40b 413e 379c 113e
00000220: c8ff 54be 750b 493e 46e6 133e cc07 d33c
00000230: 98ab 8cbe 809b febc 00cc f5ba 13a7 1e3e
00000240: 91f6 ccba 8c2e 51be 7ba4 46bd efd8 4e3e
00000250: adc8 053e 7a6a 163e a3b5 5abe 912d 2a3e
00000260: 25ab 60be bf94 6dbe e9e2 c639 e39a 493e
00000270: 8d2a 60be 6094 5f3b f04b ee3d 8c5c e23c
00000280: ea07 53bf ef1f 5f3e ca2c 65be 87b1 66be
00000290: 2cf1 563e df8b 403e 481c 023c fdc6 20bc
000002a0: b428 193d 24b5 b93e 2c74 4d3d 5781 74be
000002b0: 318c 213e df50 4f3e bf1b 443e 3947 363e
000002c0: 1c9f 7b3d fc21 6abe 84b9 303e c382 8ebe
000002d0: 0081 9cbe 343f 3d3e e3a6 3f3e a03d bdbe
000002e0: c452 7bbe 352d 4e3e aa74 38bd c572 043e
000002f0: 3d2f 093e fdbd 5fbe bb22 353e 14f4 4cbe
00000300: 2a64 7ebe 4a40 3f3d 84c8 1e3d 243d 7d3d
00000310: 9188 66be 889d 58bd f7fa 343e 8718 86be
00000320: c5df b1be 7758 2b3e 1ff5 dfbc 03cc 193e
00000330: cf2b 243e 5a63 86be 395c 7cbe 24a8 353e
00000340: a7ff 323e f99c 5f3e 686c 1c3e bacc 89be
00000350: d6d0 1e3e 8187 50be 4e2f 57be a4d2 0b3e
00000360: e6ca 4c3e 2fb4 373e a66b 89be 93cd 47bd
00000370: 60b7 4c3c 2885 a3bc d2f7 113e dc99 273e
00000380: e2cb 34bd bb84 d2bd baa9 453e 8a0a 413e
00000390: 8334 453e 0cf4 b6be 0288 253d 3563 75be
000003a0: fcc4 573e 61ff 77be 8188 7abc ddcc 41be
000003b0: 08d2 43be 5ad3 283e b482 85be e3ca 49be
000003c0: 3b51 513e 7be5 81be 4177 143e 9f0c 3abd
000003d0: 58b4 94bc 98d0 8dbe f0ad 5e3c 61e8 9abe
000003e0: 4482 293e 5615 53bd 073b 56be 5e53 613d
000003f0: f5c4 66be dbba 333e 0042 abbb 06ac 133e

weight f4 [256, 21]
-0.12412602 0.138773 0.029837148 -0.28646567 -0.053937826 0.012890376 0.15120858 0.22019155
0.03151109 0.008523308 0.09978315 0.25079387 -0.08857727 -0.19816166 -0.14408565 -0.2164373
-0.09874089 -0.09206538 -0.04095112 -0.0015219004 0.056710824 0.14296398 -0.13383555 -0.045156673
0.46525678 0.6545781 0.60082644 -0.1310199 0.15507631 -0.16687497 -0.0027324902 -0.13798632
-0.05880556 0.10964273 -0.08108449 -0.20154116 0.080529556 0.08211617 -0.16121265 -0.1010416
-0.14273612 0.049633596 -0.11583263 -0.016709376 0.15423545 -0.28530228 -0.43394333 -0.0294709
0.16231517 -0.07852351 0.1415344 -0.0068537025 -0.13995355 0.16605055 0.000827983 -0.20844191
0.118968084 0.20210065 0.031192333 -0.2095259 0.08850152 0.08349944 -0.08153482 -0.27230343
0.13195631 -0.03763089 -0.40910184 -0.066026516 0.11262167 0.14684758 -0.27060246 0.10058547
-0.03832184 -0.13863857 -0.07173944 0.0113503635 0.13340177 0.09433375 0.18350486 -0.1561042
-0.16884205 0.044014636 0.09398472 -0.12315699 0.22057731 0.1596499 0.19072765 -0.24085878
-0.17509958 -0.009131753 -0.07861653 0.06645483 0.17124693 -0.11254217 0.05295824 0.063296616
0.15801097 0.18883567 -0.04759386 -0.21604386 -0.030118778 0.031283572 -0.056784578 -0.23338963
-0.046305913 0.23529562 0.20264293 0.20508498 0.5360614 0.53072256 0.07604101 -0.05901757
0.23962076 0.18150987 -0.05636755 -0.1655969 0.021126634 0.21217258 0.030633718 -0.19149558
-0.11976102 -0.213999 -0.065696 0.17748831 -0.17511347 0.16723263 0.14036714 0.22382383
0.05676276 0.13707224 0.35946354 -0.07004917 0.15712592 0.13996674 -0.067038566 0.18011197
-0.22237456 0.0859699 -0.18084493 -0.002643764 -0.1337959 -0.2122529 0.06177716 0.112951025
-0.12305613 0.13150045 -0.11972612 -0.073330514 -0.11875633 -0.1159978 -0.11739737 -0.16681768
-0.0824972 -0.2038252 0.16026185 0.051461592 0.12936027 0.20696637 0.05056763 0.19465734
-0.11254433 0.012440145 -0.03347157 0.15941052 0.024902746 0.2112848 0.10053212 0.27274966
-0.32817915 0.02979445 -0.14396548 -0.11240662 0.13349448 0.112604074 0.0006848484 -0.2208663
0.04331849 0.13120547 0.032436494 0.04045357 -0.17688549 0.20972757 -0.19112298 0.18504013
-0.16606632 -0.19471128 0.016656911 -0.11880386 0.16305843 -0.23119393 -0.03477146 -0.16212864
-0.3011485 0.024094826 0.21958603 0.22965987 -0.14207052 -0.20892192 -0.106070206 0.18555602
-0.10190647 -0.1625522 0.019647732 0.047119424 -0.06650616 -0.14737329 0.07477324 0.07287896
-0.20532618 0.0654584 -0.057955336 0.01966619 -0.036795042 0.0076271975 -0.095502354 -0.26255125
0.08538458 -0.11994865 0.018142102 0.011228284 0.013758548 -0.19622365 0.1359459 0.0123141855
-0.03748165 0.19159378 0.029899716 -0.024548963 0.08313667 0.03505081 0.08653129 -0.12357436
-0.1800823 0.0970853 -0.14509544 -0.101716116 -0.029111255 -0.013561748 0.08085602 0.040969383
-0.29118493 0.05227801 -0.022253806 -0.13528383 0.21391629 0.0458083 0.020786434 -0.1297515
-0.044339374 -0.078395605 0.01399933 0.049980223 -0.08033471 0.17664228 0.2651222 0.38381276
00000000: c835 febd 821a 0e3e 096d f43c a1ab 92be
00000010: e9ed 5cbd 2832 533c 6cd6 1a3e e579 613e
00000020: c611 013d 58a5 0b3c 1c5b cc3d 0e68 803e
00000030: 0068 b5bd e4ea 4abe 308b 13be bda1 5dbe
00000040: aa38 cabd c68c bcbd 5dbc 27bd 817a c7ba
00000050: 9c49 683d 2665 123e 300c 09be 34f6 38bd
00000060: 2336 ee3e 6e92 273f c3cf 193f 152a 06be
00000070: 53cc 1e3e 46e1 2abe 9413 33bb 494c 0dbe
00000080: 19de 70bd 5e8c e03d a00f a6bd ce60 4ebe
00000090: aeec a43d 862c a83d ee14 25be e6ee cebd
000000a0: 6b29 12be 994c 4b3d a839 edbd 1ae2 88bc
000000b0: e6ef 1d3e 2413 92be d22d debe f56c f1bc
000000c0: f335 263e efd0 a0bd 65ee 103e 0695 e0bb
000000d0: fc4f 0fbe 2809 2a3e 000d 593a cc71 55be
000000e0: 8aa5 f33d 79f3 4e3e 1087 ff3c f58d 56be
000000f0: 4940 b53d c101 ab3d bafb a6bd 5b6b 8bbe
00000100: 8e1f 073e d922 1abd cc75 d1be e938 87bd
00000110: 31a6 e63d 365f 163e 688c 8abe c1ff cd3d
00000120: 5df7 1cbd 45f7 0dbe 21ec 92bd e0f6 393c
00000130: 799a 083e 0e32 c13d b3e8 3b3e c8d9 1fbe
00000140: eee4 2cbe b148 343d 107b c03d bb39 fcbd
00000150: 05df 613e 437b 233e 1c4e 433e afa3 76be
00000160: 4e4d 33be 599d 15bc b401 a1bd 7819 883d
00000170: 5b5b 2f3e 827c e6bd bdea 583d a8a1 813d
00000180: a1cd 213e 235e 413e c8f1 42bd 9a3a 5dbe
00000190: a8bb f6bc 3423 003d f296 68bd b1fd 6ebe
000001a0: 45ab 3dbd 56f1 703e a181 4f3e cc01 523e
000001b0: 523b 093f 6fdd 073f 64bb 9b3d 68bc 71bd
000001c0: 255f 753e b9dd 393e a9e1 66bd 3c92 29be
000001d0: c311 ad3c c543 593e 90f3 fa3c 6b17 44be
000001e0: 4445 f5bd 8e22 5bbe a08b 86bd 7fbf 353e
000001f0: f250 33be 083f 2b3e 67bc 0f3e 1332 653e
00000200: 1180 683d aa5c 0c3e 9b0b b83e f075 8fbd
00000210: 9ee5 203e 7153 0f3e 844b 89bd 466f 383e
00000220: 28b6 63be fd10 b03d 6a2f 39be 0043 2dbb
00000230: cb01 09be d358 59be 0c0a 7d3d de52 e73d
00000240: da04 fcbd 0ea8 063e f832 f5bd 4f2e 96bd
00000250: 8536 f3bd 4190 edbd 086e f0bd 41d2 2abe
00000260: 4bf4 a8bd 8eb7 50be af1b 243e 64c9 523d
00000270: 0577 043e feee 533e 0120 4f3d 4154 473e
00000280: a47d e6bd c0d1 4b3c 7c19 09bd 833c 233e
00000290: d800 cc3c 0b5b 583e c9e3 cd3d d8a5 8b3e
000002a0: 1907 a8be 7e13 f43c b06b 13be 7135 e6bd
000002b0: c7b2 083e f79c e63d 6687 333a c62a 62be
000002c0: bb6e 313d ba5a 063e 21dc 043d a5b2 253d
000002d0: 7821 35be d3c2 563e beb5 43be 297b 3d3e
000002e0: 4a0d 2abe 6562 47be 1374 883c 704f f3bd
000002f0: caf8 263e 1abe 6cbe 856c 0ebd 0d05 26be
00000300: 2330 9abe 8362 c53c 29db 603e f52b 6b3e
00000310: ef7a 11be a1ef 55be 563b d9bd 6602 3e3e
00000320: 57b4 d0bd 1574 26be 48f4 a03c 4c00 413d
00000330: 6234 88bd 06e9 16be b622 993d 9041 953d
00000340: 0741 52be 0e0f 863d 9362 6dbd fd1a a13c
00000350: 66b6 16bd 92ed f93b bd96 c3bd 1e6d 86be
00000360: 1cde ae3d a3a7 f5bd bf9e 943c d6f6 373c
00000370: 886b 613c daee 48be 6735 0b3e 70c1 493c
00000380: 5c86 19bd 2931 443e 40f0 f43c e81a c9bc
00000390: 8f43 aa3d 7091 0f3d 5137 b13d 8e14 fdbd
000003a0: 7f67 38be a8d4 c63d e693 14be 8a50 d0bd
000003b0: ba7a eebc 1832 5ebc d797 a53d 83cf 273d
000003c0: 3116 95be 7721 563d 9d4d b6bc d887 0abe
000003d0: df0c 5b3e 7ca1 3b3d 5048 aa3c 94dd 04be
000003e0: 349d 35bd e08d a0bd 725d 653c 10b8 4c3d
000003f0: 8686 a4bd b7e1 343e 19be 873e 1b83 c43e

bias f4 [256]
0.16955563 0.02057413 0.010115513 -0.0064465385 -0.017583175 0.016725795 -0.03522924 -0.17525196
-0.016175965 0.2147899 -0.1512133 0.19881253 0.1325195 -0.0907609 0.20901677 -0.19201782
-0.22085802 -0.051489014 0.12394742 -0.09595113 -0.15364714 -0.07279338 0.013258085 0.19912463
0.19938077 0.114130095 0.15112253 -0.16586186 -0.16753674 0.18818636 -0.08945538 0.24228694
-0.03232515 0.095766336 0.031708475 0.1602842 -0.059686333 0.1287237 -0.14450483 0.22717558
-0.1580506 -0.038600132 0.06467241 0.14024936 -0.040740967 -0.033150434 -0.098626584 -0.19686592
-0.17965917 0.22354011 0.16963826 -0.099194996 -0.0030442218 -0.14619267 -0.17165342 0.12697986
-0.030348262 0.18234609 0.23984887 -0.008587053 0.049081612 0.10317086 0.022548575 -0.10159392
-0.02025423 -0.12795323 0.14361049 -0.15995519 0.09595151 -0.054484945 0.15838107 0.11435844
0.123227924 0.15658715 -0.17699684 0.056543812 0.18878709 0.24283028 -0.17660902 -0.114327975
0.18958595 0.08042569 -0.059543323 0.21119435 -0.062089127 0.09305944 0.039925948 0.1835518
0.09932261 -0.0661737 -0.054623708 0.16059794 0.20841594 0.09430378 -0.16837412 -0.078656286
-0.18763599 0.24352282 0.1365348 -0.07389789 0.22428963 -0.007343486 0.065763995 0.09056443
-0.010389463 -0.10781691 -0.089861505 0.041165248 -0.043632973 -0.17709953 0.17622262 0.11280475
0.10015569 0.22451566 -0.15237091 0.10179057 -0.061123535 0.15087998 0.1606898 0.16091748
0.12921244 -0.16728537 -0.082240954 -0.1681244 0.14395635 0.18020186 -0.012532296 0.10385059
0.12762782 0.11478736 -0.18619157 0.13639891 -0.14784929 -0.07831233 0.20663157 0.023887692
0.16778715 -0.1970796 -0.18428807 0.058606938 -0.0020232338 -0.19916604 0.004428419 0.07454419
0.08559765 0.12888141 -0.14196357 -0.04313023 0.0035768894 0.015854537 -0.13756339 -0.11274476
-0.07252485 -0.16550717 0.12433763 -0.09843325 0.13012396 0.10481274 -0.14403158 -0.122886315
-0.035473786 0.14100146 0.10036254 0.17348154 -0.029296853 0.19184405 -0.12669037 -0.10357619
0.20636858 -0.11485509 -0.22148667 -0.052635107 0.1719095 -0.19039793 0.11043837 0.09782805
0.10311793 0.07439761 -0.18817806 0.03304939 -0.018754622 -0.10408713 -0.041823924 0.069199115
-0.01998099 0.0131249875 -0.14025226 -0.08792794 -0.096669696 -0.11491786 0.085039176 -0.11945421
-0.17125326 0.008466625 -0.06586073 0.09793948 -0.17633353 0.19788618 -0.020906433 0.00016321242
-0.11990426 -0.03468023 0.2425543 0.06934556 0.12247802 0.07610383 -0.0056043305 0.019215671
-0.035493415 0.15329646 0.15806401 -0.009726405 -0.08097775 -0.17069171 0.15969913 0.11167988
0.14652902 -0.18785442 -0.15488604 -0.009163578 0.13983786 0.18276483 0.0125087425 0.15975419
-0.08210208 -0.12513834 -0.114977926 -0.101723194 0.06911413 -0.09891381 -0.052066106 0.11857117
0.0018744041 -0.10931427 -0.17539525 -0.10044321 -0.13318785 -0.018775338 -0.002641365 -0.04213796
-0.058353554 0.18407853 0.045920018 0.08036248 -0.041904137 0.03816613 -0.044784665 -0.03109211
-0.015518233 0.23996088 -0.21309337 -0.14572975 0.057754837 0.16043311 -0.14168446 0.15488353
00000000: fe9f 2d3e 148b a83c 89bb 253c 7c3d d3bb
00000010: 970a 90bc 8904 893c 894c 10bd 4075 33be
00000020: 7583 84bc e2f1 5b3e a9d7 1abe 8395 4b3e
00000030: 31b3 073e dae0 b9bd 7e08 563e 52a0 44be
00000040: 9b28 62be 25e6 52bd 25d8 fd3d 0782 c4bd
00000050: ad55 1dbe b214 95bd 7038 593c 54e7 4b3e
00000060: 792a 4c3e 0abd e93d ddbf 1a3e b1d7 29be
00000070: c08e 2bbe edb3 403e 6234 b7bd 111a 783e
00000080: 6067 04bd 2421 c43d bfe0 013d 8b21 243e
00000090: a879 74bd 25d0 033e 13f9 13be b7a0 683e
000000a0: 04d8 21be 2c1b 1ebd f872 843d 879d 0f3e
000000b0: 00e0 26bd c0c8 07bd bcfc c9bd 3897 49be
000000c0: 93f8 37be b3e7 643e a7b5 2d3e bf26 cbbd
000000d0: 9181 47bb 88b3 15be eac5 2fbe 0207 023e
000000e0: eb9c f8bc efb8 3a3e f19a 753e b6b0 0cbc
000000f0: cd09 493d 3e4b d33d cab7 b83c 7910 d0bd
00000100: 33ec a5bc 2c06 03be a10e 133e 4bcb 23be
00000110: 3a82 c43d 9b2b 5fbd a62e 223e c234 ea3d
00000120: ec5e fc3d 6258 203e a93e 35be 7c9a 673d
00000130: 6751 413e 80a8 783e ffd8 34be c924 eabd
00000140: d222 423e 39b6 a43d b3e3 73bd 5543 583e
00000150: 2b51 7ebd f395 be3d 6489 233d 01f5 3b3e
00000160: a769 cb3d 1486 87bd 1cbd 5fbd c973 243e
00000170: fd6a 553e 5722 c13d 446a 2cbe 8c16 a1bd
00000180: a623 40be 0c5e 793e c7cf 0b3e c757 97bd
00000190: 2eac 653e a0a1 f0bb 46af 863d d879 b93d
000001a0: 9138 2abc 1dcf dcbd 4f09 b8bd e49c 283d
000001b0: 7db8 32bd 9459 35be b473 343e 2d06 e73d
000001c0: 6d1e cd3d 6fe7 653e 1f07 1cbe 9377 d03d
000001d0: ac5c 7abd 4880 1a3e de8b 243e 8dc7 243e
000001e0: 4450 043e db4c 2bbe f26d a8bd cd28 2cbe
000001f0: 4b69 133e d686 383e 4254 4dbc 9eaf d43d
00000200: deb0 023e a315 eb3d 01a9 3ebe 28ac 0b3e
00000210: ce65 17be 3762 a0bd 3a97 533e 1fb0 c33c
00000220: 65d0 2b3e 3ccf 49be 03b6 3cbe d40d 703d
00000230: 3b98 04bb 2ff2 4bbe 451c 913b a0aa 983d
00000240: d24d af3d 7df9 033e e65e 11be 53a9 30bd
00000250: 3f6a 6a3b 60e1 813c 6bdd 0cbe bae6 e6bd
00000260: e987 94bd b67a 29be baa4 fe3d 5f97 c9bd
00000270: 373f 053e 10a8 d63d 047d 13be d2ab fbbd
00000280: f64c 11bd b062 103e e08a cd3d 25a5 313e
00000290: f4ff efbc c472 443e 1fbb 01be c11f d4bd
000002a0: 4952 533e 2539 ebbd 67cd 62be e997 57bd
000002b0: 0b09 303e adf7 42be 832d e23d 135a c83d
000002c0: 7e2f d33d c65d 983d c0b1 40be cc5e 073d
000002d0: 4ba3 99bc a22b d5bd 904f 2bbd 44b8 8d3d
000002e0: 2caf a3bc 300a 573c 4a9e 0fbe 9013 b4bd
000002f0: c3fa c5bd 0e5a ebbd 0529 ae3d 69a4 f4bd
00000300: 045d 2fbe 99b7 0a3c fee1 86bd 7e94 c83d
00000310: c790 34be ada2 4a3e f843 abbc 0024 2b39
00000320: 5d90 f5bd db0c 0ebd 2860 783e 0c05 8e3d
00000330: c2d5 fa3d 53dc 9b3d 88a4 b7bb 2f6a 9d3c
00000340: 8b61 11bd bff9 1c3e 88db 213e 805b 1fbc
00000350: aad7 a5bd cfc9 2ebe 2b88 233e 6cb8 e43d
00000360: b40b 163e e95c 40be 729a 1ebe d522 16bc
00000370: a831 0f3e b426 3b3e 78f1 4c3c 9a96 233e
00000380: 2325 a8bd 4424 00be 8c79 ebbd 4054 d0bd
00000390: b68b 8d3d 5393 cabd 4543 55bd 71d5 f23d
000003a0: 91ae f53a 29e0 dfbd d09a 33be 2bb5 cdbd
000003b0: 6562 08be bdce 99bc c01a 2dbb db98 2cbd
000003c0: 2304 6fbd 157f 3c3e a116 3c3d 1595 a43d
000003d0: aca3 2bbd 1754 1c3d 2070 37bd e1b4 febc
000003e0: 3040 7ebc 4eb8 753e 2635 5abe 2e3a 15be
000003f0: 5690 6c3d 9448 243e bb15 11be ca99 1e3e

weight f4 [256, 256]
-0.028865099 -0.036249757 0.049268268 -0.020820655 -0.03581208 -0.025803328 -0.024101123 0.009302191
0.053923912 -0.052585185 -0.05202941 0.048413046 0.05493921 0.0010258481 0.02468735 -0.05411508
0.038121775 0.04396283 0.04581353 0.05816842 -0.021363907 -0.0006981045 -0.051280297 0.016000614
-0.0017154962 -0.036305584 -0.030891515 0.049380712 -0.013359569 -0.04513307 0.046851635 -0.05404091
-0.00038027018 0.052673094 -0.04095681 -0.018511191 0.046809636 0.052680254 -0.001173988 0.050226122
-0.024877526 -0.008304365 0.04673487 0.06238898 0.054700024 -0.0056107864 -0.041019037 0.012451686
-0.0120545775 -0.017755106 -0.025397621 -0.02566918 -0.045568436 0.034046605 0.024594687 0.016807854
-0.030273221 0.05003544 -0.018360585 0.056020677 0.041718528 0.020056412 0.0024025664 -0.019294575
0.014505915 0.0023491904 -0.052659474 0.017566755 -0.057803884 -0.030278854 0.009327322 -0.03684497
-0.032962926 0.030484296 -0.055136904 0.041797124 -0.0053331256 -0.002833262 -0.009213448 -0.06098119
0.018082745 -0.017993592 0.029735751 -0.0554042 0.03159298 -0.05361867 -0.033389904 0.043265708
-0.020088553 -0.04053732 -0.047324248 -0.023904435 0.04052961 0.04447242 0.03805673 0.01724992
-0.015725322 0.008023433 0.03507237 0.026363306 -0.05797112 -0.017711066 0.0011710152 -0.055960074
0.030519031 -0.0010848567 -0.030832984 -0.038971215 0.044409864 0.03114792 -0.035864606 0.0515834
-0.03519787 -0.024445452 -0.05864378 0.03502883 -0.04265046 0.010249577 -0.057167 0.054764517
0.025298916 0.044661738 0.009974703 -0.025725015 0.00641419 -0.0028149113 -0.05735586 0.0007959977
-0.04241672 -0.017617583 0.026651882 0.0090066865 0.06070894 -0.040412918 0.04895542 -0.027811073
-0.020265989 -0.048934385 -0.051288433 0.053240784 -0.033820443 0.03846219 0.05489687 0.04612436
-0.04204704 -0.011158355 -0.010322437 -0.024398409 -0.037757277 -0.049037486 -0.001089789 -0.056867152
0.03363555 -0.0046381205 -0.022515744 -0.047300413 0.0130627975 -0.042556174 0.03908371 0.007908113
0.0339972 -0.044076532 -0.04806175 0.03471861 -0.019090474 -0.034551546 -0.058757387 0.023386866
-0.044061534 0.035831936 0.05054824 -0.036287718 -0.0479076 0.055488095 0.009546988 -0.014782153
0.048840746 -0.061560534 -0.057515234 0.025487773 -0.02885151 -0.041635275 0.04762789 0.035968125
0.058247462 0.033833414 -0.013847768 -0.057025537 -0.056547873 -0.018164605 0.030995816 -0.047828466
-0.017170958 0.014775209 0.059600383 -0.0008335039 0.023676604 -0.0039282218 -0.04629068 0.006238438
-0.02393835 0.03597927 -0.041423537 0.028348729 -0.021107867 -0.042426854 0.0060629547 0.007854223
-0.054256104 0.057993717 0.01165662 0.06175729 -0.0016355515 0.053362235 0.05064635 0.049784943
0.054061458 0.049634688 -0.0045570657 -0.014508925 0.056923002 -0.036381297 -0.013870917 -0.020516716
-0.058724225 -0.036351584 -0.0086881295 -0.050647303 0.011275515 0.04351881 -0.01417388 -0.05706858
0.04779233 -0.04520022 0.046992518 -0.046281353 0.021802776 -0.054973558 0.060045667 -0.05087349
0.057479985 0.042878985 0.009788394 -0.015215784 -0.027661301 0.014662802 -0.060229547 0.04333634
-0.0019534752 -0.030799016 -0.04879979 -0.021855034 -0.060262047 -0.029726215 0.050778955 -0.024661079
00000000: 8076 ecbc a07a 14bd 86cd 493d 1490 aabc
00000010: b0af 12bd 8061 d3bc b86f c5bc 3868 183c
00000020: 52df 5c3d 9063 57bd ca1c 55bd c24c 463d
00000030: f007 613d c075 863a 203d ca3c c6a7 5dbd
00000040: 9425 1c3d 5e12 343d f8a6 3b3d 0242 6e3d
00000050: 5c03 afbc 0001 37ba 4a0b 52bd b813 833c
00000060: 80da e0ba 2ab5 14bd 3410 fdbc 6e43 4a3d
00000070: 18e2 5abc 74dd 38bd 80e7 3f3d 005a 5dbd
00000080: 005f c7b9 bebf 573d 54c2 27bd c8a4 97bc
00000090: 76bb 3f3d 40c7 573d 80e0 99ba e8b9 4d3d
000000a0: f4cb cbbc 080f 08bc 106d 3f3d 968b 7f3d
000000b0: 220d 603d b0da b7bb 9403 28bd 2802 4c3c
000000c0: 9080 45bc 2873 91bc ac0e d0bc 2c48 d2bc
000000d0: f8a5 3abd 7474 0b3d cc7a c93c a0b0 893c
000000e0: 8cff f7bc f6f1 4c3d f068 96bc f075 653d
000000f0: 0ce1 2a3d 584d a43c 6074 1d3b a80f 9ebc
00000100: 38aa 6d3c e0f4 193b 76b1 57bd 28e8 8f3c
00000110: c4c3 6cbd 5c0b f8bc a0d1 183c c0ea 16bd
00000120: 2204 07bd 34ba f93c 3cd7 61bd 7633 2b3d
00000130: 80c1 aebb 40ae 39bb 00f4 16bc 6ac7 79bd
00000140: 4422 943c 4c67 93bc 6498 f33c 84ef 62bd
00000150: a467 013d 409f 5bbd dac3 08bd 6237 313d
00000160: c090 a4bc 760a 26bd 12d7 41bd 3cd3 c3bc
00000170: 6002 263d b628 363d 60e1 1b3d b44f 8d3c
00000180: 64d2 80bc b874 033c 0ca8 0f3d dcf7 d73c
00000190: 2073 6dbd cc16 91bc c07c 993a 6436 65bd
000001a0: 0c03 fa3c c031 8eba 7495 fcbc 48a0 1fbd
000001b0: 1ee7 353d ec29 ff3c c4e6 12bd 1e49 533d
000001c0: a42b 10bd d441 c8bc 7634 70bd 647a 0f3d
000001d0: 40b2 2ebd d8ed 273c f227 6abd c250 603d
000001e0: ac3f cf3c 3aef 363d f06c 233c 44bd d2bc
000001f0: 202e d23b 607a 38bb faed 6abd 80aa 503a
00000200: 28bd 2dbd c052 90bc 0c55 da3c c890 133c
00000210: f0a9 783d 0488 25bd 7a85 483d 0cd4 e3bc
00000220: dc04 a6bc 6c6f 48bd d213 52bd 0213 5a3d
00000230: 4e87 0abd 888a 1d3d 8adb 603d e6ec 3c3d
00000240: 8439 2cbd 88d1 36bc 701f 29bc 2cdf c7bc
00000250: 60a7 1abd 88db 48bd 40d7 8eba 88ed 68bd
00000260: 6ec5 093d 60fb 97bb f072 b8bc 14be 41bd
00000270: 5805 563c 624f 2ebd 3e16 203d 0891 013c
00000280: a640 0b3d 9889 34bd 66dc 44bd 1a35 0e3d
00000290: a063 9cbc ec85 0dbd 96ab 70bd d095 bf3c
000002a0: de79 34bd 82c4 123d ac0b 4f3d 6ea2 14bd
000002b0: c23a 44bd 7c47 633d f86a 1c3c d830 72bc
000002c0: 3c0d 483d e626 7cbd 1895 6bbd bccb d03c
000002d0: 005a ecbc c089 2abd 7615 433d 5053 133d
000002e0: e494 6e3d e894 0a3d c0e1 62bc 9c93 69bd
000002f0: be9e 67bd f0cd 94bc f0ea fd3c c8e7 43bd
00000300: 1caa 8cbc b813 723c 881f 743d 807f 5aba
00000310: 70f5 c13c 50b8 80bb 4c9b 3dbd d06b cc3b
00000320: 5c1a c4bc 005f 133d baab 29bd 983b e83c
00000330: 68ea acbc c8c7 2dbd c0ab c63b 00af 003c
00000340: a63b 5ebd d28a 6d3d 68fb 3e3c 36f5 7c3d
00000350: 0060 d6ba 5c92 5a3d 8c72 4f3d 4ceb 4b3d
00000360: 8c6f 5d3d be4d 4b3d 7053 95bb d8b6 6dbc
00000370: 1828 693d 8e04 15bd d842 63bc ac12 a8bc
00000380: d088 70bd 66e5 14bd a858 0ebc 8c73 4fbd
00000390: f0bc 383c c840 323d 9039 68bc bec0 69bd
000003a0: e4c1 433d de23 39bd 3a7b 403d 8491 3dbd
000003b0: bc9b b23c f42b 61bd 72f2 753d b860 50bd
000003c0: 2270 6b3d e0a1 2f3d 805f 203c a04b 79bc
000003d0: f499 e2bc 403c 703c 42b3 76bd 7281 313d
000003e0: e005 00bb 384e fcbc 4ae2 47bd 5409 b3bc
000003f0: 56d5 76bd 6484 f3bc 98fd 4f3d 0806 cabc
