astar/checkpoints1/sac_actor_250.pth (torch, 290116 bytes, 6 tensors)

weight f4 [256, 18]
-0.19769461 -0.21894103 -0.098265484 -0.083523005 0.1365503 0.14298876 0.16866776 0.061700027
0.04262071 0.07547638 -0.0036462932 0.16990666 0.2009433 -0.009823531 -0.18822095 -0.07689074
-0.21392551 0.20246027 -0.064881906 0.083591565 -0.1956624 0.2179025 -0.14207438 0.15071775
-0.046465248 0.11286546 -0.21545056 -0.020989493 -0.018988863 -0.116432495 0.17719139 0.1410018
-0.13039558 -0.22142494 -0.10874733 -0.012645826 0.27618703 -0.011550852 0.2599113 0.33349642
-0.009340994 0.01881325 0.23136592 -0.070802815 -0.11926768 0.06703424 -0.10028287 0.22122453
0.13026969 -0.16096868 0.10258512 0.1689113 -0.13944173 0.053022698 0.057445083 0.1764945
-0.044970125 -0.11038928 0.006815688 -0.19173679 0.05530501 -0.113056056 -0.05782525 -0.19347163
-0.06842724 0.06785985 0.0006235242 0.23027281 0.18375789 -0.14521767 -0.10567595 0.18815254
-0.16531828 0.21836482 0.15776832 -0.059327878 0.0046393736 0.09229744 -0.09852608 -0.24107288
0.10950512 0.0747169 -0.14540625 0.099454165 -0.008699864 -0.21086782 -0.16303533 -0.2228904
-0.04711096 0.09568502 0.15559167 -0.08594495 -0.023694554 -0.044820663 -0.013655696 0.20794158
-0.13908991 0.12216789 0.1791442 -0.0071134744 -0.16423827 0.24565631 -0.035197675 0.13357745
0.029661521 -0.0627795 0.17282243 -0.12775373 -0.0030108914 -0.050833136 -0.040021807 0.22699824
0.18486167 -0.028593792 -0.24553749 0.026108384 0.18371288 0.2353162 -0.17205971 0.20342815
0.045896485 0.16298206 0.10936935 0.07149817 0.20840551 0.0925834 0.05921994 -0.07325353
-0.21618347 -0.062853366 0.08221407 -0.036793947 -0.01565826 -0.22485119 -0.044165373 -0.045857817
-0.0923883 0.043169126 -0.2056222 -0.10549714 0.2183565 0.19340752 -0.1081727 -0.068731904
0.039506428 -0.24721642 -0.010635608 0.13574845 0.04553685 0.04680631 0.13263193 -0.15013176
0.22745879 -0.1900201 0.01464564 0.08472806 -0.0806966 0.1707763 0.02518551 0.09603514
0.19423093 -0.002002284 -0.10066804 0.2606498 0.27450398 0.3220418 0.39368144 0.18521602
-0.024931924 -0.020235958 0.056291174 0.19858013 -0.17777781 0.111201994 -0.16937478 0.033364043
0.20042174 0.16172566 -0.2336766 0.005909547 -0.09914844 0.13585536 -0.06319036 -0.23051906
-0.036997072 -0.29095164 0.1742385 0.12764247 0.20877025 -0.17088573 0.04960627 0.17233825
0.08771746 0.053249016 0.06393705 -0.09069358 0.0046851635 0.09928088 -0.22230397 0.10322817
-0.20185181 -0.21379545 -0.10174519 -0.12427027 -0.20727432 -0.106646076 0.1940978 -0.12698293
-0.20276389 0.13510157 0.14549829 0.20066158 0.033642247 -0.19933411 -0.055025265 0.024839595
-0.04993286 -0.021639617 -0.06092101 -0.09005285 -0.32828826 -0.2407136 0.015925547 0.03554883
0.17789072 0.115623295 0.24592485 0.08286497 0.21046294 0.07095902 0.19006474 -0.14806992
-0.21334709 -0.062315688 0.029471776 0.21777871 -0.10494777 0.06612012 0.29359466 0.15457526
0.18830918 -0.20402561 -0.17630804 0.040063996 0.08698132 -0.055409994 0.17224185 -0.16356327
0.057416692 0.19839002 0.22432823 0.09247677 0.15915394 -0.09663705 0.060055945 -0.010534525
00000000: 7570 4abe 1432 60be 6a3f c9bd 1c0e abbd
00000010: d8d3 0b3e a56b 123e 3eb7 2c3e 2bb9 7c3d
00000020: 0e93 2e3d 5c93 9a3d a6f6 6ebb 03fc 2d3e
00000030: 15c4 4d3e e0f2 20bc febc 40be e478 9dbd
00000040: 4a0f 5bbe bf51 4f3e cee0 84bd 0e32 ab3d
00000050: b95b 48be d521 5f3e f27b 11be c155 1a3e
00000060: 5852 3ebd 0226 e73d 129f 5cbe 28f2 abbc
00000070: 888e 9bbc 2974 eebd a971 353e c762 103e
00000080: 6b86 05be 38bd 62be ecb6 debd 7030 4fbc
00000090: 6368 8d3e c93f 3dbc 1813 853e 0bc0 aa3e
000000a0: f80a 19bc 3f1e 9a3c 30eb 6c3e 1101 91bd
000000b0: 9d42 f4bd 3f49 893d 1b61 cdbd af88 623e
000000c0: 6b65 053e f9d4 24be 2618 d23d 15f7 2c3e
000000d0: d0c9 0ebe 542e 593d 894b 6b3d f9ba 343e
000000e0: 9832 38bd c613 e2bd 2356 df3b a656 44be
000000f0: 8287 623d ef89 e7bd 2bda 6cbd 6d1d 46be
00000100: 9523 8cbd 1bfa 8a3d 0074 233a a3cc 6b3e
00000110: 072b 3c3e f1b3 14be a26c d8bd 0fab 403e
00000120: 3249 29be 079b 5f3e 058e 213e ca01 73bd
00000130: e305 983b 7106 bd3d 0bc8 c9bd cfdb 76be
00000140: 3844 e03d 2d05 993d 60e5 14be a0ae cb3d
00000150: e089 0ebc bced 57be bcf2 26be 623d 64be
00000160: 6cf7 40bd 82f6 c33d 6c53 1f3e e803 b0bd
00000170: 151b c2bc df95 37bd 24bc 5fbc a3ee 543e
00000180: 966d 0ebe 2933 fa3d 9471 373e 2618 e9bb
00000190: 142e 28be 548d 7b3e 702b 10bd 87c8 083e
000001a0: b8fc f23c 8a92 80bd 5df8 303e e0d1 02be
000001b0: 6052 45bb 6836 50bd e8ed 23bd 3a72 683e
000001c0: 614c 3d3e 873d eabc 2e6e 7bbe 40e1 d53c
000001d0: 3b1f 3c3e bbf6 703e 6c30 30be 784f 503e
000001e0: f4fd 3b3d c5e4 263e 0afd df3d a26d 923d
000001f0: 4168 553e 5e9c bd3d 9c90 723d f205 96bd
00000200: 335f 5dbe 44b9 80bd da5f a83d 40b5 16bd
00000210: c045 80bc 643f 66be c0e6 34bd 68d5 3bbd
00000220: 1436 bdbd 1cd2 303d a08e 52be e20e d8bd
00000230: d998 5f3e 9f0c 463e a689 ddbd 50c3 8cbd
00000240: 7ed1 213d 4d26 7dbe f940 2ebc a401 0b3e
00000250: d984 3a3d f9b7 3f3d aad0 073e 24bc 19be
00000260: f5ea 683e a194 42be 44f4 6f3c e885 ad3d
00000270: 4244 a5bd fbdf 2e3e d851 ce3c 12ae c43d
00000280: 79e4 463e c038 03bb 0c2b cebd e473 853e
00000290: c98b 8c3e aae2 a43e 9d90 c93e 45a9 3d3e
000002a0: 093e ccbc e1c5 a5bc 9391 663d 9758 4b3e
000002b0: 630b 36be dfbd e33d 9570 2dbe bca8 083d
000002c0: 5b3b 4d3e 699b 253e eb48 6fbe e0a4 c13b
000002d0: 560e cbbd ab1d 0b3e f369 81bd 300d 6cbe
000002e0: 3e8a 17bd 9df7 94be 946b 323e b5b4 023e
000002f0: dec7 553e abfc 2ebe f22f 4b3d 7079 303e
00000300: 36a5 b33d a41b 5a3d 6ef1 823d 8ebd b9bd
00000310: 0086 993b c653 cb3d a7a3 63be 4a69 d33d
00000320: 3eb2 4ebe 32ed 5abe c85f d0bd 6981 febd
00000330: b83f 54be 4269 dabd 93c1 463e d007 02be
00000340: 56a1 4fbe 1158 0a3e 81fd 143e 3b7a 4d3e
00000350: 74cc 093d 3e1e 4cbe 2c62 61bd 687c cb3c
00000360: 6686 4cbd 9145 b1bc 4f88 79bd a16d b8bd
00000370: 6615 a8be a07d 76be 4b76 823c a69b 113d
00000380: fc28 363e e8cb ec3d b9d3 7b3e 1cb5 a93d
00000390: 9983 573e f652 913d 55a0 423e a49f 17be
000003a0: a977 5abe bc3e 7fbd cb6e f13c 6201 5f3e
000003b0: dbee d6bd fc69 873d 0a52 963e fa48 1e3e
000003c0: 1fd4 403e 17ec 50be 188a 34be 251a 243d
000003d0: 4323 b23d 97f5 62bd 2b60 303e 217d 27be
000003e0: c42d 6b3d c126 4b3e 4db6 653e 7664 bd3d
000003f0: 40f9 223e a5e9 c5bd 39fd 753d 0099 2cbc

bias f4 [256]
0.098726526 0.1424538 -0.1115345 0.055674244 -0.21182504 -0.16754709 -0.1857482 -0.026514605
-0.09149991 0.19235836 -0.073242776 -0.15184936 -0.020055922 -0.07686727 0.09257832 0.1728804
-0.19880685 -0.007186681 0.19490628 0.23250124 0.0012293474 0.24671729 -0.10113919 -0.1273561
-0.0064242384 0.050194565 0.18541393 0.23318006 0.217277 -0.034276858 -0.05942226 0.04165487
-0.1430249 0.18749107 -0.024265429 -0.11963435 -0.110133454 0.17740789 0.17335339 0.10286634
0.10684833 0.11360172 -0.13297507 -0.040091723 -0.0808423 -0.1977331 0.16352211 -0.12116621
0.13242239 0.21403149 -0.21939959 -0.13381091 -0.10718386 0.22792278 0.15518123 0.014233664
-0.014105746 0.23384368 -0.17559235 -0.028829275 0.18919171 -0.00044806473 -0.12567183 0.19630319
0.22774962 0.043454483 -0.1265704 -0.14252514 -0.17665155 -0.15902661 -0.03759065 -0.054420695
0.0130639365 -0.22441041 -0.13001555 -0.18120533 -0.16489148 0.13258794 0.12729298 -0.07715018
0.19167157 0.08794337 0.14767395 -0.21902394 0.058719795 -0.22879612 -0.048495315 0.20161165
-0.20808035 -0.20888981 0.027548725 -0.062418044 -0.04181318 0.07513694 -0.022949964 0.036341656
-0.075455084 0.06764501 0.08975049 0.095762126 -0.21646906 -0.04335346 -0.07553503 0.027144168
0.22290823 0.20180632 0.15274443 0.015328989 0.15909426 -0.1315676 0.061649248 -0.07947335
-0.1564519 0.054245383 0.13131921 -0.11092301 0.025914753 -0.1838212 -0.12207958 -0.21431364
0.05851915 -0.040579714 0.047384653 -0.07727443 -0.07705603 0.1385002 -0.20639819 0.2104667
0.036773235 -0.056472767 0.19571356 -0.030662604 -0.12651654 0.02313029 -0.20614742 -0.06819151
0.13045274 0.009606904 0.20759116 -0.036777347 0.026055519 0.2110024 -0.11206768 -0.17934729
-0.08989994 0.11720656 -0.12937291 -0.047697853 -0.15165123 0.25844464 0.23725292 0.12987565
-0.09494372 -0.08862488 -0.044227015 0.122112826 0.2674653 -0.07307902 -0.16281995 -0.15224026
-0.058151577 -0.21003026 -0.21281637 -0.14543137 0.108948156 0.15768369 0.119644195 0.26082698
0.16474482 -0.1117774 -0.121944666 0.2191339 0.0035143755 0.16251504 0.023613166 0.18975438
0.034426354 -0.1313781 0.036114566 0.0433175 0.23215999 0.15759985 0.034437243 0.11285896
0.211815 -0.028205333 -0.0992666 0.18274988 -0.036329076 -0.10286375 -0.038467854 -0.19464487
0.060303107 -0.03277377 -0.055452034 0.17128748 0.36392006 -0.06527419 -0.16605256 0.0066521782
-0.009695634 0.12922692 -0.04085033 -0.10535598 0.02317977 -0.13250884 -0.11230303 0.17028368
-0.15698777 0.22261626 -0.031201849 -0.037845053 0.22014831 0.23907542 -0.105257064 -0.11938589
0.15728547 -0.1609247 -0.22776942 -0.14575255 0.10645346 -0.0960269 0.16575542 -0.16373621
0.10032855 -0.01795312 -0.1419836 -0.095873415 -0.16450904 0.031170353 0.12417521 -0.17042889
-0.06424464 0.006353557 -0.23430422 -0.046485737 0.19674285 0.11496167 0.17491762 -0.13858733
0.12597898 0.058527596 -0.0013906392 -0.23505478 -0.014803444 -0.04476425 0.0639792 0.23460273
-0.23337893 0.027991913 0.23720552 -0.18407936 0.06313026 0.18422332 0.16227253 -0.1241591
00000000: 2231 ca3d 69df 113e 336c e4bd ad0a 643d
00000010: aae8 58be 7791 2bbe c734 3ebe 2835 d9bc
00000020: 4e64 bbbd 97f9 443e 4f00 96bd 667e 1bbe
00000030: 514c a4bc 966c 9dbd b499 bd3d 8f07 313e
00000040: 0694 4bbe 407e ebbb 8395 473e ce14 6e3e
00000050: 0e22 a13a 75a3 7c3e 1022 cfbd a369 02be
00000060: 6b82 d2bb d198 4d3d 26dd 3d3e c1c6 6e3e
00000070: dd7d 5e3e e465 0cbd c164 73bd 4c9e 2a3d
00000080: 1f75 12be a9fd 3f3e 4bc8 c6bc db02 f5bd
00000090: a68d e1bd 6aaa 353e 8d83 313e 96ab d23d
000000a0: 4cd3 da3d 05a8 e83d 9e2a 08be 3837 24bd
000000b0: a690 a5bd 8c7a 4abe 5772 273e fd25 f8bd
000000c0: bc99 073e 122b 5b3e 49aa 60be ba05 09be
000000d0: 3683 dbbd 9764 693e d4e7 1e3e 5034 693c
000000e0: c91b 67bc b874 6f3e 7bce 33be 5f2b ecbc
000000f0: 79bb 413e 3bea eab9 1eb0 00be b403 493e
00000100: 3237 693e 54fd 313d ac9b 01be 1cf2 11be
00000110: 25e4 34be dfd7 22be a7f8 19bd 3ce8 5ebd
00000120: 1f0a 563c d8cb 65be cc22 05be e48d 39be
00000130: 50d9 28be 22c5 073e 1759 023e ea00 9ebd
00000140: 8d45 443e a71b b43d d737 173e d047 60be
00000150: 2b84 703d 8849 6abe 06a3 46bd 4973 4e3e
00000160: 0413 55be 36e7 55be ddad e13c 10aa 7fbd
00000170: 4c44 2bbd 65e1 993d 9001 bcbc fdda 143d
00000180: 3288 9abd 7889 8a3d 1bcf b73d ef1e c43d
00000190: 11aa 5dbe 6693 31bd 1cb2 9abd 725d de3c
000001a0: 0e42 643e 51a6 4e3e 0969 1c3e 7126 7b3c
000001b0: 9be9 223e a8b9 06be ec83 7c3d ecc2 a2bd
000001c0: ed34 20be 6830 5e3d 8b78 063e 9a2b e3bd
000001d0: 2d4b d43c a03b 3cbe dc04 fabd 0975 5bbe
000001e0: c7b1 6f3d ea36 26bd 6916 423d 0e42 9ebd
000001f0: 8dcf 9dbd ffd2 0d3e 0c5a 53be 9584 573e
00000200: 889f 163d fd4f 67bd 2369 483e 2430 fbbc
00000210: 8d8d 01be bc7b bd3c 4f18 53be fea7 8bbd
00000220: 6795 053e 4766 1d3c c792 543e d8a3 16bd
00000230: 6272 d53c 0311 583e bd83 e5bd d1a6 37be
00000240: 761d b8bd fe09 f03d 557a 04be d35e 43bd
00000250: 764a 1bbe db52 843e 6ef2 723e 1ffe 043e
00000260: da71 c2bd f680 b5bd 6327 35bd 4a16 fa3d
00000270: 36f1 883e 74aa 95bd 46ba 26be dfe4 1bbe
00000280: 5930 6ebd 2c12 57be 89ec 59be f6eb 14be
00000290: 3620 df3d d577 213e 0408 f53d 1d8b 853e
000002a0: deb2 283e 8deb e4bd 20be f9bd a364 603e
000002b0: 7051 663b 586a 263e 6670 c13c f94e 423e
000002c0: a602 0d3d fb87 06be deec 133d b16d 313d
000002d0: 59bb 6d3e db61 213e 110e 0d3d 9922 e73d
000002e0: 08e6 583e df0e e7bc 4a4c cbbd c922 3b3e
000002f0: cccd 14bd 3baa d2bd 7890 1dbd fc50 47be
00000300: 6400 773d ca3d 06bd ac21 63bd fc65 2f3e
00000310: bb53 ba3e 79ae 85bd af09 2abe 84fa d93b
00000320: 70da 1ebc 1054 043e ad52 27bd e0c4 d7bd
00000330: 80e3 bd3c 66b0 07be 22ff e5bd d85e 2e3e
00000340: 67c1 20be 84f5 633e 059b ffbc 6a03 1bbd
00000350: 8f6e 613e 30d0 743e 0491 d7bd 9780 f4bd
00000360: 710f 213e 72c9 24be 633c 69be 2840 15be
00000370: 4604 da3d c0a9 c4bd cabb 293e 77aa 27be
00000380: 0e79 cd3d 6c12 93bc 2664 11be 4859 c4bd
00000390: 0f75 28be f858 ff3c 934f fe3d e984 2ebe
000003a0: b292 83bd 8031 d03b 72ed 6fbe d467 3ebd
000003b0: f576 493e 0671 eb3d 9b1d 333e d6e9 0dbe
000003c0: a200 013e a2ba 6f3d 1c46 b6ba 33b2 70be
000003d0: 258a 72bc b85a 37bd 8707 833d b33b 703e
000003e0: e3fa 6ebe 4c4f e53c 01e6 723e 4d7f 3cbe
000003f0: 704a 813d 0aa5 3c3e c52a 263e 2047 febd

weight f4 [256, 256]
0.041360464 0.054460816 -0.009616392 0.053352393 -0.18203312 -0.011931866 0.14034604 -0.0006998554
0.036022928 -0.016221074 -0.018735647 0.0033870935 0.033460412 -0.007972466 0.049205773 0.10342478
0.05700498 -0.05722691 0.017245699 -0.04013262 -0.06872141 0.11176946 -0.033596918 -0.08786875
-0.0054510315 0.0026572442 -0.055037275 -0.009080395 0.030384183 -0.06666963 -0.02938577 -0.05793424
-0.028390642 0.018254064 -0.008413192 -0.041713785 -0.0902483 0.03728118 0.07716857 0.019244239
-0.057824366 0.03416239 -0.04583509 -0.043552168 -0.019871864 -0.06631719 0.06462549 0.041337132
-0.035454597 -0.03368802 -0.048022248 0.042367175 -0.043741617 -0.05734295 -0.022400757 0.055887707
-0.22695531 -0.031952016 0.0007689385 0.06263128 -0.05215303 0.038307652 0.051296405 0.042422667
-0.06381707 -0.05819982 -0.04385389 -0.00071559846 -0.03263673 -0.018971799 0.034184247 0.011223229
-0.06452611 0.040073685 -0.08223014 -0.20434116 -0.041410364 -0.05744874 0.016201599 0.08724369
-0.004033841 -0.09512778 0.040583506 -0.030402139 -0.038110625 0.121797495 -0.0071670604 -0.082329094
-0.06098969 0.0069574565 0.00261544 -0.022383437 -0.03509877 0.12123691 0.053308576 0.04032431
-0.06019891 0.06255205 0.039236687 -0.058734458 -0.08163608 0.0062346533 0.013659282 0.0033352321
0.03467547 0.017360533 0.14861032 -0.007879493 -0.01363343 -0.022283345 -0.0019094497 0.052277587
0.06559034 -0.06742256 -0.039506964 0.04729023 0.0126777515 0.016083654 -0.03456749 0.016333902
0.06713445 0.06946792 -0.004131656 0.050360464 0.008488803 0.022207366 -0.019145684 -0.022553122
-0.07733731 0.031980943 0.0033982545 -0.042070076 0.093702726 0.05999411 -0.10975837 -0.056565147
-0.15828922 0.12734322 0.09824992 -0.032417044 -0.13744389 -0.020233665 -0.06846573 -0.0008398071
-0.037814725 -0.061055794 0.10988891 -0.068370365 -0.020876056 -0.040085435 0.08192651 -0.027589858
-0.08018155 0.010572724 0.020626994 -0.10519275 -0.072863266 -0.00083863095 0.039144333 -0.026661858
-0.066721655 -0.051345266 0.038471818 0.0026301432 0.0043328106 -0.106303945 -0.034352344 -0.2562511
0.03141954 -0.03347546 0.06750088 -0.052604318 0.062616564 0.00061919366 -0.049904197 -0.0841783
-0.14858654 -0.0053430214 0.0071615647 -0.042057984 0.01829607 -0.048482418 -0.03847958 -0.07778707
0.023032334 0.07209519 -0.0080751525 0.025738401 -0.08325811 -0.08702225 0.017690368 -0.018078588
0.015138261 -0.029459728 -0.033858474 -0.020212213 -0.12281045 -0.22288136 -0.11791255 -0.103267446
-0.05430773 -0.02559925 0.14449574 0.0035373191 0.021014035 -0.056577146 -0.044509947 0.042191405
-0.08695931 -0.08259481 -0.024969107 -0.0056880084 0.015944883 0.035996005 -0.051337358 0.095920324
-0.03185691 -0.079299934 -0.04582804 0.021288978 -0.058855064 -0.025749177 0.0411139 0.056041628
0.03906312 -0.003740371 0.030096916 0.03102736 -0.04667571 0.028213188 0.11231773 0.04530617
0.0554045 -0.06154535 -0.00020319968 0.050464697 0.041515186 -0.04644444 0.04800625 -0.080063425
0.03043166 -0.059112243 0.030601846 0.06361295 0.044077095 0.05416101 -0.002926823 -0.14012915
-0.046153255 -0.02810711 -0.1118378 -0.048645206 -0.00984074 -0.08025502 -0.052858327 0.016761282
00000000: 9769 293d 4e12 5f3d 128e 1dbc 0a88 5a3d
00000010: e466 3abe e07d 43bc dfb6 0f3e 8076 37ba
00000020: c78c 133d 0fe2 84bc 807b 99bc 00fa 5d3b
00000030: c90d 093d f29e 02bc fe8b 493d 5fd0 d33d
00000040: 0e7e 693d c466 6abd da46 8d3c 1a62 24bd
00000050: d0bd 8cbd 63e7 e43d ec9c 09bd 88f4 b3bd
00000060: 919e b2bb 2925 2e3b c46e 61bd f0c5 14bc
00000070: 40e8 f83c 168a 88bd 6dba f0bc 744c 6dbd
00000080: 7e93 e8bc 8c89 953c 7cd7 09bc 13dc 2abd
00000090: 1ad4 b8bd 27b4 183d 8e0a 9e3d 18a6 9d3c
000000a0: 3ed9 6cbd dded 0b3d 93bd 3bbd c263 32bd
000000b0: 52ca a2bc 4fd1 87bd 5e5a 843d 2051 293d
000000c0: d738 11bd 73fc 09bd fab2 44bd 3489 2d3d
000000d0: 692a 33bd 71e0 6abd cb81 b7bc 82ea 643d
000000e0: f966 68be 1ee0 02bd 9792 493a d444 803d
000000f0: 6a9e 55bd 7ce8 1c3d 2e1c 523d 64c3 2d3d
00000100: 86b2 82bd ef62 6ebd 23a0 33bd 0097 3bba
00000110: 17ae 05bd bf6a 9bbc c804 0c3d a2e1 373c
00000120: 4426 84bd 4e24 243d 4768 a8bd cf3e 51be
00000130: ea9d 29bd 5f4f 6bbd 37b9 843c d2ac b23d
00000140: 502e 84bb 5bd2 c2bd e43a 263d e80d f9bc
00000150: e319 1cbd f770 f93d a9d9 eabb 289c a8bd
00000160: 53d0 79bd 60fb e33b cd67 2b3b 785d b7bc
00000170: bac3 0fbd 0f4b f83d 185a 5a3d 1b2b 253d
00000180: 2293 76bd 4a1b 803d a6b6 203d 8b93 70bd
00000190: d130 a7bd 104c cc3b 2ecb 5f3c e993 5a3b
000001a0: de07 0e3d ad37 8e3c 4e2d 183e fd18 01bc
000001b0: c05e 5fbc 908b b6bc 8046 faba 0621 563d
000001c0: 3a54 863d d714 8abd 0ed2 21bd 66b3 413d
000001d0: 58b6 4f3c dec1 833c a496 0dbd adce 853c
000001e0: c97d 893d 3245 8e3d d862 87bb c646 4e3d
000001f0: 9f14 0b3c 39ec b53c 69d7 9cbc 53c1 b8bc
00000200: 0663 9ebd 73fe 023d 40b5 5e3b ac51 2cbd
00000210: 37e7 bf3d 62bc 753d ffc8 e0bd dbb0 67bd
00000220: 9216 22be 4366 023e 4137 c93d bcc7 04bd
00000230: 17be 0cbe 12c1 a5bc c337 8cbd 8026 5cba
00000240: 9de3 1abd a415 7abd 700d e13d c305 8cbd
00000250: 4304 abbc a030 24bd 16c9 a73d 2004 e2bc
00000260: 3936 a4bd 3839 2d3c f1f9 a83c 4c6f d7bd
00000270: 5639 95bd 92d7 5bba cf55 203d f869 dabc
00000280: 5da5 88bd 6a4f 52bd a094 1d3d 7b5e 2c3b
00000290: 40fa 8d3b e2b5 d9bd 0bb5 0cbd 5833 83be
000002a0: c7b1 003d 901d 09bd e73d 8a3d a077 57bd
000002b0: 1d3d 803d 6251 223a 5868 4cbd ac65 acbd
000002c0: 1227 18be 8314 afbb 8fab ea3b fe44 2cbd
000002d0: a4e1 953c 8095 46bd c49c 1dbd d44e 9fbd
000002e0: 4eae bc3c a5a6 933d a54d 04bc 57d9 d23c
000002f0: 3a83 aabd b938 b2bd 64eb 903c 8c19 94bc
00000300: 7806 783c 8755 f1bc 2faf 0abd 1594 a5bc
00000310: 0c84 fbbd 033b 64be 237c f1bd e27d d3bd
00000320: c871 5ebd 85b5 d1bc b1f6 133e 5ed2 673b
00000330: a025 ac3c 70bd 67bd 1050 36bd e5d0 2c3d
00000340: b917 b2bd 7827 a9bd 038c ccbc 7962 babb
00000350: d89e 823c 8c70 133d 1f47 52bd e071 c43d
00000360: 647c 02bd 0168 a2bd 2fb6 3bbd 3966 ae3c
00000370: 0212 71bd f0ef d2bc 0c67 283d e88b 653d
00000380: a600 203d 0321 75bb cf8d f63c 172d fe3c
00000390: 072f 3fbd 581f e73c d706 e63d f692 393d
000003a0: d4ef 623d fa16 7cbd 0012 55b9 12b4 4e3d
000003b0: d40b 2a3d 863c 3ebd 34a2 443d 4bf8 a3bd
000003c0: d14b f93c ae1f 72bd b9b0 fa3c 8247 823d
000003d0: 2f8a 343d efd7 5d3d f1cf 3fbb 047e 0fbe
000003e0: 320b 3dbd e240 e6bc 370b e5bd 3240 47bd
000003f0: 0e3b 21bc be5c a4bd f981 58bd f54e 893c

bias f4 [256]
0.0028920053 -0.0040564975 -0.008561654 0.032425974 -0.05051744 -0.046483062 0.022002123 -0.014086446
-0.035393104 0.040299308 -0.046591707 -0.062429655 0.04252199 -0.04394404 0.018148208 0.02044447
0.042590916 -0.0017505676 0.037097566 -0.04501389 -0.01932516 -0.025069028 -0.022094456 0.0373795
-0.02124815 0.037340995 -0.049690556 0.005927649 0.008473918 -0.026716447 -0.021516299 -0.059256732
0.0043506194 0.010515557 -0.036808915 -0.05084164 -0.0025894332 -0.042670902 -0.010370155 0.0039759683
0.04121484 0.08138182 0.022136604 0.04314817 0.039942544 -0.046833307 -0.035343952 -0.025244623
-0.034085944 -0.0011438206 0.011636057 0.038178604 -0.06664953 0.012184105 -0.013729544 -0.026686955
-0.015807465 0.015516752 -0.039879832 -0.0031160098 -0.02814421 0.023939412 0.015621214 -0.0111434935
-0.030857429 0.006319344 0.05935674 0.043006334 -0.04493553 0.0011620233 0.036601566 0.04602179
-0.0055701477 0.03440359 0.008821321 -0.0062901787 -0.033392858 -0.0067076217 -0.050570916 -0.057197943
-0.030752698 0.04030705 -0.031123431 0.042442176 0.020216284 0.06675518 -0.04252751 0.030756027
-0.013385245 0.041734707 -0.051091257 -0.041625675 0.014892083 -0.048998438 -0.013904832 -0.023133919
-0.016661227 -0.04933369 0.0030224477 0.049555786 0.02977188 -0.0400159 0.033835713 0.0068080104
0.022310486 -0.063316815 0.03688197 -0.0077559557 0.028718118 -0.0088721905 -0.064510785 -0.013743006
0.009727038 0.06825051 -0.063814014 -0.046303906 0.0036972335 0.028009946 0.02735182 -0.030915577
0.0032887221 0.068607695 -0.0437279 0.013569294 0.018827964 0.00097427994 -0.0036493465 -0.027343057
-0.052695088 -0.06193657 -0.020065717 0.05001746 0.053891454 0.024643743 -0.04065317 0.04292933
-0.0071572782 0.043645166 0.043714963 0.044389877 0.021609968 -0.004985028 0.018441608 0.010649669
0.0687158 0.05053978 0.048334282 0.02875781 0.012370356 0.05351112 -0.021743972 -0.040603314
-0.008373411 0.029356677 0.055439644 -0.065189995 0.014488217 0.047373448 -0.063632034 0.014521295
0.06118311 -0.04239183 0.049363427 -0.033605322 0.04059358 0.022203445 0.041012548 -0.05869197
-0.045167785 -0.03836538 -0.05150517 0.021705016 -0.022491667 0.04618333 0.009126856 0.012560053
0.046257604 0.020275706 -0.0008757969 -0.019691896 0.0070427395 0.05515135 -0.048514273 0.00028796913
-0.0019130617 -0.034425814 -0.04696268 -0.040185846 -0.032645606 0.052754678 0.07403283 0.015179453
-0.048200965 0.008033936 0.046740185 -0.027468454 -0.022853315 -0.020754462 0.026810678 -0.06487598
-0.028815316 0.0503319 0.0018892362 0.044305786 -0.011904024 -0.019862592 0.02787457 -0.0120281475
0.043865 -0.046002775 -0.05956058 0.037752002 -0.03231048 0.04636042 0.014789118 -0.06559541
-0.021203404 0.03742133 0.075289324 0.021310188 0.049638852 -0.0057681473 -0.01408882 -0.067529455
-0.031161403 0.053909242 0.019294783 0.046380635 -0.032474414 0.0068520685 0.007307673 0.05080659
0.007995343 -0.039886825 0.0010750905 -0.05374062 -0.0074001327 0.024741596 0.0417299 -0.051720787
0.003607266 -0.054840337 -0.00047899 0.06432438 -0.020258956 0.042120304 -0.057258777 0.03930415
0.058191508 -0.042282365 0.03999333 -0.066739835 -0.04975394 0.032342315 0.050474558 -0.036447518
00000000: cc87 3d3b 5eec 84bb 2e46 0cbc 19d1 043d
00000010: 60eb 4ebd 0665 3ebd cc3d b43c d6ca 66bc
00000020: 5cf8 10bd e310 253d f2d6 3ebd 3db6 7fbd
00000030: 8a2b 2e3d aafe 33bd 8dab 943c 297b a73c
00000040: d073 2e3d 4d73 e5ba 9ef3 173d 7c60 38bd
00000050: cc4f 9ebc 905d cdbc 6fff b4bc 3f1b 193d
00000060: 9a10 aebc dff2 183d 5388 4bbd b93c c23b
00000070: 30d6 0a3c 73dc dabc f342 b0bc 30b7 72bd
00000080: a48f 8e3b 7149 2c3c f2c4 16bd 533f 50bd
00000090: 7bb3 29bb afc7 2ebd 95e7 29bc d748 823b
000000a0: e4d0 283d 83ab a63d d357 b53c 23bc 303d
000000b0: cb9a 233d 48d4 3fbd d2c4 10bd d0cd cebc
000000c0: b49d 0bbd 40ec 95ba 29a5 3e3c 2b61 1c3d
000000d0: 8c7f 88bd d79f 473c e2f1 60bc 9a9e dabc
000000e0: a87e 81bc fa39 7e3c 0959 23bd f835 4cbb
000000f0: b08e e6bc 961c c43c 1ff0 7f3c 3393 36bc
00000100: b8c8 fcbc 8012 cf3b 0e20 733d 6927 303d
00000110: 510e 38bd 084f 983a 86eb 153d 5881 3c3d
00000120: c985 b6bb c7ea 0c3d 4d87 103c d81d cebb
00000130: f3c6 08bd 9ccb dbbb 7323 4fbd 6448 6abd
00000140: 15ed fbbc 0119 253d 91f6 febc d9d7 2d3d
00000150: 9f9c a53c f1b6 883d 5431 2ebd 10f4 fb3c
00000160: c94d 5bbc 03f2 2a3d 1145 51bd af7f 2abd
00000170: ecfd 733c 96b2 48bd 18d1 63bc 5883 bdbc
00000180: 207d 88bc 2012 4abd 4214 463b 02fb 4a3d
00000190: 28e4 f33c b6e7 23bd 5197 0a3d bb15 df3b
000001a0: 7bc4 b63c 3fac 81bd 8c11 173d ac25 febb
000001b0: 4242 eb3c aa5c 11bc 3b1e 84bd 582a 61bc
000001c0: 285e 1f3c ecc6 8b3d ecb0 82bd 2aa9 3dbd
000001d0: 494d 723b 1d75 e53c ed10 e03c aa42 fdbc
000001e0: 9a87 573b 3182 8c3d 071c 33bd be51 5e3c
000001f0: 1a3d 9a3c d266 7f3a e029 6fbb 8cfe dfbc
00000200: ced6 57bd 33b1 7dbd dc60 a4bc 1cdf 4c3d
00000210: 49bd 5c3d ade1 c93c f083 26bd aad6 2f3d
00000220: 9a87 eabb 46c5 323d 760e 333d 29d2 353d
00000230: 6307 b13c 7259 a3bb db12 973c f37b 2e3c
00000240: dfba 8c3d cd02 4f3d 2bfa 453d 8095 eb3c
00000250: 09ad 4a3c 7a2e 5b3d 6a20 b2bc a94f 26bd
00000260: a230 09bc 6a7d f03c ae14 633d 5582 85bd
00000270: fd5f 6d3c a90a 423d 8351 82bd baea 6d3c
00000280: 249b 7a3d 0ea3 2dbd 4e31 4a3d bca5 09bd
00000290: 7445 263d 00e4 b53c c6fc 273d fe66 70bd
000002a0: db01 39bd 0425 1dbd 16f7 52bd b8ce b13c
000002b0: 7240 b8bc bb2a 3d3d cf88 153c aec8 4d3c
000002c0: 9d78 3d3d 3d19 a63c bc95 65ba e650 a1bc
000002d0: c8c6 e63b 62e6 613d e7b6 46bd 90fa 9639
000002e0: b3bf faba 1502 0dbd f05b 40bd ea99 24bd
000002f0: 66b7 05bd 4a15 583d 869e 973d 3eb3 783c
00000300: 606e 45bd c5a0 033c a372 3f3d 8605 e1bc
00000310: e036 bbbc 4305 aabc 11a2 db3c b3dd 84bd
00000320: 190e ecbc d328 4e3d 3fa0 f73a fc79 353d
00000330: 1809 43bc e0b6 a2bc 3659 e43c b511 45bc
00000340: c9ab 333d 686d 3cbd cbf5 73bd d8a1 1a3d
00000350: fe57 04bd 6ce4 3d3d 0f4e 723c e356 86bd
00000360: c3b2 adbc 1c47 193d 4a31 9a3d b492 ae3c
00000370: 1c52 4b3d ba02 bdbb cbd4 66bc e24c 8abd
00000380: 3346 ffbc f0cf 5c3d 1810 9e3c 9ff9 3d3d
00000390: e403 05bd 5187 e03b 3475 ef3b 921a 503d
000003a0: e6fe 023c 5e60 23bd 0dea 8c3a 201f 5cbd
000003b0: d07c f2bb e3ae ca3c f9ec 2a3d 2dd9 53bd
000003c0: e167 6c3b 43a0 60bd f320 fbb9 80bc 833d
000003d0: 1cf6 a5bc 5786 2c3d 2e88 6abd 63fd 203d
000003e0: 385a 6e3d 4630 2dbd 0cd0 233d e5ae 88bd
000003f0: caca 4bbd 6079 043d 69be 4e3d fe49 15bd

weight f4 [3, 256]
0.0075302757 -0.056942314 0.045401864 0.021629712 0.06395472 0.026528232 -0.021537714 0.02199012
-0.0073719993 0.04892502 -0.0012757498 -0.033789594 -0.031183504 -0.04021492 0.06363391 0.0442483
-0.047223594 0.12887396 0.025984734 -0.03480097 0.0017334744 -0.052624024 0.03630154 -0.026107011
-0.0024543656 -0.0005876253 -0.037536506 0.033830296 -0.015320875 0.027680457 0.043469146 -0.052530922
0.03755106 0.04767467 0.0010863767 -0.011874776 0.0021069339 -0.00013896574 -0.0376203 0.04914816
0.04749287 -0.024133068 -0.02688896 0.09378688 -0.021566967 0.021098346 -0.010147774 0.020315953
0.045496237 -0.0016390011 0.009068237 0.07380758 -0.043412652 0.03695316 0.032908317 -0.0214533
0.024604708 0.04497876 0.0781487 0.056733828 -0.0106411325 0.030906398 0.028131241 -0.026592975
0.03954559 0.08015114 -0.04604655 0.018072389 0.04131046 0.06350782 -0.041015565 -0.020624114
-0.015618152 -0.034615196 0.061755825 0.03571142 0.051871758 -0.00381107 0.04627844 -0.039070778
-0.05189807 0.03224755 -0.012118659 -0.049547486 -0.02659347 0.05603555 -0.051354423 0.070204355
0.03747325 0.1322141 0.008179842 0.08614642 0.007914522 -0.0050933883 -0.041034836 -0.003043063
0.0442885 -0.004655827 -0.013127282 -0.053005524 0.05306087 -0.0018394068 -0.0027943137 0.00074705295
-0.022137322 -0.033694785 -0.0027393817 -0.05317623 -0.011764458 0.031860538 -0.04563891 -0.03663703
-0.0025544656 -0.042925317 -0.041874684 0.016203858 0.069173396 0.06741567 -0.039958924 -0.03361722
-0.019843886 0.09840497 0.0638173 -0.0057571963 0.10480117 0.058895614 -0.0043034554 0.008946632
0.03936407 -0.044343516 -0.04180203 0.03860593 0.04026301 0.05579758 -0.04951144 -0.0015880378
-0.043551035 0.008798844 0.02629695 0.06309936 0.064186595 -0.026355859 0.06297347 0.1309817
0.09505718 -0.00212929 0.030301893 -0.01675196 0.044598445 0.05417782 0.06844772 -0.012835716
0.030056309 0.048695683 0.028254706 -0.019874536 0.08396031 0.06804926 -0.040882606 -0.046080425
0.054842375 -0.032694772 0.0639887 -0.041966654 0.054050248 -0.0071617216 -0.01255928 0.06704097
-0.033045024 -0.04027315 -0.05728767 0.04785862 -0.055815537 0.05780139 -0.02307198 0.020374961
0.010328855 -0.017717443 0.04247774 0.1170052 0.039766636 0.0045153378 -0.03349174 0.06309032
-0.043065693 0.08298025 0.010562378 0.010598336 0.017781235 0.04083173 0.049040712 0.028364306
0.02141642 0.06589847 0.05042861 0.048712444 -0.036995854 0.1694507 0.010211171 0.047336627
-0.0012794536 -0.016635148 0.06051997 0.011022641 0.052412905 0.00656718 0.028230887 0.06706406
0.047261763 0.06374326 -0.015776098 0.055124413 -0.0023562089 -0.0021454766 0.05839522 0.07066828
0.05041173 0.076247856 0.046712194 0.04637111 0.019023605 0.052021127 0.013026494 -0.010009522
-0.039492957 0.08318191 0.05493969 0.0053061657 0.007097166 0.0029036491 -0.0065659625 -0.05380161
-0.0025102228 0.010088811 0.060446285 -0.042867526 -0.01334621 0.0224822 0.06260356 0.07822863
-0.030235345 -0.03016525 0.005797896 0.05893054 -0.010981545 0.008175609 -0.042121448 0.0057540606
0.050163656 0.024201714 -0.020423112 0.03634624 0.015549927 0.018132823 0.04408409 0.01725821
00000000: 88c0 f63b 583c 69bd 4ef7 393d cb30 b13c
00000010: b1fa 823d bc51 d93c dc6f b0bc a024 b43c
00000020: d090 f1bb 9a65 483d 0f37 a7ba f566 0abd
00000030: 8c74 ffbc 66b8 24bd 7f52 823d b53d 353d
00000040: 876d 41bd 89f7 033e f0dd d43c 768b 0ebd
00000050: c035 e33a 4a8c 57bd ecb0 143d 5fde d5bc
00000060: 6cd9 20bb de0a 1aba e1bf 19bd a391 0a3d
00000070: 6804 7bbc 20c2 e23c b40c 323d aa2a 57bd
00000080: 24cf 193d 8446 433d c164 8e3a 6c8e 42bc
00000090: 7c14 0a3b 55b7 11b9 be17 1abd 954f 493d
000000a0: e287 423d b6b2 c5bc 3c46 dcbc 5613 c03d
000000b0: 35ad b0bc 70d6 ac3c d942 26bc a46d a63c
000000c0: 435a 3a3d c0d3 d6ba f192 143c 6e28 973d
000000d0: 77d1 31bd 325c 173d dfca 063d d5be afbc
000000e0: d08f c93c a63b 383d 6d0c a03d bb61 683d
000000f0: 2558 2ebc 6a2f fd3c 7d73 e63c 83d9 d9bc
00000100: 8efa 213d 4826 a43d 4f9b 3cbd 8c0c 943c
00000110: 2835 293d 6310 823d f0ff 27bd e7f3 a8bc
00000120: 47e3 7fbc aac8 0dbd adf3 7c3d 2346 123d
00000130: 7b77 543d 25c3 79bb 768e 3d3d ae08 20bd
00000140: 1293 54bd 0216 043d 578d 46bc 4ef2 4abd
00000150: 8cda d9bc 8885 653d 0459 52bd 4dc7 8f3d
00000160: 8d7d 193d 2263 073e be04 063c 896d b03d
00000170: e9ab 013c 70e6 a6bb 2514 28bd 206e 47bb
00000180: dc67 353d e88f 98bb d013 57bc 521c 59bd
00000190: 5b56 593d 4018 f1ba ce20 37bb e0d5 433a
000001a0: 5459 b5bc 8b03 0abd 3387 33bb 52cf 59bd
000001b0: b7bf 40bc 3280 023d deef 3abd b610 16bd
000001c0: d268 27bb 75d2 2fbd ca84 2bbd f4bd 843c
000001d0: c8aa 8d3d 3a11 8a3d f8ab 23bd 36b2 09bd
000001e0: a58f a2bc 8b88 c93d a5b2 823d dda6 bcbb
000001f0: ffa1 d63d 873c 713d 0004 8dbb e594 123c
00000200: 383c 213d 8ca1 35bd 9b38 2bbd 4021 1e3d
00000210: d3ea 243d 018c 643d 82cc 4abd b525 d0ba
00000220: 9262 32bd 0729 103c b46c d73c 3d3a 813d
00000230: 4374 833d 3ee8 d7bc 3cf8 803d 1120 063e
00000240: 57ad c23d 8f8b 0bbb ad3b f83c 683b 89bc
00000250: dcac 363d 90e9 5d3d 512e 8c3d e54c 52bc
00000260: a638 f63c 2075 473d 6a76 e73c eccf a2bc
00000270: 62f3 ab3d 695d 8b3d 8574 27bd d4be 3cbd
00000280: 66a2 603d f4ea 05bd 820c 833d 3ae5 2bbd
00000290: cb63 5d3d e0ac eabb 70c5 4dbc c74c 893d
000002a0: 385a 07bd 75f5 24bd 7aa6 6abd 6607 443d
000002b0: d59e 64bd 26c1 6c3d 7301 bdbc 64e9 a63c
000002c0: 5c3a 293c 2c24 91bc 24fd 2d3d 6ca0 ef3d
000002d0: 57e2 223d 66f5 933b a22e 09bd 7f35 813d
000002e0: a765 30bd 8df1 a93d d30d 2d3c a5a4 2d3c
000002f0: f4a9 913c 2c3f 273d eade 483d 435c e83c
00000300: 7d71 af3c c7f5 863d 3b8e 4e3d b386 473d
00000310: f788 17bd 7c84 2d3e c14c 273c 0de4 413d
00000320: 57b3 a7ba 6f46 88bc cae3 773d 4f98 343c
00000330: eaae 563d 8031 d73b 7644 e73c e258 893d
00000340: 8d95 413d d48b 823d e03c 81bc 23ca 613d
00000350: a06a 1abb 209b 0cbb d42f 6f3d 88ba 903d
00000360: 887c 4e3d d627 9c3d 4955 3f3d a2ef 3d3d
00000370: 64d7 9b3c 1b14 553d 136d 553c fafe 23bc
00000380: 5ec3 21bd 475b aa3d 7108 613d 58df ad3b
00000390: 588f e83b 264b 3e3b 4927 d7bb 145f 5cbd
000003a0: 8d82 24bb 8a4b 253c 8696 773d dc95 2fbd
000003b0: 10aa 5abc 972c b83c 4c36 803d 5536 a03d
000003c0: 1db0 f7bc 1d1d f7bc 47fc bd3b 2661 713d
000003d0: f0eb 33bc fdf2 053c 8a87 2cbd 8f8c bc3b
000003e0: 6878 4d3d ac42 c63c 5f4e a7bc ccdf 143d
000003f0: 1fc5 7e3c 498b 943c 8591 343d 1761 8d3c

bias f4 [3]
0.004816613 -0.010534823 -0.00683154
00000000: aed4 9d3b 409a 2cbc 1cdb dfbb
