SAC_Model/checkpoints/sac_actor_final.pth (torch, 282328 bytes, 6 tensors)

net.0.weight f4 [256, 12]
0	0x3dc9e699	0.09858436
1	0x3e32037d	0.17384143
2	0x3d4d14b0	0.050068557
3	0xbdaf4d18	-0.08559626
4	0xbdfbf4ac	-0.12302527
5	0x3e31b9d2	0.17356041
6	0x3e70ef82	0.23528865
7	0x3c93c54d	0.018038416
8	0x3dc19c40	0.094536304
9	0x3da782b2	0.08179225
10	0x3e5008d6	0.2031587
11	0x3e160118	0.14648855
12	0xbbb5e26b	-0.0055506728
13	0xbe00edf0	-0.12590766
14	0xbd4a844c	-0.049442574
15	0xbdf13fd4	-0.117797524
16	0x3db287e0	0.08717322
17	0x3e813a9c	0.25240028
18	0xbdba55c3	-0.09098389
19	0x3ca27cf8	0.01983498
20	0xbe7671e3	-0.24066882
21	0xbee65bff	-0.44992062
22	0xbd820eed	-0.06350503
23	0xbe960a63	-0.293048
24	0x3e80f8fa	0.25189954
25	0xbd473381	-0.048633102
26	0x3de6a858	0.11262578
27	0xbe4c304d	-0.199403
28	0x3e855e0e	0.2604832
29	0x3dc77970	0.09739959
30	0x3e77094a	0.24124637
31	0x3e592c15	0.21208222
32	0x3d61986a	0.055076994
33	0xbe86bb44	-0.26314747
34	0xbda4a2f2	-0.08038892
35	0xbd6d05d4	-0.057866886
36	0x3e1fb243	0.15595345
37	0x3d50ad56	0.050946556
38	0xbe280806	-0.1640931
39	0x3e828a6e	0.25496238
40	0xbe34686a	-0.17617956
41	0xbdd5027a	-0.10400863
42	0x3e4c1b61	0.19932319
43	0x3e754497	0.23951946
44	0x3bc441a5	0.0059892708
45	0x3df058ab	0.11735662
46	0x3dfc6462	0.12323834
47	0xbe758f18	-0.23980367
48	0xbd7b37aa	-0.061332382
49	0xbdc65c1a	-0.09685536
50	0xbe20891a	-0.156773
51	0x3d206bc0	0.03916526
52	0xbe5c114c	-0.21490973
53	0xbe6c55b2	-0.23079565
54	0xbe840d99	-0.25791624
55	0xbdc77992	-0.097399846
56	0xbe7f043d	-0.2490396
57	0xbeb99920	-0.36249638
58	0xbe007d28	-0.12547743
59	0xbe5f298b	-0.21793191
60	0x3e556980	0.20841026
61	0xbcfb8b9d	-0.030706221
62	0xbd8d9ece	-0.06915055
63	0xbe43fea4	-0.19140106
64	0x3a674e00	0.00088235736
65	0xbd869f9c	-0.06573412
66	0xbe7e61f1	-0.24842049
67	0x3e2adba7	0.16685353
68	0xbdff911c	-0.12478849
69	0x3dc77fa2	0.09741141
70	0x3dc6d3ae	0.097083434
71	0xbe185aaf	-0.14878343
72	0x3e70c856	0.23513922
73	0x3db75b32	0.08952941
74	0xbe935592	-0.28776222
75	0xbe13db03	-0.14439015
76	0xbe26c757	-0.1628698
77	0x3e0b0134	0.13574678
78	0x3e4b9723	0.19881873
79	0x3e6d62b3	0.23182182
80	0xbe81d1cd	-0.25355378
81	0xbe8272f2	-0.2547832
82	0xbe058a8e	-0.13041136
83	0x3d3edb7a	0.046596028
84	0xbc15a319	-0.009133124
85	0x3d78645b	0.06064258
86	0x3e092ec6	0.13396749
87	0xbe88676f	-0.26641414
88	0x3e90b5fc	0.28263843
89	0xbe86a532	-0.2629791
90	0xbc4160bd	-0.011802849
91	0x3cc97cb0	0.024595588
92	0xbe0c3d95	-0.13695367
93	0xbe3b49b6	-0.18289837
94	0xbd0b057d	-0.03394078
95	0x3d78fa17	0.06078538
96	0x3e687278	0.22699916
97	0xbe928fd5	-0.2862536
98	0x3e3f6ba9	0.18693413
99	0xbbd913c0	-0.006624669
100	0x3de4d2b4	0.11173001
101	0xbdfe6c90	-0.124230504
102	0xbce163da	-0.027513433
103	0x3c9a687b	0.018848648
104	0xbe76b287	-0.2409154
105	0xbd6493a1	-0.055804852
106	0xbe25617e	-0.16150472
107	0xbe8269d5	-0.25471368
108	0xbd8fbb84	-0.07018188
109	0x3d94a714	0.0725843
110	0x3e386d41	0.18010427
111	0x3e889626	0.26677054
112	0x3de9d5d8	0.114177406
113	0x3e445748	0.1917392
114	0x3e70588e	0.23471281
115	0x3dfb82ba	0.122807935
116	0xbe888bda	-0.26669198
117	0xbca57594	-0.020197667
118	0xbdaa6a72	-0.08321084
119	0xbe4d39f5	-0.2004164
120	0x3e431009	0.19049086
121	0xbcb8fb73	-0.022580838
122	0x3c9946bd	0.018710488
123	0x3e5d8e24	0.21636254
124	0xbdc7fefc	-0.09765431
125	0xbe4526ac	-0.19253033
126	0xbe1e09ad	-0.15433379
127	0xbe843822	-0.25824076
128	0x3c4f7d6f	0.012664183
129	0xbe391a09	-0.18076338
130	0xbd66ab6c	-0.056315824
131	0x3c168ded	0.009189111
132	0x3d544611	0.051824633
133	0x3e94395a	0.28950006
134	0x3dce5160	0.10074115
135	0x3e885c98	0.26633143
136	0x3da9cf68	0.08291513
137	0xbe3703f0	-0.17872596
138	0x3e324eba	0.17412844
139	0xbd214484	-0.039371982
140	0x3e478f1d	0.19488187
141	0x3e878b3c	0.26473415
142	0x3d2c5174	0.042069867
143	0xbe19e851	-0.15030028
144	0xbd9c6cda	-0.07637949
145	0x3e658282	0.22413066
146	0x3e76cba0	0.24101114
147	0xbe12b28b	-0.14325921
148	0x3e607b48	0.21922028
149	0x3e38ee3e	0.18059632
150	0x3e8f7696	0.2802016
151	0x3e827641	0.25480846
152	0x3c4c00af	0.012451335
153	0x3e96b48c	0.2943462
154	0x3e17d05d	0.14825578
155	0x3e2c526c	0.16828316
156	0xbd2dc2a4	-0.042421952
157	0xbe70a6ed	-0.23501177
158	0xbe2cb842	-0.16867164
159	0x3e12dee2	0.14342836
160	0xbbe7ee00	-0.0070779324
161	0xbe395e42	-0.18102363
162	0x3e2e8af8	0.170452
163	0xbe7a6be1	-0.24455215
164	0xbe92844d	-0.28616562
165	0xbe5e7975	-0.2172602
166	0xbcf82d87	-0.030295147
167	0x3e8c510f	0.27405593
168	0xbe6da020	-0.23205614
169	0x3e987d57	0.29783127
170	0xbc941950	-0.018078476
171	0xbd35fc44	-0.044430032
172	0x3d585918	0.05281934
173	0xbe143cb8	-0.14476287
174	0x3e0358b1	0.12826802
175	0xbe2c5893	-0.16830663
176	0x3e33f170	0.1757257
177	0x3e31419e	0.17310187
178	0xbe328ed8	-0.17437303
179	0xbe5d0a92	-0.21586064
180	0xbe17beda	-0.14818898
181	0x3d89cbda	0.06728335
182	0x3e3d1cd4	0.18468028
183	0xbddd8710	-0.10816777
184	0xbe3aface	-0.18259737
185	0xbe6a9cfb	-0.22911446
186	0x3e88e4c1	0.26737025
187	0xbe8df141	-0.27723125
188	0xbc96b4f9	-0.018396841
189	0xbdc7b1f9	-0.097507425
190	0x3d4bfcbc	0.049801573
191	0xbe4de2b9	-0.20106019
192	0x3e58ace7	0.21159707
193	0xbbc83e56	-0.0061109466
194	0x3e256483	0.16151623
195	0x3e3c97ce	0.18417284
196	0xbc66db00	-0.0140903
197	0xbe0466aa	-0.12929788
198	0xbe9861d3	-0.29762134
199	0xbe9241b8	-0.28565764
200	0x3c44aa30	0.0120034665
201	0xbcbb31c4	-0.022850879
202	0xbe87da92	-0.26533943
203	0xbe835f6f	-0.25658748
204	0x3dd8d7cb	0.10588034
205	0xbe725688	-0.23665822
206	0xbe5da847	-0.21646224
207	0x3d6f4dc8	0.058423787
208	0xbded69a4	-0.11592415
209	0x3e91197a	0.2833975
210	0xbe283c19	-0.16429175
211	0xbe5a65f5	-0.21327956
212	0x3d6e3c72	0.058163114
213	0xbe3a8eda	-0.18218556
214	0x3dc7f4ee	0.097635135
215	0x3b88ce3e	0.0041749766
216	0x3e3c58d3	0.18393259
217	0x3c33aba7	0.010966218
218	0x3dde693f	0.10859918
219	0xbe50a786	-0.20376405
220	0x3dae7120	0.08517671
221	0xbe346fa6	-0.17620715
222	0xbe89abdf	-0.2688894
223	0x3d283297	0.04106387
224	0x3e18c822	0.14920095
225	0x3d42e39a	0.04758034
226	0x3e8bfc98	0.2734115
227	0x3e8a6ed3	0.27037677
228	0xbdca9ad3	-0.098928116
229	0xbcb14f8f	-0.021644382
230	0xbdaa647d	-0.08319948
231	0xbce4b9a0	-0.027920544
232	0x3d2ddaa8	0.042444855
233	0x3e8a104c	0.2696556
234	0xbe428997	-0.18997799
235	0xbe83204d	-0.2561058
236	0xbdc0f25a	-0.09421225
237	0xbe341522	-0.17586187
238	0x3e49cb6a	0.19706503
239	0xbdfbc5cc	-0.12293586
240	0xbe9a56ff	-0.30144498
241	0xbd7c7aa1	-0.061640386
242	0xbe8483bf	-0.25881764
243	0xbe17897b	-0.14798538
244	0x3e0f2424	0.1397863
245	0xbd237144	-0.03990294
246	0xbd5d1cb0	-0.053982437
247	0x3ccef284	0.025262125
248	0x3dd970bb	0.10617205
249	0xbe8fa062	-0.2805205
250	0x3e2d0060	0.16894674
251	0xbe7391ac	-0.23786038
252	0x3dfdf40e	0.12400065
253	0xbe615b7d	-0.22007556
254	0x3e641d12	0.22276714
255	0x3e84a7e6	0.25909346

net.0.bias f4 [256]
0	0xbe4774cf	-0.19478153
1	0xbef773e0	-0.48330593
2	0x3e9a87b5	0.3018166
3	0x3ec6e760	0.388484
4	0xbe9383a5	-0.28811374
5	0x3ec540ac	0.38525903
6	0xbe8b1341	-0.27163127
7	0x3e9081a1	0.282239
8	0xbd4e19e2	-0.050317653
9	0xbecae4e4	-0.39627755
10	0xbd97aad6	-0.07405631
11	0x3d919a7f	0.07109546
12	0x3eaf0c73	0.34189186
13	0x3e4769b7	0.19473921
14	0x3dd1d47d	0.10245607
15	0xbe2c6ad7	-0.16837631
16	0xbe85d36e	-0.2613787
17	0xbe5a8982	-0.21341518
18	0xbd3c1e85	-0.045927543
19	0xbeab26fd	-0.33428183
20	0xbe1dbc31	-0.1540382
21	0xbe9c2f08	-0.30504632
22	0x3ec46bd2	0.3836351
23	0xbc162c9b	-0.009165908
24	0xb9b739c9	-0.00034947533
25	0x3ddcd20e	0.10782252
26	0xbe00c78e	-0.12576124
27	0xbeb18e04	-0.34678662
28	0xbe1affea	-0.15136686
29	0xbeb27de1	-0.34861663
30	0x3eaff476	0.34366196
31	0xbec7de98	-0.39037013
32	0xbb92bc23	-0.004477994
33	0x3e5818b4	0.21103173
34	0xbe78c7f4	-0.24295026
35	0x3e4ba960	0.1988883
36	0xbe836bb9	-0.25668123
37	0xbe206192	-0.1566222
38	0xbe39eea9	-0.18157448
39	0xbdb832a9	-0.08994038
40	0xbe2f82dc	-0.17139763
41	0xbe9cc6c9	-0.3062041
42	0xbe33de32	-0.1756523
43	0xbeb93352	-0.36171967
44	0x3da7ad6b	0.08187374
45	0x3e3aec14	0.18254119
46	0x3beb270a	0.0071762847
47	0xbe810aca	-0.25203544
48	0x3e4a0e12	0.1973193
49	0x3ea6952e	0.3253569
50	0x3e9b175c	0.3029126
51	0x3ed83c4e	0.4223351
52	0x3eb6903a	0.3565691
53	0x3e3f1fbf	0.18664454
54	0xbe9898f1	-0.29804185
55	0xbe1bc71e	-0.15212676
56	0x3def864b	0.11695536
57	0x3ec5835c	0.38576782
58	0x3e22c5e3	0.158958
59	0xbbe78b27	-0.007066149
60	0x3ec5209a	0.38501436
61	0x3ed6cfd5	0.41955438
62	0x3e003407	0.12519847
63	0xbe0c9e6c	-0.13732308
64	0x3d698978	0.057015866
65	0x3e9d7e47	0.30760404
66	0xbdeeaf1a	-0.11654492
67	0xbe600781	-0.21877863
68	0x3eab1efd	0.3342208
69	0xbea7df8a	-0.32787734
70	0x3e1e9003	0.15484624
71	0x3db83668	0.08994752
72	0x3e0b2e47	0.13591872
73	0x3ec134cb	0.3773559
74	0x3eb3d3c9	0.35122517
75	0x3e22f572	0.15913942
76	0xbea12a4d	-0.31477585
77	0xbe51cc68	-0.20488131
78	0xbea5685c	-0.32306182
79	0xbdc4e1a7	-0.09613352
80	0xbe7fb739	-0.24972238
81	0xbe8a9f63	-0.27074727
82	0xbd9c3394	-0.07627025
83	0xbde8ae75	-0.113614
84	0xbeba3565	-0.36368862
85	0xbe350f71	-0.17681672
86	0x3d406815	0.04697426
87	0x3eb5630a	0.35427123
88	0x3e38113b	0.17975323
89	0x3e68e911	0.22745158
90	0x3ddf7ec2	0.10912849
91	0x3d04c2e5	0.03241243
92	0xbef787e1	-0.48345855
93	0xbe5f29bc	-0.21793264
94	0xbe3180a8	-0.17334235
95	0xbe1e587e	-0.15463445
96	0xbea6b79e	-0.32561964
97	0x3c885f01	0.016646864
98	0x3e8c2b72	0.27376896
99	0x3ea06506	0.31327075
100	0xbe39e91a	-0.18155327
101	0xbe8fcce1	-0.28085998
102	0xbe9e67da	-0.30938607
103	0x3b895b2e	0.0041917777
104	0x3eb4db91	0.35323766
105	0x3e343d15	0.17601426
106	0xbeb3ba25	-0.35102955
107	0x3e37f045	0.1796275
108	0xbc97d392	-0.018533502
109	0x3e5f94e4	0.21834141
110	0x3ec608c5	0.38678566
111	0xbde56d8d	-0.11202536
112	0x3ed378ac	0.41303003
113	0xbd18baf7	-0.03728768
114	0x3e099909	0.13437285
115	0x3dbd93ba	0.09256692
116	0x3e996293	0.2995802
117	0x3e7920ee	0.24328968
118	0x3e624718	0.22097433
119	0x3e373aba	0.17893496
120	0xbe4e0e28	-0.20122588
121	0xbddb8751	-0.10719169
122	0x3e3d4dd8	0.18486726
123	0x3eb32b7e	0.3499412
124	0x3e1b105b	0.15142958
125	0x3e749fa0	0.23889017
126	0xbe5c1787	-0.2149335
127	0x3ea0f4fb	0.31436905
128	0xbdf97d6b	-0.12182125
129	0x3e94a609	0.29032925
130	0x3e9661cd	0.2937149
131	0x3e3084b6	0.17238125
132	0xbea5c2b2	-0.32375103
133	0xbe80f21e	-0.2518472
134	0xbdc8ce8d	-0.098050214
135	0xbe7c72fc	-0.24653238
136	0x3cab6de5	0.020926425
137	0x3ec39080	0.38196182
138	0x3eb13b07	0.34615347
139	0xbe590b70	-0.2119577
140	0xbe2af612	-0.16695431
141	0xbe131068	-0.14361727
142	0xbe033320	-0.12812471
143	0xbe58266b	-0.21108405
144	0x3e75a32e	0.2398803
145	0x3df17f95	0.117919125
146	0x3e09e8f4	0.13467771
147	0x3eb0e4cb	0.34549555
148	0xbdd1a74c	-0.102369875
149	0x3e04d3bd	0.12971397
150	0xbe0e0c1f	-0.13871811
151	0x3e82dd9b	0.25559697
152	0x3ea96783	0.33086786
153	0xbe8ac5ae	-0.27103943
154	0xbe5fd3b5	-0.21858104
155	0xbd1326a0	-0.035925508
156	0x3e56a728	0.20962203
157	0x3e9108ed	0.28327122
158	0xbe2ea67f	-0.170557
159	0xbe03fe92	-0.1289008
160	0xbe1dd30e	-0.15412542
161	0xbda74be5	-0.081687726
162	0x3e5fabf9	0.21842946
163	0x3ed24b0a	0.41072875
164	0x3d30ae7f	0.043135162
165	0x3cdb7850	0.026790768
166	0xbe606c6b	-0.21916358
167	0x3e262028	0.16223204
168	0xbe1987be	-0.14993188
169	0xbe58e5ae	-0.21181366
170	0xbe225dcb	-0.15856092
171	0xbdd68be3	-0.104759
172	0x3e9a7b9d	0.30172434
173	0xbedc5466	-0.4303314
174	0xbe3d98d2	-0.18515328
175	0xbed06bae	-0.40707153
176	0x3e884d7c	0.26621616
177	0xbe5e6a91	-0.2172034
178	0x3e9e7dd4	0.30955374
179	0x3ea9786e	0.33099693
180	0x3dffcc57	0.124901466
181	0x3de10652	0.10987534
182	0xbe9b8c6d	-0.30380574
183	0xbebe2e19	-0.37144545
184	0xbe5993c3	-0.21247773
185	0x3ce3596a	0.027752597
186	0x3ea345a2	0.31889063
187	0x3e456cc0	0.19279766
188	0x3e0358c0	0.12826824
189	0xbe791248	-0.2432338
190	0x3d7968b8	0.060890883
191	0xbe67fcd5	-0.22655042
192	0xbe848617	-0.25883552
193	0xbe76342d	-0.24043341
194	0x3e429740	0.1900301
195	0xbde920e1	-0.11383224
196	0xbe05c671	-0.1306398
197	0xbe1590cb	-0.14606015
198	0x3e1373d9	0.14399661
199	0x3e49bae0	0.19700193
200	0xbec49298	-0.38393092
201	0x3e896a72	0.26839024
202	0x3e555890	0.20834565
203	0x3e137fcc	0.1440422
204	0xbd40363a	-0.046926714
205	0x3d8a4263	0.067509435
206	0xbe7c8219	-0.24659003
207	0xbedb41fd	-0.42823783
208	0x3d1f11c1	0.03883529
209	0x3dcbd92d	0.09953532
210	0xbe4a5b9e	-0.19761512
211	0xbec8b583	-0.39200982
212	0xbea9a72c	-0.33135355
213	0x3ed13f92	0.40868813
214	0x3dab733a	0.08371587
215	0xbe47be3a	-0.1950616
216	0xbe106e74	-0.14104635
217	0x3e84bfec	0.25927675
218	0x3edbffbb	0.42968544
219	0xbe873566	-0.26407927
220	0xbd3ec204	-0.046571746
221	0x3e784ac8	0.24247277
222	0xbdcddb3e	-0.10051583
223	0x3e4b9b09	0.1988336
224	0xbd95d23f	-0.07315492
225	0x3e6e7cc7	0.23289786
226	0xbe8755d0	-0.26432657
227	0x3e22b4fc	0.15889353
228	0xbec2e6f9	-0.38066843
229	0x3eef062e	0.46684402
230	0x3e274299	0.16333999
231	0xbe3c7f0c	-0.1840784
232	0x3d540f38	0.051772326
233	0xbe9946ce	-0.29936832
234	0x3d5f2ed4	0.05448802
235	0xbe0feb97	-0.14054714
236	0xbecce939	-0.40021685
237	0xbe97a27e	-0.2961616
238	0x3e383be8	0.17991602
239	0xbe00d8da	-0.12582722
240	0x3edc1455	0.42984262
241	0xbe36b575	-0.17842658
242	0xbe7d5d1d	-0.24742551
243	0x3e851533	0.25992736
244	0x3e8ff73e	0.28118318
245	0x3e1ec2c6	0.15503988
246	0x3e3cda75	0.1844271
247	0xbe6df132	-0.2323654
248	0xbe9b6ed7	-0.30358002
249	0x3d6d5b21	0.057948235
250	0xbedcdcbc	-0.43137157
251	0x3e2cdec0	0.16881847
252	0x3e99b91d	0.30024043
253	0xbe8ba409	-0.27273586
254	0x3ea3e63d	0.32011595
255	0xbdccea05	-0.10005573

net.2.weight f4 [256, 256]
0	0xbd684ac5	-0.05671193
1	0xbc8d62fe	-0.017259117
2	0x3c5f8b8b	0.0136441095
3	0xbc936e9b	-0.017997077
4	0xbdd32cb0	-0.10311258
5	0x3d1566aa	0.03647486
6	0x3d6cef0a	0.057845153
7	0x3bc17683	0.0059040203
8	0x3d295074	0.04133649
9	0xbd4db98e	-0.050225787
10	0xbc8b000e	-0.0169678
11	0xbd911787	-0.070845656
12	0xbbf2b597	-0.007406901
13	0x3d0ab886	0.03386738
14	0x3ce05ac3	0.027387029
15	0xbd2ff53a	-0.042958476
16	0x3cd45041	0.025917174
17	0x3ca30724	0.019900866
18	0x3cf1a768	0.02949877
19	0xbd9d4df6	-0.076808855
20	0xbc211fe9	-0.009834268
21	0xbd96c875	-0.07362453
22	0xbd0976be	-0.033560507
23	0x3d3f0438	0.046634883
24	0x3c804694	0.015658654
25	0xbcf3cf6c	-0.029761992
26	0xbd54fd86	-0.05199959
27	0xbd3272e1	-0.04356659
28	0xbcbc5428	-0.022989348
29	0xbcb79d1b	-0.02241378
30	0xbc89d895	-0.016826907
31	0x3c245c66	0.010031795
32	0xbd1d67bd	-0.03842901
33	0x3d881754	0.066450745
34	0x3cd763cf	0.02629271
35	0x3d9291ee	0.0715674
36	0x3b0c6eba	0.0021428303
37	0x3bd0f78e	0.006377167
38	0xbca5e84b	-0.020252367
39	0x3d2de994	0.042459086
40	0xbce2513f	-0.027626632
41	0xbccd49ce	-0.025059607
42	0xbd51f418	-0.051258177
43	0xbd26f226	-0.040758274
44	0xbc25fbaf	-0.010130807
45	0x3d2fe9b8	0.0429475
46	0x3bf714fc	0.0075403433
47	0x3d00ec8b	0.031475585
48	0xbd0f949d	-0.035053838
49	0xbabb5c6e	-0.0014294514
50	0xbc657e49	-0.0140071595
51	0x3d458bed	0.048229147
52	0x3c8ba6dc	0.017047338
53	0x3d8e029d	0.06934092
54	0xbd8f1871	-0.06987084
55	0xbceb4e0a	-0.028723735
56	0x3c35415a	0.011062944
57	0x3d7812ce	0.06056481
58	0xbc97b986	-0.018521082
59	0x3d142154	0.036164597
60	0x3daa8d14	0.0832769
61	0x3d85a164	0.065249234
62	0x3d06c071	0.03289837
63	0x3c9a8b03	0.018865114
64	0xbd4b652c	-0.049657032
65	0xbd59d8ee	-0.053185396
66	0x3caae188	0.020859495
67	0xbd183d23	-0.03716768
68	0xbd0f69e3	-0.03501309
69	0xbc66dadf	-0.014090269
70	0x3d2ffe35	0.04296704
71	0x3d1e2b7e	0.038615696
72	0xbaf06940	-0.0018341914
73	0x3d9952fe	0.07486533
74	0x3daf94e5	0.08573321
75	0x3da766c6	0.08173899
76	0x3cb8bdec	0.0225515
77	0xbcdf5927	-0.02726419
78	0xbc03a858	-0.008035742
79	0xbaf90c44	-0.0019000848
80	0x3c1d13e9	0.0095872665
81	0x3b31229c	0.0027028685
82	0xbcca3297	-0.024682326
83	0x3d27861e	0.04089939
84	0xbcff4cf9	-0.031164633
85	0x3d69c184	0.057069317
86	0x3d08fee1	0.033446196
87	0x3cf71a9d	0.030164057
88	0x3c87518f	0.016518382
89	0xbcd70bc4	-0.026250727
90	0x3bef195d	0.0072967247
91	0xbd37696f	-0.044778284
92	0xbdf12157	-0.11773937
93	0x3d1bb85f	0.038017627
94	0xbc4f95c3	-0.012669983
95	0xbd30b7b5	-0.043143947
96	0x3c802e9f	0.01564723
97	0xbd4dd0a1	-0.050247792
98	0xbcd9d664	-0.026591487
99	0x3d15441c	0.036441907
100	0x3b85418d	0.004066652
101	0xbdbc3f0f	-0.09191715
102	0xbd10f183	-0.035386574
103	0x3ccf75ee	0.025324788
104	0xbca7b951	-0.020474108
105	0x3dabc1e5	0.08386592
106	0xbd83dc45	-0.064384975
107	0xbd1cf973	-0.03832383
108	0xbd51d5c6	-0.05122926
109	0x3cf4712b	0.029839119
110	0x3d26100e	0.040542655
111	0xbca0076a	-0.019534785
112	0x3db545fc	0.08851239
113	0x3cd52b1d	0.026021535
114	0x3d81ce77	0.06338208
115	0xbd10f7bc	-0.035392508
116	0xbd004f03	-0.03132535
117	0xbc4b65a4	-0.01241437
118	0x3d085bf9	0.033290837
119	0xbca6f61f	-0.020381032
120	0x3c9d4a33	0.01920042
121	0xbaf76a47	-0.0018876278
122	0x3d2d0ee9	0.042250548
123	0xbd065973	-0.03280015
124	0xbd28cb06	-0.041209243
125	0xbbb868b8	-0.005627718
126	0x3bb2f836	0.005461718
127	0xbcac9065	-0.021064946
128	0xbca28a94	-0.01984147
129	0xb8e843b0	-0.0001107523
130	0xbbad566d	-0.005289844
131	0x3cc8eb7a	0.024526346
132	0x3d006620	0.031347394
133	0xbd5673c1	-0.052356485
134	0x3d34505a	0.04402194
135	0xbcef2ba8	-0.029195622
136	0xbd886f04	-0.066617996
137	0x3d8431db	0.06454822
138	0xbd040807	-0.032234218
139	0x3c8a2cf3	0.016867137
140	0xbd817f54	-0.06323114
141	0x3d9350b2	0.07193126
142	0xbd3e24a1	-0.04642165
143	0xbcefd479	-0.02927612
144	0xb9d30113	-0.00040245857
145	0x3c66bf7b	0.014083738
146	0xbd0c7f61	-0.034301165
147	0x3d879521	0.06620241
148	0x3cbf5a27	0.023358418
149	0x3c649355	0.013951142
150	0xbce71459	-0.028207945
151	0xbb13f3dd	-0.0022575774
152	0xbd21336a	-0.039355673
153	0x3c7d5bd8	0.015463792
154	0x3cf138a4	0.029445954
155	0xbc4de382	-0.012566449
156	0xbbdcd354	-0.0067390595
157	0x3d8fc5b0	0.07020128
158	0xbcdc0590	-0.026858121
159	0x3ce839b7	0.028347833
160	0x3d23c178	0.039979428
161	0xbd04f1d6	-0.032457195
162	0x3d220b96	0.03956183
163	0x3defe3b5	0.117133535
164	0x3c95c705	0.018283376
165	0x3c488065	0.012237643
166	0xbc95275b	-0.018207243
167	0xbd11964b	-0.03554372
168	0x3c9c5d8c	0.019087575
169	0xbd130f9b	-0.035903554
170	0xbd73d546	-0.059529565
171	0xbd37b97d	-0.04485463
172	0xbd01e2bf	-0.031710383
173	0xbbbbad3f	-0.0057274397
174	0x3d7fc6a7	0.06244531
175	0xbd3cba38	-0.04607603
176	0xbd307a1b	-0.0430852
177	0xbd91de35	-0.07122461
178	0xbd8f6790	-0.07002175
179	0x3c498be6	0.012301421
180	0x3d0007e1	0.031257514
181	0xbd782c9b	-0.060589414
182	0xbc44ac8d	-0.01200403
183	0xbcf8271a	-0.030292083
184	0xbd908b93	-0.07057872
185	0x3cee74b7	0.029108388
186	0x3c4c79d4	0.012480218
187	0x3d33a3ff	0.04385757
188	0x3d47a34b	0.048739713
189	0xbc9c2c30	-0.019064039
190	0xbc63dcbc	-0.013907608
191	0x3c019c56	0.007910809
192	0xbc0b0a95	-0.00848641
193	0x3d220843	0.03955866
194	0x3bcc28aa	0.0062304335
195	0xbd77ef77	-0.060531106
196	0xbd023cce	-0.03179627
197	0xbd1171a1	-0.035508756
198	0xbcb5dd74	-0.022200324
199	0xbc316408	-0.010827072
200	0xbd6bb689	-0.057547126
201	0x3c9aa565	0.018877694
202	0xbcda4ba5	-0.026647398
203	0xbd5f1bf0	-0.054470003
204	0x3d8322b7	0.06403106
205	0x3d49cbf4	0.04926677
206	0xbd48723d	-0.04893707
207	0xbd53a361	-0.051669482
208	0x3d35fffd	0.044433583
209	0x3c0d1a8c	0.008612286
210	0xbcadc631	-0.02121267
211	0x3c134e3b	0.00899082
212	0xbb784e86	-0.00378886
213	0x3db67106	0.08908276
214	0x3d009a28	0.031397015
215	0xbd654eb3	-0.055983257
216	0xbd93c4c5	-0.07215265
217	0xbc6da9b7	-0.014505795
218	0x3d63572d	0.05550306
219	0xbd268c86	-0.040661357
220	0x3d5f2d89	0.054486785
221	0xbce6e1e3	-0.028183883
222	0xbd7e4006	-0.062072776
223	0x3d3b27c7	0.04569223
224	0xbd85eb33	-0.06539001
225	0xbc3dd61d	-0.011586693
226	0xbd53af17	-0.05168065
227	0x3db21f55	0.08697382
228	0xbd0a7d97	-0.033811178
229	0x3d8eeab7	0.06978362
230	0xbc827b36	-0.015927892
231	0x3cfb57f5	0.03068159
232	0xbc7ed20a	-0.015553007
233	0xbc9b67b5	-0.01897035
234	0xbd84409c	-0.06457636
235	0x3d5a3420	0.053272367
236	0xbc439824	-0.011938129
237	0xbcdce802	-0.026966099
238	0x3c35cc0e	0.011096014
239	0x3c83caf7	0.016087992
240	0x3dd72ae1	0.105062254
241	0xbd7eeb12	-0.0622359
242	0xbd0a07ba	-0.033698775
243	0x3d8389cc	0.06422767
244	0xbb3831b0	-0.0028105788
245	0xbc4eacb9	-0.0126144225
246	0xbd205bb5	-0.03914996
247	0xbd49119d	-0.049089063
248	0x3c9f5212	0.019448314
249	0x3ba6fee7	0.0050963047
250	0xbdef134e	-0.11673604
251	0xbc2f9a0b	-0.010717879
252	0x3db30bd0	0.087424874
253	0xbd1a645c	-0.037693366
254	0x3c709af6	0.014685383
255	0x3ab07436	0.0013462368

net.2.bias f4 [256]
0	0x3d492bb2	0.049113937
1	0x3d91458d	0.07093344
2	0xbde284ed	-0.1106051
3	0xbda5adbf	-0.0808978
4	0xbb93cec7	-0.0045107338
5	0x3cb7f627	0.022456242
6	0x3de75070	0.11294639
7	0xbd61734d	-0.0550416
8	0xbd59bd5b	-0.0531591
9	0xbaf18779	-0.0018427215
10	0xbd4883b0	-0.048953712
11	0x3d3ef358	0.04661879
12	0x3de3fe2f	0.11132466
13	0xbbc51bbe	-0.00601527
14	0xbc7c2f08	-0.0153920725
15	0xbc3f4505	-0.01167417
16	0x3d375e8e	0.04476791
17	0x3d86a4ae	0.06574379
18	0xbd250d75	-0.040296037
19	0x3d5e5782	0.054282673
20	0xbcad84d5	-0.021181503
21	0x3d32c773	0.04364724
22	0x3c492861	0.0122776935
23	0x3dc66ea9	0.096890755
24	0x3c55abd1	0.0130414525
25	0xbd8f8c2c	-0.070091575
26	0xbd53d48d	-0.051716376
27	0xbdfc8473	-0.1232995
28	0x3d6aea41	0.05735231
29	0xbcf859e6	-0.030316304
30	0x3ce09952	0.027416859
31	0xbd06d93e	-0.032922022
32	0x3db5527d	0.08853624
33	0x3e39fee0	0.18163633
34	0x3dafd077	0.085846834
35	0xbd1c8294	-0.038210467
36	0xbdd11d60	-0.10210681
37	0x3d2e7c2f	0.0425989
38	0xbd2aecc9	-0.041729722
39	0xbcc42202	-0.023941997
40	0x3cf257dc	0.02958291
41	0x3c0a13cf	0.008427574
42	0xbe06ea31	-0.13175274
43	0xbd8a26e4	-0.06745699
44	0xbc7fb26e	-0.015606506
45	0xbd8a6100	-0.067567825
46	0x3d8797ee	0.06620775
47	0xbdcfd8f6	-0.10148804
48	0x3e086ded	0.13323183
49	0x3d293e05	0.041318912
50	0xbcb34597	-0.021883769
51	0x3d61ed4a	0.055157937
52	0xbcf67954	-0.03008715
53	0x3dc34ad6	0.09535758
54	0xbcc9f598	-0.024653241
55	0xbc1feb8e	-0.00976075
56	0x3e22321f	0.15839432
57	0x3ddd2d0b	0.10799607
58	0xbcea584f	-0.028606562
59	0xbd60c329	-0.05487362
60	0x3d02d63d	0.031942595
61	0xbdad6ccf	-0.08468019
62	0x3da114e2	0.07865311
63	0x3ca3c05b	0.019989183
64	0xbc9941cc	-0.018708132
65	0xbd8dd86d	-0.069260456
66	0xbd2b9272	-0.041887708
67	0x3dc362eb	0.095403515
68	0x3db2b1f6	0.087253496
69	0x3d4dec55	0.050274212
70	0x3d94fae9	0.0727442
71	0xbd47f45c	-0.048817024
72	0xbc63270a	-0.013864288
73	0xbcc13a3e	-0.023587342
74	0x3c7991f3	0.015232551
75	0xbd4a2c5f	-0.04935872
76	0x3c1d3946	0.009596175
77	0xbcf20424	-0.02954299
78	0xbdddb9a8	-0.10826427
79	0x3de6eea5	0.112759866
80	0x3cf058d6	0.029339235
81	0x3da35629	0.07975418
82	0xbd60ac85	-0.054852027
83	0xbcab2f9b	-0.020896723
84	0x3c72d1f7	0.014820567
85	0x3cd0d27e	0.025490995
86	0x3c98b1d3	0.01863948
87	0xbdc88809	-0.09791572
88	0xbd001506	-0.03127005
89	0x3de05910	0.10954487
90	0x3e13ce74	0.14434224
91	0x3cbf3728	0.02334173
92	0xbcbacdf9	-0.022803294
93	0x3d59ebd5	0.053203423
94	0x3df98a0e	0.12184535
95	0x3cd92236	0.02650557
96	0x3d85da99	0.06535835
97	0x3d902201	0.07037736
98	0x3e0e8011	0.13916041
99	0x3d92ff5b	0.071776114
100	0xbd70ef3a	-0.058821894
101	0xbcfd9975	-0.030956963
102	0xb8ae4af5	-8.3109284e-05
103	0x3a61d33f	0.0008614547
104	0xbd8f5c4e	-0.070000276
105	0xbd126813	-0.035743784
106	0x3cf8712c	0.030327402
107	0xbb2700d9	-0.0025482683
108	0x3d1ed264	0.038774863
109	0xbd9e06ea	-0.077161625
110	0x3d51b705	0.05119993
111	0x3dd4cf6e	0.103911266
112	0xbb8c58b7	-0.0042830366
113	0x3a717bda	0.0009211876
114	0xbd02eab8	-0.031962126
115	0x3d45552c	0.04817693
116	0xbca385ea	-0.019961316
117	0xbc05e0ca	-0.00817127
118	0x3d1ebf54	0.038756683
119	0xbdb31b3a	-0.087454274
120	0x3c8be0b9	0.01707493
121	0xbd8e6a7e	-0.069539055
122	0xbccd601e	-0.025070246
123	0xbd74a9f3	-0.05973239
124	0x3dcb133e	0.099157795
125	0x3dcb1cfd	0.099176385
126	0x3d095d76	0.033536397
127	0x3c593536	0.013257315
128	0xbd4aadc6	-0.04948213
129	0xbd75a50f	-0.059971865
130	0xbd818d3e	-0.06325768
131	0x3d0209d0	0.03174764
132	0xbdd20eea	-0.10256751
133	0x3ca1d6f1	0.019755812
134	0x3dcab2d6	0.098973915
135	0xbd4d5257	-0.050127354
136	0xbd48cbb4	-0.04902239
137	0x3b81f93f	0.00396648
138	0x3c965669	0.01835175
139	0x3d92fc09	0.07176978
140	0x3e06a1c1	0.13147642
141	0x3d447919	0.04796705
142	0xbd803325	-0.06259755
143	0xbe03c985	-0.12869842
144	0x3dca8d59	0.09890241
145	0x3cc4d0af	0.02402529
146	0x3aa1f56f	0.001235647
147	0x3d9278e7	0.071519665
148	0x3e0201b2	0.12695959
149	0x3e2e593a	0.17026225
150	0xbd7fe1a7	-0.06247106
151	0x3e05ff47	0.13085662
152	0x3cadb097	0.021202369
153	0x3cf34783	0.029697185
154	0x3d7ab8ef	0.061211523
155	0xbd849af8	-0.064748704
156	0x3d53e809	0.051734958
157	0x3e399e43	0.18126778
158	0xbd1ddac0	-0.038538694
159	0xbd5918ff	-0.053002354
160	0x3cac6a3c	0.02104675
161	0x3de6e256	0.11273639
162	0x3ca4e56f	0.020128934
163	0x3be8ef93	0.0071086376
164	0x3dabe57e	0.083933815
165	0x3d4133b5	0.047168452
166	0x3b1d5aee	0.0024010497
167	0xbdb35a30	-0.08757436
168	0xbd1c8780	-0.03821516
169	0x3d4adc5b	0.049526554
170	0x3d05b23e	0.032640688
171	0xbb1fb2d6	-0.002436807
172	0x3d2b6e9a	0.041853525
173	0x3cdd3400	0.027002335
174	0x3cbf98fd	0.02338838
175	0xbd925e04	-0.07146838
176	0x3d4634ed	0.048390318
177	0x3d445d92	0.047940798
178	0x3e08822a	0.13330904
179	0x3d6f9c63	0.05849875
180	0xbdbf92eb	-0.09354194
181	0xbb8074d0	-0.003920175
182	0x3d30761a	0.04308138
183	0x3ca9759c	0.020685963
184	0x3d44dd97	0.048062887
185	0x3d98d8b6	0.07463209
186	0x3dbb416e	0.09143339
187	0x3d13ef10	0.03611666
188	0xbe0b1ac6	-0.13584432
189	0x3b87cb4d	0.0041441084
190	0xbd83b5f8	-0.06431192
191	0xbc975ddb	-0.018477371
192	0x3da25dd7	0.07928055
193	0x3d18129d	0.037127126
194	0x3d78bf3b	0.060729247
195	0xbb3f47cd	-0.0029187084
196	0x3e34bc05	0.17649849
197	0xbe015c55	-0.12632878
198	0xbd17f154	-0.037095383
199	0xbd869fdd	-0.0657346
200	0x3e1284d7	0.14308487
201	0x3d5b312d	0.053513695
202	0x3c1906ca	0.009339998
203	0x3d9929d9	0.07478685
204	0xbc44f07a	-0.012020225
205	0x3dd45a24	0.103687555
206	0xbd823048	-0.06356865
207	0xbc4041e4	-0.01173446
208	0x3d4b2ef5	0.04960533
209	0xbd146050	-0.036224663
210	0xbdbe8493	-0.0930263
211	0x3d735176	0.05940386
212	0xbe06015f	-0.1308646
213	0x3da6325c	0.08115074
214	0xbd99bd3c	-0.07506797
215	0xbd019c48	-0.031643182
216	0xbd91bc06	-0.07115941
217	0x3df4c02a	0.11950715
218	0x3d198b4d	0.037486363
219	0x3db8b7bf	0.09019422
220	0xbd8d6682	-0.069043174
221	0xbc9eb86c	-0.019375049
222	0xbad75de0	-0.0016431175
223	0x3b47af3a	0.0030469433
224	0x3cb3c99a	0.021946717
225	0x3bfe7642	0.0077655623
226	0xbd697c8c	-0.057003543
227	0x3d28ba02	0.041193016
228	0x3d9897ac	0.07450804
229	0x3d6fc507	0.05853751
230	0xbde5fc8c	-0.1122981
231	0x3cc992b7	0.024606092
232	0xbddcaabf	-0.10774755
233	0x3c8f7044	0.017509587
234	0xbda596cd	-0.080854036
235	0x3a1e5672	0.0006040103
236	0x3d9e2384	0.07721618
237	0xbd3c0ac4	-0.045908704
238	0x3df916a2	0.1216252
239	0x3a8602d9	0.0010224237
240	0x3d03a208	0.032136947
241	0xbd6bfbfd	-0.05761336
242	0x3db5dae9	0.088796444
243	0xbb4cbb7d	-0.0031239681
244	0x3dae3b0f	0.08507358
245	0xbd6693f4	-0.056293443
246	0xbd80cfd2	-0.062896386
247	0xba684346	-0.0008860122
248	0xbdb7fe2f	-0.089840285
249	0x3d178495	0.036991674
250	0x3c0abbf9	0.008467668
251	0x3e0f8b68	0.14018023
252	0x3d9fc34d	0.078009225
253	0x3b900a05	0.0043957257
254	0x3c94e51f	0.01817566
255	0xbbfe68f3	-0.0077639758

net.4.weight f4 [3, 256]
0	0xbd4c92a3	-0.04994453
1	0x3dc26276	0.09491436
2	0xbe0a20dd	-0.13489099
3	0xbd171180	-0.036881924
4	0xbc046f63	-0.008083197
5	0xbd621a7d	-0.055201042
6	0x3d0c516e	0.034257345
7	0xbc1342e1	-0.008988113
8	0x3c6d8fb3	0.014499593
9	0x3d142ae9	0.036173735
10	0xbd83696d	-0.06416593
11	0x3d37f8e0	0.04491508
12	0x3d103610	0.035207808
13	0xbdaa2370	-0.083075404
14	0xbc4d18c6	-0.0125181135
15	0x3d156118	0.03646955
16	0x3d007b82	0.031367786
17	0x3dec0cd6	0.11525886
18	0xbd386a30	-0.045023143
19	0x3d82a2fc	0.06378743
20	0x3d2b1737	0.041770186
21	0xbd43b5a0	-0.047780633
22	0x3d411e76	0.04714819
23	0x3ddccdff	0.10781478
24	0xbc5248fe	-0.0128347855
25	0x3c1f5e4e	0.009727074
26	0xbd0ef423	-0.034900796
27	0xbde60ddf	-0.112331145
28	0x3d1ad929	0.037804756
29	0xbd2c8030	-0.042114437
30	0x3d412ded	0.04716294
31	0x3b6fdac8	0.003659891
32	0x3d1a7d29	0.03771702
33	0x3dab787c	0.0837259
34	0x3d82f938	0.06395191
35	0x3d137de7	0.03600874
36	0xbd415782	-0.047202595
37	0x3ddf15fc	0.10892865
38	0xbda7c193	-0.08191218
39	0xbd9537a9	-0.07286007
40	0xbcc36f6e	-0.023856845
41	0xbc8f9988	-0.017529264
42	0xbdf7fed7	-0.12109154
43	0xbd6f442c	-0.058414623
44	0x3d930cee	0.071802005
45	0xbd6a5424	-0.05720915
46	0x3c76342e	0.015027089
47	0xbcc53400	-0.024072647
48	0x3d79d0b9	0.06099007
49	0x3c1c7eed	0.009551746
50	0xbcc5509a	-0.024086285
51	0xbc984c67	-0.018591119
52	0xbda0ad34	-0.07845536
53	0x3d8ef38e	0.06980048
54	0xbc28de2c	-0.010306876
55	0x3cf68843	0.030094272
56	0x3db2c3a1	0.087287195
57	0x3ce58b63	0.028020566
58	0xbc8d7a9a	-0.017270375
59	0xbd5a734b	-0.05333261
60	0xbd2e7e84	-0.042601123
61	0xbdcbb2b3	-0.099461935
62	0x3d0227f1	0.031776372
63	0x3da101d1	0.078616746
64	0xbbe1f227	-0.006895322
65	0x3c9292cf	0.01789227
66	0xbd9a4f08	-0.07534605
67	0x3d352d17	0.044232454
68	0x3db9846b	0.0905846
69	0x3e0ba0ae	0.13635513
70	0x3e09e9f6	0.13468155
71	0xbc871a34	-0.016491987
72	0x3c924e0c	0.017859481
73	0xbdadef20	-0.08492875
74	0x3d57f077	0.05271956
75	0x3d548a09	0.051889453
76	0xbcf168ea	-0.029468972
77	0x3bff3659	0.007788461
78	0xbdc90d23	-0.09816959
79	0x3d3a76ec	0.04552357
80	0xbc9fc954	-0.01950518
81	0x3c8cac19	0.017171906
82	0xbc8e5f4d	-0.017379427
83	0xbcb7b1c7	-0.022423638
84	0x3b6ea2f9	0.0036413057
85	0x3c82191e	0.015881117
86	0xbbbf246d	-0.0058331997
87	0xbdca3c02	-0.09874727
88	0x3c808891	0.01569012
89	0x3e1517c5	0.14559849
90	0x3dd4b250	0.10385573
91	0x3d52b1e5	0.051439185
92	0xbc7ea5ac	-0.015542429
93	0x3d4a8909	0.049447093
94	0x3cfb3cf8	0.03066872
95	0xbc10cc71	-0.008837805
96	0xbcbe9abd	-0.023267144
97	0xbc86ca34	-0.01645384
98	0x3cd40517	0.025881333
99	0x3d638d76	0.05555483
100	0xbcbb08df	-0.022831379
101	0xbcfffa03	-0.031247145
102	0xbd071b4a	-0.03298501
103	0x3d8f3443	0.0699239
104	0xbd5c4063	-0.05377234
105	0xbd3454f1	-0.04402632
106	0x3da7a996	0.08186643
107	0xbc90a23b	-0.017655483
108	0x3daea1f9	0.085269876
109	0xbd0d7002	-0.034530647
110	0x3d526076	0.051361524
111	0x3d0a5bf9	0.03377912
112	0xbc59d4da	-0.013295377
113	0x3cf82da7	0.030295206
114	0xbd228f74	-0.03968759
115	0x3d65b085	0.056076545
116	0x3d925e7b	0.07146927
117	0xbc5ffccb	-0.01367111
118	0x3dd9e193	0.10638728
119	0xbd5ea9a6	-0.054361008
120	0x3c400926	0.011720931
121	0xbd97494b	-0.073870264
122	0xbd909157	-0.070589714
123	0xbb16eccc	-0.0023029326
124	0x3e310065	0.17285307
125	0x3da86f05	0.082243
126	0x3db56bf3	0.0885848
127	0x3d1d7fa4	0.038451806
128	0xbbdc4e31	-0.0067231883
129	0x3d181959	0.03713355
130	0x3c341ba3	0.010992917
131	0xbd0a6b30	-0.03379363
132	0xbd2f89d3	-0.04285605
133	0x3d9d777e	0.07688807
134	0x3d447eae	0.047972374
135	0xbd845213	-0.06460967
136	0xbd18c6d3	-0.03729899
137	0x3d2704ad	0.040775944
138	0x3d461cd8	0.04836735
139	0x3d0fec88	0.035137683
140	0x3dd618cc	0.104539484
141	0x3be1d529	0.0068918657
142	0xbd1d2056	-0.038360916
143	0xbd81d57a	-0.063395455
144	0x3bd93ec2	0.006629796
145	0xbcbd857d	-0.023134941
146	0xbc648446	-0.013947552
147	0x3e201f11	0.15636851
148	0x3d2dd854	0.042442635
149	0x3dd56b9d	0.10420916
150	0xbd125631	-0.03572673
151	0x3e0e4b6d	0.1389596
152	0x3d740013	0.059570383
153	0xbd338567	-0.043828394
154	0x3dc36a85	0.09541801
155	0xbda5aa2a	-0.08089097
156	0x3d2875a0	0.0411278
157	0x3e1f53b3	0.15559272
158	0x3c165227	0.00917486
159	0xbd132b75	-0.035930116
160	0x3d256009	0.04037479
161	0x3ceb2c4a	0.028707642
162	0xbcbb86c2	-0.022891406
163	0x3d9086fd	0.07056997
164	0x3d1f5345	0.03889777
165	0x3c76df2a	0.015067855
166	0x3d2cad74	0.042157605
167	0xbd8b3db8	-0.06798881
168	0x3d4cbe46	0.049986146
169	0x3cf4f351	0.029901179
170	0x3d13dddc	0.036100253
171	0x3db20511	0.086923726
172	0xbd4c6008	-0.04989627
173	0x3b1094b9	0.0022061302
174	0x3e038543	0.12843804
175	0x3c89068e	0.016726758
176	0x3d8c3f83	0.068480514
177	0x3d020750	0.031745255
178	0x3cd3e681	0.025866749
179	0x3c9c55ae	0.019083824
180	0xbd26d539	-0.04073069
181	0x3d428d74	0.04749818
182	0x3d930c5a	0.0718009
183	0x3cc43cfd	0.023954863
184	0x3d14e5da	0.036352016
185	0x3ded292d	0.11580119
186	0x3dd14152	0.10217537
187	0x3dd0a5c0	0.10187864
188	0xbdd945af	-0.10608994
189	0xbd2c1d5d	-0.04202019
190	0x3bda205a	0.0066566886
191	0xbc9d8b76	-0.01923154
192	0x3c6e1ed2	0.014533715
193	0x3d668aac	0.05628459
194	0x3dcf1619	0.10111637
195	0xbd3f647e	-0.046726696
196	0x3e18d529	0.14925064
197	0xbdaefabb	-0.08543917
198	0xbd25f36b	-0.040515345
199	0xbdbe0512	-0.09278311
200	0x3db8f308	0.090307295
201	0xbccfab13	-0.02535013
202	0xbc8d9504	-0.01728297
203	0xbc9c6e2a	-0.019095499
204	0xbc8d329c	-0.017236046
205	0x3daeed22	0.08541323
206	0xbd852384	-0.06500915
207	0xbcdf053c	-0.027224176
208	0x3ca6fcd2	0.020384226
209	0x3c92261f	0.017840443
210	0xbdc8d1a2	-0.09805609
211	0x3d5215bc	0.05129026
212	0xbdcd98e9	-0.10038931
213	0x3d66fda6	0.05639424
214	0xbc8dbc25	-0.017301628
215	0xbd97841d	-0.073982455
216	0xbdd3ffbd	-0.103515126
217	0x3dd68cd0	0.104760766
218	0x3d5fc5f9	0.05463216
219	0x3d267da4	0.040647164
220	0x3b4ff6f0	0.003173288
221	0x3d257c18	0.04040155
222	0x3b965ac9	0.004588459
223	0x3d661e3d	0.05618118
224	0x3d5a4eb8	0.05329773
225	0x3d34fc90	0.044186175
226	0xbcda37e5	-0.02663798
227	0x3d8df0d9	0.06930704
228	0x3b703dd7	0.0036657953
229	0x3d64e376	0.055880986
230	0xbd1e00b3	-0.038574886
231	0xbd22e329	-0.039767418
232	0xbd7d3814	-0.06182106
233	0x3ddd378c	0.1080161
234	0xbdd1f2f2	-0.10251416
235	0x3c86a721	0.016437115
236	0x3d0a4b09	0.033762965
237	0xbb137d65	-0.002250516
238	0x3d68ceaf	0.056837734
239	0xbd272018	-0.04080209
240	0x3d0ea6b4	0.03482695
241	0xbdab95df	-0.08378195
242	0x3e05a85c	0.13052505
243	0xbcb026c4	-0.02150286
244	0x3dba2d9e	0.09090732
245	0xbc38f399	-0.011288547
246	0xbdbb0e08	-0.091335356
247	0x3d3eb3f8	0.04655835
248	0xbd4a19b9	-0.049340937
249	0x3d52627a	0.051363446
250	0xbc69a7a1	-0.014261157
251	0x3e1b59bf	0.15170954
252	0x3db39b17	0.087698154
253	0xbd790077	-0.06079146
254	0x3d0f1156	0.034928642
255	0xbd583ef5	-0.052794416

net.4.bias f4 [3]
0	0x3d85f5f4	0.065410525
1	0x3cae240a	0.02125742
2	0x3d838796	0.06422345
