SAC_Model/checkpoints/sac_critic_400.pth (torch, 565602 bytes, 10 tensors)

q1.0.weight f4 [256, 15]
00000000: 9af1 123c c8d5 b1be a95a aebe 6859 283e
00000010: d0ec 1b3d e443 12be e6b5 123f 46a7 3abf
00000020: 5196 993e 91a3 c0be d3d0 0d3d 6793 aabd
00000030: 0266 d5bd bf19 823e 0099 a63e 7409 163e
00000040: ad65 9cbd 031e 46be 7fca 47be 5895 043e
00000050: fec3 3b3e 47b9 913e 6be4 243e 9cd6 e13e
00000060: ddd2 2e3d 132a e43e 15c9 4cbe dccb 813e
00000070: da2b 87bd 2634 94be 0e28 803e 800e 3a3e
00000080: a02b 0d3f ba7a 63be 18c7 f63d 8c5e 64bd
00000090: 9820 b4ba 0b20 38bd 822e 5ebd 7c20 903d
000000a0: 6350 ce3d 9308 ff3e 691e 3cbe ea46 573e
000000b0: 8fb4 043e cf8c 1cbe 93ef 173f c676 e0bd
000000c0: 884b 333e da46 583e 002c 70bb 8640 6a3e
000000d0: b10e 1ebe 68d3 14bf 24ed 8a3e 1b49 ff3d
000000e0: 329e 9bbe d833 0abd 0dba bb3e c525 b0be
000000f0: e9dc 07bf 95f5 b9bf df44 2ebe e847 b13d
00000100: 2ac5 393e 6e84 80be 339d debd 0fd2 cfbd
00000110: c5ba ec3e 3ad1 64bf 5672 6dbd 8dba a3bd
00000120: 5cfc 303d 067e dcbe fc57 bb3e ae09 32bf
00000130: 43a8 8bbf 3adc 54bd d640 62be c872 9e3d
00000140: bf86 74be ca2a 283e 791e 13bf 2011 38bd
00000150: c500 dfbe 9f24 afbd e49d 0e3f 003e 03bf
00000160: da09 15bf 0a59 363b c52f 823e 36b4 9dbd
00000170: 2d2d b7be 0a71 7dbe 8869 2f3e fc44 58be
00000180: abba 793e 1e6f bc3d 61f1 85bd 10f0 dc3b
00000190: 85d2 473f a4ee 88bd 4359 393e c225 a6bd
000001a0: 8708 39bf f59d 1c3e c310 17be d468 353f
000001b0: 689f 4abe 1ea5 01be e241 01be 0ecf c63e
000001c0: f24b 463e 9a40 263e 2772 3c3e 8943 653d
000001d0: 0fa8 e43e d0a0 2e3c fb14 493d 9724 ca3e
000001e0: 71f4 b53e 60ab a7bd 3b6e 513e 8f82 40be
000001f0: 60ea 473d 73fe 0dbe 53ed e5be cec0 203e
00000200: 6dd2 cebd 84fc 91bd 448f 7fbf 51dd c63e
00000210: 9257 fd3d fc26 1cbe 4bd6 1b3e 98f6 473d
00000220: 6e2d 013d 031b 1e3d f0b9 4a3d 00b9 513d
00000230: 8083 6dbb 1f7d c1be e3b6 8f3e bd74 01bd
00000240: 20de f13d cb6f a33e bcd4 80be ce02 dfbd
00000250: 7d7c 463e c912 1ebd 3cf2 a1be db05 aabe
00000260: 2d30 233e 0fef 57be 9c20 b7bd c6c9 3d3e
00000270: eb72 163e 923d d0bc 3b81 9fbd 23dc 893d
00000280: 6192 0dbe 7815 023f b4f6 fe3e 8b56 093e
00000290: c5c8 5a3e b952 fb3e 5442 2e3e f371 913d
000002a0: 80e5 7fbb 4814 c33d 49a6 04be b89f 373e
000002b0: b87c 4dbe ec11 573e 4afb 453d 0d7d 63bf
000002c0: 7bf9 f03e 10a2 98be c318 fd3d 5740 573f
000002d0: fe54 ca3e 3822 39bd 3b64 ccbe 6c41 173e
000002e0: d4ff 5dbd 9810 8dbc 4409 31be 5f00 c43d
000002f0: 55cd 273e e356 df3d 4360 b23e abba 723d
00000300: e438 c13d 0dae 8ebd dc1f afbd b1fc 373f
00000310: 4b38 ca3d 00e2 d23e 1e57 7cbe c06a 14be
00000320: d667 dabd 7bac 33be 7be3 623d ba50 0abf
00000330: 9fda ff3e 1783 4ebe 0f5f b43c 5b63 29bd
00000340: e0aa 153f a379 103f 295f c43d 05ab 9a3e
00000350: c7d1 263f 5875 543e ae72 3d3e 80cc 8bbb
00000360: cbf1 b5bd b83d f13d fc0b 9f3e b204 f7bb
00000370: e571 70be 76f4 0e3f 25ef 783e d661 fd3d
00000380: 7ebb b7bd 70a8 b4bf 8655 f8be 70e6 2abf
00000390: 0886 3fbe 0015 733c d43a b7bd 4e70 df3e
000003a0: c020 75bf a008 073f 754c 3c3e 5507 8a3d
000003b0: 2f19 e4be 287d 63bf 6ecb c43d c5be e23d
000003c0: df6c 4a3e ed27 103e a7df 163e 1b7e 48be
000003d0: 40d3 f63b 208d 263c fcfc 7c3e 2b7f a73e
000003e0: c92b 993d ebe8 703e 96a7 2abe 857c dc3e
000003f0: 0589 a4be 58da b5bd d4d2 debc 4e65 66bd
0.008968735 -0.34733415 -0.34053543 0.16440356 0.03806764 -0.1428371 0.57308805 -0.7291149
0.29997495 -0.3762479 0.03462298 -0.08328896 -0.10419847 0.25410268 0.32538605 0.14652044
-0.076365806 -0.19347386 -0.1951084 0.12947595 0.18336484 0.28461668 0.1610276 0.44109046
0.042681564 0.4456335 -0.19998582 0.25350845 -0.06600161 -0.28946036 0.2503056 0.18169594
0.5514469 -0.22214785 0.12049693 -0.05575423 -0.0013742624 -0.044952434 -0.054243572 0.07037446
0.10073926 0.4981123 -0.18370976 0.21023145 0.12959503 -0.15288089 0.59349936 -0.10960154
0.17509282 0.21120778 -0.003664732 0.22876176 -0.15435292 -0.5813508 0.2713405 0.12465116
-0.3039413 -0.03374085 0.36665383 -0.34403816 -0.5307146 -1.4528071 -0.1701846 0.08656293
0.18141618 -0.25101036 -0.10869827 -0.10147487 0.46236244 -0.89381754 -0.057970367 -0.07994566
0.04320942 -0.43064898 0.36590564 -0.6954602 -1.0910724 -0.051967837 -0.22095045 0.077367365
-0.23879527 0.16422573 -0.5746837 -0.044938207 -0.43555275 -0.08551907 0.5570967 -0.5126648
-0.5821816 0.0027824068 0.2542707 -0.07700388 -0.35776654 -0.24750152 0.171301 -0.21120065
0.24387614 0.092008814 -0.0654018 0.006742485 0.780556 -0.06686142 0.18100457 -0.081126705
-0.72278637 0.15294631 -0.14752488 0.7086308 -0.19787371 -0.12660643 -0.12622789 0.38829845
0.19364908 0.16235581 0.1840292 0.05597261 0.4465947 0.010658458 0.049092274 0.3948104
0.35538056 -0.08186984 0.20452206 -0.18799804 0.0488075 -0.13866596 -0.44907627 0.15698549
-0.10098729 -0.07128242 -0.9982798 0.38840726 0.12370218 -0.15249246 0.15218465 0.048819155
0.031537466 0.03859998 0.04949373 0.05120182 -0.003624171 -0.37790772 0.2806922 -0.03160547
0.11809945 0.3192123 -0.25162303 -0.10889207 0.19383426 -0.038592134 -0.31630123 -0.33207592
0.15936346 -0.21087287 -0.089417666 0.18534002 0.14692275 -0.025419984 -0.07788321 0.06731441
-0.1382537 0.5081401 0.49797595 0.1341192 0.2136565 0.4908655 0.1701749 0.07101812
-0.0039046705 0.09525353 -0.12954058 0.17932022 -0.20067108 0.2100293 0.04833535 -0.8886269
0.47065338 -0.29811144 0.123582385 0.8408255 0.3951797 -0.04519865 -0.3992022 0.1477105
-0.054199055 -0.017219827 -0.17288691 0.09570383 0.16386922 0.10905244 0.34839067 0.05926005
0.09434679 -0.06966791 -0.085509986 0.7186995 0.09874018 0.4118805 -0.24642608 -0.14493847
-0.106643364 -0.17546265 0.055392724 -0.5402943 0.49971482 -0.20167194 0.022017984 -0.04135452
0.5846386 0.564356 0.09588463 0.30208603 0.65163845 0.20747888 0.18500778 -0.0042663217
-0.08884009 0.1177935 0.3106383 -0.0075384015 -0.23480947 0.5584177 0.24309976 0.12372176
-0.08971308 -1.4113903 -0.4850275 -0.6675787 -0.18703473 0.01483655 -0.089467674 0.4364037
-0.957531 0.52747536 0.18388541 0.0673968 -0.44550464 -0.8886285 0.09609114 0.11071543
0.19768094 0.1407773 0.14733754 -0.19579355 0.007532507 0.010165483 0.24705881 0.3271421
0.074790545 0.23526351 -0.16665491 0.4306375 -0.32135788 -0.088795364 -0.02720014 -0.056248955

q1.0.bias f4 [256]
00000000: ee96 dabe 715d ca3e b384 9c3e 4f52 eebe
00000010: 5587 cc3d d274 1f3f a495 543d b297 903e
00000020: f62c 9b3b 81ab d13e 9902 11bf d63d 423e
00000030: 7a1e 813e 6a7f 42be 9b16 b53e e504 2c3f
00000040: 9b3c cb3e 2e85 20be 20df c4bd 1629 0b3e
00000050: 34d7 1abf 98f0 fb3e 3d2a 033f b05a f43d
00000060: c94b 1dbf fed3 ba3e 6a28 26bf 0075 eabe
00000070: 2a69 d43e 65ea b23e 4fc1 f8be f785 023e
00000080: d0ea 753e 03c5 cb3e b8b9 46bf 5903 1a3e
00000090: eb89 99bc 79e4 613e a491 28be cb70 fc3e
000000a0: 8429 993e 758b 41bf be7f b53d f15e 9b3e
000000b0: 2e5a e33e 84ca ccbe 7d1f 9d3d 8fc3 833e
000000c0: a1c2 863e b6dc 233f eb4e 02bd 49f2 fdbc
000000d0: c944 6abe a583 073e 9f64 03be 0d57 a03e
000000e0: b0a9 a8bd c279 ad3e b1f4 983e c5a2 2c3f
000000f0: cfc8 163e 37e6 d9be 6717 10bf a15f dfbe
00000100: 57b3 a93e 64e1 ba3d 6162 c23e 2a59 1d3d
00000110: 82e6 44bc c9a9 a13e f28e 9e3d e319 05bf
00000120: d572 da3c b6df 993f 3a91 24bf 0d51 2ebe
00000130: 96c5 d03d 44a9 18bf 65c1 ccbe d2be 93bc
00000140: 56e0 bfbe c369 5c3f 588b d63e fd16 613e
00000150: 17a0 22bf 9e73 4f3e f9eb 7c3d ef63 21bf
00000160: d026 2fbf 50a5 113f d3d4 143f 5aec d3bc
00000170: d844 9f3e 5186 0f3e ed7d 273e 9a1b 163f
00000180: 4b13 403e 85d8 34be ef2a a63d df2b 413f
00000190: 5f4f b93e 1617 39bd 014f 09be f09c 033f
000001a0: 89ba 2c3f b77b ecbe d90b 6b3b ca60 423f
000001b0: b0af 013c 5a71 cb3e 9096 f93e 392b 9d3e
000001c0: 1f7d 0e3f 4e65 723d a784 b03d b1d3 643d
000001d0: 2c87 773e 5ee4 39bf eefa f0bc ef30 0c3f
000001e0: 3157 ae3e eaef 3e3e b591 da3c bc33 87be
000001f0: c083 213f e931 aa3e 38e0 723e 5463 873e
00000200: 243e 10bd 4ee6 ef3e 6dea ce3e 02f7 9c3e
00000210: f0c2 b53e aee3 6b3e baf7 2ebf cd40 573d
00000220: 7225 843e feb8 2fbf 549c 6cbe 16c5 bc3e
00000230: f49e 9b3e d23f 5b3e dd38 57bf 7d7d 03be
00000240: 451c b93e 1c43 47bf e0fe e23e 5363 643d
00000250: c9e8 45bf be53 18bf 24c2 353e 06b3 44bf
00000260: f8f2 8e3e c7f1 353f d926 f83e 75c9 313f
00000270: 02f8 3bbd b42b c83c bb55 173f 9fb6 71be
00000280: b47d 3d3e 4a28 c53e 9f2d 8d3d 8c17 2dbf
00000290: 5d11 3f3c 2566 213e 5dd3 9b3e a1ea 883e
000002a0: c77a 743d 5ffa 4e3e a9de 833d f4a9 6e3f
000002b0: 279d 2e3e b6ed 13bf a944 363e 71d1 2f3f
000002c0: 7064 98be b5c4 f33d dbcf 9b3e 93b1 b7be
000002d0: a97f 8a3d a14a ef3e 9f99 0ebe cfb4 5a3d
000002e0: 8c20 44be 5a40 613e 0f2f 093e 36ad 7c3d
000002f0: 5f09 17bf ed63 9a3e 6923 1d3e ae7c e0be
00000300: 98fc 0abf c87b 54bd dfed 2cbe 9328 ec3e
00000310: 02c4 38bf 2f35 9abd 2660 e83d b4ce dabe
00000320: 5260 d53d cfe8 c83e 1e6c 0b3e 07d4 103f
00000330: d9e6 843e 5aaf 11be ed54 25be 7275 63bf
00000340: 40ab ba3e e632 a03e 1b08 463e 9be6 59bf
00000350: 1533 533e b1b0 28be 91bf 2f3d f911 0abf
00000360: 0e19 63bd d4b5 373e 4e22 383e 9503 913e
00000370: b251 f3be 9911 3e3f 88e0 ba3d 5290 0f3e
00000380: 3594 31be 99d6 2f3e 332f 9d3e 90aa adbd
00000390: c903 943e 490b d83e 4d00 e6be 5bbf ad3e
000003a0: bff3 b93e 8af0 8dbd 2bbd de3e c640 163e
000003b0: d920 60bf 73a7 c73e ec76 953d c536 d5bc
000003c0: fbff e83e 6d6f c33e cc28 e73e 8a69 883e
000003d0: 477b efbe 76ec 663c 4007 053d 2cb7 f13e
000003e0: ed8e a13e 913e 17be bd29 943e a0bb acbd
000003f0: 13d0 023e 646d 2cbf 21f3 423f 3eaa 2c3f
-0.42693275 0.39524415 0.3056999 -0.4654717 0.0998675 0.6228763 0.05190052 0.28240734
0.0047355844 0.4095116 -0.5664459 0.18968901 0.25218564 -0.18993917 0.3536881 0.6719497
0.39694676 -0.15675804 -0.0961287 0.13589892 -0.60484624 0.49206996 0.51236326 0.1193136
-0.61443764 0.36489862 -0.64905417 -0.4579239 0.41486484 0.34944454 -0.48584983 0.12746416
0.24015355 0.39798746 -0.77627134 0.1504034 -0.018742522 0.22059812 -0.16461807 0.49304804
0.29914486 -0.7560342 0.088622555 0.30345872 0.4440474 -0.39998257 0.076720215 0.25735137
0.26320365 0.64008653 -0.031813543 -0.03099932 -0.22877802 0.13233812 -0.12831353 0.31316414
-0.0823549 0.33881956 0.29874185 0.67435867 0.1472504 -0.42558452 -0.5628571 -0.43627647
0.33144638 0.09125021 0.37965682 0.03841511 -0.012017848 0.31574848 0.077421084 -0.51992625
0.026666084 1.2021396 -0.642841 -0.17023106 0.101939365 -0.5963328 -0.39991298 -0.018035326
-0.37475842 0.8609888 0.41903186 0.21981426 -0.6352553 0.20258948 0.06174848 -0.6304311
-0.684186 0.5689287 0.58137244 -0.025869537 0.3110721 0.14016081 0.1635663 0.58635867
0.1875736 -0.1766072 0.08113658 0.75457567 0.36193368 -0.045188032 -0.13409044 0.5141134
0.6747213 -0.46188137 0.0035865216 0.7592894 0.007915422 0.39734918 0.48747683 0.3069704
0.5565967 0.059178643 0.086190514 0.055865947 0.24172658 -0.72614086 -0.029416528 0.54762167
0.34050897 0.18646207 0.026680807 -0.26406658 0.6309166 0.33241203 0.23718345 0.2644297
-0.035215512 0.46855396 0.40413228 0.30657202 0.35500288 0.23036072 -0.6834675 0.052552033
0.25809819 -0.6864165 -0.2310651 0.36869115 0.3039471 0.21411064 -0.8407114 -0.12840839
0.3615438 -0.77836776 0.4433508 0.055758785 -0.77308327 -0.5950278 0.1774984 -0.7683567
0.27919745 0.7107205 0.48467138 0.69448024 -0.045890816 0.024434902 0.5911519 -0.2360482
0.18504983 0.385073 0.06893467 -0.67614055 0.011661855 0.15761621 0.30434695 0.26741508
0.059687402 0.20212696 0.064389534 0.9322808 0.17052136 -0.57784593 0.1779963 0.6867896
-0.29764128 0.11902753 0.3043202 -0.35877666 0.067626305 0.46736625 -0.1392579 0.05339509
-0.1915304 0.21997204 0.13396858 0.061688624 -0.58998674 0.30154362 0.15345539 -0.43845123
-0.5429168 -0.05187586 -0.16887616 0.46124706 -0.72174084 -0.07529675 0.11346464 -0.42735827
0.10418762 0.3924012 0.13615462 0.5657353 0.25957373 -0.14227048 -0.16145678 -0.8885108
0.36458778 0.31288832 0.1933903 -0.851175 0.20624955 -0.16473652 0.0429073 -0.53933674
-0.055443816 0.17940456 0.17981836 0.28323045 -0.47523266 0.742456 0.09124857 0.14019898
-0.17341693 0.17171706 0.30700073 -0.08479798 0.28909138 0.4219611 -0.44922104 0.33935055
0.36318776 -0.06930645 0.435037 0.14673147 -0.8755012 0.3899494 0.07298073 -0.026027093
0.45507798 0.3817095 0.45148313 0.2664302 -0.4677374 0.014094463 0.032477617 0.47210062
0.31554356 -0.14769961 0.28938094 -0.08434224 0.12774687 -0.67354417 0.76152235 0.6744727

q1.2.weight f4 [256, 256]
00000000: 12c4 c1be a54b 283e 57a7 383e f2fb 13bf
00000010: 1c8f 553e 8e9c 1b3f cd53 573e a4af 723e
00000020: 333a 08bd 5da9 4f3d 0cf9 acbe 0bba cebd
00000030: 3ee0 3f3e 7119 86be 6fbb 553e db9f 793f
00000040: c07c 0f3e 04da 793d cbcd 8b3d 4616 6b3e
00000050: a4a2 91be e94f 943e 22c2 4f3f 8da7 953e
00000060: b700 83be 9c45 873e 5885 17bf f697 3c3e
00000070: 1c15 853e 57b5 2b3e 781b a9be c02b a2be
00000080: db26 1f3e 286a 9c3e 5d6c 11bf b842 1c3e
00000090: c900 e7be 8cfe 033e 3ca4 263f 11e8 4f3f
000000a0: 90aa db3d bb71 e9be 0808 d2bd cf09 c63d
000000b0: 0409 1e3e a3c0 253e 689b c23e 8f5f 133e
000000c0: d1a7 483e c3e6 fe3e a495 ea3d fb95 c1be
000000d0: 89fa a6bc 11d8 613e 7510 183e 53fc 063e
000000e0: 09de 003c 850b dd3e 1c7a 6e3e 93ee af3e
000000f0: ce5f 653e abbc 83bf 58af 3ebe dbe9 5fbf
00000100: faa9 b83e 9ac0 95be 5b14 813e 901d 3d3e
00000110: 4e62 c83d 2869 da3d b98b 3c3e 6ee4 4ebf
00000120: bd96 c13d aefa 6f3f d434 69bf 9b85 433e
00000130: aef3 3a3f 3b52 a3be 76db e4be bbbb 493e
00000140: e842 ccbd da5e 6ebc cdc5 833e 6de5 a2be
00000150: b7f9 05bf 04d4 703e d97e ddbe 7f6c 44c0
00000160: 5ecb 07bf 0b3a 853e c1b5 633d 8832 613e
00000170: ad7c 503e 3e4f 1c3e 6e66 dbbe adcf 963e
00000180: 43c9 96be acbd 0bbf f0dd 73bf 71b2 053f
00000190: 8799 1b3e d0b0 9bbd 2c16 cabe 2f3d 003f
000001a0: 50c3 a53e e495 2dbe ab3b f23d ab32 5e3f
000001b0: 9190 21bc 52d1 4d3e 339e ad3f cf9a 82be
000001c0: 290d e63d 4cd0 2c3e c1c3 27be 83bc f03d
000001d0: 59fc 013e e8b0 14be 55ad a03d 3afb b33d
000001e0: 7f1a d63d 2693 743e c2ce cd3c 1b61 52bf
000001f0: 1243 f23e c827 d33f ddda 9b3e 75bc 533e
00000200: 813b 7a3e 4037 273e c340 bb3f 05a6 b83d
00000210: a804 dcbc c3bb 983c cc43 b3be 06e0 a5be
00000220: f26c 1a3e dd11 f3be a128 623e 88bc 393e
00000230: 6aee 2c3e f757 8e3f cd9d 0cbf 07cc c63f
00000240: fc24 4b3e c89e dfbe 8836 7b3f 211f 443e
00000250: 75b8 03bf 6b9d f3bd ff80 d4be 8e7a 87be
00000260: 14ef aebd 62c0 ad3f 1dbb 573e 177c c73f
00000270: 4025 85be 3f08 173e 56e5 473f d486 99be
00000280: be84 4ebc 735b e13d c65f 653e dc1e a3be
00000290: d2b8 f33d e605 0f3e 37a4 853e fe43 d23e
000002a0: fa79 e43d fae0 7a3e 9b80 763d 844b c43f
000002b0: c336 593e 9090 ebbe b072 1f3e 564f ea3e
000002c0: 28c6 aebe a20e 753e f8ad b03f 4025 78bf
000002d0: f770 84bd 7ad2 503e 448d 17be eb7f 863e
000002e0: c388 7ebe 947c 623e 9930 4d3e be07 30bd
000002f0: 77b9 cfbe 5ea1 4e3e 0462 4a3e efb8 01be
00000300: 0e0c b1be f3c7 473e b31c 573e b1f9 473e
00000310: 5df5 0abf 5ece b13e cd8a 82bc 9a9f 06bf
00000320: 5099 5a3e 7010 bc3d 2906 363e 5ec0 153f
00000330: 26ac 043d 6561 d63e 1c89 56bf ec00 f6be
00000340: 3370 6f3e 8007 3f3e 413f 0f3f d384 19c0
00000350: a693 713e 6a60 633e 5673 b23d 217b b2be
00000360: 914f 0bbe 4ff6 2f3e 4494 0a3e 91fd 133e
00000370: 60f1 8fbe 7e4c f13d 086e 9b3d 5b77 2c3e
00000380: 044a a9be c65e 183e 3165 4d3c 4767 8e3d
00000390: 83fd 663e 23d3 673e 30d4 2f3d da8c 493e
000003a0: 55fc 633e c45b 083e 8481 973e bb1d 203e
000003b0: 67bc 92be b686 0b3d 41fe ac3e ad37 e2be
000003c0: 41a0 3a3e bc16 023e 7ab8 513f a62a 4f3e
000003d0: ddd8 84be 2836 053e a6e9 af3f b45e 9f3e
000003e0: 569b cdbe 3ae7 88be d117 cd3d 5cbc 093e
000003f0: 950d a4be 3e18 9abe 737b c03f 1a8b 9f3d
-0.37844902 0.16435106 0.18032585 -0.57806313 0.20855373 0.6078576 0.21028061 0.23699814
-0.033258628 0.050698627 -0.33783758 -0.10094079 0.18737885 -0.26191285 0.20872281 0.97509545
0.14012432 0.06099893 0.06826361 0.22957715 -0.28444397 0.28967217 0.811556 0.29229394
-0.25586483 0.26420295 -0.5918784 0.18417343 0.25992668 0.16768394 -0.3302877 -0.31674004
0.15542166 0.3054974 -0.56805974 0.15259826 -0.45117787 0.1289007 0.6509435 0.8121348
0.107258916 -0.45594582 -0.10255438 0.096698396 0.15433127 0.16186766 0.3800919 0.14391921
0.19595267 0.49785432 0.11454323 -0.3780974 -0.020383136 0.22055079 0.14850028 0.13182192
0.007865437 0.4317285 0.23288769 0.34361705 0.22399828 -1.0291952 -0.18621576 -0.8746621
0.36067182 -0.29248506 0.25210842 0.18468308 0.09784375 0.10664588 0.18412675 -0.80817306
0.09452579 0.9374188 -0.91096234 0.19093935 0.73028076 -0.31898674 -0.44698685 0.1970052
-0.09973699 -0.014548982 0.25736848 -0.31815663 -0.5233416 0.23518378 -0.4326084 -3.069122
-0.5304469 0.26020846 0.055593256 0.21991932 0.2036006 0.15264603 -0.42851585 0.2945532
-0.29450426 -0.5458629 -0.95260525 0.52225405 0.15195285 -0.07602084 -0.3947004 0.5009336
0.32375574 -0.1695171 0.11827787 0.86796063 -0.0098611275 0.2009938 1.3563904 -0.25508735
0.11232979 0.16876334 -0.16383268 0.11754706 0.12693919 -0.1452061 0.078455605 0.08788152
0.104542725 0.23884258 0.025123004 -0.8217942 0.47316796 1.6496515 0.30440417 0.2067736
0.24436761 0.1632967 1.4629139 0.09016041 -0.026857689 0.01864422 -0.35012662 -0.3239748
0.15080622 -0.47474566 0.22085811 0.18138325 0.16887823 1.1120595 -0.54928285 1.5531014
0.19838327 -0.43675828 0.98130083 0.191525 -0.51453334 -0.118952595 -0.41504666 -0.2646069
-0.08541694 1.3574336 0.21067472 1.5584744 -0.26004982 0.1474924 0.78084314 -0.29985678
-0.01260489 0.11003771 0.22399816 -0.3185948 0.11900486 0.13967094 0.26101848 0.410675
0.11156078 0.24499884 0.06018124 1.5335546 0.21212296 -0.4600873 0.15571094 0.45763654
-0.34135556 0.23931363 1.3803091 -0.9693184 -0.06466859 0.2039279 -0.14799982 0.2626947
-0.24856858 0.22117835 0.2003807 -0.042976134 -0.40571186 0.20178744 0.19763952 -0.12668203
-0.3457951 0.19509868 0.21007042 0.19528843 -0.54280645 0.34727758 -0.015935326 -0.5258728
0.21347547 0.09182823 0.17775787 0.58496654 0.032390736 0.4187118 -0.8380296 -0.48047578
0.23382644 0.18655205 0.5595589 -2.398732 0.2359148 0.22204748 0.08713405 -0.34859565
-0.13604571 0.17183803 0.13533121 0.14452197 -0.28113842 0.11782168 0.07589346 0.16842405
-0.33064282 0.14879903 0.012536333 0.06953292 0.22557645 0.22639136 0.042926967 0.19682637
0.22264226 0.13316256 0.29591 0.15636341 -0.28659365 0.034064017 0.3378773 -0.44183102
0.18225195 0.12703985 0.81922114 0.20231113 -0.25946704 0.1300894 1.3743179 0.3112694
-0.40157574 -0.26738912 0.10014308 0.1345076 -0.32041612 -0.3009662 1.5037674 0.077902034

q1.2.bias f4 [256]
00000000: 548a 993e bfbb f3bd 4de0 663e 5ac3 633d
00000010: 6d71 2e3e bbc6 b9bd 3b89 893e 9163 efbd
00000020: 4afe 0d3e 282d 2f3d 1a6d 263e bdba 1e3d
00000030: c2d0 99bd 4026 d53d 3031 fdbd d2ae a03d
00000040: 17f7 0f3e be04 aa3d 8dc7 0b3e 0501 473e
00000050: 1fea 48bd 9927 b33c 48ee 0a3e c45c 76bc
00000060: 1944 22bd 10a8 093e ce31 f43c 44ea d73e
00000070: bc39 ba3d e4ed 083e 9535 e8bd ecfd 273e
00000080: 2361 1a3e b0f2 68be 526a 993c bc70 393e
00000090: c00b 31bd 78c0 b93d 83d9 9a3e 9241 ecbd
000000a0: 2325 b0bd 96a3 103e 38cc 263e 440c 15bc
000000b0: 0faf beba ae0f 7a3b 1f3e 1b3e 3f6e 8f3d
000000c0: 47f1 c5bd 341f 4b3e 8118 d63d cd2a 473e
000000d0: 5b2c 0c3e 6648 753d cb5a fe3d 57a8 70bd
000000e0: 77f5 8abc af67 4c3e 5d70 9b3a 2356 81bd
000000f0: 33fd 1e3d cb34 30bc fa50 563e 7a13 013e
00000100: 4c31 aa3d 5db2 87bd 3f60 2b3f c22c 03bd
00000110: 2dc6 1abe 4838 e6bc 68b4 ad3d dab2 c63d
00000120: 81d5 673d 2b6f 073e ac44 20bd f670 aabd
00000130: 0dc5 c93d dfd8 dabd 70fa 5d3e e103 bf3c
00000140: 592b 703e 2fce 8e3e aa5f 873e e872 a7bd
00000150: 7b56 b33e 94c2 193e afa7 623d cfee 05be
00000160: 54a9 8c3e 230b 203e ff6e e0bc ead7 d5bc
00000170: f4c3 413e cb2e 4ebd 3631 1c3e ed78 91bd
00000180: 510a 2a3e a662 373e ff96 48bd 29a1 f9bb
00000190: b429 ab3e a517 67bd 641d 89bb 8363 aebd
000001a0: 6d5d 90bd 347d be3d 9c3f e5bd 5147 623e
000001b0: 8691 19be 878a 8dbd d1df 163e 32f0 8e3c
000001c0: 4a8c 03be 814c 6e3e c369 d23c a603 34bd
000001d0: 4b5d 5b3e 6d5a 60bc 184f 50be 0287 0ebd
000001e0: 14c7 223e fc53 9e3e 936d 4e3e 697c f5bd
000001f0: b476 82bd 6693 943e 24a7 d7bd 3934 9d3e
00000200: 341e 163e 1d09 083d 33a5 033e 64a5 d4bd
00000210: 50c2 24bd 54e6 173e 920c e63d 3243 debc
00000220: aa98 cbbd 617b f63d f1a2 1a3c 904c 433e
00000230: 6355 ee3c bf7c d73d ef1c 473e 2de9 81bc
00000240: 0571 b83e cc89 303d 542c a3bd f018 753c
00000250: 96aa f13d fa1e 843e 0991 ba3c d5b2 f5bd
00000260: dd7f 26be 2754 56bd d0e4 c53d 3427 063b
00000270: 865a 81bd 7d2b b83c 710a fe3d 3b8d bcbc
00000280: cd7e 4a3e 463a fa3d 801e 4b3e 5914 dabd
00000290: 86e2 603e 420a d5bd b110 b43d 43b0 1dbd
000002a0: 93e3 453d 20a7 1ebd ee52 a6bc ae16 b73b
000002b0: bb6f 193e 3d19 28bd 33e1 f4bd 6d67 f33d
000002c0: 31fe b0bd 5ea0 45bd 0dde b4bd fc80 0d3e
000002d0: 28ff 403e be3c 2b3e 71e7 983e fded 013e
000002e0: f2b6 19be 78ba 2b3e b6ee 02bd 1464 d2bc
000002f0: 9e95 953e 85c9 7a3e 0970 d53c 0c95 4c3c
00000300: 93f9 303c eb43 7f3d 6389 103e 8c06 113e
00000310: 42a0 7cbc 15d3 c1bd cc25 573e 18a4 283e
00000320: 159a 873b 13f3 413d 6751 bb3d e613 2f3e
00000330: 2b31 853d 4374 bebd 8a0b 2a3e 6ad9 f4bd
00000340: 82fa 613e 04b9 16bc 50e6 033e 77bf 15bd
00000350: 401b 88bd e843 343e 82c3 8a3e f0f5 9a3e
00000360: 1df1 a53d 8685 a63d 0355 95bc 5d63 1b3e
00000370: 3b5b 3b3e 4d99 7f3e eb8e 413e 8ee5 11bc
00000380: 04ed 1e3e 709f b73e 23d9 403e dc1a 503e
00000390: db9f 0e3e 5db8 143e 1d83 4b3e 210a d63d
000003a0: 53e4 86bd 96c7 2a3e 243c ed3e 2625 983e
000003b0: a5e0 403e 1328 35bd 83a5 463d 8c4d 8d3e
000003c0: e7ee 533d 3bd4 74bd 6a5d a0bc ebb8 a93d
000003d0: 2081 893e 27e8 da3d b74d 75bd 8e43 163d
000003e0: 9ed0 353d a6ed 80bd 30b5 bfbc c827 94bd
000003f0: 9caf 06be 8110 ac3d 1b4b 993d 290b 7d3e
0.29988348 -0.11901044 0.22546501 0.055606224 0.17035456 -0.09071108 0.2686251 -0.11688913
0.13866535 0.042767674 0.16252556 0.038752306 -0.075105205 0.10407686 -0.123628974 0.07845844
0.14059101 0.08301686 0.13650341 0.19433983 -0.0490514 0.021869468 0.1356746 -0.0150367655
-0.039615724 0.13443017 0.029808905 0.42170918 0.09093043 0.13371998 -0.11338345 0.16405457
0.15076117 -0.22748828 0.018727455 0.18109411 -0.043224096 0.090699136 0.30244073 -0.11535944
-0.08600833 0.14124903 0.16288841 -0.009097163 -0.0014548021 0.0038156318 0.15160416 0.0700345
-0.096651606 0.19836122 0.104538925 0.19449921 0.13688795 0.059883498 0.12419661 -0.05875429
-0.01696275 0.19961427 0.0011859048 -0.063152574 0.03881569 -0.010754774 0.20929328 0.12605086
0.08310184 -0.06625817 0.66943735 -0.032025106 -0.1511466 -0.028103009 0.084816754 0.09702082
0.056600098 0.13226001 -0.03912799 -0.08322327 0.098520376 -0.10685896 0.21677566 0.02331728
0.23454036 0.2789168 0.26440173 -0.081762135 0.35026917 0.15015632 0.055335697 -0.1307938
0.27472937 0.15629248 -0.027396677 -0.026103932 0.18922406 -0.050337594 0.15253147 -0.07103143
0.16605498 0.17908725 -0.048972126 -0.0076180887 0.33430254 -0.056419034 -0.004184412 -0.08515074
-0.070490696 0.09301224 -0.11193773 0.22097518 -0.14996919 -0.069111876 0.14733817 0.017448518
-0.12846485 0.23271371 0.025685197 -0.043948792 0.21422307 -0.013693434 -0.20342672 -0.034796722
0.15896255 0.3092345 0.20158987 -0.1198662 -0.06370297 0.29018706 -0.105299264 0.30703905
0.14659959 0.033211816 0.12855987 -0.10383108 -0.040224373 0.14833957 0.11232866 -0.02713165
-0.09941228 0.120352514 0.009438262 0.19072175 0.02909345 0.1052184 0.19444631 -0.015858257
0.36023727 0.043100163 -0.07967439 0.014959559 0.11800115 0.25804883 0.022774236 -0.11997
-0.16259713 -0.052326348 0.09662783 0.0020470144 -0.06316094 0.022481674 0.12404335 -0.023016563
0.19774933 0.12218146 0.19835854 -0.10648412 0.21961412 -0.10402347 0.08792246 -0.038498174
0.048312735 -0.0387336 -0.020303216 0.0055874204 0.14984028 -0.041039694 -0.11957016 0.11884961
-0.08642233 -0.04824864 -0.08831415 0.13818735 0.18847334 0.1672239 0.29864076 0.12688442
-0.15011194 0.16770351 -0.031965934 -0.025682487 0.2921571 0.24490936 0.0260544 0.012486707
0.010801691 0.06232063 0.14114909 0.14162654 -0.015419068 -0.09464089 0.21010512 0.16468847
0.004138241 0.047350954 0.09146386 0.17097434 0.06503519 -0.09299519 0.16605964 -0.11955531
0.22068217 -0.009199385 0.12880826 -0.03655955 -0.066458225 0.17604029 0.27102286 0.3026576
0.08102629 0.08130936 -0.018229013 0.15174623 0.1829652 0.24960823 0.18902175 -0.008904828
0.15520102 0.3586383 0.18832831 0.20322746 0.13928168 0.14523454 0.19874234 0.10451151
-0.06586518 0.16677698 0.46334946 0.29715842 0.18835695 -0.04422767 0.048497688 0.27598226
0.051741507 -0.05977271 -0.019575793 0.082872234 0.26856327 0.10688811 -0.059888568 0.03668552
0.044388406 -0.06295328 -0.023401827 -0.0723415 -0.13152927 0.08401585 0.07485028 0.24711289

q1.4.weight f4 [1, 256]
00000000: 52a7 25bf 1e92 993f 6366 a4be 7672 a33f
00000010: e604 6abf 469a ca3f acee 36bf b2f5 3f3f
00000020: abda a7be 8f32 9a3f b9d2 a9be 18a2 583f
00000030: 3f81 653f dd8f b1be da3b 823f dd74 27bf
00000040: 88fe b6be 9fb4 b3be 06dd c7be 6ff5 a0be
00000050: 3ac5 4e3f b914 2d3f f4ef d4be 47b8 b43f
00000060: c626 4c3f 6d3f c7be 4aae b03f 94ec 34bf
00000070: a0e7 a43f 487a c7be bb1b 533f 61c6 b4be
00000080: d30d c7be c6d9 da3f 902a a03f 6bf6 9ebe
00000090: f656 a63f 7c34 cebe d2a3 2bbf 5f93 403f
000000a0: 7270 533f cdfa bf3f e0e0 afbe 939a 5e3f
000000b0: 5129 923f 0123 9a3f ffcc b4be ef1c a1c0
000000c0: a868 903f 7d9d c6be 60b5 ac3f 6d0e cebe
000000d0: ecd8 afbe 7143 b63f db63 c7be d045 913f
000000e0: 1d66 0940 41f3 b6be e347 9d3f f4f9 b53f
000000f0: 7159 853f 035f 503f 547f 93be cc6b a3be
00000100: 5f09 9c3f c903 8e3f 5c61 23c0 d520 b83f
00000110: e414 2d3f d898 4a3f e24d cbbe fd8b c4be
00000120: 06c3 cfbe d308 b5be 38ae 533f d3f1 a93f
00000130: a8fd c7be 4806 653f 51b3 bbbe 5764 a33f
00000140: 5bac b7be 5fc2 27bf 2d3b adbe 5ee9 4c3f
00000150: 7241 26bf bf89 97be 92fc 2940 75f3 9f3f
00000160: c50f dcbe 9116 b3be 5e24 a13f 3593 6a3f
00000170: 7715 c0be 23f8 463f 016c b63f 59c4 9f3f
00000180: 8e6d a0be a503 c4be 3382 583f 6cd3 4e3f
00000190: 010b 2cbf b526 bd3f 8851 963f a2df a93f
000001a0: 397c 5e3f f8db a83f db3e c93f cf4f babe
000001b0: f570 8b3f b6bd 3b3f 9280 b9be 5db8 8f3f
000001c0: 7e44 b43f 3014 b4be 5c90 8e3f d1ab a73f
000001d0: 8d4a bcbe f81b 933f 9c14 5740 a15a 903f
000001e0: e533 643f db0f 27bf 7d31 c5be fd30 883f
000001f0: 90b2 d73f a4d3 b0be fadf be3f 977e 34bf
00000200: 573c b73f 6363 a63f db01 b0be 9b43 c83f
00000210: ff25 7f3f 3fb8 b3be 3c6f d3be fa8e 8b3f
00000220: 1417 873f 6e60 9f3f 9e52 903f 10a8 36bf
00000230: 77b1 8d3f f6cb 8f3f 30ea cdbe efcb ad3f
00000240: eb48 2cbf 7c90 9e3f 9221 d33f 3099 a63f
00000250: eb4f 29bf 8034 b8be 72f2 9c3f d614 973f
00000260: b34a 423f 519f 713f a859 25bf 01e2 8b3f
00000270: 1349 8f3f d4bd ab3f 0e60 503f 7a3c 903f
00000280: 1c41 cabe 99a5 a4be df23 96be 0d2e 1240
00000290: 9dfe b1be e116 703f ed12 953f a20f 283f
000002a0: eaf4 9c3f 63a1 6d3f 077c 663f b0bf a03f
000002b0: 85e5 a4be 8a37 4a3f 6622 b53f a2e2 83bf
000002c0: 64ef 883f f2fd aa3f df95 4c3f 9935 27bf
000002d0: 272a b9be f67c 4e3f 1278 73bf 56f4 dabe
000002e0: e72a c83f 7b28 b7be 2633 863f f71f 8b3f
000002f0: 15d9 23bf 82e4 1abf 051d aa3f 6178 9f3f
00000300: 10ad 543f 7c5e 25bf ee0e d4be f4cf b9be
00000310: cc5f 9d3f 0757 4f3f 03cc acbe a22d d1be
00000320: 75a2 933f a733 913f e7d3 b7be 6017 73c0
00000330: e098 893f d400 663f edd9 bfbe baa3 0640
00000340: ebaf cebe abf0 a03f 057b c6be 272c 9c3f
00000350: dd4c 883f bf30 c7be 29ef c3be 23bd 23bf
00000360: aea1 933f 6b0b b6be 788c 4f3f f226 aabe
00000370: 1865 b9be 8c5c bebe 2563 1cbf b423 9b3f
00000380: 31fd c4be 646b 25bf f50f cdbe 1de0 b2be
00000390: ecc8 bcbe ec82 afbe b08e a9be 5354 993f
000003a0: be25 493f 8779 abbe dee6 e6bf fc47 24bf
000003b0: 15b4 c5be af91 9a3f 6078 823f 82a6 c2be
000003c0: 2415 20bf 8d33 843f 8746 bf3f c595 5c3f
000003d0: 0ab9 33bf b8c9 b6be c283 3c3f 7a8f 9b3f
000003e0: 8794 7b3f 515d a43f 8033 6b3f 78b5 4d3f
000003f0: 0eae 753f d5a2 573f 7efd 19bf ec56 c4be
-0.64708436 1.1997716 -0.32109365 1.2769306 -0.91413724 1.582833 -0.71457934 0.74984276
-0.32784018 1.2046679 -0.3316858 0.84622335 0.8965034 -0.3468007 1.0174515 -0.65412694
-0.35741067 -0.3509874 -0.39035815 -0.3143725 0.80769694 0.67609745 -0.4158932 1.4118737
0.79746664 -0.38915578 1.3803189 -0.7067349 1.2883186 -0.3896048 0.8246419 -0.353076
-0.38877735 1.7097709 1.2512989 -0.31047377 1.2995288 -0.40274417 -0.67046845 0.7522487
0.8259345 1.4998413 -0.34351254 0.8695461 1.1418859 1.2041932 -0.3531265 -5.034782
1.1281939 -0.3879203 1.3492851 -0.4024538 -0.34345186 1.4239331 -0.3894337 1.134943
2.1468575 -0.35732463 1.2287563 1.4216905 1.041792 0.81394976 -0.2880808 -0.3191818
1.219036 1.1094905 -2.5528173 1.438502 0.6761 0.7913947 -0.39707857 -0.38388053
-0.4057848 -0.35358295 0.8268771 1.3276924 -0.39060712 0.8946271 -0.36660245 1.2764996
-0.35873684 -0.6553096 -0.3383421 0.8004359 -0.6494361 -0.2959728 2.6560407 1.2496172
-0.4298078 -0.34978154 1.2589223 0.9163087 -0.37516376 0.77722377 1.425171 1.2481796
-0.31333584 -0.3828403 0.8457367 0.80791354 -0.6720429 1.4777437 1.1743631 1.3271372
0.869083 1.3192129 1.5722307 -0.36389014 1.0893847 0.7333635 -0.36230904 1.1228138
1.4083402 -0.35171652 1.1137805 1.3099309 -0.36775628 1.149291 3.360633 1.1277658
0.89141685 -0.6525857 -0.3851432 1.063995 1.6851368 -0.3453647 1.4912102 -0.7050566
1.4315289 1.299908 -0.34376416 1.5645632 0.9966735 -0.35101506 -0.41295803 1.0903008
1.0553918 1.2451303 1.1275213 -0.71350193 1.1069783 1.1234119 -0.40217733 1.357786
-0.67298764 1.2387843 1.649462 1.3015499 -0.6613757 -0.35977554 1.2261488 1.1803234
0.7589523 0.9438372 -0.6458993 1.0928346 1.1194175 1.3417306 0.8139657 1.1268456
-0.395028 -0.3215759 -0.29324242 2.2840607 -0.34764567 0.9378491 1.1646401 0.65648854
1.2262242 0.9282438 0.90033 1.2558498 -0.3220636 0.78990996 1.4151123 -1.0303538
1.0698056 1.3358748 0.79916185 -0.6531616 -0.36164972 0.80659425 -0.9510509 -0.4276454
1.5638093 -0.35773072 1.0484359 1.086913 -0.64003116 -0.60504925 1.3290106 1.2458612
0.8307657 -0.64597297 -0.4141764 -0.36291468 1.229486 0.8099217 -0.337494 -0.40855128
1.1533953 1.1343888 -0.35903856 -3.7983017 1.0749779 0.89845014 -0.37470952 2.103743
-0.4036859 1.2573446 -0.3876573 1.2200974 1.0648457 -0.38904378 -0.38268402 -0.63960475
1.1533716 -0.35555586 0.81073713 -0.33232838 -0.3620994 -0.37179983 -0.6108878 1.2120271
-0.3847442 -0.6461699 -0.40051237 -0.3493661 -0.3687204 -0.34279573 -0.33116674 1.1978859
0.78573215 -0.33491156 -1.8039205 -0.6417234 -0.38613954 1.2075709 1.0192986 -0.3801766
-0.6253226 1.0328232 1.4943398 0.8616603 -0.7020422 -0.35700774 0.73638546 1.215316
0.9827351 1.2840978 0.9187546 0.80355024 0.9596871 0.84232837 -0.60152423 -0.38347566

q2.0.weight f4 [256, 15]
00000000: d23d 6cbe 0f91 733e 1660 abbe 463c 233e
00000010: b872 623d 951d 80be 419c 953e 0af4 073d
00000020: 757a e43e dccc 503e 9b96 d83e 758b e03d
00000030: 95fd 4fbe 260f c9be 1fa9 1dbf ccbd 07be
00000040: 0b89 843d c3ca 98bd 604f 05bd f83d 4abd
00000050: 4c70 6d3e 4bea bc3e 60a2 71be 06c9 0f3f
00000060: b43c d0be c804 b93e d263 0c3e 4aed 80bc
00000070: 9780 b83c 0bab 2bbf 56be 40be 5b9c e3be
00000080: 5991 013e 7d13 71be 387e d1bd 20a6 2bbd
00000090: ad45 473e 41ce c03d 6291 8d3e 43b3 6fbe
000000a0: 690e 4a3c 473f 263e b112 c5be 69d3 0ebe
000000b0: 6287 7f3d 2eba b63e 68cf 1ebe 8301 7dbe
000000c0: dec7 72be 288c f8bc 9e0f b7bd cabf 35bf
000000d0: 0f64 ed3e e22a e9bd 0f1c 8f3d 09f6 8d3d
000000e0: fe39 92bd 090d ea3e 2e20 03be 1031 fa3e
000000f0: 4adb b3be e5c0 5abb 2b09 9f3e 99bd 78be
00000100: 006e cbbc f698 013e 58f2 553e a22e e53c
00000110: 31da 21be 5158 873e 4941 36bf 42cf 91be
00000120: 11a2 1b3e 22d5 90be 712b 5fbd 9451 dabd
00000130: 5a96 05be 821e cbbd 58e1 29bd 8e9a d2bd
00000140: 6a28 423e 850a ccbd 940d 503e 95d8 7c3e
00000150: 328c bcbe dec4 3c3e f94b 293e 7192 433e
00000160: 2d3a acbd cbe2 683e 067e 6e3e fe30 c03e
00000170: 26c1 033d af0b 16be c21e 1fbe 44de fb3d
00000180: 72e0 b8bd bb57 d03d 68ad 37bc 67be 9a3e
00000190: e122 85be 04c0 1d3c 5a75 173e 768c cc3d
000001a0: 8a29 603e 23a8 083e 8fb9 5dbd 51ef d23b
000001b0: 10a0 d4bc 924c b9bd 209a c13d 47ec 0e3d
000001c0: 53f9 803d 4233 253e 24d0 893e 2253 e13e
000001d0: b951 80be 199f 263e e889 9dbe 7bf6 eebe
000001e0: d253 743d 1d27 0c3e 7b74 ecbd c498 e43d
000001f0: 7a30 153e f2f1 08be 89bb aebc 4fa0 033e
00000200: c686 b1be 039a bfbc 3eb1 e2be 7cc3 173e
00000210: 0d2e 283e de0d 18bd dec1 aa3e 4e3f cbbe
00000220: 881b 153e e88e bc3e bad0 2dbe 105d c33c
00000230: 9c95 9f3d 7458 f5bc 69e5 05bf a635 613e
00000240: e7b5 a4be 8d3a f7be b0ed 3abb 8619 4dbe
00000250: 744b 5abd 2e1a 993e ed5c 3f3c d187 b1bd
00000260: d358 8e3e b04e b2bd 1041 913d ccb1 67be
00000270: 20d3 80be b01c 8e3e ae70 babd 2371 943e
00000280: d704 e63c 5b83 893e 8ea7 2cbd 549d 853e
00000290: 93ec a23e eecb 05bf 9f07 483e e780 f03d
000002a0: 5887 9ebd 304e 563d 84d3 37be 90eb 01be
000002b0: a186 1a3e 1774 f13d 590b 003e c837 cd3e
000002c0: 2205 8bbe ad92 b13e 0201 533d 7472 eabe
000002d0: 35bf 193c 89e1 b43e 23f2 bfbe 3665 3f3e
000002e0: 3cee 553e 5e8f b9bd cad1 83bd eba5 7b3e
000002f0: 3df0 323d eb3c 113d 592d f43e 29b0 e1be
00000300: d1fc 64be 109e 02bd 6328 aebe 16d3 443d
00000310: 47d6 3bbe 9866 16be a0bf a0bd ac52 f53d
00000320: a837 debd d66f f1bd 3d1a 983d 9ceb e3bc
00000330: 9327 5b3e 39c9 de3e 7f3e 2abb 1fed 893c
00000340: f3d5 5dbe 1b4a d7be 208e ce3d 9078 54be
00000350: 08b3 683d 087c 1abd 6e1c e2bd 005f 8f3d
00000360: 6fad 7bbe 18f5 51be fc91 6ebe c04c a6bd
00000370: 1045 e9bd 1879 89bc f0ea 13bc 8e5a 5bbe
00000380: d420 12bd 954b 023f fea0 8fbe 06ce 24be
00000390: 58a3 b43d 95e2 36be 4e0b 5bbe efe4 36bd
000003a0: 4114 4fbe c3b2 04bf 8b0e 173e 3e70 abbd
000003b0: a7e4 2f3e bb67 20bc c25c 27be 6034 df3d
000003c0: 696e 283d 2082 50be 12fd 393f 264d 9cbd
000003d0: 80f9 48bb 2c14 83be 72c2 6ebd d919 a43d
000003e0: cbd1 8abe 3f4f f23d fa27 37be dba9 793e
000003f0: d54d c6bc 765d 2e3e a4d5 7d3d b529 76bf
-0.23070458 0.23785804 -0.33471745 0.15940961 0.055285186 -0.2502257 0.29220775 0.03319172
0.44624677 0.20390648 0.42302403 0.10964099 -0.20311578 -0.3926937 -0.61586183 -0.13255996
0.06471451 -0.07460549 -0.0325464 -0.049375504 0.23187369 0.368975 -0.23597097 0.5616611
-0.40671313 0.3613646 0.13709953 -0.015738148 0.022522254 -0.67057866 -0.18822607 -0.44455227
0.12653102 -0.2354259 -0.102291524 -0.041906476 0.19460173 0.0941434 0.2764998 -0.23408227
0.012332537 0.16235076 -0.38490823 -0.13947834 0.06238497 0.3568892 -0.15508807 -0.24707608
-0.23709056 -0.03034027 -0.089385256 -0.7099577 0.463654 -0.11385132 0.069877736 0.06931693
-0.071399674 0.4571307 -0.12805244 0.48865557 -0.35128242 -0.0033379134 0.31061682 -0.24291076
-0.024832726 0.12656006 0.20893228 0.027976338 -0.1580589 0.26434568 -0.7119337 -0.28478438
0.15198542 -0.28287607 -0.05448479 -0.10660091 -0.13045636 -0.09917928 -0.04147467 -0.10283385
0.18960729 -0.09962944 0.2031768 0.24691994 -0.3682571 0.18434474 0.16532888 0.19098832
-0.08409534 0.22742765 0.23290262 0.37537378 0.032166623 -0.14652894 -0.15539077 0.12298253
-0.090271845 0.10172983 -0.011210777 0.3022339 -0.26003173 0.0096283 0.1479086 0.09987728
0.21890846 0.13345389 -0.05413204 0.00643722 -0.02595523 -0.09047808 0.09453225 0.0348933
0.06297555 0.16132835 0.2691661 0.44008738 -0.2506235 0.16271628 -0.30769277 -0.46672425
0.05965025 0.13686796 -0.115456544 0.1116195 0.14569274 -0.13373545 -0.021329658 0.12854122
-0.34673136 -0.023388868 -0.4427585 0.14820665 0.16423817 -0.0371226 0.33351034 -0.39696735
0.14561284 0.3682778 -0.16974154 0.023848087 0.077922076 -0.029949404 -0.5230318 0.21993122
-0.3217003 -0.48286858 -0.002852302 -0.20029268 -0.053294614 0.29902786 0.01167987 -0.08668483
0.27802143 -0.08706415 0.07092488 -0.22626418 -0.25161076 0.27756262 -0.09103523 0.28992566
0.02807848 0.2685803 -0.04215198 0.26096594 0.31821117 -0.52264297 0.19534157 0.11743336
-0.077406585 0.05232066 -0.1795178 -0.12687516 0.1509042 0.117897205 0.12504329 0.4008162
-0.27152354 0.34682217 0.051514633 -0.45790446 0.009383966 0.3532832 -0.37489423 0.18690953
0.2089166 -0.09060548 -0.064364985 0.24575011 0.04368614 0.035458487 0.47690848 -0.44079712
-0.22362067 -0.03188902 -0.34015188 0.04805287 -0.18343459 -0.14687574 -0.078490496 0.11978659
-0.10850459 -0.11788909 0.074268796 -0.027822308 0.21401815 0.43512896 -0.0025977192 0.016836701
-0.21663646 -0.42048725 0.10085702 -0.20749116 0.056811363 -0.03771594 -0.11040579 0.07000542
-0.24577878 -0.20503652 -0.23297876 -0.08120108 -0.11390126 -0.016781375 -0.009028181 -0.21421263
-0.03567584 0.5089658 -0.28052515 -0.16094217 0.08820218 -0.17859872 -0.21391031 -0.04465192
-0.2022257 -0.5183527 0.14751641 -0.08371018 0.17177068 -0.009790356 -0.16343978 0.108986616
0.04112092 -0.20362139 0.7265178 -0.076319024 -0.0030666292 -0.25601327 -0.058290906 0.080127425
-0.27113184 0.11831521 -0.17886344 0.24381201 -0.024207035 0.1702784 0.06197132 -0.9615739

q2.0.bias f4 [256]
00000000: ba2b a13e e0e9 e2bd a48f 0cbe 80b3 01be
00000010: 1c57 72be b89a 5c3e f1ef a53c 4031 8f3e
00000020: a793 b53e e746 943e 3b8d 953d 905f d5bd
00000030: c545 1ebe 2dae 243e f069 12bc 0bb9 99bd
00000040: ca40 72be 4d7e a93e 211b fbbd cbe7 ef3d
00000050: e27d 223d 9e26 57be 9217 0d3f 55bb 473d
00000060: 2c04 c13e fdaf 273e 78ec 72bd 08b0 a43e
00000070: 7167 6cbe 9f30 77bd 1b64 70be af7c 483e
00000080: fbba e53e d35d c23e 579f 683e 7391 b53c
00000090: e6a5 b0bd f516 e83d 8f60 d63d a09c 3d3e
000000a0: 9ee7 5e3e 93a2 edbd 4621 943e b177 4e3e
000000b0: 4ef8 383d 1666 943e 3e82 68bd 4c48 e43e
000000c0: 6c7f 5a3d c25e a03d 536c 3b3e 7ea4 4dbe
000000d0: a4da 25be 06ad e0bd 8cc6 ef3e 1c00 2cbd
000000e0: 31eb 8c3c 3d1c 9a3e 932e 47be 7749 e33e
000000f0: 52df 813e a121 043e 5bdb a03e 6f28 803e
00000100: e4b1 d8bc 3f6c 023e 8b7b 69bd 8c0f 193f
00000110: 72b0 fbbd bb09 eb3e d589 af3e fd2e 1c3f
00000120: 3f4c 9a3e c843 963e 0571 07be 77bc c43c
00000130: ef88 0fbd a15d dd3e 0ffe 24be 359e 333e
00000140: 3061 c13e 115a e43e f4ff 943e d1fa 093e
00000150: 627d ca3c e4ac cbbd 886d 793e b16a f43d
00000160: 6961 8a3e 5d28 27be 3a21 84bd b75a 853e
00000170: 3e1b 7c3e d620 053f 60f1 10be 62a4 fbbc
00000180: f52a b93d c423 16be f96b 443e a668 8f3e
00000190: 96f9 ef3d 411e 173e 39e0 fa3d 16d1 603e
000001a0: 5e7e 303e 342e 903e 7460 58bd 4ff4 b43e
000001b0: 4f51 c63e d301 123e a7fc 2f3e f477 cd3e
000001c0: fada ce3e 2389 ad3e ce9a dc3e 0456 db3e
000001d0: 4199 413e c933 123f 0303 bdba d649 0b3e
000001e0: 7111 8e3e c732 41be 6997 34bd 5bcb 03bd
000001f0: 7b08 20bd 9231 0dbe b38e 3abe 2846 5f3c
00000200: 4b5e 2d3e 3ce0 1bbe e584 1cbd de91 90bd
00000210: 1b50 77be 7e18 973e 4677 0d3e d7c6 e83e
00000220: ab00 33be 9b74 ae3e 7a81 3abe 335c de3e
00000230: ab6c 6b3e ae0c 7fbd 51b6 af3e b3cf afba
00000240: f10b fabd cde0 243d 5ef8 93bd f4d4 653e
00000250: 2d7e 693e a0a5 933d d001 9c3d 3324 5b3d
00000260: a06e 613e b6b6 b33e ab9d 373e 3856 71be
00000270: 3746 c13d a985 713e 0245 22bd 1cc8 3b3e
00000280: b448 8cbd ba9d 2a3e 126a 8bbd 4770 2abe
00000290: 831d 493e 81e4 98be 8603 f6bd 3587 91bd
000002a0: 5ac4 853e 270b 1bbd e256 04be 6fc6 45bd
000002b0: 7ef9 913e 6eab ce3d b121 cc3d 9874 71be
000002c0: 2895 b8bd 646f 493f 92ff 983e 61a7 723e
000002d0: 8a57 b5bd 1f48 993e 87cb 703e 5dfc 2c3e
000002e0: 80f5 903d fc29 a43e 7f21 153d 09c5 283f
000002f0: c081 0b3d aab1 e23e 287c 06be 2d6d 2e3f
00000300: 01a8 02be 7bc9 64be 97f2 c2bc c7da 5e3e
00000310: b300 ba3e a3ec 3f3c 5156 29bd 6412 7bbe
00000320: 1244 ecbd 1e69 403d cb15 87bd 55dd a53e
00000330: 9f69 9abd 2d85 733d 712c 46be a068 cf3e
00000340: 72ae 283f 3535 803e 27f2 0fbe c77a b83e
00000350: 801e be3d c3f6 683e 8bd7 bc3e 74bd 1bbe
00000360: 1fc2 44bb aecc 88be b71a 32bd c00e 45be
00000370: 32c5 cf3e b713 943e 1d28 953e 72cf 7a3e
00000380: 72f1 b13d adb2 973e e7d4 ad3e 4997 a8bc
00000390: f882 1b3e 7eb0 633e c340 9a3e 5c14 cf3e
000003a0: 7873 923c 6066 98bd 24dc 04bc 518a a93e
000003b0: cbf4 09be 779d c1bd ef37 9dbd 71f5 063e
000003c0: 997c 6bbe 63a8 b73d 690e 5cbd 8248 403f
000003d0: f99b c63e 0ce1 323d 7305 52be 6046 913e
000003e0: 68bf a33b 6560 083f c0d7 fe3e 712c 213e
000003f0: 29ca 113d f28b b83e 2535 c03e 7dc7 403e
0.31478673 -0.11079764 -0.1372667 -0.1266613 -0.23666042 0.21543396 0.020256015 0.27967262
0.35464212 0.28960344 0.07302328 -0.10418618 -0.15456302 0.16082068 -0.00893639 -0.07505997
-0.23657528 0.33104172 -0.12261034 0.11714133 0.039670832 -0.21010825 0.5511409 0.048762638
0.37698495 0.16375728 -0.059307545 0.3216555 -0.23086335 -0.060349103 -0.23475687 0.19578813
0.44869217 0.37962207 0.22717033 0.022164082 -0.086253926 0.11332504 0.10467636 0.18516779
0.21768042 -0.11603274 0.28931636 0.20162846 0.045158677 0.28984135 -0.056764834 0.44586408
0.053344175 0.078305736 0.18303041 -0.2008228 -0.16196686 -0.109705016 0.46831167 -0.04199229
0.017201992 0.3009967 -0.1945136 0.44391987 0.25365692 0.12903453 0.31417355 0.25030848
-0.026452012 0.12736605 -0.057002585 0.5978935 -0.12289514 0.4590586 0.34284845 0.610092
0.30136296 0.29348588 -0.13226707 0.024015648 -0.0350427 0.43235496 -0.1611254 0.1754082
0.3776946 0.44599965 0.29101527 0.13474585 0.02471799 -0.09945086 0.24358189 0.11934412
0.27027443 -0.16323991 -0.0645165 0.26045772 0.24619767 0.5200323 -0.14154577 -0.030718032
0.090413965 -0.14662081 0.19181813 0.28009528 0.117175266 0.14757635 0.12249798 0.2195476
0.17235705 0.2816025 -0.05282636 0.35342643 0.3873391 0.14258508 0.17186223 0.4013058
0.4040144 0.3389369 0.43086857 0.42839062 0.18906118 0.5711027 -0.0014420453 0.13602385
0.27747682 -0.18867026 -0.04408971 -0.032176357 -0.039070588 -0.13788441 -0.18218498 0.013627566
0.16930501 -0.15222257 -0.038212676 -0.07059072 -0.24151652 0.29510874 0.1381503 0.45464203
-0.17480724 0.34073338 -0.18213454 0.43429717 0.22990672 -0.06226795 0.34318784 -0.001341334
-0.12209309 0.04025345 -0.07225107 0.22444516 0.22802038 0.07209325 0.07617533 0.05350132
0.22014856 0.35100335 0.1793124 -0.23568046 0.094372205 0.23586144 -0.039616592 0.18338054
-0.068498045 0.1666173 -0.06807341 -0.16644393 0.19640164 -0.29861835 -0.12012391 -0.07105867
0.26126367 -0.037852433 -0.12923768 -0.048284944 0.2851066 0.10091291 0.099673636 -0.23579633
-0.09012824 0.78685594 0.29882485 0.23696662 -0.088545874 0.29937837 0.2351514 0.16893144
0.070780754 0.32063282 0.036408897 0.6592565 0.034059286 0.44276172 -0.131333 0.6813534
-0.12759401 -0.22342484 -0.023797316 0.21763144 0.36328658 0.011714133 -0.041342083 -0.24518734
-0.11536421 0.046975248 -0.065959536 0.32395425 -0.07539677 0.05945318 -0.1935289 0.4050951
0.6589118 0.25040594 -0.14057218 0.36031172 0.09283161 0.22750382 0.36883196 -0.1520899
-0.0030022932 -0.26718658 -0.04348251 -0.19243908 0.40580136 0.2892129 0.29132167 0.24493197
0.0868863 0.29628506 0.33951494 -0.02057995 0.1518668 0.22235295 0.30127534 0.4044522
0.017877325 -0.074414015 -0.008109126 0.3311334 -0.13472287 -0.09453862 -0.07676684 0.13179566
-0.22996749 0.08967664 -0.05372468 0.7511064 0.38790873 0.043671653 -0.20509891 0.28374004
0.0049971826 0.53272086 0.4977398 0.1573961 0.035593186 0.3604427 0.37540546 0.18826099

q2.2.weight f4 [256, 256]
00000000: e06a bc3b 0010 8e39 807a 273b 0e39 2fbd
00000010: e039 01bb 8b83 093c 876e 5a3c 7aed d7bc
00000020: 94de d13c c89e 0ebc 2f5e e43b 4095 11bc
00000030: 2960 1f3d 9044 563d ce37 08bd b4a6 80bc
00000040: 1418 86bc 5043 693c dcf1 cbbc f77b 03bc
00000050: 6e4f 7abd 5cea c63c 624e 7abd 782b 0ebc
00000060: f8a4 3ebc 8024 6dbd 3ae1 423d 68ed 7a3c
00000070: 4472 6ebd d4ab dfbc a0e4 0dbc e812 27bc
00000080: e056 3bbb 3adb 36bd 6ec9 ba3b 6443 103d
00000090: 1440 cd3c 801d 0e3d 10bb 503c 2a75 6fbd
000000a0: a86e c0bc 69b0 63bd dc45 e5bc be95 48bd
000000b0: 54ef 16bc 7dfb 963b 5d65 1f3c d48f 24bd
000000c0: 9ad2 573d 0092 08bb a006 2dbd 14be 0fbb
000000d0: 2cbf 723d 78b0 633d 332b f73c 1c7e 913c
000000e0: e260 c23c f8e1 30bd 1f5c afbc 7cca b5bc
000000f0: cfe8 a3bb e0ee bebc 9c51 4abd 4611 553d
00000100: 94b5 bebc dc60 0abd 54a8 b13c f240 b1bc
00000110: ec9e 4ebd 68f0 2d3c 5313 f43b d435 5a3d
00000120: fb57 043d f86a d8bc ab98 3a3b 06d5 173d
00000130: 7081 64bd 8e45 50bd 5683 23bd 384a e6bc
00000140: a098 293c 6bbe 653a f75e 223d a177 1ebd
00000150: d8ea 6e3c dae5 5c3d c8ee 72bc dd0f afbc
00000160: 3bed 8a3c b4dc 38bd d4e9 7dbd a895 5a3d
00000170: a276 bb3c e8de 263d 8700 36bc d0eb 32bd
00000180: ce0d 513c 92e8 21bd 880d 2c3d 91e8 0ebc
00000190: 4ba3 3fbd 35ab 5cbd e041 ff3c 190a 56bd
000001a0: 00a8 863b ed5b 21bc 4a4f 47bd ac1a 623d
000001b0: 1dea 59bd e61a 06bd 1e1c 5dbd 5cc1 d7bc
000001c0: f0a6 e83c f5e5 efbc 2b9a 5cbd 0043 7f3a
000001d0: bc1c f6bc 5ea4 163d baf5 6bbd 0e43 48bd
000001e0: eeee 22bd ff7d 683d eb95 38bd a84d ad3c
000001f0: 2874 f2bc d01c 0cbd 8c76 fcbc 93b6 5d3d
00000200: 353c 22bd 2cc8 143d e44a 4dbd cc99 a93c
00000210: a229 563d ed47 e1bc a382 75bd 0264 7c3d
00000220: e8ef 3c3c f9ca 09bc 60bb 66bc 82b6 3ebc
00000230: d397 0cbd 2bea 86bd a0a3 ca3c 69a0 493d
00000240: 78fa 12bd 508b e7bc 3839 243d 105b 20bc
00000250: 482f 993c a292 10bd d83d 59bd c659 573d
00000260: 27c0 683d e784 f43c ee50 7f3d 20ad 40bb
00000270: f800 3bbd 50fc 543d e8dd ffbc 0440 c83c
00000280: ddb4 983b b80f 633c fce9 f3bc f0fc 61bd
00000290: 3878 5a3d 21d1 733c ce0b 7ebd 3097 cf3c
000002a0: d2dd c43c 0ecc c1bb 1ebd 0d3d 35bb 103d
000002b0: 005c 4f39 f188 8ebc 62f0 20bd 7ca7 7ebd
000002c0: c07b 7e3d 0877 37bd 4068 0fbd 52a0 0e3d
000002d0: 5882 62bc 90ec 283c f78c 603d cc04 efbc
000002e0: 05b9 1dbd 4cdf 49bd 008a a8bb ec75 a0bc
000002f0: b840 4dbc a6ef 013d 4839 82bc fc57 a9bc
00000300: dd43 ca3c bee9 c83c c412 cb3c 42e3 dbbc
00000310: 8754 5abd 9150 ed3c f01c 0abc 2c0e a83c
00000320: b5a4 66bd 90d0 363d b07b 15bd 79cc 603d
00000330: ee04 0f3d 38d6 e13c 6fa5 42bd 0e0a 57bd
00000340: 18c4 0abc 396a 0a3d 601c 74bd 785b a83c
00000350: 0fd4 543d 3431 86bb 562f 533d 3618 593d
00000360: a0a6 2cbc 28af e03c bf4d 4abc 900f 41bd
00000370: 2123 34bd 2023 5ebd 9038 bb3b 9cbd debc
00000380: eeb0 3bbd ccdc 5dbd 2a8c 543d 00a4 8ab8
00000390: d8b4 0e3c 3f61 063d 5caf 483d 2c4f 2cbd
000003a0: 7529 bf3c 187a 2cbc 2a91 df3c 4b27 563d
000003b0: c408 bf3c 7613 7f3d cc47 c43c ace8 a53c
000003c0: 0061 783c 7861 21bd 5ffc a13c cab9 a53b
000003d0: 2a64 babc 50bb 52bc 1d6e 6a3d 7072 a6bc
000003e0: 9ea3 65bd d0a4 edbc 402d 12bc b8f0 2cbd
000003f0: 28b4 34bd 5855 03bd f997 ed3c 9cb9 383d
0.005750045 0.00027096272 0.0025555193 -0.04277902 -0.0019718334 0.008393179 0.013332016 -0.026358355
0.025618829 -0.008704849 0.0069692354 -0.008885682 0.038910065 0.05231148 -0.033256344 -0.01570449
-0.016368903 0.01423724 -0.024895601 -0.008025161 -0.061110906 0.024281673 -0.061109908 -0.008677356
-0.011636011 -0.057896137 0.047578074 0.015315391 -0.05821444 -0.027303614 -0.0086604655 -0.010197379
-0.0028585717 -0.044642664 0.005700282 0.03522052 0.025054969 0.034696102 0.012739912 -0.058461346
-0.023490265 -0.05558816 -0.027987413 -0.04897093 -0.009212334 0.0046076165 0.009728757 -0.040176228
0.05269108 -0.0020838976 -0.042242646 -0.0021933364 0.059264347 0.055588216 0.030171966 0.017760329
0.023727838 -0.04318425 -0.021406231 -0.022191279 -0.005002118 -0.023307264 -0.049394235 0.052018426
-0.023279943 -0.03378378 0.02168671 -0.021637414 -0.05044453 0.010616399 0.0074485927 0.05327399
0.032310467 -0.026418194 0.0028472345 0.03706839 -0.055787504 -0.050847583 -0.039920174 -0.028111562
0.01035133 0.0008764031 0.039641347 -0.038688306 0.014582358 0.05393014 -0.014827438 -0.021369869
0.016958823 -0.045132354 -0.061990574 0.05336538 0.022883717 0.040739924 -0.011108524 -0.04368192
0.012759639 -0.039528437 0.042005092 -0.00872244 -0.046786588 -0.053874213 0.031159341 -0.052255724
0.0041093826 -0.009848577 -0.0486596 0.055201218 -0.053201783 -0.032740496 -0.053981893 -0.026337318
0.028399915 -0.029284457 -0.053857964 0.0009737462 -0.030042998 0.036777847 -0.05760739 -0.048892073
-0.039778642 0.056760784 -0.045064848 0.021155193 -0.029596403 -0.034207165 -0.030818246 0.054129194
-0.0396082 0.03632371 -0.05012025 0.020703219 0.052285798 -0.027500117 -0.059939038 0.061618812
0.0115318075 -0.008410209 -0.01408276 -0.011640193 -0.03432448 -0.06587633 0.024736226 0.049225245
-0.035883397 -0.028264672 0.04009363 -0.009787336 0.018699303 -0.03529609 -0.053037494 0.05257585
0.056823876 0.029848529 0.06233304 -0.0029400066 -0.04565522 0.051998436 -0.031233743 0.024444588
0.0046602325 0.013858728 -0.029774658 -0.05517286 0.053337306 0.014881403 -0.062022977 0.025340647
0.024031553 -0.005914218 0.034604184 0.035334785 0.00019775331 -0.017399283 -0.039291747 -0.062171444
0.062129736 -0.04479125 -0.03501153 0.034820862 -0.013825022 0.010310307 0.054821935 -0.029177092
-0.038506526 -0.049285218 -0.005143404 -0.01958748 -0.012527637 0.031722687 -0.015896454 -0.020671837
0.024690563 0.02452552 0.024789222 -0.026841763 -0.053303268 0.028969081 -0.008429751 0.02051457
-0.05630942 0.044632494 -0.03649491 0.0548825 0.03491681 0.027567968 -0.04752105 -0.052499823
-0.008469604 0.033792708 -0.059597373 0.020551428 0.051960047 -0.004095221 0.051558815 0.053001605
-0.010537773 0.027427271 -0.012347638 -0.047133982 -0.043978814 -0.054232717 0.00571353 -0.027190022
-0.04582303 -0.054165646 0.051891483 -6.6109e-05 0.008710109 0.032807585 0.04899536 -0.04206769
0.023335198 -0.010527156 0.0272909 0.052283566 0.02331961 0.06227442 0.023960017 0.020252548
0.015159845 -0.039399594 0.01977366 0.005057548 -0.02275284 -0.012862042 0.05723392 -0.02031824
-0.05606424 -0.029009253 -0.008921921 -0.042221755 -0.044117123 -0.032063812 0.02900313 0.045098886
