astar/working_model/sac_critic_150.pth (torch, 553314 bytes, 10 tensors)

q1.0.weight f4 [256, 9]
0.16260862 0.109772675 -0.16499698 0.11065328 0.31065747 0.19660452 0.37607312 0.19692996
0.11841214 0.22044383 0.16745268 0.18880728 0.3247768 -0.24812083 0.24461636 0.17928253
0.35404608 0.18582247 -0.026640762 0.13057972 -0.15490863 0.09202719 0.25968572 0.05133578
0.10114096 0.0058034533 0.2456067 0.094621256 -0.31515908 -0.1831853 0.31985572 0.22365925
-0.15007322 -0.27694198 -0.020837698 -0.16192482 0.013785595 -0.1645795 -0.36438268 -0.26086614
0.23847947 0.21566644 -0.2201592 -0.24160689 -0.63816434 -0.16865563 -0.2546154 -0.20784366
-0.32655334 -0.22283661 0.10529682 -0.3867306 -0.118250124 -0.14718501 -0.11547545 0.09725874
-0.10649584 0.035609007 -0.30248052 0.21251169 -0.6482906 -0.77609485 -0.6744679 -0.22893877
-0.1142183 0.5922129 0.06260109 0.13947713 0.1265153 0.11151788 -0.3090704 0.31401774
0.0008891042 0.14787492 0.40803942 0.2588571 -0.04370919 0.32609668 0.53706217 0.068167225
0.25836143 -0.26703742 -0.07927457 -0.33161426 -0.0049743354 0.034526825 0.12372506 -0.41996092
-0.16506146 -0.056712955 0.14670986 -0.084799424 -0.5325889 -0.18601434 -0.31927705 -0.08984904
-0.11718246 -0.14543986 -0.3009885 0.3207631 0.344501 -0.19324656 0.22357854 0.2630432
0.23062745 0.68536615 0.5261475 0.1832594 -0.018168693 0.3248052 0.2710143 0.03664148
0.2899135 -0.0029037893 0.099336885 0.25917366 0.55280447 -0.35542586 0.28571987 -0.029435892
-0.12857807 0.30803683 -0.17459719 0.1982602 0.25896344 -0.079202496 -0.19701013 0.42074
0.5060524 -0.086037755 -0.030700207 0.24005142 -0.16918504 0.20577495 0.2704911 -0.16276719
-0.07494328 -0.35108152 0.21474007 -0.30260658 -0.028019935 -0.5023947 0.027868478 -0.24920231
-0.30144712 -0.0014513228 -0.32005957 -0.0032850802 0.088309556 -0.24416253 -0.094950356 -0.36033335
-0.43978974 0.5901019 0.33800337 -0.5234314 -0.08670461 0.16774836 -0.13792512 0.68197185
0.56655204 0.15358481 -0.25345826 0.0049232747 0.09123067 -0.0722332 0.30384114 0.030644923
-0.16581352 0.23599774 0.16800736 -0.13525794 -0.13072369 0.08934884 -0.24358475 0.2878473
0.0803082 -0.2770862 0.26194987 0.0051313494 -0.19012566 -0.216423 -0.16201799 0.18612865
0.30058733 -0.01309523 -0.5991466 0.104941845 -0.4119421 0.5557436 0.008002399 0.22949156
-0.19562829 0.21358475 0.07348928 0.0152011635 0.18936072 0.26795736 -0.11423725 -0.28216848
-0.03813733 -0.0014027059 0.2631729 0.23876521 0.05647023 0.1904459 0.05728811 0.54925525
0.27246344 -0.00583678 0.15542325 0.15171942 -0.2191718 -0.053200964 0.07742633 0.05832541
0.51639616 0.46096167 0.13715963 -0.252438 0.2216231 -0.2289844 0.20083386 0.0754392
0.3931094 -0.25033092 0.28611818 -0.097209476 -0.32521257 0.25372818 -0.16694681 -0.18807095
0.3881615 0.044570774 -0.20415053 0.4679828 -0.1134469 -0.1558139 -0.086933464 0.04031071
0.34732673 0.6776903 -0.10836011 -0.011834574 0.072821066 -0.57263607 -0.17012851 0.25137928
-0.0921323 -0.23687628 -0.08649934 -0.08412156 0.43287867 0.2758092 0.16669624 -0.3124926
00000000: e082 263e 7fd0 e03d f8f4 28be 309e e23d
00000010: 7f0e 9f3e b252 493e a88c c03e 02a8 493e
00000020: 1082 f23d 07bc 613e b778 2b3e b256 413e
00000030: 2549 a63e 6313 7ebe b67c 7a3e d795 373e
00000040: 8745 b53e 3f48 3e3e ba3d dabc b1b6 053e
00000050: 5ea0 1ebe c078 bc3d 87f5 843e 7845 523d
00000060: fe22 cf3d e52a be3b 5380 7b3e cac8 c13d
00000070: 885c a1be ed94 3bbe 21c4 a33e ee06 653e
00000080: cbac 19be 57cb 8dbe d2b3 aabc 9fcf 25be
00000090: fadc 613c 8787 28be 5e90 babe 3f90 85be
000000a0: f633 743e aad7 5c3e 6a71 61be cc67 77be
000000b0: bd5e 23bf 10b4 2cbe f35c 82be f8d4 54be
000000c0: 0032 a7be 482f 64be dca5 d73d 8e01 c6be
000000d0: 1f2d f2bd abb7 16be 657e ecbd 972f c73d
000000e0: 7e1a dabd c0da 113d bade 9abe aa9c 593e
000000f0: 5ff6 25bf 27ae 46bf eea9 2cbf ed6e 6abe
00000100: 49eb e9bd 449b 173f 0035 803d 18d3 0e3e
00000110: 3a8d 013e 7c63 e43d 7a3e 9ebe efc6 a03e
00000120: c612 693a 866c 173e 8bea d03e eb88 843e
00000130: 6808 33bd 25f6 a63e e87c 093f 429b 8b3d
00000140: f347 843e 21b9 88be b55a a2bd 58c9 a9be
00000150: c0ff a2bb 006c 0d3d 9063 fd3d 1e05 d7be
00000160: df05 29be d84b 68bd 1c3b 163e 52ab adbd
00000170: bf57 08bf 8b7a 3ebe 4878 a3be c602 b8bd
00000180: 5cfd efbd 30ee 14be 2a1b 9abe 103b a43e
00000190: 6f62 b03e 6de2 45be c6f1 643e 99ad 863e
000001a0: 9a29 6c3e 2874 2f3f 9ab1 063f 5aa8 3b3e
000001b0: 83d6 94bc de4c a63e 63c2 8a3e 6015 163d
000001c0: 8b6f 943e 804d 3ebb 2371 cb3d 69b2 843e
000001d0: 9884 0d3f 61fa b5be e049 923e 8a23 f1bc
000001e0: f8a9 03be 01b7 9d3e 9bc9 32be b904 4b3e
000001f0: db96 843e eb34 a2bd 06bd 49be 3c6b d73e
00000200: a68c 013f 9034 b0bd 007f fbbc 0ad0 753e
00000210: d83e 2dbe abb6 523e cf7d 8a3e 71ac 26be
00000220: dd7b 99bd f5c0 b3be d2e4 5b3e 40ef 9abe
00000230: 108a e5bc f09c 00bf 6f4c e43c e42e 7fbe
00000240: 4757 9abe 503a beba d9de a3be 804a 57bb
00000250: a4db b43d be05 7abe 5575 c2bd 9d7d b8be
00000260: 1f2c e1be eb10 173f c70e ad3e 9aff 05bf
00000270: 3092 b1bd 3ac6 2b3e 3e3c 0dbe b595 2e3f
00000280: 8e09 113f 5645 1d3e 48c5 81be 6c53 a13b
00000290: 25d7 ba3d 00ef 93bd 1191 9b3e 100b fb3c
000002a0: 05cb 29be 64a9 713e 1f0a 2c3e 0f81 0abe
000002b0: 6edc 05be 86fc b63d 486e 79be b960 933e
000002c0: a078 a43d 3ede 8dbe 4b1e 863e e124 a83b
000002d0: 4db0 42be fe9d 5dbe 0be8 25be 8298 3e3e
000002e0: 95e6 993e 608d 56bc ac61 19bf c0eb d63d
000002f0: 13ea d2be 3645 0e3f 7e1c 033c d6ff 6a3e
00000300: c852 48be f6b5 5a3e 8c81 963d 4d0e 793c
00000310: c7e7 413e b531 893e 38f5 e9bd 6378 90be
00000320: e435 1cbd 00db b7ba 99be 863e de7e 743e
00000330: 544d 673d 4004 433e f0a6 6a3d fe9b 0c3f
00000340: 5480 8b3e 7642 bfbb 4627 1f3e 565c 1b3e
00000350: 936e 60be 41e9 59bd b291 9e3d a0e6 6e3d
00000360: 8a32 043f 2b03 ec3e 9373 0c3e 8e3f 81be
00000370: 2af1 623e e37a 6abe 64a7 4d3e de7f 9a3d
00000380: a345 c93e 602b 80be 157e 923e c315 c7bd
00000390: 4382 a6be a9e8 813e 1bf4 2abe ac95 40be
000003a0: 1bbd c63e d88f 363d d60c 51be 719b ef3e
000003b0: d956 e8bd ae8d 1fbe 2c0a b2bd d81c 253d
000003c0: cfd4 b13e 1d7d 2d3f e8eb ddbd cde5 41bc
000003d0: 3623 953d 4798 12bf 2b36 2ebe c9b4 803e
000003e0: dcaf bcbd b28f 72be 9126 b1bd ed47 acbd
000003f0: 46a2 dd3e dd36 8d3e 6bb2 2a3e 08ff 9fbe

q1.0.bias f4 [256]
1.2304053 1.2359645 1.6427975 1.8336389 0.3801608 0.6636857 1.258351 0.38379014
-0.38124156 0.81622314 0.5982167 1.45243 1.4057926 1.5419532 -0.40139532 0.59033424
0.65636444 0.87838084 1.4050208 1.9173969 0.45847175 -0.62119085 1.4486145 -0.21102035
-0.2684334 1.1754318 0.7080598 0.6946441 1.4601523 0.3705676 0.51686275 -1.0874642
1.8143505 0.36782986 0.38332707 -0.65177596 1.4969566 0.45115125 -0.35004637 0.5677274
0.42524964 0.47458494 0.344066 0.7797823 0.43249658 0.3301782 0.75466835 0.4854734
-0.3493171 0.40019912 -0.01993907 -0.20402676 0.50237185 1.2978045 0.6922865 0.42996648
1.2100358 1.6718119 -0.24917194 -0.027576242 0.3797457 0.36678252 0.7072026 -1.1630355
-0.42387044 -0.8882824 0.45151892 0.74132824 0.2580755 -0.92092335 1.266555 0.7844198
0.5140184 0.4294066 0.84487134 0.04168469 0.4612654 1.5186262 -1.0470736 0.8224627
1.1964802 -0.96331525 1.0873864 -0.36868703 0.011123015 0.48650146 1.048954 0.47877002
1.1265405 0.26812908 -0.8868403 0.5440197 0.68027216 -0.40823668 0.33494794 0.23133458
1.5872478 0.95397276 -0.8553706 1.2929655 0.62202775 -0.38528636 1.7196987 0.780102
0.7260481 0.3404883 0.5647375 1.8629724 0.35303804 0.70449096 1.1229167 1.0108057
1.2121277 -0.80484354 0.7884273 0.5294376 0.60216016 1.4151993 0.5419673 0.7940704
0.386993 0.8987041 -0.66647196 0.59149414 -0.21779835 -0.63211817 -1.1565609 -1.1417924
0.5065041 1.5064038 -0.52715737 0.82304364 1.0693271 -0.5513544 1.3402574 -0.6261197
-0.6422958 0.6083582 1.7830577 -0.19434747 1.08071 1.1660787 -0.74049455 0.98154634
-0.18566543 1.4437363 0.60711914 0.6067117 -0.81300616 -0.83092874 1.518255 1.8448242
-0.9283861 1.2987503 -0.7866129 -0.7224883 0.5194136 0.8025719 0.38762802 -1.2005676
-0.8540006 0.5322325 0.6285739 0.6753508 1.649619 0.77689147 1.8036841 1.1927688
0.29655474 1.3748786 1.4629406 0.48061112 1.7293949 1.2698995 1.9644835 0.6061004
0.48962376 0.4525238 0.7483904 -0.62301207 1.0135136 0.7678271 0.48249832 -0.97809225
-0.3156019 -0.9733264 0.7147331 0.7835214 0.55740625 0.443649 0.6984336 1.2805022
-0.76702744 1.5218629 1.8447899 1.5310229 0.8658378 0.36041343 -0.7836218 -0.80052406
-1.1030636 0.63224065 0.60446995 0.32341844 0.70659935 1.1722574 1.4618837 1.1362193
0.46940318 0.55571896 -1.0719498 1.5179168 -0.4412823 -0.097594656 0.5022284 1.8331351
0.5942459 0.39920115 1.6988982 -0.83755475 -0.05273014 0.4931036 1.0993243 -0.84184283
0.43295926 1.6032578 0.9626924 0.34924632 0.34657604 0.45415673 0.42565516 0.41976902
-1.208193 -0.41878945 -0.72202414 1.5853908 -0.9585677 0.34334087 1.2484182 1.3370922
-0.38714316 -0.9638624 -0.37245715 -0.39481878 0.9582531 1.1846036 0.35949105 1.0490923
1.4946575 1.0326061 1.6274322 0.69916975 0.8244971 -1.4495397 1.6584638 0.4933101
00000000: ec7d 9d3f 1634 9e3f 3047 d23f aeb4 ea3f
00000010: 70a4 c23e 4ee7 293f a511 a13f 2480 c43e
00000020: 1832 c3be 00f4 503f bb24 193f 3ae9 b93f
00000030: 03f1 b33f b95e c53f b083 cdbe 2520 173f
00000040: 8007 283f 91dd 603f b9d7 b33f 436d f53f
00000050: cfbc ea3e 5d06 1fbf 336c b93f b815 58be
00000060: 1a70 89be 8d74 963f 6843 353f 32d4 313f
00000070: 45e6 ba3f 09bb bd3e 1e51 043f 0732 8bbf
00000080: a33c e83f 3254 bc3e 7243 c43e cada 26bf
00000090: 469c bf3f 4cfd e63e 4739 b3be 9556 113f
000000a0: 52ba d93e ccfc f23e 6b29 b03e d09f 473f
000000b0: 3170 dd3e 1e0d a93e f231 413f f88f f83e
000000c0: b1d9 b2be e6e6 cc3e 4357 a3bc 64ec 50be
000000d0: 719b 003f 751e a63f b039 313f 9124 dc3e
000000e0: 74e2 9a3f effd d53f ee26 7fbe 92e7 e1bc
000000f0: 076e c23e ebca bb3e 3b0b 353f 59de 94bf
00000100: 8c05 d9be 7a66 63bf 7d2d e73e b0c7 3d3f
00000110: 7922 843e a2c1 6bbf 791e a23f bccf 483f
00000120: b696 033f 2fdb db3e 7d49 583f 91bd 2a3d
00000130: fa2a ec3e 5862 c23f 8206 86bf ea8c 523f
00000140: 4326 993f d49b 76bf 7a2f 8b3f 8cc4 bcbe
00000150: 4e3d 363c b816 f93e 2044 863f 5821 f53e
00000160: 7b32 903f 3748 893e f707 63bf e044 0b3f
00000170: 5126 2e3f 6604 d1be 4c7e ab3e f9e2 6c3e
00000180: f02a cb3f 8f37 743f 91f9 5abf e57f a53f
00000190: 363d 1f3f 4144 c5be 161f dc3f c4b4 473f
000001a0: 4ade 393f 7c54 ae3e a392 103f e175 ee3f
000001b0: 67c1 b43e 8559 343f bcbb 8f3f 1562 813f
000001c0: 0027 9b3f 3a0a 4ebf 5fd6 493f 3989 073f
000001d0: 2b27 1a3f 4025 b53f 5ebe 0a3f 3348 4b3f
000001e0: f223 c63e 7911 663f e89d 2abf 296c 173f
000001f0: 8806 5fbe 7fd2 21bf 300a 94bf 4126 92bf
00000200: 41aa 013f d7d1 c03f c9f3 06bf fdb2 523f
00000210: b6df 883f 9025 0dbf 8e8d ab3f 6149 20bf
00000220: 7f6d 24bf 5dbd 1b3f 3c3b e43f 0603 47be
00000230: b554 8a3f 1142 953f 0d91 3dbf 9f46 7b3f
00000240: 141f 3ebe 5acc b83f 296c 1b3f 7551 1b3f
00000250: 2c21 50bf bfb7 54bf 2e56 c23f 3323 ec3f
00000260: b6aa 6dbf 733d a63f 775f 49bf fef4 38bf
00000270: 4af8 043f 5a75 4d3f 2e77 c63e 33ac 99bf
00000280: c99f 5abf 6440 083f 38ea 203f cae3 2c3f
00000290: b726 d33f 5ce2 463f 1fdf e63f a6ac 983f
000002a0: 06d6 973e 06fc af3f a341 bb3f a912 f63e
000002b0: d05c dd3f 118c a23f 3274 fb3f 6529 1b3f
000002c0: f7af fa3e 33b1 e73e 8396 3f3f b87d 1fbf
000002d0: d0ba 813f 5190 443f 050a f73e 4164 7abf
000002e0: 9296 a1be eb2b 79bf c0f8 363f dc94 483f
000002f0: 2db2 0e3f f625 e33e 8bcc 323f 7fe7 a33f
00000300: e95b 44bf 67cc c23f 1322 ec3f 8ff8 c33f
00000310: 8ca7 5d3f 1c88 b83e 709b 48bf 25ef 4cbf
00000320: 3031 8dbf 86da 213f 8bbe 1a3f 1a97 a53e
00000330: b2e3 343f 880c 963f 011f bb3f a26f 913f
00000340: 9d55 f03e 9943 0e3f a735 89bf 194b c23f
00000350: c1ef e1be b5df c7bd 0a92 003f 2ca4 ea3f
00000360: 8020 183f 1864 cc3e 7f75 d93f fd69 56bf
00000370: 8ffb 57bd 1378 fc3e a9b6 8c3f 0383 57bf
00000380: d6ac dd3e 8d37 cd3f 0273 763f 6ad0 b23e
00000390: 6a72 b13e 3b87 e83e 79ef d93e f7eb d63e
000003a0: 11a6 9abf 926b d6be 93d6 38bf 16ee ca3f
000003b0: b164 75bf 60ca af3e 2bcc 9f3f d625 ab3f
000003c0: a137 c6be b0bf 76bf b4b2 bebe b025 cabe
000003d0: 1350 753f 17a1 973f 360f b83e a848 863f
000003e0: f050 bf3f 702c 843f b34f d03f cafc 323f
000003f0: 3e12 533f 848a b9bf 8b48 d43f 2493 fc3e

q1.2.weight f4 [256, 256]
0.38532346 -0.0062294076 0.25654978 0.16247517 -0.5994945 -0.54634225 0.3195786 -0.2662262
-0.09037715 -0.42288247 -0.5255642 0.117977 0.007223922 -0.0009107417 -0.17485633 -0.565434
-0.47543415 0.17619646 0.117696695 -0.021221563 -0.6347846 0.008203929 -0.00057032023 0.0058450415
0.036529586 0.32024512 -0.2287932 -0.491982 -0.014291644 -0.43817204 0.25926846 -0.08728425
0.40567762 -0.040288996 -0.59846014 -0.19279096 0.11968987 -0.6335799 -0.1418445 -0.012667388
-0.6106558 -0.53338677 -0.6388794 -0.57750344 -0.59092426 -0.3444928 -0.011249828 -0.5593597
-0.17153744 -0.6361772 0.023823759 0.058967557 -0.4464899 0.47644255 -0.6015971 -0.47428748
0.1448733 0.3906953 -0.14712782 -0.04925851 -0.45936128 -0.5822848 -0.29596758 -0.10420717
-0.2037583 -0.05645247 -0.6316533 -0.49333754 -0.21395157 -0.040087033 0.34230974 -0.62135315
-0.56754667 -0.578727 -0.4616837 -0.05855994 -0.5757046 0.15380743 -0.27472183 -0.6190819
-0.106041886 -0.20858714 -0.4956315 0.14274214 -0.020129493 -0.54314023 -0.2979198 -0.53337246
0.24456657 -0.592739 -0.36208373 0.027841171 -0.5541123 -0.047902863 -0.49286887 0.13669018
0.30646476 0.0056897225 -0.30597627 0.07284669 -0.5213114 -0.06424689 0.06434316 0.08771184
-0.5491917 -0.602058 -0.52933097 0.23778784 -0.62287575 -0.5834138 0.06594501 0.06752107
0.027347228 -0.38732302 -0.46689826 -0.6233842 -0.48195076 0.0017638177 -0.43274522 -0.479923
-0.44951317 0.049288258 -0.108342305 -0.4191353 -0.1653414 -0.0720319 -0.32686943 -0.031349547
-0.6492132 0.40890253 0.25222924 -0.078440666 -0.5876574 -0.19806623 0.102932364 0.11368928
0.048269205 0.19158627 0.08767136 -0.10875556 -0.5734627 -0.040823646 -0.16095787 0.003882654
-0.05000086 0.060636364 -0.40477762 -0.5188031 -0.0438871 -0.3172027 0.24701287 0.0041640014
-0.23032533 0.39631352 -0.43307114 -0.17674586 -0.59424186 -0.09164611 -0.41103598 -0.07154428
-0.47565296 -0.5882107 -0.16781498 -0.31025833 0.06752385 -0.37153473 0.18447003 0.29678223
-0.50835425 0.5163469 0.0638659 -0.5797638 0.044900745 0.1558948 0.08301271 -0.5571
0.007961572 -0.38615778 0.021172855 -0.1420556 0.05746156 -0.5645904 -0.5281889 -0.43504798
0.09233223 -0.39506957 0.058954354 -0.40257636 -0.3796471 -0.51348436 0.044531085 -0.025691977
-0.29653624 0.41400468 0.10269966 -0.1393666 0.17404306 -0.64654464 0.053199366 -0.105886586
-0.3057023 0.01268912 -0.035093386 -0.5187428 -0.23454061 0.023197638 0.43074447 -0.059859447
-0.56889045 -0.44744936 -0.09678083 0.34920102 -0.0012950635 -0.19651529 -0.55075496 -0.018468095
-0.398762 -0.3627877 0.44186315 -0.35065854 -0.072217315 -0.5730606 0.6059023 -0.15558356
-0.33983058 0.41899103 -0.49731866 -0.5905894 -0.4539538 -0.51891404 -0.66255873 -0.42106298
-0.120495684 -0.08792211 -0.16492425 0.0627353 -0.20376213 -0.48862362 0.093368344 0.119509004
0.20390671 -0.046367858 -0.06662917 -0.05945278 0.09371781 0.053808376 -0.632219 -0.015688512
0.06958594 -0.48467582 -0.017364945 -0.6195652 -0.008494331 -0.24582127 0.2108312 -0.43561837
00000000: 1e49 c53e 0f20 ccbb 7e5a 833e e45f 263e
00000010: 7978 19bf 16dd 0bbf ce9f a33e cd4e 88be
00000020: a817 b9bd 0d84 d8be 608b 06bf ed9d f13d
00000030: a6b6 ec3b d7be 6eba 8a0d 33be 48c0 10bf
00000040: 1b6c f3be d86c 343e f70a f13d d8d8 adbc
00000050: 3e81 22bf c669 063c 8b81 15ba c387 bf3b
00000060: 0ca0 153d 2bf7 a33e c448 6abe 11e5 fbbe
00000070: 8027 6abc 1658 e0be d6be 843e 16c2 b2bd
00000080: fab4 cf3e 1306 25bd af34 19bf fe6a 45be
00000090: f61f f53d 4b32 22bf af3f 11be e08a 4fbc
000000a0: f053 1cbf 098c 08bf 9a8d 23bf 44d7 13bf
000000b0: d046 17bf 5c61 b0be 3351 38bc 3332 0fbf
000000c0: 83a7 2fbe 82dc 22bf 0b2a c33c f787 713d
000000d0: 539a e4be 47f0 f33e 4402 1abf cfd5 f2be
000000e0: ab59 143e 3709 c83e ada8 16be 4bc3 49bd
000000f0: 6731 ebbe 9e10 15bf 1089 97be 926a d5bd
00000100: 04a6 50be b53a 67bd 08b4 21bf bd96 fcbe
00000110: 1f16 5bbe 4d32 24bd 3943 af3e 0011 1fbf
00000120: bd4a 11bf 7427 14bf ce61 ecbe 8cdc 6fbd
00000130: 6061 13bf b27f 1d3e 57a8 8cbe 277c 1ebf
00000140: 7d2c d9bd de97 55be 69c3 fdbe ff2a 123e
00000150: 9be6 a4bc 3d0b 0bbf f288 98be 198b 08bf
00000160: a96f 7a3e bebd 17bf 0a63 b9be 2b13 e43c
00000170: 4eda 0dbf cb35 44bd 4f59 fcbe 83f8 0b3e
00000180: f3e8 9c3e da70 ba3b eca8 9cbe a530 953d
00000190: aa74 05bf e093 83bd 59c6 833d 44a2 b33d
000001a0: d497 0cbf 7920 1abf 3c82 07bf a87e 733e
000001b0: c974 1fbf 9b5a 15bf 2d0e 873d 7d48 8a3d
000001c0: 4b07 e03c 344f c6be 4a0d efbe 1b96 1fbf
000001d0: 40c2 f6be e72f e73a c890 ddbe 78b8 f5be
000001e0: 9726 e6be 7ce2 493d 92e2 ddbd e798 d6be
000001f0: 424f 29be 7685 93bd 6e5b a7be 6268 00bd
00000200: d632 26bf ac5b d13e 3124 813e 80a5 a0bd
00000210: b770 16bf e0d1 4abe 34ce d23d edd5 e83d
00000220: eeb5 453d 312f 443e 0b8d b33d 3cbb debd
00000230: 74ce 12bf b236 27bd 24d2 24be 2074 7e3b
00000240: b4cd 4cbd d65d 783d 033f cfbe 48d0 04bf
00000250: f6c2 33bd 6468 a2be f1f0 7c3e 2d72 883b
00000260: 67da 6bbe 9be9 ca3e 80bb ddbe defc 34be
00000270: 3c20 18bf f5b0 bbbd 4f73 d2be cf85 92bd
00000280: c988 f3be fa94 16bf b1d7 2bbe 2eda 9ebe
00000290: f249 8a3d cd39 bebe b6e5 3c3e d7f3 973e
000002a0: 8123 02bf 4f2f 043f 20cc 823d 676b 14bf
000002b0: d8e9 373d e3a2 1f3e 9102 aa3d 1b9e 0ebf
000002c0: 4171 023c 79b6 c5be b272 ad3c 0677 11be
000002d0: d05c 6b3d ff88 10bf 6337 07bf 9cbe debe
000002e0: ae18 bd3d 8f46 cabe 1f7a 713d 7d1e cebe
000002f0: 1b61 c2be b673 03bf 3a66 363d fb77 d2bc
00000300: 99d3 97be 6cf8 d33e 3354 d23d 1eb6 0ebe
00000310: 5838 323e f383 25bf 94e7 593d 11db d8bd
00000320: 0385 9cbe 07e6 4f3c 15be 0fbd 54cc 04bf
00000330: 6a2b 70be f908 be3c 8a8a dc3e 2e2f 75bd
00000340: cea2 11bf 1518 e5be 0735 c6bd 7aca b23e
00000350: 1fbf a9ba 4e3b 49be 47fe 0cbf 674a 97bc
00000360: 882a ccbe 4fbf b9be e33b e23e 8489 b3be
00000370: ace6 93bd 19b4 12bf 6a1c 1b3f 4c51 1fbe
00000380: 46fe adbe fe85 d63e 8da0 febe de30 17bf
00000390: a26c e8be 8dd7 04bf 739d 29bf 9195 d7be
000003a0: 71c6 f6bd 8210 b4bd e7e1 28be 5d7b 803d
000003b0: 05a7 50be e02c fabe e737 bf3d 23c1 f43d
000003c0: eccc 503e 39ec 3dbd e074 88bd c284 73bd
000003d0: 20ef bf3d 2c66 5c3d 1bd9 21bf 3285 80bc
000003e0: 1383 8e3d 6e27 f8be ee40 8ebc d39b 1ebf
000003f0: ce2b 0bbc 92b8 7bbe 22e4 573e 5f09 dfbe

q1.2.bias f4 [256]
0.31217173 0.2712696 0.30273858 0.27157557 0.28907186 0.14825831 -0.01725081 0.39418072
0.2520316 0.008276659 1.0270256 -0.09860255 0.48119748 0.4292055 0.40288755 0.5579631
0.3191756 0.010901062 0.2075362 0.30306128 0.33311915 0.01923875 0.28652027 0.396979
-0.004426634 0.2768647 0.29494447 0.3172754 0.33070606 0.2970411 -0.064580865 0.049767546
1.0732003 0.34893137 -0.016998336 -0.053539034 0.31428325 -0.043660324 -0.045983035 0.2830348
0.05809153 0.23707367 -0.107032895 0.040146083 -0.0015679473 0.1936701 0.496635 0.4317726
0.35716283 0.3408302 0.26252922 0.2664799 0.31238815 0.08194789 0.043191057 -0.039248776
0.21929608 0.9992457 0.29970363 -0.014973303 0.28202847 0.28613228 0.20305084 0.33797273
0.27433744 0.3239617 0.34843066 0.060392134 1.0892184 0.5396953 0.40114918 1.0346845
0.17097072 1.1005335 -0.04580317 0.29533342 0.11984767 0.30801144 -0.004370271 1.1409626
0.12455659 0.37934658 0.35575876 -0.12351401 0.36246932 0.16733557 0.28196865 1.0544053
0.23736037 0.97374105 0.18248898 0.052962262 0.2437753 0.26127225 0.2838434 0.2507478
0.4073901 0.23910424 1.0338149 0.28091365 -0.0073766764 0.38518837 -0.051768705 0.3267624
0.2361469 0.17813669 0.20393544 0.019685848 0.25758073 0.28601462 0.25450438 0.26143003
0.35512674 0.087348685 0.16155203 0.28632274 0.10342157 0.3852228 0.028409712 0.082189895
-0.028828965 0.37790284 -0.08319041 -0.019318055 0.3955604 0.31068966 0.047775965 0.3255206
-0.11723196 0.3225843 0.09134255 0.21690537 0.22992715 0.33689418 0.15061423 0.21839745
1.0643563 0.4043767 0.0068744537 -0.014901824 0.3657931 -0.015143334 0.31249195 -0.027800014
0.30791503 1.0754467 0.277643 0.24451017 0.42819846 -0.055426814 0.12452575 0.37021422
0.30723757 0.14428084 -0.04038563 1.1045169 -0.0049510146 0.38239604 0.028261717 1.128868
0.3512257 -0.012592154 -0.007747648 0.31671354 0.32478392 0.27324408 0.38041815 0.12972347
0.30760834 0.385215 0.27717918 0.28526708 0.15181892 -0.094917774 0.21985322 0.29846722
-0.056516793 0.35950097 0.24640882 1.0542228 0.3668407 0.33545834 0.28925624 1.0077624
-0.057582356 0.21303417 1.095251 0.34746855 0.23603813 0.28588888 0.07316628 1.0493066
0.3154148 1.0710309 0.029421667 0.16822544 0.2755486 0.28414407 0.39893764 0.27079284
-0.00031698676 0.231977 0.12841725 0.28882712 -0.03779305 -0.06087433 0.09861469 0.32957545
0.26254186 0.3966844 1.0180138 0.21025543 0.38710946 0.30379927 0.25145578 0.52211344
0.57716614 0.37580833 0.06821413 0.057083633 -0.028871125 0.023107475 0.091521256 1.1556609
0.04369349 0.79050976 0.3028698 0.08710155 -0.023177627 0.24539812 0.00179654 0.19084138
0.4403778 0.87392485 0.03916391 -0.01347032 0.9778076 0.1514978 0.21382374 0.39653105
0.007789736 0.27032116 -0.020008283 0.012874442 0.26688212 0.36913437 0.021058079 0.32323962
-0.046333257 0.18009034 1.0328108 0.567873 1.029427 0.3035114 -0.008035934 0.3010229
00000000: f9d4 9f3e d9e3 8a3e 8d00 9b3e f40b 8b3e
00000010: 3a01 943e 07d1 173e 9251 8dbc 0ed2 c93e
00000020: 490a 813e d39a 073c 9375 833f 22f0 c9bd
00000030: 845f f63e d3c0 db3e 4747 ce3e abd6 0e3f
00000040: fc6a a33e 5e9a 323c 5f84 543e d92a 9b3e
00000050: 988e aa3e 959a 9d3c c9b2 923e d540 cb3e
00000060: 4c0d 91bb 36c1 8d3e f602 973e ec71 a23e
00000070: 4e52 a93e c515 983e f942 84bd 0ed9 4b3d
00000080: a15e 893f 22a7 b23e 1840 8bbc bf4b 5bbd
00000090: bce9 a03e 2bd5 32bd b558 3cbd f0e9 903e
000000a0: 62f1 6d3d 71c3 723e 1034 dbbd 3870 243d
000000b0: 9583 cdba 7451 463e f146 fe3e 4c11 dd3e
000000c0: 0cde b63e 4c81 ae3e 3b6a 863e 0e70 883e
000000d0: 57f1 9f3e 4cd4 a73d 1be9 303d 53c3 20bd
000000e0: 278f 603e 91ce 7f3f c172 993e 9652 75bc
000000f0: 0966 903e ee7f 923e 8fec 4f3e c30a ad3e
00000100: f575 8c3e 4fde a53e 8165 b23e be5d 773d
00000110: 826b 8b3f 7929 0a3f 6d63 cd3e 8b70 843f
00000120: f312 2f3e 48de 8c3f 1b9c 3bbd f135 973e
00000130: b272 f53d adb3 9d3e 7e34 8fbb 100b 923f
00000140: 8717 ff3d b739 c23e 0326 b63e eaf4 fcbd
00000150: 9495 b93e 045a 2b3e 325e 903e c1f6 863f
00000160: 990e 733e 1847 793f 64de 3a3e f5ee 583d
00000170: 3ba0 793e 7ac5 853e ec53 913e 0462 803e
00000180: 6f95 d03e bed7 743e 0c54 843f ead3 8f3e
00000190: 0cb8 f1bb 6937 c53e 6c0b 54bd 674d a73e
000001a0: 7ed0 713e 7769 363e 74d4 503e 3744 a13c
000001b0: 9fe1 833e 8270 923e 664e 823e 28da 853e
000001c0: 2cd3 b53e dee3 b23d e56d 253e e598 923e
000001d0: b0ce d33d ec3b c53e 7cbb e83c 2d53 a83d
000001e0: b92a ecbc 7b7c c13e bc5f aabd e640 9ebc
000001f0: e586 ca3e b712 9f3e bbb0 433d a3aa a63e
00000200: 4f17 f0bd c529 a53e ce11 bb3d 711c 5e3e
00000210: 0672 6b3e 657d ac3e 9e3a 1a3e 95a3 5f3e
00000220: d43c 883f 760a cf3e 1943 e13b c826 74bc
00000230: 3c49 bb3e bf1b 78bc f2fe 9f3e dbbc e3bc
00000240: 0aa7 9d3e 3da8 893f 3927 8e3e e060 7a3e
00000250: d43c db3e 3a07 63bd 5b07 ff3d b88c bd3e
00000260: 3e4e 9d3e 5bbe 133e 676b 25bd cf60 8d3f
00000270: 1f3c a2bb 6ac9 c33e 1e85 e73c bf7e 903f
00000280: dbd3 b33e 524f 4ebc fbdf fdbb 4728 a23e
00000290: 144a a63e a6e6 8b3e 2bc6 c23e 3bd6 043e
000002a0: d77e 9d3e e73a c53e 6eea 8d3e 870e 923e
000002b0: 6b76 1b3e 4064 c2bd 3421 613e b2d0 983e
000002c0: 277e 67bd 8310 b83e 9852 7c3e c6f0 863f
000002d0: 8bd2 bb3e 32c1 ab3e 6519 943e 5cfe 803f
000002e0: 7adb 6bbd a125 5a3e 2f31 8c3f 66e7 b13e
000002f0: fbb3 713e 0760 923e 34d8 953d ae4f 863f
00000300: 0c7e a13e 8a17 893f b505 f13c 4a43 2c3e
00000310: b514 8d3e 557b 913e 8e41 cc3e 5ca5 8a3e
00000320: 3e31 a6b9 618b 6d3e d07f 033e 26e1 933e
00000330: e3cc 1abd 5d57 79bd 80f6 c93d 1dbe a83e
00000340: e36b 863e 381a cb3e 474e 823f 334d 573e
00000350: 3633 c63e 948b 9b3e d0be 803e 3aa9 053f
00000360: 29c1 133f f369 c03e dab3 8b3d 87d0 693d
00000370: 2383 ecbc e34b bd3c 7f6f bb3d b2ec 933f
00000380: f2f7 323d d95e 4a3f c011 9b3e 4c62 b23d
00000390: 02df bdbc a549 7b3e e179 eb3a ec6b 433e
000003a0: 3379 e13e 8ab9 5f3f 566a 203d 9eb2 5cbc
000003b0: 9951 7a3f 3d22 1b3e 9cf4 5a3e 1e06 cb3e
000003c0: 0b41 ff3b 8967 8a3e 69e8 a3bc 53ef 523c
000003d0: c6a4 883e 2eff bc3e fe81 ac3c aa7f a53e
000003e0: f1c7 3dbd 9a69 383e 2533 843f 2060 113f
000003f0: 44c4 833f d965 9b3e 26a9 03bc ac1f 9a3e

q1.4.weight f4 [1, 256]
1.2821788 1.2922323 1.2982339 1.2487271 1.2325747 1.2830315 -2.0728064 1.2446194
1.252441 -3.3241093 -1.5218459 -1.7850075 1.3649429 1.2480397 1.2735227 1.4856032
1.2901825 -3.3762934 1.2228867 1.255287 1.3205109 -1.8231224 1.2514639 1.2953228
-5.561128 1.3336017 1.244518 1.2417289 1.2855332 1.2340089 -3.3880818 -1.0939943
-1.7377688 1.2227737 -3.4919944 -3.3963354 1.2761853 -3.51435 -1.6244612 1.2288623
-1.3172415 -0.8669646 -1.6969334 -1.0825816 -3.2008674 -0.75929695 1.4415424 1.3428158
1.2301482 1.2672436 -0.81308645 1.2694684 1.2892454 -1.129407 -5.5084352 -1.9400636
1.521477 -1.5088899 1.2912672 -6.340886 1.2355523 -0.8496798 1.2910204 1.247414
1.3097792 1.238526 1.3324542 -4.9155655 -1.6131686 1.3896048 1.2821217 -1.5841569
-1.6627567 -1.6492687 -1.8795706 1.2436333 -0.91895074 1.255171 -1.843039 -2.0971694
-2.019681 1.2493778 1.2744361 -2.5545056 1.2660307 -1.3448445 1.3164985 -1.6216108
-0.9162341 -1.6886139 -0.8804006 -1.2774494 1.2596809 -1.1072222 1.2564908 1.3187847
1.2859893 1.2701641 -1.4771985 1.2749829 -6.289655 1.4545038 -3.447951 1.3285074
-1.3907993 -1.2838249 1.3039856 -3.4563313 1.2836084 1.2514155 1.2797291 1.3058555
1.2805197 -5.940463 -3.036214 1.2527465 -1.3210365 1.2595739 -2.8688176 -1.6858343
-3.5400672 1.2982569 -3.3954618 -5.413925 1.2546183 1.3032848 -1.5665919 1.245847
-1.9498212 1.3131199 -1.1912396 1.3363194 -0.7960907 1.274049 -1.3002167 -2.9489477
-1.6122724 1.2725011 -2.4994292 -5.9005275 1.236903 -3.2751462 1.2904996 -3.1817436
1.27496 -1.5266824 -1.175144 1.2520702 1.2466444 -3.4542968 -0.80580497 1.2519763
1.2769474 -2.4963357 -3.2912347 -2.0657487 -5.839825 1.2477582 -2.5587115 -1.7583978
1.2147051 -3.352618 -3.584272 1.2708756 1.285681 -1.2018203 1.2505046 1.3333155
1.3137282 1.2193505 1.2879205 1.3404081 2.2378912 -3.2710443 1.3033783 -1.4037092
-3.6140342 1.2493776 1.250855 -2.0373743 1.2652849 1.2584394 1.258629 -1.5688266
-2.2278974 1.313466 -1.6483341 1.2973108 1.2770673 1.2664398 -1.2971811 -1.6903747
1.2977118 -1.7340658 -1.9188273 1.3230013 1.254276 1.3000628 1.2855079 1.2701339
-3.4566278 1.2698189 -1.3830097 1.2772456 -5.669557 -3.3814158 -1.9333302 1.292121
1.2516694 1.3007262 -1.5358219 1.2679232 1.2371742 1.2559427 1.276899 1.3153042
1.4706193 1.3241583 -1.5774819 -5.3235855 -3.547071 -2.2509553 -2.554624 -2.0254028
-5.8570013 -1.3521165 1.2818689 -1.3789158 -1.9082927 1.2840681 -5.5151477 -0.81537086
1.3523982 -1.3819538 -6.0947943 -3.5556943 -1.6226841 -1.3872643 1.2841322 1.2888762
-5.543759 1.2247528 -3.091228 -2.709912 -0.84205455 1.2322499 -3.408278 1.241816
-3.6394966 1.2701027 -1.6367135 1.4495267 -2.1646802 1.2573745 -6.129634 1.2580261
00000000: 6f1e a43f de67 a53f 872c a63f 4ad6 9f3f
00000010: 02c5 9d3f 603a a43f dca8 04c0 b04f 9f3f
00000020: fd4f a03f 35be 54c0 d9cb c2bf 207b e4bf
00000030: 73b6 ae3f c4bf 9f3f cb02 a33f 3f28 be3f
00000040: b324 a53f 3115 58c0 8d87 9c3f 3fad a03f
00000050: 8006 a93f 135c e9bf f82f a03f 23cd a53f
00000060: c3f4 b1c0 76b3 aa3f 5e4c 9f3f f9f0 9e3f
00000070: 5a8c a43f 01f4 9d3f 55d6 58c0 0108 8cbf
00000080: 356f debf d983 9c3f d67c 5fc0 8f5d 59c0
00000090: 0a5a a33f 1ceb 60c0 58ee cfbf 5c4b 9d3f
000000a0: 5f9b a8bf 64f1 5dbf 1d35 d9bf 0992 8abf
000000b0: 03db 4cc0 4961 42bf 7684 b83f 63e1 ab3f
000000c0: 7f75 9d3f 0a35 a23f 6f26 50bf f17d a23f
000000d0: fe05 a53f 6990 90bf 1a45 b0c0 0154 f8bf
000000e0: c2bf c23f 4e23 c1bf 3e48 a53f 8ae8 cac0
000000f0: 9426 9e3f 9e84 59bf 2840 a53f 43ab 9f3f
00000100: d8a6 a73f 0588 9e3f dc8d aa3f 504c 9dc0
00000110: 4f7c cebf 92de b13f 901c a43f a7c5 cabf
00000120: 36d5 d4bf 3d1b d3bf c595 f0bf 602f 9f3f
00000130: 5b40 6bbf 71a9 a03f b4e8 ebbf 0638 06c0
00000140: 7442 01c0 9deb 9f3f b920 a33f 057d 23c0
00000150: 4b0d a23f dd23 acbf 0683 a83f f190 cfbf
00000160: 518e 6abf 8024 d8bf ef61 61bf 7683 a3bf
00000170: 393d a13f 75b9 8dbf b1d4 a03f f0cd a83f
00000180: 4c9b a43f bd94 a23f d714 bdbf a432 a33f
00000190: db44 c9c0 2e2d ba3f 3bab 5cc0 880c aa3f
000001a0: b605 b2bf 6054 a4bf 00e9 a63f 8834 5dc0
000001b0: 484d a43f 622e a03f 2ace a33f 4626 a73f
000001c0: 12e8 a33f 4618 bec0 5551 42c0 ff59 a03f
000001d0: b917 a9bf b839 a13f b59a 37c0 6bc9 d7bf
000001e0: 7690 62c0 482d a63f 3f4f 59c0 e03e adc0
000001f0: 5597 a03f 09d2 a63f 1586 c8bf ea77 9f3f
00000200: be93 f9bf 5014 a83f 8a7a 98bf 840c ab3f
00000210: 9acc 4bbf 0a14 a33f 806d a6bf 8fbb 3cc0
00000220: f15e cebf 51e1 a23f a6f6 1fc0 1fd1 bcc0
00000230: d652 9e3f ff9b 51c0 172f a53f b0a1 4bc0
00000240: e431 a33f 546a c3bf 1e6b 96bf d643 a03f
00000250: 0b92 9f3f 3313 5dc0 3c49 4ebf c240 a03f
00000260: 0373 a33f f7c3 1fc0 97a3 52c0 3a35 04c0
00000270: d9df bac0 8ab6 9f3f eec1 23c0 2e13 e1bf
00000280: 757b 9b3f 4b91 56c0 b664 65c0 0dac a23f
00000290: 3291 a43f 3fd5 99bf 8910 a03f 15aa aa3f
000002a0: 3f28 a83f ad13 9c3f 94da a43f 7e92 ab3f
000002b0: 9c39 0f40 ca58 51c0 1ad5 a63f beac b3bf
000002c0: 564c 67c0 9beb 9f3f 041c a03f 5764 02c0
000002d0: dbf4 a13f 8b14 a13f c11a a13f 4fcf c8bf
000002e0: df95 0ec0 a71f a83f 9dfc d2bf 480e a63f
000002f0: f176 a33f b31a a23f 080a a6bf 335e d8bf
00000300: 6c1b a63f def5 ddbf 229c f5bf 1b58 a93f
00000310: 1e8c a03f 7568 a63f 868b a43f bf93 a23f
00000320: 6439 5dc0 6d89 a23f 7606 b1bf c97c a33f
00000330: 036d b5c0 1e69 58c0 5d77 f7bf 3964 a53f
00000340: b436 a03f 327e a63f d095 c4bf 4f4b a23f
00000350: b95b 9e3f bbc2 a03f 6d71 a33f e35b a83f
00000360: 413d bc3f 057e a93f edea c9bf d05a aac0
00000370: 3603 63c0 a70f 10c0 f67e 23c0 33a0 01c0
00000380: 8e6c bbc0 2712 adbf 4814 a43f 5080 b0bf
00000390: ef42 f4bf 585c a43f 177c b0c0 25bc 50bf
000003a0: 621b ad3f dde3 b0bf 8e08 c3c0 7f90 63c0
000003b0: 1db4 cfbf e091 b1bf 725e a43f e5f9 a43f
000003c0: 7966 b1c0 b3c4 9c3f aed6 45c0 336f 2dc0
000003d0: e390 57bf 5dba 9d3f 3a21 5ac0 d4f3 9e3f
000003e0: 83ed 68c0 ba92 a23f d47f d1bf 178a b93f
000003f0: 1f8a 0ac0 a6f1 a03f f625 c4c0 0007 a13f

q2.0.weight f4 [256, 9]
-0.25341368 -0.27917975 -0.23623545 -0.15156198 0.08438802 0.25054398 -0.0360711 -0.10738451
-0.29159307 0.21046132 -0.203685 -0.05023547 0.124513716 -0.19898963 -0.025963515 0.14728294
0.172036 -0.22658092 -0.05422661 -0.13196874 0.42724887 0.048992515 -0.25892353 0.32642654
-0.1422023 -0.01472319 0.1671063 -0.17791386 0.12840202 -0.14416195 0.03228247 0.23558578
0.03319785 0.1172611 0.06613405 -0.27683917 0.31021467 -0.23305093 -0.09130339 0.2640989
0.1703035 0.3170195 -0.028421476 0.015769524 0.0630381 -0.23219438 0.29562625 -0.1366325
-0.21222341 -0.17653844 -0.23041928 -0.18400733 0.08017304 0.15053077 -0.071608156 -0.31331995
-0.29626274 -0.11187148 0.019426495 0.18170401 -0.28933823 0.09428661 -0.3827683 -0.07110279
-0.030025259 -0.0710881 0.028765917 -0.2927431 -0.23418689 -0.23538598 0.0021801668 -0.10877415
0.1781934 0.087990075 -0.28930068 0.026476264 -0.0797964 -0.108056515 0.11988544 0.16564862
-0.010595854 0.06571417 -0.12944905 -0.09301356 -0.016833425 0.19938853 -0.12900087 -0.51781374
0.013696025 -0.26466724 -0.013357908 -0.20101374 0.114301376 0.3086498 -0.24575329 0.2729222
-0.11944694 0.13507661 -0.09247033 0.09553802 0.16823907 0.08456892 -0.30620122 -0.012936026
0.22684094 0.22422297 0.116610184 0.16791856 0.21469311 -0.01767409 -0.2528472 0.31939843
0.29016593 0.07793155 0.12085612 0.20436205 -0.022088632 -0.34980202 0.3856799 -0.15460435
0.03647065 0.23679855 -0.12149596 0.08084633 -0.022974344 -0.13702856 0.2639626 0.30654916
-0.36284584 0.26596048 0.19574055 -0.087907955 0.27117515 0.65709686 0.05671804 0.18242387
0.41022995 0.47987837 0.16339794 -0.25018224 0.18110535 0.117259525 0.3957227 0.76947546
-0.09116891 0.075298905 -0.14458321 0.29152063 0.25305405 0.24964848 0.38988665 0.25217283
0.08959213 -0.044000506 -0.09121077 0.04824683 -0.15199904 -0.30178457 -0.06456062 0.2192466
-0.17461829 -0.05704686 0.4073176 -0.04825805 0.4540794 0.28043613 -0.1679455 -0.08717875
0.17727958 0.104734816 0.12770669 0.42490223 0.23881808 0.5318963 -0.21286516 -0.08139196
0.009668201 0.32433596 0.19176173 0.6752799 0.18616126 0.19795738 -0.30728555 0.09724176
0.29020223 0.236523 0.21637683 0.24587958 -0.13358998 -0.097058 0.033147477 -0.12196929
-0.15758817 -0.21698451 -0.26543945 -0.012003406 -0.198689 0.045199953 -0.15649192 -0.28324175
-0.23492217 0.21639225 -0.18814294 0.15033212 -0.07061562 0.25190237 -0.1203762 -0.75645036
-1.046191 0.013064766 0.06956467 0.12712452 -0.16988485 -0.4572154 -0.37331378 -0.5017075
-0.12832317 0.06602776 -0.10020527 0.1301128 0.2085084 0.28604618 0.21363965 0.2461206
-0.32235986 -0.01876853 -0.019486886 -0.14899957 -0.12005012 0.0007504225 0.2698193 -0.24771911
-0.1549808 -0.6548558 0.25002024 -0.017091686 -0.27832606 0.28915873 0.32714924 -0.16317451
0.08302477 0.049294073 0.023955524 0.4531008 0.26825628 0.38111666 0.06110242 -0.119307995
-0.23151183 0.6106222 0.75481087 0.6550236 0.3099027 -0.29094642 0.18869439 -0.3069534
00000000: 70bf 81be a6f0 8ebe b5e7 71be 1033 1bbe
00000010: a0d3 ac3d 4d47 803e 4abf 13bd 69ec dbbd
00000020: b04b 95be 2c83 573e cd92 50be b5c3 4dbd
00000030: 0c01 ff3d f0c3 4bbe 70b1 d4bc 57d1 163e
00000040: 352a 303e d404 68be b91c 5ebd d022 07be
00000050: 5dc0 da3e 60ac 483d a091 84be 6121 a73e
00000060: 7b9d 11be 8939 71bc ea1d 2b3e 0d2f 36be
00000070: d27b 033e 319f 13be a03a 043d 663d 713e
00000080: 78fa 073d 9626 f03d 4a71 873d ddbd 8dbe
00000090: 75d4 9e3e e7a4 6ebe 46fd babd f937 873e
000000a0: 0a64 2e3e 6150 a23e 28d4 e8bc 172f 813c
000000b0: 1f1a 813d 5dc4 6dbe 535c 973e 64e9 0bbe
000000c0: 1851 59be 7ec6 34be 08f3 6bbe 6b6c 3cbe
000000d0: c331 a43d bd24 1a3e 4ca7 92bd 796b a0be
000000e0: c0af 97be e01c e5bd 5024 9f3c 9e10 3a3e
000000f0: 2424 94be 5719 c13d 35fa c3be 579e 91bd
00000100: 88f7 f5bc a396 91bd 80a6 eb3c 6ce2 95be
00000110: b0ce 6fbe 0609 71be 21e1 0e3b fbc4 debd
00000120: 5578 363e 2434 b43d 381f 94be c0e4 d83c
00000130: 4c6c a3bd bc4c ddbd 7f86 f53d cb9f 293e
00000140: 3c9a 2dbc 2795 863d 4b8e 04be e57d bebd
00000150: 40e6 89bc 822c 4c3e ce18 04be 718f 04bf
00000160: 4b65 603c 7782 87be 21db 5abc 8cd6 4dbe
00000170: d716 ea3d 5907 9e3e c0a6 7bbe 75bc 8b3e
00000180: 99a0 f4bd 8651 0a3e 1661 bdbd 70a9 c33d
00000190: dd46 2c3e 7832 ad3d 68c6 9cbe a0f1 53bc
000001a0: fe48 683e b59a 653e 52d1 ee3d d8f2 2b3e
000001b0: 83d8 5b3e 41c9 90bc 3075 81be 3188 a33e
000001c0: a190 943e 949a 9f3d 6a83 f73d 4944 513e
000001d0: 38f3 b4bc 4019 b3be d677 c53e 9a50 1ebe
000001e0: 4062 153d 527b 723e e0d2 f8bd c392 a53d
000001f0: b134 bcbc 3751 0cbe 1b26 873e 03f4 9c3e
00000200: eec6 b9be f92b 883e 3670 483e 1609 b4bd
00000210: 78d7 8a3e 8037 283f 2d51 683d 53cd 3a3e
00000220: a909 d23e 9eb2 f53e ca51 273e e317 80be
00000230: ae73 393e c325 f03d 2a9c ca3e 58fc 443f
00000240: c4b6 babd 5036 9a3d 9f0d 14be 3142 953e
00000250: 4d90 813e daa3 7f3e 399f c73e cc1c 813e
00000260: 147c b73d e039 34bd b6cc babd 789e 453d
00000270: a3a5 1bbe 8283 9abe 5c38 84bd 2e82 603e
00000280: 23cf 32be f8a9 69bd ef8b d03e 3caa 45bd
00000290: 187d e83e 5395 8f3e e8f9 2bbe c68a b2bd
000002a0: c788 353e 357f d63d 8bc5 023e c98c d93e
000002b0: ba8c 743e 5b2a 083f 53f9 59be d4b0 a6bd
000002c0: 6067 1e3c 5d0f a63e 305d 443e 25df 2c3f
000002d0: 0fa1 3e3e 57b5 4a3e 8854 9dbe b026 c73d
000002e0: 6395 943e 1633 723e e391 5d3e dbc7 7b3e
000002f0: d0cb 08be 58c6 c6bd a6c5 073d 09cb f9bd
00000300: cb5e 21be 3031 5ebe aee7 87be efa9 44bc
00000310: 2175 4bbe 9623 393d 6b3f 20be 1005 91be
00000320: 708f 70be ee95 5d3e 8ba8 40be aaf0 193e
00000330: ec9e 90bd 59f9 803e cc87 f6bd bba6 41bf
00000340: 96e9 85bf 9a0d 563c ec77 8e3d ee2c 023e
00000350: 4bf6 2dbe 2318 eabe fc22 bfbe e76f 00bf
00000360: 2667 03be 9039 873d 6c38 cdbd 4a3c 053e
00000370: 3a83 553e a574 923e 5ac4 5a3e 0a07 7c3e
00000380: 5a0c a5be 76c0 99bc f6a2 9fbc 5893 18be
00000390: d6dc f5bd 00b8 443a c125 8a3e 14aa 7dbe
000003a0: 49b3 1ebe a1a4 27bf a702 803e dd03 8cbc
000003b0: c180 8ebe 9d0c 943e 1b80 a73e 3817 27be
000003c0: e408 aa3d 95e8 493d 603e c43c d4fc e73e
000003d0: e358 893e b921 c33e 8846 7a3d c057 f4bd
000003e0: 7011 6dbe bd51 1c3f 493b 413f a0af 273f
000003f0: 91ab 9e3e eef6 94be 1a39 413e ff28 9dbe

q2.0.bias f4 [256]
0.46592158 0.89690554 -0.033007763 1.4417963 1.0539902 1.1459596 0.64523816 1.5918226
0.8535514 1.3090321 0.47330362 1.4673712 1.1909496 0.3657808 0.6095711 -0.50230396
1.3851478 -0.12062502 -0.48165813 -0.2702115 0.4708296 1.3249851 -0.08183715 0.36242527
-0.17240414 1.5405976 1.2243754 -0.64056253 -0.27773264 0.98091125 0.2235156 -1.3054883
0.18746522 -0.066753395 1.6104889 1.5215333 0.92435414 1.4405715 0.9154426 0.6702471
0.7971746 -0.14882348 -0.39521018 -0.30714282 0.38037264 0.34530067 0.013354382 0.6507931
0.47296515 1.7015042 1.2122886 1.4817502 1.251311 1.6668127 -0.19854091 -0.16216975
1.3337083 1.6719497 -0.72213966 0.7226437 -0.07065024 -0.51547027 1.4581208 0.7748832
-0.11964684 -0.31385168 -0.6310788 1.3867543 -0.08464471 0.001994266 -0.46749714 1.2517184
-0.41332993 -0.24406755 0.8153345 -0.2863795 -0.13539016 0.69015115 -0.58334905 -0.5290236
1.2192085 0.61935717 0.17932485 1.447632 -0.75129336 0.14315522 1.0481851 -0.2733482
1.5425315 0.85004795 -0.25891957 -0.29118982 0.39123765 1.448457 -0.053815372 0.5697327
1.5693707 1.4379151 -0.76542324 -0.5029444 -0.30164298 -0.09025733 0.27695867 -0.71174616
0.69749635 1.4495242 0.2374573 -0.075132236 -0.54321706 -0.67828745 -0.08854544 0.9290639
0.14382328 1.2021903 1.5119807 1.5238553 1.2018168 0.37024608 -0.6564079 -0.64381677
-0.16514938 0.78694993 -0.109434575 -0.13355999 -0.51120967 0.214531 1.1092594 1.1280425
1.0869155 1.336316 1.227693 0.06695067 0.49261364 1.2373221 -0.2625277 -0.46122438
1.5894561 0.31190357 -0.55012846 1.3682505 -0.38992077 1.3164876 -0.91356015 1.2584682
1.1018057 0.4510133 -0.27095705 -0.31638366 0.20284599 -0.23696804 0.9180251 1.5750592
1.2086558 0.700305 0.3785903 -0.33205062 0.6682221 -0.8187606 -1.4418457 1.4889511
-0.15997842 -0.56699765 1.4360952 -0.2780969 1.4592526 -0.28386265 0.87206876 -0.045645222
0.43422496 1.0245342 1.3890631 0.17884874 -0.08395669 0.79204243 0.33568373 1.3632104
1.4274188 1.5266317 -0.054828137 1.3320748 1.5801146 0.3724254 1.5836601 0.24961615
1.1204035 1.4330115 1.5545632 -0.28146178 1.3228933 -0.7223306 1.6573979 -1.3566029
1.5563331 0.6312391 -0.69231576 0.84862554 -0.78880286 -0.3389702 0.3940232 1.5717621
1.096883 -0.17870542 -0.1822879 -0.28170857 1.3253971 0.8438609 -1.1262918 -0.10121929
1.5386269 -0.09226838 0.5509341 1.2475799 -0.06700659 1.3632605 1.1306733 -0.10656364
1.4249976 -0.48202568 -0.01588878 0.76328087 1.1313955 1.6067492 -0.71308625 -0.8233705
0.80734545 1.6740735 1.333556 1.2726382 1.5160518 0.07853492 1.2118945 0.7328552
0.28381014 0.94577974 -0.5134947 -0.5818098 1.3929904 -0.2885091 0.13227974 1.5862972
0.122994 1.4209898 -0.26015624 0.77313143 0.9315757 1.2544521 -0.021671562 -0.7396543
1.1862223 0.97551996 -0.1811402 -0.08204469 1.0652707 -0.28350788 -0.25661352 -0.62844896
00000000: 468d ee3e 9a9b 653f 2633 07bd c88c b83f
00000010: 27e9 863f ceae 923f 542e 253f d8c0 cb3f
00000020: 5882 5a3f 5d8e a73f da54 f23e d2d2 bb3f
00000030: 0971 983f 9f47 bb3e da0c 1c3f fe96 00bf
00000040: 864c b13f 400a f7bd e59b f6be 2959 8abe
00000050: 9410 f13e 1d99 a93f 3c9a a7bd ce8f b93e
00000060: b68a 30be 4d32 c53f 55b8 9c3f e8fb 23bf
00000070: f932 8ebe 001d 7b3f 46e1 643e 3e1a a7bf
00000080: e2f6 3f3e 01b6 88bd 8024 ce3f 9ac1 c23f
00000090: 79a2 6c3f a664 b83f 725a 6a3f 5095 2b3f
000000a0: a213 4c3f 2f65 18be fd58 cabe d341 9dbe
000000b0: 34c0 c23e 40cb b03e 56cc 5a3c 609a 263f
000000c0: 7d28 f23e e4ca d93f 462c 9b3f fea9 bd3f
000000d0: f52a a03f 1e5a d53f 4f4e 4bbe d40f 26be
000000e0: f4b6 aa3f 7302 d63f 25de 38bf 2dff 383f
000000f0: 13b1 90bd dcf5 03bf b4a3 ba3f bf5e 463f
00000100: 6709 f5bd 2bb1 a0be 618e 21bf 2a81 b13f
00000110: 355a adbd 3bb2 023b c95b efbe 4f38 a03f
00000120: fb9f d3be d8ec 79be c3b9 503f 55a0 92be
00000130: b8a3 0abe bfad 303f 5d56 15bf 176e 07bf
00000140: 060f 9c3f 318e 1e3f efa0 373e 014c b93f
00000150: c354 40bf 4897 123e ee2a 863f 4cf4 8bbe
00000160: ac71 c53f be9c 593f 1b91 84be d516 95be
00000170: 4d50 c83e 0a67 b93f 826d 5cbd 01da 113f
00000180: 24e1 c83f 9a0d b83f c7f2 43bf f7c0 00bf
00000190: f370 9abe d6d8 b8bd 87cd 8d3e ff34 36bf
000001a0: 1f8f 323f 028a b93f 0228 733e eede 99bd
000001b0: 4610 0bbf 3fa4 2dbf 5057 b5bd 22d7 6d3f
000001c0: 6946 133e 5fe1 993f 9588 c13f b10d c33f
000001d0: 22d5 993f e590 bd3e 590a 28bf 2dd1 24bf
000001e0: eb1c 29be 8d75 493f 3c1f e0bd f3c3 08be
000001f0: a3de 02bf 04ae 5b3e 36fc 8d3f b263 903f
00000200: 0c20 8b3f 670c ab3f 0b25 9d3f 6f1d 893d
00000210: db37 fc3e 9260 9e3f 086a 86be 9a25 ecbe
00000220: 4c73 cb3f d3b1 9f3e 38d5 0cbf d522 af3f
00000230: b2a3 c7be aa82 a83f 14df 69bf 7c15 a13f
00000240: f807 8d3f 37eb e63e e2ba 8abe 0afd a1be
00000250: dcb6 4f3e c0a7 72be b103 6b3f 8a9b c93f
00000260: 3cb5 9a3f 3047 333f 96d6 c13e 8a02 aabe
00000270: 9b10 2b3f 4b9a 51bf 668e b8bf f395 be3f
00000280: 62d1 23be c226 11bf f8d1 b73f b862 8ebe
00000290: cac8 ba3f 7256 91be e63f 5f3f 7cf6 3abd
000002a0: bc52 de3e f023 833f d2cc b13f 2024 373e
000002b0: 7cf1 abbd 4bc3 4a3f bdde ab3e ae7d ae3f
000002c0: a9b5 b63f ab68 c33f 7893 60bd 6d81 aa3f
000002d0: 3241 ca3f 8bae be3e 60b5 ca3f 609b 7f3e
000002e0: 6269 8f3f ec6c b73f edfb c63f c21b 90be
000002f0: 9154 a93f a8ea 38bf 9d25 d43f 2aa5 adbf
00000300: ec35 c73f e398 213f 9b3b 31bf 863f 593f
00000310: fcee 49bf 818d adbe 69bd c93e 802f c93f
00000320: aa66 8c3f 8efe 36be aea9 3abe 1b3c 90be
00000330: 9da6 a93f 4507 583f 542a 90bf 0f4c cfbd
00000340: baf1 c43f 34f7 bcbd 040a 0d3f b3b0 9f3f
00000350: c03a 89bd 527f ae3f e7b9 903f 0a3e dabd
00000360: 5266 b63f 12cc f6be 3029 82bc 6066 433f
00000370: 91d1 903f f5a9 cd3f d28c 36bf 69c8 52bf
00000380: 31ae 4e3f 0a48 d63f f7b1 aa3f cfe5 a23f
00000390: fc0d c23f ebd6 a03d 5c1f 9b3f 669c 3b3f
000003a0: 904f 913e 9f1e 723f 6374 03bf 7df1 14bf
000003b0: 824d b23f 77b7 93be 5774 073e c90b cb3f
000003c0: 47e4 fb3d fee2 b53f 3333 85be f1eb 453f
000003d0: bf7b 6e3f e391 a03f 8f88 b1bc fc59 3dbf
000003e0: 22d6 973f adbb 793f d17c 39be 0c07 a8bd
000003f0: ca5a 883f f227 91be d962 83be 08e2 20bf

q2.2.weight f4 [256, 256]
-0.6244893 1.1240566 -0.1304228 1.2833232 2.4225285 1.0007893 0.6861207 0.43865812
1.0766417 1.5848566 -0.12387176 0.14545478 1.4846658 1.5234125 0.16769327 -0.12581734
0.4696535 0.027035505 -0.19532825 -0.14635368 0.38713947 1.1806161 0.012145467 0.7426013
0.026824623 2.26968 1.2413075 -0.16761793 -0.6194871 1.104992 0.7163686 -1.4778599
0.4955635 -0.09671902 0.5080717 1.2947713 1.4753815 1.225609 1.1870685 -0.80302966
-0.10208346 0.7064867 -0.13051097 -0.019965611 0.48834178 0.51476526 -0.16875859 0.5221892
0.3188104 1.6000372 0.1896341 1.0959711 0.15458193 0.218286 -0.6837386 0.19055083
1.2767566 0.25250936 -0.2567674 -0.032654587 -0.0054699937 -0.14175887 1.8362504 1.9445285
0.20722187 -0.024263732 -0.240219 0.94181365 -0.025459928 -0.28366926 -0.19353794 1.0121893
-0.0813182 -0.043580905 0.049083248 -0.08256218 0.01440306 0.88797265 -0.17341535 -0.9729842
1.2977401 0.8322144 -0.5108692 1.4747188 -0.25130445 0.33002013 1.1208522 -0.018412888
0.5577366 0.65088636 -0.052796196 0.030350925 1.6314783 2.2328255 0.02903835 -0.94899094
0.1330657 1.4553586 -0.1719501 -0.1279317 0.007222064 0.02898328 0.041808307 -1.0384614
-0.009349385 0.2621654 0.76608825 -0.020955676 -0.13505559 -0.119053245 -0.032121055 1.2637783
0.5051279 0.16191478 0.7264506 0.23766777 0.29601064 0.059644856 -0.28911582 -0.19266164
-0.016341776 0.40397134 0.016916074 -0.011529483 -0.21829282 0.0822102 1.5883623 0.9139377
1.2656528 1.2585495 1.337384 0.5571559 -0.9537084 0.20827094 0.019516468 -0.068185896
0.7921534 -1.3491286 -0.10822361 1.3723121 -0.11620832 0.17174815 -1.4202869 0.3135332
0.13044013 0.55782235 0.0124455765 0.002081208 0.46397218 -0.03479165 1.8913333 0.24577175
1.4411763 1.1679766 0.17413554 0.0450439 0.94838876 -0.36410263 -1.7159625 0.63399506
-0.34268853 -0.16994357 1.9523695 0.9480249 0.25291148 -0.026227757 1.0659776 -0.087446496
0.42078078 0.9111713 0.23370467 0.51043737 0.23065792 0.09706821 0.42904952 1.9539603
2.4602356 0.4203322 -0.055410028 1.2193861 0.31397858 0.6886902 0.19386195 -0.46238568
1.044686 0.9407834 0.38857052 0.006974697 1.4965148 -0.13157932 0.5798171 -1.2832115
1.4565021 -0.65153605 -0.26692444 0.42781442 -0.28976145 -0.12088192 -0.47652063 0.6231636
1.0857391 0.15879488 -0.053352028 -0.1685214 0.84915394 0.9886417 -1.5640278 -0.011233076
2.5902026 -0.029638031 -0.728535 0.183991 0.15050195 0.70473045 0.73094887 0.2084632
0.3623709 -0.05121976 -0.0067127123 0.4791359 0.9339162 0.13739103 -0.30840963 -0.118802674
1.1415886 0.6056161 1.456588 0.28316918 0.6860988 0.31439897 1.7093334 -1.0297332
-0.07907441 -0.46095905 -0.29712385 -0.23399343 1.8094034 -0.036085013 0.5903828 1.5814066
0.08963355 0.5159694 -0.28764287 0.12946239 0.8322331 1.0542116 0.2075089 -0.27512118
0.27703512 1.1929156 -2.3120813 -0.04952193 0.89226633 -0.05514238 -0.14093754 -0.19750854
00000000: 88de 1fbf 16e1 8f3f 8e8d 05be ef43 a43f
00000010: b50a 1b40 dd19 803f 9ba5 2f3f cc97 e03e
00000020: 65cf 893f 95dc ca3f 7ab0 fdbd 19f2 143e
00000030: 8709 be3f 2eff c23f c9b7 2b3e 43d6 00be
00000040: 6c76 f03e 9079 dd3c 2104 48be bddd 15be
00000050: 2537 c63e 6e1e 973f c8fd 463c 1e1b 3e3f
00000060: 50bf db3c 7042 1140 2ae3 9e3f 09a4 2bbe
00000070: b596 1ebf 6170 8d3f ef63 373f 832a bdbf
00000080: 80ba fd3e 9f14 c6bd fd10 023f 11bb a53f
00000090: 4dd9 bc3f c1e0 9c3f dcf1 973f 5a93 4dbf
000000a0: 2211 d1bd 50dc 343f aba4 05be ec8e a3bc
000000b0: ef07 fa3e a8c7 033f 0dcf 2cbe 31ae 053f
000000c0: 1e3b a33e 05ce cc3f 712f 423e c848 8c3f
000000d0: ba4a 1e3e 5d86 5f3e 7e09 2fbf c21f 433e
000000e0: c36c a33f e848 813e 0477 83be d1c0 05bd
000000f0: a23d b3bb 3d29 11be 410a eb3f 4fe6 f83f
00000100: f831 543e bcc4 c6bc f8fb 75be b31a 713f
00000110: 5791 d0bc 193d 91be cf2e 46be 6b8f 813f
00000120: 288a a6bd e481 32bd 840b 493d 5c16 a9bd
00000130: d0fa 6b3c 2d52 633f cb93 31be 7e15 79bf
00000140: 591c a63f 010c 553f 53c8 02bf 96c3 bc3f
00000150: faaa 80be 66f8 a83e 1678 8f3f a0d6 96bc
00000160: d3c7 0e3f 7da0 263f d340 58bd 81a2 f83c
00000170: 48d4 d03f 9de6 0e40 d5e1 ed3c 12f1 72bf
00000180: 6042 083e 3149 ba3f b013 30be 8700 03be
00000190: 10a7 ec3b 586e ed3c 303f 2b3d 4eec 84bf
000001a0: 2a2e 19bc 8b3a 863e 5c1e 443f 3dab abbc
000001b0: 034c 0abe 30d2 f3bd 5e91 03bd 7dc3 a13f
000001c0: 1050 013f fdcc 253e abf8 393f 2e5f 733e
000001d0: b58e 973e 2a4e 743d fd06 94be 1849 45be
000001e0: 30df 85bc 55d5 ce3e 9493 8a3c 28e6 3cbc
000001f0: 2788 5fbe d25d a83d 754f cb3f d2f7 693f
00000200: e900 a23f 2618 a13f 662f ab3f c5a1 0e3f
00000210: 3c26 74bf fa44 553e 00e1 9f3c 0ca5 8bbd
00000220: 91ca 4a3f 3fb0 acbf 57a4 ddbd eca7 af3f
00000230: a1fe edbd bfde 2f3e f6cb b5bf 6c87 a03e
00000240: 1992 053e 72cd 0e3f 88e8 4b3c e064 083b
00000250: c38d ed3e b081 0ebd 3617 f23f 97ab 7b3e
00000260: 7778 b83f 4280 953f 9650 323e f47f 383d
00000270: 9bc9 723f a96b babe a9a4 dbbf 804d 223f
00000280: df74 afbe b005 2ebe 3ee7 f93f c3b1 723f
00000290: 9d7d 813e 98db d6bc f471 883f 2617 b3bd
000002a0: 9470 d73e 8642 693f 4750 6f3e 06ac 023f
000002b0: 9731 6c3e b3cb c63d 61ac db3e 5f1b fa3f
000002c0: 8074 1d40 c835 d73e a0f5 62bd d814 9c3f
000002d0: cdc1 a03e 004e 303f bf83 463e d1bd ecbe
000002e0: 45b8 853f 2ed7 703f b7f2 c63e 008c e43b
000002f0: cc8d bf3f bbbc 06be e56e 143f 4640 a4bf
00000300: a96e ba3f 11cb 26bf 52aa 88be 7e0a db3e
00000310: 9d5b 94be f190 f7bd 83fa f3be a687 1f3f
00000320: 80f9 8a3f 209b 223e a887 5abd e090 2cbe
00000330: 2762 593f 9f17 7d3f 1032 c8bf f00a 38bc
00000340: e1c5 2540 75cb f2bc 4581 3abf 2368 3c3e
00000350: 2f1d 1a3e 3769 343f 771f 3b3f 6177 553e
00000360: ae88 b93e d0cb 51bd 50f6 dbbb 4d51 f53e
00000370: 2215 6f3f 3cb0 0c3e dee7 9dbe d14e f3bd
00000380: 931f 923f a809 1b3f 7a71 ba3f 8dfb 903e
00000390: 2ca4 2f3f e7f8 a03e 70cb da3f 4cce 83bf
000003a0: c4f1 a1bd d302 ecbe 9e20 98be f99b 6fbe
000003b0: 889a e73f e1cd 13bd 5423 173f 886b ca3f
000003c0: cb91 b73d 9216 043f ed45 93be ca91 043e
000003d0: 3a0d 553f 68f0 863f 377d 543e afdc 8cbe
000003e0: 8cd7 8d3e 75b1 983f 24f9 13c0 82d7 4abd
000003f0: 916b 643f fadc 61bd ee51 10be ae3f 4abe
