astar/working_model/sac_actor_150.pth (torch, 276164 bytes, 6 tensors)

net.0.weight f4 [256, 6]
-0.04566177 0.30096385 -0.3271856 -0.009481609 -0.32247224 -0.1662574 0.29509997 -0.2925904
0.19222894 0.2943644 0.07511997 -0.09493801 0.08906205 -0.13931274 -0.22078487 -0.056981206
-0.09920922 -0.13974786 0.033322938 0.40640002 0.047702502 0.13435578 -0.18119529 -0.18860818
0.18542528 -0.44749874 -0.4122727 0.06201011 0.07969788 0.38752705 0.39561597 0.14564668
0.046163313 -0.31677562 -0.07173708 -0.15356305 0.121238366 -0.23459335 -0.015003775 -0.056827724
-0.36280552 0.35717213 0.0780151 -0.414653 0.21707322 0.21308118 0.032279074 -0.12236959
0.058400873 -0.02966824 0.07224522 -0.4047877 0.10410875 -0.1046989 -0.3788777 0.028697459
-0.35211122 -0.36134335 -0.29285896 -0.054085612 -0.23314445 -0.3082581 -0.23865147 0.033330858
0.29816586 -0.2946719 -0.17479998 -0.036500555 -0.08682784 -0.19166808 -0.17642076 -0.35698658
0.34464526 0.30451223 -0.008848623 0.31427675 0.19515413 -0.07682747 0.3748279 -0.031301826
0.033345208 -0.1731424 -0.27457464 0.29481775 -0.36495358 -0.24949598 -0.26287854 -0.24166422
0.17991894 0.39512533 -0.12906457 -0.37893125 0.08058698 0.28147745 -0.22046891 0.32288402
-0.24862419 -0.11517509 -0.4336519 0.0404917 0.34262186 -0.016200066 0.43431902 -0.12881987
-0.1189963 -0.22149612 0.39910936 0.3127932 -0.40527615 0.049359556 -0.12603039 -0.13327932
0.3323213 -0.017826766 -0.3372141 -0.28654635 -0.33636442 0.28076273 -0.19383547 -0.102414995
-0.13513608 0.3876122 0.29073593 -0.20452765 -0.14337885 -0.21655963 -0.4003496 -0.28115678
-0.21361184 0.08975634 -0.4029912 -0.31431124 0.21582423 0.4103168 0.36422688 -0.29950804
-0.19183107 -0.27868015 -0.39201543 -0.27508715 0.15872298 0.26084292 0.17318308 -0.041964233
0.12474595 -0.009187975 -0.39236218 -0.2116505 0.26371258 0.39829087 -0.35919046 0.18051524
0.26439646 -0.17634061 -0.38250214 0.0068323016 0.258045 -0.25154215 0.39728406 0.22044265
0.10742849 -0.19781141 -0.014879988 -0.34353432 -0.3913683 0.070762396 -0.34016997 0.40463364
0.0050928425 -0.36797547 -0.42633238 -0.19980296 0.21536708 0.273669 0.29923803 0.0061810673
0.18878208 0.3002879 -0.27875304 -0.11541805 -0.30258498 -0.2509331 -0.122406945 0.06653547
0.3577891 0.36723125 0.39495933 -0.29964122 -0.14088379 0.34299058 0.08448672 -0.16990596
-0.14244731 0.2489977 0.16903009 -0.037017316 -0.1626449 0.30028427 0.14338088 0.11728976
0.38380295 -0.13338065 0.19108498 0.16614377 0.118143536 -0.41784787 -0.19189727 0.17683643
0.22638232 0.25011307 -0.21613428 -0.45691177 -0.37843284 -0.1269444 -0.040163994 -0.14834002
0.09106261 -0.41293997 0.30980274 0.2812891 -0.28322923 -0.25568634 0.36127293 -0.42115974
-0.13839114 -0.27524012 -0.33972377 0.32285166 -0.014153351 0.17661606 -0.3376601 0.27673835
-0.2664417 0.32181853 0.17102115 0.2628331 -0.26410282 0.020237923 0.026925683 0.33167303
-0.14269596 -0.25690994 -0.14067462 0.2738335 -0.06799343 -0.16873756 -0.2027279 0.02611352
0.3848873 0.37499106 0.072169006 -0.3449584 -0.16435331 0.40258896 0.013235393 -0.048677444
00000000: d607 3bbd ef17 9a3e df84 a7be c058 1bbc
00000010: 151b a5be 613f 2abe 5817 973e 69ce 95be
00000020: aad7 443e eeb6 963e 80d8 993d dc6e c2bd
00000030: 2a66 b63d 00a8 0ebe 6e15 62be 2065 69bd
00000040: 342e cbbd 101a 0fbe a27d 083d aa13 d03e
00000050: b363 433d 9094 093e 428b 39be 8122 41be
00000060: 20e0 3d3e 8e1e e5be 6815 d3be 50fe 7d3d
00000070: a438 a33d f269 c63e 2d8e ca3e 6724 153e
00000080: be15 3d3d 6a30 a2be e4ea 92bd a23f 1dbe
00000090: d24b f83d 3d39 70be 65d2 75bc 30c4 68bd
000000a0: a5c1 b9be 44df b63e 61c6 9f3d 664d d4be
000000b0: 7148 5e3e f431 5a3e 1037 043d e89c fabd
000000c0: c135 6f3d cf0a f3bc 4df5 933d 5540 cfbe
000000d0: f836 d53d 606c d6bd 42fc c1be ef16 eb3c
000000e0: ec47 b4be ff01 b9be 9cf1 95be e088 5dbd
000000f0: 6bbd 6ebe 01d4 9dbe 0d61 74be f085 083d
00000100: 32a9 983e 3cdf 96be c4fe 32be 9b81 15bd
00000110: cbd2 b1bd a344 44be a5a7 34be f2c6 b6be
00000120: 5875 b03e 07e9 9b3e d1f9 10bc e2e8 a03e
00000130: 7cd6 473e b857 9dbd 71e9 bf3e 5836 00bd
00000140: fc94 083d 3e4c 31be 0c95 8cbe 5af2 963e
00000150: 32db babe e07b 7fbe 0498 86be d376 77be
00000160: ac3c 383e de4d ca3e 8129 04be 4703 c2be
00000170: c90a a53d d01d 903e 9ac2 61be 0e51 a53e
00000180: 5797 7ebe ebe0 ebbd 9f07 debe a0da 253d
00000190: 226c af3e 00b6 84bc 105f de3e 5be9 03be
000001a0: 55b4 f3bd e1cf 62be 1058 cc3e 6e26 a03e
000001b0: 5b80 cfbe 3f2d 4a3d 1c0e 01be 607a 08be
000001c0: 0426 aa3e 7009 92bc 54a7 acbe 34b6 92be
000001d0: f537 acbe 22c0 8f3e ce7c 46be f4be d1bd
000001e0: 1d61 0abe 1b75 c63e 57db 943e b26f 51be
000001f0: e8d1 12be cfc1 5dbe 9ffa ccbe c8f3 8fbe
00000200: 10bd 5abe 2cd2 b73d dd54 cebe 67ed a0be
00000210: 0701 5d3e 0b15 d23e f27b ba3e 1e59 99be
00000220: 5d6f 44be 2aaf 8ebe 3fb6 c8be 39d8 8cbe
00000230: 4788 223e 348d 853e e856 313e b0e2 2bbd
00000240: ce7a ff3d 2989 16bc b2e3 c8be e9ba 58be
00000250: 5605 873e c8ec cb3e d0e7 b7be fdd8 383e
00000260: f95e 873e a292 34be 52d7 c3be 80e1 df3b
00000270: 791e 843e 22ca 80be d168 cb3e b8bb 613e
00000280: 7803 dc3d 138f 4abe 31cb 73bc bbe3 afbe
00000290: 6d61 c8be e0eb 903d c22a aebe 242c cf3e
000002a0: dce1 a63b 4867 bcbe 3d48 dabe 2699 4cbe
000002b0: 3089 5c3e 581e 8c3e ba35 993e 8d8a ca3b
000002c0: 1750 413e 56bf 993e b8b8 8ebe 4c60 ecbd
000002d0: 6bec 9abe 4e7a 80be 7eb0 fabd c043 883d
000002e0: 2230 b73e bc05 bc3e 1c38 ca3e 936a 99be
000002f0: d743 10be 769c af3e 6007 ad3d d4fb 2dbe
00000300: b5dd 11be 41f9 7e3e 3916 2d3e 789f 17bd
00000310: 628c 26be dcbe 993e 70d2 123e 9d35 f03d
00000320: d281 c43e f094 08be c8ab 433e 9821 2a3e
00000330: 3df5 f13d 28f0 d5be b880 44be 9c14 353e
00000340: c4d0 673e d20e 803e 4e52 5dbe 57f0 e9be
00000350: f3c1 c1be b6fd 01be 0083 24bd 72e6 17be
00000360: 097f ba3d de6c d3be 779e 9e3e 2005 903e
00000370: 6c03 91be 52e9 82be c4f8 b83e 40a2 d7be
00000380: 68b6 0dbe 46ec 8cbe 46f0 adbe d04c a53e
00000390: 75e3 67bc d7da 343e c9e1 acbe a6b0 8d3e
000003a0: 0c6b 88be 66c5 a43e 2b20 2f3e 0f92 863e
000003b0: 7c38 87be 00ca a53c 4093 dc3c 0cd1 a93e
000003c0: e41e 12be b389 83be 020d 10be e833 8c3e
000003d0: 2440 8bbd 8ac9 2cbe e797 4fbe 05ec d53c
000003e0: f30f c53e d4fe bf3e 58cd 933d 639e b0be
000003f0: 3c4c 28be 2420 ce3e 43d9 583c 0062 47bd

net.0.bias f4 [256]
0.451019 -0.045018114 -0.47621673 -0.1185771 0.056402408 0.3936714 -0.15170974 -0.12329573
0.17389268 0.50773007 -0.09994071 0.0015062361 0.24293846 0.3030685 -0.49841273 -0.1482185
-0.34881237 0.43832895 -0.12315897 -0.043012466 -0.35465991 -0.24278292 -0.0067734085 0.05977152
-0.43597656 -0.48612633 -0.10440112 -0.03727638 -0.35892352 0.050927103 0.11562268 0.3069272
-0.36343452 -0.013074024 -0.05475574 0.019563608 -0.34125528 -0.03759299 0.4094912 -0.049818292
-0.12926601 -0.38068545 -0.2731503 -0.015825324 0.0144098215 -0.48000047 -0.47326928 -0.4714287
-0.054035697 0.05188725 0.055045407 -0.15748705 -0.25463802 0.18628392 0.102158435 -0.18621863
-0.23068683 0.3610548 0.34373727 0.32340693 -0.039144997 0.07398214 0.50650924 0.22381945
-0.2466761 -0.4027728 -0.03184599 0.38869426 0.1890389 0.32162365 -0.060508665 -0.13747257
-0.09918205 0.010977507 -0.41770586 0.3317178 0.084159136 0.25878143 -0.308853 -0.4401735
0.4488398 0.054439217 -0.4815243 -0.09193597 -0.2518508 -0.2750092 0.34154573 0.07470752
0.37892726 -0.3393793 0.32555172 -0.16160925 0.45091364 -0.27697584 0.1141783 -0.16083434
0.18423875 -0.00089781743 -0.17608012 0.27007055 0.38064975 -0.2363742 -0.04510862 0.21270762
0.20221181 0.12750462 0.35135922 0.31124455 -0.07713278 -0.02549023 0.3559962 -0.083049655
-0.09242547 -0.10969211 -0.31694368 0.37769195 0.15593706 0.19208387 0.2230162 0.4635521
0.06929028 0.16291824 -0.4746243 0.47939608 -0.12166281 -0.049864385 -0.37931865 -0.20245336
-0.5192994 -0.28546077 0.040181898 0.36022455 -0.34974968 -0.046043128 -0.3961581 -0.3019173
0.054390837 -0.43597305 0.51506144 0.032966193 0.26291892 -0.42865294 -0.43354663 0.25711665
-0.26960912 -0.039769165 -0.3185417 -0.48032856 0.47180712 0.26660877 -0.19825575 0.39565957
-0.23894526 0.4933469 0.14374352 0.45402163 -0.42491528 -0.43704614 0.44781932 0.36539686
0.042825844 -0.009964846 -0.35059223 -0.4653504 -0.2059576 -0.43150523 -0.41959935 -0.32927102
-0.23131159 -0.04474846 -0.4685212 0.3026614 -0.09882763 -0.38325053 -0.08868026 -0.113671616
0.1663581 -0.27036265 0.40142027 0.41386232 0.19581446 -0.46636555 0.49988955 -0.056127008
-0.2613608 -0.20142052 0.31516328 0.39899328 0.23428786 0.22393307 0.09829781 0.35598558
-0.48030108 0.1449806 0.23939429 0.0014766825 -0.0046641366 -0.13595948 -0.21932568 0.091853306
-0.07206761 -0.4777735 -0.035306435 0.4009422 -0.22414978 0.045939617 -0.36149848 -0.075728156
-0.3643367 0.21226846 0.012306706 -0.27322936 0.09601043 -0.48270258 -0.35246155 -0.24700487
-0.15476348 0.1659586 0.50741154 0.4071698 0.27412763 0.43024254 -0.37976596 -0.2265745
-0.15157914 0.32261854 0.18895297 0.36745045 0.13051438 0.35269043 0.08929905 0.13363782
-0.2835462 -0.3240422 -0.05081858 -0.025205398 0.5384562 -0.1733778 0.33954406 -0.29614338
-0.26854685 -0.23110193 -0.14270464 -0.04815436 -0.5095639 -0.3842382 0.49720186 -0.24840933
0.2690515 0.1420372 0.44375393 0.17136103 0.090827264 -0.086662814 0.44732922 0.007875513
00000000: f6eb e63e ea64 38bd aed2 f3be 8dd8 f2bd
00000010: 3606 673d 4c8f c93e cc59 1bbe 7982 fcbd
00000020: ec10 323e 99fa 013f b7ad ccbd e66c c53a
00000030: dcc4 783e cb2b 9b3e f42f ffbe 97c6 17be
00000040: 8997 b2be a76c e03e c53a fcbd d72d 30bd
00000050: fc95 b5be 169c 78be 78f3 ddbb fbd2 743d
00000060: 5238 dfbe 8de5 f8be 41d0 d5bd 1eaf 18bd
00000070: d3c4 b7be f098 503d 95cb ec3d 9025 9d3e
00000080: 1714 babe 6e34 56bc 8e47 60bd dc43 a03c
00000090: 03b9 aebe 1bfb 19bd d5a8 d13e 440e 4cbd
000000a0: 4f5e 04be 34e9 c2be 5bda 8bbe 1ca4 81bc
000000b0: 2c17 6c3c 9fc2 f5be 5a50 f2be 1a5f f1be
000000c0: 8954 5dbd ba87 543d 4b77 613d 4944 21be
000000d0: ea5f 82be 36c1 3e3e 7138 d13d 19b0 3ebe
000000e0: 2b39 6cbe 2ddc b83e 55fe af3e 9895 a53e
000000f0: 8156 20bd f383 973d 97aa 013f ed30 653e
00000100: a998 7cbe 3d38 cebe f170 02bd ef02 c73e
00000110: 6a93 413e dbab a43e efd7 77bd 9cc5 0cbe
00000120: f51f cbbd 00db 333c 8bdd d5be ead6 a93e
00000130: a05b ac3d 007f 843e fb21 9ebe 6c5e e1be
00000140: 55ce e53e a8fb 5e3d 5a8a f6be ed48 bcbd
00000150: 97f2 80be 02ce 8cbe 15df ae3e 4200 993d
00000160: c102 c23e 20c3 adbe b7ae a63e e57c 25be
00000170: 27de e63e c7cf 8dbe 50d6 e93d c2b1 24be
00000180: 15a9 3c3e 825b 6bba 594e 34be b046 8a3e
00000190: 86e4 c23e 140c 72be d1c3 38bd 07d0 593e
000001a0: 9d10 4f3e 9290 023e 5be5 b33e 725b 9f3e
000001b0: caf7 9dbd e3d0 d0bc 2245 b63e f015 aabd
000001c0: 9149 bdbd 42a6 e0bd 7146 a2be d760 c13e
000001d0: f7ad 1f3e a2b1 443e 5c5e 643e b356 ed3e
000001e0: 10e8 8d3d 0ad4 263e f501 f3be 6773 f53e
000001f0: 5a2a f9bd 993e 4cbd 0e36 c2be ef4f 4fbe
00000200: cef0 04bf ea27 92be c695 243d 5a6f b83e
00000210: 6412 b3be b897 3cbd 3cd5 cabe e894 9abe
00000220: edc8 5e3d dc37 dfbe 11db 033f 8f07 073d
00000230: 4f9d 863e 6678 dbbe d3f9 ddbe cba4 833e
00000240: 350a 8abe fee4 22bd e617 a3be a0ed f5be
00000250: b490 f13e f280 883e 8e03 4bbe e493 ca3e
00000260: 11ae 74be f797 fc3e 8031 133e 8675 e83e
00000270: 7f8e d9be 83c4 dfbe 9348 e53e 4c15 bb3e
00000280: 276a 2f3d 9843 23bc d380 b3be 6842 eebe
00000290: 8de6 52be 41ee dcbe bad5 d6be 3696 a8be
000002a0: f2dc 6cbe 294a 37bd 03e2 efbe 6ff6 9a3e
000002b0: 2466 cabd 6a39 c4be ff9d b5bd aacc e8bd
000002c0: c759 2a3e f96c 8abe f586 cd3e c3e5 d33e
000002d0: 9683 483e 77c7 eebe 86f1 ff3e 6fe5 65bd
000002e0: 15d1 85be 2e41 4ebe 155d a13e d948 cc3e
000002f0: 28e9 6f3e b64e 653e 5d50 c93d be43 b63e
00000300: 06ea f5be cb75 143e c723 753e 3e8d c13a
00000310: 9dd5 98bb f638 0bbe e996 60be 961d bc3d
00000320: 2f98 93bd ba9e f4be 7b9d 10bd 4c48 cd3e
00000330: 8587 65be 2e2b 3c3d 5416 b9be 5d17 9bbd
00000340: 578a babe e75c 593e 11a2 493c b8e4 8bbe
00000350: 1ea1 c43d cb24 f7be d775 b4be d8ee 7cbe
00000360: 517a 1ebe 0df1 293e b9e5 013f 8f78 d03e
00000370: 755a 8c3e c048 dc3e af70 c2be 2503 68be
00000380: 9037 1bbe 422e a53e e37c 413e 7722 bc3e
00000390: 90a5 053e d793 b43e 6ce2 b63d 5ad8 083e
000003a0: f82c 91be dce8 a5be 2527 50bd 8d7b cebc
000003b0: 44d8 093f f389 31be b8d8 ad3e 1ba0 97be
000003c0: f97e 89be fca5 6cbe 2a21 12be 823d 45bd
000003d0: c872 02bf dfba c4be 3e91 fe3e 045f 7ebe
000003e0: 1ec1 893e 3372 113e b733 e33e 4479 2f3e
000003f0: a503 ba3d 467c b1bd 5608 e53e 4c08 013c

net.2.weight f4 [256, 256]
0.03751484 0.034960352 -0.068746604 -0.03560408 -0.0054573924 0.073414974 -0.061024837 -0.02693568
0.054780677 0.04151244 0.022340605 -0.045093518 0.007728212 0.013029585 -0.09738931 0.027559925
-0.023648228 0.0510421 -0.04331121 -0.07900049 -0.038968496 0.020231996 0.059319627 0.014827213
-0.057609066 -0.10570239 0.028183104 -0.03769454 -0.04678466 0.040846135 -0.023386179 0.031336293
-0.08286346 0.055854738 -0.057249177 -0.072850615 -0.09907888 0.0060516363 0.0941689 0.030376276
-0.04623431 -0.009006956 -0.053134553 0.019315222 0.048451576 -0.057045758 -0.0048143836 -0.015231403
-0.077822365 -0.000296834 0.058566708 0.06086494 0.019906314 0.025239449 -0.021212112 0.028060563
-0.053128798 -0.009837 0.041468997 0.07829812 -0.0046315943 -0.04827874 0.12183743 0.02320027
0.019758342 -0.06189167 -0.0535258 0.09726431 0.0355929 0.07015012 -0.056782052 -0.0028788606
-0.040405527 -0.0680218 -0.002522439 0.024025358 -0.022521846 0.02284484 -0.01440102 0.015350361
0.07784606 0.0021533996 -0.03284649 0.024842978 -0.071623035 0.018000638 0.049365506 0.0317951
0.052648343 0.016757738 0.10546346 0.012156052 0.028376903 0.017232018 0.08088417 -0.052279446
0.015534028 0.06779465 -0.03178093 0.0032218976 0.04388017 0.02491716 -0.042832125 0.032016817
0.063928224 0.03210636 0.079449624 0.050974037 -0.043313947 0.01779545 0.13301592 -0.022642586
0.03436461 -0.012377727 -0.05712605 0.034609597 0.015636211 -0.00085776905 0.09813138 -0.025900783
0.054114826 0.03263749 -0.084872894 0.023945179 0.015326522 -0.018944778 -0.046066545 0.010921789
0.0011638815 0.0038592669 0.014462045 0.10888298 -0.072062954 -0.0033496511 -0.018310891 -0.06678469
0.013685455 -0.06527889 0.069697775 0.0222666 0.0015880686 -0.008801391 -0.034673452 -0.016099751
-0.07027853 -0.04929622 -0.06109046 -0.06595866 0.070705585 0.06951355 -0.020021237 0.09259165
0.01695826 -0.02155152 -0.018970482 0.020210762 -0.0173763 -0.03110668 0.03283594 0.063016325
-0.01611268 0.0036071693 0.05743038 -0.088325486 0.00023439404 0.0051538185 -0.12434348 -0.04400934
-0.072500855 -0.03506078 0.014882044 0.030346284 -0.01649494 -0.09434779 0.03702218 -0.044477865
0.03274287 -0.10211147 0.046185248 0.062464703 -0.009158033 0.011262648 0.10438843 -0.0027209553
-0.01247796 0.024664981 0.008320696 0.097543664 0.02341962 -0.00022482935 -0.010723281 -0.009269528
-0.03485571 0.08311792 0.074815355 -0.0075117224 0.031359732 -0.07549884 0.024356615 -0.030784266
-0.049729314 -0.01738646 -0.0397417 0.123831846 -0.02763628 -0.052992683 0.01624133 0.0693589
0.011648599 0.0805826 0.025648227 0.050737698 -0.007384359 -0.015364254 -0.04766664 0.013020401
-0.032005187 -0.017402051 0.037965227 0.009954873 0.0029794127 -0.027625185 -0.021113206 -0.044596933
-0.018666418 0.08226524 0.015946299 0.06632938 0.037575945 0.0789914 0.05416838 0.024216335
-0.06257006 0.009856871 0.030017566 0.054513935 0.059220333 -0.07937583 -0.013442669 0.013796148
-0.004632173 -0.046698965 -0.04679647 -0.027611298 -0.06764061 0.047877606 0.029814595 0.019660544
0.004249908 0.02463548 0.017979924 0.056616057 0.08074341 -0.0024419336 -0.023861423 0.013253156
00000000: 29a9 193d 9632 0f3d 05cb 8cbd 95d5 11bd
00000010: edd3 b2bb 975a 963d 2ef5 79bd 37a8 dcbc
00000020: b461 603d f308 2a3d a503 b73c fbb3 38bd
00000030: f13c fd3b 0a7a 553c 0c74 c7bd 5ac5 e13c
00000040: eeb9 c1bc 8511 513d 1867 31bd 02cb a1bd
00000050: 6e9d 1fbd 92bd a53c 23f9 723d d7ed 723c
00000060: 7cf7 6bbd 7f7a d8bd 41e0 e63c 9765 1abd
00000070: 46a1 3fbd 474e 273d 5f94 bfbc 7c5a 003d
00000080: 51b4 a9bd f0c7 643d 1d7e 6abd b432 95bd
00000090: dee9 cabd ce4c c63b a0db c03d abd7 f83c
000000a0: 3060 3dbd e991 13bc 9ea3 59bd f53a 9e3c
000000b0: 2975 463d d0a8 69bd fac1 9dbb 228d 79bc
000000c0: 5561 9fbd 63a0 9bb9 a5e3 6f3d 844d 793d
000000d0: 9112 a33c f6c2 ce3c 06c5 adbc 44df e53c
000000e0: 959d 59bd 5e2b 21bc 65db 293d c45a a03d
000000f0: a1c4 97bb eebf 45bd e785 f93d 7e0e be3c
00000100: 3fdc a13c 1f82 7dbd df3d 5bbd 8332 c73d
00000110: dcc9 113d deaa 8f3d 4c94 68bd 44ab 3cbb
00000120: 4480 25bd 034f 8bbd 814f 25bb d4d0 c43c
00000130: bc7f b8bc 1a25 bb3c 41f2 6bbc 1580 7b3c
00000140: c16d 9f3d 0d20 0d3b 0b8a 06bd 8083 cb3c
00000150: 19af 92bd 1376 933c 7c33 4a3d 943b 023d
00000160: caa5 573d 8647 893c 3afd d73d 2d2a 473c
00000170: ae76 e83c 292a 8d3c 9aa6 a53d f922 56bd
00000180: 7082 7e3c ecd7 8a3d b82c 02bd 7926 533b
00000190: b1bb 333d 121f cc3c bd70 2fbd 1124 033d
000001a0: cdec 823d f581 033d 7cb6 a23d 27ca 503d
000001b0: f769 31bd c3c7 913c 5335 083e f27c b9bc
000001c0: e8c1 0c3d f3cb 4abc 01fd 69bd cbc2 0d3d
000001d0: 8317 803c e8db 60ba 1bf9 c83d e12d d4bc
000001e0: 82a7 5d3d e4ae 053d d7d1 adbd ae28 c43c
000001f0: 181c 7b3c 1432 9bbc 46b0 3cbd 4ef1 323c
00000200: 628d 983a c1eb 7c3b 37f2 6c3c 0afe de3d
00000210: be95 93bd d285 5bbb b900 96bc 69c6 88bd
00000220: f538 603c f0b0 85bd b5bd 8e3d 7268 b63c
00000230: bd26 d03a b633 10bc c005 0ebd a0e3 83bc
00000240: 31ee 8fbd d5ea 49bd fd39 7abd 5515 87bd
00000250: 17ce 903d 1f5d 8e3d 9403 a4bc b1a0 bd3d
00000260: 0dec 8a3c d08c b0bc fc67 9bbc 0a91 a53c
00000270: be58 8ebc 70d3 febc fb7e 063d b40e 813d
00000280: bdfe 83bc 4266 6c3b 1e3c 6b3d fee3 b4bd
00000290: acc7 7539 5de1 a83b cba7 febd 2343 34bd
000002a0: 547b 94bd e49b 0fbd d1d3 733c c598 f83c
000002b0: 6520 87bc 6a39 c1bd 92a4 173d 6c2e 36bd
000002c0: 631d 063d d21f d1bd be2c 3d3d fdda 7f3d
000002d0: 930b 16bc f886 383c 9ac9 d53d 0e52 32bb
000002e0: 5c70 4cbc 370e ca3c 8753 083c f9c4 c73d
000002f0: 81da bf3c 2bc0 6bb9 b3b0 2fbc 38df 17bc
00000300: dcc4 0ebd ba39 aa3d cb38 993d e524 f6bb
00000310: 1073 003d 239f 9abd 8687 c73c 492f fcbc
00000320: f7b0 4bbd 0d6e 8ebc 31c8 22bd 8d9b fd3d
00000330: 7b65 e2bc db0e 59bd 8a0c 853c 0a0c 8e3d
00000340: c4d9 3e3c 7d08 a53d 3b1c d23c 55d2 4f3d
00000350: 7ef8 f1bb 5aba 7bbc 183e 43bd 8553 553c
00000360: df17 03bd bf8e 8ebc 6d81 1b3d c319 233c
00000370: 4042 433b 364e e2bc 9af5 acbc 46ab 36bd
00000380: 51ea 98bc ae7a a83d d0a1 823c b3d7 873d
00000390: 3ce9 193d 3ec6 a13d aadf 5d3d 5661 c63c
000003a0: bb24 80bd b77e 213c 66e7 f53c 014a 5f3d
000003b0: 0591 723d cc8f a2bd a43e 5cbc 3d09 623c
000003c0: 7cc9 97bb 6a47 3fbd a8ad 3fbd 1731 e2bc
000003d0: 2987 8abd 4f1b 443d bd3d f43c 260f a13c
000003e0: d042 8b3b 59d0 c93c a24a 933c 3de6 673d
000003f0: cd5c a53d d908 20bb 0879 c3bc c423 593c

net.2.bias f4 [256]
0.006463595 -0.005729817 -0.013245741 -0.021791743 0.025104696 0.10411098 0.04866405 0.029837586
-0.052765194 0.011077045 -0.0658173 0.10142729 -0.01154069 0.008701493 0.0069665224 0.019586122
0.05728967 0.0034931593 0.008720671 0.0037996294 -0.02640849 0.042854536 0.03748892 0.05986784
0.054876536 0.015480448 -0.06580801 -0.013162977 0.053568266 -0.010031234 -0.053919703 -0.038677372
0.014327599 0.01903304 -0.06000097 -0.045659337 0.06443714 -0.03861299 -0.06449664 0.008610166
-0.012241425 -0.038827676 0.010341207 0.019125666 0.0390164 0.009945594 0.06792811 -0.07695808
0.031273343 -0.06657292 -0.00567518 -0.08278572 -0.063744284 0.000821776 0.08521767 0.020822395
-0.005694512 -0.04268268 -0.0138280615 0.11988157 -0.0013269699 0.07675929 -0.040784832 -0.08861048
-0.039603136 0.03825724 -0.028681386 -0.06675764 0.028802626 -0.06808724 0.036138292 -0.041175973
-0.00053770735 0.098198526 -0.018459938 -0.087812565 -0.037230246 0.10992144 0.044721585 0.08680614
0.0833182 0.04126342 0.025950007 0.0009927809 -0.00019399408 -0.049761947 0.015083996 0.069538064
0.018276442 -0.015021042 -0.016541176 -0.02108483 0.072597824 -0.07169353 -0.03607219 0.04165814
0.084930226 -0.028462656 0.09670895 0.095050566 0.06149431 0.039768364 0.056422785 -0.017708184
0.05241195 0.025655875 0.0628449 0.010976855 -0.0807361 0.04841062 0.104196936 0.05412945
0.07329275 -0.06781863 0.064582855 -0.0049142353 -0.00580677 0.084875464 0.1011639 0.010969614
0.035773538 0.108697355 -0.09604302 0.13324095 0.06334627 0.037163597 -0.010093597 0.038183615
-0.058229294 -0.05519365 -0.024566755 0.097385265 0.029823557 -0.08373729 0.07261681 0.08608114
-0.07369572 -0.02103825 -0.038215533 0.10981666 -0.045887504 -0.018302016 0.10042976 0.025353516
-0.07481561 0.040722106 0.05600837 0.05113962 0.014380578 0.0191 -0.004204604 -0.026575707
0.06634071 0.027716262 0.11204647 -0.08340167 0.087427415 0.053173847 0.014934439 -0.006954145
0.027540848 0.0051256204 -0.030961812 -0.010795737 0.06127255 -0.045311417 0.044989064 0.0699064
-0.073119104 0.09903368 -0.01705074 -0.02000951 -0.075831935 0.08323352 0.012110648 0.0034314864
0.017396897 -0.003180318 0.008498483 -0.09620149 -0.0335146 0.08192174 -0.016176367 0.0599586
-0.0053302175 0.08270389 -0.07040889 0.019742357 0.040747866 0.042053323 0.094392896 0.013234637
0.00090526784 0.03558994 0.014196899 -0.006508366 -0.00937604 0.041774925 0.07175009 0.029380228
0.013107702 0.03755015 0.06926352 -0.07710565 -0.033303846 0.060172785 0.02112801 0.041818645
-0.017293943 -0.08760814 -0.06783603 -0.004207503 0.014231679 0.06871877 -0.09182902 -0.005802066
-0.075182945 -0.036078766 0.0671213 -0.013172775 -0.07935964 0.035394516 -0.061992932 -0.092393935
-0.041470647 0.005012863 0.0519848 0.06194449 0.025500024 0.030223982 -0.0011140095 0.0049135233
0.006826805 0.0607193 0.021418286 -0.02673129 -0.0020165339 0.06983962 -0.026906814 0.055434722
0.03421998 0.013814873 0.03998956 0.05424923 -0.07865637 -0.0013380877 0.04561162 0.10562689
-0.07554547 -0.021780651 -0.069508776 0.06857537 0.044895567 0.015063384 -0.0069011333 -0.0012442643
00000000: 91cc d33b 30c1 bbbb aa04 59bc 9984 b2bc
00000010: 5da8 cd3c 2338 d53d f453 473d f46d f43c
00000020: 5120 58bd 7f7c 353c 38cb 86bd 1cb9 cf3d
00000030: 2a15 3dbc b590 0e3c 6d47 e43b 1373 a03c
00000040: 93a8 6a3d 7ded 643b 25e1 0e3c 3403 793b
00000050: 9e56 d8bc 3d88 2f3d fb8d 193d fb37 753d
00000060: 38c6 603d b4a1 7d3c 5ac6 86bd 87a9 57bc
00000070: 666a 5b3d 0b5a 24bc e8da 5cbd 2a6c 1ebd
00000080: 4ebe 6a3c 2eeb 9b3c 94c3 75bd 4905 3bbd
00000090: 9ff7 833d a828 1ebd d016 84bd a711 0d3c
000000a0: 4290 48bc c509 1fbd 2a6e 293c 6ead 9c3c
000000b0: a9cf 1f3d d8f2 223c e51d 8b3d 339c 9dbd
000000c0: 7a18 003d 6257 88bd dcf6 b9bb 8f8b a9bd
000000d0: 5d8c 82bd 746c 573a 9a86 ae3d ba93 aa3c
000000e0: 0799 babb 09d4 2ebd 188f 62bc 7884 f53d
000000f0: b9ed adba fa33 9d3d ff0d 27bd 6979 b5bd
00000100: e636 22bd a0b3 1c3d 3af5 eabc 3bb8 88bd
00000110: 7cf3 eb3c 5371 8bbd bf05 143d 23a8 28bd
00000120: eef4 0cba 4f1c c93d 4c39 97bc 13d7 b3bd
00000130: be7e 18bd 7e1e e13d fb2d 373d 6bc7 b13d
00000140: bca2 aa3d d503 293d 1c95 d43c 3320 823a
00000150: e46a 4bb9 2fd3 4bbd dd22 773c f969 8e3d
00000160: 7ab8 953c d11a 76bc 5c81 87bc 18ba acbc
00000170: 2bae 943d 0fd4 92bd 6fc0 13bd baa1 2a3d
00000180: e6ef ad3d 842a e9bc 580f c63d dfa9 c23d
00000190: 75e1 7b3d 27e4 223d 941b 673d c110 91bc
000001a0: eaad 563d 452c d23c d4b4 803d 44d8 333c
000001b0: f858 a5bd 374a 463d 3465 d53d d8b6 5d3d
000001c0: 821a 963d 7ee4 8abd 0444 843d 9807 a1bb
000001d0: b846 bebb 30d3 ad3d 052f cf3d e5b9 333c
000001e0: 4687 123d b89c de3d 34b2 c4bd 5170 083e
000001f0: b0bb 813d db38 183d 9d5f 25bc 6c66 1c3d
00000200: d781 6ebd bd12 62bd 3840 c9bc ed71 c73d
00000210: 8850 f43c 757e abbd 1fb8 943d 4f4b b03d
00000220: c8ed 96bd 6858 acbc e487 1cbd 8fe7 e03d
00000230: 89f4 3bbd 1cee 95bc 1eae cd3d 2db2 cf3c
00000240: ed38 99bd 39cc 263d 0869 653d c777 513d
00000250: 849c 6b3c 9a77 9c3c c6c6 89bb 4cb5 d9bc
00000260: a3dd 873d 370d e33c 9f78 e53d 7fce aabd
00000270: 250d b33d d2cc 593d 94af 743c 99df e3bb
00000280: 589d e13c d2f4 a73b a0a3 fdbc 9ae0 30bc
00000290: edf8 7a3d 7798 39bd 7446 383d 162b 8f3d
000002a0: 78bf 95bd 2cd2 ca3d fead 8bbc fcea a3bc
000002b0: c64d 9bbd 5676 aa3d bd6b 463c cae2 603b
000002c0: f083 8e3c e26c 50bb 393d 0b3c 4905 c5bd
000002d0: 9b46 09bd 96c6 a73d 4d84 84bc 2697 753d
000002e0: 1ba9 aebb a860 a93d 8932 90bd b9ba a13c
000002f0: 3ce7 263d 1b40 2c3d 1051 c13d 17d6 583c
00000300: 7f4f 6d3a c2c6 113d 1c9a 683c 2244 d5bb
00000310: f69d 19bc 2f1c 2b3d b6f1 923d ceae f03c
00000320: b0c1 563c 30ce 193d 08da 8d3d 91e9 9dbd
00000330: 9d69 08bd bd77 763d a614 ad3c 074a 2b3d
00000340: 07ac 8dbc e66b b3bd 9eed 8abd 18df 89bb
00000350: fd2b 693c 6dbc 8c3d da10 bcbd 421f bebb
00000360: 84f9 99bd 54c7 13bd e476 893d 9fd2 57bc
00000370: 4f87 a2bd d7f9 103d 4dec 7dbd 0839 bdbd
00000380: 20dd 29bd f142 a43b 03ee 543d 81b9 7d3d
00000390: 6de5 d03c 4998 f73c f503 92ba 9f01 a13b
000003a0: 64b3 df3b cdb4 783d 6775 af3c 94fb dabc
000003b0: d327 04bb 1308 8f3d ae6b dcbc 850f 633d
000003c0: 402a 0c3d c757 623c 18cc 233d 7134 5e3d
000003d0: 9716 a1bd c662 afba 40d3 3a3d e952 d83d
000003e0: 95b7 9abd 566d b2bc 9e5a 8ebd 3e71 8c3d
000003f0: 6ae4 373d 69cc 763c e722 e2bb 9516 a3ba

net.4.weight f4 [3, 256]
0.006447307 -0.07367683 0.075218186 -0.07963624 0.041270662 0.118871614 0.028809732 0.028291816
-0.0926378 0.08121121 0.059873834 0.0809144 -0.06357309 0.018911855 -0.07400081 -0.08682347
0.11519716 -0.047990583 0.09459852 -0.037798833 0.032327455 0.084943414 0.09394616 0.08096236
0.060397785 0.12110861 -0.08156599 -0.009286899 0.053889923 -0.07363563 -0.03832572 -0.054855943
-0.07642795 -0.08352477 -0.09772345 -0.0133182565 0.050800882 -0.035736624 -0.08384825 0.017878618
-0.017299792 -0.04747075 -0.06807065 0.10423064 0.0043458524 -0.060984384 0.040767666 -0.09164174
-0.053174287 -0.06941293 0.06307405 -0.0064250976 -0.070583485 0.036441356 0.08075494 -0.076267056
-0.092397034 -0.067410894 0.057811696 0.12166284 0.01785671 0.0310289 -0.07954441 -0.05105493
-0.07023308 -0.045648918 -0.06483601 -0.053758863 0.023622738 0.016858473 0.012439287 0.028873289
-0.031148322 -0.02626331 0.046262067 -0.074458234 0.063344926 0.061124947 -0.061900772 -0.019340614
0.04863809 -0.0057098214 -0.010456617 -0.0123917945 0.09033896 -0.10840884 0.078679554 0.09593707
-0.027983598 -0.05122728 0.00071029377 -0.064036675 -0.014427611 -0.07365813 0.036585875 0.039476927
0.079791985 -0.013384791 0.06368199 0.05844458 0.06272301 0.06680413 0.045952488 0.06381883
0.007112853 0.09417549 0.042354014 -0.03413947 -0.04679563 0.072008155 0.07258058 0.08498663
0.1091625 -0.055089317 0.057805583 -0.02873787 0.07945658 0.1123068 0.092573985 -0.0808312
0.07689856 0.082383946 -0.09385405 0.08803262 -0.06362266 0.010781825 -0.04971941 -0.06042158
-0.06575827 -0.100766204 -0.053449996 0.07451007 -0.040854707 -0.06783639 0.11291385 0.09240751
-0.08170792 0.0551919 0.009273723 0.11902869 0.059703402 0.046488762 0.042477198 -0.07101812
-0.09150265 0.08927391 0.0673104 0.058329705 0.098723605 0.009181508 0.0075524454 -0.06830522
0.07365535 -0.10407807 0.10935729 -0.07458076 0.108244486 0.124544464 0.050110508 -0.08236104
0.019066991 0.040494423 0.020862581 -0.02648412 0.025609478 -0.07926705 -0.01235636 0.09155728
-0.09110814 0.04292498 0.08803658 -0.07084028 -0.06290733 0.1023476 -0.041215483 0.050680596
0.057828993 0.11570378 0.010995056 -0.036359783 -0.08578658 0.103299014 -0.09210622 0.117222
-0.044378947 0.11659083 -0.07304772 0.03859888 0.050168168 0.109344214 0.08989855 0.084495984
0.0017745679 0.0255826 0.09675465 -0.05515582 0.10855664 0.08864669 0.015395874 -0.04164098
-0.045786124 0.104516186 0.035426136 -0.097367056 -0.084902845 0.046251904 0.021462958 0.02900961
-0.08210271 -0.03172798 -0.046215326 0.0059592486 -0.049408887 -0.021059185 -0.09728856 -0.0779593
-0.086640544 -0.020163283 -0.0013044669 -0.06416946 -0.0652002 0.030497609 -0.003026712 -0.10832009
-0.059114583 -0.035143413 -0.0074956603 0.08769383 -0.103131585 0.08206013 -0.10646704 0.033850674
-0.053763647 0.08186435 0.050107017 0.052965153 -0.0870736 0.06186636 -0.014859354 0.088708006
-0.032372307 0.0897728 -0.0140538495 0.053361285 -0.050746262 -0.037972298 0.022782778 0.0827798
0.027239695 -0.07038967 0.0011876283 -0.004630865 0.033452537 0.09902759 -0.02265487 -0.091030896
00000000: ee43 d33b e1e3 96bd fe0b 9a3d 5318 a3bd
00000010: 6d0b 293d f672 f33d 6302 ec3c 3dc4 e73c
00000020: e3b8 bdbd 1052 a63d 443e 753d 73b6 a53d
00000030: 9c32 82bd 09ed 9a3c bd8d 97bd 81d0 b1bd
00000040: 7dec eb3d c691 44bd debc c13d f3d2 1abd
00000050: cb69 043d d0f6 ad3d d866 c03d 98cf a53d
00000060: ab63 773d ca07 f83d 120c a7bd 1428 18bc
00000070: aebb 5c3d 47ce 96bd 6efb 1cbd a0b0 60bd
00000080: 4286 9cbd 090f abbd 3b23 c8bd d134 5abc
00000090: 9614 503d 9160 12bd a2b8 abbd 2e76 923c
000000a0: 4bb8 8dbc b070 42bd a068 8bbd e076 d53d
000000b0: a767 8e3b c3ca 79bd fffb 263d aaae bbbd
000000c0: 48cd 59bd 5e28 8ebd f82c 813d a089 d2bb
000000d0: 138e 90bd 8843 153d d962 a53d e731 9cbd
000000e0: a83a bdbd b90e 8abd f5cb 6c3d 5e2a f93d
000000f0: 3c48 923c 5230 fe3c 2ee8 a2bd f91e 51bd
00000100: 5cd6 8fbd 5cfa 3abd bec8 84bd 4132 5cbd
00000110: 7984 c13c c81a 8a3c 27ce 4b3c ad87 ec3c
00000120: c42a ffbc 2726 d7bc 4b7d 3d3d 8f7d 98bd
00000130: fcba 813d 275e 7a3d aa8b 7dbd 3570 9ebc
00000140: bc38 473d 7419 bbbb 3b52 2bbc f406 4bbc
00000150: a203 b93d 7405 debd bf22 a13d a87a c43d
00000160: dc3d e5bc b2d3 51bd 0233 3a3a a925 83bd
00000170: c961 6cbc 13da 96bd 12db 153d 8fb2 213d
00000180: fb69 a33d e24b 5bbc b46b 823d 9563 6f3d
00000190: ec74 803d 9bd0 883d ad38 3c3d 72b3 823d
000001a0: f012 e93b 14df c03d 677b 2d3d d4d5 0bbd
000001b0: c6ac 3fbd 0379 933d 21a5 943d 780d ae3d
000001c0: 9790 df3d 56a5 61bd 8cc5 6c3d ae6b ebbc
000001d0: 22ba a23d 1c01 e63d 6e97 bd3d d48a a5bd
000001e0: fe7c 9d3d eab8 a83d 8d36 c0bd 724a b43d
000001f0: 994c 82bd 40a6 303c 94a6 4bbd 9e7c 77bd
00000200: 46ac 86bd 835e cebd 62ee 5abd bc98 983d
00000210: 4457 27bd ceed 8abd 603f e73d 2640 bd3d
00000220: 7b56 a7bd e710 623d d0f0 173c 50c5 f33d
00000230: 8e8b 743d 006b 3e3d 92fc 2d3d f371 91bd
00000240: be65 bbbd 3dd5 b63d 09da 893d 21eb 6e3d
00000250: 9a2f ca3d 096e 163c 817a f73b 9be3 8bbd
00000260: 9ed8 963d e226 d5bd b7f6 df3d ccbd 98bd
00000270: 49af dd3d 2b11 ff3d ad40 4d3d e8ac a8bd
00000280: 6132 9c3c 7bdd 253d 01e8 aa3c 3af5 d8bc
00000290: f8ca d13c c356 a2bd 5572 4abc 6282 bb3d
000002a0: e896 babd 1bd2 2f3d 864c b43d b514 91bd
000002b0: 8fd5 80bd 9e9b d13d 91d1 28bd 7596 4f3d
000002c0: 18de 6c3d 1af6 ec3d 9b24 343c ffed 14bd
000002d0: e0b0 afbd 6f8e d33d 30a2 bcbd 1712 f03d
000002e0: b3c6 35bd 2cc7 ee3d 0b9a 95bd dc19 1e3d
000002f0: 237d 4d3d dcef df3d bb1c b83d 3b0c ad3d
00000300: 9e98 e83a 9a92 d13c 4d27 c63d 12eb 61bd
00000310: f252 de3d 658c b53d fa3e 7c3c bb8f 2abd
00000320: 3b8a 3bbd 950c d63d ff1a 113d 6168 c7bd
00000330: 8be1 adbd a372 3d3d 16d3 af3c 90a5 ed3c
00000340: 7725 a8bd 33f5 01bd 484c 3dbd cd45 c33b
00000350: f960 4abd 5084 acbc 393f c7bd 20a9 9fbd
00000360: 9970 b1bd 782d a5bc a5fa aaba 476b 83bd
00000370: af87 85bd 1fd6 f93c cd5b 46bb ecd6 ddbd
00000380: 2222 72bd 8af2 0fbd 289e f5bb d398 b33d
00000390: a736 d3bd 240f a83d 640b dabd 01a7 0a3d
000003a0: 4537 5cbd 7fa8 a73d 043d 4d3d fdf1 583d
000003b0: a553 b2bd 9567 7d3d a674 73bc 8bac b53d
000003c0: d398 04bd cdda b73d 1e42 66bc 5d91 5a3d
000003d0: 50db 4fbd d788 1bbd f3a2 ba3c 7588 a93d
000003e0: c825 df3c 7628 90bd 31aa 9b3a 83be 97bb
000003f0: 8705 093d face ca3d b596 b9bc 686e babd

net.4.bias f4 [3]
0.07119025 0.02568445 0.031274814
00000000: 32cc 913d 3268 d23c 051a 003d
