SAC_Model/Updated_Checkpoint/sac_critic_best.pth (torch, 565618 bytes, 10 tensors)

q1.0.weight f4 [256, 15]
00000000: 0c63 fc3c ad52 7a3e 4f73 e1be 5ac2 293e
00000010: 1808 0abd 92de 11be 2862 1ebd 9d24 ee3d
00000020: 8e18 4f3d c61d be3e efc4 40be a068 3b3f
00000030: 75e0 19be 86c3 0e3f 4204 943f 0906 4c3e
00000040: f3ed 01be 83e1 90be fe10 0d3e d0db 033d
00000050: c04b 1a3d 55ff 39be ebd1 54be e29d 3d3d
00000060: 410b b2bb 44f9 c73d e4ea d9bc 58ae 77bf
00000070: 6ff5 8f3e 2e35 393f a132 d93d 46ce d2bd
00000080: e561 893e b409 25bd 0e78 103e 40f5 c73c
00000090: e8bd 013e 0fcf 09be 5240 5cbe b499 b93e
000000a0: 965a 883e 1cb6 7b3e 9e21 a4be faae f93e
000000b0: 3513 6e3e e04c 983d 0271 ce3d 7e15 82be
000000c0: f0e4 a4bd 9099 5d3d 4c84 a73d a4af afbe
000000d0: 079b b4be ec83 e83d 5713 2c3e daba 923e
000000e0: 368d 9c3e f227 e0be a7de a73e 05db 753e
000000f0: 3a83 013e 713d f53d 4aa2 e3be 0ac1 babd
00000100: 23e9 5fbe 768e 163e cb67 dfbc f37c 8cbf
00000110: b944 ed3d a71c 60be afbe 43be 0662 063f
00000120: c84a 13bf 4d62 ea3e e80c 273f a7fa 4abe
00000130: f842 903e bde3 8d3e 50b5 273e 6082 113d
00000140: e0d0 233e 3061 7fbd 87f8 d3be c080 903e
00000150: 3b83 5dbf d36e 38be c135 b03e b92b 50bd
00000160: e761 3dbf 7137 9c3e 4ac0 243e dfd9 e43d
00000170: 3e34 6dbe 0f11 69be 3496 0c3e 2052 0dbd
00000180: d680 293e 881b cfbf 8dcf 9dbe 9ad6 39be
00000190: c81d d73d d111 db3e 517e a5bf 99f0 953e
000001a0: 7cdb 163f 6051 a1ba 97ba 383e cb36 b83e
000001b0: 0e93 663e 149b 13bd c8e8 723d 527f 523e
000001c0: a4bf 4fbe ea52 0c3e a785 f7be dd9b 523d
000001d0: 2896 053d 118c 63be e885 463d 8bd4 09bd
000001e0: 1ec2 c1bd 5004 8d3e 8c7b 853e 70a0 b83d
000001f0: 28e9 c9bd 169c 543e 5351 a4be 9eb1 8fbc
00000200: 2ec0 f9bd 07d5 1a3e 10a3 ca3e 5f52 d9be
00000210: 6193 ea3e 5f88 b8be 8dba 32be 260b 703e
00000220: 8297 743e edbd 8ebd 0048 0e3a 14ea 4b3e
00000230: 3056 bcbd 27e0 163c 5d1c 323e e04b 40bc
00000240: 38e8 ba3e bba7 6e3e 96e9 49be 05d0 103e
00000250: 767f c1bd bae2 7a3e 134f 893e 67d8 763d
00000260: f7d7 05bf d4ad 1fbd ad9c 3abe b882 933d
00000270: 1f4d d1bc 8a23 fbbe 3e44 bb3b 44b6 e43d
00000280: 821d 6bbe 4384 9b3d 0e85 d2be 70e2 a53e
00000290: a63b 153f 635d 9abe 3f03 353c e2b5 2c3e
000002a0: 2e98 7f3e eaff 1bbe e412 d23d 2873 803e
000002b0: 4992 bbbe 072c 15be fa8c 9a3e 8d99 9c3e
000002c0: 1e50 613e 25f7 6dbe 2a83 4bbe 2fe3 46bc
000002d0: 5cc4 abbe c833 97be 550b a7bc e2fd 0bbe
000002e0: c015 d4bb 9400 2a3e 03c3 f0bc 56f3 20be
000002f0: 948c 22be 1cd0 02be 2898 2bbd 335c 7e3e
00000300: b003 08be 3a29 c63e eccd 823e 7036 7d3d
00000310: 69d3 8ebe 0871 1d3d 5199 823e 4ede 3cbe
00000320: 1cef 2fbe 5eec 88be fb42 6dbd 2ed9 20be
00000330: 57a1 eebd 4811 3abd cfc8 27be 9d5b 983e
00000340: a25f eb3e d969 b9bb 78f9 62be ead0 a53e
00000350: 9d40 98be 0e6b 66be bebe 82bd 2585 813e
00000360: 7e0a 27bd e3a5 64bd 573c acbb 4a35 ec3c
00000370: aefa 50be 255d 413f 3658 41bd a93d 203e
00000380: cd0d 2a3f 2b24 02bd 6679 663e 9e92 383e
00000390: 5852 503e a064 413c d4e0 35be b2a2 b53d
000003a0: b7b7 eb3e 1b50 6f3e bdcf 53be 0219 8b3d
000003b0: ff41 64be 93ec 543b 6a0d 96be 7714 d1bd
000003c0: c083 123e 1b66 0b3e b9a4 1ebd 069b 98bd
000003d0: 2690 05be 2a83 57be a513 9ebc 3826 09be
000003e0: 3d9a a93e 80d5 483e a048 863e d5f1 42be
000003f0: bbc0 58bf 7ab4 cb3e 0184 243d c122 a8be
0.030808948 0.24445601 -0.44033286 0.16578045 -0.033699125 -0.1424506 -0.038667828 0.11628077
0.050560527 0.3713209 -0.18825124 0.7320652 -0.1502703 0.55767095 1.1563799 0.19924177
-0.12688427 -0.28297052 0.13776013 0.03219205 0.037669897 -0.18163808 -0.20783202 0.046293147
-0.0054334705 0.097643405 -0.026601262 -0.967504 0.28116938 0.7234677 0.1060536 -0.1029325
0.268325 -0.040292457 0.14108297 0.024408937 0.126701 -0.13457893 -0.21508911 0.3625008
0.26631612 0.24581188 -0.32056898 0.4876631 0.23249514 0.07436538 0.10080148 -0.25407022
-0.08051479 0.054101527 0.081795305 -0.3431369 -0.35274526 0.11353287 0.16804253 0.2865818
0.30576485 -0.43780476 0.32787058 0.2400933 0.12647715 0.1197461 -0.44459754 -0.091188505
-0.21866278 0.14702782 -0.027271172 -1.0975631 0.115853734 -0.2188593 -0.19115709 0.5249332
-0.5753598 0.45778123 0.6525407 -0.19822179 0.28176093 0.27712813 0.16377759 0.035524726
0.15997648 -0.062348545 -0.4140055 0.28223228 -0.86528367 -0.18011026 0.3441601 -0.050822947
-0.7397751 0.30511048 0.16088977 0.11174368 -0.2316446 -0.22760414 0.13729173 -0.03450215
0.16553053 -1.6180277 -0.3082241 -0.1814827 0.10503727 0.4278703 -1.2929174 0.29285124
0.58928657 -0.0012307577 0.18039928 0.35979304 0.22517034 -0.036036566 0.05930403 0.20556381
-0.20287949 0.13703504 -0.48344156 0.051418174 0.032613903 -0.222214 0.048467547 -0.033649962
-0.09460853 0.27542353 0.2607082 0.09014976 -0.09858924 0.20762667 -0.32093295 -0.01754075
-0.121948585 0.15120326 0.39577532 -0.42445657 0.45815566 -0.36041543 -0.17453976 0.23441753
0.2388592 -0.06969819 0.0005427599 0.19913512 -0.091961265 0.0092087155 0.17393632 -0.01173684
0.36505294 0.23306172 -0.19718012 0.14141853 -0.09448139 0.24500552 0.2681814 0.06026497
-0.5228266 -0.038984135 -0.1822383 0.07202667 -0.02554947 -0.49050552 0.005714922 0.11167577
-0.22960475 0.07593586 -0.41117138 0.3239932 0.5829414 -0.30149373 0.011048137 0.16866258
0.24960396 -0.15234342 0.10257509 0.25087857 -0.36635044 -0.14567576 0.30185682 0.305859
0.22003219 -0.2323881 -0.19874254 -0.012139126 -0.33548248 -0.29531693 -0.020391146 -0.13671067
-0.0064723194 0.16601783 -0.029389864 -0.15717825 -0.15873939 -0.127747 -0.041893154 0.24839859
-0.13282657 0.38703328 0.2554773 0.061819494 -0.27895668 0.038437873 0.25507596 -0.18444178
-0.17181057 -0.26742834 -0.057925206 -0.15707847 -0.11651867 -0.045426637 -0.16385196 0.29757395
0.459714 -0.00565837 -0.22165477 0.3238595 -0.29736796 -0.22501776 -0.063840374 0.25296894
-0.04078149 -0.055822264 -0.0052562165 0.028834004 -0.20408127 0.7553275 -0.047203265 0.15648521
0.6642731 -0.031772774 0.22507247 0.1802468 0.20343912 0.011803776 -0.17761546 0.08868922
0.460386 0.23370402 -0.20684715 0.06791879 -0.222908 0.0032489642 -0.2930711 -0.102089815
0.14308071 0.13613169 -0.03873131 -0.074514434 -0.1304327 -0.21046129 -0.019296477 -0.13393486
0.33125487 0.19612694 0.26227283 -0.19037564 -0.84669083 0.3978613 0.04016495 -0.32839015

q1.0.bias f4 [256]
00000000: a883 9e3e 7ca0 1cbe 825b 3b3e feb1 e43d
00000010: b096 833e 026f 89bd c982 fabd 8558 f1bd
00000020: af48 c2bb 14b2 bc3d e126 113e 8622 753e
00000030: f09f f8bd ac4e 173e 8f71 453e 7916 8b3c
00000040: dec1 7c3e d571 8cbd 8345 2b3e e79d 623d
00000050: f9de 9e3e ff8f 013e 778a 4fbe 5a94 4a3d
00000060: 2c0d 053e fea7 243e d75d c5bd 9ac9 fabd
00000070: 1ab6 313e c1cc 803d a85f 14be 0822 ff3d
00000080: 3c07 033e b508 223e b1ae 60bc 82a1 eb3d
00000090: d364 ddbd 3aaf 5a3e 5933 15be 19c7 d33e
000000a0: 365c a73e 7ddf 1bbe c447 8b3e b923 37bd
000000b0: ddd0 babd 0626 ac3e bba3 763e b250 d13d
000000c0: d7b3 b63e 6063 1bbe 89a0 3b3e ed80 443b
000000d0: 2149 3e3e 85df 833c 6425 8c3e 1e56 d93d
000000e0: e38a 88bd 2109 023e 0d80 463d f326 523e
000000f0: e31e e73c 61be 8dbb 8bd2 9ebc 567f f63d
00000100: 2582 393e e445 2c3e b28c 7cbd 7210 3abe
00000110: 8606 633e 48b9 453e 48a3 873e 1623 823e
00000120: 688a 3abd d5b7 f53d 4fe6 403d be7b 3d3d
00000130: c35a 5e3d 2fab 6a3d 61f8 483e 8bdd cfbd
00000140: 7749 afbd c6ec af3d 26ac 803e 598d 87bc
00000150: e892 3f3e 409b 25be 0433 b53c bbb3 423d
00000160: 36d3 813e 50aa 92bd 9073 03bc c10f 833b
00000170: 9ec0 88bd 9992 3dbd 0bc9 e73d 85c4 093e
00000180: 4f28 1f3e 0219 7e3e f4f2 2b3e 7aa6 1bbe
00000190: 33ac dd3d a6bc 05be d0b1 2c3e 26c0 a03e
000001a0: d361 4dbe cfcb 8abd 4fc1 313e f6fa 863e
000001b0: 32ed 773e 9ccd c8bd 4f1d 31be 179a 59be
000001c0: 74c5 aabc 98a9 5fbd 6c99 463e 113a 223e
000001d0: 71e5 113c e24e c63d 7f51 96bc de90 6f3e
000001e0: ab75 f13d 137b 703e f57a 0abe fc4d 1a3e
000001f0: 6324 d03d 2ca0 fabd 7bcf e4bd 2ad6 213e
00000200: 4050 f33d 2a43 43be 39b5 8fbc f517 923e
00000210: ed63 10bc 82e5 6f3e 2868 4fbe a156 98bc
00000220: 58e5 0fbd af57 513e 47e8 023d b2b1 523e
00000230: 3ddb 203e c70f b33e f5bc 40bd cdbc 93bd
00000240: 94cf 6e3e ad2f 073e 2e96 cfbd 1ff6 153c
00000250: d138 30be 23d8 663e 442d 963e b5b2 02bc
00000260: 5cc0 ad3d 416e 64be 2dd3 adbb d73b a23c
00000270: c178 163e b35c 72be 7dd9 083e 54fc a63e
00000280: 2410 6f3e d81c 47be aba5 b33c fcba bb3e
00000290: 930f 043c c78c debd f21c 853e 8d0a e73c
000002a0: 0648 e43d cfed 173d 653c 693e 810b 803e
000002b0: a06f 42be e08e af3d af7a 56bc 9355 1d3d
000002c0: 7291 86be 00a9 483e 6d0b 363d 4fc2 073e
000002d0: ffd1 0e3e e3a5 3cbe 49fa 0ebe 276d 9e3e
000002e0: f363 103e 2d68 41bd 006f a9be 957f 8e3e
000002f0: 0a8c 2bbe c2a5 e03d 83c6 6a3e 1566 a43c
00000300: 4343 433d 3418 163e bb9b 7fbd 6963 243e
00000310: fccc fbba 42d7 5a3e 9322 a03c 9a55 8e3c
00000320: c3ae 0fbc f16e fbbd 45d2 7ebd 8d73 1e3e
00000330: 56fe 68bd b68e 6f3d efc9 903d 061a 1e3e
00000340: 7713 1e3d a2cf 00be 3a8d 0a3d 7588 b83d
00000350: 8db1 bb3e 576e 95bd c2c7 e9bc 9c5d e43e
00000360: af4c 01be b53f 133c 4fd9 b0bd 743f 3f3e
00000370: 0645 f53c 8261 943e 145e d73c 9404 05be
00000380: 899b e23c b5b9 aabe ae21 373e 834a 28be
00000390: 815b 903e 0aea eebd 3cdb 7a3d 4a38 9b3d
000003a0: e14f 5e3e 90b0 4e3c 346d 053c da27 3fbc
000003b0: 77c0 733e 8ac4 93bd 45b2 ea3d 3b03 2dbe
000003c0: 4446 08be 7d25 ed3d 52b1 adbd 3602 643e
000003d0: e85e c63e c521 eebc 8132 d6bd 5cb4 4e3e
000003e0: 9afd 3c3e 2821 52bd 011e ff3d 7939 62bd
000003f0: e467 3c3e 98f5 fb3d 2fec 6d3c 0128 6cbe
0.3095982 -0.15295595 0.18296626 0.11166762 0.25700903 -0.06710626 -0.122319765 -0.11784462
-0.0059290747 0.09213653 0.14174987 0.23938951 -0.12139881 0.14776105 0.192816 0.01697849
0.2468333 -0.06857649 0.16725735 0.05532637 0.3102949 0.12652586 -0.20267664 0.049457885
0.12993306 0.16079709 -0.09637039 -0.12245484 0.17354622 0.06289054 -0.14489615 0.12457663
0.12795728 0.15823634 -0.013713525 0.115054145 -0.10810246 0.21355906 -0.14570369 0.41362837
0.3268754 -0.15221973 0.2720319 -0.044711802 -0.09121869 0.3362276 0.24085896 0.102204695
0.35684082 -0.15174627 0.18322958 0.0029984072 0.18582584 0.016097793 0.27372277 0.10612129
-0.066671155 0.12698795 0.048461962 0.2052267 0.02821297 -0.0043256734 -0.019387504 0.12036006
0.18116052 0.16823536 -0.061657615 -0.18170336 0.22170457 0.1930896 0.2649176 0.25417393
-0.04554215 0.11997954 0.04709464 0.046260588 0.054285776 0.05729216 0.19625999 -0.10149678
-0.08558934 0.08590083 0.2513134 -0.016546892 0.18708384 -0.16172504 0.022119053 0.047534686
0.25356454 -0.07161391 -0.008023158 0.0039996807 -0.06677364 -0.046282385 0.11317643 0.13453873
0.1554272 0.24814227 0.16791898 -0.15200225 0.1082386 -0.13060245 0.16864705 0.31396598
-0.20056848 -0.06777155 0.17358898 0.26363343 0.24211577 -0.09804842 -0.17296337 -0.21250187
-0.020846106 -0.054605097 0.19394463 0.15842463 0.008904801 0.096830145 -0.018349407 0.23395106
0.117900215 0.23484449 -0.13523467 0.15068811 0.1016319 -0.122375816 -0.11172386 0.15804353
0.11880541 -0.1906859 -0.017542468 0.28533903 -0.008812887 0.23427394 -0.20254576 -0.018595995
-0.03513083 0.20443605 0.0319598 0.20575598 0.15708633 0.34972975 -0.047055203 -0.07213745
0.23321372 0.1320178 -0.101360664 0.009152918 -0.17209174 0.22543387 0.2933141 -0.007977177
0.08483955 -0.22307684 -0.005304715 0.019803924 0.14694501 -0.23668174 0.13364215 0.32614386
0.23346001 -0.19444597 0.021929583 0.36666095 0.008060354 -0.10866695 0.25998646 0.028203273
0.1114655 0.037092026 0.22776945 0.25008777 -0.18987894 0.08572173 -0.0130907735 0.038411688
-0.2628284 0.19595718 0.04444449 0.13257717 0.13947295 -0.18422656 -0.13962664 0.30942652
0.14100628 -0.04721849 -0.330925 0.27831712 -0.1675264 0.10969116 0.22927289 0.020068208
0.047671568 0.1465767 -0.062404376 0.16053547 -0.001921087 0.21371177 0.019547736 0.017374802
-0.008769694 -0.1227702 -0.062212247 0.15473767 -0.05688318 0.05848571 0.07069766 0.15439615
0.038592782 -0.12579206 0.03382609 0.09010402 0.36658898 -0.07296436 -0.028537635 0.44602668
-0.12626909 0.008987357 -0.08635198 0.18676549 0.02994014 0.28980643 0.026289977 -0.12990028
0.027662056 -0.33344808 0.17883942 -0.16434674 0.28194812 -0.11665733 0.061244234 0.07579096
0.21710159 0.012615338 0.008143712 -0.011667216 0.23803888 -0.07215221 0.114597835 -0.16895764
-0.13308054 0.11579416 -0.08481087 0.22266468 0.38744283 -0.029068837 -0.104588516 0.20185989
0.18456116 -0.05130115 0.12456895 -0.05523059 0.18399006 0.12302703 0.014521643 -0.23062135

q1.2.weight f4 [256, 256]
00000000: 3dd1 9bbe ad6d 80bc 8221 56bc 24b6 d1bd
00000010: 7862 debe 6500 21be be1f 55be 65b2 5b3c
00000020: 6649 dd3d 1be1 f13d fdb2 e0bd 4172 b9bc
00000030: fac2 fe3d 6116 6dbb 6147 a2be fae2 e43d
00000040: 8b54 013e 2d56 803d 13bf eb3d 7394 67be
00000050: cb9e f7bd da45 a53d 239a 193e 2f27 a2be
00000060: 7f61 c13d dbb8 a1bd e0c7 f43c 6814 07bf
00000070: 2010 533e 258e 04be 644a bcbc c9b4 e63d
00000080: f734 06be 9385 723d 80d1 8d3c 2674 6bbf
00000090: f636 483e 840a 103e 4f46 5d3e 0668 c8be
000000a0: 6057 fb3d 7e1f 933e 4bad a63a 24c4 103e
000000b0: 0c1a 303d 8935 ba3c 992c 013e 9dc7 7c3d
000000c0: d8b3 503d 7ed1 103e fe1d 993d 6f28 663e
000000d0: 9379 643d d93b f23d d251 cebd e6ed 12bd
000000e0: c926 503b 1e70 6d3d a380 a73d 0996 593d
000000f0: 20e5 65bd a5f4 2b3b ddac fc3d ee2d 0c3d
00000100: 125f 423e 898d dfbd 5828 583c 7376 783c
00000110: 8081 d9bc 232f 2cbe 75d3 003e a53c 3f3b
00000120: abb5 d9bc 2221 ca3d a44a 91be be21 85bc
00000130: bb16 163e 4af8 a83d 0570 5e3e 0fe4 8e3e
00000140: dc45 8a3c 337c afbc 259a 9ebc 5793 03be
00000150: 8bd3 c03d 6e13 86bd ea78 55bd 0970 33be
00000160: 1984 0e3e 8d9c 993d 6dc7 3abe d022 23bd
00000170: 51de 963d 37a3 cbbd 5625 a53d 51bd 5c3d
00000180: aac8 833e bb6d b73d afe4 6ebe 2e35 7f3e
00000190: 3f55 42be 139a 1abf 7648 29bc 9c9e e5be
000001a0: 60a4 d93d b592 093e cc73 f93d ff84 83be
000001b0: 97c7 9f3d 8187 8b3d 0eac 94bd 00e3 523d
000001c0: 5e23 67be 4edc 563d 83cc 9a3d f5b4 12be
000001d0: 95b3 dfbe 881d e03d 4d22 b5be ceb4 033e
000001e0: 203c 373d 79c2 f63d 6cf9 84be 8457 ff3c
000001f0: 542f 07bf 63f1 b63c cc61 383d cb60 1cbe
00000200: 060a 3f3e a2a8 2abe bd97 e43e b608 ee3d
00000210: 058b cb3c 1349 c8bc df57 68bf 748d b4bc
00000220: cf6d 06be 934d 903c df89 cc3c 13d6 023e
00000230: 2d5e 013e 96c8 963e 9f81 a1be 88d4 7bbe
00000240: 45cb 8f3c 48d5 e23d 3e44 23bd d1b6 153d
00000250: 8a7e 813d 5dc1 133e 2a69 a53d 37df 14be
00000260: 7224 413c 891c 293d 13cd 8d3d dae9 94bd
00000270: 8972 89bd af59 f2be c99a 2e3f 3603 21bb
00000280: 92ea 50bd 78eb ecbd a5c4 d43d 9b28 9e3e
00000290: 63f2 053d 9d63 84bb a580 99bd da5a f23d
000002a0: f1c5 e93b 1ef9 463d ab55 7dbd f6fd 0fbd
000002b0: 1911 683e d6c8 f33d cf03 543e ae6c b43d
000002c0: 3d45 9f3d 4201 a4be 383f 7b3d 9a56 ec3e
000002d0: 12e0 83be 8474 123e 2ab7 983d 02c6 cebe
000002e0: 4dda 9e3c 7598 c9bd ed3b 3a3e 92c2 423d
000002f0: 5aed dd3d 18a5 0c3d 9cab 9d3d d222 1a3d
00000300: b060 643e 2113 933d f5e1 febc 29ed ec3e
00000310: 19a0 7d3e bd6c 293e 9d9c 8dbe 3a09 f53d
00000320: 2f2a 0f3d 7267 e13c 7d93 34bf c2f0 d13b
00000330: e6b7 f63d 1540 5e3c cd34 883c dc90 a93d
00000340: 25bc af3d 24d3 863d 7497 e6ba b9aa c63c
00000350: 7695 c13c ed37 cf3d a796 af3c 61f4 a9be
00000360: ce8b c3be f27c dc3d f6b3 5f3e 11a0 0f3d
00000370: 7fef 62be c5b8 f33d cfca cb3d bc6a 773d
00000380: 22cf 50bd 8456 dfbd 2cc3 6d3a a279 a13d
00000390: 1d06 e73d 3aa2 a2be ace2 be3d cb61 0ebf
000003a0: 843c 483e 3500 0e3f 123e db3e 0b40 fb3c
000003b0: 8cfd 963d e486 bc3d 4f04 c93d 788e 5c3d
000003c0: 0e7f c63d a412 b6be f774 213e 1ef3 393e
000003d0: c56d d43d ec86 043e 77a1 4f3c 055a 373e
000003e0: 287d 3d3e 6252 803d f922 3ebd 6564 18be
000003f0: 7b09 aebc 3c41 833d e059 cd3d 1b0b 92bd
-0.30433074 -0.015677297 -0.013069512 -0.10239819 -0.434345 -0.15722807 -0.2081289 0.013409232
0.10805015 0.118105136 -0.10971639 -0.022637488 0.124395326 -0.003617667 -0.31695083 0.11176105
0.12629907 0.06266437 0.11511054 -0.22615223 -0.12090834 0.08069964 0.15000205 -0.3167052
0.09442424 -0.078965865 0.029880464 -0.5276551 0.2061162 -0.12944849 -0.022984691 0.11264951
-0.13106142 0.059209418 0.017311811 -0.91974103 0.19552216 0.14066511 0.21608852 -0.39141864
0.12272525 0.28734964 0.001271644 0.14137322 0.04299359 0.022730606 0.12614669 0.061713804
0.050952762 0.14142415 0.07476424 0.22476362 0.055780005 0.11827821 -0.100742 -0.03587141
0.00317614 0.05796825 0.081788324 0.0531216 -0.056126714 0.0026238349 0.123376586 0.03422349
0.18981579 -0.109156676 0.013193212 0.015164959 -0.026551008 -0.16814856 0.12580664 0.0029180434
-0.026575884 0.09869601 -0.2837726 -0.016251441 0.14657108 0.082504824 0.2172242 0.2790837
0.016879015 -0.021421527 -0.019360611 -0.12849174 0.094153486 -0.06546675 -0.052117266 -0.17523207
0.13917579 0.07500563 -0.18240137 -0.03982812 0.07366622 -0.0994324 0.08063762 0.053891484
0.25739032 0.08956476 -0.23329423 0.2492263 -0.18977831 -0.6039135 -0.010332217 -0.44847572
0.10627055 0.1343487 0.121802896 -0.25687405 0.078017406 0.06812955 -0.07259379 0.051486015
-0.22572085 0.052456193 0.07558539 -0.14326842 -0.43691698 0.10943133 -0.35377732 0.1286194
0.044735074 0.120488115 -0.25971544 0.03116966 -0.5280659 0.022331899 0.04501514 -0.15271299
0.18656167 -0.16665891 0.44647017 0.11622755 0.024846563 -0.024448907 -0.9075908 -0.022040106
-0.13127826 0.017615115 0.024968086 0.12776975 0.12633581 0.2944991 -0.31544206 -0.24592793
0.017552981 0.110758364 -0.039860003 0.0365513 0.063229635 0.14429231 0.08076699 -0.14538275
0.011788474 0.04128698 0.069238804 -0.07271166 -0.06711299 -0.47334048 0.68204933 -0.0024568564
-0.051004954 -0.115683496 0.103890695 0.30890355 0.03270186 -0.004040195 -0.0749524 0.11833735
0.007134192 0.04857742 -0.061849277 -0.035154305 0.22662772 0.11903541 0.20704578 0.088097915
0.07776878 -0.3203221 0.061339587 0.46159822 -0.2575689 0.1430226 0.07456811 -0.40385443
0.019391203 -0.09843532 0.18186922 0.047548838 0.10836287 0.034337133 0.076987475 0.037630863
0.22302508 0.07181383 -0.031113604 0.4627469 0.24768104 0.16545387 -0.2765855 0.119646505
0.03495234 0.027515147 -0.7053755 0.0064068744 0.120467946 0.013565083 0.01662674 0.08279583
0.085808076 0.06583241 -0.0017592744 0.024251329 0.023630839 0.10118089 0.021434141 -0.3319426
-0.381926 0.10766019 0.21845993 0.03506476 -0.22161673 0.11900476 0.09950792 0.060404524
-0.050978787 -0.109051734 0.00090699154 0.07884528 0.11280463 -0.31764394 0.09320578 -0.5561797
0.19554335 0.55469066 0.42820793 0.030670187 0.07372579 0.09205416 0.09815275 0.053846806
0.096922025 -0.35561097 0.15767275 0.18159148 0.103724994 0.12942094 0.012672774 0.17905433
0.18504775 0.06265713 -0.04642007 -0.14882047 -0.021244755 0.06408927 0.10026908 -0.071310245

q1.2.bias f4 [256]
00000000: cce6 183d 6e77 9b3d 0678 143d 2fc2 a1bc
00000010: 904c 313d b31c 6f3d 8184 013d 495e 803d
00000020: ce9a 533d 1b06 2e3d 18e7 a53c 05ab 2b3d
00000030: f8eb 123d 5a3a 7a3d 5644 503b 0af1 d03d
00000040: a478 35bc b0cd ad39 d5ea fc3c 542f 863d
00000050: 5317 af3d 2a77 7f3c a240 5e3d b46e 923d
00000060: 03c5 cb3d 1dfd 313d f7ab 653c aaa6 9bbd
00000070: 9677 523d c43a adbc 9476 723d 95b8 ec3d
00000080: ff24 c13d 6a52 d63d 0dca 673c a243 073d
00000090: ad25 7b3d a735 f7ba a17a 77bc d432 d83d
000000a0: be8e 30bd 7881 06bd aa7f 923d c86e 473d
000000b0: 6fbd 7c3c 5c26 8e3d f1ff d23c 26ab fd3d
000000c0: c98b e6bb 7cd9 593d 87ac 163d 1aa6 8bbc
000000d0: 7689 303d 0fcc 4abc fb8a a0bb ddb6 7d3d
000000e0: c769 ee3d 0c86 513d 8707 42bd 36a3 a23d
000000f0: b750 9d3b 5384 6e3d cdbe d2ba 346b be3d
00000100: c8eb 2b3d 8579 a6bc 118b 97bb 4297 af3d
00000110: 0512 143d 0740 a43c d84c 173d f36a be3d
00000120: 1e28 9c3d 34f7 873d 5695 0c3d 3a0f a63c
00000130: 98a4 22bc c7ac 813d bc4c e53d e647 a33d
00000140: c592 8c3d 160b 4d3d ab40 983d 0d03 b43b
00000150: b0b2 313d 4bb6 443d 8f9a 54bd 09db 993d
00000160: e9ba 753d 8858 573d 0589 143e 88f8 8abc
00000170: 32e6 3aba 64ad 1b3d 7005 493c e7ca 0dbd
00000180: 833f 9a3c f5f4 71bb a4f6 df3b 52d0 933d
00000190: 13b1 6dbc 2773 1d3b d602 873c 15af 803c
000001a0: ed20 603c 7a92 f43d 521f 253c 5fb2 933d
000001b0: 7335 803b c2d1 a83d 03de 8cbc d7d6 a23c
000001c0: fb4c 64bb e4a6 60bc dfe5 eabc ec42 833c
000001d0: 715e 6d3d 2269 ddbc c10b c5bc 8097 0b3d
000001e0: b663 043e dcc9 eeb8 a53d 5b3d d3ec 7abd
000001f0: daef e1bc 715e 4abd b3fa b9bb ed3c 853d
00000200: c7f8 babc eed6 ac3c 3dd5 943d 59a3 c83c
00000210: 4ab7 08ba 4e16 d4bc 4d2b b73d bc28 883d
00000220: 786c 113d ace9 9d3c 65e1 dd3d b73f 153d
00000230: 4720 b53a 5784 423d 1082 9e3c 7690 9a3d
00000240: 5fda 96bc a7c8 da3b 6799 f83c 9a01 cb3c
00000250: 0952 e33d a5d2 1bbd 6847 963d 7222 15bc
00000260: b3ed 863c 2096 b63d 6718 a23c a4ee a33d
00000270: 6d75 09bd 192e 6c3d 13bf a43b acc0 ad3d
00000280: d2b3 233d f530 943d 13be fd3c 97d8 0c3d
00000290: 3341 6a3c 72de 63bc feeb a03d 9dbd 27bc
000002a0: a46a 063d cbb2 1fbc 4cf3 5cbc 8ebc 5dbc
000002b0: da06 653c 4532 853d aa6f 9c3d 7d7a 153c
000002c0: 98b2 a4bc baac 073e b755 a63d 1728 4e3c
000002d0: 3bd0 b83c 5ccf 3d3d 1eed c73d 615d c63d
000002e0: 5b81 5e3d abd3 063e 2599 9a3b 0d71 7e3d
000002f0: e8b0 ae3d c9b7 2e3d dd34 6e3d 5a7d 233d
00000300: 9128 88bd 84ab f4bc 595f 3b3d 4e8b 103e
00000310: 02bc ca3d 453f 963c 5df5 21bd a3bf de3d
00000320: 5697 993c b79a 1a3d 9a12 b23c 53dc 5f3a
00000330: 5008 223d 9907 083d b39e f3bc 7815 583d
00000340: 6d38 2c3d 67f7 993d 2094 8a3d b689 6d3d
00000350: f6e7 903d 827f 883d 8345 703c 64b9 edbc
00000360: 82e7 8b3c fe2f 3ebd 0006 21bc 65ae 9e3d
00000370: 69d5 4e3d 1ccc 1cbd 6d4e 9abc 0a2c d93c
00000380: 03c9 753d 6ed9 2d3d 93fd 713d f715 2fbd
00000390: d958 713d 05e9 debc a2d9 bf3c 7c88 723d
000003a0: 939d 083c db8a ccbc e540 263d 5882 f33c
000003b0: 3b3f 1e3d a7ee 863d 689e 4cbd 160f 143d
000003c0: e6a7 643b 12e3 9e3d 5610 fdbb e442 2d3d
000003d0: da3b ca3d a91b b63c 54c0 a13d 2906 b33c
000003e0: 99b5 f13b ceda 26bd df57 f33d 75a9 ce3b
000003f0: ae3a a63d dd13 9f3c 4cd8 8b3d e9e6 803d
0.03732948 0.07591139 0.036247276 -0.019745914 0.043285906 0.05837698 0.031620506 0.062679835
0.051661305 0.04248629 0.020251796 0.041911144 0.03586957 0.061090805 0.0031779013 0.102022246
-0.011076126 0.0003315038 0.030873695 0.06551996 0.085493706 0.015592376 0.054260857 0.07150021
0.099496864 0.04345428 0.01401805 -0.07600148 0.051383577 -0.021146186 0.059195116 0.11558644
0.094308846 0.10464938 0.014147294 0.033023484 0.061315227 -0.0018860594 -0.015104921 0.1055657
-0.04310488 -0.032838315 0.07153256 0.048689634 0.015426024 0.0694091 0.025756808 0.123861596
-0.0070357067 0.053185925 0.03678563 -0.017046977 0.043099843 -0.012377753 -0.0048993803 0.06194197
0.11641269 0.051153228 -0.04737046 0.07941286 0.0048008817 0.058231663 -0.0016078592 0.09297791
0.041972905 -0.020321617 -0.0046247323 0.08573772 0.036149997 0.020050062 0.03693852 0.09297743
0.07624839 0.06638947 0.034322105 0.020270932 -0.0099269375 0.06331783 0.111962765 0.07972698
0.068639316 0.0500594 0.074342094 0.0054935277 0.0433833 0.04802541 -0.05190521 0.07512481
0.059992705 0.052574664 0.14505394 -0.016964212 -0.00071296387 0.038007155 0.012269363 -0.03461733
0.018829113 -0.0036919687 0.006834822 0.07217468 -0.01450755 0.0024024935 0.016480844 0.015708486
0.013679725 0.11942001 0.010078268 0.07211756 0.0039126216 0.08243133 -0.017195707 0.019877834
-0.0034835923 -0.013711665 -0.028674064 0.016023122 0.057951394 -0.02702767 -0.024053456 0.03408003
0.12928662 -0.000113863236 0.053525586 -0.06126101 -0.02758019 -0.049406473 -0.0056756376 0.06505761
-0.022823704 0.02109858 0.072672345 0.024491953 -0.00052153005 -0.025889542 0.08943806 0.066483945
0.035503834 0.019276462 0.10834006 0.036437716 0.0013818823 0.04748949 0.019349128 0.07547085
-0.018414674 0.0066767517 0.030346585 0.024781037 0.11099631 -0.038042683 0.073378384 -0.009102451
0.016470766 0.08915353 0.019787027 0.080045015 -0.03355925 0.05766115 0.0050276606 0.08484015
0.039966412 0.072359 0.030974424 0.034386244 0.014297771 -0.013908016 0.07857512 -0.010238078
0.032816544 -0.009747217 -0.013485741 -0.0135337245 0.013978684 0.06503729 0.07638486 0.009123442
-0.020104691 0.13249484 0.081218176 0.0125828 0.02256023 0.04634033 0.097620234 0.09685779
0.05432258 0.13166682 0.0047179633 0.062119532 0.08529836 0.04265574 0.058155883 0.039914466
-0.066483624 -0.029866941 0.045745227 0.1411564 0.09899141 0.018340716 -0.039540637 0.108763956
0.01874892 0.037745204 0.021737386 0.0008539606 0.03955871 0.03321037 -0.02973876 0.05275485
0.042046 0.075178914 0.06766534 0.05799266 0.07075493 0.06664945 0.01466501 -0.029019065
0.017078165 -0.046432488 -0.009828091 0.07748107 0.050496493 -0.03828059 -0.018836224 0.026510257
0.060006153 0.042443685 0.059079718 -0.042745557 0.058922622 -0.027210722 0.023419205 0.059212193
0.00833835 -0.024968555 0.040589232 0.029725239 0.03863452 0.06588488 -0.049955755 0.0361472
0.0034890114 0.07758154 -0.0077228947 0.04230012 0.09874697 0.022229986 0.07898012 0.021853523
0.0073763845 -0.040736012 0.118819945 0.006306822 0.08116661 0.019418651 0.06828365 0.062940426

q1.4.weight f4 [1, 256]
00000000: 811c ca3e ace6 3dbe 562c 9fbe 0063 d13e
00000010: 37a9 c53e 11f4 9fbe 3735 fa3e 632d 763f
00000020: f10d 0dbf ba60 a5be 0627 acbe b5f3 b83e
00000030: a49b 56be c08f 8dbe 2656 0a3f d670 b2be
00000040: 816a b0be f4f1 55be aa82 51be 11be 193f
00000050: db2b 87be 5068 bc3e a5c0 ba3e 31aa aebe
00000060: fa9a 56be ca81 94be e5a4 053f 1761 fb3e
00000070: 5a0b a8be d914 a4be 24b4 1a3f 9ee7 a73e
00000080: f2e6 703f 2280 b9be 2215 063f 45ab c9be
00000090: 92ec bcbe 7ca8 94be 338c b4be 51ef bf3e
000000a0: 72ea 6a3f 3e6b 343f 2453 0b3f d44d b73e
000000b0: 6a8a 8cbe 70cd 40be f002 53be 07f5 c2be
000000c0: b1e7 ec3e 388a fabe 419b bbbe ee2c 143f
000000d0: 6b59 66be 33b6 0f3f b73c 5ebe 5a96 5dbe
000000e0: 17c4 c73e 2f91 a9be aa4b 1a3f 482f 98be
000000f0: 46a8 aebe 9277 67be 60b0 6bbe 9fc1 793f
00000100: 2c65 ce3e 896b 023f 1218 50be a5f2 c83e
00000110: a45c 4bbe 46ab 4dbe 83f7 b0be 7181 64be
00000120: 0aae c9be 53b9 a6be 6111 d2be a35d a4be
00000130: 556c b2be 6985 af3e b6ec 95be 77d5 c3be
00000140: 1df6 51be 4205 483f 2514 b2be 2f49 bb3e
00000150: dd60 bd3e a4c5 b63e e260 1d3f e1fd e9be
00000160: 5b10 b23e 1668 bf3e 607d b9be 1972 fc3e
00000170: 9b39 ff3e 259b d6be 6c9a 263f a944 213f
00000180: f6fc b73e 2a18 be3e 57e8 6abe fd86 113f
00000190: 7d36 0a3f 74d3 c7be f241 d5be ccdc 0d3f
000001a0: 42e5 fabe 90d1 0c3f 1015 db3e de6f a9be
000001b0: 1c93 cc3e c626 013f 32db 5d3f ce64 a2be
000001c0: 14d5 babe d72a 51be 7606 ef3e 7778 eb3e
000001d0: 71e6 cbbe 88cf 133f 819f 133f 74d7 073f
000001e0: 9dfc bdbe e4e4 553f dc0a b33e f96f eb3e
000001f0: 7d35 f83e 8f02 f63e 06ea dc3e f478 9bbe
00000200: ba59 f73e d46f f03e 33c3 95be 0683 36be
00000210: f1b2 143f c327 e3be 3b90 5cbe ec03 be3e
00000220: 920b fd3e 5a05 7fbe fcf6 b63e 677b 063f
00000230: a489 a6be 1133 89be ddb0 71be b1c5 b2be
00000240: 8e2c 6abe 79b4 ccbe e89c 943e 1c80 0b3f
00000250: 982d 90be de23 ca3e 6098 98be 6d99 0c3f
00000260: 846d dc3e 2433 c73e 4b06 a1be 28fc 60be
00000270: f9ad 003f 53c7 c93e ec7e 123f 1903 bebe
00000280: 2a4e e2be 7cdf b33e c90d 9fbe d801 fb3e
00000290: 3f57 c73e 516f e03e c572 47be 0371 59be
000002a0: 8b3b 8cbe 3a47 fc3e cf44 f63e dcf5 b4be
000002b0: b7df b9be c9cc 023f 3938 e3be 70bf f93e
000002c0: 1a5e 013f 04b0 42be 3dbc 443f 10d4 153f
000002d0: 603a 1f3f e293 3ebe 4ec7 90be 625f 77be
000002e0: 776d eabe 3676 c7be 7114 69be fedb 7dbe
000002f0: 897a 7dbe 9793 a5be 0453 adbe 5be7 bbbe
00000300: c060 f23e 2e7a 0b3f 0b40 023f 502a d43e
00000310: 8e71 b83e 6319 5cbe 7a71 cc3e c8c4 c2be
00000320: 1611 aebe a83e ce3e a0c1 9dbe dca1 c7be
00000330: 6956 b0be e402 023f 2693 bf3e 8f4b 46be
00000340: c1d1 57be 1a98 ac3e f27d d43e 361b e23e
00000350: 5cfa b4be 0efd c03e 0da9 e03e 2a0c ca3e
00000360: 85af 56be 35b7 a13e d248 073f 911b 7bbe
00000370: 9a9c e3be 6b77 d63e 7a45 453f 9628 833f
00000380: 50c3 d8be 4e40 df3e bf16 a2be cab6 f73e
00000390: 21f4 063f d1dc e23e 9e8e d03e 2ee1 ff3e
000003a0: 8ea2 023f c6e8 0c3f 67ca 71be ecfc 103f
000003b0: 1803 363f 4da9 b6be 938f 0a3f 457c cebe
000003c0: 6ea1 513f 79ee ccbe 269c 163f 90e4 f93e
000003d0: 1ec4 b13e c67d c5be b9bc d9be 7719 b5be
000003e0: d85b 78be 10b3 133f ba1a c2be ab9f 98be
000003f0: e782 93be c4ff 053f e307 56be fcbf 4cbe
0.39474872 -0.18545026 -0.31088513 0.40895844 0.38605663 -0.31240895 0.48868725 0.96163005
-0.550994 -0.3230036 -0.33623523 0.36123434 -0.2095781 -0.27648735 0.540377 -0.34851712
-0.34456256 -0.20893079 -0.2046 0.60055643 -0.26400647 0.36798334 0.364751 -0.3411422
-0.20957556 -0.2900527 0.52204734 0.4909751 -0.3282116 -0.32047155 0.6043112 0.32793897
0.94102395 -0.3623057 0.52375996 -0.3938848 -0.3689924 -0.29034793 -0.35263214 0.3748727
0.91763985 0.7047614 0.5442374 0.35801566 -0.27449352 -0.18828368 -0.2060659 -0.38077566
0.46270517 -0.48933578 -0.36641887 0.5788106 -0.22495048 0.5613739 -0.21702848 -0.21639386
0.39016792 -0.3311858 0.60271704 -0.29723573 -0.34112757 -0.22604206 -0.230165 0.9756107
0.40311563 0.50945336 -0.20321682 0.39247623 -0.19859558 -0.20084867 -0.34563836 -0.22315003
-0.39390594 -0.32563266 -0.41028884 -0.3210269 -0.34848276 0.3428147 -0.2928216 -0.38248798
-0.20504041 0.7813302 -0.34780994 0.36579272 0.36987963 0.35697663 0.61475956 -0.45701507
0.34778103 0.373841 -0.36228466 0.493058 0.49848637 -0.4191524 0.6507938 0.6299539
0.3593518 0.3712781 -0.22940193 0.568466 0.5398939 -0.39028513 -0.41651875 0.55415034
-0.49003035 0.55007267 0.42789507 -0.3309316 0.39955986 0.5044979 0.8666259 -0.31717533
-0.3649069 -0.20426498 0.46684617 0.45990345 -0.3982425 0.5773854 0.5766526 0.5306313
-0.3710679 0.83552384 0.34969223 0.45983866 0.48478308 0.48048827 0.43147296 -0.30365717
0.48310643 0.46960318 -0.29250488 -0.17823419 0.5808554 -0.44366273 -0.21539395 0.37112367
0.4942289 -0.24904385 0.3573531 0.5253205 -0.32526886 -0.26796773 -0.23602624 -0.34916452
-0.22868559 -0.3998144 0.2902596 0.54492354 -0.28159785 0.3948049 -0.29803753 0.5492161
0.43052304 0.38906205 -0.31450114 -0.2197119 0.5026546 0.39409885 0.5722492 -0.37111738
-0.4420026 0.35131443 -0.31065205 0.49024844 0.3893375 0.43834928 -0.19477375 -0.21234517
-0.27389178 0.49273092 0.48099372 -0.35343826 -0.36303493 0.5109373 -0.44378832 0.48778868
0.5053421 -0.19012457 0.7684973 0.58526707 0.6219845 -0.186111 -0.28277057 -0.2415748
-0.4578664 -0.38957375 -0.22761704 -0.24790952 -0.24753775 -0.32339165 -0.33852398 -0.36699948
0.4733944 0.54483306 0.5087897 0.41438532 0.36024135 -0.2149406 0.39930326 -0.38040757
-0.3399741 0.40282178 -0.30811787 -0.38990676 -0.34440926 0.5078566 0.37416953 -0.19364761
-0.21076109 0.33709794 0.4150234 0.44161385 -0.3534726 0.37693065 0.43878976 0.39462405
-0.20965393 0.31585088 0.5284549 -0.24522234 -0.44455415 0.41887984 0.7705914 1.0246761
-0.42336512 0.43603748 -0.3165798 0.48381644 0.5271626 0.44309095 0.40733808 0.49976486
0.5102929 0.55042684 -0.23612367 0.5663593 0.7109847 -0.3567604 0.54125327 -0.40329185
0.8188695 -0.4002569 0.58832014 0.48807192 0.34719938 -0.3857252 -0.42526796 -0.3537099
-0.24253786 0.576951 -0.37911016 -0.29809317 -0.28810808 0.5234339 -0.20901446 -0.19995111

q2.0.weight f4 [256, 15]
00000000: 9ac7 1e3f ec04 25bf 782a f4be f824 9abd
00000010: c84b ca3d 80c7 013b 3f9b 93be 150d 4bbd
00000020: 8d18 20be e3e6 903e e6e9 10be ba13 883d
00000030: ce73 90be 2b9d 903b ad3a 90bd 876e 8ebe
00000040: 15f4 babd af89 14be b206 293e 206f 79be
00000050: 4845 07be f881 39bd 332f e4be 67ab f3bd
00000060: be81 013e 2221 e4bd d0d3 be3e 1f30 9f3d
00000070: 5202 b43e d262 ffbc 84ab 8ebe 8197 303e
00000080: c8bb 89be f2de 21be 5a03 c6bd 84b8 7cbe
00000090: 7c43 5b3e cb85 06bd 9fc0 85bd bc36 50be
000000a0: ec4e 7c3d e7db 3f3f 6eea d93c e09d c4be
000000b0: 733f 193e 55ae bcbe 78a6 b33d 769d 243e
000000c0: 2782 823e 40e4 34bc 74e7 6fbe 5af1 dabd
000000d0: bbea d5bb 4e08 20be 1f0d 12bf 5e0e e2bd
000000e0: 8cba 4abe 78de 7ebe 1625 b6be 6e74 09bf
000000f0: 34ec 08bd 3029 76bc 78d6 9fbd b65a 123e
00000100: 3dcb 17be 52a0 343e b6cd 27be 4073 a73c
00000110: e4f5 8cbd ac0e 48be d802 a83d 1a78 e5bd
00000120: 92fe 7e3e 015c 08be 80e9 0d3b 6c64 2c3e
00000130: 4af9 043e d860 893e 7017 61bc 4e8a 61be
00000140: 1067 923d 2a08 083e 434e 93be dba5 c53e
00000150: ced0 eabe f484 ae3d 7ecb 8dbe 0eeb 493e
00000160: 3c16 153e 21a8 8d3e b351 68be 0f7d 213e
00000170: 7478 373e 0821 18be b582 56be 0078 1c3a
00000180: 6e57 14bd a64b 6c3e 780e 47be 1c25 b13d
00000190: 235e da3d a821 90bd 6309 533f 4841 93be
000001a0: 85ec 23bc f166 043e a1b7 23bb ac21 0b3e
000001b0: 363a 6c3e e654 2c3e 942e 913d 380c 223c
000001c0: 3fbd 79bf 1aff 613c d946 8dbe 415f d1bd
000001d0: ad47 353e 43ec 76bf cd3b 63be 808f 50be
000001e0: ea75 bfbd a835 493d e513 aa3e d821 5c3e
000001f0: b84a 67bd 20b9 fe3c 623c 38be 1a5a ca3e
00000200: 0801 e9bd 730a 873e 32fd 0b3d ee4a 453c
00000210: ef7f ff3e 6ef9 8abe a123 e7be d426 cebe
00000220: fcba 653e 6211 ffbd 807b 063e f054 f63d
00000230: 4c11 6b3e e0ea 7f3e 028c 44bd a229 623e
00000240: 56e3 233e 8286 04be 093d f53e d405 92be
00000250: 86e6 673e 5fe0 603d 8f4a 453c 431a 8ebe
00000260: d951 adbe 912f 63be 4013 1a3d b852 fdbc
00000270: eb56 50bc 6971 5a3e 7a23 aa3d cfed 3a3e
00000280: 521d 43be 67e9 77bc 6acb f9bd 5eff 7e3e
00000290: e439 033e c47f 56bd 3476 4b3e fa35 46bf
000002a0: 5000 35bd e07a 5d3e b2b5 5d3e df8b 153d
000002b0: f4f8 8ebd 15e8 eebd 63ca 663e 199d 70be
000002c0: f0b3 c93e 0ff2 9fbe b82f 823c cf2c e23e
000002d0: 0270 073e 490c 253e b931 64be 2cee 45bd
000002e0: baea 123e 608d bc3c 1651 c7bd 8e12 483e
000002f0: 5b0c 08be c6b7 67be 9a12 b6bd f719 163f
00000300: 9049 e93c 539b ae3d 91a6 ba3e 6748 1e3e
00000310: 4103 e7bd fc59 b3be 4722 54be 6c09 c4bd
00000320: a0cf 5f3c c9b5 b8bd d0f7 89be b210 d0bd
00000330: b4a2 5f3e a2e5 573e c77c fe3e c15f 5cbf
00000340: 2be8 8d3e 5e4c dc3e 488c e83d a968 78be
00000350: cab2 45be a048 d8bc d818 12be 4321 843e
00000360: 1e37 a7bd 20f6 533d 904d ce3d 1206 c0bd
00000370: 8478 92bd de2c 24be 4291 753e f06a 0a3d
00000380: 64b5 e63d 6dde 91bd f948 8abe aca1 9c3e
00000390: 1e0d 453e 789d 23be b0fd 113d 123f d9be
000003a0: 882c 7bbd 64f9 94bd 8bb8 043e 8323 f03e
000003b0: 6ce3 c6bd 3cae c0bd c00f 583e 426f 16bf
000003c0: fd21 58be 9ec8 60be 6020 05bd dff0 11be
000003d0: 908b 48bd 96a5 31be 7492 41be 171e 80be
000003e0: eba8 25be 18fd 963d 0095 0ebb 58f0 39be
000003f0: d0a7 483d 0835 933d 7872 ffbc c3ee 9f3e
0.6202332 -0.64460635 -0.4768865 -0.075265825 0.098777354 0.001980275 -0.2882938 -0.049573023
-0.15634365 0.28301153 -0.14151725 0.066443875 -0.28213352 0.004413267 -0.070424415 -0.278187
-0.09128586 -0.14505647 0.1650646 -0.24358797 -0.13210022 -0.045289963 -0.4456726 -0.11897927
0.12647149 -0.11139132 0.37270975 0.0777285 0.3515802 -0.03117505 -0.2786523 0.17245294
-0.26901078 -0.15807703 -0.09668608 -0.24679762 0.21412462 -0.03284244 -0.0653088 -0.2033338
0.061598703 0.7494492 0.026601043 -0.384017 0.1496561 -0.36851755 0.08771986 0.16075692
0.25489923 -0.011040747 -0.23428136 -0.106905654 -0.006528226 -0.15628168 -0.5705127 -0.110378966
-0.19797724 -0.24889553 -0.3557517 -0.5369328 -0.033428386 -0.015024468 -0.078045785 0.14292416
-0.14823623 0.17639282 -0.16387066 0.020440698 -0.068828374 -0.19536847 0.082036674 -0.11204548
0.24901798 -0.13316347 0.002165407 0.16835183 0.12985721 0.26831698 -0.013738498 -0.22025415
0.07148564 0.13284364 -0.28770646 0.386031 -0.4586243 0.085214525 -0.27694315 0.19718572
0.14559263 0.27667335 -0.22687416 0.15770362 0.17917043 -0.1485635 -0.20948298 0.0005968809
-0.036216192 0.23075733 -0.19439113 0.08649656 0.106624864 -0.070376694 0.824362 -0.28760743
-0.010005121 0.12929894 -0.0024981278 0.13587064 0.2306908 0.16829261 0.07088962 0.0098906085
-0.9755439 0.013793731 -0.27593115 -0.10223246 0.17703123 -0.96454257 -0.22190781 -0.20367241
-0.09348662 0.049123436 0.33218303 0.21497285 -0.05646774 0.031094134 -0.17991784 0.39521867
-0.1137715 0.2637516 0.034177013 0.01204179 0.49902293 -0.27143425 -0.4514437 -0.40263999
0.2243461 -0.124544874 0.13133049 0.12027919 0.22955817 0.24991941 -0.047985084 0.22086194
0.1600469 -0.12941936 0.4789813 -0.28520072 0.22646531 0.054901477 0.012041702 -0.2775441
-0.33851507 -0.22186114 0.037616014 -0.030923232 -0.012716035 0.21332325 0.08307548 0.1825478
-0.19054154 -0.015131331 -0.12197001 0.24902102 0.12815052 -0.05236794 0.1986931 -0.7742611
-0.04418975 0.21628904 0.21651343 0.036510345 -0.06981078 -0.1166536 0.22538142 -0.23497428
0.39395094 -0.31239364 0.015891895 0.4417481 0.13226321 0.16117968 -0.22284593 -0.04832284
0.14347354 0.023016632 -0.09732263 0.19538328 -0.13285963 -0.22628698 -0.08890267 0.5863337
0.02847746 0.085257195 0.36455205 0.15457307 -0.112799175 -0.3502959 -0.20716201 -0.095721096
0.0136603415 -0.09019048 -0.26946878 -0.101594344 0.2183941 0.21083692 0.49704573 -0.8608361
0.27716193 0.43027014 0.113548815 -0.24258675 -0.19306484 -0.026401818 -0.1426729 0.25806627
-0.0816481 0.051748395 0.100733876 -0.09376158 -0.07151893 -0.1603274 0.23981193 0.03379339
0.11265066 -0.071225025 -0.270088 0.30592096 0.19243285 -0.15978038 0.035642326 -0.4243093
-0.061321765 -0.0727413 0.12961023 0.46902093 -0.09711346 -0.094082326 0.21099758 -0.58763516
-0.21106716 -0.2195153 -0.03250158 -0.14252041 -0.048961222 -0.17348322 -0.18903524 -0.25022957
-0.16177718 0.073724926 -0.0021756291 -0.1815809 0.048988163 0.07187849 -0.031182513 0.31236848

q2.0.bias f4 [256]
00000000: 9472 a23d d401 8a3e 77ea 15be 665b fa3b
00000010: 8958 30be cbc9 bdbd e1af 54bd 393f 6cbe
00000020: 6dbd 053e 5b71 0c3c 4802 c03e 60f4 833e
00000030: 888f b93e c2ce 993e 70c3 4dbe 5367 633e
00000040: 4e8d 743e 7b6d 783c b02a c73d 9ee8 233e
00000050: 517d 8c3e f112 50be eede e83d 04fb 64bd
00000060: 91a4 1abe 9a22 d4bd 6b66 723d a2af b13e
00000070: cd16 cbbb b24a 18be 8191 39be 859d 47be
00000080: a37b 5a3d adae 663e 8f19 113e c2dd 42be
00000090: 8d9b ef3d e607 173e 703b 6c3e 57f9 753e
000000a0: 5610 fdbc a4ec ad3d 274f 5bbd b90d 87bd
000000b0: df72 863e 59d5 b63a e808 cb3d fd36 523d
000000c0: b8c1 9d3e a731 e03d e9b1 19be f174 5f3e
000000d0: 86bd 153d 1383 cdbd b532 753e ca8b 83bd
000000e0: c2dd 5fbe 95a4 b03d 7594 ad3d 9661 efbd
000000f0: 86d4 57be 77fa 603e 8286 e83c 3e34 883e
00000100: 2e42 9b3c b015 753d d644 c63c 0395 c7bc
00000110: d943 16be ad6b 143e a62b 8bbe 829f de3d
00000120: 2861 72bd ee44 963e b12c 423e 8baf 2bbe
00000130: 5016 833d 287f e3bc c447 6b3e 6afb 833d
00000140: b28b 513d dfaa 5e3e 1abb a5bd 926b f0bd
00000150: 0748 83be 16e7 133d 822e 693d 7249 7a3e
00000160: ddef 1f3c 5594 17be 57ef 18be 0742 803e
00000170: 1fbd 28be 4770 3dbe 1fda 193e 389e dd3e
00000180: 619a ebbc af3a 2c3e 36ca 22be b9df ce3e
00000190: a2db 733d 7c99 913d 71c5 d33d 76f3 c03e
000001a0: 45bb babc 2a93 1e3d 9da0 7cbd 1e61 01bd
000001b0: 343e 7cbd 4712 ca3d df57 6a3e 9fe2 15bd
000001c0: 05e3 563e fc43 063d 2a0d 59be 2acc b63e
000001d0: fc8d 39be 0376 363d 9018 e93c fa3b b73d
000001e0: f3d0 823e 0466 0ebe a777 793d 7724 363e
000001f0: a4d4 2a3e 582d 9f3e ea9a d6bd c4b4 3abe
00000200: be48 193e 8c05 993d 81ad 6f3e ac78 483d
00000210: a9aa 7d3e f17e 08bc 8cd7 7f3e 8678 833e
00000220: a1e3 6ebe 39f6 13be 6755 2dbe 3fac babc
00000230: 55a0 a63d dec8 bc3d a0c3 b23d d835 a13e
00000240: 269f 9a3e 5a0b 443e baa5 123e 211f 1f3d
00000250: c08c 003e 39f4 a5bc 7955 e43b 2368 943d
00000260: 9805 02be 0aff b1bd 4a3f 453e 20c4 64bd
00000270: 735b 913e 57fd 6cbe a9ff 463c f643 56be
00000280: 4916 26be 0f47 b3bc 3425 e7bd 12dc 5dbd
00000290: c7d3 dfbd ab8a 8a3e b99b ba3d eb64 fbbd
000002a0: bb17 dfbd f7bd 7e3d ed0d 9d3e 28f6 093e
000002b0: d0d0 c53c 353f 643e dd26 d73c fdee 5fbe
000002c0: 0495 5bbe c31d 893e 2c43 623e 1978 00be
000002d0: 0b21 fcbd 2679 bdbd 3c33 733e 885e 013e
000002e0: 1cc8 693e cac5 b83e a5cd 783e 7057 853c
000002f0: ef91 433e 0b6a e03d 42e4 2dbe 79e3 973d
00000300: 3dbc ab3e 7f6b 7cbd 4103 2fbe 054d c63e
00000310: 34a3 d43d 0aaf 173d d433 d23d 7308 03be
00000320: c836 b8bd 3beb 563e e420 45be 339a 9c3e
00000330: 14b3 683d 3ed0 073d 98a1 1fbe 7f7f fe3d
00000340: a621 bb3c 14a5 39be cefd eebc 7fe1 6e3e
00000350: 6f3e 943e a83a c73d c9a4 623d dd9b 3a3d
00000360: 18b1 73be d868 ccbd 66bb 1cbe 0fd4 35bc
00000370: f850 203d 8429 e03d d2d3 c0bd fddf 5fbd
00000380: 9c04 153e f000 43be a638 503e a20d d03d
00000390: a061 3f3e 76a2 9bbd e568 a6bd ab64 ce3d
000003a0: 1f81 253e 4f0d 2c3e 4d5e ad3c d0fd 963e
000003b0: 34d5 483e b20e 31bd f159 1abe 8342 ef3d
000003c0: d90e 4fbe 4a21 24be 52b9 223e 83e2 efbc
000003d0: 08e0 a63d a650 e0bd f773 d43d a407 9b3d
000003e0: fcd7 903e d897 aa3d d6c6 1bbd 49b3 733e
000003f0: 82d8 31be 5098 863d 070a 493d 91bd 1cbe
0.0793201 0.2695452 -0.14640222 0.00764029 -0.17221273 -0.092670046 -0.051925544 -0.23070993
0.13060541 0.008571948 0.3750174 0.2577238 0.36242318 0.30040556 -0.20094085 0.22207384
0.23882028 0.015162821 0.09724939 0.16006705 0.2743936 -0.20319726 0.113706455 -0.05590345
-0.1510184 -0.10358162 0.059179705 0.3470431 -0.0061977864 -0.14872244 -0.18121912 -0.19493683
0.053340565 0.22527571 0.14169906 -0.19029906 0.11699591 0.14749107 0.23069549 0.24020897
-0.030891579 0.08492401 -0.053542282 -0.06594414 0.26259515 0.0013949081 0.09913808 0.051321972
0.30811858 0.109469704 -0.15009274 0.21821953 0.036557697 -0.10034766 0.23945124 -0.06423147
-0.21861938 0.086251415 0.084755816 -0.11688535 -0.21077165 0.21970545 0.02838445 0.26602358
0.018952455 0.059835136 0.024202745 -0.024363047 -0.1467432 0.144942 -0.2718174 0.108702675
-0.059174687 0.29349464 0.18962361 -0.16766183 0.0640074 -0.027770594 0.22976595 0.06444438
0.051158614 0.2174487 -0.080923274 -0.117392674 -0.2564089 0.036109053 0.05692912 0.2444208
0.009761778 -0.14802678 -0.14935051 0.25050375 -0.16478394 -0.18499862 0.15024613 0.43284774
-0.028760137 0.16819261 -0.1589745 0.40405062 0.05953563 0.07109353 0.10340393 0.37685746
-0.022794375 0.038714565 -0.06167661 -0.03158676 -0.06158276 0.098667674 0.22885083 -0.036593076
0.20985039 0.03277968 -0.21196428 0.3570264 -0.18120569 0.04454614 0.028454095 0.089469865
0.2555004 -0.13906103 0.060905125 0.17787348 0.16682678 0.31089282 -0.10478766 -0.18233019
0.14969155 0.07471761 0.2340603 0.048943207 0.24772133 -0.008331046 0.24984568 0.2567789
-0.23329021 -0.14449395 -0.1692711 -0.022787211 0.0813605 0.09218 0.08728719 0.31486392
0.30199546 0.19144955 0.14321032 0.038848046 0.12553692 -0.020258056 0.006968197 0.07246425
-0.12697446 -0.08691223 0.19262424 -0.055851102 0.28390083 -0.23143516 0.012145915 -0.20924363
-0.16219439 -0.02188447 -0.11286393 -0.054164954 -0.10929065 0.2705892 0.09111733 -0.12275108
-0.10893198 0.062192883 0.30674687 0.13472807 0.024147421 0.22289737 0.026263649 -0.2186851
-0.21443564 0.2678052 0.22095937 -0.12545814 -0.1231099 -0.09251623 0.23750013 0.12633717
0.22830242 0.360884 0.24297197 0.016277045 0.19098638 0.10957726 -0.16981605 0.07416434
0.33542052 -0.061625954 -0.17091085 0.38730636 0.10382691 0.037032165 0.10263792 -0.12796192
-0.08994824 0.20988171 -0.19250828 0.30586395 0.056811407 0.03315758 -0.15588987 0.12426662
0.022843193 -0.18129379 -0.029173758 0.23328207 0.28953883 0.09727985 0.055332933 0.0455588
-0.23798025 -0.09980935 -0.15305862 -0.011097922 0.039139718 0.109454185 -0.094154015 -0.05465697
0.1455254 -0.19043326 0.2033411 0.1015885 0.18689585 -0.07599346 -0.08125476 0.10077795
0.16162537 0.16801952 0.02116313 0.2949052 0.1961258 -0.043226905 -0.15073372 0.11682608
-0.20220508 -0.16028324 0.15891007 -0.029282814 0.08148199 -0.109528825 0.10373681 0.07569817
0.28289783 0.08329743 -0.03803142 0.2379886 -0.17367747 0.0657202 0.04908183 -0.15306689

q2.2.weight f4 [256, 256]
00000000: d1e9 003e 8de9 58bf dcec 353e 9689 7a3e
00000010: a488 91bc 4be0 503d 8346 333e 771f 443e
00000020: 7099 883e b4de 223d 3904 983e 8bcb 5cbf
00000030: f274 843e 8f44 063e 9c5b 6b3d 166c fabd
00000040: 0079 7dbd 12e1 81be f386 9bbf 0825 a2bc
00000050: c8a1 173e 288d a83c 9dc4 163c 3018 5a3d
00000060: b1b4 8abf 1719 833d 13a8 233d 8611 60bf
00000070: 7dfc bc3c beeb b23d 94f3 803d a259 cb3d
00000080: 8322 ba3d 2587 583c 90e2 163e 65ee 8d3e
00000090: dc57 743d ec96 df3d 9994 563e 8340 743e
000000a0: d427 d13c 1ce6 9ebe 8761 653e 8db8 eb3c
000000b0: 5b36 58bb da59 e53d cb54 d3bf 6042 08be
000000c0: edcf 14ba e126 5a3d 6254 a33c 5ed9 1f3c
000000d0: 7236 923d f94b d23d e7f2 9a3d 7a76 82be
000000e0: e902 9a3c 4ca7 663c ecdc 24be 1e39 d93e
000000f0: 158c 1a3e 9942 9cbd 07e0 a53d 4034 88bd
00000100: 0e07 d63d dbcf d23d ff10 453d 6435 e13d
00000110: be3f 42bc 8b95 16be 865d 4a3e 7e5c 033d
00000120: 7633 943e 9fca 313e 8f80 a8bc 7c3a 6abe
00000130: e82d f13c b72a c63d 55fa 1d3e 846c 4a3e
00000140: 7b9f 8b3c b6d2 29bd 87be 1f3f d05b ae3e
00000150: 9b75 2e3e cf36 963d b0ed 863e faf7 f43d
00000160: 0be0 d63d 5b49 b73d c366 923d 4430 623e
00000170: eefb 873d 8bbf e73e 5502 ab3c 8512 843e
00000180: 34af b3be ffb9 223f 2c0a c1bc 7ce2 a5bc
00000190: d056 ad3e 17be 373e a779 863d 939c 39be
000001a0: 4617 433e c97c fa3d 9a6c adbe 1111 783e
000001b0: f62a 813e 3cd6 403e 7c4d ef3d e345 a2bc
000001c0: d61a 00b7 b408 98bc 5911 67bd 9dc4 a53d
000001d0: f80c 673d 18e4 bfbd 4828 b43c af9f fa3c
000001e0: adec eb3c 3924 3a3d 284f bc3e f5fa 29bd
000001f0: 93a8 583d 5687 00bf 601d f43d 94fd 51bd
00000200: 3f0c b83d aebe 223e f30b 67bd 22b2 0abf
00000210: 6c10 243e 0982 e8bc e720 06be 765c 873e
00000220: 5d71 fbbb 5eed 23be 3d8a bd3d df8e 8b3e
00000230: a6ad 2cbf 8783 05bf 14ae b3bd 408f ae3d
00000240: 31d7 9e3d a855 0abd 5087 983d 20da 0fbb
00000250: 004e b73c 09a0 1bbd 0464 493d c254 453d
00000260: 8009 0ebc 7268 a53d e811 ff3d 0025 61ba
00000270: fd24 6fbe b852 77bc fcc2 fa3e 08a8 2c3d
00000280: de12 7f3d b276 bb3e 64ad 773e b77e 41bd
00000290: 4b2e 04bb 912a 1c3c 65f9 45bc 9ff0 693e
000002a0: 183b 9d3d fa9c dc3d 79fd d23d 6f8d 393d
000002b0: 2015 e13b 0258 c3be 6090 e73c 10ce b83b
000002c0: ed49 63be 75d0 0c3d 87b4 593e 42d9 203d
000002d0: 0163 5c3d b821 e93d 465a 9bbd 40c8 ab3e
000002e0: 6ef8 843e 371f e23d c666 053e d378 5a3d
000002f0: e18f 513c 54bb 14be ee52 083d 0e75 f0bd
00000300: 753a 9abd 86ea ca3d 6fba 87bd a5fe 7abe
00000310: ce8b 19be 072e 1e3e b4a5 abbd 4495 7a3d
00000320: f21c 8cbe a905 213e ea96 99bc 7ace 423e
00000330: 6497 bfbc f97f 853d d225 403f 2e28 f1be
00000340: dcb6 2f3d 6a8f b3bc 819b 483d e4c0 6dbe
00000350: 6c62 f33d 30d0 29bd c94d 383e 1eb9 2d3d
00000360: 6c78 123d 4edf 803e c0eb 1a3c 7ed7 143e
00000370: f9dc 073e a821 debc b68f 553d 238d 143e
00000380: 2e71 5e3e 0a42 8c3d ebde c63d 90b2 4abe
00000390: 146d 23bd 18f1 ca3c 4d6d b4bd b3d9 443e
000003a0: bc08 dabd b72d f13d 0b7e e03e e72d 993d
000003b0: 1912 ffbc 9a25 bc3d ecfb 703d d9cd febe
000003c0: c9cf e93d 8c9f 9d3d 1828 ae3c cfba 283f
000003d0: 5f44 95bf f39b 83bc 0a49 9a3d d9fb 6fbd
000003e0: 8659 9e3e 7c0b 9c3e 8024 b13d c379 343e
000003f0: 8cf1 11bd 3751 c33e 55b6 c23b 871a 833e
0.12589194 -0.8473137 0.17766136 0.24466547 -0.01776535 0.050995152 0.17507367 0.19152628
0.26679564 0.039763168 0.29690722 -0.8624808 0.25870472 0.1311209 0.057460412 -0.12227647
-0.061882973 -0.25367028 -1.2150558 -0.019793049 0.14807808 0.020575121 0.00920215 0.053245723
-1.0836393 0.0640127 0.03995521 -0.8752674 0.023069615 0.087363705 0.06296459 0.099292055
0.09088614 0.013215815 0.14734864 0.27720943 0.0596541 0.10917458 0.20955123 0.23852734
0.025531687 -0.31034935 0.22400485 0.028774524 -0.0032991383 0.111987785 -1.6510252 -0.1330657
-0.00056767353 0.053259734 0.019937698 0.009756414 0.07139291 0.10268397 0.07565861 -0.25481015
0.018800216 0.014077973 -0.160999 0.4242639 0.150925 -0.0762989 0.080993704 -0.06650591
0.10450564 0.102935515 0.048111912 0.109965116 -0.011856018 -0.14705484 0.19762239 0.03207063
0.28945512 0.1736245 -0.020569114 -0.22873873 0.029440835 0.09676116 0.15427525 0.19767958
0.01704382 -0.041460715 0.62400097 0.34054422 0.1703705 0.07334673 0.26353216 0.1196136
0.104919516 0.08949538 0.071485065 0.22088724 0.06639849 0.45263323 0.020875135 0.2579538
-0.35094607 0.6356506 -0.02356442 -0.020249598 0.33855295 0.17943607 0.06566172 -0.18126135
0.19051847 0.12230832 -0.3387192 0.2422526 0.2522809 0.18831724 0.11684701 -0.019808715
-7.635643e-06 -0.018558837 -0.05641303 0.08094142 0.056408852 -0.09369677 0.021991864 0.030593721
0.02879938 0.0454447 0.3677914 -0.041499097 0.05289514 -0.50206506 0.11919665 -0.05126722
0.08986711 0.15893051 -0.05640788 -0.5417806 0.1602189 -0.028382318 -0.13098489 0.2643773
-0.007673426 -0.16008517 0.092548825 0.2725744 -0.67452466 -0.5215382 -0.08773437 0.085234165
0.07755888 -0.033773094 0.07447684 -0.002195008 0.02237606 -0.03799442 0.049167648 0.048176534
-0.008669257 0.08076562 0.12454587 -0.0008588582 -0.23353954 -0.015095405 0.48976886 0.042152435
0.062273853 0.36613995 0.24187237 -0.047239985 -0.0020169194 0.009531633 -0.012083386 0.22845696
0.07677287 0.107721284 0.10302252 0.045300897 0.0068689734 -0.38153082 0.028267086 0.005639799
-0.22196169 0.034378488 0.21260272 0.039269693 0.053805355 0.113833845 -0.07585578 0.33551216
0.25970787 0.1104111 0.13027486 0.053337883 0.012790651 -0.14524585 0.033282213 -0.117410764
-0.07530681 0.09908013 -0.06627356 -0.24511202 -0.14994738 0.15447246 -0.08381215 0.061177507
-0.27365834 0.15724815 -0.01874872 0.19024077 -0.023387618 0.065185495 0.7505771 -0.47100967
0.042898998 -0.021918971 0.048976425 -0.23218113 0.11884007 -0.04145831 0.17998423 0.04241287
0.035759374 0.25170368 0.009455621 0.14535329 0.13267888 -0.027115658 0.052139007 0.14506964
0.21722862 0.068485335 0.09710487 -0.19794679 -0.039898947 0.024773166 -0.0880991 0.1922367
-0.10646197 0.117762975 0.43846163 0.07479458 -0.03113656 0.091868594 0.058834 -0.49766424
0.11416585 0.07696447 0.021259353 0.6591005 -1.166149 -0.016065573 0.07533462 -0.05858979
0.30927676 0.30477512 0.0864954 0.17624573 -0.035630748 0.381479 0.005942146 0.25606176
