SAC_Model/Updated_Checkpoint/sac_critic_50.pth (torch, 565586 bytes, 10 tensors)

q1.0.weight f4 [256, 15]
0	0x3caca197	0.021073146
1	0x3e734e3b	0.23760311
2	0xbee2ca9b	-0.442952
3	0x3e29c25a	0.16578045
4	0xbd0a0818	-0.033699125
5	0xbe11de92	-0.1424506
6	0xbd25129d	-0.040300954
7	0x3de39450	0.11112273
8	0x3d3cf7a8	0.04613462
9	0x3eb855dc	0.36003006
10	0xbe49184e	-0.19638178
11	0x3f3edc78	0.7455516
12	0xbe263ed0	-0.16234899
13	0x3f0369d7	0.51333374
14	0x3f998b6f	1.1995677
15	0x3e72af25	0.23699625
16	0xbe06e0d8	-0.13171709
17	0xbe86b6f1	-0.26311448
18	0x3e0d10fe	0.13776013
19	0x3d03dbd0	0.03219205
20	0x3d1a4bc0	0.037669897
21	0xbe45cf66	-0.19317397
22	0xbe70dc7a	-0.23521605
23	0x3d4a6faf	0.049422916
24	0x3b03ed11	0.0020130316
25	0x3dd04038	0.10168499
26	0xbcc03179	-0.02346109
27	0xbf83607a	-1.0263817
28	0x3e84f2e9	0.25966576
29	0x3f2e84ff	0.68171686
30	0x3deeedcc	0.1166645
31	0xbdd72d67	-0.10506707
32	0x3e8a8b82	0.2705956
33	0xbd2509b4	-0.040292457
34	0x3e10780e	0.14108297
35	0x3cc7f540	0.024408937
36	0x3e00ae03	0.1256638
37	0xbe0229e4	-0.12711293
38	0xbe57d0d8	-0.21075761
39	0x3eb92ee6	0.36168593
40	0x3e8839e5	0.2660667
41	0x3e805fa3	0.25072965
42	0xbeb1a699	-0.34697416
43	0x3ef15aac	0.4713949
44	0x3e5f6186	0.21814546
45	0x3db9b39e	0.090674624
46	0x3dc30920	0.09523225
47	0xbe7bfabd	-0.24607368
48	0xbda4e4f0	-0.08051479
49	0x3d5d9990	0.054101527
50	0x3da7844c	0.081795305
51	0xbeafb7d7	-0.34319946
52	0xbeb5b346	-0.35488337
53	0x3de3e496	0.11127584
54	0x3e2e693e	0.17032334
55	0x3e8d3fe4	0.27587807
56	0x3ea033dc	0.31289566
57	0xbee4c3db	-0.44680676
58	0x3eb67367	0.3563492
59	0x3e7b224a	0.24524799
60	0x3e0637f1	0.13107277
61	0x3dfbdbc4	0.12297776
62	0xbeee7420	-0.4657297
63	0xbdbac10a	-0.091188505
64	0xbe5fe923	-0.21866278
65	0x3e168e76	0.14702782
66	0xbd1f58d8	-0.038903087
67	0xbf95a26a	-1.169019
68	0x3defcea4	0.117093354
69	0xbe837cb3	-0.25681075
70	0xbe4ad9a3	-0.19809584
71	0x3f09221f	0.5356769
72	0xbf1e2350	-0.6177263
73	0x3eee353c	0.4652499
74	0x3f34d57c	0.7063825
75	0xbe47e067	-0.19519196
76	0x3e8f81db	0.2802876
77	0x3e8ebf4a	0.27880317
78	0x3e27b550	0.16377759
79	0x3d118260	0.035524726
80	0x3e23d0e0	0.15997648
81	0xbd4cda99	-0.05001316
82	0xbed486ec	-0.41509187
83	0x3e937185	0.28797546
84	0xbf57b24c	-0.84256434
85	0xbe32885b	-0.17434828
86	0x3eb19ef7	0.34691593
87	0xbcb3ba3c	-0.02193939
88	0xbf44d621	-0.76889235
89	0x3e9e8ce9	0.3096688
90	0x3e2cc488	0.16871846
91	0x3dd9309f	0.10604977
92	0xbe7b123c	-0.24518675
93	0xbe69110f	-0.22760414
94	0x3e0c9634	0.13729173
95	0xbd0d5220	-0.03450215
96	0x3e2a5f26	0.16637859
97	0xbfdc5494	-1.7213311
98	0xbea0012d	-0.31250897
99	0xbe14328e	-0.1447241
100	0x3dc3e15b	0.095644675
101	0x3edfbdc0	0.43699455
102	0xbfaacd5f	-1.3343924
103	0x3e8cd212	0.2750402
104	0x3f1e4f86	0.61840093
105	0xbc98a8d0	-0.018635184
106	0x3e39d06b	0.18145911
107	0x3ec24acb	0.37947688
108	0x3e66930e	0.22517034
109	0xbd139b14	-0.036036566
110	0x3d72e8c8	0.05930403
111	0x3e60f3ea	0.21968046
112	0xbe4bd508	-0.19905484
113	0x3e102ce6	0.14079627
114	0xbef7a042	-0.48364455
115	0x3d658993	0.056039404
116	0x3d206460	0.039158225
117	0xbe208708	-0.1567651
118	0x3d90f6cc	0.07078323
119	0xbd3b0822	-0.045662053
120	0xbde79347	-0.11307388
121	0x3e8c7870	0.27435637
122	0x3e884df7	0.26621982
123	0x3db8a070	0.09014976
124	0xbdc9e928	-0.09858924
125	0x3e549c16	0.20762667
126	0xbea99a81	-0.3312569
127	0xbd07b48f	-0.03313118
128	0xbdf5fd83	-0.12011244
129	0x3df8c7da	0.12147494
130	0x3ecacc12	0.39608818
131	0xbee17c78	-0.44040275
132	0x3f0095ab	0.50228375
133	0xbe9cfb8e	-0.3066067
134	0xbe22dd34	-0.15904695
135	0x3e838e4e	0.25694507
136	0x3e7b455e	0.2453818
137	0xbd7b1d1e	-0.061307065
138	0x3a0e4800	0.0005427599
139	0x3e4bea14	0.19913512
140	0xbdbc5630	-0.091961265
141	0x3be822b4	0.007084215
142	0x3e36eebc	0.17864507
143	0xbc79f60b	-0.015256415
144	0x3eb90cd9	0.36142614
145	0x3e6a4e62	0.22881463
146	0xbe4b227e	-0.19837376
147	0x3e0d2413	0.13783292
148	0xbdb3346b	-0.08750232
149	0x3e80c50a	0.2515033
150	0x3ea4bec1	0.32176784
151	0x3d0f96a0	0.035055757
152	0xbf03aa09	-0.5143133
153	0xbd1fadd4	-0.038984135
154	0xbe3a9cad	-0.1822383
155	0x3d9382b8	0.07202667
156	0xbd32ce34	-0.043653682
157	0xbf071259	-0.5276237
158	0x3c12f4e7	0.008969522
159	0x3dfb2d0c	0.122644514
160	0xbe5de4c6	-0.21669301
161	0x3da0128e	0.07816039
162	0xbef8162a	-0.4845441
163	0x3ea9ff08	0.33202386
164	0x3f05fda7	0.5234017
165	0xbeaeac25	-0.3411571
166	0x3ac3b54a	0.0014931348
167	0x3e18b87e	0.14914128
168	0x3e7f982e	0.24960396
169	0xbe1bffea	-0.15234342
170	0x3dd212e4	0.10257509
171	0x3e867714	0.26262724
172	0xbebe2e22	-0.37144572
173	0xbe14aaec	-0.14518327
174	0x3e9e135c	0.30874145
175	0x3ea74178	0.32667136
176	0x3e5f2ef4	0.21795255
177	0xbe6819f0	-0.22666144
178	0xbe4bda55	-0.19907506
179	0xbccf74b4	-0.025324203
180	0xbecbc2ac	-0.3979696
181	0xbe9e2885	-0.3089029
182	0xbd90e2ed	-0.07074533
183	0xbe0bfde2	-0.13671067
184	0xbbd415c0	-0.0064723194
185	0x3e2a0094	0.16601783
186	0x3b762da0	0.0037563816
187	0xbe0fb9c9	-0.14035715
188	0xbe11b6d3	-0.14229898
189	0xbdd609f6	-0.10451119
190	0xbc468d19	-0.012118601
191	0x3e888119	0.26660994
192	0x3bca047f	0.0061650868
193	0x3ed0c28e	0.40773433
194	0x3e8a7a92	0.2704664
195	0x3dad07f8	0.084487855
196	0xbe918f94	-0.28429854
197	0x3cfb7b78	0.030698523
198	0x3e829951	0.25507596
199	0xbe3cde4e	-0.18444178
200	0xbe2fef1c	-0.17181057
201	0xbe94b330	-0.2904296
202	0xbcf81cbf	-0.030287145
203	0xbe260b22	-0.16215184
204	0xbdd87462	-0.10569073
205	0xbd49eccd	-0.049298096
206	0xbe17dfa9	-0.14831413
207	0x3ed611d1	0.41810468
208	0x3ef5fab8	0.48042846
209	0x3d2bce0f	0.04194456
210	0xbe745b0a	-0.23862854
211	0x3ea355a4	0.31901276
212	0xbe9be577	-0.30448505
213	0xbe666b0e	-0.22501776
214	0xbd82bebe	-0.063840374
215	0x3e818525	0.25296894
216	0xbd27a0b8	-0.040924758
217	0xbd5e1b77	-0.05422541
218	0xbb7fb42c	-0.0039017303
219	0x3d1b3c39	0.03789923
220	0xbe4bf487	-0.19917499
221	0x3f460f14	0.7736676
222	0xbde8ffb6	-0.11376898
223	0x3dc481ca	0.09595068
224	0x3f361c2a	0.71136725
225	0xbcc8149c	-0.02442389
226	0x3e71b770	0.23605132
227	0x3e41233c	0.18861097
228	0x3e505258	0.20343912
229	0x3c4164a0	0.011803776
230	0xbe35e0d4	-0.17761546
231	0x3dbb3d69	0.091425724
232	0x3ef703ab	0.48244986
233	0x3e6fbaf4	0.2341116
234	0xbe509546	-0.20369443
235	0x3d924c2a	0.071434334
236	0xbe5e2fd9	-0.2169794
237	0xbc841107	-0.0161214
238	0xbe9e8543	-0.30961046
239	0xbdc9ff66	-0.098631665
240	0x3e21ee96	0.1581367
241	0x3e1b1189	0.15143408
242	0xbced0eef	-0.028937785
243	0xbd989b06	-0.074514434
244	0xbe059026	-0.1304327
245	0xbe57832a	-0.21046129
246	0xbc69e149	-0.014274904
247	0xbe0555f5	-0.13021071
248	0x3eaa0eb8	0.33214355
249	0x3e4171fe	0.18891141
250	0x3e870320	0.26369572
251	0xbe49d2a6	-0.19709262
252	0xbf74d346	-0.9563488
253	0x3eb6965a	0.35661584
254	0x3d7c7521	0.06163514
255	0xbead99b8	-0.3390634

q1.0.bias f4 [256]
0	0x3e9a1f79	0.30102137
1	0xbe1c5eac	-0.1527049
2	0x3e37f045	0.1796275
3	0x3dda2ad7	0.10652702
4	0x3e82b186	0.25526065
5	0xbd89799f	-0.067126505
6	0xbe0172d4	-0.1264146
7	0xbdee5435	-0.11637155
8	0xbc83c711	-0.016086133
9	0x3dc70b9c	0.09719011
10	0x3e159a16	0.1460956
11	0x3e742180	0.23840904
12	0xbdd120d3	-0.10211339
13	0x3e273098	0.16327131
14	0x3e3ff164	0.18744427
15	0x3cee0dcd	0.029059315
16	0x3e7d68a5	0.2474695
17	0xbd7e670b	-0.06210999
18	0x3e2573b4	0.16157418
19	0x3d2a45a4	0.04157032
20	0x3e9a701f	0.30163667
21	0x3e0e9359	0.13923396
22	0xbe6a98a3	-0.22909789
23	0x3d405dbe	0.0469644
24	0x3e00cc4c	0.12577933
25	0x3e50344c	0.2033245
26	0xbdefd797	-0.117110424
27	0xbdfc54ef	-0.12320887
28	0x3e35f9a8	0.17771018
29	0x3d26eb2d	0.040751625
30	0xbe2d3288	-0.16913807
31	0x3e0ac9b1	0.13553502
32	0x3e00f1a0	0.12592173
33	0x3e2313f3	0.15925579
34	0xbcd32195	-0.02577285
35	0x3e00c1d3	0.12573938
36	0xbdd5eb6f	-0.10445296
37	0x3e61cdf2	0.22051218
38	0xbe1f1f99	-0.15539397
39	0x3ed135ba	0.40861303
40	0x3eab3dbb	0.33445534
41	0xbe185ed6	-0.14879927
42	0x3e8716e3	0.2638465
43	0xbd4b613a	-0.04965327
44	0xbdaa6a54	-0.08321062
45	0x3eaa19b1	0.33222726
46	0x3e6ad2f3	0.22932033
47	0x3debc319	0.11511821
48	0x3eb331cb	0.34998927
49	0xbe16ce28	-0.1472708
50	0x3e3232b2	0.17402151
51	0x3c6ed6d0	0.0145775825
52	0x3e3ef097	0.18646465
53	0x3c8493ed	0.016183818
54	0x3e80a1d9	0.2512348
55	0x3dbdf83c	0.092758626
56	0xbd8a853d	-0.067636944
57	0x3e075ba0	0.13218546
58	0x3d66984d	0.05629759
59	0x3e401434	0.18757707
60	0x3c1e7bf9	0.009673112
61	0x3d190ec8	0.037367612
62	0xbc84f7f3	-0.016231513
63	0x3dfddc07	0.123954825
64	0x3e3c3656	0.18380103
65	0x3e2b92d6	0.16755232
66	0xbd8756c7	-0.06608348
67	0xbe3f7f71	-0.18700959
68	0x3e6b6f08	0.22991574
69	0x3e4ee250	0.20203519
70	0x3e8b1c09	0.27169827
71	0x3e83d908	0.2575152
72	0xbd29fa51	-0.041498486
73	0x3dfe4599	0.124156184
74	0x3d3943e3	0.045230757
75	0x3d4a2cc6	0.049359106
76	0x3d6e2ba5	0.05814709
77	0x3d747f8f	0.05969196
78	0x3e564742	0.2092562
79	0xbd8adf92	-0.06780924
80	0xbdae48fd	-0.08510015
81	0x3dbbf035	0.09176675
82	0x3e80d749	0.2516425
83	0xbcd10fe5	-0.025520274
84	0x3e398a44	0.1811915
85	0xbe326b86	-0.1742383
86	0x3cbf0d4c	0.02332177
87	0x3d292e7c	0.041304097
88	0x3e84548f	0.25845763
89	0xbd907e50	-0.07055342
90	0xbb550dd7	-0.003250947
91	0x3b740304	0.0037233243
92	0xbd8d7033	-0.06906166
93	0xbdaef114	-0.08542076
94	0x3df0a686	0.11750512
95	0x3e178d1f	0.14799927
96	0x3e1b0b7f	0.15141104
97	0x3e86314b	0.26209483
98	0x3e2987e4	0.16555744
99	0xbe1443a6	-0.14478931
100	0x3dcf5f8e	0.101256475
101	0xbdfc8a60	-0.123310804
102	0x3e2ca93b	0.16861431
103	0x3e9c2a83	0.30501184
104	0xbe544adc	-0.20731682
105	0xbd92f81f	-0.071762316
106	0x3e2f8973	0.17142276
107	0x3e8c8eb2	0.27452618
108	0x3e7cf412	0.2470248
109	0xbdc40227	-0.09570723
110	0xbe0ae77f	-0.13564871
111	0xbe7004c2	-0.23439315
112	0xbc9e7e29	-0.019347267
113	0xbd736b22	-0.05942834
114	0x3e49c599	0.19704284
115	0x3e0f54f5	0.13997252
116	0x3b888b1f	0.004166975
117	0x3de025c7	0.109447055
118	0xbca7f9cc	-0.020504855
119	0x3e8406c4	0.25786412
120	0x3deccb98	0.1156227
121	0x3e72a253	0.23694734
122	0xbe277646	-0.16353711
123	0x3e30b5fa	0.17256919
124	0x3dcb81b1	0.09936846
125	0xbe06d60b	-0.13167588
126	0xbde28738	-0.11060947
127	0x3e157193	0.14594106
128	0x3e03060a	0.12795272
129	0xbe3acbcb	-0.18241803
130	0x3b8d2807	0.00430775
131	0x3e9d1fc8	0.3068831
132	0xbc81624e	-0.015793946
133	0x3e6b3a77	0.22971521
134	0xbe4ba88b	-0.19888513
135	0xbc805426	-0.015665125
136	0xbd54ced5	-0.051955063
137	0x3e4b52fc	0.19855875
138	0x3c80ea28	0.015736654
139	0x3e518ccc	0.20463866
140	0x3e37e50c	0.17958468
141	0x3eb9f9ce	0.36323398
142	0xbd47e86c	-0.04880564
143	0xbd9ed1e0	-0.07754874
144	0x3e63035b	0.22169249
145	0x3e0339fd	0.1281509
146	0xbddf2be1	-0.10897041
147	0xbba3f83a	-0.005003956
148	0xbe39eab6	-0.18155941
149	0x3e6ad642	0.22933295
150	0x3e9a9590	0.30192232
151	0xbd0a1d09	-0.033719096
152	0x3db44626	0.08802442
153	0xbe6394cc	-0.2222473
154	0xbc3d18e2	-0.011541577
155	0x3c6d2cd1	0.014476017
156	0x3e140246	0.14453992
157	0xbe807921	-0.25092414
158	0x3dfb2736	0.12263338
159	0x3ea51b99	0.32247618
160	0x3e60be9e	0.21947715
161	0xbe502350	-0.2032597
162	0x3ce4733e	0.027886983
163	0x3ec1041b	0.37698445
164	0x3c7d4032	0.0154572
165	0xbdeaa18a	-0.114565924
166	0x3e8510f9	0.25989512
167	0x3d03a78a	0.0321422
168	0x3e0e73dd	0.13911386
169	0x3d201f55	0.03909238
170	0x3e74049f	0.23829888
171	0x3e740d97	0.23833309
172	0xbe3fd584	-0.18733793
173	0x3dc096d8	0.09403771
174	0x3c23f6c5	0.010007565
175	0x3d3bf8b2	0.04589147
176	0xbe88cc76	-0.2671849
177	0x3e4f133c	0.20222181
178	0x3d4e4cbc	0.05036615
179	0x3e08b845	0.13351543
180	0x3e0f50c4	0.13995653
181	0xbe468a9a	-0.1938881
182	0xbe1b4708	-0.15163815
183	0x3e997255	0.2997004
184	0x3e1382c0	0.14405346
185	0xbd1cfd62	-0.038327582
186	0xbeaaa07a	-0.3332556
187	0x3e8b6130	0.27222586
188	0xbe29af15	-0.16570695
189	0x3de87376	0.113501474
190	0x3e68d962	0.22739175
191	0x3cdf86c0	0.027285933
192	0x3d901897	0.0703594
193	0x3e0669ac	0.13126248
194	0xbd6afe37	-0.057371344
195	0x3e21dd9b	0.15807192
196	0xbbb01692	-0.0053737843
197	0x3e5c7797	0.21529995
198	0x3c0746ba	0.008256609
199	0x3cd545ed	0.02603432
200	0xbbbe91ce	-0.005815721
201	0xbde5cd52	-0.11220802
202	0xbd859f70	-0.06524551
203	0x3e1bf451	0.15229918
204	0xbd565451	-0.052326504
205	0x3d5516a7	0.052023556
206	0x3d8ca2e0	0.068670034
207	0x3e1489fe	0.14505765
208	0x3c8d5c91	0.017256053
209	0xbdfb4cbb	-0.122704946
210	0x3d08bca0	0.03338301
211	0x3dc74676	0.09730236
212	0x3ebd3fbc	0.36962688
213	0xbd9493de	-0.07254766
214	0xbcd80f1d	-0.026374394
215	0x3ee2b429	0.44278076
216	0xbe0540a8	-0.13012946
217	0x3c0c8294	0.008576054
218	0xbda64a96	-0.08119695
219	0x3e3fcd45	0.18730648
220	0x3bd4a0e3	0.0064889058
221	0x3e999537	0.29996654
222	0x3ce9b208	0.028527275
223	0xbdfb430f	-0.1226865
224	0x3be7b1a8	0.007070739
225	0xbeb4c123	-0.35303602
226	0x3e323035	0.17401202
227	0xbdf6085b	-0.120133124
228	0x3e8f6c6a	0.280124
229	0xbded9c05	-0.11602024
230	0x3d7c239b	0.061557394
231	0x3d8cc742	0.06873943
232	0x3e5c0dd6	0.21489653
233	0x3caace7a	0.020850409
234	0x3cddb1db	0.027062347
235	0x3c1479b7	0.009062222
236	0x3e790926	0.24319896
237	0xbd9f2ff9	-0.07772822
238	0x3dd0d90a	0.10197647
239	0xbe345577	-0.17610727
240	0xbe09609c	-0.1341576
241	0x3e026c12	0.12736538
242	0xbda19f6c	-0.078917354
243	0x3e7266df	0.23672055
244	0x3ed27d16	0.41111058
245	0xbccd0a02	-0.025029186
246	0xbdd62ae4	-0.104573995
247	0x3e47717c	0.19476885
248	0x3e4a052f	0.1972854
249	0xbd56511c	-0.052323446
250	0x3e083c24	0.13304192
251	0xbd8a4166	-0.06750755
252	0x3e2a408d	0.16626187
253	0x3e042186	0.12903413
254	0x3c96b815	0.018398324
255	0xbe7fc28c	-0.24976557

q1.2.weight f4 [256, 256]
0	0xbe9c9b1d	-0.30587092
1	0xbd17b2e7	-0.03703585
2	0xbb082f35	-0.002078009
3	0xbdc7c2c0	-0.097539425
4	0xbf004316	-0.50102365
5	0xbe098e24	-0.13433129
6	0xbe58f623	-0.21187644
7	0x3c98af2c	0.018638216
8	0x3de2c74d	0.1107317
9	0x3dfec1ba	0.12439294
10	0xbe07eb32	-0.13273314
11	0xbbe399e7	-0.006945837
12	0x3e00c99b	0.12576906
13	0xbd44d5ef	-0.048055585
14	0xbea3ac6c	-0.31967485
15	0x3df004be	0.117196545
16	0x3e05b9f6	0.1305922
17	0x3d8cc667	0.0687378
18	0x3deab8bb	0.11461016
19	0xbe4ed0ce	-0.2019684
20	0xbe1660b7	-0.14685331
21	0x3da6b165	0.08139304
22	0x3e1a68e1	0.1507907
23	0xbeb60019	-0.3554695
24	0x3dc7df26	0.09759359
25	0xbe00951d	-0.12556882
26	0x3d18c982	0.037301548
27	0xbf0ee781	-0.55821997
28	0x3e571249	0.21003069
29	0xbe37c563	-0.17946391
30	0xbc033dbe	-0.008010326
31	0x3df75a5c	0.120777816
32	0xbdf4c85e	-0.119522795
33	0x3d86eca5	0.06588105
34	0x3cac3e00	0.021025658
35	0xbf7bab2a	-0.9830805
36	0x3e5c6085	0.21521194
37	0x3e19d66c	0.15023202
38	0x3e3d2506	0.18471155
39	0xbecb7e91	-0.39745
40	0x3e044dcf	0.12920307
41	0x3ebe6bb9	0.3719156
42	0x3bf29da8	0.007404048
43	0x3e13eb58	0.14445245
44	0x3c370ad1	0.011172012
45	0x3c9f29dd	0.019429142
46	0x3e089260	0.13337088
47	0x3d90629d	0.07050059
48	0x3d57e4ae	0.05270832
49	0x3e15e939	0.14639749
50	0x3da2d52b	0.07950815
51	0x3e6df088	0.23236287
52	0x3cd68173	0.026184773
53	0x3df28b84	0.11843017
54	0xbdcf2138	-0.10113758
55	0xbcfa630f	-0.030564813
56	0x3afec72a	0.0019438018
57	0x3d741787	0.05959275
58	0x3c39b0e5	0.011333679
59	0x3d5797db	0.052635055
60	0xbd60e4b4	-0.05490561
61	0x3c79c4cd	0.015244675
62	0x3e070c97	0.13188396
63	0x3d2c9080	0.042129993
64	0x3e40b063	0.18817286
65	0xbdb9794e	-0.0905634
66	0x3ca536c2	0.020167712
67	0x3cca600f	0.024704007
68	0xbdace82f	-0.08442723
69	0xbe27fc78	-0.16404903
70	0x3e05ba31	0.13059308
71	0x3d23dcfa	0.04000566
72	0xbca34519	-0.01993041
73	0x3dd2e1fd	0.1029701
74	0xbea971ef	-0.33094737
75	0xbc55168d	-0.013005865
76	0x3e2c78d1	0.16842963
77	0x3dba2f4f	0.09091055
78	0x3e1ecaf4	0.15507108
79	0x3e949637	0.29020855
80	0x3ca2e9b6	0.019886833
81	0xbc931d9a	-0.017958451
82	0xbc8755b3	-0.016520357
83	0xbe2ce221	-0.16883136
84	0x3cbb8a4c	0.022893094
85	0xbd6ac78c	-0.05731921
86	0xbd545d8c	-0.051847026
87	0xbe476d1c	-0.19475216
88	0x3e1014c3	0.1407042
89	0x3db03110	0.08603108
90	0xbeacea90	-0.33772707
91	0xbd26f05b	-0.040756565
92	0x3d14bdf0	0.03631395
93	0xbe1fe7f5	-0.15615828
94	0x3db02b8e	0.086020574
95	0x3d86c9eb	0.065814815
96	0x3e7c2b4e	0.24625894
97	0x3dc5d7db	0.09660312
98	0xbe69c51d	-0.22829099
99	0x3e8431e9	0.25819328
100	0xbe474d59	-0.194631
101	0xbf21cdda	-0.6320473
102	0x3a58c4ca	0.000826907
103	0xbef8c1c5	-0.48585334
104	0x3dd17e11	0.102291234
105	0x3d9d4014	0.076782376
106	0x3e049d18	0.12950552
107	0xbe81a3c1	-0.25320247
108	0x3db028f7	0.086015634
109	0x3d8b9c43	0.06816914
110	0xbe02effa	-0.12786856
111	0xba06de38	-0.00051448075
112	0xbe5dca3d	-0.21659179
113	0x3d5f18e6	0.054467104
114	0x3db1210e	0.08648883
115	0xbe05c703	-0.13064198
116	0xbef86f91	-0.48522618
117	0x3e0aec26	0.13566646
118	0xbebbbce5	-0.36667553
119	0x3e19c281	0.15015604
120	0x3d45ac85	0.04826023
121	0x3e043dce	0.12914202
122	0xbe80d08e	-0.25159115
123	0xbb84024f	-0.0040285955
124	0xbf0f151e	-0.558916
125	0x3cdf6d97	0.027273936
126	0x3d840906	0.064470336
127	0xbe243675	-0.16036399
128	0x3e43a7d0	0.19106984
129	0xbe2ee2cb	-0.17078702
130	0x3edf8ac4	0.43660557
131	0x3dfb202a	0.12261994
132	0x3cff76f5	0.031184653
133	0xbcb5b0b6	-0.022178989
134	0xbf8b0069	-1.08595
135	0xbc9c34f1	-0.019068213
136	0xbe2ece0a	-0.17070785
137	0x3c85da78	0.016339526
138	0x3d2b7d44	0.04186751
139	0x3d876e23	0.06612804
140	0x3e03a9db	0.12857763
141	0x3ea1beed	0.31590977
142	0xbe9c879d	-0.30572215
143	0xbe8f5b2c	-0.27999246
144	0x3cb11067	0.021614267
145	0x3dea3172	0.11435212
146	0xbd622760	-0.055213332
147	0x3d42cbab	0.047557514
148	0x3d83776b	0.064192615
149	0x3e17b9ac	0.14816922
150	0x3db8bd4c	0.090204805
151	0xbe414eaa	-0.18877664
152	0x3cbc776a	0.02300616
153	0x3d445735	0.04793473
154	0x3d992fc8	0.07479817
155	0xbda4a09d	-0.08038447
156	0xbd49f500	-0.049305916
157	0xbf05f167	-0.52321476
158	0x3f2a1125	0.6643241
159	0x3b5c8bef	0.0033652743
160	0xbd87bdd9	-0.066280074
161	0xbe16e2e9	-0.14734997
162	0x3dd9d997	0.10637205
163	0x3eb2c284	0.3491403
164	0xbc9df70b	-0.019282838
165	0x3aaddfa1	0.0013265499
166	0xbd8c5244	-0.068516284
167	0x3df2f399	0.11862869
168	0x3b10e606	0.002210976
169	0x3d4c84fb	0.049931508
170	0xbd9cce48	-0.076565325
171	0xbd18b944	-0.037286058
172	0x3e28eb87	0.16496097
173	0x3e01fde2	0.12694505
174	0x3e59651d	0.21229978
175	0x3dc4354d	0.09580479
176	0x3d57e942	0.052712686
177	0xbeb5c71f	-0.3550348
178	0x3d8c3150	0.06845343
179	0x3edee808	0.435364
180	0xbe84722e	-0.25868362
181	0x3e15af24	0.14617592
182	0x3d99f772	0.075178996
183	0xbedb6832	-0.42852932
184	0x3ce9931d	0.028512532
185	0xbe5b4432	-0.21412733
186	0x3e2c9e3d	0.16857238
187	0x3d69e12a	0.0570995
188	0x3dcdc98f	0.1004821
189	0x3d39f9d3	0.045404267
190	0x3db14a08	0.086566985
191	0x3c123c2b	0.008925478
192	0x3e6068ae	0.21914932
193	0x3da3be75	0.07995311
194	0x3bb2ea37	0.0054600495
195	0x3f134c26	0.5753807
196	0x3e5de275	0.21668418
197	0x3e2b2206	0.16712198
198	0xbe79ac26	-0.24382076
199	0x3e045d6a	0.1292626
200	0x3d12c739	0.035834525
201	0x3d286526	0.041112088
202	0xbf3f8969	-0.74819046
203	0x3d0536e4	0.03252305
204	0x3e03ebcf	0.12882923
205	0x3c62e61a	0.013848806
206	0x3c9a9709	0.018870847
207	0x3daefc0a	0.085441664
208	0x3d9e110c	0.07718095
209	0x3d76961b	0.060201745
210	0x3c77bc77	0.015120617
211	0x3d3953a6	0.04524579
212	0x3d1168b9	0.035500262
213	0x3dd553d9	0.10416383
214	0x3d07902b	0.033096474
215	0xbeab322b	-0.33436713
216	0xbec4c13e	-0.38428682
217	0x3de22c3b	0.110435925
218	0x3e5e237d	0.21693225
219	0x3d33c819	0.043892
220	0xbe52befa	-0.20580664
221	0x3df3a1f8	0.118961275
222	0x3dc9765b	0.09837028
223	0x3d87a5f5	0.06623451
224	0xbd186980	-0.037209988
225	0xbe25be0f	-0.16185783
226	0x39852db2	0.00025401782
227	0x3dda880f	0.10670482
228	0x3df50755	0.11964289
229	0xbeab9564	-0.33512414
230	0x3db7c641	0.08973361
231	0xbf195b48	-0.5990491
232	0x3e4859fb	0.19565575
233	0x3f0f5add	0.5599802
234	0x3ed6ed51	0.41977933
235	0x3c3b9535	0.011449148
236	0x3da88c5e	0.08229898
237	0x3dcdb244	0.10043767
238	0x3de51ccf	0.111871354
239	0x3d5d1bf4	0.053981736
240	0x3dd823c3	0.10553696
241	0xbee58eb3	-0.44835433
242	0x3e253edf	0.16137265
243	0x3e4e5a59	0.20151652
244	0x3e2879ec	0.1645276
245	0x3e09cb05	0.13456352
246	0x3d88f04d	0.06686459
247	0x3e3a9e1c	0.18224376
248	0x3e44fcab	0.1923701
249	0x3d8f552d	0.06998668
250	0xbe03930d	-0.12849064
251	0xbe3cf7b2	-0.18453863
252	0xbc70efe5	-0.014705633
253	0x3d32f3ff	0.043689724
254	0x3dd59b77	0.10430043
255	0xbd1ea2f5	-0.038729627

q1.2.bias f4 [256]
0	0x3d562b45	0.05228736
1	0x3d801bca	0.062553
2	0x3ceac1aa	0.0286568
3	0xbc7c15a4	-0.015386019
4	0x3d48345c	0.04887806
5	0x3d50cede	0.050978534
6	0x3d130a2f	0.035898384
7	0x3d8c83d2	0.0686108
8	0x3d2ba207	0.04190257
9	0x3d0f56e9	0.034994993
10	0x3c5a5e02	0.013328077
11	0x3d67544e	0.056476884
12	0x3cb37bc7	0.021909608
13	0x3d445369	0.04793111
14	0x3bc6c50d	0.0060659708
15	0x3dbe4730	0.09290922
16	0xbcc4dc09	-0.024030702
17	0xbc571e31	-0.013129757
18	0x3c678b44	0.014132325
19	0x3d8adcd9	0.067804046
20	0x3da0db37	0.07854312
21	0x3cf9c29b	0.030488303
22	0x3d71cb64	0.05903186
23	0x3d97d74a	0.0741411
24	0x3db283c1	0.08716536
25	0x3cf440a4	0.02981598
26	0x3ca5de7e	0.020247694
27	0xbda268a9	-0.079301186
28	0x3d340500	0.04395008
29	0xbcfa2993	-0.030537402
30	0x3d7efe9b	0.06225453
31	0x3e04c29e	0.12964866
32	0x3dca85cc	0.09888801
33	0x3dd48c31	0.10378302
34	0x3c862fa2	0.016380135
35	0x3cd59992	0.026074205
36	0x3d81cd36	0.06337969
37	0xbbecd4c1	-0.0072275107
38	0xbcd08426	-0.025453638
39	0x3df4dae5	0.11955813
40	0xbd354769	-0.044257555
41	0xbceed089	-0.029152172
42	0x3d9ff101	0.0780964
43	0x3d812126	0.06305151
44	0x3b6cbfb4	0.0036125006
45	0x3d657e6d	0.056028772
46	0x3c49a7b3	0.012308049
47	0x3dffcb28	0.12489921
48	0xbba01a1a	-0.004885924
49	0x3d87861b	0.066173755
50	0x3d0a9ad9	0.03383908
51	0xbc11943b	-0.008885439
52	0x3ceadcfe	0.02866983
53	0xbc3101be	-0.010803638
54	0xbc97f3e0	-0.018548906
55	0x3d44e327	0.04806819
56	0x3e04731d	0.12934537
57	0x3d2a61c8	0.041597158
58	0xbd3a80fa	-0.045533158
59	0x3d93c156	0.0721461
60	0xbc0b7cf3	-0.008513677
61	0x3d3773e3	0.044788253
62	0xbc7ba624	-0.015359435
63	0x3db8bec2	0.09020759
64	0x3d32bdb1	0.043637935
65	0xbc863f25	-0.016387532
66	0xbc994d2a	-0.018713553
67	0x3dcc6de7	0.099819
68	0x3ca06437	0.019579036
69	0x3bce5426	0.0062966524
70	0x3cc5898d	0.02411344
71	0x3da4d3cb	0.08048209
72	0x3d8efc2c	0.06981692
73	0x3d73d9fe	0.059534065
74	0x3d1d2d52	0.0383733
75	0x3c5666ec	0.013086062
76	0xbc9210c5	-0.017830262
77	0x3d9efe43	0.0776334
78	0x3dd3f6dd	0.1034982
79	0x3d956371	0.072943576
80	0x3d5edad2	0.054407902
81	0x3d6919f0	0.0569095
82	0x3d8543af	0.0650705
83	0x3c9fa54f	0.019488005
84	0x3d6983af	0.05701035
85	0x3d74b6b2	0.059744544
86	0xbd4b3931	-0.04961509
87	0x3d9d9706	0.07694821
88	0x3d973324	0.07382801
89	0x3d863006	0.065521285
90	0x3e0edeb5	0.13952143
91	0xbc5aadec	-0.01334713
92	0xbc011685	-0.007878904
93	0x3d289a76	0.04116293
94	0x3c6569cd	0.014002276
95	0xbcdad784	-0.026714094
96	0x3cf4496f	0.029820172
97	0x3a03ebe5	0.00050324044
98	0xbbbdc7c9	-0.0057916385
99	0x3d973dd5	0.073848404
100	0xbc225e79	-0.009910219
101	0xbc1bc934	-0.00950842
102	0x3c62c778	0.013841502
103	0x3cb55566	0.022135448
104	0x3c83ab90	0.016073018
105	0x3e04c77d	0.12966724
106	0x3afcab71	0.0019277168
107	0x3d82ce35	0.06386987
108	0x3c14c6d6	0.009080609
109	0x3dabb2f9	0.08383746
110	0xbc4e18c2	-0.012579145
111	0x3c4b67f0	0.012414917
112	0xbc8fc7c8	-0.017551318
113	0xbce51d7a	-0.027968157
114	0xbc7771ce	-0.015102817
115	0x3ca6a5c1	0.02034271
116	0x3d5e719a	0.054307558
117	0xbcd73920	-0.026272357
118	0xbc9f3bd5	-0.01943771
119	0x3d266210	0.040620863
120	0x3dfbdf43	0.12298443
121	0x3a28aa48	0.0006434065
122	0x3d8a871e	0.06764053
123	0xbd892393	-0.06696238
124	0xbcc73de9	-0.024321513
125	0xbd27d8d5	-0.04097827
126	0xbb50c2a8	-0.0031854305
127	0x3d6095df	0.05483043
128	0xbc7feb10	-0.015620008
129	0x3cc371bb	0.023857942
130	0x3d85e658	0.06538075
131	0x3c1ec86a	0.009691337
132	0xb9c0ed1e	-0.0003679776
133	0xbcc6cbce	-0.024267104
134	0x3d9aa9a1	0.075518854
135	0x3da4cee1	0.080472715
136	0x3d1cf001	0.038314823
137	0x3ba50475	0.0050359317
138	0x3df576d7	0.119855575
139	0x3d20afe7	0.039230254
140	0xbbb46ddd	-0.005506261
141	0x3d268e48	0.040663034
142	0x3bb87d42	0.0056301663
143	0x3d8afd3a	0.067865804
144	0xbd04bbf7	-0.03240582
145	0x3bd37d23	0.0064541264
146	0x3d0b65b1	0.034032527
147	0x3ce5d179	0.028053986
148	0x3dd482ce	0.103765115
149	0xbc1821de	-0.009285418
150	0x3d7b551c	0.061360464
151	0xbbc75686	-0.0060833124
152	0x3cb5f5c2	0.022211913
153	0x3dc464c8	0.09589535
154	0x3c38ddca	0.011283347
155	0x3d868ee2	0.065702215
156	0xbcdb2a50	-0.026753575
157	0x3d935c66	0.07195358
158	0x3c041cc7	0.008063502
159	0x3d9c2a2a	0.0762523
160	0x3d284fa9	0.041091595
161	0x3db0f071	0.086396106
162	0x3cc205e2	0.023684446
163	0x3cfad005	0.03061677
164	0x3cdd96ec	0.027049504
165	0xbc2030ac	-0.009777229
166	0x3d853c3e	0.06505631
167	0xbcc655b1	-0.024210783
168	0x3cd4cc4a	0.025976319
169	0xbc046269	-0.008080103
170	0xbc25962c	-0.010106605
171	0xbcac4d35	-0.021032909
172	0x3bde78c6	0.0067892997
173	0x3d84748f	0.06467544
174	0x3d901d5d	0.070368506
175	0x3c4ef1c2	0.012630882
176	0xbc994b4a	-0.018712658
177	0x3df350f0	0.11880672
178	0x3dbcad4b	0.092127405
179	0x3c61314a	0.013744662
180	0x3cd0fced	0.02551123
181	0x3d04e09f	0.032440778
182	0x3db71285	0.08939079
183	0x3dabe345	0.083929576
184	0x3d700121	0.058594827
185	0x3e08b763	0.13351206
186	0xbc19e231	-0.009392307
187	0x3d467b94	0.048457697
188	0x3d93bf70	0.07214248
189	0x3d0c4191	0.034242216
190	0x3d68d8c8	0.056847364
191	0x3d0742a3	0.033022534
192	0xbd6640d3	-0.056214165
193	0xbcde4019	-0.027130174
194	0x3d44f461	0.04808462
195	0x3e1fb365	0.15595777
196	0x3de73cc7	0.11290889
197	0x3ad19541	0.0015989916
198	0xbcaa2822	-0.02077109
199	0x3dc617a4	0.09672478
200	0x3c3585c2	0.011079254
201	0x3d555e50	0.052091897
202	0x3c4c3648	0.0124641135
203	0xbc18bfb6	-0.009323051
204	0x3cec1899	0.028820323
205	0x3d1dbe9f	0.03851187
206	0xbcce55c4	-0.02518738
207	0x3d21b339	0.03947756
208	0x3cdf7aec	0.027280293
209	0x3db5a63d	0.08869598
210	0x3d976c30	0.07393682
211	0x3d807c70	0.062737346
212	0x3d6eb161	0.05827463
213	0x3da5494a	0.080706194
214	0x3c8f2a04	0.01747609
215	0xbcadfda6	-0.021239113
216	0x3b588737	0.0033039579
217	0xbd283401	-0.04106522
218	0xbbbb0906	-0.005707863
219	0x3d7b0148	0.06128052
220	0x3d423718	0.047415823
221	0xbd2d0a5c	-0.042246208
222	0xbc7d36ad	-0.01545493
223	0x3cf59c7d	0.029981846
224	0x3d926a06	0.071491286
225	0x3d4372d5	0.047716934
226	0x3d50ae46	0.05094745
227	0xbd246568	-0.04013577
228	0x3d78a747	0.060706403
229	0xbcbd0757	-0.023074789
230	0x3d1760fd	0.03695773
231	0x3d839882	0.06425573
232	0x3c22e714	0.009942789
233	0xbcca134e	-0.024667408
234	0x3cd7594b	0.026287695
235	0x3d086a01	0.03330422
236	0x3d59d544	0.0531819
237	0x3d5b32de	0.053515308
238	0xbd4a1852	-0.0493396
239	0x3cfed2d6	0.031106394
240	0x3abab714	0.0014245235
241	0x3d99b7e0	0.075057745
242	0xbc40340f	-0.011731162
243	0x3d4fc231	0.050722305
244	0x3de69f46	0.11260848
245	0xba40b017	-0.0007350458
246	0x3d562346	0.052279733
247	0x3c6aa287	0.014320976
248	0xbbd6282e	-0.0065355515
249	0xbd1c6149	-0.038178716
250	0x3df6bbeb	0.12047561
251	0xbad98b71	-0.0016597343
252	0x3d937768	0.07200509
253	0x3cb1e05d	0.02171343
254	0x3d5bda07	0.053674724
255	0x3d4c605a	0.049896576

q1.4.weight f4 [1, 256]
0	0x3ecffcfe	0.40622705
1	0xbe43c34f	-0.19117473
2	0xbea6de35	-0.32591406
3	0x3ee30884	0.44342434
4	0x3ed98dfb	0.42491135
5	0xbea6d9db	-0.32588086
6	0x3f020aff	0.5079803
7	0x3f83e78e	1.030504
8	0xbf11a29d	-0.56888753
9	0xbeab549b	-0.33462986
10	0xbeb3ff14	-0.35155547
11	0x3ebe8909	0.37213925
12	0xbe603699	-0.21895827
13	0xbe93be86	-0.28856295
14	0x3f116c98	0.56806326
15	0xbebb7a77	-0.3661687
16	0xbebbde98	-0.36693263
17	0xbe63da21	-0.22251178
18	0xbe5cbbf6	-0.21556076
19	0x3f20fb5d	0.6288355
20	0xbe8c9d40	-0.27463722
21	0x3ec18ef1	0.37804368
22	0x3eccef42	0.4002629
23	0xbec7a1bc	-0.3899058
24	0xbe60d2c1	-0.21955396
25	0xbe9b1340	-0.30288124
26	0x3f0a07db	0.53918236
27	0x3f037d82	0.51363385
28	0xbeaf235e	-0.3420667
29	0xbeab0f2f	-0.33410022
30	0x3f1fd9a0	0.62441444
31	0x3eadeb2e	0.3396849
32	0x3f823079	1.0171043
33	0xbed19828	-0.40936399
34	0x3f0d52ef	0.5520467
35	0xbed2591e	-0.41083616
36	0xbec2c76c	-0.38042772
37	0xbeb1ee73	-0.34752235
38	0xbebc5e2b	-0.36790594
39	0x3ec619e1	0.3869162
40	0x3f815819	1.010501
41	0x3f3c006b	0.7343814
42	0x3f101d3d	0.56294614
43	0x3ebd3e0f	0.3696141
44	0xbe93f0c6	-0.28894633
45	0xbe4a4c7f	-0.19755743
46	0xbe5cd740	-0.21566486
47	0xbec9d0f3	-0.39417228
48	0x3efad21d	0.4898843
49	0xbf0d0256	-0.5508169
50	0xbec22f69	-0.37926796
51	0x3f1bf3fd	0.6091917
52	0xbe70af33	-0.23504333
53	0x3f17006d	0.58985025
54	0xbe67fd6e	-0.2265527
55	0xbe650b20	-0.22367525
56	0x3ecd7087	0.40124914
57	0xbeb0f47e	-0.34561533
58	0x3f21643e	0.6304358
59	0xbe9ec69b	-0.310109
60	0xbeba2e43	-0.3636342
61	0xbe7307a9	-0.23733391
62	0xbe74fa3b	-0.2392358
63	0x3f873071	1.0561658
64	0x3ed880c3	0.42285737
65	0x3f06ea00	0.52700806
66	0xbe592ac2	-0.21207717
67	0x3ecf0883	0.4043618
68	0xbe56aa3f	-0.20963381
69	0xbe55da3c	-0.20884031
70	0xbebc7b6a	-0.36812907
71	0xbe6f4f28	-0.2337004
72	0xbed00efd	-0.40636435
73	0xbeadb9af	-0.33930728
74	0xbef0d98f	-0.47040984
75	0xbeab6d92	-0.33482033
76	0xbeb8bb31	-0.36080316
77	0x3eb577bd	0.35442916
78	0xbe9cbd1d	-0.30613032
79	0xbecc412e	-0.39893478
80	0xbe5b6f8c	-0.2142927
81	0x3f59144f	0.84796613
82	0xbeb9b8f4	-0.3627392
83	0x3ec11b98	0.37716365
84	0x3ec2eca7	0.38071176
85	0x3ebc9c2d	0.36837903
86	0x3f236d7a	0.6383892
87	0xbefb74db	-0.4911259
88	0x3eb80253	0.35939273
89	0x3ec4e9b2	0.38459545
90	0xbec2b784	-0.38030636
91	0x3f05de33	0.52292174
92	0x3f044563	0.51668376
93	0xbee270fe	-0.4422683
94	0x3f3152e1	0.6926709
95	0x3f2cfecb	0.67576283
96	0x3ebdb6a1	0.37053397
97	0x3ecf709c	0.40515602
98	0xbe7a70c9	-0.24457087
99	0x3f18b3ef	0.59649557
100	0x3f0ecb2e	0.5577878
101	0xbed14524	-0.40873063
102	0xbef651fb	-0.4810942
103	0x3f1217dc	0.57067657
104	0xbf0e465e	-0.5557612
105	0x3f10418a	0.56350005
106	0x3ee4a6ad	0.44658414
107	0xbeb211d1	-0.34779218
108	0x3edfd679	0.43718317
109	0x3f046cc9	0.5172849
110	0x3f6edb6e	0.93303573
111	0xbea9d397	-0.33169243
112	0xbec4a73b	-0.38408837
113	0xbe5c6655	-0.21523412
114	0x3efd8822	0.49517924
115	0x3ef5c8cc	0.48004758
116	0xbee264c5	-0.44217506
117	0x3f18bd26	0.5966362
118	0x3f1abd78	0.60445356
119	0x3f0c4b67	0.54802555
120	0xbec69400	-0.3878479
121	0x3f625cf1	0.8842307
122	0x3eb8be4d	0.36082688
123	0x3ef53a94	0.47896254
124	0x3f03b238	0.51443815
125	0x3f0006e9	0.50010544
126	0x3ee90441	0.45511058
127	0xbea25eea	-0.3171304
128	0x3f007b4e	0.5018815
129	0x3ef82e8f	0.4847302
130	0xbe9b4aa5	-0.30330387
131	0xbe3d15d5	-0.1846536
132	0x3f1985e7	0.59969944
133	0xbf01c564	-0.5069182
134	0xbe67fbb7	-0.22654615
135	0x3ec448b6	0.38336724
136	0x3f05e6b2	0.5230514
137	0xbe83f12c	-0.25769937
138	0x3ebc9f0b	0.3684009
139	0x3f0a8813	0.5411388
140	0xbead8064	-0.33887017
141	0xbe8ed2d6	-0.2789523
142	0xbe8165d7	-0.2527301
143	0xbebb423d	-0.36573973
144	0xbe76f5b9	-0.24117173
145	0xbed4f5d8	-0.41593814
146	0x3ea76868	0.32696843
147	0x3f130c82	0.5744096
148	0xbe9584d7	-0.2920291
149	0x3edaa5cd	0.4270462
150	0xbe9f4f4e	-0.31115192
151	0x3f13f890	0.5780115
152	0x3ee9e91a	0.45685655
153	0x3edc06e7	0.42974016
154	0xbea84396	-0.32864064
155	0xbe6b323b	-0.2296838
156	0x3f072267	0.5278687
157	0x3ed02d0a	0.40659362
158	0x3f17a44f	0.5923509
159	0xbec07973	-0.37592658
160	0xbefc9562	-0.4933272
161	0x3eb9e389	0.36306408
162	0xbea66d2c	-0.32505167
163	0x3f035698	0.51304007
164	0x3eccf58b	0.40031084
165	0x3ee8ff16	0.45507115
166	0xbe4fcf4b	-0.2029392
167	0xbe62c219	-0.22144355
168	0xbe91fc55	-0.28512827
169	0x3f0315bb	0.51205033
170	0x3efd2c96	0.4944808
171	0xbebd48f0	-0.3696971
172	0xbed365ec	-0.41288698
173	0x3f08badc	0.53410125
174	0xbefaacbc	-0.4895991
175	0x3f04b024	0.5183127
176	0x3f0790a8	0.529551
177	0xbe4a8197	-0.19775997
178	0x3f5722ce	0.8403748
179	0x3f1cee74	0.6130135
180	0x3f265ff4	0.6499016
181	0xbe4701ad	-0.19434233
182	0xbe96e5a1	-0.29472068
183	0xbe819d78	-0.25315452
184	0xbf036301	-0.5132294
185	0xbecdff96	-0.4023406
186	0xbe73d682	-0.23812297
187	0xbe84ebf0	-0.25961256
188	0xbe842c6d	-0.25815144
189	0xbead15a8	-0.33805585
190	0xbeb3b27f	-0.3509712
191	0xbec45cd5	-0.38352075
192	0x3efb4f4e	0.49083942
193	0x3f10f872	0.566291
194	0x3f065165	0.5246795
195	0x3eda6a07	0.42659017
196	0x3ebe2573	0.37137946
197	0xbe6829f3	-0.22672252
198	0x3ecfc73e	0.40581697
199	0xbecf269c	-0.40459144
200	0xbeb63c1d	-0.35592738
201	0x3ed399e9	0.41328362
202	0xbea66757	-0.32500717
203	0xbee987e5	-0.45611492
204	0xbeb8abbc	-0.36068523
205	0x3f06d12b	0.52662915
206	0x3ecb9cb9	0.39768007
207	0xbe4d31c7	-0.2003852
208	0xbe623916	-0.22092089
209	0x3eb2798f	0.34858367
210	0x3ee8b262	0.45448595
211	0x3eec5212	0.46156365
212	0xbebe195d	-0.37128726
213	0x3ec68fd8	0.3878162
214	0x3eed96a3	0.4640399
215	0x3ed16740	0.40899086
216	0xbe5fd655	-0.21859105
217	0x3eacf1b1	0.33778146
218	0x3f0dd718	0.5540633
219	0xbe82edd9	-0.25572088
220	0xbefa5483	-0.48892602
221	0x3ee24a12	0.44197136
222	0x3f4badf4	0.79562306
223	0x3f8c4877	1.0959615
224	0xbefe613c	-0.4968356
225	0x3eebc348	0.46047425
226	0xbea92e1b	-0.33042988
227	0x3f031161	0.51198393
228	0x3f0dd949	0.55409676
229	0x3ee9ddae	0.4567694
230	0x3ed6fc0f	0.4198918
231	0x3f0452ae	0.5168866
232	0x3f07a48a	0.5298544
233	0x3f121876	0.57068574
234	0xbe7fe943	-0.24991326
235	0x3f187889	0.5955892
236	0x3f49daa6	0.78849256
237	0xbec31440	-0.38101387
238	0x3f115abc	0.56779075
239	0xbed7c291	-0.4214063
240	0x3f68fa53	0.91006964
241	0xbed4f9e4	-0.415969
242	0x3f1ac878	0.6046214
243	0x3f08bd15	0.53413516
244	0x3eb7a199	0.35865477
245	0xbed8e487	-0.42361853
246	0xbef00a7b	-0.46882996
247	0xbebcfc80	-0.36911392
248	0xbe82115e	-0.25403875
249	0x3f1b16f4	0.605819
250	0xbec993b1	-0.39370492
251	0xbe9ed1ab	-0.3101934
252	0xbe99c165	-0.3003036
253	0x3f0bf264	0.54666734
254	0xbe5d13d3	-0.21589594
255	0xbe568832	-0.20950392

q2.0.weight f4 [256, 15]
0	0x3f37297c	0.71547675
1	0xbf2d280b	-0.67639226
2	0xbeed5ce1	-0.46359923
3	0xbd9a24f8	-0.075265825
4	0x3dca4bc8	0.098777354
5	0x3b01c780	0.001980275
6	0xbe9a08f1	-0.30084947
7	0xbd3479b4	-0.044061378
8	0xbe17ec11	-0.14836146
9	0x3e8fb563	0.28068075
10	0xbe2ee0eb	-0.17077987
11	0x3d8dda9b	0.06926461
12	0xbe84f473	-0.2596775
13	0x3b59f1f3	0.0033255785
14	0xbd72183c	-0.059105143
15	0xbea70e6e	-0.32628196
16	0xbdd266a6	-0.10273485
17	0xbe301ba0	-0.17198038
18	0x3e2906b2	0.1650646
19	0xbe796f20	-0.24358797
20	0xbe074548	-0.13210022
21	0xbd249b4a	-0.040187158
22	0xbef0ce34	-0.4703232
23	0xbde9e228	-0.11420089
24	0x3e089073	0.13336353
25	0xbda308a7	-0.07960635
26	0x3ebef278	0.37294364
27	0x3e00b32d	0.1256835
28	0x3ebb06a5	0.36528507
29	0xbd12f972	-0.03588242
30	0xbe9fe908	-0.31232476
31	0x3e3343ef	0.17506383
32	0xbe8c1c0f	-0.27365157
33	0xbe21def2	-0.15807703
34	0xbdc6035a	-0.09668608
35	0xbe7cb884	-0.24679762
36	0x3e66b41b	0.22529642
37	0xbbbf3ba4	-0.005835967
38	0xbd35ae0b	-0.044355433
39	0xbe44afd0	-0.19207692
40	0x3da4213f	0.08014154
41	0x3f410bf5	0.7540887
42	0x3dd89cd7	0.1057679
43	0xbebf5ab9	-0.37373903
44	0x3e6a4ec8	0.22881615
45	0xbebe6813	-0.37188777
46	0x3da28e53	0.079373024
47	0x3e1a999e	0.15097663
48	0x3e828227	0.25489923
49	0xbc34e440	-0.011040747
50	0xbe6fe774	-0.23428136
51	0xbe2e72d0	-0.17035985
52	0x3cc2e3df	0.023790298
53	0xbde790b9	-0.113069005
54	0xbf1b620d	-0.6069649
55	0xbd99e3a3	-0.075141214
56	0xbe61fc42	-0.22068885
57	0xbea10d32	-0.3145538
58	0xbedb117e	-0.42786783
59	0xbf0f702b	-0.5603053
60	0xbd08ec34	-0.033428386
61	0xbc762930	-0.015024468
62	0xbd9fd678	-0.078045785
63	0x3e125ab6	0.14292416
64	0xbe17cb3d	-0.14823623
65	0x3e34a052	0.17639282
66	0xbe27cdb6	-0.16387066
67	0x3ca77340	0.020440698
68	0xbd8cf5e4	-0.068828374
69	0xbe480eac	-0.19536847
70	0x3da802d8	0.082036674
71	0xbde5781a	-0.11204548
72	0x3e7efe92	0.24901798
73	0xbe085c01	-0.13316347
74	0x3b0de980	0.002165407
75	0x3e31db08	0.1736871
76	0x3e0d79b8	0.13815963
77	0x3e944964	0.28962243
78	0xbc611770	-0.013738498
79	0xbe618a4e	-0.22025415
80	0x3d926710	0.07148564
81	0x3e12fcae	0.14354202
82	0xbe99d993	-0.30048808
83	0x3ec8a095	0.39185014
84	0xbef835d5	-0.4847857
85	0x3da76917	0.08174341
86	0xbe869260	-0.2628355
87	0x3e5d3443	0.21601968
88	0x3de0951a	0.10965939
89	0x3ea25b88	0.31710458
90	0xbe6848f3	-0.22684078
91	0x3e1e5e51	0.15465666
92	0x3e384597	0.17995296
93	0xbe182108	-0.1485635
94	0xbe5682b5	-0.20948298
95	0x3a1c7800	0.0005968809
96	0xbd0ee9b0	-0.03489083
97	0x3e752178	0.23938549
98	0xbe4518cf	-0.19247745
99	0x3db95436	0.09049265
100	0x3dcf379c	0.101180285
101	0xbd83f77b	-0.064436875
102	0x3f557c15	0.8339246
103	0xbe9fd756	-0.31218976
104	0xbcac4f6f	-0.02103397
105	0x3e0b8e39	0.13628472
106	0xbc1c11a2	-0.009525688
107	0x3e01f1f4	0.12689954
108	0x3e6c3a36	0.2306908
109	0x3e2c54e6	0.16829261
110	0x3d912e94	0.07088962
111	0x3c19d5c2	0.009389343
112	0xbf8af231	-1.0855161
113	0x3c755b82	0.01497543
114	0xbe9116e6	-0.28337783
115	0xbdb22d13	-0.087000035
116	0x3e35636d	0.17713709
117	0xbf8625c3	-1.0480274
118	0xbe46b51b	-0.19405024
119	0xbe725ec7	-0.23668967
120	0xbd965cb1	-0.07341898
121	0x3d43600e	0.047699027
122	0x3eb04cc8	0.3443358
123	0x3e5c21d8	0.21497285
124	0xbd674ab8	-0.05646774
125	0x3cfeb920	0.031094134
126	0xbe37788c	-0.17917079
127	0x3ecdcba4	0.40194428
128	0xbdddfc9e	-0.108391985
129	0x3e861ce5	0.2619392
130	0x3d190fd6	0.037368618
131	0x3c1946d5	0.009355267
132	0x3efade22	0.489976
133	0xbe937737	-0.2880189
134	0xbeec628a	-0.4616893
135	0xbede4d49	-0.4341834
136	0x3e6bddc1	0.23033811
137	0xbe0b34ae	-0.13594314
138	0x3e067b80	0.13133049
139	0x3df654f0	0.12027919
140	0x3e6b114c	0.22955817
141	0x3e8837d2	0.26605088
142	0xbd4cd247	-0.050005224
143	0x3e646f6b	0.22308128
144	0x3e235eb8	0.15954101
145	0xbde37a3f	-0.11107301
146	0x3ef21711	0.47283223
147	0xbe8a840e	-0.27053875
148	0x3e5b51fa	0.2141799
149	0x3d5a9ae2	0.053370364
150	0x3d3ce429	0.046116028
151	0xbe9d0076	-0.30664414
152	0xbeb23e98	-0.3481338
153	0xbe632f91	-0.22186114
154	0x3d1a1340	0.037616014
155	0xbcfd52b8	-0.030923232
156	0xbd4ce5e7	-0.05002394
157	0x3e6523b0	0.22376895
158	0x3d6b4964	0.057443038
159	0x3e39da30	0.18149638
160	0xbe75a597	-0.23988949
161	0xbc2c743e	-0.010525761
162	0xbe2602da	-0.16212025
163	0x3e68254f	0.22670482
164	0x3e12e78a	0.14346138
165	0xbd2c9cce	-0.042141728
166	0x3e4ec980	0.20194054
167	0xbf4865f7	-0.78280586
168	0xbd350050	-0.04418975
169	0x3e5d7ae0	0.21628904
170	0x3e5db5b2	0.21651343
171	0x3d329cc3	0.04360653
172	0xbdbe2735	-0.09284822
173	0xbdf85eea	-0.121274784
174	0x3e6c14bb	0.23054783
175	0xbe53ceb9	-0.20684327
176	0x3ec989f1	0.39363053
177	0xbeac4868	-0.33648992
178	0xbc50f237	-0.012753061
179	0x3ee74671	0.4517093
180	0x3e2f52c3	0.17121415
181	0x3e242385	0.16029175
182	0xbe4a3123	-0.19745307
183	0xbd45ee2c	-0.04832284
184	0x3e12eaba	0.14347354
185	0x3cbc8d60	0.023016632
186	0xbdb94048	-0.09045464
187	0x3e503a7d	0.20334812
188	0xbe0d6346	-0.13807401
189	0xbe6c9ee7	-0.23107491
190	0xbdd7de6c	-0.105404705
191	0x3f17f043	0.59350985
192	0x3ca90a0a	0.02063467
193	0x3da7cd61	0.0819347
194	0x3ebffd15	0.37497774
195	0x3e227cf6	0.15867981
196	0xbdf41c3d	-0.119194485
197	0xbebebea4	-0.37254822
198	0xbe542247	-0.20716201
199	0xbdc4096c	-0.095721096
200	0x3c5fcfa0	0.0136603415
201	0xbd9d5ef3	-0.07684126
202	0xbe84ccca	-0.25937492
203	0xbdb0ebff	-0.08638763
204	0x3e5b4f2f	0.21416925
205	0x3e3b2c7c	0.18278688
206	0x3f0168f4	0.5055077
207	0xbf651904	-0.89491296
208	0x3e979d2c	0.296121
209	0x3ee73c90	0.45163393
210	0x3de88c48	0.113548815
211	0xbe7868a9	-0.24258675
212	0xbe45b2ca	-0.19306484
213	0xbcd848a0	-0.026401818
214	0xbe1218d8	-0.1426729
215	0x3e842143	0.25806627
216	0xbda7371e	-0.0816481
217	0x3d53f620	0.051748395
218	0x3dce4d90	0.100733876
219	0xbdc00612	-0.09376158
220	0xbd927884	-0.07151893
221	0xbe242cde	-0.1603274
222	0x3e759142	0.23981193
223	0x3d0a6af0	0.03379339
224	0x3de6b564	0.11265066
225	0xbdf1586a	-0.11784442
226	0xbe84dfce	-0.25952
227	0x3e9012d9	0.2813938
228	0x3e450d1e	0.19243285
229	0xbe239d78	-0.15978038
230	0x3d11fdb0	0.035642326
231	0xbedeb2df	-0.43495843
232	0xbd9d0d0b	-0.076685034
233	0xbd8be069	-0.06829912
234	0x3e0508cc	0.12991637
235	0x3efd8bbf	0.4952068
236	0xbe0233a2	-0.12715009
237	0xbd3b48bd	-0.045723666
238	0x3e8b66db	0.2722691
239	0xbf0bb3e0	-0.5457134
240	0xbe5821fd	-0.21106716
241	0xbe60c89e	-0.2195153
242	0xbd052060	-0.03250158
243	0xbe11f0df	-0.14252041
244	0xbd488b90	-0.048961222
245	0xbe31a596	-0.17348322
246	0xbe419274	-0.18903524
247	0xbe801e17	-0.25022957
248	0xbe25a8eb	-0.16177718
249	0x3d96fd18	0.073724926
250	0xbb0e9500	-0.0021756291
251	0xbe39f058	-0.1815809
252	0x3d48a7d0	0.048988163
253	0x3d933508	0.07187849
254	0xbcff7278	-0.031182513
255	0x3ea8308a	0.32849532

q2.0.bias f4 [256]
0	0x3da02f25	0.07821492
1	0x3e8cf008	0.2752688
2	0xbe176f3c	-0.14788526
3	0xbc689832	-0.014196442
4	0xbe305889	-0.17221273
5	0xbdba5dfe	-0.09099959
6	0xbd7c5e6f	-0.061613496
7	0xbe79ae37	-0.24382864
8	0x3df9c572	0.12195863
9	0x3c37dc4c	0.011221956
10	0x3ebce0ad	0.36890164
11	0x3e8873c5	0.26650825
12	0x3eb34324	0.35012162
13	0x3e975a2a	0.29560977
14	0xbe4dc370	-0.20094085
15	0x3e6f9743	0.23397546
16	0x3e748d4e	0.23882028
17	0x3cd28ea2	0.025702778
18	0x3de0f098	0.109833896
19	0x3e23e89e	0.16006705
20	0x3e8b7c95	0.27243486
21	0xbe4f2320	-0.20228243
22	0x3df76358	0.12079495
23	0xbd64fb04	-0.05590345
24	0xbe105eb1	-0.14098622
25	0xbdfc5e0e	-0.12322627
26	0x3d47ce3c	0.048780665
27	0x3ebfc81d	0.37457362
28	0xbbf9512c	-0.0076085534
29	0xbe15a2fd	-0.14612956
30	0xbe468ec0	-0.19390392
31	0xbe491146	-0.19635496
32	0x3d437c75	0.047726113
33	0x3e6b0d93	0.22954397
34	0x3e0d1460	0.13777304
35	0xbe453619	-0.19258918
36	0x3deca554	0.11554971
37	0x3e06f179	0.13178052
38	0x3e6530fe	0.2238197
39	0x3e757adb	0.23972647
40	0xbd2d9a60	-0.04238355
41	0x3db3da8f	0.08781921
42	0xbd7881f7	-0.06067082
43	0xbd838a48	-0.064228594
44	0x3e82b2ba	0.25526983
45	0x3b119bc7	0.0022218095
46	0x3dd6a283	0.104802154
47	0x3d5745bd	0.052556742
48	0x3ea13749	0.31487492
49	0x3de9085f	0.1137855
50	0xbe1f361b	-0.15547983
51	0x3e5c6f92	0.21526936
52	0x3d25fbb5	0.04052325
53	0xbdd3d96b	-0.103442036
54	0x3e73857d	0.2378139
55	0xbd614a72	-0.055002637
56	0xbe54be32	-0.20775679
57	0x3d9e4797	0.077284984
58	0x3dbfcec5	0.0936561
59	0xbdfb9f3d	-0.12286232
60	0xbe5bfca6	-0.21483096
61	0x3e696798	0.22793424
62	0x3cb11e4e	0.021620896
63	0x3e86d739	0.26336077
64	0x3c4620bf	0.012092768
65	0x3d5cc49a	0.05389843
66	0x3cc1c19d	0.023651892
67	0xbcca0ed0	-0.024665266
68	0xbe0fa317	-0.14027058
69	0x3e1ed422	0.1551061
70	0xbe8dcbf4	-0.27694666
71	0x3dddad1d	0.10824034
72	0xbd80ec65	-0.06295089
73	0x3e99c36f	0.30031916
74	0x3e42bdf8	0.1901778
75	0xbe26f353	-0.16303758
76	0x3d831650	0.0640074
77	0xbd080456	-0.03320726
78	0x3e6b3032	0.22967604
79	0x3d621cb2	0.055203147
80	0x3d3d0dca	0.04615573
81	0x3e646035	0.22302325
82	0xbdb06c02	-0.08614351
83	0xbdf1ca87	-0.11806207
84	0xbe89a1ab	-0.26881155
85	0x3cd53b46	0.02602924
86	0x3d51d3f0	0.05122751
87	0x3e725f27	0.2366911
88	0x3aa7a157	0.0012789172
89	0xbe1d20fa	-0.15344611
90	0xbe2267ea	-0.15859953
91	0x3e7355b8	0.23763168
92	0xbe28bd1f	-0.16478394
93	0xbe4a3b1a	-0.19749108
94	0x3e3b77dc	0.18307441
95	0x3ed8e90c	0.423653
96	0xbc6cd154	-0.014454205
97	0x3e27139e	0.16316077
98	0xbe1a07c1	-0.1504202
99	0x3ecc088b	0.39850268
100	0x3d3bbbb1	0.045833293
101	0x3d8ed51f	0.069742434
102	0x3dc7fe55	0.09765307
103	0x3ec5580f	0.38543746
104	0xbcf21e4a	-0.029555459
105	0x3d011151	0.031510655
106	0xbd1e6fd9	-0.038680885
107	0xbd038139	-0.03210566
108	0xbdb2c586	-0.08729081
109	0x3dc2cbeb	0.095115505
110	0x3e5aaea8	0.21355689
111	0xbd1145ce	-0.03546696
112	0x3e509490	0.20369172
113	0x3d256113	0.04037578
114	0xbe56fbdf	-0.20994519
115	0x3ea81896	0.32831258
116	0xbe398dfc	-0.18120569
117	0x3d90c24c	0.07068309
118	0x3ce91890	0.028454095
119	0x3dce2d19	0.100671954
120	0x3e85524b	0.26039347
121	0xbe0694c1	-0.13142683
122	0x3d4a46b1	0.049383823
123	0x3e4161f1	0.18885018
124	0x3e2ad4a4	0.16682678
125	0x3ea2df08	0.31810784
126	0xbdf2d4ad	-0.11856971
127	0xbe3114f4	-0.17293149
128	0x3e0a1365	0.13483961
129	0x3d06e775	0.03293558
130	0x3e6a8eb7	0.22906004
131	0x3d17a2ff	0.03702068
132	0x3e75f2cb	0.240184
133	0xbcc16e83	-0.023612266
134	0x3e87f0f6	0.26551026
135	0x3e8477ca	0.25872642
136	0xbe5fa66b	-0.21840827
137	0xbe0be2dc	-0.13660759
138	0xbe315d66	-0.17320785
139	0xbc7bdcb9	-0.015372449
140	0x3dab2fd5	0.083587326
141	0x3dd37c24	0.10326412
142	0x3dbb2169	0.09137232
143	0x3e9b6fa6	0.30358618
144	0x3e9c076a	0.30474406
145	0x3e3d759d	0.18501897
146	0x3e155105	0.14581688
147	0x3d35a904	0.04435064
148	0x3e008cc0	0.12553692
149	0xbc58a978	-0.013223998
150	0xba8e2c4d	-0.0010846943
151	0x3d9ce54e	0.07660924
152	0xbdf8536d	-0.12125287
153	0xbdbf7703	-0.093488716
154	0x3e3bcd16	0.18339953
155	0xbd64c420	-0.055851102
156	0x3e919c59	0.28439596
157	0xbe6cfd57	-0.23143516
158	0xbadf6a55	-0.0017045239
159	0xbe53a92d	-0.20670004
160	0xbe303fc2	-0.17211822
161	0xbcaef8f5	-0.021358946
162	0xbde388e6	-0.11110096
163	0xbd3cb53f	-0.046071287
164	0xbdf89870	-0.1213845
165	0x3e84ce6b	0.25938734
166	0x3de3e040	0.11126757
167	0xbe08fccb	-0.13377683
168	0xbdef7517	-0.11692255
169	0x3d6348a0	0.055489182
170	0x3e9a0683	0.30083093
171	0x3e0e3837	0.13888632
172	0x3cc5d0d0	0.024147421
173	0x3e73290c	0.23746127
174	0x3cc0a99e	0.02351838
175	0xbe5feefd	-0.2186851
176	0xbe55475c	-0.20828003
177	0x3e852edc	0.26012313
178	0x3e610017	0.2197269
179	0xbe06ff6b	-0.13183372
180	0xbe0dce90	-0.13848329
181	0xbdc232cf	-0.09482347
182	0x3e7951ff	0.24347685
183	0x3df2e7a6	0.1186059
184	0x3e56722a	0.20941988
185	0x3ebaef23	0.36510572
186	0x3e720816	0.23635897
187	0x3bf0c478	0.0073476397
188	0x3e32ee79	0.17473783
189	0x3ded5c2a	0.115898445
190	0xbe3b5900	-0.1829567
191	0x3da0cf7c	0.078520745
192	0x3eae9683	0.34099206
193	0xbd844265	-0.06457976
194	0xbe246c89	-0.16057028
195	0x3ec91dc5	0.39280525
196	0x3dc65515	0.09684197
197	0x3ce0f5b2	0.027460907
198	0x3de92976	0.11384861
199	0xbe030873	-0.12796192
200	0xbdb46960	-0.08809161
201	0x3e48b77d	0.19601245
202	0xbe439479	-0.19099607
203	0x3e9d8cff	0.30771634
204	0x3d82c1ca	0.063846186
205	0x3c8cffd2	0.017211828
206	0xbe23c55e	-0.15993258
207	0x3e0a87bc	0.13528341
208	0x3cc591bc	0.024117343
209	0xbe3dc451	-0.1853192
210	0xbd158676	-0.036505185
211	0x3e7cdc3a	0.24693385
212	0x3e945bd6	0.28976315
213	0x3dc73aa8	0.09727985
214	0x3d38636e	0.0450167
215	0x3d4e1997	0.050317373
216	0xbe76999f	-0.2408204
217	0xbddb87de	-0.10719274
218	0xbe1cbb66	-0.15305862
219	0xbc87e905	-0.016590605
220	0x3d0ea125	0.03482165
221	0x3de02984	0.109454185
222	0xbdcffdf7	-0.10155862
223	0xbdac1292	-0.084019795
224	0x3e081da4	0.13292557
225	0xbe3f3092	-0.18670872
226	0x3e462294	0.19349128
227	0x3de785b7	0.11304801
228	0x3e44aa8f	0.19205688
229	0xbd9ba276	-0.07599346
230	0xbdb4f9b6	-0.08836691
231	0x3dccfe32	0.100094214
232	0x3e2dfb7e	0.16990468
233	0x3e29159e	0.16512153
234	0x3c52f95e	0.012876837
235	0x3e99932a	0.2999509
236	0x3e4734d4	0.19453746
237	0xbd5fdcd6	-0.054653965
238	0xbe160025	-0.14648493
239	0x3df16148	0.11786133
240	0xbe4ff09f	-0.20306633
241	0xbe1e9980	-0.15488243
242	0x3e11601c	0.14196819
243	0xbd0b27e1	-0.03397358
244	0x3dbde4fe	0.092721924
245	0xbdeafb3e	-0.11473702
246	0x3de6cf05	0.112699546
247	0x3da1409d	0.07873652
248	0x3e928a5b	0.28621182
249	0x3d9fbe18	0.077999294
250	0xbd1dbd60	-0.03851068
251	0x3e6f5b1f	0.23374604
252	0xbe3b516c	-0.18292779
253	0x3d78e5d2	0.06076605
254	0x3d68dc8b	0.05685095
255	0xbe1dbeb7	-0.15404783
