astar/checkpoints/sac_actor_100.pth (torch, 290116 bytes, 6 tensors)

weight f4 [256, 18]
000000 26 28 27 be e3 c6 00 bd 00 ce e9 bd c1 51 22 3e
       -0.16323909 -0.031439673 -0.114162445 0.15851499
000010 10 9c 57 be cc f8 d0 bd b7 d0 02 be 00 90 3a be
       -0.21055627 -0.10203704 -0.12774931 -0.18218994
000020 a0 27 95 3d 52 08 60 3e 6c cc 97 3e f0 96 2b 3e
       0.072829485 0.21878174 0.2964815 0.16756797
000030 bc 05 85 bd 9e c1 81 3d 97 e0 39 3e 2f 5d 6c 3e
       -0.06495234 0.06335758 0.1815208 0.23082422
000040 ad 49 56 be e1 1b 3f 3e bb f0 a2 3d b9 99 c4 3d
       -0.20926543 0.18662979 0.07956072 0.09599633
000050 a2 1a 21 3e 8e 7d 08 be 54 85 74 3d 1f c1 e8 bd
       0.15732816 -0.13329145 0.059697464 -0.1136496
000060 5e 15 0b bd 49 d9 54 3e 80 50 55 bd c2 a5 ca 3d
       -0.033955924 0.20786013 -0.052078724 0.09894897
000070 66 6e 5c be 3d 9a 1a 3e ef 78 25 3e da 0b 82 bd
       -0.21526489 0.150979 0.16159414 -0.06349917
000080 17 2f 4a be 86 47 64 be 05 db 6b 3e 88 ef d1 3c
       -0.19744526 -0.22292909 0.23032768 0.025626913
000090 a7 de 0b 3d 46 e0 a4 b8 36 d1 4a be c0 fa 90 bd
       0.034147885 -7.8619036e-05 -0.1980637 -0.07079077
0000a0 89 8f 36 3e 20 d0 77 bd c9 82 0e be e1 6e 0f be
       0.17828192 -0.060501218 -0.13917078 -0.1400714
0000b0 37 9e 07 3e c8 0b 17 3e f1 c5 5c 3e be df 2c 3e
       0.13243948 0.14750588 0.21559884 0.16882226
0000c0 f0 84 a6 bc 90 d3 4c bd 3f dc 50 3e d1 fb 57 be
       -0.020327061 -0.05000645 0.20396517 -0.21092154
0000d0 e8 8e 93 3c e4 5e 27 be 94 f2 2b bd d8 ce ea 3c
       0.018012479 -0.16344792 -0.041979387 0.028663084
0000e0 76 d0 c8 bd a4 47 46 be c0 3e 2f 3b 91 e8 6c 3e
       -0.09805386 -0.19363266 0.0026740283 0.23135592
0000f0 00 0c 04 bd 58 5c 68 be 48 eb 85 3c 6a 51 ab bd
       -0.032238007 -0.22691476 0.016347542 -0.08365138
000100 b8 c8 df bd e8 95 2e be dc 3f 21 3d 5c a5 8b bd
       -0.10926956 -0.17049372 0.03936754 -0.06818649
000110 c8 21 a3 3c 83 da 32 be 54 a3 4c bd 75 9a 50 3e
       0.01991357 -0.17466168 -0.04996045 0.2037142
000120 01 8b e7 bc 50 79 bc bc 0b 30 31 3e f4 95 59 bd
       -0.028264524 -0.023007065 0.17303483 -0.053121522
000130 34 93 0a 3d d5 4a 2c 3e 6b 83 9b be 98 9f 54 3c
       0.03383179 0.16825421 -0.303737 0.012977503
000140 4c d2 99 3d 11 cc df 3c 39 29 47 bd 10 4f 37 3e
       0.07510814 0.027318986 -0.048623297 0.17901254
000150 64 21 39 bd fb 82 40 3e 1f 66 07 3e 1a 00 17 be
       -0.04519786 0.18799965 0.1322255 -0.14746132
000160 1d 66 f9 bd f4 bd 23 be a4 fd 20 3e af 7b 48 3e
       -0.1217768 -0.1599043 0.15721756 0.19578432
000170 63 11 9d 3d 28 83 fa 3c 05 0e 1a be 03 5d 34 be
       0.07669332 0.030580118 -0.1504441 -0.17613606
000180 ca 5c 27 3b 93 a2 0c 3e 9f f7 59 be 8c 93 1c bd
       0.0025537484 0.13733892 -0.21285866 -0.03822665
000190 59 2d 90 be ad 4d 48 bd 42 20 e8 3d 24 3b 04 3d
       -0.28159598 -0.048902202 0.11334278 0.032282963
0001a0 65 e8 1c 3e 2f ba 53 3e 56 13 a8 3d c4 3c 4c bd
       0.15323026 0.20676492 0.08206813 -0.049862638
0001b0 50 be 22 3e 32 e4 1b 3d 74 fe 07 3e 50 df 4b 3c
       0.15892911 0.03805942 0.1328066 0.012443379
0001c0 8f fa 0e be 89 70 2f be a4 77 3b 3e 58 2d 15 be
       -0.13962768 -0.17132773 0.18307358 -0.14568079
0001d0 1e e7 08 3c ef 45 39 be f7 49 c1 3d d3 69 d1 bb
       0.008355884 -0.18093084 0.09437936 -0.006390789
0001e0 44 72 4b 3d 4c 3e b5 bd 9c 52 9d bd 0d 4e 04 3e
       0.04966952 -0.08849773 -0.07681772 0.12920399
0001f0 d0 95 6d 3c 10 5c 69 bc ff b2 68 be 42 92 bc 3a
       0.01450105 -0.014243141 -0.22724532 0.001438685
000200 7f 1d a1 3c 4d ec 2f be da 78 9d bd c9 55 4a 3e
       0.019667385 -0.17179985 -0.07689066 0.19759287
000210 23 fe 34 3e 5d 19 7e be 70 c5 d8 3d be 8d 49 3e
       0.1767507 -0.24814363 0.10584533 0.19682977
000220 f3 4d 30 3e d9 52 02 3e f6 e0 41 be 40 a7 57 3b
       0.17217235 0.12726916 -0.18933472 0.0032906085
000230 df d0 6a be 59 5e 16 3e 54 2d 68 bd a2 1f e9 3d
       -0.2293124 0.14684428 -0.056683853 0.113829866
000240 72 3e fb 3d 5e 26 43 be b8 c8 18 be 60 8e 2f bd
       0.1226777 -0.19057605 -0.14920318 -0.04286039
000250 5a 27 f5 3d d2 fb 87 3d bf 59 8c bd 5f 39 23 3e
       0.11970396 0.06639828 -0.06853055 0.15939854
000260 d9 fa 1d be 9c 81 09 3e 24 70 1b be f6 e0 4c 3e
       -0.15427722 0.13428348 -0.15179497 0.20007691
000270 33 52 60 3e e6 96 d4 bd f6 34 93 bd a5 f0 3f 3e
       0.21906357 -0.10380344 -0.07187836 0.18744142
000280 50 e1 97 bd df 86 01 3e 10 fb 75 be 17 03 06 be
       -0.07416022 0.12649105 -0.24021554 -0.13087116
000290 65 be 24 bc e4 9c 24 3d 04 ae f8 bd e9 2b 2c 3e
       -0.010055159 0.040188685 -0.12142566 0.16813625
0002a0 e3 f3 20 3e ee a2 ec 3d 5a 6b 66 be 84 43 21 bd
       0.15718035 0.11554514 -0.22501889 -0.03937103
0002b0 f2 8c 8c 3c 7b 6d b8 3d 74 06 af bd 4a 88 b8 bd
       0.017157052 0.09005257 -0.08546153 -0.0901037
0002c0 66 b4 d5 3d 27 b0 fe bd 00 00 b7 3a e1 7f 21 be
       0.10434799 -0.12435942 0.0013961792 -0.15771438
0002d0 1b c5 29 3e 76 46 0e be f3 3b e9 3d 8f 91 48 3e
       0.16579096 -0.13894066 0.113883875 0.19586776
0002e0 92 96 2b be 35 cc 57 be 4d b4 19 be 1d 08 5e 3e
       -0.16756657 -0.21073993 -0.15010186 0.21682782
0002f0 77 bb 90 be 60 b5 27 3e f3 b3 1b be 27 36 cb 3d
       -0.28268024 0.16377783 -0.15205364 0.09922438
000300 fe 77 81 bd 9c 28 36 bd 50 0f 67 bd 64 c5 08 bd
       -0.06321715 -0.044472322 -0.056411088 -0.03339137
000310 64 26 09 bd af 06 f1 bd 6b df 26 3e 2b c1 24 bd
       -0.033483878 -0.11768853 0.16296165 -0.04022328
000320 33 63 80 be cf b1 35 be f9 91 04 be 49 6d 6e 3e
       -0.25075683 -0.1774361 -0.12946309 0.23283876
000330 18 86 1a 3e 6b 93 f6 3d bc 4a 1a 3e 7f 3d 55 bd
       0.15090215 0.120398365 0.15067571 -0.0520606
000340 be 67 8b be 21 d7 33 3e 1a 42 66 be 73 a9 6d 3e
       -0.27227587 0.17562534 -0.22486153 0.23209171
000350 f4 56 c7 bd f3 88 21 3e b0 21 61 be c2 4d 4c be
       -0.09733382 0.15774898 -0.21985507 -0.19951537
000360 76 81 6f 3e 26 5f 5a 3e ba fd 83 3d 55 10 24 3e
       0.23389229 0.21325359 0.06444879 0.16021855
000370 1c 47 09 be 50 a5 5d bd 87 ff 5e 3d dd 43 a6 bd
       -0.13406032 -0.054112732 0.05444291 -0.08118413
000380 a1 9a 1f be 64 8a 16 3e a6 e5 33 be 8d c8 1d be
       -0.1558633 0.1470123 -0.17568073 -0.15408535
000390 19 ab 40 3e 40 6c f9 bb 90 ef 77 bc 7c ed 4d be
       0.18815269 -0.0076117814 -0.0151328 -0.20110124
0003a0 5a 7d 93 3d a0 bc b4 bb 78 4c e7 3d 85 78 f7 3d
       0.07201643 -0.00551565 0.11293882 0.12083534
0003b0 aa 5b 0a 3e 89 05 30 3e 4c 23 40 bd d9 c1 0c 3e
       0.1351153 0.17189611 -0.04690866 0.13745822
0003c0 3a 8a 19 3c db 0e de bd fe de 63 3e dd 17 18 bd
       0.009371335 -0.10842677 0.22253034 -0.037132133
0003d0 da 9a ca bd 83 7f 58 be 0c 3b 57 3d a8 d8 af bd
       -0.09892817 -0.21142392 0.052546546 -0.08586246
0003e0 05 ca 61 3e b7 ba 0d 3e 00 b9 d1 ba 02 53 c0 3d
       0.2204972 0.13840757 -0.0016000569 0.093908325
0003f0 12 1d 19 bd 22 4c 01 3e 5c e3 71 3d 20 06 11 be
       -0.03738124 0.12626699 0.059054717 -0.14162493

bias f4 [256]
000000 63 82 72 3e f3 b5 8d 3d 5c 0c e3 3d 06 18 23 be
       0.23682551 0.0691947 0.11086342 -0.15927133
000010 c5 1e 46 be a7 19 43 be 10 6d 12 3e 69 d8 53 bd
       -0.19347675 -0.19052754 0.14299417 -0.051720057
000020 47 95 5a 3d 75 08 a5 3b b9 c1 47 3e 8b 53 03 be
       0.05336502 0.0050364085 0.19507493 -0.12824838
000030 b0 75 88 bc dd ad 4d be 31 04 ca bd 36 fb 42 3d
       -0.01665768 -0.20085855 -0.09864081 0.047602855
000040 8b 6f 27 3e 73 27 1f bd 57 c4 80 3e 10 fd cc bd
       0.16351144 -0.03885598 0.25149795 -0.10009205
000050 eb 73 04 3e 16 45 c8 bd 78 ce 02 be b4 dd 94 bd
       0.12934844 -0.09778802 -0.12774074 -0.07268849
000060 ea d5 44 3d 76 8b 40 bd e1 71 ba 3d ca c4 66 bd
       0.048055567 -0.047008 0.09103752 -0.056340016
000070 44 cd bd 3d 0f 7f 0a be 61 2a b2 bd cd f2 b1 bd
       0.09267667 -0.13525032 -0.086994894 -0.08688889
000080 18 70 60 be 00 c6 36 3e 88 ff 09 bd 44 88 b4 bd
       -0.2191776 0.17848969 -0.03369096 -0.08815053
000090 6f d7 47 be 0e 2f 9a bd 6c 81 c1 bc 6a bd 46 bd
       -0.19515775 -0.07528506 -0.023621283 -0.048520483
0000a0 28 97 37 be dd 1c 14 3e ca 9f 0b be a8 4a 28 bd
       -0.17928755 0.14464135 -0.13635173 -0.041086823
0000b0 2c 04 21 3e 27 fc 12 3d 50 a2 43 be d1 1e 50 3e
       0.15724248 0.035885002 -0.19104886 0.20324256
0000c0 1a 20 25 3e 7f 52 0c 3e 14 20 ef 3d ba 3a 0e 3e
       0.16125527 0.13703345 0.1167604 0.1388959
0000d0 c3 3b 29 3e 19 a0 14 bc 18 ab 97 bd fc 30 32 be
       0.16526704 -0.009071373 -0.074056804 -0.17401499
0000e0 00 3a 1f bd cb 8a 8b bd 3a df b9 bd 03 ba 4c be
       -0.038873672 -0.06813582 -0.0907578 -0.19992833
0000f0 75 e3 69 3e 55 df 0f be b6 2b 5e be f3 9f 69 3e
       0.22840674 -0.14050038 -0.21696362 0.22814922
000100 e9 0a ff 3d b6 21 12 bd f3 a5 35 3d 30 c6 3c be
       0.12453253 -0.03567668 0.044347715 -0.18434978
000110 c8 ae 0c 3e 31 8c 1f 3e 8c 62 5c bd a2 bf 14 bd
       0.13738549 0.15580823 -0.05380492 -0.036315568
000120 40 97 27 3c 8b 40 b0 bd a8 55 96 3d 48 03 4c be
       0.010228932 -0.086060606 0.073405564 -0.19923127
000130 50 c4 86 be 77 e3 cb 3c 63 2e 40 be 9c 7e 88 bd
       -0.2632165 0.024888737 -0.18767695 -0.06664774
000140 7e b2 91 3d 40 16 22 be 0c ff 25 bd ec 10 50 3e
       0.07114123 -0.158288 -0.040526435 0.20318955
000150 0a 8d 13 be e0 9e 67 be 19 5a 62 be c9 ae 03 be
       -0.14409271 -0.226192 -0.22104682 -0.12859644
000160 63 59 3d be 70 f6 8f bd d7 0f 47 bd fc 06 ed bd
       -0.1849113 -0.07029426 -0.04859909 -0.11573598
000170 3b 7b 7e 3e 3b d8 44 3e d4 dd 26 be 08 ee 7e bd
       0.24851696 0.1922311 -0.16295558 -0.062238723
000180 75 21 d4 3d 7e 0f e7 3d 6e 93 a1 bd 84 c6 7c 3d
       0.10357944 0.11282252 -0.07889448 0.061712757
000190 b2 8d 38 be 45 cb 0d 3e 87 c2 84 3d 2d 14 3b 3e
       -0.18022802 0.13847072 0.06482416 0.18269415
0001a0 48 01 d7 bd 46 3d 3a 3e a5 03 af 3d 8c 75 65 bd
       -0.10498291 0.18187436 0.08545617 -0.056020305
0001b0 92 22 a9 3c 06 35 d5 bd 8e 1f 24 3e 00 0d 5d ba
       0.020646367 -0.10410504 0.16027662 -0.0008432418
0001c0 4f ed 5a 3e 27 83 c9 bd e2 1b 46 3e 7a b6 22 be
       0.21379589 -0.098394684 0.19346574 -0.15889922
0001d0 d9 d5 0e 3e fe c2 64 3e 01 4e 0c 3e 2c 5f 1c 3e
       0.13948764 0.22340009 0.13701631 0.1527068
0001e0 e6 bd 63 bd 9b e1 bd 3d c1 81 8d 3c 96 7d 85 3d
       -0.055601023 0.092715465 0.017273786 0.06518094
0001f0 ff 64 56 3d be 0a 3a bc 61 45 1d be 5a 27 37 bd
       0.05234241 -0.0113551 -0.15358497 -0.044715263
000200 05 36 0c bd 5d 38 5c 3e 13 d7 1d 39 4d bc 84 bb
       -0.034231205 0.21505876 0.00015052808 -0.0040507675
000210 9e 66 6d be 1c 96 b9 3d 19 76 01 3e 51 93 33 be
       -0.23183677 0.09061834 0.12642707 -0.17536665
000220 52 95 d3 bd 44 da 0b bd e4 5d b6 3d ff 84 a8 bd
       -0.10331215 -0.0341437 0.08904627 -0.08228492
000230 cb 85 e7 3c f4 2c 14 be d4 b4 76 be 8a 2d 3f 3e
       0.02826204 -0.14470273 -0.24092418 0.18669716
000240 d6 aa 25 3c 9c e3 aa bd ec 9a 9b bd 9e cf c7 bd
       0.010111531 -0.08344194 -0.075979084 -0.09756397
000250 05 a3 1f be ac 0d 69 bd 94 50 46 3d 1f 88 fb bd
       -0.15589531 -0.056897804 0.04841669 -0.122818224
000260 a0 6c ae bd 86 1f c1 3d 50 b2 6c 3c 59 53 fc bd
       -0.08516812 0.09429841 0.01444681 -0.12320585
000270 41 64 01 3e cf 04 48 bd f8 d0 5c be 62 9c 51 3d
       0.126359 -0.04883271 -0.2156409 0.05117453
000280 ee 8e 03 be 65 72 52 3e 96 e2 cc 3d 7e 65 e4 3d
       -0.12847492 0.2055145 0.10004155 0.111521706
000290 74 80 18 bd 02 24 61 be 29 7f 3a be 70 ad de bd
       -0.037231877 -0.21986392 -0.1821257 -0.10872924
0002a0 00 0e 1c 3e 4a b4 23 be 90 21 22 3e b6 17 d3 bd
       0.15239716 -0.15986744 0.15833116 -0.10307257
0002b0 e1 bd 82 3d 10 89 d6 bd 77 df e5 bd d1 95 cb bd
       0.06383873 -0.10475361 -0.11224263 -0.099406846
0002c0 e4 9d 9d bd 0e 47 25 be 68 c6 d8 ba 43 c6 6a 3e
       -0.07696131 -0.16140386 -0.0016538622 0.22927193
0002d0 1e f2 75 bd 7b ac 15 3e f5 81 76 3e 5d 27 7d be
       -0.060045354 0.14616577 0.24073012 -0.24722047
0002e0 3f e9 35 be c1 77 64 be d9 f4 23 3e 6d aa 86 3e
       -0.17764758 -0.22311307 0.1601137 0.263019
0002f0 f8 e8 17 3e 72 4f 27 3e 29 7f d9 3c 6c 35 27 be
       0.14834964 0.163389 0.026549893 -0.16328973
000300 68 4d a7 3c 72 87 8b 3d 90 c3 86 bd 38 6d ec 3d
       0.020422652 0.068129435 -0.06580269 0.11544269
000310 52 e4 5f 3e 50 0b 7d 3d df 8d 81 bd a6 7d 80 bd
       0.21864441 0.061778367 -0.06325888 -0.062739655
000320 f7 91 07 be 97 95 a0 bd 55 63 90 3d 95 60 d8 3d
       -0.13239275 -0.07841032 0.07050196 0.105652966
000330 a9 23 6b be 80 b8 45 3e 83 c1 12 3e bc 13 f8 3c
       -0.22962822 0.19308662 0.14331631 0.030282848
000340 64 d0 0a bd 1d 04 1f bd 27 dd 2d bd b0 c3 84 3e
       -0.033890143 -0.038822282 -0.042447235 0.25930548
000350 00 98 37 3b 1e d9 74 be 0b 5f 6a 3e 7c 54 de 3d
       0.0028014183 -0.23910949 0.22887819 0.10855958
000360 10 72 56 3e bf e0 d4 bd 33 61 17 3e 75 d8 02 3e
       0.20941949 -0.103944294 0.14783172 0.12777884
000370 13 44 2f 3e 0c 79 d0 bd 92 03 20 be 5d c4 9b 3d
       0.17115812 -0.10179338 -0.15626362 0.07605813
000380 5b f4 5a be 92 50 18 3d ec e7 27 3d d8 04 f7 3c
       -0.21382277 0.037186213 0.040992662 0.030153677
000390 e4 10 40 bb 12 29 71 be 07 94 69 be 00 d3 56 bc
       -0.0029306943 -0.23550823 -0.22810374 -0.01311183
0003a0 42 57 01 be ed 0f 5f bd d2 2d 0c bd a0 c5 10 3e
       -0.12630942 -0.054458547 -0.034223385 0.14137888
0003b0 36 3f 0d be 9a 69 bc 3d c4 fe 5c bd a6 c4 35 3e
       -0.13793644 0.091998294 -0.0539539 0.17750797
0003c0 61 e8 15 3e 5c 3a 3a be 43 57 3d be 25 2c 54 3e
       0.14639427 -0.18186325 -0.18490319 0.20719965
0003d0 b3 20 0b be 07 db 82 bd e6 af d1 3d 80 c3 80 ba
       -0.13586693 -0.063894324 0.10238628 -0.0009823889
0003e0 3e d3 06 be 9b 95 3e be 4a 7b 7c 3c 62 54 63 be
       -0.1316652 -0.18611757 0.015410254 -0.22200158
0003f0 d0 bd 22 bd 79 c3 04 3e d8 49 45 bd 3b 33 b2 3d
       -0.0397318 0.12965192 -0.048166126 0.08701178

weight f4 [256, 256]
000000 24 a9 81 bb f7 90 9c 3c 01 8e 57 3d 40 d7 4f 3b
       -0.0039569307 0.019112093 0.05262566 0.0031713992
000010 92 b5 05 3d a0 67 45 bd 63 4c ab 3d 96 c9 3a 3d
       0.032643862 -0.048194528 0.08364179 0.045602404
000020 c2 51 6c 3c 3a d0 94 3c 8b fb 4c bd 19 5d e4 3c
       0.014423789 0.018165696 -0.050044578 0.027876424
000030 3a df 72 bc 60 39 81 3d 7d 34 2f bd 6a d4 c1 bc
       -0.014823729 0.063097715 -0.042774666 -0.023660857
000040 10 20 7b bc 9f 02 15 3d ae c0 ce 3d 80 f8 92 3a
       -0.0153274685 0.036379453 0.100953445 0.0011212975
000050 c7 36 74 3d cc 19 dd 3c a2 99 9e bd 7c 90 23 3d
       0.059622552 0.02698984 -0.07744147 0.039932713
000060 75 c5 51 bc 1b 62 24 bd 1e ee 6f 3c 06 54 76 3d
       -0.012803425 -0.040132623 0.014644174 0.060138725
000070 5b 0a 1e bd bd 4f 8b 3c ad e2 65 bc 31 77 37 3c
       -0.038584094 0.017005796 -0.0140310945 0.011197851
000080 f6 48 71 bd b9 2b 8d bd 0c 98 53 3d f1 f4 e6 3d
       -0.05890747 -0.06893105 0.051658675 0.112771876
000090 f0 2a 51 3d 7c d5 32 3d 34 52 5a bd db 15 0b 3d
       0.05106634 0.043660626 -0.05330105 0.03395639
0000a0 00 fc 4a bd 70 f2 d8 3c 44 bb b5 bc 30 67 ff bb
       -0.049556732 0.02648279 -0.022184022 -0.0077942833
0000b0 47 7d a8 3c 0d f3 17 bd 90 e4 61 3d 4b e2 25 3d
       0.02056755 -0.037097026 0.055149615 0.040499013
0000c0 f3 4f 1b 3c 1b d7 a5 3d 9e 98 3b bd 67 18 06 bd
       0.009479511 0.08097669 -0.045799844 -0.032738116
0000d0 fe d6 1b bd 0f 6d 04 be d0 29 51 3d 7a 9c 4f 3c
       -0.03804683 -0.12932228 0.051065266 0.012671584
0000e0 70 d2 7e bc 9c 30 6f 3b 7d 8e 28 be 80 42 2b 3d
       -0.015553102 0.003649748 -0.16460605 0.041811466
0000f0 31 bf 00 bb 0f b4 5b bb 75 91 95 3d c8 f0 61 bd
       -0.001964521 -0.0033524071 0.07303134 -0.055161268
000100 1f d4 0c bd e0 07 e1 3c 39 5c 97 3d 8c 16 ae 3d
       -0.034381982 0.027469575 0.07390637 0.08500394
000110 a5 ea a1 3c 4b 78 19 bd ac f8 57 3d 28 87 49 3d
       0.019765208 -0.037468236 0.052727386 0.04920116
000120 e9 ad 1f 3d 02 71 74 bc 91 dd 17 3c 9c 09 41 3d
       0.038984213 -0.014919521 0.009269134 0.047128305
000130 c0 4d f2 bc a7 a9 00 bc e9 83 96 bd 24 ad 1e 3d
       -0.02957809 -0.007852948 -0.073493786 0.03873934
000140 78 a5 c8 3c 35 5c 0a bc 69 03 89 3c c4 e3 86 3c
       0.024492964 -0.008444835 0.016725259 0.016466029
000150 c0 b4 68 3b 5e 85 1a bd 6e 61 5b 3d ce 03 a6 bd
       0.0035508126 -0.037724845 0.053559713 -0.081061944
000160 46 8f ff bc 98 04 1b bd c9 85 09 3d 78 c5 56 bc
       -0.031196248 -0.037846178 0.033574853 -0.013108604
000170 d5 93 e8 3d ad 3f 84 bd 26 b2 55 bd d8 5b 4c bc
       0.11356322 -0.06457458 -0.05217185 -0.012473069
000180 f2 66 b5 3d 3c d1 01 bd 38 22 17 bd 08 60 f4 3c
       0.08857526 -0.031693682 -0.036897868 0.029830948
000190 d2 70 79 3d c1 cb be bb 65 31 0a 3d 18 e6 1d 3d
       0.06089861 -0.005822629 0.033738513 0.038549513
0001a0 be 9e 22 bd ba 0a 8d 3d c1 6c 64 3d 40 04 ac bc
       -0.03970217 0.068868116 0.05576778 -0.02099812
0001b0 9f 6e 85 3c 35 40 2a 3d e7 ed 01 bc 66 57 73 bd
       0.0162881 0.04156514 -0.0079302555 -0.05940952
0001c0 54 6e 67 3d 73 51 cf bc d3 36 68 3d 74 d1 6c 3d
       0.0565017 -0.025307393 0.05669291 0.057816938
0001d0 38 31 55 3d 80 61 b6 3c 96 6d b4 3c f4 37 84 bb
       0.05204889 0.022263288 0.02202491 -0.0040349904
0001e0 4a ac a7 3c f3 e2 76 3d 63 25 f7 b9 7a 08 81 3d
       0.020467896 0.06027503 -0.00047139367 0.06300445
0001f0 03 56 19 3d 78 14 b4 3d 64 eb 9d 3c 72 fb 48 3a
       0.037435543 0.087929666 0.019277282 0.0007666863
000200 47 6d 15 3d e1 2b 1f 3d 27 f6 1a bd 20 d5 80 3d
       0.036481168 0.038860206 -0.037832405 0.0629065
000210 b1 56 de bc b9 f4 61 3d 5a 0d 63 bb b9 70 80 bc
       -0.027140947 0.055165026 -0.003464541 -0.01567875
000220 ce 91 42 3d cb a6 22 3d 85 93 fb bc 07 94 a4 3d
       0.04750233 0.039709847 -0.030709991 0.080360465
000230 ca c6 75 bd bf 0e c3 3c 25 f9 08 be 3e 2c 45 3c
       -0.060004033 0.023810742 -0.13376291 0.012034474
000240 84 3b 82 3d cb 4a c1 3d 03 3f ec bd 4f e5 7b bd
       0.06359008 0.09438094 -0.11535456 -0.061497983
000250 cf c9 72 bb 04 e6 a4 3d bc 90 1f bc f7 c2 c3 bc
       -0.0037046557 0.080516845 -0.009739097 -0.023896677
000260 9b 74 85 3c f0 08 2e 3c fc fa 30 3d 53 f2 d0 3c
       0.016290953 0.010622248 0.043208107 0.025506174
000270 01 e0 47 3d d7 6d a2 3c ec 27 3e 3d 1b 76 41 3c
       0.04879761 0.019827766 0.04642479 0.011807944
000280 00 9f b2 3d 48 61 55 bc 70 0c 3a 3c c8 55 b6 bc
       0.08721733 -0.013023682 0.011355504 -0.0222577
000290 c8 ad ed 3c 79 33 12 bd 10 71 52 3d 79 fe 27 3a
       0.02901353 -0.03569362 0.051377356 0.0006408464
0002a0 e8 11 55 3d 0d 00 7b bd 5d 37 21 3d f3 69 bb 3c
       0.05201903 -0.061279345 0.03935944 0.022877669
0002b0 c9 ca aa 3d 63 5e ad bc 79 01 31 3d 3b 0d 11 bd
       0.083394594 -0.021163171 0.043214295 -0.03541301
0002c0 67 7e ed bc b4 4e be bc 93 ce 74 3b 69 7d 87 3d
       -0.028990937 -0.023230888 0.0037354573 0.06615717
0002d0 77 54 72 3d 95 57 cc bb aa 71 92 bd 68 76 61 3d
       0.059162583 -0.0062360265 -0.07150586 0.05504456
0002e0 c3 18 48 3b bc 1b 7e bd 20 53 8f 3b 5f d7 20 3d
       0.0030532337 -0.06203817 0.004373923 0.039267894
0002f0 2e 55 13 3c 4d fa 4c 3d 47 53 38 3d c5 f6 f9 3c
       0.008992476 0.050043393 0.045001294 0.030513177
000300 0d bd 2b 3c b0 93 9e 3c e8 82 5e bd b3 3a 4d bd
       0.010482085 0.019357532 -0.05432406 -0.050104808
000310 99 5d 2b 3d 6b cc 58 3c f6 f1 51 bd 0f 13 9d 3b
       0.04183731 0.013232331 -0.051256143 0.0047935317
000320 18 23 90 bc 9c 7d 99 3d 43 fd 60 bd 14 cc dd bd
       -0.017594859 0.07494661 -0.05492903 -0.108299404
000330 89 aa 36 bb 84 bb 22 3d da 6b 9c 3c 36 d9 88 bc
       -0.0027872643 0.03972961 0.019094396 -0.016705137
000340 30 a2 01 bc 7a 22 08 bd dc dc 83 bd 45 bd 8b 3d
       -0.007912204 -0.033236004 -0.0643861 0.0682321
000350 30 8c f7 bb 72 eb c7 bd 94 f0 b9 bc 57 15 c1 bd
       -0.0075545534 -0.097617045 -0.022697724 -0.094278984
000360 2b b9 de 3c c7 2d e8 bc da 7f 75 bd 2c 5f 87 bd
       0.027187904 -0.02834214 -0.059936382 -0.066099495
000370 95 87 eb bc b2 da 3b 3d 76 78 86 bd b4 0b 75 3d
       -0.028751174 0.04586286 -0.06565945 0.059825614
000380 57 ce 43 3d ca 68 86 3d ac be e0 bc e0 6e 74 3b
       0.047804203 0.06562956 -0.02743467 0.0037297532
000390 36 94 29 3d ee 52 64 bd 18 7b 78 3d a0 15 c8 3b
       0.04140111 -0.05574315 0.060664266 0.0061060935
0003a0 ac b6 59 3b ad ec 2d 3d 44 22 2c bd 5e 92 0e bc
       0.0033220453 0.04246204 -0.042024866 -0.008701889
0003b0 26 bb 30 3d e4 8c ea 3b 34 5d 92 bc 9d 02 91 bc
       0.04314723 0.0071579088 -0.017866708 -0.017701441
0003c0 cf 3e b9 bc d0 d8 21 bd be fc 84 3d 2c da 1b 3d
       -0.022612957 -0.03951341 0.06493519 0.03804986
0003d0 7a 48 80 3d a4 de a8 3c 3b d6 10 bd d8 79 4f bc
       0.06263824 0.020613976 -0.035360556 -0.012663327
0003e0 c5 4a ae 3c 2d dc b0 3a 3e 76 0d 3d 3e 3d 67 bd
       0.021275887 0.0013493352 0.034536593 -0.05645489
0003f0 eb 07 d3 3d 11 25 63 3d b8 03 72 3d 50 e1 7d bd
       0.103042446 0.05545527 0.059085578 -0.061982453

bias f4 [256]
000000 ff bb b1 3c f7 fb 07 3d c7 13 28 3c 1e 75 43 bd
       0.021696089 0.033199277 0.010258622 -0.047719114
000010 f2 a7 4c bd 86 8e dd bc ae fe 5d 3b 3b c8 4b 3c
       -0.049964853 -0.0270455 0.0033873725 0.012437875
000020 c6 5b 4b 3d ae 18 3e 3d 3b b3 6a 3d 14 e4 4f 3d
       0.04964807 0.046410255 0.057299834 0.05075462
000030 17 b0 35 3d 08 6e 7e 3d 1c e1 8d bc 82 d9 36 3d
       0.044357385 0.062116653 -0.017319255 0.044641025
000040 2d 1f 69 bc 84 f6 17 bd ad b7 09 3c 48 78 7c 3d
       -0.014228624 -0.03710033 0.008405608 0.061638147
000050 1a 3f 65 bd 03 13 2e 3d 1a 5b 6d 3d 21 1e 0c 3d
       -0.05596838 0.0424986 0.05794821 0.03420842
000060 60 7f a2 3b 41 f7 1e bd 27 2a 34 b8 7d 63 d0 bc
       0.004959032 -0.03881002 -4.29546e-05 -0.025438065
000070 c2 19 63 3d d6 ed f1 bc 80 4f ff 3c c6 c1 11 bd
       0.055444486 -0.029532354 0.031165838 -0.035585187
000080 db ea 68 bd ae ad 78 bc 7f 39 0a bd 24 7b 4d 3d
       -0.0568646 -0.015178127 -0.03374624 0.050166264
000090 d9 da ab bc 24 da c3 3c 36 dc 90 3c b4 21 9d bb
       -0.020978378 0.023907728 0.01768313 -0.0047952775
0000a0 34 ff 5f 3d 1b b5 21 bd 4c 08 aa 3c 00 3a 43 ba
       0.05468674 -0.039479356 0.02075591 -0.00074473023
0000b0 85 74 93 3d d6 6b 52 3d 31 82 40 bb f2 24 b2 3c
       0.07199959 0.05137237 -0.0029374475 0.021746133
0000c0 21 93 0e bd ea 06 d3 3c a0 da 4d bd c4 61 bb 3c
       -0.03480828 0.025760133 -0.050257325 0.022873767
0000d0 1c 59 fb 3c 2d a4 b5 3c 18 e7 84 3c 20 27 d6 bc
       0.03068214 0.022173012 0.016223475 -0.026141703
0000e0 4f df 42 3d 78 ee 65 3d 70 bd 67 3d 18 43 7b bd
       0.047576245 0.056135625 0.056577146 -0.061343282
0000f0 da 63 00 bd bd 13 51 3c a9 1d bd 3c d3 f9 c7 3c
       -0.031345226 0.012761054 0.023085432 0.024411118
000100 96 0f 62 3d 93 34 c2 3c 95 68 b6 bc e1 a6 29 bd
       0.055190645 0.02370671 -0.022266665 -0.041418914
000110 e4 54 1b 3d b7 b2 00 bd ed 3f 0c bd a2 c9 54 3d
       0.037922755 -0.031420436 -0.034240652 0.051950105
000120 d5 8e 13 3d e1 4f c1 3c 40 2c 6b 3d 57 11 99 bb
       0.036024887 0.02359766 0.057415247 -0.0046712565
000130 8f 06 19 3c 8f e6 43 3c 4b 24 8b bd 51 52 42 3c
       0.009339943 0.011956825 -0.06794032 0.011860446
000140 0f 37 92 3c fa bc c1 3b 0e 8f dc 3c 05 0f af 3c
       0.01784852 0.0059124203 0.026923683 0.021369467
000150 9c cf c8 bc 28 de 65 3d 52 23 71 bc 5e 21 4b bd
       -0.024513058 0.056120068 -0.014717894 -0.04959237
000160 4b c8 2c bd 65 92 86 bd 2e 7b 5a 3c ad 33 33 bd
       -0.0421832 -0.06570891 0.013335032 -0.043750454
000170 6e 92 30 3d 4e 73 ea bb 12 da 1c 3c 0e 1c 09 bd
       0.043108396 -0.0071548587 0.009573476 -0.03347402
000180 06 12 ec 3d d6 1e 76 bd 19 0c 81 3c 8a 40 d9 bc
       0.11526875 -0.060088 0.015752839 -0.026520032
000190 8e bd 7a bd 5c 9e 11 3d a6 4c 74 bd 2e d6 2e 3d
       -0.06121593 0.035551414 -0.05964341 0.042684726
0001a0 9d 37 f9 3c 95 76 00 bd 42 18 0b 3d 94 1a b3 3c
       0.030422026 -0.03136309 0.03395868 0.02186326
0001b0 8e 4a 9d bc 54 5b 3d 3b 0f bb 20 ba 71 34 58 3d
       -0.01920059 0.0028893547 -0.00061313895 0.052784387
0001c0 3d f4 df 3c 0b 0d 68 3c a8 95 6e bc 16 97 0b 3d
       0.027338142 0.014163266 -0.014562048 0.034079634
0001d0 99 b7 09 bd 82 c8 4e 3d e3 61 03 3d 7e e1 6d bd
       -0.033622358 0.050484188 0.032075774 -0.058076374
0001e0 0e 0e 0c 3c 54 e0 7b bd 54 6b 8c 3c df 81 1f bd
       0.008548273 -0.061493233 0.017141022 -0.038942214
0001f0 44 93 55 bd 5e 4d 2f bc 48 d7 c4 bc 80 54 1f bb
       -0.052142397 -0.010699598 -0.024028435 -0.002431184
000200 2a b9 7c 3d 1c 4e 3c bb c7 a6 7d bd 78 16 a9 bb
       0.061700024 -0.002873308 -0.06192663 -0.005160149
000210 ec ac 2a 3d 3d e9 82 bd 8d bd 0e bc b4 b2 93 3c
       0.041668817 -0.06392143 -0.008712185 0.018029548
000220 84 54 7e 3d 58 58 5b bd e9 53 3d 3d f2 3f 0a bd
       0.06209232 -0.053551048 0.0462226 -0.03375239
000230 d8 1b 42 bc 2e 5e 5a 3d 4e 60 5d bd e5 b5 aa 3d
       -0.011847459 0.053312473 -0.05404692 0.08335475
000240 86 ab c1 3c 1e 95 44 3d 41 1a 60 3c 83 17 98 b8
       0.023641359 0.04799377 0.013678134 -7.252304e-05
000250 f2 14 ff bc 98 40 86 3d 38 35 50 3d b9 12 64 bd
       -0.031137917 0.06555289 0.050832003 -0.055681918
000260 aa 80 00 bd ce c7 e5 3c ae 48 04 bd a0 32 19 3b
       -0.031372704 0.028049376 -0.032295875 0.0023376122
000270 fd 56 b0 3c 06 fc f4 bc 8e 18 1a 3d 0c 1c 21 bd
       0.021525854 -0.02990533 0.037621073 -0.03933339
000280 48 ff 41 3d 5c 7c 42 bd ad 76 0d bc e7 be 37 3d
       0.047362596 -0.04748188 -0.008634252 0.044859793
000290 27 69 af bc 19 e1 9e 3c b2 49 f8 3b f8 2a 11 bd
       -0.021412445 0.019394444 0.0075771445 -0.03544137
0002a0 a8 f6 97 3b 42 21 a5 bd ee a6 08 3b 02 10 db 3b
       0.004637558 -0.08062984 0.002085145 0.006685258
0002b0 ad b4 20 3d f5 8b 93 3b a8 e8 f6 3c 97 02 49 3d
       0.039234806 0.004502768 0.030140236 0.049074735
0002c0 11 82 33 bc fe 3a 45 bc 89 00 03 bd 29 8e 1c 3d
       -0.010956303 -0.012037991 -0.031982932 0.038221512
0002d0 23 4f 56 bd 7f c2 be bc f0 98 9a 3c 4c 87 63 3c
       -0.052321564 -0.023286102 0.018871754 0.013887238
0002e0 aa c3 f0 bc 69 65 26 3d c4 62 87 bd ef 66 e6 bc
       -0.029390175 0.040624056 -0.06610635 -0.028125254
0002f0 f2 c3 4b bd df 4d 44 3d d0 03 44 bd e0 72 99 bc
       -0.049747415 0.047925826 -0.0478552 -0.018731534
000300 c0 b8 e3 3b b8 cf 2e bc 76 cf bb 3c 64 21 88 bd
       0.006949514 -0.010669641 0.022926074 -0.06646994
000310 54 6f 92 3c 84 6e 02 3a a8 21 f3 3b 64 1f 9d 3b
       0.017875351 0.00049755746 0.0074197836 0.004795002
000320 18 ce 2a 3d 06 cd 4c bd cd 22 13 bd 03 3c 38 3d
       0.041700453 -0.050000213 -0.03592186 0.044979107
000330 23 5e f7 3c 89 4a cf bc 1c ff 74 3c b1 4a 2b bd
       0.030196255 -0.025304096 0.014953401 -0.04181928
000340 68 9a 65 bc 8b 91 5c bc 4a bd 88 bd 79 fd c4 3c
       -0.014013864 -0.0134624345 -0.06676729 0.024046646
000350 2b 5c 83 bd 77 91 2a bd 28 87 00 3d f3 14 4f bd
       -0.06414064 -0.041642632 0.031378895 -0.050557088
000360 36 bc 84 3d 06 d3 42 3d e3 54 af bc 37 86 5e 3d
       0.06481211 0.04756453 -0.021402782 0.054327216
000370 b9 ce 0d bd 58 b1 1c bd b5 61 b7 bb 14 a3 a3 3d
       -0.034620974 -0.038255066 -0.0055963644 0.07990089
000380 44 ed 71 bd eb 2a f1 3a 1c a9 d6 bc 80 f3 36 ba
       -0.059064165 0.0018399631 -0.026203685 -0.00069790334
000390 f1 77 9b 3d 60 f5 4b 3d df 72 4c bd bc 75 28 bd
       0.075912364 0.049794555 -0.049914237 -0.041127905
0003a0 63 88 74 bc ed 91 9c 3c 0b 2c dd 3b 64 32 0b 3d
       -0.014925095 0.019112552 0.006749635 0.033983603
0003b0 9c 6b b4 3d 75 f6 c3 bc e6 d8 00 bd cb c5 8b 3c
       0.08809587 -0.02392123 -0.03145685 0.017062088
0003c0 d3 07 d4 bc 3b 38 20 bd 2f 0f 1a 3d ae 60 ab bc
       -0.025882637 -0.039116126 0.037612136 -0.020920124
0003d0 10 9e ae 3c 25 3e 93 bd 4d 44 b3 bc 63 1e 79 bc
       0.021315604 -0.071895875 -0.021883154 -0.015204999
0003e0 00 1c d9 bb d3 aa 2c bd 7f 32 46 3b 49 c8 8b 3b
       -0.0066256523 -0.0421551 0.00302425 0.004265819
0003f0 aa 26 13 3d 4b 9c 0e 3c 9c 77 dc 3c 85 3f 3b 3c
       0.035925545 0.008704255 0.026912503 0.011428718

weight f4 [3, 256]
000000 a6 69 b7 bc 93 52 4b bd 4f 95 60 3c 74 ae 1a bd
       -0.022389244 -0.049639296 0.013707473 -0.037764028
000010 55 53 13 bd 78 36 00 bd 3d 2d 37 bb 8a 69 81 bb
       -0.035968143 -0.031301945 -0.0027950548 -0.003949349
000020 9d be 0f 3d 25 bb 85 3c ee 43 fe 3c 96 43 a4 3c
       0.035093892 0.016324589 0.03103825 0.020051759
000030 58 0f 5e bd cc dc 66 3d 4d 4e 19 bd 64 76 ac 3c
       -0.05421385 0.056362912 -0.03742819 0.021052547
000040 cb d0 12 3c 48 d7 06 bd a5 77 a0 bc 06 83 52 bd
       0.008960913 -0.032920152 -0.019588301 -0.051394485
000050 c4 60 ba 3c b9 5a 0b bd 56 34 4c bd 66 0d a2 bd
       0.02275122 -0.034022067 -0.0498546 -0.07912712
000060 00 08 76 39 c8 ad b2 bb dd 6d 59 bd 4a b2 b9 bb
       0.00023463368 -0.0054528452 -0.05308329 -0.0056670057
000070 26 dd a7 3b 3d 29 48 bd 3c 29 30 3d ce a9 47 3d
       0.0051227985 -0.048867453 0.043008074 0.048745923
000080 e8 e4 bb bc 06 56 e2 bc 69 7c 32 bd a6 97 58 bd
       -0.0229363 -0.02762891 -0.043575678 -0.052879
000090 46 9d 3d bd c2 9c 6a bc 9c fc b2 bc ea 23 60 bd
       -0.046292566 -0.014319601 -0.02184897 -0.05472175
0000a0 73 5b c2 bd 1f e9 ae bc 20 ce 9d bc 20 88 5a 3c
       -0.09490099 -0.021351395 -0.019263327 0.013338119
0000b0 4f 00 ba bc 09 97 a8 3c 4b 59 36 bc 1d 7c 60 3c
       -0.022705225 0.020579832 -0.011129688 0.013701466
0000c0 e2 c5 1c bd ae dd 3d 3c 86 e3 76 bd c6 be 44 3d
       -0.038274653 0.011588497 -0.060275577 0.0480335
0000d0 11 0c 95 bc c3 1d bf bc b0 9a 86 bb c2 fa 66 bd
       -0.01819423 -0.023329621 -0.0041077957 -0.056391485
0000e0 e6 e5 2c 3d cc 26 77 bd c4 b6 9c bc 2f b1 97 3d
       0.042211436 -0.060339734 -0.019130118 0.07406842
0000f0 9c 23 5f 3d e8 d6 98 3c a3 96 82 bd b0 75 20 bd
       0.05447732 0.018657163 -0.06376388 -0.039174736
000100 0e 6a 60 bd 3a eb f3 3c 7b 20 3d 3c 02 98 0e bd
       -0.05478864 0.02977525 0.0115433885 -0.034812935
000110 a7 6b ae 3b ee 7c f6 3c 7e ce 29 bd 01 46 71 3c
       0.0053228918 0.030088868 -0.041456692 0.014726163
000120 08 40 60 bd c4 0c c0 bc e3 74 ad bd 18 fa 3f be
       -0.054748565 -0.023443587 -0.0846956 -0.18747747
000130 2b ef 39 3d 4d f5 28 bd ee 02 73 3c d9 dd 2e bd
       0.045394104 -0.041249562 0.014832241 -0.04269204
000140 a3 73 78 bd 00 cd 32 3d 65 d2 6b bc 8e 49 ca 3c
       -0.060657155 0.043652534 -0.014393424 0.024693277
000150 ea 82 3f bd 84 63 fd bc 21 6f 41 3c b6 d6 68 bd
       -0.04675571 -0.030931242 0.01180628 -0.05684539
000160 e5 e1 4c bb e0 1a 16 bd d7 cf 33 bd bc f7 57 3d
       -0.0031262573 -0.036646724 -0.043899383 0.052726492
000170 00 75 4d 3b 29 e1 02 3b be c1 17 3d b7 86 2b bd
       0.0031350255 0.0019970632 0.03705 -0.04187652
000180 c9 34 e2 be 60 dc 5c 3c b1 e9 96 bd dc 9b 5e bc
       -0.44180897 0.013480276 -0.07368792 -0.013586964
000190 dc 04 54 3d e2 6a 44 3d 0c 62 df 3c df db 1a bd
       0.051762447 0.047953494 0.027268432 -0.03780734
0001a0 5f cf 14 3d 92 c0 9f bb 92 e2 a5 3c 24 3a 21 bc
       0.036330577 -0.004875251 0.020249639 -0.009840522
0001b0 f7 ee 1f bd a1 35 50 bd fa f2 10 3c 51 86 7f 3c
       -0.039046254 -0.050832395 0.008846993 0.015595988
0001c0 18 74 09 bd c6 8d a0 3b 94 b8 5d bd 6f 47 2e bd
       -0.03355798 0.004899713 -0.054131106 -0.042548593
0001d0 dd bd 92 3c 0f 96 f2 bc 2f 45 a0 3d de ab 37 bd
       0.0179128 -0.02961257 0.07825696 -0.04484164
0001e0 d1 14 2a 3d 04 9b d5 bc 32 de 19 3d 4c 20 2a 3d
       0.04152376 -0.026074894 0.037565418 0.041534707
0001f0 9c df 9f bc 2b 20 22 bc 1e 0a 28 3d 40 bf ad 3a
       -0.019515805 -0.009895365 0.041025274 0.001325585
000200 f6 43 41 3d a0 9b b4 3c 43 65 5d 3d 0e 98 cc 3c
       0.047183953 0.022046864 0.05405165 0.02497485
000210 41 43 13 bd e2 61 0b ba ee 77 eb 3c 70 c1 44 3c
       -0.03595281 -0.0005317015 0.02874371 0.01200901
000220 8e 78 6b 3d 5e 65 45 bc 1b b7 28 3d ab 67 e1 3d
       0.057488017 -0.012048094 0.041190248 0.11006101
000230 a5 f5 7e 3d 4d 33 ce 3c 1c 5d 3b bd 5a 26 9a bd
       0.062245984 0.025170946 -0.045743093 -0.07526846
000240 d2 78 b7 3c e8 60 69 bc 25 c1 4d be dd e8 a3 3d
       0.022396479 -0.014244296 -0.2009321 0.080033995
000250 0b 61 27 3d 9a 86 ce bb 65 98 b7 bc 10 83 a5 bc
       0.04086403 -0.006302667 -0.022411535 -0.020204097
000260 b1 fa 56 3d 5f de 9a bb c0 fb f7 3c 7a 38 0b bd
       0.05248517 -0.0047262157 0.030271411 -0.033989407
000270 f2 9e 00 3d 9c fc 71 bc 27 1f 0e 3d ac 37 fb bc
       0.031401582 -0.014769699 0.034697678 -0.030666195
000280 94 b6 d8 bc dc 84 f0 bc 87 fe 0c bd 62 0b 87 bc
       -0.026454248 -0.029360227 -0.034422424 -0.01648492
000290 27 de b7 bc 24 c6 80 bd 10 0c 6f bd bb ca 9c bb
       -0.022444798 -0.06287792 -0.058361113 -0.0047849095
0002a0 de bc 7e bd 71 8c 02 bd f9 c9 75 3d 44 55 8b bb
       -0.062191837 -0.031872217 0.06000707 -0.004252108
0002b0 7b 3e f6 3d 8e 87 bb 3b c0 0c f1 3a 6e 49 5f bd
       0.12023636 0.0057229465 0.0018390641 -0.054513387
0002c0 d4 33 08 bd 4c 80 ee 3a e9 5b b6 39 ef b8 34 3c
       -0.033252552 0.0018196194 0.00034782224 0.01103042
0002d0 96 cf 35 3d 32 39 b1 3c 99 c5 15 3d da da 60 3d
       0.044387423 0.021633718 0.036565397 0.054896213
0002e0 fe 5f 6b bd 86 b1 5a 3d ec f3 c3 bb f3 4f 1f bd
       -0.057464592 0.053391956 -0.0059800055 -0.038894605
0002f0 b9 8c dc 3c 55 1a e7 bc e0 10 a3 bc 87 b0 38 3d
       0.02692257 -0.028210798 -0.019905508 0.045090225
000300 a4 d3 d1 3c 1a a4 1b bb 20 79 1e 3c d4 94 7a 3d
       0.025613613 -0.0023748935 0.009672433 0.06117709
000310 be f3 6f 3d f8 85 37 3d 79 04 46 bc 40 35 ec 3c
       0.05858206 0.044805497 -0.012086027 0.028833985
000320 8c 55 57 bd 5c 7a 7b 3a 26 90 0a 3d d9 76 e6 bc
       -0.05257182 0.0009593123 0.033828877 -0.028132843
000330 fa aa 37 3d c3 f9 ec bb e7 a3 32 3c dc b3 bd bc
       0.04484079 -0.0072319224 0.010903335 -0.023157053
000340 94 3f 5b bd 53 24 18 bd cc 72 48 bd 6a 2e 9c bc
       -0.05352743 -0.037144016 -0.048937604 -0.0190651
000350 b6 45 3b 3d 14 96 6e 3c bf f7 39 3c 52 23 b1 bc
       0.04572078 0.014562149 0.011350571 -0.021623287
000360 6a f8 0d 3d 21 14 1a bc 9b 2e 7b ba 86 2a 37 bd
       0.034660734 -0.009404213 -0.0009581835 -0.044718288
000370 21 f6 7d bd 4d 75 cf bc 9a 65 f9 bc 4e 1c 7d 3d
       -0.062002305 -0.025324488 -0.030443955 0.06179457
000380 98 6e ae bc b4 64 f7 3c 3a 28 bb 3c 20 67 59 bd
       -0.02129297 0.030199386 0.02284633 -0.053076863
000390 d5 4d 82 bd 55 ef e2 bb cf 1f c7 3c 0f 9c 2a 3d
       -0.063625015 -0.0069255033 0.02430716 0.041652735
0003a0 8e 66 bc 3d 01 fb 88 bd ef a0 77 bc cd 84 d2 bc
       0.09199248 -0.066885 -0.015114053 -0.02569809
0003b0 d5 bf 38 bd 8b 39 51 3d 76 14 46 3d fe a1 44 bd
       -0.04510482 0.051080268 0.048359357 -0.04800605
0003c0 3b e0 ee bb 2b b0 44 bd 97 a8 ca bc a0 a8 eb 3c
       -0.007289914 -0.04801957 -0.024738593 0.02876693
0003d0 57 9d 4a 3d 0e e0 0c 3d 5f 72 df 3c d7 04 ea bc
       0.049466457 0.034393363 0.027276216 -0.028566761
0003e0 70 79 c2 bb d2 e9 2f 3d 4f 3d 9b bc d0 94 b5 bc
       -0.0059348866 0.042947598 -0.018950133 -0.022165686
0003f0 b6 df e6 3c be d9 d0 3d 02 4c 5e 3d 62 68 e9 be
       0.028182846 0.10197781 0.054271705 -0.4558745

bias f4 [3]
000000 07 b6 92 3c c4 14 56 bd 9a 37 a3 bc
       0.017909063 -0.052265897 -0.019923974
