astar/checkpoints/sac_critic_200.pth (torch, 580642 bytes, 10 tensors)

weight f4 [256, 21]
-0.12004388 0.1070386 0.16941777 0.1201352 -0.17555346 0.1747839 -0.1890739 0.024730105
-0.105284855 0.10804124 -0.27264673 0.2065151 -0.13783585 -0.11452919 -0.1562961 0.019817397
0.20357896 0.15318845 -0.2016147 0.0011658497 0.07561603 -0.05004959 0.04430836 0.022781644
0.20260863 -0.017097875 0.21173348 0.08345483 0.103046894 0.121584415 0.11046524 0.07305119
-0.009649369 0.15597911 0.041756585 -0.04560785 0.041530594 -0.03457819 -0.11935446 0.19407488
0.024824075 0.12688199 -0.04676103 0.13401368 0.025544768 0.2145855 -0.025433213 0.06910457
0.0637544 -0.12081441 0.03540158 0.082224846 -0.064849876 0.1968586 -0.03978546 -0.17354676
0.09766142 -0.010073587 -0.19687517 0.12760307 -0.11899664 -0.12329236 0.24973914 -0.15758964
-0.1779341 -0.05102609 0.18177594 0.06762083 0.02779594 -0.19513173 0.16179685 -0.12101321
0.054084674 0.17410763 -0.08350703 -0.13550846 0.15687846 -0.043783277 0.11749251 -0.21766403
0.10736553 -0.21323241 -0.0028383434 -0.021904334 -0.15218008 -0.07211315 0.26656222 -0.090412796
-0.19149189 -0.13252506 -0.00673031 0.1278187 0.019258901 -0.14863537 -0.33920148 0.12303856
-0.21107638 -0.15480098 0.2065235 0.060973838 -0.18931964 0.12091835 -0.13028397 -0.06366819
-0.32301006 0.10622668 0.19870226 0.12030089 -0.019990802 -0.052807167 0.16038485 -0.30769986
0.17866032 0.042788513 -0.10850952 -0.2264023 -0.026122533 0.0788496 0.090139404 -0.15475994
0.19476359 -0.13243602 -0.084951445 0.15275994 -0.10979806 -0.12262751 0.16696852 -0.10579308
0.2281784 0.112257436 -0.1376335 0.15776588 -0.2342834 0.056989122 -0.1492787 0.08966561
0.01635324 -0.17390576 -0.15197426 0.030297235 -0.14862418 0.03792961 0.16501026 0.0066884607
0.0012809893 0.30572528 0.20831643 0.07245567 -0.13514103 -0.1674361 -0.06543149 0.13054262
-0.1980419 0.28717232 0.1947013 0.00264871 0.15184182 0.23266022 0.14021577 0.07723431
0.15671985 -0.17473577 0.1310174 0.13734423 0.034132197 -0.11209199 0.21644486 -0.06619939
-0.15932737 -0.16448696 0.17189017 0.18490286 -0.20255835 -0.14900815 0.32346052 -0.11873106
0.14646965 0.13086665 0.2641861 -0.00944668 0.13542016 0.039924905 -0.024115965 -0.017852172
0.018342942 -0.1271789 0.103066035 0.18789516 -0.06707798 0.11752282 0.20956153 0.036732487
0.108688876 0.09659897 0.114172295 -0.17966329 0.036054477 0.13127993 -0.053150564 -0.049758315
0.06979243 -0.032770008 -0.1077808 0.12734233 0.061089978 -0.0416376 -0.031667292 -0.025993297
-0.031192843 0.14987479 0.21582438 -0.18996999 0.08225727 0.16465248 -0.10619467 -0.092515916
-0.091816776 0.23088357 -0.33148238 -0.063392356 -0.20318235 0.034438185 0.17949079 -0.13723919
-0.19350903 0.17291324 0.18702035 -0.11422676 -0.19643949 -0.15962464 0.10842594 0.030082999
0.11507134 -0.14932922 -0.12405324 -0.04928042 0.09491272 -0.23655388 0.15672919 -0.33254883
0.0033946421 -0.23178162 0.2055031 0.044310167 -0.021362156 -0.055510312 0.10248603 0.030802697
0.07745738 0.12701423 0.07469136 0.15351228 -0.19006634 -0.08558051 0.18485309 0.095132545
00000000: 91d9 f5bd 0e37 db3d da7b 2d3e 7209 f63d
00000010: 49c4 33be 8dfa 323e 979c 41be ca96 ca3c
00000020: 969f d7bd ba44 dd3d 5a98 8bbe b278 533e
00000030: d724 0dbe 488e eabd 160c 20be 1858 a23c
00000040: 0177 503e 6fdd 1c3e 1574 4ebe 6dcf 983a
00000050: 94dc 9a3d cd00 4dbd af7c 353d 92a0 ba3c
00000060: a378 4f3e d810 8cbc a9d0 583e 5eea aa3d
00000070: 400a d33d 4001 f93d 9a3b e23d dd9b 953d
00000080: 6318 1ebc fdb8 1f3e f408 2b3d 4ccf 3abd
00000090: fc1b 2a3d dca1 0dbd 1c70 f4bd 91bb 463e
000000a0: dc5b cb3c 5aed 013e 7e88 3fbd e23a 093e
000000b0: 4343 d13c 4dbc 5b3e 5059 d0bc b286 8d3d
000000c0: ab91 823d 8c6d f7bd 3f01 113d 8065 a83d
000000d0: 03d0 84bd 4d95 493e 14f6 22bd 3eb6 31be
000000e0: b602 c83d b00b 25bc a599 49be 61aa 023e
000000f0: 83b4 f3bd b480 fcbd 9ebb 7f3e 2e5f 21be
00000100: 5b34 36be bc00 51bd 7923 3a3e ca7c 8a3d
00000110: 50b4 e33c 9dd0 47be 13ae 253e c6d5 f7bd
00000120: e487 5d3d 4549 323e bc05 abbd bbc2 0abe
00000130: bfa4 203e 1856 33bd ea9f f03d 52e3 5ebe
00000140: 76e2 db3d 9959 5abe 8003 3abb b870 b3bc
00000150: 18d5 1bbe 0fb0 93bd d87a 883e 582a b9bd
00000160: 7316 44be a6b4 07be ef89 dcbb e8e2 023e
00000170: d8c4 9d3c df33 18be d1ab adbe a4fb fb3d
00000180: 6824 58be 2684 1ebe e57a 533e b4bf 793d
00000190: 02dd 41be 0aa4 f73d 2969 05be 7864 82bd
000001a0: 9361 a5be 608d d93d 9b78 4b3e 5060 f63d
000001b0: c0c3 a3bc 544c 58bd ed3b 243e d68a 9dbe
000001c0: bbf2 363e 0243 2f3d 3d3a debd 01d6 67be
000001d0: ecfe d5bc e67b a13d 029b b83d 6479 1ebe
000001e0: 1b70 473e 4f9d 07be 06fb adbd 1a6d 1c3e
000001f0: cedd e0bd 2224 fbbd ccf9 2a3e 0baa d8bd
00000200: 99a7 693e 3ae7 e53d ccef 0cbe 618d 213e
00000210: fde7 6fbe 6d6d 693d 84dc 18be 9aa2 b73d
00000220: 3bf7 853c 5a14 32be 249f 1bbe e831 f83c
00000230: f030 18be 145c 1b3d 73f8 283e e02a db3b
00000240: dee6 a73a 0688 9c3e e750 553e a363 943d
00000250: 6962 0abe 5e74 2bbe f200 86bd f7ac 053e
00000260: 7fcb 4abe 4008 933e c75f 473e fb95 2d3b
00000270: 6c7c 1b3e 7b3e 6e3e b994 0f3e 062d 9e3d
00000280: 2b7b 203e efed 32be 6d29 063e f7a3 0c3e
00000290: 34ce 0b3d 7c90 e5bd b9a3 5d3e 8c93 87bd
000002a0: b726 23be 456f 28be fa03 303e 2d57 3d3e
000002b0: 756b 4fbe 9895 18be 9e9c a53e 4529 f3bd
000002c0: 24fc 153e e801 063e 6743 873e 3fc6 1abc
000002d0: 95ab 0a3e 4c88 233d d88e c5bc b83e 92bc
000002e0: f043 963c 303b 02be 4914 d33d 9767 403e
000002f0: 2e60 89bd ceaf f03d 4c97 563e ce74 163d
00000300: 4698 de3d aed5 c53d 2ad3 e93d a7f9 37be
00000310: dcad 133d 3f6e 063e 68b4 59bd 60cf 4bbd
00000320: 55ef 8e3d d839 06bd 2ebc dcbd 0766 023e
00000330: 7c39 7a3d 308c 2abd 90b5 01bd e5ef d4bc
00000340: 2288 ffbc c778 193e 1101 5d3e 7e87 42be
00000350: 8076 a83d a99a 283e 977c d9bd fc78 bdbd
00000360: 6f0a bcbd be6c 6c3e 0fb8 a9be dad3 81bd
00000370: 090f 50be 0e0f 0d3d 6fcc 373e 6e88 0cbe
00000380: 3b27 46be 2b10 313e 4382 3f3e b8ef e9bd
00000390: 6f27 49be a474 23be 6b0e de3d 9f70 f63c
000003a0: 86aa eb3d c2e9 18be a00f febd 44da 49bd
000003b0: 9a61 c23d 2e3b 72be 9e7d 203e d743 aabe
000003c0: a578 5e3b 2958 6dbe 686f 523e 947e 353d
000003d0: b0ff aebc c85e 63bd 32e4 d13d f055 fc3c
000003e0: faa1 9e3d 0510 023e c9f7 983d 5332 1d3e
000003f0: c0a0 42be d644 afbd 214a 3d3e dad4 c23d

bias f4 [256]
-0.11492864 -0.11781101 0.0047046314 0.033185765 0.21401963 -0.04766978 -0.23644136 -0.1596561
0.11670137 -0.2344715 0.070540994 0.0017451735 0.08971566 0.18851747 -0.084460355 0.17492269
-0.07965731 0.19600186 -0.053054735 0.14824818 0.105439305 0.14900433 0.211789 -0.1893433
-0.10146274 0.03217055 -0.14885473 0.014001189 -0.18758497 -0.20976657 0.0072227153 0.040513095
-0.078679614 -0.20177798 -0.0054392433 0.24232693 -0.0019967477 0.23354124 0.13869525 -0.21947183
0.10591714 0.007837287 0.11097825 0.065583535 0.10553534 -0.005967465 0.109287836 0.029958814
-0.07894875 0.14307444 -0.2020106 0.00846552 0.08623457 -0.15064491 0.08452383 0.26385143
-0.051920246 0.09734352 0.082457475 -0.17463835 0.20226033 0.18858187 0.18435423 -0.19800803
0.06727967 -0.045230847 0.13784881 -0.14108983 -0.19304338 0.07328234 -0.13753666 -0.19441693
0.09006953 0.084765926 0.013133615 -0.06384487 0.16726537 0.10290213 -0.09397616 -0.08931073
0.19194123 -0.023117378 -0.089572266 -0.09512876 -0.10412613 -0.22055127 0.016260436 0.122900225
0.017368391 -0.14071432 -0.17183903 -0.16959968 0.19987743 -0.17741151 -0.01083006 -0.014539207
0.25499213 0.025752574 -0.123227894 0.14977323 0.04929026 -0.078826405 0.10644322 0.1447324
-0.12247968 -0.20639326 0.06367933 0.11179151 0.15826404 0.17590664 -0.015455037 -0.22024167
0.016895242 0.1332882 -0.118930794 -0.003191595 0.08097948 0.101578765 0.11114795 0.02668122
-0.07338313 0.04639814 0.07570399 -0.17261836 -0.10210182 -0.015567207 0.12139354 -0.18494804
0.115957364 -0.10586188 -0.018030014 0.04287328 0.20230608 0.06474455 -0.09831973 0.002675578
-0.17770123 0.15716831 -0.085026726 -0.09979753 -0.19919953 -0.01051621 0.20780326 0.09580715
0.17436768 -0.15664206 0.11567949 0.09583192 0.18692993 0.108774304 0.0672938 0.013456371
0.040990323 -0.1544984 -0.19183649 -0.03404878 -0.060756892 0.023948133 0.13614441 0.13290729
0.14757983 -0.11831421 -0.04810163 -0.11200705 -0.19194265 0.1635478 -0.06976435 -0.04577946
-0.19037583 0.2000599 -0.010077261 -0.19620483 0.26158684 -0.18837085 -0.015417655 0.08216332
0.133428 0.07604448 -0.064604364 -0.2075873 0.038929746 -0.050042477 0.21851428 0.13495935
-0.13441354 0.11456845 -0.23793477 0.1765461 -0.014271715 0.10705952 0.09109358 0.18682237
0.19753851 -0.17935893 0.20659673 -0.18979377 -0.029382477 0.21985464 0.10744973 -0.10268856
0.19007677 -0.14502218 -0.17306024 0.13642892 -0.006770234 -0.0069366544 -0.056708492 0.07415552
-0.17557047 0.18919137 0.17726447 -0.08071224 0.17507225 0.18632895 0.11331417 -0.11746401
-0.09078432 0.00842862 -0.120613284 -0.11717613 0.029031629 -0.027951568 0.17250663 -0.18520454
-0.1624506 -0.10406522 -0.04797876 0.028017566 -0.0892093 -0.08157127 0.15990232 0.12689476
-0.16032022 0.16954051 -0.19884484 0.058607318 -0.028247863 0.10491282 -0.16031404 -1.1727214e-05
0.08711295 -0.121367775 -0.1174792 0.1626956 0.18685077 0.1501117 -0.07706893 0.18199994
-0.10404863 0.010524457 -0.14791739 0.14421387 -0.10096479 0.1510145 -0.016091445 0.16592973
00000000: b55f ebbd e646 f1bd 4f29 9a3b cced 073d
00000010: f627 5b3e 6341 43bd af1d 72be e47c 23be
00000020: 2101 ef3d 4c19 70be cc77 903d 4ebe e43a
00000030: d8bc b73d b90a 413e 8df9 acbd ef1e 333e
00000040: 5f23 a3bd b6b4 483e ec4f 59bd 5fce 173e
00000050: 90f0 d73d 9794 183e 37df 583e 36e3 41be
00000060: b2cb cfbd 44c5 033d 606d 18be 3e65 653c
00000070: 4616 40be 0ccd 56be 87ac ec3b 0ff1 253d
00000080: c722 a1bd e39e 4ebe ae3b b2bb 8d24 783e
00000090: dedb 02bb 6f25 6f3e 2106 0e3e 39bd 60be
000000a0: 16eb d83d f767 003c 9148 e33d a950 863d
000000b0: ea22 d83d ba8a c3bb 4dd2 df3d 306c f53c
000000c0: e2af a1bd 1b82 123e dedb 4ebe f7b2 0a3c
000000d0: c09b b03d a942 1abe d41a ad3d 8917 873e
000000e0: 53aa 54bd 0a5c c73d 77df a83d 65d4 32be
000000f0: 551d 4f3e 9b1b 413e 5bc7 3c3e 9ec2 4abe
00000100: ecc9 893d fb43 39bd 3d28 0d3e da79 10be
00000110: 2aad 45be 0d15 963d 69d6 0cbe 3b15 47be
00000120: 6076 b83d c299 ad3d 602e 573c 19c1 82bd
00000130: 9d47 2b3e 5abe d23d 9376 c0bd 8be8 b6bd
00000140: 3e8c 443e a860 bdbc aa71 b7bd ded2 c2bd
00000150: 1540 d5bd 31d8 61be 9b34 853c 1db3 fb3d
00000160: 2848 8e3c 6a17 10be 92f6 2fbe 8aab 2dbe
00000170: abac 4c3e 5dab 35be 9070 31bc db35 6ebc
00000180: 548e 823e 10f7 d23c e85e fcbd 275e 193e
00000190: 95e4 493d bd6f a1bd e7fe d93d bb34 143e
000001a0: a0d6 fabd c158 53be 4f6a 823d f2f2 e43d
000001b0: f80f 223e df20 343e 2037 7dbc 0887 61be
000001c0: e467 8a3c b47c 083e fd91 f3bd 142a 51bb
000001d0: 92d8 a53d 8708 d03d 89a1 e33d 9392 da3c
000001e0: e549 96bd fa0b 3e3d b20a 9b3d dec2 30be
000001f0: c21a d1bd 990d 7fbc 2d9d f83d 0563 3dbe
00000200: 0e7b ed3d 1dce d8bd aeb3 93bc e49b 2f3d
00000210: 5329 4f3e ca98 843d db5b c9bd c058 2f3b
00000220: 50f7 35be bbf0 203e 7e22 aebd a662 ccbd
00000230: f6fa 4bbe 2f4c 2cbc 61ca 543e 8a36 c43d
00000240: 718d 323e c766 20be 5ee9 ec3d 8743 c43d
00000250: 8f6a 3f3e 10c5 de3d 55d1 893d 1c78 5c3c
00000260: 78e5 273d d434 1ebe c970 44be bc76 0bbd
00000270: 38dc 78bd e02e c43c 7169 0b3e d918 083e
00000280: 2b1f 173e b84e f2bd 3706 45bd f463 e5bd
00000290: 9d8c 44be 1379 273e 9de0 8ebd 3e83 3bbd
000002a0: e2f1 42be 81dc 4c3e 191b 25bc ebe9 48be
000002b0: b6ee 853e 4ae4 40be 559a 7cbc 3e45 a83d
000002c0: 5aa1 083e 35bd 9b3d 4b4f 84bd c491 54be
000002d0: cc74 1f3d 57f9 4cbd 35c2 5f3e c932 0a3e
000002e0: b4a3 09be dda2 ea3d 2ca5 73be 80c8 343e
000002f0: e9d3 69bc 0642 db3d 458f ba3d 5d4e 3f3e
00000300: 8947 4a3e dea9 37be 188e 533e 4c59 42be
00000310: 85b3 f0bc 9321 613e 9b0e dc3d 614e d2bd
00000320: 7ca3 423e b280 14be b436 31be 06b4 0b3e
00000330: d7d8 ddbb e04c e3bb 2a47 68bd d9de 973d
00000340: bfc8 33be 62bb 413e d184 353e 754c a5bd
00000350: 2446 333e 04cd 3e3e 4211 e83d f990 f0bd
00000360: 21ed b9bd 3218 0a3c 1904 f7bd 0afa efbd
00000370: bdd3 ed3c b0fa e4bc 94a5 303e 42a6 3dbe
00000380: 7359 26be 2520 d5bd 6085 44bd 1885 e53c
00000390: 5eb3 b6bd d70e a7bd 6fbd 233e b3f0 013e
000003a0: fc2a 24be 079c 2d3e fb9d 4bbe 3a0e 703d
000003b0: 1068 e7bc 88dc d63d 5d29 24be 00c0 44b7
000003c0: 4668 b23d ab8f f8bd ef98 f0bd ad99 263e
000003d0: cf55 3f3e e2b6 193e 51d6 9dbd 315e 3a3e
000003e0: 7317 d5bd c66e 2c3c a877 17be cdac 133e
000003f0: a1c6 cebd 8ca3 1a3e 35d2 83bc 7ce9 293e

weight f4 [256, 256]
0.034509927 -0.053106107 -0.056290723 -0.04915195 -0.041842744 -0.02060493 0.013129987 -0.016941845
-0.054536372 -0.021036804 -0.012100667 0.061437346 -0.040622897 0.0048990548 -0.054509513 0.026696332
-0.029406846 0.045052223 -0.033879146 0.04042781 0.005891949 0.026855677 -0.028540656 0.03683184
0.03209696 0.028303698 0.016492583 -0.01385089 0.0046697482 -0.06116043 0.025510587 0.012934394
-0.030172996 -0.019523509 -0.013999231 -0.0381129 -0.014828265 -0.0416362 0.008041859 -0.021341175
0.020254403 0.020985164 0.022489257 -0.002837479 0.031087302 0.022600092 -0.040721834 0.032055385
0.05474738 -0.0515939 0.029911533 0.017400324 0.00996349 -0.004060596 -0.045904048 -0.051620677
0.05860366 -0.0063802674 -0.042261817 -0.041492462 -0.021056004 0.05776964 -0.029601134 -0.03509932
-0.022208609 -0.062314928 -0.003954865 -0.034499183 0.025369711 0.038597032 0.05969511 0.026138522
-0.053410083 -0.03623198 -0.0041830614 -0.04599847 0.013223343 -0.036677636 -0.023079693 -0.0074459612
0.04539092 -0.04983604 0.0013878942 0.047169052 0.04134983 -0.008702248 0.053578407 0.033627845
0.051462904 0.03858561 -0.029459506 0.012557685 0.0044300184 0.034280837 -0.054794043 -0.032106437
-0.027444959 -0.013897799 0.0051085427 -0.014120899 -0.06179604 0.04739193 -0.01875183 -0.0112115145
0.030881166 -0.046399638 0.027411558 -0.05014766 0.008582413 0.0052423924 -0.022494987 0.012575977
0.041686796 0.0141024515 -0.00023449212 -6.0863793e-05 0.046196535 -0.022461735 -0.015042566 -0.014908798
0.0012782514 -0.009340286 -0.037796363 0.057394847 0.033252656 -0.03137175 0.00026043504 0.052672133
-0.0075996444 0.047091022 -0.00024492294 0.061667345 -0.005124204 -0.052634798 0.058098294 0.044460192
0.049066782 0.0039840117 0.00012913346 0.015038379 -0.032625712 0.0062632784 -0.028668754 0.043756597
-0.040400594 -0.059767142 0.0016921908 0.03328909 0.009858064 -0.009454079 0.00021018833 0.005904533
0.04874724 -0.0051318333 -0.012485936 0.042206377 0.06067501 -0.020664573 -0.024652228 0.03343115
-0.011270009 -0.017190173 -0.012846276 0.046512343 -0.04192952 0.019369759 -0.012529492 -0.015534148
0.029192604 0.020985708 0.0017223358 -0.047541447 0.01682847 -0.032838956 0.05577439 -0.036876105
-0.027835809 -0.026557714 0.0069157556 -0.05002506 -0.043502957 0.052759558 0.03365735 0.053032577
0.03740777 0.046183027 -0.0493436 -0.042507872 -0.03149827 0.025611058 -0.043780737 -0.020037822
-0.029295571 0.038994834 -0.0037119463 0.0038878024 -0.057444274 -0.03661178 0.012881793 -0.021703385
0.022867657 -0.053026453 0.044572026 0.038611807 0.058954865 -0.016259223 -0.047468774 0.05120778
-0.012257054 0.049098283 0.032359295 -0.032212526 0.04100611 -0.060844235 0.014089853 0.04925155
0.006714329 0.029417925 0.038615003 0.02579116 -0.02113372 0.058453217 -0.05329147 -0.003994219
-0.017871112 -0.055809744 -0.033309467 -0.046775103 0.058476932 0.035544224 -0.006242834 -0.05138997
-0.055695362 0.014588892 0.0064509064 -0.05325587 0.06158197 0.0319366 -0.020321026 0.0469279
-0.017433375 -0.025079258 0.05381935 -0.050047643 -0.052686356 0.005491942 -0.0061488375 0.013397634
-0.024871103 -0.00993453 0.04658983 -0.02319844 -0.018777497 0.05675984 -0.018078767 0.023589015
00000000: 485a 0d3d ca85 59bd 1a91 66bd 8e53 49bd
00000010: 4c63 2bbd accb a8bc 281f 573c a0c9 8abc
00000020: 8861 5fbd 6055 acbc e041 46bc baa5 7b3d
00000030: 3264 26bd 4088 a03b 5e45 5fbd 44b2 da3c
00000040: a0e6 f0bc ae88 383d dcc4 0abd a297 253d
00000050: 4011 c13b 7000 dc3c 18ce e9bc fcdc 163d
00000060: 1a78 033d 28dd e73c 741b 873c d8ee 62bc
00000070: b004 993b 5c83 7abd 94fb d03c c8ea 533c
00000080: 5c2d f7bc c4ef 9fbc 085d 65bc 461c 1cbd
00000090: 40f2 72bc b88a 2abd 00c2 033c b0d3 aebc
000000a0: 90ec a53c 14e9 ab3c 643b b83c 00f5 39bb
000000b0: ccaa fe3c d423 b93c f0cb 26bd 824c 033d
000000c0: ca3e 603d 2054 53bd 0809 f53c 208b 8e3c
000000d0: e83d 233c c00e 85bb e205 3cbd 3470 53bd
000000e0: 640a 703d 9011 d1bb ba1a 2dbd 00f4 29bd
000000f0: a47d acbc dc9f 6c3d 147e f2bc 4ec4 0fbd
00000100: d4ee b5bc f03d 7fbd d097 81bb 044f 0dbd
00000110: 24d4 cf3c ec17 1e3d dc82 743d 7420 d63c
00000120: 88c4 5abd fc67 14bd 1012 89bb e468 3cbd
00000130: b8a6 583c 4a3b 16bd a011 bdbc 40fd f3bb
00000140: d4eb 393d e020 4cbd 00ea b53a 5634 413d
00000150: 705e 293d e093 0ebc 0875 5b3d 5abd 093d
00000160: c4ca 523d f20b 1e3d 1055 f1bc c0be 4d3c
00000170: b029 913b 106a 0c3d b86f 60bd 0a82 03bd
00000180: 40d4 e0bc 98b3 63bc 9065 a73b 585b 67bc
00000190: d81d 7dbd 0a1e 423d 709d 99bc 80b0 37bc
000001a0: 80fa fc3c 8c0d 3ebd 348e e03c a267 4dbd
000001b0: 409d 0c3c 60c8 ab3b 6847 b8bc 780b 4e3c
000001c0: c6bf 2a3d f80d 673c 00e2 75b9 0048 7fb8
000001d0: 9438 3d3d ac01 b8bc 1875 76bc 0844 74bc
000001e0: 008b a73a 0008 19bc 5cd0 1abd dc16 6b3d
000001f0: f033 083d aa7f 00bd 008b 8839 bcbe 573d
00000200: 7006 f9bb 84e2 403d 0069 80b9 e696 7c3d
00000210: f0e8 a7bb 9697 57bd 7af8 6d3d e41b 363d
00000220: 40fa 483d 508c 823b 0068 0739 8863 763c
00000230: 8aa2 05bd 303c cd3b bcda eabc 1e3a 333d
00000240: 187b 25bd 64ce 74bd 80cc dd3a 245a 083d
00000250: b883 213c 48e5 1abc 0066 5c39 d07a c13b
00000260: 30ab 473d f028 a8bb d091 4cbc 98e0 2c3d
00000270: 5c86 783d c048 a9bc 78f3 c9bc 1aef 083d
00000280: d8a5 38bc 68d2 8cbc 3079 52bc ba83 3e3d
00000290: 4abe 2bbd 54ad 9e3c 8048 4dbc f082 7ebc
000002a0: 5425 ef3c 38ea ab3c 00c0 e13a d2ba 42bd
000002b0: dcdb 893c 2482 06bd b073 643d 660b 17bd
000002c0: ec07 e4bc 908f d9bc 909d e23b 14e7 4cbd
000002d0: 2830 32bd 681a 583d 4adc 093d b038 593d
000002e0: e438 193d 6a2a 3d3d 841c 4abd bc1c 2ebd
000002f0: 5404 01bd 48ce d13c 6e53 33bd 5c26 a4bc
00000300: 44fd efbc 0cb9 1f3d 2044 73bb 80ca 7e3b
00000310: b04a 6bbd 3cf6 15bd 280e 533c 4ccb b1bc
00000320: f454 bb3c 4432 59bd 2891 363d 6a27 1e3d
00000330: a87a 713d 1032 85bc 9e6e 42bd 40bf 513d
00000340: d0d1 48bc 481b 493d 2e8b 043d 48f1 03bd
00000350: 06f6 273d ce37 79bd 20d9 663c febb 493d
00000360: e003 dc3b dcfd f03c c42a 1e3d fc47 d33c
00000370: a020 adbc a46c 6f3d 2848 5abd f0e1 82bb
00000380: 7066 92bc c298 64bd 826f 08bd 4097 3fbd
00000390: 8285 6f3d d296 113d b090 ccbb 4a7e 52bd
000003a0: d220 64bd 4006 6f3c 2062 d33b d422 5abd
000003b0: 603d 7c3d f4cf 023d 4878 a6bc 7837 403d
000003c0: 70d0 8ebc 0473 cdbc ae71 5c3d c2fe 4cbd
000003d0: a6cd 57bd c0f5 b33b 307c c9bb c081 5b3c
000003e0: 7cbe cbbc 70c4 22bc fad4 3e3d a80a bebc
000003f0: 44d3 99bc 027d 683d ec19 94bc c03d c13c

bias f4 [256]
-0.022437304 0.024980372 0.01259919 0.07041037 0.08698983 0.028342828 -0.0032617305 -0.0057588248
0.04001087 0.060613547 0.01343271 0.034254804 0.063225016 0.051356148 -0.010528954 -0.06904967
0.0032981546 -0.0015256526 -0.016488336 0.018802762 -0.03435688 -0.039738085 0.07501008 -0.05702436
-0.05146452 0.019533955 0.020629318 -0.03026863 -0.021497393 0.06735302 0.0032846655 -0.039001238
-0.011755791 -0.019074699 0.05763926 0.10307239 -0.020762905 -0.03989873 0.044210672 -0.05783543
0.055878025 0.013274679 -0.0035194447 0.0010883346 -0.013163132 -0.011461717 -0.045917682 -0.04231606
0.075458534 0.0013121226 0.009166196 -0.061348043 -0.057111844 -0.03131919 0.078604706 0.03713028
0.08681048 -0.046802152 -0.031652607 0.008868082 -0.01951195 0.057094213 0.0050054677 -0.05464193
0.09137458 -0.03281385 0.02010322 0.004987396 -0.0052505066 0.058399927 -0.007866051 -0.039950214
0.00765836 0.010440338 -0.023213133 0.031080313 0.0082551595 0.005195774 0.0527675 0.092769004
-0.023854835 0.053661022 -0.060403068 0.08026791 0.002563493 -0.018581912 -0.037787426 0.06106912
0.060728226 0.05984602 0.016036628 -0.0028904402 0.012774996 0.029693026 -0.034189463 0.10491229
0.0035451408 0.06693449 -0.010392398 -0.01642617 -0.025089838 -0.061602443 -0.03280538 -0.02849027
-0.0016143605 0.048619512 -0.027689442 0.006400575 0.034406286 0.07479451 -0.059881173 0.02550253
0.07101788 0.051126648 0.06396927 0.057481587 -0.047643222 -0.03727287 0.0020772358 -0.005408666
0.0302732 0.012339083 -0.036344394 -0.02103943 -0.042590525 -0.045369364 0.02182091 -0.014790162
0.041654795 -0.013377253 0.09909273 0.032765515 -0.0032023385 0.10862072 0.04506774 0.051237687
0.019533187 0.065652885 -0.008929825 0.01886753 0.04566173 0.05535214 -0.021869274 0.016859112
0.06231829 -0.06682638 0.0552947 0.0392427 -0.043742858 0.077867314 -0.0009494344 0.0758575
-0.047831096 0.020723194 0.027488323 -0.0013718209 0.055305313 0.044614032 -0.050448306 -0.011448126
0.05614889 0.018520279 -0.049129035 0.023844408 -0.0029395733 -0.043376405 -0.014259803 0.041425783
-0.030117847 -0.011300799 0.0031212752 -0.05881955 0.03237047 0.016178934 -0.05058726 0.062023737
0.008277541 0.035076983 0.088586874 0.0049626967 0.03560165 0.004659714 0.023532452 0.042078093
0.015430458 -0.03514269 -0.054311488 -0.01575772 -0.035795677 0.030890731 -0.04089209 -0.040146954
-0.05093895 0.05224269 -0.05735088 -0.027600218 0.014513056 0.012635252 0.049445372 -0.036872137
-0.028896855 0.025218993 0.037299298 -0.04581991 0.018826757 0.016276442 -0.014490217 -0.026357401
0.09914451 0.047129303 -0.012386607 0.005904139 0.029247737 0.037642777 -0.01260218 0.012899268
-0.06219281 0.05943749 0.00279373 0.035302058 0.020195879 0.013745964 0.037081923 0.08531041
0.0030710995 -0.050086997 0.057449117 -0.056300595 -0.015041327 -0.01708991 0.05885027 0.017661788
-0.043228023 0.038732782 0.07293414 -0.046739176 0.042443436 -0.025498033 -0.050323658 0.008651878
0.027481798 0.006819838 -0.032491907 0.049162492 0.019153858 0.023820264 -0.0538293 -0.027061269
0.024541914 0.09559418 -0.005066362 0.10938804 0.0015972286 -0.0057760277 0.04968905 -0.049637314
00000000: 70ce b7bc a3a3 cc3c d56c 4e3c 5033 903d
00000010: b927 b23d 382f e83c c2c2 55bb 86b4 bcbb
00000020: 70e2 233d e945 783d df14 5c3c c44e 0c3d
00000030: 1e7c 813d d35a 523d a281 2cbc ea69 8dbd
00000040: da25 583b 68f8 c7ba 8c12 87bc 4008 9a3c
00000050: cdb9 0cbd 67c4 22bd e39e 993d 6092 69bd
00000060: 76cc 52bd ac05 a03c d1fe a83c ebf5 f7bc
00000070: 4d1b b0bc 61f0 893d 8b43 573b c3bf 1fbd
00000080: 5c9b 40bc 8b42 9cbc 2517 6c3d 9e17 d33d
00000090: f816 aabc da6c 23bd 4016 353d d8e4 6cbd
000000a0: 5be0 643d 0a7e 593c 7ca6 66bb 73a6 8e3a
000000b0: 2daa 57bc edc9 3bbc 2e14 3cbd 9b53 2dbd
000000c0: 018a 9a3d 87fb ab3a d02d 163c 1648 7bbd
000000d0: 1cee 69bd 8d48 00bd 81fb a03d ec15 183d
000000e0: b1c9 b13d 9db3 3fbd 2aa6 01bd 6f4b 113c
000000f0: 86d7 9fbc 9fdb 693d e804 a43b 37d0 5fbd
00000100: 9922 bb3d d167 06bd 82af a43c 4f6d a33b
00000110: 710c acbb c334 6f3d 9ce0 00bc d6a2 23bd
00000120: fbf2 fa3b f40d 2b3c 7829 bebc 249c fe3c
00000130: a640 073c 5041 aa3b bc22 583d adfd bd3d
00000140: 376b c3bc a9cb 5b3d 3569 77bd 8163 a43d
00000150: 4700 283b 1839 98bc fdc6 1abd 9d23 7a3d
00000160: 29be 783d 1a21 753d 3f5f 833c 8a6d 3dbb
00000170: 384e 513c ca3e f33c 400a 0cbd 41dc d63d
00000180: 9855 683b f314 893d e044 2abc 2d90 86bc
00000190: 3489 cdbc d852 7cbd ef5e 06bd 6d64 e9bc
000001a0: f398 d3ba 4125 473d f8d4 e2bc eabb d13b
000001b0: 9bed 0c3d dd2d 993d f645 75bd afea d03c
000001c0: d371 913d 2d6a 513d 5202 833d d071 6b3d
000001d0: 8a25 43bd 70ab 18bd 3c22 083b 2e3b b1bb
000001e0: 80ff f73c dd29 4a3c dcdd 14bd e25a acbc
000001f0: 6773 2ebd 3ad5 39bd c4c1 b23c 7052 72bc
00000200: 389e 2a3d 442c 5bbc 21f1 ca3d 2235 063d
00000210: 53de 51bb 8a74 de3d f398 383d 9cde 513d
00000220: 1004 a03c 0575 863d 674e 12bc 1490 9a3c
00000230: cb07 3b3d edb8 623d 3127 b3bc 1f1c 8a3c
00000240: 7741 7f3d 45dc 88bd b27c 623d f4bc 203d
00000250: b62b 33bd e678 9f3d 77e3 78ba 2d5b 9b3d
00000260: 8aea 43bd b0c3 a93c 312f e13c acce b3ba
00000270: d387 623d 34bd 363d e2a2 4ebd ec90 3bbc
00000280: 61fc 653d d7b7 973c 873b 49bd 5955 c33c
00000290: dba5 40bb 75ab 31bd f3a1 69bc 15ae 293d
000002a0: b4b9 f6bc fd26 39bc 4f8e 4c3b c5ec 70bd
000002b0: e696 043d af89 843c 9634 4fbd 9a0c 7e3d
000002c0: 869e 073c e2ac 0f3d 096d b53d 1e9e a23b
000002d0: 09d3 113d 84b0 983b 21c7 c03c 145a 2c3d
000002e0: 08d0 7c3c c8f1 0fbd b975 5ebd 5616 81bc
000002f0: 7d9e 12bd 8f0e fd3c 777e 27bd 2271 24bd
00000300: 5ca5 50bd 6efc 553d c2e8 6abd da19 e2bc
00000310: 2bc8 6d3c 1704 4f3c 3b87 4a3d 3d07 17bd
00000320: 19b9 ecbc 1098 ce3c 26c7 183d a8ad 3bbd
00000330: 923a 9a3c 2c56 853c 6068 6dbc 7aeb d7bc
00000340: 470c cb3d a80a 413d 32f1 4abc 8277 c13b
00000350: f398 ef3c 502f 1a3d 6079 4ebc 7457 533c
00000360: e3bd 7ebd ba74 733d 0317 373b e498 103d
00000370: d471 a53c c036 613c 37e3 173d 39b7 ae3d
00000380: 8044 493b 0628 4dbd c44f 6b3d 749b 66bd
00000390: e66f 76bc 2400 8cbc fb0c 713d 74af 903c
000003a0: de0f 31bd 44a6 1e3d 7f5e 953d 9471 3fbd
000003b0: 2bd9 2d3d 40e1 d0bc 2e20 4ebd 9bc0 0d3c
000003c0: 8221 e13c f378 df3b 3c16 05bd 9c5e 493d
000003d0: 8de8 9c3c b722 c33c 1d7c 5cbd 98af ddbc
000003e0: 200c c93c e2c6 c33d ba03 a6bb d606 e03d
000003f0: 195a d13a d544 bdbb bf86 4b3d 7f50 4bbd

weight f4 [1, 256]
0.04496353 0.20723465 -0.24487005 0.17659038 0.2675048 0.16443068 0.3020533 0.24701898
-0.048903495 -0.28167757 -0.2551461 -0.27487564 0.22731893 -0.0073805815 0.24914077 0.014765585
0.01486051 -0.2450535 -0.021225989 -0.04890839 -0.26593804 -0.22206077 0.20829913 -0.23479228
0.007978544 -0.24623251 0.2435881 -0.21359612 0.26387158 -0.26355818 0.058598496 -0.0007038512
0.19956663 0.016116649 0.25238097 0.2612914 0.013906553 0.05917971 0.036815643 0.037108958
0.28867626 -0.23595504 -0.19518918 -0.008472821 0.05789925 -0.24845493 -0.061714813 -0.2185463
0.16659753 0.21224655 -0.04306463 -0.057464577 -0.22546197 -0.05072178 0.10822469 0.2127216
0.21404003 -0.25217485 0.059266813 0.27063832 0.0071052285 0.28135687 0.18286353 0.05700826
0.23795363 -0.26265597 0.28209895 0.04862644 -0.27001655 0.032175172 -0.18390995 -0.034149244
0.27765238 -0.28067777 -0.054402024 -0.03137985 -0.032199763 0.014923252 0.046677634 0.144368
-0.21855177 -0.18602347 -0.027044453 0.24635954 0.20428443 -0.2713822 0.029974043 -0.26714033
-0.24488184 0.05388642 -0.27074423 0.15394351 0.014690988 -0.22057028 0.05741001 0.2758787
-0.25744748 0.27893844 0.025755415 -0.21816666 0.010582756 0.015176505 0.0058460706 0.00070520956
0.19023591 -0.25196326 0.014537081 -0.2037855 0.28469703 0.1963709 -0.052272145 0.0306998
0.23709133 -0.22196117 -0.23762207 0.10586664 0.014556654 0.01998742 0.1842426 0.24960142
0.016851248 -0.2605755 0.037230417 -0.2350363 0.032420762 0.018463695 -0.24235506 0.008570924
0.023059964 -0.29144046 0.25570604 0.26399547 0.05218116 0.23777543 0.25631607 -0.24036428
0.019221593 -0.23873207 0.040560734 -0.012074977 -0.20855895 0.2422214 0.05329709 0.204917
-0.22677849 0.0020505723 -0.2373474 0.17713134 -0.03650453 0.24848767 -0.26743802 0.27481362
-0.040694006 -0.038681515 0.28444105 -0.28360778 0.04170348 -0.23310934 -0.058615137 0.2589
0.03433387 0.025612302 -0.26787683 0.050477557 -0.23840119 -0.1674521 -0.2772282 -0.2198162
-0.23274338 -0.24134651 0.2793506 -0.2446533 -0.28881276 0.1956614 -0.24639508 -0.20761491
-0.2405102 -0.22226892 0.26043302 0.04015374 -0.24405958 -0.27694523 0.018628608 0.23496947
-0.061046682 -0.22414081 0.0076160724 -0.21932016 0.021832718 0.2554209 -0.23166668 -0.0023151042
-0.020661006 0.21484035 0.01951183 -0.25239247 -0.25960216 -0.20771176 -0.25520834 -0.21850908
-0.21204159 -0.20218495 0.011173204 0.061747253 -0.26557654 -0.27527192 0.059307225 -0.2735331
0.19916019 -0.20717907 -0.03464371 0.26175353 -0.27269927 -0.040865265 0.032639027 0.24562491
0.004076559 -0.22232796 -0.23472644 0.3013297 -0.25302887 -0.28235984 -0.25345564 0.29850307
-0.0018905848 -0.21923967 0.15723695 -0.26361695 0.14983524 -0.048123904 0.2796817 0.2415548
-0.02446843 0.009812387 0.23308124 -0.2795216 -0.24894734 -0.27577955 -0.1030387 -0.22702427
-0.25603485 0.027968716 -0.2605339 0.17563084 0.100364044 -0.22100227 -0.26813367 0.051890716
0.28483754 0.1700261 -0.20272866 0.24845096 -0.28276193 -0.28104973 0.26566443 -0.2576074
00000000: ae2b 383d 5235 543e 37bf 7abe 1cd4 343e
00000010: 64f6 883e 8460 283e bba6 9a3e 8bf2 7c3e
00000020: 084f 48bd 0b38 90be 82a2 82be 80bc 8cbe
00000030: 4bc6 683e ced8 f1bb c21e 7f3e 5aeb 713c
00000040: 7f79 733c 4eef 7abe 20e2 adbc 2a54 48bd
00000050: 0829 88be e663 63be 5e4c 553e 636d 70be
00000060: 70b8 023c 6024 7cbe 296f 793e f1b8 5abe
00000070: 2d1a 873e 19f1 86be fa04 703d a882 38ba
00000080: 325b 4c3e 1007 843c 1438 813e fdc7 853e
00000090: 50d8 633c 6c66 723d 00cc 163d 90ff 173d
000000a0: 60cd 933e 339e 71be acdf 47be 96d1 0abc
000000b0: c427 6d3d f86a 7ebe acc8 7cbd 9aca 5fbe
000000c0: 8b98 2a3e 2957 593e 8a64 30bd fa5f 6bbd
000000d0: 81df 66be a4c1 4fbd e8a4 dd3d b1d3 593e
000000e0: 4f2d 5b3e 101d 81be c2c1 723d 1b91 8a3e
000000f0: fad2 e83b 020e 903e 9440 3b3e 7e81 693d
00000100: 1eaa 733e d87a 86be 466f 903e 852c 473d
00000110: 9c3f 8abe 1dca 033d e452 3cbe 14e0 0bbd
00000120: 7428 8e3e ffb4 8fbe a8d4 5ebd 2888 00bd
00000130: e6e3 03bd a880 743c 0c31 3f3d 34d5 133e
00000140: 09cc 5fbe f07c 3ebe 548c ddbc ad45 7c3e
00000150: f02f 513e 9cf2 8abe 208c f53c 9ec6 88be
00000160: 4ec2 7abe 02b8 5c3d fd9e 8abe 5ea3 1d3e
00000170: 78b2 703c 2ddd 61be c226 6b3d f93f 8d3e
00000180: 28d0 83be 05d1 8e3e 05fd d23c 1567 5fbe
00000190: 4c63 2d3c e0a6 783c 6590 bf3b d0dd 383a
000001a0: 34cd 423e 5401 81be f02c 6e3c 25ad 50be
000001b0: cfc3 913e 7415 493e 511b 56bd 267e fb3c
000001c0: 12c8 723e ca49 63be 3353 73be 9cd0 d83d
000001d0: 087f 6e3c a8bc a33c 18aa 3c3e 8497 7f3e
000001e0: a10b 8a3c 276a 85be ec7e 183d 5bad 70be
000001f0: a2cb 043d 2d41 973c ed2b 78be 106d 0c3c
00000200: 40e8 bc3c af37 95be e7eb 823e 6a2a 873e
00000210: e9bb 553d 677b 733e dc3b 833e 0e22 76be
00000220: 9a76 9d3c 2e76 74be 0323 263d 20d6 45bc
00000230: 7a90 55be e308 783e 0d4e 5a3d c3d5 513e
00000240: 9f38 68be e562 063b 320b 73be eb61 353e
00000250: c685 15bd 8d73 7e3e a3ed 88be 5fb4 8c3e
00000260: c2ae 26bd 8270 1ebd 42a2 913e 0a35 91be
00000270: 45d1 2a3d 37b4 6ebe 6d16 70bd 8a8e 843e
00000280: aca1 0c3d e4d0 d13c 2727 89be 8ec1 4e3d
00000290: 711f 74be 9078 2bbe dbf0 8dbe 7f17 61be
000002a0: 4854 6ebe 8a23 77be 0b07 8f3e 6586 7abe
000002b0: 44df 93be 765b 483e fe4e 7cbe 0199 54be
000002c0: 4e48 76be 779a 63be 7a57 853e 4078 243d
000002d0: c1ea 79be c4cb 8dbe 069b 983c d69b 703e
000002e0: 160c 7abd 2b85 65be 3f90 f93b 7795 60be
000002f0: 87da b23c 87c6 823e 083a 6dbe 01b9 17bb
00000300: 4541 a9bc 1cff 5b3e 46d7 9f3c 9639 81be
00000310: 93ea 84be 64b2 54be abaa 82be d8c0 5fbe
00000320: 6e21 59be 9209 4fbe d00f 373c b0ea 7c3d
00000330: a6f9 87be 71f0 8cbe 22ec 723d 880c 8cbe
00000340: a6f0 4b3e c026 54be 90e6 0dbd 8f04 863e
00000350: 3d9f 8bbe 5662 27bd 80b0 053d 1985 7b3e
00000360: a894 853b f1a9 63be 215c 70be e347 9a3e
00000370: 008d 81be 7891 90be f0c4 81be 65d5 983e
00000380: 80cd f7ba 5d80 60be b902 213e cdf8 86be
00000390: 696e 193e 921d 45bd 7132 8f3e 245a 773e
000003a0: 0472 c8bc 22c4 203c d9ac 6e3e 751d 8fbe
000003b0: 0dec 7ebe fa32 8dbe f405 d3bd 0d79 68be
000003c0: 0017 83be a61e e53c b364 85be 92d8 333e
000003d0: aa8b cd3d 6b4e 62be d148 89be 5c8b 543d
000003e0: 3ad6 913e 521b 2e3e 1a98 4fbe ee69 7e3e
000003f0: 2cc6 90be c0e5 8fbe 2b05 883e 1ee5 83be

weight f4 [256, 21]
-0.15789187 0.025228305 -0.027041618 -0.15959832 0.026642218 -0.05758056 0.25591597 -0.11891127
0.29291224 0.021384401 0.18776229 0.04898006 -0.005430758 -0.12169433 0.10154934 -0.09120524
-0.16000094 -0.09892956 -0.01679324 0.16236134 0.12579566 -0.21173784 0.19574194 -0.045833327
-0.010058776 -0.0049018264 -0.019804597 0.17887904 -0.058752313 -0.0099665625 0.08935133 0.2462686
0.12437823 -0.020982757 0.08056103 0.03702335 -0.2148548 0.10918884 -0.01036337 -0.030138709
0.061826803 0.010223749 0.025458226 0.022632167 -0.16337104 -0.16638437 -0.041781202 0.15532146
-0.2555298 -0.050877385 0.05382429 0.08545287 -0.095886655 0.21204343 -0.08999902 0.17404263
-0.063071296 0.04141219 0.022520646 -0.0007394105 -0.16281812 0.15760674 -0.109180026 0.11626266
-0.1940503 0.080099896 -0.21640292 -0.11471456 -0.04884793 0.16641597 -0.13985129 -0.021152977
0.19808957 0.30196354 -0.05839723 0.14236636 -0.14418548 -0.034244493 0.19151147 0.024899155
0.1109602 -0.052966103 -0.19618416 -0.103221186 0.047677334 -0.050132 0.13413322 -0.0048231333
0.112340346 0.07841317 -0.086934604 0.13255043 -0.27626652 0.16489737 -0.17933555 0.1629469
0.1913683 -0.14912787 0.03218223 -0.14341207 -0.08830522 0.07964347 0.08203539 0.19456828
0.12264877 -0.072755516 0.06683715 -0.14990236 0.019742921 -0.13827777 -0.1616553 -0.008880243
-0.08903009 -0.16718695 -0.15467554 0.078391925 0.0860305 0.12923066 0.17564993 -0.068778396
-0.064863354 -0.20543005 0.021255508 0.034804597 -0.12703778 0.0076384842 -0.071528815 0.22219779
0.18503855 -0.021414652 0.19096361 0.091155246 -0.13721801 -0.05089357 -0.11855746 -0.045955066
-0.21521926 0.20517628 -0.18003756 0.054467186 -0.20739366 -0.030302882 0.18669058 0.21020742
-0.14715703 -0.24484903 -0.10182274 0.14394967 -0.0023654455 0.054512043 0.13491563 -0.039522827
0.09956755 -0.2850802 -0.052419 -0.12621549 0.058256924 -0.3183197 0.06675592 0.09948109
0.19927512 -0.15644665 -0.008345142 0.04467608 -0.018958107 -0.11413214 0.030702228 0.104526766
0.22644824 0.12894557 -0.1448346 -0.056944713 0.19625308 -0.15114869 -0.023517415 -0.08860892
-0.16818787 -0.0014403291 -0.35022187 0.18698132 -0.1565609 -0.009763479 -0.099090874 -0.023945212
-0.1498656 -0.18433198 0.088287175 -0.10874937 -0.11025908 -0.04458816 0.16118407 -0.1699153
0.16726346 -0.13987324 0.15763603 0.010730838 -0.053637892 0.09855751 0.20134419 0.18614934
0.16602284 -0.18297727 -0.1921067 0.12982951 -0.020936683 -0.012540355 0.07245381 -0.103715636
-0.01997945 -0.021575788 -0.11921237 0.04971169 -0.20482905 0.21128295 -0.008015573 0.10519548
-0.0062099695 0.12873812 -0.1390498 -0.08841956 0.014741719 -0.0973559 -0.18446915 0.2128173
-0.0014860779 0.12538616 0.15639703 0.023441166 -0.18017668 -0.033936724 -0.14302899 -0.06818742
-0.03317132 -0.115915336 0.10847144 0.19519864 0.14414869 0.27063686 -0.043944094 -0.09589896
0.20061421 0.30652475 -0.025809811 -0.13690332 0.124448255 -0.20686969 -0.18563487 -0.091478154
0.18154426 -0.18947943 0.20961829 0.21741684 -0.08321279 -0.12171847 -0.1234639 0.09681116
00000000: 68ae 21be 97ab ce3c 6286 ddbc be6d 23be
00000010: c840 da3c 98d9 6bbd 6b07 833e c087 f3bd
00000020: 98f8 953e 572e af3c c244 403e 519f 483d
00000030: 80f4 b1bb e03a f9bd 1af9 cf3d d0c9 babd
00000040: 49d7 23be 959b cabd fa91 89bc 0d42 263e
00000050: 94d0 003e ced1 58be 9370 483e babb 3bbd
00000060: 90cd 24bc 809f a0bb 403d a2bc 112c 373e
00000070: 44a6 70bd cb4a 23bc d5fd b63d d62d 7c3e
00000080: 03ba fe3d 08e4 abbc 2efd a43d cca5 173d
00000090: e602 5cbe 669e df3d 20cb 29bc 74e5 f6bc
000000a0: 1a3e 7d3d 8381 273c c58d d03c 1867 b93c
000000b0: bd4a 27be aa60 2abe c422 2bbd 970c 1f3e
000000c0: cdd4 82be ce64 50bd dc76 5c3d ea01 af3d
000000d0: 3960 c4bd ea21 593e 6851 b8bd 3b38 323e
000000e0: 862b 81bd d49f 293d 387d b83c 00d5 41ba
000000f0: cbb9 26be a963 213e c799 dfbd 1e1b ee3d
00000100: 1fb5 46be 6a0b a43d ba98 5dbe 78ef eabd
00000110: c414 48bd f368 2a3e 2d35 0fbe 0249 adbc
00000120: fed7 4a3e f79a 9a3e ef31 6fbd 7dc8 113e
00000130: 5ca5 13be f443 0cbd 951b 443e 50f9 cb3c
00000140: 1a3f e33d fcf2 58bd 80e4 48be a165 d3bd
00000150: 4f49 433d 3657 4dbd 385a 093e 600b 9ebb
00000160: b212 e63d 1697 a03d c50a b2bd 4dbb 073e
00000170: ce72 8dbe dbda 283e bda3 37be 8ddb 263e
00000180: 0df6 433e fab4 18be 84d1 033d 9dda 12be
00000190: 5ed9 b4bd 1e1c a33d 2c02 a83d e83c 473e
000001a0: 472f fb3d d800 95bd eae1 883d 0180 19be
000001b0: e8bb a13c b098 0dbe f888 25be 707e 11bc
000001c0: 6855 b6bd 0e33 2bbe 4463 1ebe f28b a03d
000001d0: c230 b03d 0b55 043e 93dd 333e b0db 8cbd
000001e0: 14d7 84bd 415c 52be 0820 ae3c 448f 0e3d
000001f0: 3116 02be 404c fa3b b37d 92bd d187 633e
00000200: bf7a 3d3e c86d afbc f78b 433e 9aaf ba3d
00000210: e182 0cbe c775 50bd 41ce f2bd 613b 3cbd
00000220: 7062 5cbe bb19 523e c45b 38be fc18 5f3d
00000230: 015f 54be c03d f8bc d12b 3f3e 9d40 573e
00000240: 55b0 16be b4b9 7abe 7188 d0bd 8b67 133e
00000250: 9705 1bbb 0548 5f3d 5327 0a3e b0e2 21bd
00000260: 12ea cb3d 08f6 91be 4eb5 56bd a23e 01be
00000270: d09e 6e3d cdfa a2be 54b7 883d bebc cb3d
00000280: c70e 4c3e 8d33 20be 10ba 08bc 44fe 363d
00000290: 084e 9bbc 1dbe e9bd 3d83 fb3c 2112 d63d
000002a0: 0ce2 673e 4f0a 043e 854f 14be dc3e 69bd
000002b0: 91f6 483e b9c6 1abe 98a7 c0bc 9878 b5bd
000002c0: 7139 2cbe 6dc9 bcba 4850 b3be 0878 3f3e
000002d0: 8051 20be 00f7 1fbc 28f0 cabd c028 c4bc
000002e0: 5e76 19be 86c1 3cbe e8cf b43d fdb7 debd
000002f0: 83cf e1bd 13a2 36bd 700d 253e 47fe 2dbe
00000300: 1d47 2b3e ee3a 0fbe 576b 213e 66d0 2f3c
00000310: 68b3 5bbd 85d8 c93d 2c2d 4e3e ef9d 3e3e
00000320: e401 2a3e 655e 3bbe 9eb7 44be 07f2 043e
00000330: 6883 abbc 1076 4dbc aa62 943d dd68 d4bd
00000340: f2ab a3bc b5bf b0bc 9d25 f4bd 7c9e 4b3d
00000350: b5be 51be 8f5a 583e c053 03bc ba70 d73d
00000360: 007d cbbb edd3 033e 1263 0ebe 5015 b5bd
00000370: 4087 713c 8862 c7bd 7be5 3cbe c7ec 593e
00000380: 80c8 c2ba 3b65 003e 8b26 203e b007 c03c
00000390: 3c80 38be 3c01 0bbd 3176 12be d9a5 8bbd
000003a0: a6de 07bd 0565 edbd 4626 de3d 27e2 473e
000003b0: b79b 133e ea90 8a3e b9fe 33bd ad66 c4bd
000003c0: d06d 4d3e d0f0 9c3e 196f d3bc 6230 0cbe
000003d0: bade fe3d a6d5 53be 1117 3ebe e658 bbbd
000003e0: bde6 393e e506 42be 2da6 563e 85a2 5e3e
000003f0: 786b aabd 8847 f9bd a4da fcbd ee44 c63d

bias f4 [256]
0.14162496 0.093001656 -0.19797397 0.18480189 0.090143226 0.11812793 -0.09047265 -0.06419304
-0.17461382 -0.010236428 -0.08632153 0.10096856 0.19652666 -0.062094 -0.03907806 0.08350322
0.013581395 0.1364192 0.19233179 -0.1437127 -0.062302366 -0.13183308 -0.15760748 0.14402188
-0.04000002 0.0020956341 0.12866825 0.11130764 0.043461826 0.13226394 0.18697698 0.04620362
0.105325505 0.17747188 0.23529099 0.14638084 -0.14292863 0.081825 -0.084609516 -0.18426877
-0.0035681594 -0.1786727 -0.15397403 0.1649329 -0.077797726 -0.10032258 0.2142399 -0.16547902
0.2234728 -0.044583492 -0.042024106 0.077375375 0.078186885 0.13775808 -0.13255739 -0.15511793
-0.20262703 0.013849578 -0.060468588 0.1795546 -0.13204351 0.007888362 0.24742724 0.11176684
-0.05440578 0.1729761 -0.20678848 -0.12102341 0.23268533 0.18529248 -0.19800675 0.10596965
0.13207719 0.13798667 0.17430624 0.08436948 -0.10328642 -0.1454943 0.24991414 -0.003117447
0.010257423 -0.013373586 0.10549198 -0.077228054 0.1961882 -0.11270578 0.14043947 -0.1211272
-0.20805055 0.024112632 0.03238422 -0.10225743 0.23034032 0.29137862 0.009637002 0.13126124
0.029210096 0.07099502 0.20030268 0.078391686 -0.11298615 0.13385555 -0.03156566 -0.052125264
-0.12639569 -0.051990125 0.112885386 0.14999428 -0.08908435 -0.03959029 0.1798306 0.22573128
-0.12112052 0.21891238 -0.2022905 -0.13893528 -0.07310166 -0.058420084 -0.07387264 -0.0802355
-0.077772595 0.08426889 0.08410834 -0.18166915 0.111811705 0.09246897 -0.19687486 0.23936856
-0.013186548 0.04791753 0.04903406 -0.1875256 0.12186658 0.08553778 0.121366985 -0.1222499
0.13454078 -0.2316505 0.19149049 0.0030977693 -0.03550893 0.041915786 -0.19112097 -0.038071066
-0.12418914 0.21655524 -0.15289 -0.09627198 -0.06863768 0.15317558 0.15133035 0.13474517
0.09188782 0.16486365 0.11587319 -0.15819852 -0.011261869 -0.2092568 0.18272692 0.15558906
0.08639555 0.065401755 0.08079411 0.033999156 0.028702673 -0.09484767 0.009814 0.03668623
-0.07601542 -0.07741552 0.16702671 -0.052772444 -0.1299332 -0.011906378 0.13622 0.064318515
0.21457087 0.20677108 -0.1101024 -0.18695712 0.19268547 0.10440819 0.011981168 0.2226785
0.042371478 0.038609758 -0.22014157 0.14519171 0.0271569 0.036856547 -0.15938178 0.11631339
0.14297079 -0.15705131 0.037941877 0.07809731 0.086322956 -0.049429934 0.046162438 0.060966954
0.17498888 -0.0069586635 0.04914929 0.020690085 -0.13133274 -0.051523 -0.094132416 -0.19357745
0.0112942755 -0.012269676 -0.04179134 0.1094103 -0.0034385393 0.07600738 -0.061353385 0.063091315
0.16864537 -0.030818386 -0.1619846 -0.08513054 -0.11883301 0.08360265 0.09213521 0.23976079
0.01843685 -0.016798032 -0.19840458 -0.10829283 0.19028363 -0.10186299 0.044883694 0.15212469
-0.023864642 -0.12260558 0.016818631 -0.20420066 0.2279212 0.08593188 0.19329697 -0.19544354
0.006144799 0.016815877 0.22738884 0.18066126 0.043277036 0.0745859 -0.049213395 0.08652096
0.24884246 0.003725201 0.03593716 0.021342397 0.039893582 0.21963589 0.105033405 -0.12588993
00000000: 2206 113e a777 be3d b0b9 4abe b53c 3d3e
00000010: 039d b83d 0eed f13d ba49 b9bd a477 83bd
00000020: f7cd 32be b1b6 27bc 58c9 b0bd 9bc8 ce3d
00000030: 493e 493e 4756 7ebd 5110 20bd bc03 ab3d
00000040: 8084 5e3c 7ab1 0b3e a0f2 443e 6c29 13be
00000050: c430 7fbd 40ff 06be db63 21be 797a 133e
00000060: 10d7 23bd e856 093b 9cc1 033e 43f5 e33d
00000070: 0705 323d 3370 073e e576 3f3e 0240 3d3d
00000080: e6b4 d73d 30bb 353e 1ff0 703e dce4 153e
00000090: e25b 12be de93 a73d c147 adbd f4b0 3cbe
000000a0: c8d7 69bb faf5 36be 5eab 1dbe 2ce4 283e
000000b0: 6a54 9fbd ed75 cdbd b461 5b3e 5573 29be
000000c0: 0ed6 643e 2e9d 36bd 7821 2cbd fb76 9e3d
000000d0: 7220 a03d 7410 0d3e 20bd 07be 3cd7 1ebe
000000e0: 767d 4fbe 57e9 623c e9ad 77bd 29dd 373e
000000f0: 6a36 07be 303e 013c 915d 7d3e 03e6 e43d
00000100: 98d8 5ebd a620 313e 5cc0 53be 1fdb f7bd
00000110: 1045 6e3e 50bd 3d3e 48c2 4abe 9e06 d93d
00000120: 3e3f 073e 614c 0d3e 567d 323e e8c9 ac3d
00000130: d587 d3bd 75fc 14be 7ee9 7f3e 154e 4cbb
00000140: c00e 283c e31c 5bbc 2e0c d83d be29 9ebd
00000150: 8fe5 483e 4ad2 e6bd 5dcf 0f3e 8a11 f8bd
00000160: 340b 55be db87 c53c 51a5 043d 586c d1bd
00000170: 55de 6b3e 942f 953e 84e4 1d3c 5969 063e
00000180: 034a ef3c d665 913d 251c 4d3e d28b a03d
00000190: 4865 e7bd 6e11 093e fe4a 01bd 4d81 55bd
000001a0: df6d 01be 99f3 54bd 7430 e73d 1a98 193e
000001b0: db71 b6bd 6e29 22bd 8325 383e 1a26 673e
000001c0: 090e f8bd 912a 603e 3e25 4fbe 0d45 0ebe
000001d0: 53b6 95bd e649 6fbd 8a4a 97bd 8352 a4bd
000001e0: 3d47 9fbd 2b95 ac3d fe40 ac3d 7a07 3abe
000001f0: 89fd e43d 5f60 bd3d 9099 49be 081d 753e
00000200: 640c 58bc 2c45 443d f0d7 483d b606 40be
00000210: 2f95 f93d 6e2e af3d 418f f83d 285e fabd
00000220: 0fc5 093e ca35 6dbe 1516 443e f203 4b3b
00000230: d071 11bd e3af 2b3d 37b5 43be 68f0 1bbd
00000240: e056 febd a8c0 5d3e 328f 1cbe 3e2a c5bd
00000250: e991 8cbd 0fda 1c3e 58f6 1a3e a3fa 093e
00000260: ae2f bc3d 04d2 283e ec4e ed3d cbfe 21be
00000270: b483 38bc 6a47 56be c41c 3b3e bd52 1f3e
00000280: 26f0 b03d 5bf1 853d 6277 a53d b342 0b3d
00000290: de21 eb3c 7f3f c2bd e6ca 203c 4d44 163d
000002a0: f9ad 9bbd 078c 9ebd 0d09 2b3e eb27 58bd
000002b0: 350d 05be f812 43bc 417d 0b3e 6db9 833d
000002c0: 77b8 5b3e ccbb 533e 5e7d e1bd b071 3fbe
000002d0: 574f 453e f6d3 d53d a94c 443c d505 643e
000002e0: b78d 2d3d 4425 1e3d cb6c 61be 23ad 143e
000002f0: 2678 de3c e4f6 163d fa34 23be b735 ee3d
00000300: ef66 123e 0fd2 20be f168 1b3d 7cf1 9f3d
00000310: 17ca b03d 0b77 4abd d314 3d3d 7cb8 793d
00000320: 4930 333e 8005 e4bb c450 493d 417e a93c
00000330: 177c 06be c809 53bd 7fc8 c0bd 2b39 46be
00000340: a00b 393c c006 49bc 652d 2bbd 8212 e03d
00000350: 1e59 61bb c2a9 9b3d b04d 7bbd 0536 813d
00000360: 5fb1 2c3e d776 fcbc 4adf 25be ec58 aebd
00000370: b95e f3bd de37 ab3d 63b1 bc3d da83 753e
00000380: e008 973c 079c 89bc 922a 4bbe a2c8 ddbd
00000390: b6d9 423e 8b9d d0bd f7d7 373d 93c6 1b3e
000003a0: c87f c3bc a218 fbbd 3ac7 893c fa19 51be
000003b0: 2d64 693e 0efd af3d a4ef 453e 5a22 48be
000003c0: 4f5a c93b 73c1 893c 9fd8 683e 44ff 383e
000003d0: 4343 313d 7ec0 983d fc93 49bd e731 b13d
000003e0: 8fd0 7e3e 8022 743b d832 133d 40d6 ae3c
000003f0: 7467 233d 3be8 603e c11b d73d 4ae9 00be

weight f4 [256, 256]
0.14897077 0.086867124 -0.057429206 0.13158466 0.05752609 -0.041573428 0.0011393008 -0.14175946
-0.0751235 0.06356267 -0.004799187 0.093508504 0.06006793 0.028882252 -0.0584865 0.036187124
-0.057303667 0.0018584039 0.04819972 0.21369566 0.120278075 0.014772877 -0.2055467 0.20038512
-0.05427204 0.073663875 -0.1666724 0.04879409 0.030260194 -0.57461673 0.04311405 0.055932283
0.07678277 -0.10050978 0.24333023 0.10454719 0.08553497 0.17758483 0.17049767 0.0844823
-0.087237865 0.05853644 0.055606544 0.04993324 0.009019941 0.023131877 0.093102165 0.03627405
0.109888315 0.22493552 -0.022925481 0.021494484 0.1661967 -0.09584955 -0.062024206 0.060940318
-0.124092326 0.063951574 -0.1350231 0.6866763 0.1281182 0.015262455 -0.27782357 -0.023027774
-0.015297495 0.03134502 -0.036812134 0.025832951 -0.0050747753 0.03792897 0.011567949 -0.0071392655
-0.030087084 0.046743162 -0.21281792 0.119936526 0.0167391 0.059873726 -0.16958183 -0.12962455
-0.0025058836 -0.2785162 -0.03740459 0.039893806 0.004658222 -0.032734554 -0.05271541 -0.007784796
0.014452331 0.069323555 -0.02320316 -0.061443567 -0.26734364 -0.22636142 0.08942513 0.15124306
0.06484111 0.027316347 0.0053103366 0.06655645 -0.00895118 0.027061896 -0.1325014 0.060240842
-0.41359422 -0.22770217 -0.19912834 0.010801431 -0.1719668 -0.03292093 -0.030624999 0.10626927
0.09252302 -0.024027102 -0.25704178 -0.034522727 0.050248686 0.01798521 0.02856832 -0.5496503
-0.29566416 0.03395308 0.004924742 0.06466888 0.05185118 -0.09040938 -0.031774804 0.16128662
-0.13680534 0.008112043 -3.9521867e-05 0.05099359 -0.21284278 0.14838745 -0.15239464 0.07780422
-0.11057661 0.010246688 0.019205898 -0.05572408 -0.060774095 0.022527218 -0.006127343 0.23476622
0.093835935 0.13506861 0.04098083 -0.025524992 -0.10304196 0.020252101 0.08998412 -0.1240977
-0.028048813 -0.09987654 -0.29181764 0.020768749 0.016241087 -0.34936103 0.06468518 0.043075196
-0.006764345 0.012394456 0.065765984 -0.18945886 -0.28836367 -0.003538988 -0.0984487 0.020596666
0.16009828 0.032908637 -0.010495628 -0.17678449 -0.18120076 -0.19042814 -0.0329398 0.036784172
-0.33281618 0.09300485 0.015991043 0.10947835 0.04836251 -0.23958743 0.01805187 0.049795497
0.047899272 -0.16080469 -0.055115443 0.006544046 -0.6364163 0.02356428 0.05665375 0.054482747
0.049398884 0.039609276 0.011308699 -0.014456885 0.08197123 0.08447565 0.005711828 0.05238682
-0.083411984 0.03263127 0.004263364 0.17892633 0.06981561 0.01776664 -0.20893387 -0.060076922
-0.013427466 -0.054424077 -0.1443088 0.62228024 0.007823845 -0.020645276 0.18402864 -0.16302612
0.14352977 0.04528747 -0.1237976 0.050808243 0.08174573 -0.033283018 0.08323745 0.16286322
0.037742667 -0.25389817 0.05631491 0.034690622 -0.12038211 -0.09510395 -0.2710911 -0.0085658105
0.017048217 0.19649039 0.104056366 -0.0622378 0.07428441 0.094760716 -0.120003864 0.0017251968
0.18316716 0.11480224 0.73307514 -0.012171607 0.00430739 -0.02405247 0.025250964 0.018705724
0.023379652 0.05140879 -0.15115327 -0.03561569 -0.031843357 0.1731826 0.14550605 0.08914478
00000000: cb8b 183e 64e7 b13d e33a 6bbd 21be 063e
00000010: 7aa0 6b3d e648 2abd 9754 953a 6429 11be
00000020: 59da 99bd 252d 823d 8042 9dbb 6381 bf3d
00000030: ca09 763d 799a ec3c 8a8f 6fbd f338 143d
00000040: 40b7 6abd b095 f33a 126d 453d 09d3 5a3e
00000050: 5a54 f63d f009 723c d67a 52be c231 4d3e
00000060: 5c4c 5ebd 16dd 963d 2bac 2abe 50dc 473d
00000070: 3ae4 f73c 151a 13bf 5c98 303d 4019 653d
00000080: 4940 9d3d 12d8 cdbd 8f2b 793e d61c d63d
00000090: f52c af3d ccd8 353e f196 2e3e 0e05 ad3d
000000a0: c4a9 b2bd e8c3 6f3d b0c3 633d cc86 4c3d
000000b0: 60c8 133c 107f bd3c 59ac be3d 1994 143d
000000c0: 200d e13d 7f55 663e 38ce bbbc 3315 b03c
000000d0: 782f 2a3e c54c c4bd 180d 7ebd 8e9c 793d
000000e0: 1e24 febd 0bf9 823d 7f43 0abe 05ca 2f3f
000000f0: 6b31 033e 600f 7a3c e43e 8ebe bea4 bcbc
00000100: 58a2 7abc a363 003d 52c8 16bd a09f d33c
00000110: 4d4a a6bb 685b 1b3d 7f87 3d3c 80f0 e9bb
00000120: 3079 f6bc c275 3f3d f1ec 59be 48a1 f53d
00000130: 7020 893c 273e 753d dca6 2dbe 4cbc 04be
00000140: c039 24bb ad99 8ebe 8e35 19bd b067 233d
00000150: 00a4 983b ab14 06bd 1dec 57bd 9a17 ffbb
00000160: 78c9 6c3c 82f9 8d3d 8e14 bebc 40ac 7bbd
00000170: 44e1 88be 4acb 67be 8624 b73d 76df 1a3e
00000180: 6acb 843d 88c6 df3c 5502 ae3b c04e 883d
00000190: f8a7 12bc e9b0 dd3c 72ae 07be 1abf 763d
000001a0: 9fc2 d3be c22a 69be 4de8 4bbe 7cf8 303c
000001b0: 1118 30be 19d8 06bd 47e1 fabc b4a3 d93d
000001c0: b67c bd3d 7cd4 c4bc fb9a 83be b467 0dbd
000001d0: 91d1 4d3d b855 933c 1c08 ea3c e2b5 0cbf
000001e0: 4b61 97be 6312 0b3d bb5f a13b 1e71 843d
000001f0: e761 543d 8e28 b9bd 4c26 02bd 5228 253e
00000200: b316 0cbe 60e8 043c 48c4 25b8 a8de 503d
00000210: 75f3 59be e1f2 173e 570d 1cbe d257 9f3d
00000220: fd75 e2bd b9e1 273c b055 9d3c ef3e 64bd
00000230: 42ee 78bd 008b b83c e1c7 c8bb 8e66 703e
00000240: 0e2d c03d 6d4f 0a3e 84db 273d ca19 d1bc
00000250: aa07 d3bd bce7 a53c 9849 b83d ef26 febd
00000260: a0c6 e5bc 128c ccbd 1f69 95be 3923 aa3c
00000270: 070c 853c 73df b2be aa79 843d 9e6f 303d
00000280: 70a7 ddbb 1e12 4b3c 51b0 863d 8101 42be
00000290: 67a4 93be 5eee 67bb 799f c9bd 57ba a83c
000002a0: cef0 233e 35cb 063d dbf5 2bbc fe06 35be
000002b0: b18c 39be 98ff 42be e2eb 06bd 00ab 163d
000002c0: e266 aabe 5479 be3d a6ff 823c 2f36 e03d
000002d0: c417 463d 6856 75be 84e1 933c 5df6 4b3d
000002e0: 0732 443d fca9 24be bbc0 61bd 706f d63b
000002f0: 2eec 22bf e009 c13c c30d 683d 4d29 5f3d
00000300: 7c56 4a3d 563d 223d 1f48 393c 92dc 6cbc
00000310: 88e0 a73d 9201 ad3d 492a bb3b 9093 563d
00000320: e7d3 aabd 5ea8 053d b0b3 8b3b 7738 373e
00000330: 7dfb 8e3d 588b 913c c3f2 55be 3813 76bd
00000340: e0fe 5bbc c8eb 5ebd b0c5 13be c24d 1f3f
00000350: 962f 003c 4820 a9bc 0172 3c3e 52f0 26be
00000360: 78f9 123e 5b7f 393d 9989 fdbd 4e1c 503d
00000370: 4e6a a73d c653 08bd 6578 aa3d 9ec5 263e
00000380: 0e98 1a3d f1fe 81be 77aa 663d c117 0e3d
00000390: e58a f6bd dcc5 c2bd 74cc 8abe 9d57 0cbc
000003a0: b4a8 8b3c c734 493e 811b d53d 10ed 7ebd
000003b0: 6d22 983d e811 c23d 96c4 f5bd 0020 e23a
000003c0: 2c90 3b3e 701d eb3d d0aa 3b3f 6c6b 47bc
000003d0: 0225 8d3b b009 c5bc 1cdb ce3c bf3c 993c
000003e0: af86 bf3c 0692 523d ecc7 1abe c2e1 11bd
000003f0: 2e6e 02bd c856 313e 8aff 143e 8a91 b63d
