astar/checkpoints/sac_actor_100.pth (torch, 276164 bytes, 6 tensors)

net.0.weight f4 [256, 6]
000000 09 34 e2 be 3c e2 4b 3e 76 1b 98 be ea bb a6 3e
       -0.44180325 0.1991052 -0.2970845 0.32565242
000010 68 58 31 3e 7c 0e 43 3e 99 d5 61 bf c7 53 15 3d
       0.1731888 0.19048494 -0.8821655 0.03645685
000020 82 5d 1a 3e b0 36 8e 3c a0 2b d0 bc b0 cb b8 3e
       0.15074733 0.017360061 -0.025411427 0.360929
000030 fc 82 b9 3d e0 bb 43 3e 25 3b 6b bf c0 ab ca 3b
       0.090581864 0.19114637 -0.9188712 0.006185025
000040 68 ec d4 3d 10 09 be 3d 5c 28 af 3e 15 7e c6 be
       0.103966534 0.09279072 0.3421048 -0.38768068
000050 98 dc 11 bf 18 0e 63 bd ac f6 cd 3e 14 ac a0 3e
       -0.56977224 -0.055433363 0.40227258 0.31381285
000060 d3 5e 9b 3e d2 13 54 be 3f 19 36 3c 46 b7 8e be
       0.30345783 -0.20710686 0.011114418 -0.27874202
000070 d8 5f be 3e 4e 18 a2 3e d2 3e f9 3d b8 b7 ca be
       0.37182498 0.31659168 0.12170185 -0.3959329
000080 f8 e7 e5 bc a8 4d 86 bd 10 f8 b6 be 80 78 a3 be
       -0.028064713 -0.065577805 -0.35736132 -0.31927872
000090 be 90 18 bf cf ee ca 3e 41 dd 12 bf 7f 89 5e be
       -0.5959586 0.39635321 -0.57368857 -0.21732138
0000a0 98 f5 d2 bd 66 5a 14 be c9 7d 4f 3e 10 f3 a9 3e
       -0.103007495 -0.1448761 0.20262827 0.33193254
0000b0 3f 6c 86 be a0 15 f3 bd ec fc 79 3e 68 35 04 3e
       -0.2625446 -0.11869359 0.24412888 0.12910998
0000c0 cd 13 ad 3e a3 66 77 be 32 a8 da bd 20 84 c7 3d
       0.3380417 -0.24160247 -0.10676612 0.09741998
0000d0 ac ad 66 3e 38 19 36 3e 34 45 0a 3d 25 72 93 3c
       0.22527188 0.17783058 0.033757403 0.017998764
0000e0 e3 dc 1a bd f5 16 c6 be f8 8a 05 3e 88 80 99 3e
       -0.03780831 -0.3868939 0.13041294 0.29980874
0000f0 1a 7d 42 3d 29 b1 a4 be d1 26 9b 3e 3d 86 72 be
       0.047482587 -0.32166412 0.30303052 -0.2368402
000100 b2 98 93 3e 44 50 7e 3e f2 e6 b8 be 03 22 ee 3e
       0.28827435 0.24835306 -0.36113697 0.46510324
000110 13 02 57 be b2 b1 b1 3e 0e 07 b1 3e 7a 62 a5 3e
       -0.20996885 0.34705883 0.34575695 0.32301694
000120 aa 42 11 bf 8c 9c 35 bf 03 ac 1f bc 4a 4f 89 3e
       -0.56742346 -0.70941997 -0.009745601 0.26818305
000130 ac 27 19 3e 7e ac 13 be 5e 95 13 3e dc 2d 62 3e
       0.1495654 -0.1442127 0.14412448 0.22087806
000140 14 b0 8f 3d 38 06 c9 3e b8 da 2f 3d a6 05 b5 be
       0.07016006 0.39262557 0.042933196 -0.35355872
000150 b6 e8 64 3e e5 c0 92 3e 47 fd 05 3e 54 2b 81 be
       0.22354397 0.28662792 0.13084899 -0.2522837
000160 4a ed bb be 74 59 85 be e3 8e af be 25 36 13 bd
       -0.36704475 -0.2604481 -0.342887 -0.035940308
000170 1e 23 73 3e e0 6b cd bd 68 66 67 bd 64 0d e7 bd
       0.23743865 -0.10030341 -0.056494147 -0.11281851
000180 52 0b bf 3d 65 ab 38 3d c4 c0 41 3e 2b 90 8e be
       0.09328331 0.04508533 0.1892119 -0.27844366
000190 c8 b0 1e 3d b8 c2 03 3e cf 1d 85 be 26 1f 24 bf
       0.03874281 0.12867248 -0.25999305 -0.6411003
0001a0 35 7d df be 98 e4 a8 be d2 2b 41 be e3 18 9c be
       -0.43650213 -0.32986903 -0.18864372 -0.30487737
0001b0 b3 74 72 3b 85 da a3 bc d6 e4 ab bd 98 ee 98 be
       0.0036995828 -0.02000166 -0.08393256 -0.29869533
0001c0 a0 9a 6a bd 5c f4 ad 3d 09 a5 f8 3e 94 bd 58 3e
       -0.05727637 0.084938735 0.48563412 0.21166068
0001d0 f7 5c 10 bf 7c 1b 6e 3e a4 aa b9 3d 7c fe be be
       -0.56391853 0.23252672 0.0906575 -0.3730353
0001e0 6a 10 fb 3e a7 af 39 bc d2 03 06 be 8e e0 95 be
       0.4903596 -0.011333383 -0.13087395 -0.29272884
0001f0 f0 59 81 3d 31 9a 76 be e5 62 4b bf 8b 45 73 3e
       0.06315982 -0.24082257 -0.79447776 0.23756997
000200 06 79 2b 3e e2 b7 82 3e 22 e6 00 be e7 60 bf be
       0.16745386 0.25530916 -0.12587789 -0.37378618
000210 dd ee a8 be d5 64 25 3e 9d 96 0e 3f 8f 65 c4 be
       -0.32994738 0.16151746 0.5569857 -0.38358733
000220 d8 60 b6 be 30 39 72 bd 8b b4 7b be 62 b6 81 3e
       -0.3562076 -0.05913657 -0.2458059 0.2533446
000230 31 49 84 bd 37 77 94 be d2 c2 45 be 2a d2 87 3e
       -0.06459273 -0.28997204 -0.193126 0.2652753
000240 7c 13 10 bf 83 51 16 3f c0 68 88 be b0 d2 52 3e
       -0.5627973 0.58718127 -0.26642418 0.20588183
000250 2c 5c f3 bd cc f4 26 3e 4c cc 5d be 03 0e 27 bf
       -0.11882815 0.1630432 -0.21659964 -0.65255755
000260 0d ea 14 3f 10 59 33 3e 9c 97 5b 3e 4c 21 95 3d
       0.58169633 0.17514443 0.21444553 0.072817415
000270 39 85 da 3e 2d ae 6c be 80 90 29 3d 0c cf 78 3e
       0.42679766 -0.23113318 0.04139757 0.24297732
000280 5c 83 46 3e 86 f7 c0 3e 75 b5 82 be 77 36 5a bd
       0.19386047 0.37688845 -0.25529066 -0.053274598
000290 85 ff f9 be 12 26 bb be b4 4d d0 3e 8c 9b 9b 3e
       -0.48827758 -0.36552483 0.40684283 0.3039211
0002a0 2b 9f ad 3e 1b 64 34 3e 04 26 a7 3e a2 34 21 be
       0.33910498 0.17616312 0.3264619 -0.15742734
0002b0 8a 5a c9 3e 06 4c a3 3e 81 22 62 be b8 bc 9d 3d
       0.39326888 0.3189394 -0.22083475 0.07702011
0002c0 f1 db 6c bc de 71 8b 3e 74 63 f2 bd 7a c6 23 be
       -0.014456735 0.2723531 -0.118353754 -0.15993682
0002d0 cf 19 a1 3e ef 76 d4 bd 9d 23 60 be d6 5c 8a 3e
       0.31465003 -0.10374247 -0.21888585 0.27023953
0002e0 6c fa 19 3e 30 f5 ec 3c 4c d0 07 be 3b 13 50 bf
       0.15036935 0.028925508 -0.13263053 -0.81279343
0002f0 31 0f b4 bc 7d 6d ba be 84 9a 84 3e 61 cd 9e be
       -0.0219799 -0.36411658 0.25899136 -0.31016067
000300 3d c7 0c bf 9a 15 ab 3e 5d 81 09 bf d8 9d ff bd
       -0.54991513 0.33414918 -0.5371302 -0.12481278
000310 40 98 1e 3c 40 f5 62 3e de a7 8d bb a6 7a 15 bd
       0.009679854 0.22163868 -0.00432299 -0.03649392
000320 94 46 93 3d 26 64 29 be f0 8e d6 3d ba 95 32 be
       0.07191196 -0.1654211 0.10476482 -0.17439929
000330 42 aa f4 3e fb ee dd 3d 3a bc 9e 3e bd 9d c4 be
       0.47786146 0.108365975 0.3100298 -0.38401595
000340 7e 60 82 be 5c 02 bd 3e e0 2d a2 3e d5 70 a4 bd
       -0.25464243 0.36915863 0.31675625 -0.080293335
000350 6c a9 49 3e ca 91 91 3e 58 c3 07 3d 48 94 f0 3d
       0.19693536 0.2843154 0.03314528 0.117470324
000360 d9 af 08 3f ff 30 60 3e fa a4 d3 bd a6 db af 3e
       0.5339332 0.2189369 -0.10334201 0.34347266
000370 c9 f3 a3 be 4c 07 a6 bd e8 21 fe 3e 29 b2 a3 3e
       -0.3202193 -0.081068605 0.49635243 0.31971863
000380 ae 4a 59 3d 10 7c 7b 3e 60 1b 9a 3d ca 1b 97 3e
       0.053049736 0.24559045 0.075247526 0.2951339
000390 ea fb d6 3e 14 56 e4 3d c2 96 af 3d 40 05 3d be
       0.4198907 0.111492306 0.08573677 -0.18459034
0003a0 23 dc cf be d0 ca 96 bc dc 5a f5 3d 28 8b 27 be
       -0.40597638 -0.018407255 0.11980221 -0.16361678
0003b0 58 a9 15 3e 8e 1d b8 be 40 7d b4 bb 24 30 55 3e
       0.14615381 -0.35960048 -0.005508095 0.20819145
0003c0 61 95 7d 3e 5c 59 09 3f 78 13 57 be 18 ab 9b 3e
       0.24764015 0.53651977 -0.2100352 0.30403972
0003d0 9c 79 b9 3e cc 01 b2 3d 39 2b a9 3e b3 40 88 bd
       0.36225593 0.08691749 0.3304079 -0.066529654
0003e0 ec d2 74 3d 88 63 5f 3e f6 06 cf 3e b9 71 4d be
       0.059771463 0.21815312 0.40434998 -0.20062913
0003f0 6a 40 47 3e fa 3d 35 3e 34 2e 97 be 88 21 68 3e
       0.19458166 0.17699423 -0.29527438 0.22669041

net.0.bias f4 [256]
000000 e6 c2 ef 3e 26 fe 7d bd a7 22 09 bd 8e c9 15 bf
       0.46828383 -0.062009953 -0.033480313 -0.58510673
000010 ec d8 88 3e 83 71 c7 3d 2c 34 ac 3d ca 43 31 3f
       0.26727998 0.097384475 0.084083885 0.6924406
000020 6c 97 da 3e d5 99 53 3e 6e 86 18 3d 3f 7d 23 3f
       0.4269365 0.20664151 0.037237577 0.63862985
000030 e3 ae fd 3e 4c 94 8b be 1a 6a 2f be cb 9b fe be
       0.4954749 -0.2726158 -0.17130318 -0.49728236
000040 eb f6 df be 8b d2 2e bd 65 c3 0c 3f 19 b7 b1 bd
       -0.4374307 -0.04268126 0.5498565 -0.08677501
000050 a8 dd 85 be 8a a0 2a be 58 9d 6d be 8c 62 d9 3e
       -0.26145673 -0.16662803 -0.23204553 0.42457998
000060 60 80 52 3e 8c b2 a0 3d 7d db 3e be 18 6d d6 be
       0.20556784 0.07846555 -0.18638416 -0.41880107
000070 d0 d3 eb be ce f1 be 3e ae dc 1b 3f b3 d3 a6 be
       -0.46060038 0.37293857 0.60883605 -0.3258339
000080 fd 2e 4d 3e be 3d cd 3e d4 98 4c 3e 45 7c 94 be
       0.20037456 0.40086168 0.19980174 -0.2900106
000090 10 3b 27 3e b2 76 72 3d 88 51 b0 3d 23 0e 97 bd
       0.16331124 0.059195228 0.08609301 -0.07375743
0000a0 a8 b2 0a bf 36 ff 24 be 0a 12 41 3f 93 6c ec 3d
       -0.5417886 -0.1611298 0.7541815 0.115441464
0000b0 17 23 af be 5d 5d 34 3f f4 a4 98 3e 0e 55 cf be
       -0.3420646 0.7045496 0.2981335 -0.4049458
0000c0 3b 2b 82 3e b7 69 da be 7e 66 da be cf 36 01 3f
       0.25423607 -0.4265878 -0.4265632 0.50474256
0000d0 25 96 68 3e ce 30 d2 3e 9d 10 7d be b7 59 a3 be
       0.22713526 0.4105286 -0.24713369 -0.31904384
0000e0 aa 6a 51 3e 98 a7 02 3f 5c 1a a6 3e bd e7 c5 be
       0.20450845 0.5103698 0.32441986 -0.38653365
0000f0 e4 b6 89 be a6 7e 65 bc 10 c5 a3 3d 48 30 7e 3e
       -0.26897347 -0.014007246 0.07996571 0.24823105
000100 de ea 4b be cd 9b 4b bd 5b 54 bf 3e b7 d9 08 3f
       -0.19913813 -0.04970913 0.37369046 0.53457206
000110 27 43 f3 3e 14 2f a1 be 0d 49 c3 3e 10 5f 27 3f
       0.4751217 -0.3148123 0.3814167 0.6537943
000120 14 41 f1 bb 3c 6c 09 3e 5d 13 c8 3e 33 45 a2 bd
       -0.0073624942 0.13420194 0.39077273 -0.07923355
000130 34 c7 8b be 39 34 80 be bc 2a 1d be e1 4f e2 3d
       -0.27300417 -0.25039843 -0.15348333 0.11050392
000140 40 d4 63 be 07 3a 2d 3e 9d a9 8f be 6f c7 1a bf
       -0.22248936 0.16916667 -0.28059092 -0.6046056
000150 3e 98 d8 be 4b 0c af 3e 67 d8 c3 be 1e 9d ea be
       -0.42303652 0.34189066 -0.3825104 -0.45822996
000160 a3 fa f3 be 8e 54 ca 3e 68 41 0d 3f 40 7c 09 3f
       -0.47652158 0.39517635 0.55177927 0.53705215
000170 17 cd 0b 3f de 9a be be 40 f5 46 be 40 8e 40 be
       0.5460982 -0.3722753 -0.19429493 -0.18804264
000180 d4 0f c7 be c7 75 a3 3e e3 0b 53 be b8 f9 ba be
       -0.38879263 0.31925794 -0.20610003 -0.36518645
000190 7c 41 e0 3e 2a 9a 45 3f 0a 04 3c 3f 68 85 06 be
       0.4379996 0.7718836 0.73443663 -0.13136828
0001a0 50 6e f6 be f4 36 04 3f 04 78 a0 be 20 4e dd 3d
       -0.48131037 0.5164635 -0.31341565 0.10805917
0001b0 cd 5e c0 be 0f b6 fb be dc d0 97 3e 73 b6 f3 3e
       -0.37572327 -0.49162337 0.29651535 0.47600135
0001c0 2d a7 84 3e 31 f3 d8 be 2d 1e d7 3e 4c fc 4a be
       0.25908795 -0.4237304 0.4201521 -0.19822806
0001d0 08 63 49 be 4e 4c de be af 1e 24 bf 8a 98 1c 3d
       -0.19666684 -0.4341759 -0.6410932 0.03823141
0001e0 af b6 e5 be 48 b0 cf be df 3f 19 3e fb 20 e6 be
       -0.4486594 -0.4056418 0.14965771 -0.44947037
0001f0 a8 48 85 be 4e e3 cf 3e 23 25 a2 be 6b 3b 9a 3e
       -0.26031995 0.40603107 -0.31668958 0.30123457
000200 80 a4 b1 be cc 6c 63 be e9 05 8e be e8 3f eb bc
       -0.34695816 -0.22209471 -0.27738884 -0.028716996
000210 ce 22 62 be 2a d6 a2 be 8c 48 15 3e 58 a2 50 be
       -0.2208359 -0.3180402 0.14578456 -0.20374429
000220 3f 5c 6f be 46 5f 3c be 51 0a ec bd 62 9f 05 3f
       -0.23375033 -0.18395719 -0.11525405 0.52196324
000230 da 3f 19 bf 48 58 17 be 15 d5 05 bf 1c 2e b5 be
       -0.59863055 -0.1477977 -0.5227826 -0.3538674
000240 10 5f 68 be 91 8c e0 3e 97 19 bf bd c1 67 85 be
       -0.22692513 0.43857244 -0.09331053 -0.2605572
000250 01 f5 b4 be 81 f4 00 3f 0d 1d d8 be f9 a3 e9 3e
       -0.35343173 0.50373083 -0.42209664 0.45632914
000260 bc c0 69 3f b2 f2 02 3f cb 1b 29 3e 81 d4 a6 3d
       0.91309714 0.51151574 0.16514508 0.08146001
000270 44 5e 06 bd 1b c5 06 be 37 2b 0b 3f 12 3f d2 bd
       -0.032804742 -0.13161127 0.54362816 -0.10265936
000280 3b 89 2a be 5f cb b1 3d 20 8b d0 be c9 60 06 3f
       -0.16653912 0.08681368 -0.40731144 0.5249143
000290 62 55 c7 3e 65 e1 f3 3d 72 5e 59 3d 3a 7c 42 3f
       0.3893233 0.11908225 0.053068586 0.75970805
0002a0 42 3e 85 be be e2 e0 be 06 38 d0 3e 93 d7 f4 bd
       -0.2602406 -0.4392299 0.40667742 -0.1195518
0002b0 b7 99 86 3e 0e b4 53 be be 13 3e 3e 73 0c 10 3f
       0.2628915 -0.20674154 0.18562219 0.56268996
0002c0 06 98 af be 62 7d c0 3e 25 63 eb be 6d 40 38 be
       -0.34295672 0.3759566 -0.4597408 -0.17993326
0002d0 4e 0c 0a 3f ac 2b ef 3d 34 7b c8 3e a0 71 2f 3f
       0.53925025 0.116782516 0.39156497 0.68532753
0002e0 80 31 14 3f 22 d5 67 3c 72 47 93 be 63 52 db 3e
       0.5788803 0.014149936 -0.28765446 0.42836294
0002f0 b9 b3 b4 be 59 52 25 3f 03 1d 22 3e 1e 31 85 be
       -0.35293368 0.6457878 0.1583138 -0.26014036
000300 13 7c 7a 3e 61 78 ec be fd 04 6c 3e a2 5f e6 be
       0.24461393 -0.46185592 0.23048778 -0.44994837
000310 67 63 cf be db 6c 3f be 2e c2 2c 3f fa 90 8f be
       -0.40505525 -0.18693869 0.67483795 -0.28040296
000320 fc 91 54 3e 60 81 8b be a3 ba 0d 3f 7c 1d ea be
       0.20758814 -0.27247143 0.5536291 -0.4572562
000330 8f 8c 49 be 2c 1a 6c be e5 5b 09 bf 59 be fb 3e
       -0.19682525 -0.23056859 -0.53655845 0.4916866
000340 6d 35 2f 3e 78 16 ce 3e 0c e8 a6 3e cc d5 bc 3e
       0.17110224 0.40251517 0.32598913 0.36881864
000350 f8 bd 8b 3e 68 69 4c be 02 73 aa bd b9 55 bb be
       0.27293372 -0.19962084 -0.08322717 -0.3658884
000360 68 1a 90 3e 41 66 ce be 39 6a 31 be 90 fc 75 bd
       0.28145146 -0.4031239 -0.17325677 -0.060055315
000370 ec e9 eb be ba 0d b2 bd b5 47 6f be 03 9e dc be
       -0.46076906 -0.086940244 -0.23367198 -0.43089303
000380 d4 04 02 be 6b 6a 2a bd ba 18 c2 bd f1 5f 0c bf
       -0.12697154 -0.041605394 -0.094773725 -0.54833895
000390 07 a6 a8 3e 7d ff 64 3e 9c fb 57 be b3 51 18 3d
       0.3293917 0.22363086 -0.21092075 0.03718729
0003a0 30 67 12 3e 8c 79 1e bd 94 cf e9 bd 06 3e 7e bd
       0.14297175 -0.038690135 -0.114165455 -0.06207087
0003b0 59 2d d0 3e 91 8f ad be 14 ec df be cb 8d 23 be
       0.40659598 -0.33898595 -0.437348 -0.15972058
0003c0 3e dd e7 be ee 61 b0 3e 16 bc 46 be ab e2 f7 be
       -0.45285982 0.34449714 -0.19407687 -0.4841512
0003d0 21 64 b2 be b4 88 b8 be ea ce bc be 7e 95 4f 3e
       -0.34842017 -0.36041796 -0.36876613 0.2027187
0003e0 a9 6d 2a 3f 62 8b 81 be f9 0b e6 be 30 40 bf be
       0.6657358 -0.25301653 -0.4493101 -0.3735366
0003f0 e0 42 bc 3e 45 b2 62 3d e9 02 6b 3f f8 07 44 3f
       0.36769772 0.055345792 0.91801316 0.7657466

net.2.weight f4 [256, 256]
000000 5d a3 34 bd 38 a2 34 be 71 bf 96 3d f9 2b 78 3d
       -0.044101108 -0.17640007 0.07360733 0.06058881
000010 15 99 08 bd f7 d2 21 bc c2 25 2e be 24 b6 e6 3d
       -0.033349115 -0.009876958 -0.17006591 0.11265209
000020 6b c7 e4 3c eb 3f 07 3d da f6 71 bc a2 6c 04 3e
       0.027927121 0.03301994 -0.014768327 0.12932065
000030 a7 6a 03 3e 9b 21 97 3c 10 cc a3 3d e3 2a 1e be
       0.12833653 0.018448642 0.07997906 -0.15446047
000040 1b cd d0 bc d8 f1 11 3d 48 63 95 3c 6f 9e 34 3d
       -0.025488427 0.03563103 0.018235818 0.044096407
000050 ff 22 c5 3c 68 4f 47 be d5 54 37 bc 72 89 09 3e
       0.024064539 -0.19463885 -0.011189659 0.13431337
000060 d4 da f5 3d 55 11 17 be 67 27 a3 3c 37 71 5f ba
       0.12004629 -0.14752705 0.01991625 -0.0008523645
000070 a4 34 b0 bc f8 71 9b bd 49 6b 21 3d 7f 10 e7 bc
       -0.021509476 -0.07590097 0.039408956 -0.028206108
000080 10 c8 5e be 62 49 7a bc 07 ae 7e 3d 28 78 a6 3d
       -0.21756005 -0.015276285 0.062177684 0.08128387
000090 22 0c b9 bb 53 16 4f 3c 08 b2 62 bb 71 84 64 3d
       -0.0056471983 0.0126396 -0.0034590978 0.05579037
0000a0 a5 c5 5c 3d 7f 51 f0 3b 3d 4c 9b 3d 5e 40 52 bd
       0.053899426 0.007333934 0.07582901 -0.051330917
0000b0 d4 4d 90 bd 28 99 d6 3d 4c 5a 37 bd b1 04 09 3c
       -0.070460945 0.10478431 -0.04476385 0.008362935
0000c0 fc 2c c0 bc 65 55 15 3c f9 35 6b 3a 3e 01 b0 3d
       -0.02345895 0.009114598 0.0008972581 0.08593987
0000d0 d0 c2 ab 3c 58 67 b3 3d 2a b8 d7 bd 00 f1 00 3d
       0.020966917 0.08759946 -0.105331734 0.031479836
0000e0 2d b7 8e bb 06 92 c0 3b f9 bc ff 3c 36 18 79 bd
       -0.0043553323 0.0058767824 0.031218039 -0.060814105
0000f0 be b7 94 3d 92 0a 9c bc b8 d3 87 3d 8f e9 08 be
       0.072616085 -0.019048009 0.06632179 -0.13370346
000100 2c 38 10 bc 33 78 be 3d 56 2b cd 3d c0 9f 9f bd
       -0.008802455 0.0930027 0.10018031 -0.07794142
000110 29 fb b7 3d d9 3f 9a 3d 44 24 ce 3d 16 9e 63 3d
       0.08983452 0.07531709 0.10065511 0.055570684
000120 89 84 1d bd 62 9a 97 bd 47 e1 77 3d b6 87 54 bd
       -0.038456473 -0.07402493 0.060517576 -0.051887237
000130 a6 54 b3 bd a0 39 15 3d cb 05 65 3c d1 6c 78 3d
       -0.0875638 0.03643191 0.013978432 0.06065065
000140 6c 2d 8b bd 71 ad c2 3d 0a 9d 8d 3d 4d 9c 77 3d
       -0.06795773 0.095057376 0.069147184 0.060451794
000150 c3 83 2b bd a9 53 c5 bd 93 1f 02 3d 69 13 97 3d
       -0.041873705 -0.096350975 0.031768393 0.07376749
000160 34 2a 91 bc a0 c6 22 3c 1e ef aa 3d 68 ac 8b 3c
       -0.01772032 0.009935051 0.08346389 0.017049983
000170 de 08 35 3d fb 58 d5 bd 27 9a d4 bd 9c 5c 1f bd
       0.04419791 -0.10417362 -0.10380965 -0.03890668
000180 7e 41 07 bc 1b d7 f3 3d 88 d9 84 3d 45 6c 83 3d
       -0.008255361 0.119062625 0.06486803 0.06417135
000190 82 5c 1c 3d de ba 95 3c 55 29 0a 3d 32 20 55 be
       0.03817416 0.018277582 0.033730824 -0.20813063
0001a0 6c bb 23 3d a0 7c e9 3d 3c e6 fb 3c 7b 4e c0 bd
       0.03997366 0.114007235 0.030749433 -0.09389969
0001b0 5a 1c 35 3d 54 22 23 bd 7e 25 bf bd eb 17 79 3c
       0.04421649 -0.03982766 -0.09333323 0.015203456
0001c0 45 98 c9 3a 9a cf 98 3b b5 da 33 bc 06 2e c3 bd
       0.0015380463 0.00466342 -0.010977437 -0.09530263
0001d0 e5 34 8a 3d 29 45 21 39 36 f7 79 3d 8e 26 fb bc
       0.0674837 0.0001537992 0.061026774 -0.030658033
0001e0 f8 0c 55 bd 62 74 00 bd 88 84 79 3d bc 8f d0 3b
       -0.05201432 -0.03136099 0.060917407 0.0063647907
0001f0 d5 60 d7 3d 37 8f e0 3c 02 d3 4d 3b 0c ca 88 bc
       0.10516516 0.02741204 0.0031406288 -0.016697906
000200 1a 7a 00 be fb bb c2 3c 4a 89 94 3d 25 26 b4 3d
       -0.12546578 0.023771277 0.07252748 0.08796338
000210 a4 fa 8e 3b b2 a7 ef 3d fe ce cc 3d 10 a5 40 bd
       0.004363375 0.11701907 0.10000418 -0.047032416
000220 e0 74 db 3c 85 57 98 bd cb d1 87 3c 00 b6 26 3d
       0.026789129 -0.07438568 0.01657953 0.040700912
000230 83 29 85 3d d7 58 50 3d 8e 00 8c bd 35 d8 0e 3c
       0.06502058 0.050865974 -0.06836043 0.00871854
000240 d7 45 6a bd 1e ed 54 bd 8d 1d e0 3d ea 9f 24 3d
       -0.05719551 -0.051983945 0.10943136 0.04019157
000250 98 54 8c 3c 01 8b c1 3d 6a c1 01 3c 39 d7 a8 3d
       0.017130181 0.09450341 0.007919649 0.082441755
000260 5d f0 17 3e 2c 64 83 3a 87 72 53 be a5 a5 2c 3d
       0.14837785 0.001002436 -0.20649157 0.04215016
000270 82 a6 44 3b 67 d7 9d bd 45 d0 90 3d aa 70 0e bd
       0.0030006473 -0.077071 0.07070974 -0.034775414
000280 ef ac 5e bd c9 20 ea bc 3d 51 3c bd b6 bf 7e 3d
       -0.05436414 -0.028580086 -0.045975912 0.06219455
000290 9e 54 96 bc 0a 92 96 3d dc 35 bf 3d 63 1a 8d 3d
       -0.018350895 0.073520735 0.09336445 0.068897985
0002a0 79 e8 97 ba 83 d6 e5 ba 25 86 86 3d ff 8b c8 3c
       -0.0011589668 -0.0017535243 0.06568555 0.024480818
0002b0 90 e7 d2 3c 9e 50 08 bd ff 2e 9e 3d 7c f9 fa bc
       0.025745183 -0.033280008 0.077238075 -0.030636542
0002c0 f5 07 03 be 64 f6 d1 3b 80 26 e3 3d ce f4 c1 3d
       -0.12796004 0.006407546 0.11091328 0.09470521
0002d0 2f a4 73 bc 58 59 79 3d 4d e9 c5 bc 3d 65 cc 3d
       -0.014870687 0.06087622 -0.024159098 0.09980247
0002e0 ea b3 54 3c 0a 34 0b 3d 59 72 da 3b 44 7c 49 bd
       0.012982348 0.033985175 0.0066664633 -0.049190775
0002f0 48 2c 26 bd 28 ab 00 3e ea 2d 64 bd cb 4d 09 bd
       -0.040569574 0.12565291 -0.05570785 -0.033521455
000300 30 7a 18 be 53 3b 81 3d 46 10 89 3d a0 1f 73 3c
       -0.14890361 0.06310143 0.06692557 0.014839083
000310 ef 29 b6 3c 48 0b 06 bd 58 bb cd 3d 35 c4 4e bd
       0.022236792 -0.032725602 0.100454986 -0.050480086
000320 3b 1e 28 bd d4 92 b7 3c 68 c2 ab 3d 15 bc 04 be
       -0.041044455 0.02240888 0.083866894 -0.12962373
000330 76 05 d1 bd 3b e4 5f bd 05 7d 2c 3d 42 6e 3a bc
       -0.1020612 -0.054661017 0.042111415 -0.011378827
000340 73 9f e2 bd d7 57 b0 bd cf 6a bd bc 8e 89 9e bd
       -0.11065569 -0.08610504 -0.02312222 -0.0774108
000350 21 2b 10 3d 9d cb 80 3d a0 89 0e be 33 aa 73 3d
       0.03519738 0.06288836 -0.13919687 0.059488486
000360 45 93 8c 3c 2f 34 0c be d6 54 b5 3c cf 16 62 3d
       0.017160067 -0.13691781 0.02213518 0.055197533
000370 25 cb 23 bd d3 8b a1 bd 03 5d 19 bb fa 54 63 bd
       -0.039988656 -0.078879975 -0.0023401387 -0.05550096
000380 83 ad ea bc 86 f8 61 bc 93 7e 1b 3c 34 8a 62 3d
       -0.02864719 -0.013792163 0.009490627 0.055307582
000390 d5 5b 8a bc ae 0e 13 3d e6 63 8e bd 5f fb 95 3b
       -0.016889492 0.03590267 -0.06952648 0.004577085
0003a0 48 6b 55 bd 44 bd cc bc bb 22 94 bd 25 35 99 bd
       -0.052104264 -0.024992593 -0.07233187 -0.0748084
0003b0 95 a0 93 3d 43 b8 49 3e 07 1b b1 3d 63 82 08 be
       0.07208363 0.19699197 0.08647733 -0.13330989
0003c0 3d b1 13 bd fe 43 11 bd ff 9e 25 3d b7 c9 ab 3d
       -0.0360577 -0.035465233 0.040434834 0.083880834
0003d0 80 1f 84 3d c4 ae d7 3d 6a 05 38 3d 72 b6 58 bc
       0.06451321 0.10531381 0.04492704 -0.013227092
0003e0 3d 60 db 3d c3 61 70 bd e4 43 f3 bd 9c 40 54 be
       0.10711715 -0.058686983 -0.118781835 -0.20727772
0003f0 57 28 32 3e 8f 05 00 bc 50 a6 90 bd 55 db 14 3d
       0.17398201 -0.007813825 -0.070629716 0.036341984

net.2.bias f4 [256]
000000 b2 95 20 bd a9 06 ed 3c c5 4d 3c 3c 04 f3 f7 3d
       -0.03920526 0.02893384 0.011493151 0.121068984
000010 46 16 0e 3e 52 3a 0b 3e 20 a4 17 3d b6 89 4d 3e
       0.13875684 0.13596466 0.037021756 0.20072064
000020 51 1e 28 bd 79 61 90 bd 45 f2 40 3e 80 b5 1b 3e
       -0.041044537 -0.070498414 0.18842418 0.15205956
000030 a1 3a 0a 3e 82 1e 94 3d 15 7d 4a 3e 8e cb 6f 3e
       0.13498928 0.072323814 0.19774278 0.23417494
000040 cb e2 e6 3d ae f7 3f 3e 7b af 87 be c1 8a 37 3e
       0.11273726 0.18746826 -0.26501068 0.17924024
000050 2a c7 96 bc 9f 60 02 3e 14 4a 82 3c ad 38 d6 bd
       -0.018405516 0.1273217 0.015904464 -0.10460029
000060 64 82 03 3e dd ff 7d bd 81 7b 8b 3e 62 b0 6f bd
       0.12842709 -0.06201159 0.27242664 -0.05851782
000070 dc e4 3b 3d 49 b8 03 3e 6f b8 b8 3d 5c 8d 02 3e
       0.045872554 0.12863268 0.09019553 0.12749237
000080 2b 4b d3 3d 0d 81 12 3e b5 b4 61 3e 82 a0 a4 3d
       0.103170715 0.14307041 0.2204159 0.08038427
000090 b6 0c 6a 3e ec 71 07 3e 71 44 76 bd 95 74 4f 3c
       0.22856411 0.13227051 -0.060123865 0.012662073
0000a0 e7 99 16 3b c3 58 9b 3d b7 b8 84 3d ec 11 09 be
       0.0022979917 0.07585289 0.06480544 -0.13385743
0000b0 e5 8d 56 3e 30 38 a6 ba a0 e9 11 3e 2e 6d 11 3e
       0.20952566 -0.001268154 0.14249277 0.14201805
0000c0 e6 86 17 bb c0 80 8e bd 63 80 e3 3c 62 82 50 3e
       -0.0023121177 -0.06958151 0.02777118 0.20362237
0000d0 5c 36 0e 3e 9e 0a 43 3d 80 d0 1a 3e bf 91 82 3d
       0.13887924 0.047617547 0.15118599 0.06375455
0000e0 14 78 33 3e b5 0c 86 3e 6b 66 85 bd db 66 8b 3e
       0.17526275 0.2618157 -0.06513675 0.2722691
0000f0 f0 5f 2a 3c b1 e0 19 be 86 aa 8a 3e 2a 76 e2 3d
       0.01039885 -0.15027119 0.27083224 0.11057694
000100 fb d6 19 3e 1a 8b bb 3c 7e 73 f7 3d 3a 95 9c bd
       0.15023415 0.022893477 0.12082575 -0.0764565
000110 ab 7e ab 3d 1d 42 28 3c 82 29 0a 3e ad 99 fb 3d
       0.083737694 0.010269669 0.13492396 0.12285171
000120 c7 0a 3d 3e 4f ea 2e 3c c8 d1 c1 39 14 71 78 3c
       0.18461142 0.010675981 0.00036968128 0.015163679
000130 82 a0 a9 3d 36 bb 14 be 75 30 f3 3d 10 d2 91 bc
       0.082825676 -0.1452454 0.11874477 -0.01780036
000140 6e 72 a4 3e 5e ba 0b 3e 8a 60 e0 3d 69 75 52 3c
       0.32118553 0.13645312 0.10955913 0.012845376
000150 11 4a 06 3e 24 8c 49 3d 67 ba 75 3e 6d d7 de bd
       0.13114192 0.049205914 0.23996888 -0.10880933
000160 52 48 99 3d 02 6f 19 3d e9 03 4b 3e b7 15 6c 3e
       0.07484497 0.03745938 0.1982571 0.23055159
000170 23 3c da 3d d5 4b 38 bd 5b 80 00 be ca 22 cd 3d
       0.106560014 -0.044994194 -0.12548964 0.10016401
000180 1a 65 a6 bd 59 a9 36 3d 93 d2 4d 3e 30 c6 82 3e
       -0.08124752 0.044595096 0.20099859 0.2554183
000190 0f ac 7d 3e 25 00 51 3e 22 f6 30 3e 7d be 0e 3e
       0.24772666 0.20410211 0.17281392 0.13939853
0001a0 55 51 ec 3d 28 cd c4 3d b6 e8 c5 3d 13 3f 23 be
       0.1153895 0.09609443 0.09663527 -0.1594203
0001b0 a0 63 c9 3d 73 03 38 3d 6e 4e 35 3e 44 8f 78 3e
       0.09833455 0.044925164 0.177057 0.24273401
0001c0 aa 57 0c bd 99 56 20 3e 84 7c ad bd 82 ec fe bd
       -0.03426329 0.15658034 -0.08471015 -0.12447454
0001d0 1b 75 85 3e 7b 65 a9 bc d3 6c 9d bd d2 08 1a 3e
       0.26065907 -0.020678272 -0.07686772 0.15042427
0001e0 ab c2 3e 3d 93 80 85 bd a9 cc 00 3e 08 10 08 3e
       0.04657237 -0.06518664 0.12578072 0.13287365
0001f0 b3 36 9a bd c2 2e 68 3d bb 06 1e 3e 1e 2c f9 3d
       -0.07529964 0.056685217 0.15432255 0.12166618
000200 4c ed 5b 3e 3e 5b dd 3d b4 68 48 3e 24 11 3a 3d
       0.2147724 0.10808419 0.19571191 0.045426503
000210 c8 a4 04 3e 36 78 80 3e 26 d0 c3 bd ae 35 aa 3d
       0.12953484 0.25091714 -0.095611855 0.0831102
000220 88 7e ae bd 3c f8 d0 3d b4 d7 28 bd 93 84 ed 3d
       -0.08520228 0.10203597 -0.041221336 0.11597552
000230 ec d3 1d be da 3b ae 3d cc 31 4a 3e f4 48 98 bb
       -0.15412873 0.085075095 0.19745559 -0.0046473686
000240 7d cf c8 bd f6 04 39 bd 65 42 cc 3d 96 78 94 bd
       -0.098052 -0.045170747 0.09973601 -0.072495624
000250 d4 8b bf bc 96 96 2d 3e 4d d5 04 3e 4e 28 ca bd
       -0.023382105 0.16951975 0.12971993 -0.09870969
000260 69 15 49 bc 71 59 0a be e1 78 61 bd 6a 4a b4 3d
       -0.012273171 -0.13510682 -0.05504692 0.08803256
000270 60 61 6b 3b 93 1e ac 3d 72 1d 89 bd a1 ed 32 3e
       0.0035916194 0.08404269 -0.066950694 0.1747346
000280 5d b2 99 bd c0 9f 99 3d 26 13 ab bd ef 1e 6c 3c
       -0.07504723 0.07501173 -0.08353262 0.014411672
000290 0c 47 ae 3c ae a2 c5 3d c5 7d e8 3d 60 16 9b 3e
       0.021274112 0.09650169 0.11352114 0.30290508
0002a0 a1 f6 1a be 6e 75 68 3d 96 54 7f bb b7 d5 58 3e
       -0.15133144 0.056752615 -0.003896033 0.21175276
0002b0 81 23 1e bd 2f 5d 3e be 2c b5 0a 3e 94 1c 4d bd
       -0.038608078 -0.18590234 0.13545674 -0.050076082
0002c0 4b fb b1 3d c9 2d 43 3d 58 a0 a7 3e c3 6a 34 3d
       0.086905085 0.047651086 0.3273952 0.04404713
0002d0 0d 94 fa 3d 00 c5 96 bd 42 fe ef 3d 9f 72 fd 3d
       0.1223527 -0.073617935 0.11718418 0.12375378
0002e0 fe f2 ba 3d b2 91 58 3e b3 3e fa 3d ec 90 75 bc
       0.09128378 0.21149328 0.1221899 -0.014988165
0002f0 34 c3 e5 bd 64 68 e0 bd 7e 4d 24 3d 69 c8 a0 bc
       -0.11218873 -0.10957411 0.040112965 -0.019626813
000300 31 b9 ae 3d 2f e6 34 bd df d5 a2 3d 65 88 9d 3e
       0.08531416 -0.044164833 0.07950949 0.30768123
000310 23 ef 07 3e 57 06 22 3e 47 82 16 3e 24 83 7f be
       0.13274817 0.15822731 0.14698134 -0.2495237
000320 1c 4b 00 be 26 e5 80 3b 5e 97 38 3e 47 0a 5c 3e
       -0.12528652 0.0039335666 0.18026492 0.21488295
000330 95 2f ff 3c 66 37 1f 3e 76 4d d0 3d bb 70 1c be
       0.031150619 0.15548477 0.101710245 -0.15277378
000340 c2 cf af bd d7 09 c2 3d 9e c3 39 3e a8 96 3f 3e
       -0.085845485 0.09474533 0.18141028 0.18709815
000350 e7 5c ee 3d ba 47 23 3e 4e cb f6 3d 9f eb 0e be
       0.116388135 0.1594533 0.12050496 -0.1395707
000360 24 e4 5a 3d b1 88 db 3d 28 c5 07 3e 7b b7 fe bd
       0.053440228 0.10719431 0.13258803 -0.1243734
000370 26 36 1b 3c 70 af 15 3e 05 64 34 3b ca bd 7f 3e
       0.009473359 0.14617705 0.0027525437 0.24974743
000380 5b c7 81 bc 84 fa 4b bd 6c 73 b8 bd 53 2c 9c 3d
       -0.01584213 -0.049799457 -0.0900639 0.07625642
000390 8c f4 bf 3c 5b f6 24 3e 0a f6 1a 3d e6 87 14 3e
       0.023432039 0.16109602 0.037832297 0.14504966
0003a0 54 1f 44 3e 1e 4b 50 3b 2d 7d 5e bc 35 ea b8 3b
       0.19152576 0.0031783055 -0.013579649 0.005643154
0003b0 93 c0 08 3e 07 b1 db 3d d9 34 d0 3d 09 99 ff bc
       0.13354711 0.10727125 0.1016633 -0.031200903
0003c0 88 fa 2f bd 7a 40 35 bd 0e dd 6e 3e 37 91 67 bd
       -0.042963535 -0.044250943 0.23326513 -0.056534972
0003d0 80 33 e1 3d 1e 80 78 bd 0e c7 67 3d cc d6 98 3d
       0.10996151 -0.060669057 0.056586318 0.07462844
0003e0 f9 e9 fa bc b5 52 39 3e cf 8f 67 3e d3 33 86 3e
       -0.030629145 0.18097956 0.22613452 0.26211414
0003f0 bb 75 fd 3d c7 37 84 3c 4d 14 2f 3e 30 d4 1b 3e
       0.12375971 0.016139878 0.17097588 0.15217662

net.4.weight f4 [3, 256]
000000 58 7f a4 bd ce 02 99 3e 95 e9 f5 bd 38 53 cb 3d
       -0.080321014 0.29884952 -0.12007443 0.09927982
000010 0b cf 58 3e e4 b8 02 be 27 1e 54 3e 17 78 58 be
       0.2117273 -0.12765843 0.20714627 -0.2113956
000020 a9 60 ee 38 d8 bd 3a be 3d e8 7c 3c de 90 17 3e
       0.00011366729 -0.18236482 0.015436229 0.14801356
000030 fd 7b c4 be ec 89 cb 3d 0e 91 a6 be 28 e9 00 bf
       -0.38375846 0.09938416 -0.32532543 -0.5035577
000040 57 0c 03 3e 33 47 7c 3e 79 e7 ad be bc f1 16 3e
       0.12797676 0.24636535 -0.33965662 0.14740652
000050 73 e2 27 bd e1 e4 be be 10 f6 01 3e 4d 7d b5 ba
       -0.040987443 -0.37283996 0.12691522 -0.0013846547
000060 9e ec e9 3d dc 70 99 be 6e b9 aa 3f 32 c9 73 be
       0.11422084 -0.29968917 1.3337839 -0.23807219
000070 40 f7 3d 3e d7 ea a9 ba 1c 90 cd 3c 12 2d f8 3d
       0.1855135 -0.0012963664 0.02509313 0.121179715
000080 a5 0d 95 3d f3 21 9a be b3 e6 a5 3d 71 fd ad 3d
       0.07277993 -0.30104026 0.08100643 0.08495606
000090 6d 06 4d 3f be 38 0b bd f2 c9 29 be a7 ad 49 be
       0.8008793 -0.03398966 -0.16580942 -0.1969515
0000a0 c6 0a b7 be dd a1 dd 3a 96 f9 e0 bd 02 f7 dd bd
       -0.35750407 0.0016909201 -0.10985105 -0.108381286
0000b0 7c 92 9a be e2 61 fe 3d 24 12 fd 3e 9e 5c 55 3e
       -0.30189884 0.124210134 0.49427903 0.20836112
0000c0 41 dc 83 be cd 5f f0 3c 8d f5 4b be 47 3b bf 3d
       -0.25753978 0.029342556 -0.19917889 0.09337478
0000d0 98 fb 6f 3e fb ec 6d bb a1 c3 5a 3e d5 90 ab bd
       0.23435819 -0.0036304581 0.21363689 -0.08377234
0000e0 3f cb 42 be 24 43 92 be 3d bc 47 be 74 fb 5a bf
       -0.19022845 -0.2856685 -0.19505401 -0.85539937
0000f0 44 05 2b be 52 d3 29 be 83 63 24 3f 73 a4 20 3e
       -0.16701227 -0.16584519 0.6421434 0.15687732
000100 56 90 f2 3d ba 12 46 bd ba ec 08 3e 5b 91 34 3c
       0.11843936 -0.048357703 0.13371554 0.011020984
000110 3b f3 ff 3d 6f 18 1b be f6 c5 39 3e 45 ef a1 3d
       0.124975644 -0.1514604 0.18141922 0.07906965
000120 17 96 0d 3e 32 14 c7 bd 54 0d e8 bd 94 81 ec bd
       0.13826786 -0.09720649 -0.11330667 -0.115481526
000130 69 db 5d 3e ee 09 8f be f6 96 d0 bc ac 68 4c 3e
       0.2166573 -0.27937263 -0.025462609 0.19961804
000140 88 54 cc be f7 08 58 be f4 bc 49 bc df af 90 bd
       -0.39908242 -0.2109717 -0.012313116 -0.07064795
000150 9a 27 ed 3d be b6 37 3e b3 e5 8c be b6 9f 38 be
       0.11579819 0.17940804 -0.27518997 -0.18029675
000160 63 1c 6c 3e 0d e0 70 3e 9b 64 0a 3e 0f f1 08 3e
       0.23057704 0.23522969 0.1351494 0.13373207
000170 70 7e 42 3e 41 13 c8 3e 56 16 af be 2f 0c b1 3c
       0.18993545 0.3907719 -0.34196728 0.021612255
000180 b5 dd a4 be ce 08 8f bd 7e d9 07 bf 38 bb 08 bf
       -0.322004 -0.06984101 -0.5306624 -0.53410673
000190 53 86 aa bd b6 84 b7 be 9f 93 15 3e d6 b0 a8 3e
       -0.083264016 -0.35843438 0.14607094 0.32947415
0001a0 a5 70 f8 be b7 98 bc 3e 93 65 57 3e dc d6 67 be
       -0.4852344 0.36835262 0.21034841 -0.22640556
0001b0 50 08 d5 be 2f a6 44 bd 15 e9 44 3e f9 31 0c 3e
       -0.41607904 -0.048010048 0.19229539 0.13690938
0001c0 2b ce 86 3e 77 0b c5 3d 7b e9 17 be ca 43 49 bd
       0.2632917 0.09621327 -0.1483516 -0.049136914
0001d0 59 6b 23 3e 77 f2 b4 bc 9f 5b 89 bd 4d cb 17 3e
       0.15958919 -0.022088272 -0.067069285 0.14823647
0001e0 46 a7 e4 3c 3d 0d 8f 3c 6e f2 16 3e 57 7d 95 be
       0.027911793 0.017462367 0.14740917 -0.2919719
0001f0 0f ea 45 be 1a 8c 15 be 13 de c3 3d 0a 53 0c 3d
       -0.19327568 -0.14604226 0.09563842 0.03425888
000200 2f 92 b7 be 7b db a3 3e de 5a bb be 01 8b df 3c
       -0.35853717 0.32003388 -0.36592764 0.027287962
000210 45 49 b5 3d 18 a8 ab 3d 4d 12 1b 3e 86 14 c8 3d
       0.08851866 0.08381671 0.151437 0.097695395
000220 72 66 b3 be 54 0f f9 3d 98 aa 59 3e 82 e9 f9 3d
       -0.35039097 0.12161127 0.21256483 0.12202741
000230 98 88 52 be b4 51 54 3e 31 ce 71 3e ac 9c 8c bf
       -0.20559919 0.20734292 0.23613812 -1.0985312
000240 03 4e 5e be 3e b7 ce bd ac 2a 25 3e d6 49 ad be
       -0.21709447 -0.100935444 0.1612956 -0.33845395
000250 0f 75 08 be 55 13 6f be 40 30 8c 3e e9 9b 37 be
       -0.13325904 -0.23347218 0.27380562 -0.17930569
000260 97 a3 d2 be 1f cb 92 be 3b 3f b6 bd 08 de 05 3e
       -0.41140434 -0.28670594 -0.08898779 0.1307298
000270 ca 54 92 bd c1 5f 24 be 33 08 57 be c2 1a bc be
       -0.071450785 -0.16052152 -0.20999222 -0.36739165
000280 33 98 8d be 15 43 06 be 63 be 97 be b7 2c 43 be
       -0.2765518 -0.13111527 -0.2963744 -0.19060026
000290 25 d6 16 bc a3 bc be be f8 6c 75 bd 53 18 53 be
       -0.0092063295 -0.37253293 -0.059918374 -0.20614748
0002a0 95 9b f5 bd f6 86 90 be 64 39 02 be 17 48 72 3e
       -0.119925655 -0.28227967 -0.12717205 0.23660313
0002b0 b7 2b c8 3e 8b 97 82 be df bb 09 3e cc f4 04 be
       0.39095852 -0.25506243 0.13450573 -0.12984008
0002c0 c5 c7 fd bd 3d b3 0d 3d 25 d8 6b 3f 8b 7d 62 be
       -0.12391619 0.034594763 0.92126685 -0.22118203
0002d0 2f 5b 8d bd 3d 59 84 be c9 f3 9e 3e d6 93 72 3e
       -0.069021575 -0.25849333 0.31045368 0.23689207
0002e0 c6 3a 0d 3e 93 6c a9 be 8e 59 91 bc 08 46 8e 3e
       0.13791952 -0.33090648 -0.017742898 0.27787805
0002f0 e7 9f 6f be 89 0d 93 be ea 73 79 3b b7 12 b8 3d
       -0.23400842 -0.28721264 0.0038063475 0.089879446
000300 a3 ef 07 3e f3 bf 0a 3d f6 eb 94 bc c6 f9 de be
       0.13275008 0.033874463 -0.018178921 -0.43549937
000310 bd af 78 3e eb b2 4b bb e2 d0 e4 3c 94 a8 5b be
       0.24285789 -0.0031081985 0.027931634 -0.21451026
000320 78 f6 86 be a9 b1 95 3e 8f 1d dc 3d 6a ff 6b 3e
       -0.26359916 0.29237106 0.10747825 0.23046651
000330 db 53 a9 3d 3f e8 ae be d3 41 06 3e db 18 b0 be
       0.08267947 -0.34161565 0.13111047 -0.34393963
000340 09 4a 20 3e 21 f8 9b bc 95 b7 e7 3d 61 27 d3 3d
       0.15653242 -0.019039216 0.11314312 0.10310245
000350 81 f0 88 bc 17 f5 e5 3e 0a 4c 35 ba e1 d5 a3 be
       -0.016716244 0.4491355 -0.0006915933 -0.31999114
000360 84 79 92 3e f3 e9 23 3e 3e e3 85 3e 23 35 54 be
       0.28608334 0.16007213 0.26149935 -0.20723395
000370 1f 19 9d be 92 97 bd 3e 24 67 98 be 40 0b 11 3f
       -0.30683228 0.370297 -0.2976619 0.5665779
000380 72 8d b1 3d 04 69 b8 bb 81 62 06 be 4a 1e 9b 3c
       0.08669557 -0.005627753 -0.13123514 0.018935341
000390 af ca 65 3d e0 66 18 3e 0f f8 ac 3e 3a 1b 2b 3e
       0.056101497 0.14882994 0.33783004 0.16709605
0003a0 fd 64 39 3c 38 2a 64 be 11 4f e4 be 9a 5c 60 bd
       0.011315581 -0.2228173 -0.44591573 -0.05477581
0003b0 6f 9d e4 be de 69 0a 3d e0 07 23 3e 42 eb 16 be
       -0.44651362 0.03379237 0.15920973 -0.14738181
0003c0 70 b4 81 be 55 fd 88 3d 12 2d 63 3e 8b 6e c1 bd
       -0.25332975 0.06688944 0.22185162 -0.094449125
0003d0 fe fe bc bd 68 02 d4 bd 7a 2a 52 3d 6a 77 a6 be
       -0.092283234 -0.103520215 0.05131004 -0.3251298
0003e0 de 51 c2 bd 43 0d 2f be 59 d5 5e 3e d3 df 82 be
       -0.09488271 -0.17094903 0.21761073 -0.2556139
0003f0 43 7c 8e 3c f4 d1 63 bd 32 44 24 be 73 fc 11 3e
       0.017393237 -0.05562015 -0.1604164 0.14256458

net.4.bias f4 [3]
000000 31 33 e0 3a 20 42 d7 bc 4e 0f f0 bd
       0.00171051 -0.026276648 -0.11721669
