astar/checkpoints/sac_actor_0.pth (torch, 290096 bytes, 6 tensors)

weight f4 [256, 18]
-0.16991097 -0.048987344 -0.117140144 0.15851499 -0.21055627 -0.10203704 -0.18987864 -0.18879832
0.035546675 0.2012193 0.22294281 0.16464503 -0.06495234 0.06335758 0.1815208 0.23082422
-0.20926543 0.18662979 0.07815613 0.09797813 0.15572645 -0.13329145 0.059697464 -0.1136496
0.03285314 0.2064616 0.009298131 0.10093485 -0.14084175 0.1493795 0.16159414 -0.06349917
-0.19744526 -0.22292909 0.23032768 0.025626913 0.053030744 0.016182676 -0.17736766 -0.07079077
0.17828192 -0.060501218 -0.16540514 -0.121091746 0.11488943 0.16374506 0.18140788 0.18960722
-0.020327061 -0.05000645 0.20396517 -0.21092154 0.018012479 -0.16344792 -0.041979387 0.028663084
-0.09805386 -0.19363266 0.0026740283 0.23135592 -0.032238007 -0.22691476 0.016347542 -0.08365138
-0.10926956 -0.17049372 0.03936754 -0.06818649 0.01991357 -0.17466168 -0.04996045 0.2037142
-0.011278942 -0.0009984076 0.18754376 -0.053121522 0.03383179 0.16825421 -0.22658256 0.029966846
0.14515765 0.04932849 0.039395586 0.19352205 -0.04519786 0.18799965 0.1322255 -0.14746132
-0.1217768 -0.1599043 0.15049614 0.19511868 0.068191305 0.030580118 -0.1504441 -0.17613606
0.07151355 0.1306177 -0.1577662 -0.03889239 -0.20327695 -0.0574044 0.11334278 0.032282963
0.15323026 0.20676492 0.08206813 -0.049862638 0.15307729 0.030138925 0.1266809 0.012443379
-0.13962768 -0.17132773 0.1479076 -0.15145135 -0.022906333 -0.1888685 0.054044113 -0.012439355
0.04966952 -0.08849773 -0.07681772 0.12920399 0.01450105 -0.014243141 -0.185502 0.03629677
0.0642841 -0.17179985 -0.07689066 0.19759287 0.17825906 -0.20632124 0.12897764 0.23166968
0.16497658 0.17195816 -0.18933472 0.0032906085 -0.2293124 0.14684428 -0.056683853 0.113829866
0.10942592 -0.19780803 -0.16560343 -0.04286039 0.11970396 0.06639828 -0.0144839585 0.14614676
-0.11403886 0.12705158 -0.089841604 0.1836767 0.21906357 -0.10380344 -0.07187836 0.18744142
-0.07416022 0.12649105 -0.22265542 -0.109382346 0.007301569 0.040188685 -0.12142566 0.16813625
0.17863075 0.13398404 -0.20377779 -0.017932951 0.03938903 0.1075546 -0.08546153 -0.0901037
0.10434799 -0.12435942 0.0013961792 -0.15771438 0.17652895 -0.12180001 0.12108113 0.19586776
-0.16756657 -0.21073993 -0.071493894 0.22756578 -0.21638034 0.18091844 -0.063096866 0.106421664
-0.06321715 -0.044472322 -0.056411088 -0.03339137 -0.033483878 -0.11768853 0.20879512 0.0039215684
-0.21041885 -0.1774361 -0.12946309 0.23283876 0.20235549 0.16626571 0.20956732 -0.007925242
-0.20810464 0.21599172 -0.22486153 0.23209171 -0.09733382 0.15774898 -0.21985507 -0.19951537
0.20100482 0.18348645 0.030640826 0.16021855 -0.13406032 -0.054112732 0.0931059 -0.1140716
-0.12420651 0.11724521 -0.13035354 -0.18789296 0.18815269 -0.0076117814 -0.0151328 -0.20110124
0.07201643 -0.00551565 0.09342356 0.10612027 0.115182295 0.17189611 -0.04690866 0.13745822
-0.020702258 -0.12806961 0.17993872 -0.051954255 -0.13385238 -0.23121649 0.052546546 -0.08586246
0.2204972 0.13840757 -0.0016000569 0.093908325 -0.0795773 0.08938916 0.015558884 -0.14162493
00000000: 24fd 2dbe f4a6 48bd 2ce7 efbd c151 223e
00000010: 109c 57be ccf8 d0bd 8c6f 42be 5954 41be
00000020: 6499 113d 6f0c 4e3e 1f4b 643e b598 283e
00000030: bc05 85bd 9ec1 813d 97e0 393e 2f5d 6c3e
00000040: ad49 56be e11b 3f3e 5210 a03d c2a8 c83d
00000050: c176 1f3e 8e7d 08be 5485 743d 1fc1 e8bd
00000060: 0491 063d ab6a 533e 3057 183c eeb6 ce3d
00000070: d238 10be f1f6 183e ef78 253e da0b 82bd
00000080: 172f 4abe 8647 64be 05db 6b3e 88ef d13c
00000090: c436 593d 8891 843c de9f 35be c0fa 90bd
000000a0: 898f 363e 20d0 77bd f75f 29be f3fe f7bd
000000b0: 264b eb3d c9ac 273e fdc2 393e 6528 423e
000000c0: f084 a6bc 90d3 4cbd 3fdc 503e d1fb 57be
000000d0: e88e 933c e45e 27be 94f2 2bbd d8ce ea3c
000000e0: 76d0 c8bd a447 46be c03e 2f3b 91e8 6c3e
000000f0: 000c 04bd 585c 68be 48eb 853c 6a51 abbd
00000100: b8c8 dfbd e895 2ebe dc3f 213d 5ca5 8bbd
00000110: c821 a33c 83da 32be 54a3 4cbd 759a 503e
00000120: 50cb 38bc 00dd 82ba 790b 403e f495 59bd
00000130: 3493 0a3d d54a 2c3e 4205 68be 087d f53c
00000140: 35a4 143e ac0c 4a3d 445d 213d a52a 463e
00000150: 6421 39bd fb82 403e 1f66 073e 1a00 17be
00000160: 1d66 f9bd f4bd 23be a91b 1a3e 31cd 473e
00000170: e2a7 8b3d 2883 fa3c 050e 1abe 035d 34be
00000180: b275 923d a5c0 053e 768d 21be a04d 1fbd
00000190: d527 50be e020 6bbd 4220 e83d 243b 043d
000001a0: 65e8 1c3e 2fba 533e 5613 a83d c43c 4cbd
000001b0: 4bc0 1c3e e8e5 f63c a3b8 013e 50df 4b3c
000001c0: 8ffa 0ebe 8970 2fbe 1775 173e 1016 1bbe
000001d0: 10a6 bbbc be66 41be 5c5d 5d3d 70ce 4bbc
000001e0: 4472 4b3d 4c3e b5bd 9c52 9dbd 0d4e 043e
000001f0: d095 6d3c 105c 69bc 3cf4 3dbe ecab 143d
00000200: 62a7 833d 4dec 2fbe da78 9dbd c955 4a3e
00000210: 8b89 363e e045 53be b712 043e d13a 6d3e
00000220: 9fef 283e cd15 303e f6e0 41be 40a7 573b
00000230: dfd0 6abe 595e 163e 542d 68bd a21f e93d
00000240: b21a e03d 308e 4abe f293 29be 608e 2fbd
00000250: 5a27 f53d d2fb 873d 204e 6dbc 7fa7 153e
00000260: 358d e9bd cf19 023e e0fe b7bd bf15 3c3e
00000270: 3352 603e e696 d4bd f634 93bd a5f0 3f3e
00000280: 50e1 97bd df86 013e c8ff 63be da03 e0bd
00000290: 0042 ef3b e49c 243d 04ae f8bd e92b 2c3e
000002a0: fbea 363e 1d33 093e 20ab 50be 20e8 92bc
000002b0: 6456 213d 9645 dc3d 7406 afbd 4a88 b8bd
000002c0: 66b4 d53d 27b0 febd 0000 b73a e17f 21be
000002d0: 01c4 343e 4972 f9bd 62f9 f73d 8f91 483e
000002e0: 9296 2bbe 35cc 57be 646b 92bd 0107 693e
000002f0: cf92 5dbe af42 393e ee38 81bd 9af3 d93d
00000300: fe77 81bd 9c28 36bd 500f 67bd 64c5 08bd
00000310: 6426 09bd af06 f1bd 63ce 553e 8080 803b
00000320: 0a78 57be cfb1 35be f991 04be 496d 6e3e
00000330: 4736 4f3e 8f41 2a3e d198 563e e0d8 01bc
00000340: 6219 55be ef2c 5d3e 1a42 66be 73a9 6d3e
00000350: f456 c7bd f388 213e b021 61be c24d 4cbe
00000360: 35d4 4d3e dfe3 3b3e 7802 fb3c 5510 243e
00000370: 1c47 09be 50a5 5dbd 4eae be3d 5f9e e9bd
00000380: fc5f febd 421e f03d 667b 05be 0367 40be
00000390: 19ab 403e 406c f9bb 90ef 77bc 7ced 4dbe
000003a0: 5a7d 933d a0bc b4bb da54 bf3d 9655 d93d
000003b0: b2e4 eb3d 8905 303e 4c23 40bd d9c1 0c3e
000003c0: c897 a9bc ae24 03be db41 383e fccd 54bd
000003d0: 9910 09be 04c4 6cbe 0c3b 573d a8d8 afbd
000003e0: 05ca 613e b7ba 0d3e 00b9 d1ba 0253 c03d
000003f0: 6cf9 a2bd aa11 b73d b0ea 7e3c 2006 11be

bias f4 [256]
0.21789567 0.09152128 0.120941296 -0.15927133 -0.15505396 -0.17479512 0.12966774 -0.017337382
0.060009792 0.026528075 0.22710554 -0.07677178 -0.028215006 -0.22145784 -0.12466808 0.07592954
0.16351144 -0.024353877 0.11971106 -0.10009205 0.10576479 -0.09778802 -0.13270217 -0.0454188
0.0889688 -0.060179323 0.105996 -0.021136567 0.10577743 -0.11306097 -0.025643244 -0.07208337
-0.2191776 0.19842504 -0.03176616 -0.111269005 -0.16653329 -0.07528506 -0.010397598 0.010951072
-0.17928755 0.14464135 -0.13635173 -0.041086823 0.13883878 0.045406625 -0.19104886 0.18345065
0.12150352 0.09859611 0.16431586 0.14836307 0.20614134 0.006793767 -0.095087394 -0.16371384
-0.038873672 -0.052255094 -0.06554428 -0.18604656 0.20211338 -0.15161318 -0.20662226 0.22814922
0.17400001 -0.0036575645 0.002650559 -0.22106624 0.14560671 0.17649429 -0.05380492 -0.07143295
0.008076847 -0.029201955 0.070093885 -0.19923127 -0.22340442 0.074621454 -0.16137183 -0.06664774
0.071913585 -0.13458978 -0.026192248 0.16891493 -0.14409271 -0.18424386 -0.14566451 -0.09830336
-0.15908635 -0.074477166 -0.02064322 -0.11573598 0.21758904 0.20395677 -0.16295558 -0.062238723
0.09946321 0.14441635 -0.1123805 0.061712757 -0.18022802 0.11970718 0.10540794 0.17301781
-0.10498291 0.17537718 0.0431235 -0.056020305 0.027316406 -0.079574764 0.14724939 -0.0008432418
0.21379589 -0.052389264 0.20989667 -0.15889922 0.13948764 0.19982044 0.11921002 0.17075877
-0.07824026 0.095239565 0.039501086 0.05041699 0.07165517 -0.056257978 -0.15358497 -0.061505035
-0.025150314 0.22159351 0.021678165 0.0061078966 -0.23315996 0.14676745 0.119909 -0.14139813
-0.10331215 -0.038455203 0.16100757 -0.11469096 0.0715092 -0.13644582 -0.23344836 0.22841002
-0.023952782 -0.11121047 -0.043304995 -0.052504748 -0.14587814 -0.106488615 0.10394554 -0.10420421
-0.051396057 0.09429841 0.01444681 -0.0998988 0.09915368 -0.048652828 -0.2156409 0.0680923
-0.14316308 0.2055145 0.10004155 0.111521706 -0.037231877 -0.17295931 -0.11268263 -0.1085736
0.14445521 -0.135842 0.1914817 -0.10991959 0.07624899 -0.033952236 -0.12446546 -0.09468046
-0.044103608 -0.16140386 0.005722612 0.21261422 -0.03885895 0.20520084 0.23233621 -0.21224597
-0.17133778 -0.19945858 0.1601137 0.20755313 0.11110346 0.12624495 0.048863962 -0.14000243
0.100234464 0.068129435 -0.06580269 0.104689464 0.22761227 0.08364509 -0.061409533 -0.037629068
-0.13239275 -0.09619215 0.12138994 0.08869226 -0.21803525 0.19802783 0.14718534 0.011033967
-0.033890143 0.0060651302 -0.010240421 0.2160634 0.0028014183 -0.22768795 0.22887819 0.09823604
0.18658559 -0.10861161 0.14783172 0.14993407 0.21825732 -0.10179338 -0.15307789 0.088154
-0.18616718 0.026712254 0.040992662 0.030153677 0.025864378 -0.23303473 -0.22810374 -0.01311183
-0.11532926 -0.033407673 0.016197726 0.13923992 -0.12617645 0.10336538 -0.0539539 0.21291904
0.15825288 -0.17377555 -0.22074567 0.20719965 -0.111514494 -0.055444017 0.14798258 -0.0009823889
-0.11739502 -0.14347246 -0.014418691 -0.2142796 -0.09918176 0.076888934 -0.048166126 0.0649216
00000000: 0b20 5f3e 826f bb3d 12b0 f73d 0618 23be
00000010: 77c6 1ebe 7efd 32be 9fc7 043e 2007 8ebc
00000020: d4cc 753d 6851 d93c 5b8e 683e 863a 9dbd
00000030: 2823 e7bc d8c5 62be fa51 ffbd f280 9b3d
00000040: 8b6f 273e c881 c7bc 122b f53d 10fd ccbd
00000050: 369b d83d 1645 c8bd 14e3 07be 1009 3abd
00000060: 4635 b63d 987e 76bd 6e14 d93d 9826 adbc
00000070: d6a1 d83d 838c e7bd c811 d2bc 72a0 93bd
00000080: 1870 60be ef2f 4b3e 3c1d 02bd 01e1 e3bd
00000090: b487 2abe 0e2f 9abd b05a 2abc 206c 333c
000000a0: 2897 37be dd1c 143e ca9f 0bbe a84a 28bd
000000b0: c12b 0e3e 4cfc 393d 50a2 43be 7dda 3b3e
000000c0: d6d6 f83d c2ec c93d 6b42 283e 7dec 173e
000000d0: b716 533e 409e de3b 2ebd c2bd 9aa4 27be
000000e0: 003a 1fbd 7009 56bd 143c 86bd fd82 3ebe
000000f0: cff6 4e3e 7c40 1bbe c994 53be f39f 693e
00000100: 0f2d 323e c0b3 6fbb 00b5 2d3b 305f 62be
00000110: ed19 153e ebba 343e 8c62 5cbd 704b 92bd
00000120: c054 043c f038 efbc 628d 8f3d 4803 4cbe
00000130: 21c4 64be 22d3 983d a83e 25be 9c7e 88bd
00000140: 6e47 933d e7d1 09be 2091 d6bc 09f8 2c3e
00000150: 0a8d 13be 6caa 3cbe 1429 15be 4653 c9bd
00000160: 88e7 22be 7c87 98bd f81b a9bc fc06 edbd
00000170: a9cf 5e3e 0bda 503e d4dd 26be 08ee 7ebd
00000180: 5eb3 cb3d e1e1 133e bf27 e6bd 84c6 7c3d
00000190: b28d 38be 0a29 f53d 1ee0 d73d 952b 313e
000001a0: 4801 d7bd 1396 333e 44a2 303d 8c75 65bd
000001b0: a8c6 df3c 18f8 a2bd 8bc8 163e 000d 5dba
000001c0: 4fed 5a3e 2096 56bd 27ef 563e 7ab6 22be
000001d0: d9d5 0e3e bb9d 4c3e 6224 f43d 63db 2e3e
000001e0: 6e3c a0bd f60c c33d e4cb 213d 0c82 4e3d
000001f0: f2bf 923d c46e 66bd 6145 1dbe b4ec 7bbd
00000200: 0808 cebc 69e9 623e 6896 b13c c024 c83b
00000210: 7cc1 6ebe 354a 163e da92 f53d acca 10be
00000220: 5295 d3bd 3483 1dbd 2bdf 243e 18e3 eabd
00000230: 6a73 923d 74b8 0bbe 160d 6fbe 51e4 693e
00000240: a038 c4bc 51c2 e3bd 9460 31bd 380f 57bd
00000250: 1461 15be b416 dabd 66e1 d43d 0469 d5bd
00000260: ac84 52bd 861f c13d 50b2 6c3c be97 ccbd
00000270: 1611 cb3d 3048 47bd f8d0 5cbe fa73 8b3d
00000280: 5899 12be 6572 523e 96e2 cc3d 7e65 e43d
00000290: 7480 18bd 3f1c 31be 27c6 e6bd d65b debd
000002a0: 11ec 133e 2a1a 0bbe c713 443e 861d e1bd
000002b0: 6e28 9c3d 8011 0bbd bfe7 febd d4e7 c1bd
000002c0: fca5 34bd 0e47 25be c084 bb3b 8bb7 593e
000002d0: 902a 1fbd 2b20 523e 8be9 6d3e 0257 59be
000002e0: 2c73 2fbe df3e 4cbe d9f4 233e cf88 543e
000002f0: 368a e33d 5b46 013e 9425 483d cc5c 0fbe
00000300: ba47 cd3d 7287 8b3d 90c3 86bd 6e67 d63d
00000310: 3113 693e 1e4e ab3d 9088 7bbd f020 1abd
00000320: f791 07be 6400 c5bd 4a9b f83d 4aa4 b53d
00000330: a244 5fbe cfc7 4a3e c1b7 163e d0c7 343c
00000340: 64d0 0abd 00be c63b 70c7 27bc b93f 5d3e
00000350: 0098 373b 0827 69be 0b5f 6a3e fa2f c93d
00000360: 4b10 3f3e c46f debd 3361 173e 5188 193e
00000370: d97e 5f3e 0c79 d0bd 73c0 1cbe 168a b43d
00000380: 9ca2 3ebe a8d3 da3c ece7 273d d804 f73c
00000390: 88e1 d33c a8a0 6ebe 0794 69be 00d3 56bc
000003a0: bf31 ecbd 7cd6 08bd 18b1 843c e994 0e3e
000003b0: 6634 01be 3ab1 d33d c4fe 5cbd 7307 5a3e
000003c0: 0b0d 223e 38f2 31be 270b 62be 252c 543e
000003d0: b661 e4bd 4419 63bd bf88 173e 80c3 80ba
000003e0: cd6c f0bd 72ea 12be 603c 6cbc 1d6c 5bbe
000003f0: ce1f cbbd f277 9d3d d849 45bd 9ef5 843d

weight f4 [256, 256]
-0.052984186 0.036816314 0.044995584 0.0031713992 0.053806104 -0.011174731 0.047068268 0.019199975
0.06208422 0.00064472854 -0.022904754 0.03115841 0.0040572435 0.032242894 -0.013992928 -0.048266225
-0.0153274685 0.03893747 -0.015878193 0.0011212975 0.058103412 0.02698984 -0.05538489 0.054886974
-0.024614647 0.048723437 -0.005493827 0.05539278 -0.008335806 0.018705912 -0.0058999434 -0.023383178
-0.05890747 -0.046272255 0.049034692 0.060922056 0.032042272 0.043660626 -0.049403124 0.031853497
-0.049556732 0.02648279 -0.022184022 -0.0077942833 -0.05058995 -0.038347304 0.055149615 -0.014243357
-0.025032327 0.022626162 -0.04847698 -0.027691513 -0.032725006 0.037963055 0.0036703423 0.0060449243
-0.015553102 0.057057865 -0.050334007 0.024962991 -0.05190228 -0.012450211 0.060944594 -0.055161268
-0.026927829 0.051304996 0.017411523 0.04268486 0.0128644705 -0.0049153864 0.052727386 0.03175257
0.061662167 -0.005072698 0.016076237 0.047128305 -0.021759614 -0.01435364 -0.03953711 0.03873934
0.013864607 -0.03512478 0.045580298 -0.029275797 0.0035508126 -0.03418906 0.061972253 -0.052595586
-0.04598315 0.01715044 0.027398355 -0.013108604 0.022188112 -0.0069977045 -0.05217185 -0.012473069
0.050429314 -0.048460335 0.024780914 0.029830948 0.06089861 -0.05634652 0.030571409 0.02635619
-0.03970217 0.054049753 -0.022226557 -0.02099812 -0.008989178 0.025541067 0.00333713 -0.05940952
0.0565017 0.002812937 0.048204474 0.057816938 0.05204889 -0.008528538 -0.021622814 -0.046780676
-0.016643822 0.021841757 0.010967903 0.05287472 0.057757683 0.03282898 0.019277282 0.020888366
0.036175333 0.043431707 -0.04155589 0.035424173 -0.0059142336 0.05194298 -0.059584595 -0.038368568
0.04750233 0.050391734 -0.002594255 0.022144109 -0.056660824 0.01944296 -0.0120972395 0.010680057
0.055999555 0.05032193 -0.06099399 -0.054289192 0.014557958 0.022587009 -0.013275757 -0.0390388
0.013327353 0.010622248 0.043208107 0.048558377 0.0050233006 0.019794129 0.04642479 -0.0046988428
0.038800158 -0.013023682 0.011355504 -0.0222577 0.02901353 -0.017829612 0.06239997 0.010696724
0.038162038 -0.02014687 0.04177589 -0.024175636 0.06227891 -0.023974568 -0.012648523 0.007221885
-0.03202399 -0.023230888 0.027535163 0.058939964 0.054905243 -0.021460325 -0.032397687 0.052429065
0.0358129 -0.0342659 0.004373923 -0.008306526 -0.029675357 0.0028070435 0.061471395 0.04894861
0.023072332 0.019357532 -0.05432406 0.014259495 0.056724183 0.031129733 -0.037903868 0.04027611
-0.017594859 0.03271006 -0.046315186 -0.05967348 -0.02434881 0.035147876 -0.031948388 -0.02826532
-0.007912204 -0.021654792 -0.054389358 0.015350878 -0.0075545534 0.00079123676 -0.022697724 -0.030322708
0.01795096 0.00068180263 -0.059936382 -0.02172999 -0.019274347 0.04586286 -0.027449429 0.0613785
0.033929855 0.019652396 -0.02743467 0.0037297532 0.051527165 -0.05801992 0.060664266 0.0061060935
-0.011748768 0.045590468 -0.05061078 -0.060266763 0.0445586 0.030786835 -0.017866708 0.0015482605
-0.026595302 -0.028967746 0.018898785 0.03804986 0.05533112 0.017506473 -0.028597452 -0.012663327
0.044917397 0.022306427 0.022614054 0.03572139 0.034693368 0.038318835 0.059085578 0.009628005
00000000: f205 59bd b4cc 163d 4a4d 383d 40d7 4f3b
00000010: ca63 5c3d 3816 37bc a8ca 403d 4449 9d3c
00000020: 064c 7e3d 0003 293a c0a2 bbbc ec3f ff3c
00000030: a0f2 843b 2011 043d 9842 65bc ceb2 45bd
00000040: 1020 7bbc e67c 1f3d fc12 82bc 80f8 923a
00000050: d8fd 6d3d cc19 dd3c 44db 62bd 2ad1 603d
00000060: a8a4 c9bc 3a92 473d 9005 b4bb 8ae3 623d
00000070: e892 08bc 243d 993c 5054 c1bb 148e bfbc
00000080: f648 71bd fa87 3dbd 9ad8 483d 6889 793d
00000090: c23e 033d 7cd5 323d ee5a 4abd d078 023d
000000a0: 00fc 4abd 70f2 d83c 44bb b5bc 3067 ffbb
000000b0: 6837 4fbd 1012 1dbd 90e4 613d f85c 69bc
000000c0: 9810 cdbc 805a b93c cc8f 46bd 50d9 e2bc
000000d0: a80a 06bd 267f 1b3d 208a 703b 8014 c63b
000000e0: 70d2 7ebc 82b5 693d 082b 4ebd 307f cc3c
000000f0: 7c97 54bd f8fb 4bbc 0aa1 793d c8f0 61bd
00000100: c097 dcbc 3025 523d 9ca2 8e3c 52d6 2e3d
00000110: 80c5 523c 4011 a1bb acf8 573d fc0e 023d
00000120: 7891 7c3d e038 a6bb 50b2 833c 9c09 413d
00000130: 3841 b2bc 882b 6bbc aaf1 21bd 24ad 1e3d
00000140: 6028 633c 00df 0fbd 68b2 3a3d ccd3 efbc
00000150: c0b4 683b d409 0cbd 9ed6 7d3d 786e 57bd
00000160: d458 3cbd 147f 8c3c 8472 e03c 78c5 56bc
00000170: d8c3 b53c 004d e5bb 26b2 55bd d85b 4cbc
00000180: f88e 4e3d 587e 46bd 5801 cb3c 0860 f43c
00000190: d270 793d 9ccb 66bd e470 fa3c f0e8 d73c
000001a0: be9e 22bd 4663 5d3d 7814 b6bc 4004 acbc
000001b0: 5847 13bc 803b d13c c0b3 5a3b 6657 73bd
000001c0: 546e 673d 4059 383b 0e72 453d 74d1 6c3d
000001d0: 3831 553d 48bb 0bbc 5422 b1bc 189d 3fbd
000001e0: a058 88bc 7ced b23c b8b2 333c 2a93 583d
000001f0: 5293 6c3d ae77 063d 64eb 9d3c 141e ab3c
00000200: 962c 143d 72e5 313d 8236 2abd f018 113d
00000210: 30cc c1bb 2ac2 543d fa0e 74bd 5c28 1dbd
00000220: ce91 423d 9067 4e3d 6004 2abb 9067 b53c
00000230: 2e15 68bd d846 9f3c 8033 46bc 68fb 2e3c
00000240: ca5f 653d 5e1e 4e3d d6d4 79bd 585e 5ebd
00000250: 8084 6e3c 6408 b93c 9082 59bc 26e7 1fbd
00000260: f85a 5a3c f008 2e3c fcfa 303d 26e5 463d
00000270: 809a a43b 4c27 a23c ec27 3e3d c0f8 99bb
00000280: eaec 1e3d 4861 55bc 700c 3a3c c855 b6bc
00000290: c8ad ed3c 680f 92bc 1c97 7f3d 5041 2f3c
000002a0: cc4f 1c3d 0c0b a5bc 321d 2b3d fc0b c6bc
000002b0: 2c18 7f3d 5066 c4bc c03b 4fbc 90a5 ec3b
000002c0: 962b 03bd b44e bebc 6c91 e13c 086b 713d
000002d0: 52e4 603d 90cd afbc 70b3 04bd dcbf 563d
000002e0: 8cb0 123d 665a 0cbd 2053 8f3b 1818 08bc
000002f0: bc19 f3bc 60f6 373b 6ec9 7b3d 567e 483d
00000300: 3002 bd3c b093 9e3c e882 5ebd a8a0 693c
00000310: 9e57 683d c803 ff3c 1641 1bbd 90f8 243d
00000320: 1823 90bc fcfa 053d feb4 3dbd 2e6c 74bd
00000330: 2877 c7bc 38f7 0f3d 50dc 02bd ac8c e7bc
00000340: 30a2 01bc 6465 b1bc 60c7 5ebd 4082 7b3c
00000350: 308c f7bb 006b 4f3a 94f0 b9bc 5467 f8bc
00000360: e40d 933c 00bb 323a da7f 75bd 1803 b2bc
00000370: 3ce5 9dbc b2da 3b3d a0dd e0bc 0668 7b3d
00000380: 08fa 0a3d 10fe a03c acbe e0bc e06e 743b
00000390: 260e 533d 4ca6 6dbd 187b 783d a015 c83b
000003a0: e87d 40bc 12bd 3a3d 404d 4fbd 48da 76bd
000003b0: 1483 363d ac34 fc3c 345d 92bc 00ef ca3a
000003c0: 64de d9bc c44d edbc a0d1 9a3c 2cda 1b3d
000003d0: e2a2 623d bc69 8f3c 3445 eabc d879 4fbc
000003e0: 4efb 373d f8bb b63c 1c41 b93c 9850 123d
000003f0: a21a 0e3d 36f4 1c3d b803 723d c8be 1d3c

bias f4 [256]
0.014354698 0.05096201 0.015193604 -0.041751705 -0.042356312 -0.026711553 0.0050171167 0.016408369
0.057414867 0.054533876 0.061378144 0.060384005 0.05089233 0.062116653 -0.013623655 0.044641025
0.0036876127 -0.029692255 0.012099586 0.03564643 -0.054718457 0.0462275 0.06197335 0.003948465
0.004959032 -0.034685805 0.007415138 -0.021521263 0.01555898 -0.025219977 0.031165838 -0.035585187
-0.053611375 -0.029790513 -0.048671834 0.014386132 -0.015934214 0.033439294 0.032547988 0.0017199442
0.05625028 -0.032138065 0.03909026 -0.00074473023 0.04763435 0.055182204 0.00092077255 0.025645316
-0.035243228 0.03305894 -0.050257325 0.038442507 0.030923948 0.030444205 0.016223475 -0.026141703
0.04939931 0.056135625 0.056577146 -0.054561578 -0.022453465 0.01642812 0.035393387 0.028636076
0.05518285 0.02674298 -0.020535283 -0.052823015 0.04206626 -0.030545682 -0.038722202 0.058136083
0.04471968 0.027706467 0.028351992 -0.051396973 0.014219321 0.026522897 -0.059504315 -0.021768406
0.01981704 0.0046801716 0.038981497 0.024958573 -0.014857061 0.056120068 -0.013051502 -0.04959237
-0.03778141 -0.04295516 -0.021553524 -0.027212821 0.048375316 -0.0030647218 0.01568807 -0.01945705
0.042623207 -0.060088 0.022327684 -0.010444045 -0.06121593 0.049957246 -0.05964341 0.059308104
0.038487114 -0.024413027 0.03812491 0.02614852 -0.0119779855 0.009397127 0.009540603 0.061277576
0.012655653 0.023105726 -0.014562048 0.030665569 -0.02687034 0.05820731 0.044938974 -0.058076374
0.0007546246 -0.061493233 0.022173658 -0.034479238 -0.04006149 -0.018090457 -0.020917952 -0.002431184
0.061700024 -0.024738275 -0.05714357 0.0035247132 0.045762174 -0.059027746 0.005309731 0.018029548
0.036939003 -0.051295564 0.050319552 -0.026146956 0.007000424 0.059941232 -0.049610168 0.050619736
0.031389937 0.05712945 0.0030988157 -0.020333722 -0.02616942 0.053678043 0.056622565 -0.036457248
-0.027743421 0.032331735 -0.029875368 0.0023376122 0.029953845 -0.019848518 0.039467484 -0.037247427
0.039767973 -0.04748188 -0.0036433563 0.03884536 -0.0067689717 -0.0068500936 -0.005407475 -0.03082338
0.011748612 -0.05866342 0.0069079474 0.012928091 -0.030915916 0.016013011 0.030140236 0.058893353
-0.0015099645 0.0007678345 -0.02678644 -3.054738e-06 -0.05263409 -0.017154455 0.024955422 0.033504784
-0.021334037 0.04923194 -0.053585105 -0.025165334 -0.045601666 0.037900016 -0.0478552 -0.016104445
0.006949514 -0.0076269656 0.025890984 -0.058334693 0.017875351 -0.0011736676 0.028593488 0.014330991
0.047281347 -0.04644926 -0.034897618 0.056566402 0.036021203 -0.01657395 0.029949203 -0.033896126
-0.0072229654 -0.0067387074 -0.04717101 0.029659882 -0.06179171 -0.03499434 0.036428086 -0.041524045
0.039968282 0.04758706 -0.017012335 0.019513234 -0.02653312 -0.027805157 -0.0045211613 0.052322604
-0.059064165 0.019872323 -0.023542777 -0.00069790334 0.058252454 0.05829099 -0.039813094 -0.040760554
-0.034147575 0.0051304027 0.011727475 0.035184316 0.06059143 -0.018316828 -0.03145685 0.022888236
-0.020903029 -0.029617213 0.049170546 -0.01776345 0.02867388 -0.061807178 -0.013300158 -0.0007978231
-0.0066256523 -0.034358792 0.0057438016 0.0067891255 0.010152012 -0.04611723 0.026912503 -0.033995554
00000000: f82f 6b3c 8abd 503d 98ee 783c d603 2bbd
00000010: d07d 2dbd 30d2 dabc a066 a43b d86a 863c
00000020: da2b 6b3d ea5e 5f3d a667 7b3d 3855 773d
00000030: 7a74 503d 086e 7e3d c035 5fbc 82d9 363d
00000040: e0ab 713b 2c3d f3bc 583d 463c fe01 123d
00000050: 7620 60bd 0c59 3d3d c4d7 7d3d 2062 813b
00000060: 607f a23b b412 0ebd b0fa f23b 5c4d b0bc
00000070: 18eb 7e3c 209a cebc 804f ff3c c6c1 11bd
00000080: 9a97 5bbd 3c0b f4bc 1e5c 47bd d0b3 6b3c
00000090: 7888 82bc a4f7 083d 0a51 053d c06f e13a
000000a0: b266 663d 34a3 03bd 1c1d 203d 003a 43ba
000000b0: 3c1c 433d bc06 623d 0060 713a 2016 d23c
000000c0: 345b 10bd d068 073d a0da 4dbd e475 1d3d
000000d0: 3854 fd3c 2066 f93c 18e7 843c 2027 d6bc
000000e0: ee56 4a3d 78ee 653d 70bd 673d f67b 5fbd
000000f0: 54f0 b7bc 4494 863c a8f8 103d 3496 ea3c
00000100: 6a07 623d 1814 db3c 9c39 a8bc f25c 58bd
00000110: ac4d 2c3d f03a fabc 2c9b 1ebd 1a20 6e3d
00000120: fc2b 373d acf8 e23c 7042 e83c a285 52bd
00000130: 28f8 683c 8c46 d93c ccba 73bd a853 b2bc
00000140: 5857 a23c 205c 993b 10ab 1f3d ec75 cc3c
00000150: 086b 73bc 28de 653d f8d5 55bc 5e21 4bbd
00000160: aec0 1abd c0f1 2fbd 0491 b0bc 6ced debc
00000170: 3225 463d 80d9 48bb 4484 803c 6464 9fbc
00000180: ac95 2e3d d61e 76bd 8ce8 b63c 801d 2bbc
00000190: 8ebd 7abd f89f 4c3d a64c 74bd 0eed 723d
000001a0: aaa4 1d3d d4fd c7bc de28 1c3d 6c35 d63c
000001b0: 503f 44bc 68f6 193c 3050 1c3c 32fe 7a3d
000001c0: a859 4f3c 3848 bd3c a895 6ebc 5c36 fb3c
000001d0: 301f dcbc ca6a 6e3d ee11 383d 7ee1 6dbd
000001e0: 00d2 453a 54e0 7bbd 88a5 b53c 1a3a 0dbd
000001f0: 8417 24bd 7032 94bc 205c abbc 8054 1fbb
00000200: 2ab9 7c3d eca7 cabc 600f 6abd e0fe 663b
00000210: 1e71 3b3d 14c7 71bd 40fd ad3b b4b2 933c
00000220: 5a4d 173d 4c1b 52bd e01b 4e3d 2432 d6bc
00000230: d063 e53b f084 753d 0834 4bbd a456 4f3d
00000240: bc92 003d 9200 6a3d 8015 4b3b e892 a6bc
00000250: 4061 d6bc 82dd 5b3d 10ed 673d 3254 15bd
00000260: 2c46 e3bc 486e 043d 30bd f4bc a032 193b
00000270: c461 f53c 5c99 a2bc a8a8 213d c290 18bd
00000280: bee3 223d 5c7c 42bd 60c5 6ebb 501c 1f3d
00000290: 40ce ddbb c076 e0bb 3031 b1bb 5081 fcbc
000002a0: 407d 403c 0e49 70bd 105c e23b 58d0 533c
000002b0: 6043 fdbc b82d 833c a8e8 f63c 283a 713d
000002c0: 00ea c5ba 8048 493a 3c6f dbbc 0000 4db6
000002d0: d896 57bd 8087 8cbc 506f cc3c 503c 093d
000002e0: b8c4 aebc 6ea7 493d 0e7c 5bbd 8827 cebc
000002f0: d0c8 3abd 0c3d 1b3d d003 44bd 78ed 83bc
00000300: c0b8 e33b a0eb f9bb 5419 d43c 5cf0 6ebd
00000310: 546f 923c c0d5 99ba e43c ea3c 88cc 6a3c
00000320: 16aa 413d 9441 3ebd cef0 0ebd 2cb2 673d
00000330: f88a 133d 18c6 87bc 0858 f53c aad6 0abd
00000340: a0ae ecbb 60d0 dcbb 6436 41bd 48f9 f23c
00000350: 4e19 7dbd 3a56 0fbd 9e35 153d 1e15 2abd
00000360: c8b5 233d a6ea 423d 745d 8bbc 38da 9f3c
00000370: fc5b d9bc a4c7 e3bc 4026 94bb 3a50 563d
00000380: 44ed 71bd 48cb a23c c8dc c0bc 80f3 36ba
00000390: 209a 6e3d 88c2 6e3d 0e13 23bd 8af4 26bd
000003a0: 54de 0bbd f01c a83b 9824 403c 6e1d 103d
000003b0: b82e 783d 2c0d 96bc e6d8 00bd 1c80 bb3c
000003c0: d43c abbc cc9f f2bc 0e67 493d a884 91bc
000003d0: 7ce5 ea3c 8629 7dbd e8e8 59bc 0025 51ba
000003e0: 001c d9bb cebb 0cbd 8036 bc3b 5077 de3b
000003f0: a054 263c 6ce5 3cbd 9c77 dc3c ec3e 0bbd

weight f4 [3, 256]
-0.044066623 -0.05475638 0.020660758 -0.061253525 -0.03474018 -0.016476013 -0.0014879778 -0.007864028
0.025881633 0.012910612 0.02864857 0.018123977 -0.06085822 0.056362912 -0.033819236 0.021052547
-0.013564266 -0.032920152 -0.02314511 -0.028069437 0.02275122 -0.037408523 -0.0483291 -0.056173064
0.00023463368 -0.012186773 -0.054232217 -0.005774498 -0.0042649806 -0.052891232 0.043008074 0.048745923
-0.04728125 -0.038502887 -0.0477375 0.0080039725 -0.051093325 -0.03825196 -0.047038205 -0.06052679
-0.058890328 -0.044275336 -0.024985887 0.013338119 0.010037661 0.015742868 0.01596456 0.009900019
-0.059377424 0.018133923 -0.060275577 0.04725945 -0.018558882 -0.034440443 -0.0041077957 -0.056391485
0.042171523 -0.060339734 -0.019130118 0.060256377 0.052505724 0.017923728 -0.05886998 -0.04298944
-0.05478864 0.02738785 0.011793904 -0.053007573 -7.669628e-05 0.03031937 -0.042652197 0.013922498
-0.055342384 -0.019286402 -0.060087875 -0.005150847 0.043068573 -0.059406348 0.01672361 -0.029383443
-0.046649985 0.061213434 -0.023149312 0.026508898 -0.057825617 -0.030931242 0.0134669915 -0.05684539
0.0023025647 -0.028552465 -0.027245902 0.051162608 0.005338393 0.006304741 0.03548632 -0.04801012
0.039214306 0.013480276 -0.058145978 -0.03984853 0.051762447 0.043904923 0.027268432 -0.0057790205
0.035264775 -0.016257383 0.01865974 -0.013844714 -0.045629814 -0.056783102 0.028308935 0.022982262
-0.046791233 0.019865528 -0.054131106 -0.033589683 0.013692267 -0.053300977 0.029266186 -0.04484164
0.06048362 -0.026074894 0.04820811 0.045547664 -0.019230947 -0.028356113 0.03809111 0.001325585
0.047183953 0.015040517 0.054480813 0.022841208 -0.03597735 -0.022853158 0.033369698 0.01200901
0.0015209764 -0.01417806 0.044552743 0.009372249 0.053249918 0.030018136 -0.049885087 -0.0573299
0.008232832 -0.016080312 -0.027222537 0.06038487 0.03583666 -0.023198992 -0.026062436 -0.044147633
0.05346202 -0.006447442 0.030138493 -0.033989407 0.031401582 -0.03742785 0.03289017 -0.028285488
-0.016757332 -0.029360227 -0.03153397 -0.0045418665 -0.028702207 -0.047174387 -0.047872163 -0.016167827
-0.062191837 -0.05708324 0.058893144 -0.010812432 0.060249344 -0.0016134009 0.0018390641 -0.055024832
-0.033252485 -0.004720196 -0.0012608841 -0.04720246 0.04978358 0.020045683 0.035103418 0.06054225
-0.057464592 0.053832293 -0.008730255 -0.03600163 0.022188313 -0.016718663 -0.019905508 0.044363894
0.025613613 -0.00020158291 0.009711623 0.060303964 0.05858206 0.043652683 -0.03338667 0.028529212
-0.049324237 0.013591491 0.033828877 -0.030846111 0.050041117 -0.010962658 0.011568159 -0.030857444
-0.060638703 -0.04430782 -0.049373537 -0.026130475 0.038919955 0.012092575 0.018502101 -0.020135596
-0.0039294586 -0.022676446 -0.005090311 -0.02860155 -0.052950196 -0.045162693 -0.04761886 0.0049576014
-0.02129297 0.03453707 0.020524383 -0.053076863 -0.03082747 -0.018398993 0.016790025 0.047946453
0.036323562 -0.055244274 -0.033581115 -0.0068349764 -0.028706662 0.05636683 0.048359357 -0.05392185
-0.012257732 -0.0550806 -0.030036204 0.02876693 0.04946673 0.045337364 0.02171591 -0.054631285
-0.0059348866 0.044851437 -0.01646261 -0.022165686 -0.02004031 0.043469273 0.054271705 0.053598955
00000000: 347f 34bd 3a48 60bd c040 a93c fae4 7abd
00000010: b84b 0ebd b4f8 86bc 4008 c3ba 20d8 00bc
00000020: b805 d43c 0887 533c 68b0 ea3c bc78 943c
00000030: 7846 79bd ccdc 663d 0a86 0abd 6476 ac3c
00000040: a83c 5ebc 48d7 06bd d09a bdbc e0f1 e5bc
00000050: c460 ba3c ae39 19bd bcf4 45bd ba15 66bd
00000060: 0008 7639 08ab 47bc 9a22 5ebd 0038 bdbb
00000070: 40c1 8bbb 7aa4 58bd 3c29 303d cea9 473d
00000080: fca9 41bd 34b5 1dbd 6688 43bd 1823 033c
00000090: 3c47 51bd 16ae 1cbd 22ab 40bd f0ea 77bd
000000a0: fc36 71bd 0e5a 35bd 34af ccbc 2088 5a3c
000000b0: 0075 243c 30f7 803c 1cc8 823c b033 223c
000000c0: be35 73bd 988d 943c 86e3 76bd 2093 413d
000000d0: cc08 98bc 6c11 0dbd b09a 86bb c2fa 66bd
000000e0: 0cbc 2c3d cc26 77bd c4b6 9cbc 64cf 763d
000000f0: 3e10 573d c8d4 923c a621 71bd b215 30bd
00000100: 0e6a 60bd 7c5c e03c 383b 413c 781e 59bd
00000110: 00d8 a0b8 5460 f83c 12b4 2ebd 301b 643c
00000120: b2ae 62bd 84fe 9dbc b41e 76bd 70c8 a8bb
00000130: ac68 303d 1254 73bd f4ff 883c 8cb5 f0bc
00000140: 0e14 3fbd f0ba 7a3d a0a3 bdbc 3029 d93c
00000150: 8eda 6cbd 8463 fdbc a8a4 5c3c b6d6 68bd
00000160: a0e6 163b dce6 e9bc cc32 dfbc e28f 513d
00000170: b0ed ae3b 0098 ce3b 1a5a 113d 42a6 44bd
00000180: 2e9f 203d 60dc 5c3c 7a2a 6ebd 3638 23bd
00000190: dc04 543d a6d5 333d 0c62 df3c f05d bdbb
000001a0: cc71 103d 342e 85bc 50dc 983c f0d4 62bc
000001b0: 54e6 3abd 6695 68bd 24e8 e73c 4c45 bc3c
000001c0: 2aa8 3fbd 08bd a23c 94b8 5dbd 5695 09bd
000001d0: 8855 603c 2052 5abd a4bf ef3c deab 37bd
000001e0: acbd 773d 049b d5bc de75 453d 3090 3a3d
000001f0: 388a 9dbc 144b e8bc 6c05 1c3d 40bf ad3a
00000200: f643 413d 806c 763c 4627 5f3d 7c1d bb3c
00000210: fc5c 13bd 8c36 bbbc aaae 083d 70c1 443c
00000220: 805b c73a 184b 68bc f07c 363d 108e 193c
00000230: 961c 5a3d 98e8 f53c 4e54 4cbd c2d2 6abd
00000240: 00e3 063c dcba 83bc cc01 dfbc 2056 773d
00000250: 76c9 123d d00b bebc e480 d5bc 26d4 34bd
00000260: fefa 5a3d 1045 d3bb 00e5 f63c 7a38 0bbd
00000270: f29e 003d f24d 19bd d8b7 063d f8b6 e7bc
00000280: ac46 89bc dc84 f0bc c429 01bd f0d3 94bb
00000290: e420 ebbc ee39 41bd 9a15 44bd 6472 84bc
000002a0: debc 7ebd 1ed0 69bd f039 713d a026 31bc
000002b0: 04c8 763d c078 d3ba c00c f13a b861 61bd
000002c0: c233 08bd e0ab 9abb 4044 a5ba 5e57 41bd
000002d0: dee9 4b3d d836 a43c 9ac8 0f3d 26fb 773d
000002e0: fe5f 6bbd 407f 5c3d 5809 0fbc 7276 13bd
000002f0: 44c4 b53c 94f5 88bc e010 a3bc eab6 353d
00000300: a4d3 d13c 0060 53b9 801d 1f3c 4a01 773d
00000310: bef3 6f3d 28cd 323d 76c0 08bd 18b6 e93c
00000320: 3608 4abd d8ae 5e3c 2690 0a3d fcb0 fcbc
00000330: eaf7 4c3d b89c 33bc 6088 3d3c c0c8 fcbc
00000340: 4a60 78bd 1e7c 35bd e83b 4abd 940f d6bc
00000350: 886a 1f3d f01f 463c b891 973c 68f3 a4bc
00000360: b0c2 80bb f4c3 b9bc a0cc a6bb cc4d eabc
00000370: 4ee2 58bd 84fc 38bd fe0b 43bd 6073 a23b
00000380: 986e aebc be76 0d3d c022 a83c 2067 59bd
00000390: e489 fcbc 7cb9 96bc 3c8b 893c 8063 443d
000003a0: 04c8 143d d247 62bd 5a8c 09bd f0f7 dfbb
000003b0: 3c2a ebbc e8e0 663d 7614 463d 28dd 5cbd
000003c0: a8d4 48bc 329c 61bd 7c0e f6bc a0a8 eb3c
000003d0: a09d 4a3d acb3 393d 90e5 b13c 0ec5 5fbd
000003e0: 7079 c2bb 24b6 373d 98dc 86bc d094 b5bc
000003f0: 942b a4bc d60c 323d 024c 5e3d 948a 5b3d

bias f4 [3]
0.014288388 -0.052617334 -0.023598239
00000000: d819 6a3c 4685 57bd 1851 c1bc
