src/checkpoints1/sac_critic_450.pth (torch, 584034 bytes, 10 tensors)

q1.0.weight f4 [256, 24]
000000 2a 5a b7 be 22 93 d3 bd 2f b5 9e bc 9b 70 57 bf
       -0.35810977 -0.10330798 -0.019373504 -0.841562
000010 71 ac d7 3d 0c ab a5 be 1c fe 35 be 63 e3 ee bd
       0.105309375 -0.3235706 -0.17772716 -0.11664464
000020 01 9d 32 3e a7 38 72 3d bf 64 93 3d 01 34 e0 3d
       0.17442705 0.05913606 0.0719695 0.10947419
000030 a5 a1 94 bd 53 f7 7b 3e 82 f0 de 3e 82 23 1d 3e
       -0.07257394 0.24606065 0.43542868 0.15345576
000040 fc 32 db 3d bb 03 0b bd a3 d0 af 3e f0 25 d2 bd
       0.10703084 -0.033939105 0.34338865 -0.10261142
000050 c9 35 24 be 17 bc a6 be ef d3 71 3d d4 9b b3 3e
       -0.16036142 -0.32565376 0.059040006 0.35079825
000060 b9 0b 26 be da 9d 6a 3e b4 35 35 3e 5b 21 a5 3f
       -0.1621541 0.22911778 0.17696267 1.2900804
000070 a0 63 80 3e dc 42 4d bd 17 80 f5 bd f9 fb 00 3e
       0.25076008 -0.05011259 -0.11987322 0.1259612
000080 c6 a4 98 bd 39 7b 09 3e ec e3 e7 3d a2 95 46 3d
       -0.07453303 0.13425912 0.113227695 0.048482545
000090 5d 42 e2 3f 47 16 93 bb 6b ee 18 3e 59 fc 34 be
       1.7676502 -0.0044887397 0.14934699 -0.17674388
0000a0 63 72 31 3e c6 4e 38 bd 6d 01 06 3d 54 72 40 3e
       0.17328791 -0.044997 0.032716203 0.18793613
0000b0 6f 59 39 3c 3b c4 89 3e 23 88 30 be 23 f5 8e bd
       0.011312827 0.26907524 -0.17239432 -0.0698035
0000c0 cb d7 12 bc f2 bf 88 3b 3a b6 d9 bc fd 6c 08 3f
       -0.008962582 0.0041732723 -0.02657615 0.532913
0000d0 1a 6f 8a be 09 a0 06 3e ac fe b4 bd 93 16 6a bd
       -0.2703789 0.13146986 -0.08837637 -0.057150435
0000e0 d6 b8 71 bd f7 e1 14 3d ab de e7 be 93 f9 74 3e
       -0.059014164 0.03634831 -0.4528707 0.2392333
0000f0 f0 b1 06 3f a2 37 d6 bd 1f 92 ac 3e 8a 04 0d bd
       0.5261526 -0.1045983 0.33705232 -0.034428157
000100 d8 3c 61 ba ae 1b 86 3e 9e 3a 41 be f2 a4 e6 be
       -0.0008592135 0.26192993 -0.18870017 -0.45047718
000110 e1 45 90 3e 2a 53 16 be 33 35 22 ba 90 d3 5b 3e
       0.28178313 -0.14680162 -0.0006187737 0.21467423
000120 eb eb 00 be 82 9a e5 3d ce 67 fa ba 15 7b 83 bf
       -0.12589996 0.11211111 -0.0019104423 -1.0271937
000130 fa 93 07 3e 23 7f 3a 3e e3 61 ce be 6d 6c 64 bc
       0.13240042 0.18212561 -0.40309057 -0.013941866
000140 5d 90 4b 3d 96 e5 20 bc 26 d9 22 3e 62 9c 7f 3c
       0.049698222 -0.009820363 0.15903148 0.015601249
000150 e2 9c 9b be d8 3d 95 3d 8e 7e 36 3e 39 cd 00 3e
       -0.3039313 0.072871864 0.17821714 0.12578286
000160 21 0d 2c be f7 e6 9b 3e 70 7f 3d be f4 2b 57 be
       -0.16801883 0.3044965 -0.18505645 -0.2101286
000170 cd 4d b5 3d 07 a8 6f be eb 2f 89 3e 2c dc 7f 3e
       0.0885273 -0.23403941 0.2679437 0.24986333
000180 c9 c5 4a bd 9f ea 2d be 89 51 dd bd a5 ad 99 3f
       -0.04950503 -0.16984032 -0.10806567 1.2006117
000190 90 e5 ce 3d 61 f0 81 3d 5e 54 11 3e 12 1a 1d 3e
       0.10102379 0.06344677 0.1419234 0.15341976
0001a0 9b c7 cf 3d 33 d0 06 3e 29 81 19 3e 66 f3 b1 bd
       0.101454936 0.13165359 0.14990677 -0.08689003
0001b0 67 0b 09 40 6a 17 67 3e 27 81 05 bd 81 f9 79 3c
       2.141321 0.22567526 -0.032593872 0.01525724
0001c0 3b a9 eb 3e 53 c4 b7 be 76 9e 66 be ec 5d 05 3e
       0.4602755 -0.3589197 -0.22521386 0.1302411
0001d0 c4 fc 03 3f 15 4a 73 be 44 b4 cd 3e 8b 1a 5c 3e
       0.51557565 -0.23758729 0.40176594 0.214945
0001e0 09 53 c3 3c 99 85 79 3e b1 04 8f 3e 81 30 38 be
       0.023843305 0.2436737 0.27933267 -0.17987253
0001f0 6b c7 0a bb 56 1e bb bc e7 27 ed bd 7b f6 0a be
       -0.0021175991 -0.022841614 -0.115798764 -0.13570587
000200 b5 77 70 be 34 c2 0b be cd cd 1c 3e be c9 29 3e
       -0.23483165 -0.13648301 0.15312882 0.16580865
000210 d3 3d 9c be 61 e8 40 3d 0a 91 37 3e 3f a3 97 3e
       -0.30515918 0.047096614 0.17926422 0.29616734
000220 ee cb 4b be fe 9b ff bc af 91 98 3e 7a 09 9f be
       -0.19902012 -0.031202313 0.29798648 -0.31061918
000230 af 68 40 be 8e c2 66 3e c5 16 17 3e aa 12 23 3e
       -0.18789934 0.22535154 0.1475478 0.15925089
000240 b3 b2 8c 3d 9b b6 fb 3d c3 8d 69 3d 17 11 72 3f
       0.06870022 0.122906886 0.05701996 0.9455733
000250 a6 38 c1 3d 0f c7 aa bd 8a d3 e6 3d 90 bb 77 bd
       0.09434633 -0.08338749 0.112708166 -0.060481608
000260 93 63 95 3e 8b f5 c1 3d 77 10 4d 3e 8e 43 30 be
       0.29177532 0.09470662 0.20025812 -0.1721327
000270 74 53 c3 3f be ec ea bc 8a 1c a4 be a2 20 24 be
       1.5259843 -0.02867734 -0.32053024 -0.16028073
000280 b8 59 4f 3e 91 f4 5d be 8d f8 bc be 79 92 9c 3d
       0.20249069 -0.21675326 -0.3690838 0.07645125
000290 28 10 2b be 8b 93 32 3d d1 62 b5 3e 5b 62 d5 bd
       -0.16705382 0.04359774 0.35426953 -0.104191504
0002a0 37 28 14 3e 69 ca 3d be 37 43 fe 3d d1 09 78 3f
       0.14468466 -0.18534245 0.12415164 0.9688998
0002b0 90 76 80 38 21 cc 2e be a5 00 a1 be 32 98 96 3c
       6.1255996e-05 -0.17070056 -0.31445804 0.01838312
0002c0 79 be d5 3d a2 b2 8c 3c a3 a6 19 3e 06 0b 84 3d
       0.104367204 0.017175023 0.15004973 0.06447415
0002d0 c9 41 a3 3f 46 ee 1b 3f eb 55 b0 be 30 c1 1b bf
       1.2754451 0.6091045 -0.3444055 -0.60841656
0002e0 a9 2c e9 3d fe 83 49 3e 90 6f 9f be 10 94 29 3f
       0.113854714 0.19679257 -0.31139803 0.6624155
0002f0 4a 9d 58 bd f4 ed e3 be 13 e1 b6 3d 08 21 9f be
       -0.052884378 -0.4451748 0.08929648 -0.31079888
000300 5b bc 05 3e f4 e5 c0 bd 00 3b e4 3d 88 1a 90 bf
       0.13060133 -0.0941886 0.11144066 -1.1258097
000310 19 17 13 be 18 67 98 be 8a 2a 69 bf e9 50 0b 3e
       -0.1436428 -0.29766154 -0.91080534 0.13605084
000320 71 60 7b bd 36 19 e4 bd f3 46 73 3e 94 73 8e 3d
       -0.06137127 -0.11137621 0.23757534 0.069556385
000330 fa bb 60 bf 9a 5a ae bd 0d 5c b7 be 0a 39 45 3e
       -0.8778683 -0.085133746 -0.35812417 0.1926004
000340 18 ed d0 bd 28 55 83 3e b9 4c b5 3d b9 1a 41 be
       -0.10201472 0.25650907 0.08852524 -0.1885785
000350 69 96 91 be 04 77 56 3e 3d df 8d be a1 86 d8 be
       -0.28435066 0.20943838 -0.2770938 -0.42290214
000360 23 09 1c be 5f 39 31 3e 13 a7 c4 bd c2 ef 5c bf
       -0.1523786 0.17307042 -0.096021794 -0.8630334
000370 f5 ab 86 be ad 3e 4c 3e c1 82 14 3e 16 2e ab 3d
       -0.26303068 0.19945784 0.14503004 0.083583996
000380 e1 82 74 3e 9f 6a 35 bd f3 2b b2 3c 02 84 3b 3e
       0.23878051 -0.044291135 0.021749472 0.18312076
000390 ae e1 cb be f2 9a 59 be 3a 2c 7d 3c 79 04 2e bc
       -0.39820617 -0.21250513 0.015452439 -0.010621184
0003a0 56 15 6e be d8 1e 0f 3e 83 43 9a 3d 42 0c 24 be
       -0.23250327 0.1397661 0.07532408 -0.16020301
0003b0 c5 d8 c2 3d a1 2c 7f bd d7 fd fc bd 92 fb 59 3e
       0.09514002 -0.06229842 -0.123531036 0.21287373
0003c0 45 6e aa bd 17 1a 21 3e 9b 03 6b 3e a1 a7 87 be
       -0.083218135 0.15732609 0.22950594 -0.26495078
0003d0 23 dc 24 be d0 08 be bc ca a7 40 3d 91 a3 81 3c
       -0.160996 -0.023197562 0.047035016 0.015825065
0003e0 09 4a c6 bd dd a9 23 bd 0d 49 10 bc 7a a5 23 3d
       -0.0968209 -0.039956916 -0.008806479 0.039952733
0003f0 3e 1e 35 be a9 f4 89 3d 0f 34 7a be 0c b5 19 3e
       -0.17687318 0.06736118 -0.24433921 0.1501047

q1.0.bias f4 [256]
000000 c7 5c da 3e 04 5d 3a 3d 94 ca 16 be 65 3a 80 3e
       0.42648908 0.045498863 -0.14725715 0.25044551
000010 d7 12 f4 3d fd 56 d5 3e 19 fb 56 3e a4 c1 d4 3c
       0.11917656 0.4166793 0.20994224 0.025971241
000020 73 6f d5 bd 1f 95 ba 3e 0a e6 29 3e eb de 85 3e
       -0.10421648 0.36441895 0.16591659 0.26146635
000030 0a 30 19 be bf f3 ef 3e 77 2c 49 3d 6d 3a 6c be
       -0.14959732 0.4686565 0.04911467 -0.23069163
000040 ba 68 b2 3e 30 2e 0a be 7b 10 a4 3e a6 06 84 3d
       0.34845525 -0.13494182 0.32043824 0.064465806
000050 43 b3 96 3e 18 1a f2 3d 08 a1 83 3e 86 00 80 be
       0.2943364 0.11821383 0.25708795 -0.250004
000060 19 61 e9 bd 9b 86 be 3e 5e 62 1e 3d 63 5c ed 3e
       -0.11395473 0.3721207 0.03866803 0.46359548
000070 67 ef f7 3e 04 69 0f be fc 15 10 3e 3b f2 81 3e
       0.48424837 -0.14004904 0.14070886 0.2538012
000080 10 e0 81 3d d2 10 41 be 76 48 7b bc 79 1a 9e 3e
       0.06341565 -0.18854073 -0.0153371 0.30879572
000090 2c a0 cb be b7 2a 2c 3e 01 4a 00 3f e2 bb 3a 3e
       -0.3977064 0.1681317 0.5011292 0.18235734
0000a0 28 98 d3 3e a1 6e 31 3e 45 a9 06 3c 1d a8 d7 3d
       0.41327024 0.17327358 0.008219068 0.10530112
0000b0 32 fd 9c 3d b1 82 b9 3b c8 0c bc 3e 98 5d ac 3e
       0.07665481 0.0056613316 0.367285 0.33665156
0000c0 b5 7e 23 3e 35 2f 3f 3e 07 53 23 bd 9a be 60 3e
       0.15966304 0.18670352 -0.039874103 0.21947709
0000d0 c3 1c f1 bd c5 50 73 be 7b 44 ba 3d a5 4f 4a 3e
       -0.11773064 -0.2376128 0.09095093 0.19756944
0000e0 a5 8b 2e 3e 75 b2 28 3f b0 a6 d3 3c b6 3f ea bd
       0.17045458 0.65897304 0.025836319 -0.11437933
0000f0 b2 80 6d bd 8c b7 fe 3e 9b 49 ec 3b 29 e1 1d be
       -0.05798406 0.4974941 0.007210923 -0.15417923
000100 51 4a 25 3e c3 32 e7 3e 17 cf bf bd f8 e6 5b be
       0.1614163 0.45155916 -0.09365671 -0.21474826
000110 ec 37 4d 3e 7b e0 c7 be aa 59 0f 3e aa 5e 40 3f
       0.20040864 -0.39038453 0.13999048 0.75144446
000120 b0 97 9e 3d f5 96 75 3e 30 9f 88 3e 7a df 9a bd
       0.07743776 0.23983367 0.2668395 -0.07562156
000130 9a 15 b3 bd ce 98 2a bd 20 cc 26 be 17 0f 0c 3e
       -0.087443545 -0.041649632 -0.16288805 0.13677631
000140 3a 10 03 3e c3 d9 1b 3e 46 08 97 3d 3a c5 2d be
       0.12799159 0.15219788 0.07374625 -0.16969767
000150 48 db 23 3f 79 f9 5c 3e da e5 11 3e 4f 67 72 3e
       0.6400647 0.21579541 0.14247838 0.23672222
000160 11 77 3b 3e a3 23 f2 3e f5 85 11 3e 63 fa 52 be
       0.18307139 0.47292814 0.14211257 -0.20603327
000170 73 f3 21 3e 52 ed 09 3e 1c 77 00 3f 16 f0 a9 bc
       0.15815525 0.13469437 0.50181746 -0.020744365
000180 f8 5f 03 3e c0 0a 1b 3e 0e b5 89 be ec b9 36 3e
       0.12829578 0.1514082 -0.26895946 0.17844361
000190 6b 08 95 3e d6 54 d8 bc 3a e5 34 3e 5f 31 0f 3c
       0.29107985 -0.02640764 0.17665568 0.008739798
0001a0 c7 93 95 3e c4 61 5a 3d 7c 4d 31 3e cf 2e e4 be
       0.29214308 0.053315893 0.17314714 -0.44566962
0001b0 81 89 7b 3d fd 2d 8f 3e da ff fd 3e 55 31 78 3c
       0.06141043 0.27964774 0.49609262 0.01514848
0001c0 ee 7f 54 3c 32 da b8 3d d9 41 98 be 4b 4c 18 3e
       0.012969954 0.090259925 -0.29737738 0.14872853
0001d0 30 20 06 bf 9f 1e e1 bd 01 a5 1d be 4c ee 24 3e
       -0.52392864 -0.10992169 -0.15394975 0.16106528
0001e0 98 af 9c 3e c4 a8 b1 be 9b 74 b0 3d a9 97 d1 bd
       0.30602717 -0.3469907 0.08615991 -0.10234005
0001f0 04 c1 a8 3e b1 4a 08 3e fb 42 fc 3c 4a d0 11 3f
       0.3295976 0.13309743 0.030793658 0.5695845
000200 7e ea ad 3a aa bf c1 3e d7 25 22 bc 43 72 06 3f
       0.0013268737 0.3784154 -0.009896717 0.525181
000210 e5 62 8b 3e 4d ea 42 3f b0 63 9f 3e 5b 0b d4 3e
       0.27223888 0.76138765 0.31130743 0.41414914
000220 c8 6e b4 3e a9 30 c6 bd fe b6 91 be 63 36 5e 3e
       0.3524077 -0.0967725 -0.28459924 0.21700434
000230 cd f6 1a be 58 c9 f0 3d fa 5a 56 3e 4c 6d 7c bd
       -0.1513321 0.11757153 0.20933142 -0.06162767
000240 a6 5f 73 3d 95 b9 42 bc 1f 8e 02 bd a5 38 c2 3d
       0.05941739 -0.0118850665 -0.03187382 0.0948346
000250 3c 28 4d 3c 00 b0 c0 3e 79 bd b5 3e c2 0e 37 3e
       0.0125218 0.37634277 0.3549612 0.17876723
000260 9f fb 80 bd ec be 52 3c 4c c2 29 be 72 41 09 be
       -0.06297993 0.012862902 -0.16578025 -0.13403872
000270 99 16 5f 3e 2c 73 02 3d 1f 81 0a 3e 51 ef c1 3e
       0.21785964 0.031848118 0.13525818 0.37877896
000280 74 81 9c bd 24 0e a5 be 64 c6 82 be 6b 52 9b bd
       -0.07641879 -0.3223735 -0.25541985 -0.07584079
000290 45 bd 7d 3e a4 08 e7 bd e9 c3 ed 3b 41 6d 0a 3f
       0.24779232 -0.11280945 0.0072560203 0.5407296
0002a0 e6 cf 1a be b1 f1 8a bd cd 2f de 3d 20 8e d6 bc
       -0.1511837 -0.0678438 0.10848961 -0.026190817
0002b0 be 71 48 3e 8c 81 a6 be 4c 76 9d 3e ac 18 24 3e
       0.19574639 -0.3252071 0.30754316 0.16025037
0002c0 1b 60 ef bd c9 d3 04 be 70 96 b2 bd 5b 58 8a be
       -0.116882525 -0.12971415 -0.087201 -0.27020535
0002d0 dc 35 65 bd e7 f1 b3 3d 7b 2e 33 be 5d 87 b7 bd
       -0.055959567 0.087863736 -0.174982 -0.08961365
0002e0 79 71 bd 3e a1 10 44 be a7 37 c8 3e 45 af 9e 3e
       0.37000635 -0.19146968 0.3910496 0.30993095
0002f0 c9 67 dd bd b5 83 15 3c 35 50 28 3e af 4f c6 bc
       -0.10810811 0.00912564 0.16436847 -0.024207918
000300 5a 46 48 bd f3 da e2 be 17 4e d4 be 3f 6b c6 3e
       -0.048895217 -0.4430767 -0.41465828 0.38753697
000310 9d d7 9f 3d 93 47 ec bc 8c e2 b4 3e 19 28 e5 3b
       0.07804797 -0.028842723 0.35329092 0.0069933054
000320 cc ed 8d 3e 99 6a ce bd 24 5b 97 bd a7 51 ff 3d
       0.27720487 -0.10078926 -0.073904306 0.12466746
000330 7e ca 13 be 2f e9 4b 3e 14 d8 0a 3f b6 db 46 3e
       -0.14432713 0.19913171 0.5423596 0.1941975
000340 3a 88 cc bd c3 9c 22 3f 19 22 d3 3d 9e fe 60 3e
       -0.09986921 0.6352045 0.10309238 0.21972129
000350 56 e0 d3 3e 48 05 1c 3e c7 80 04 3e 48 0a 0c 3e
       0.41382092 0.1523639 0.1293975 0.13675797
000360 28 b7 a0 3d 90 2b 77 3d 63 07 b3 3c ad fa d8 bd
       0.07847434 0.06034428 0.021854108 -0.105946876
000370 32 7a c2 3d 32 50 29 bd b2 a3 92 3d 49 0b df bc
       0.09495963 -0.041336246 0.07160129 -0.02722706
000380 28 f4 ee 3d 9b a5 e4 3e f4 81 ef bd 8d b4 01 be
       0.11667663 0.44657597 -0.116947085 -0.12666531
000390 b1 64 22 3e 84 d1 89 3e 19 d2 cb 3d 11 a7 83 3e
       0.15858723 0.2691766 0.09952182 0.257134
0003a0 36 18 d2 3e 8a d3 8a be 20 e2 0c 3e be 4c 24 3e
       0.41034096 -0.27114516 0.13758135 0.160449
0003b0 bb c4 a9 bd 91 b3 1f 3e e0 de fe 3b 3f 91 dc 3e
       -0.082894765 0.15595843 0.0077780336 0.43079564
0003c0 5a 9e 6a bc de c6 ca bd 7e 20 7a 3e cd 50 2f bd
       -0.0143199805 -0.09901212 0.24426457 -0.042801667
0003d0 40 07 0a 3f 3d 6a 9b 3e 8a 68 2b 3e 3a 98 ec 3d
       0.5391731 0.3035449 0.16739097 0.115524724
0003e0 20 80 84 be ba 6d be 3d 58 fe 04 3f d2 a0 0a 3f
       -0.25879002 0.092982724 0.519506 0.5415164
0003f0 ae 8d 49 bd 20 ba 08 be c9 0e 79 3d 27 24 8f 3e
       -0.049207382 -0.13352251 0.060805116 0.2795727

q1.2.weight f4 [256, 256]
000000 94 7f 6f bf bd 67 37 3e 7e a0 40 3e c6 71 f0 be
       -0.93554044 0.17910667 0.18811223 -0.46961802
000010 b8 ed 2f 3f 7a be ce bd da 01 64 3e 9b fd 02 3f
       0.68722105 -0.10094924 0.22266331 0.5116822
000020 5b 73 c1 3e 03 e3 c3 bd 3b 0a 30 3d 47 d9 83 bd
       0.37783322 -0.095647834 0.042978507 -0.06437927
000030 1c c3 4d 3e cc b9 15 3d fa 35 ba be 92 d6 7e 3e
       0.2009396 0.036554143 -0.36369306 0.2488654
000040 3c 5b e5 3c b0 64 37 bc db cd 8a bd 28 ab a3 bf
       0.027997606 -0.011193439 -0.06777545 -1.2786608
000050 4a 00 89 3d a4 20 c2 bf c7 0e 8d 3d 93 98 70 3e
       0.06689508 -1.5166211 0.06887584 0.23495702
000060 3e 74 d1 bd a6 56 45 bf bd a0 1e 3e 61 b0 d9 bc
       -0.102272496 -0.7708534 0.15491004 -0.026573362
000070 81 f0 ec 3d 1e 50 5b bf 90 1e 19 bf 7e 72 15 bf
       0.1156931 -0.85669124 -0.5981226 -0.58377826
000080 1f 81 c7 bd 3f 81 64 3e 8e af b9 bf f8 e1 3b bd
       -0.09741425 0.22314928 -1.45067 -0.045869797
000090 01 d1 9e bd 0b 0b f3 3c b5 2e c5 3a 40 43 44 bf
       -0.07754708 0.029668352 0.0015043827 -0.76665115
0000a0 ff 08 14 be f7 5a 2f be dd f8 c2 bd 0f 48 e7 3e
       -0.14456557 -0.17124544 -0.09520123 0.45172164
0000b0 ea 23 8c bd 82 2b 31 3d 8c d6 80 be 09 79 1f 3d
       -0.068427876 0.043254383 -0.25163686 0.038933787
0000c0 d9 9a 52 3e c1 bf ba be 4d ed 2c bf e3 7f 75 bc
       0.20566882 -0.36474422 -0.6754959 -0.014984104
0000d0 59 78 d2 3d 81 90 fe bd d4 52 51 3e 4e 2a 7c 3e
       0.10276861 -0.12429906 0.20441753 0.24625513
0000e0 df 6a ff bd 85 8e 8c bc 5b 12 03 3e 78 c9 56 bf
       -0.12471556 -0.017157802 0.12799971 -0.83901167
0000f0 ed 37 69 3e c2 1d fc bb 41 61 15 bf ae 17 4b bf
       0.2277524 -0.007693977 -0.5835152 -0.7933301
000100 9e 42 eb 3e e1 2f e2 be 47 d3 b7 bd ef a2 9b 3e
       0.45949262 -0.44177154 -0.08975845 0.30397746
000110 4a 0e 70 3e b0 ed cc 3d b4 36 03 bf 5b 61 56 3d
       0.23442951 0.10006273 -0.51255345 0.05233894
000120 a3 e8 24 3f 59 bf cf be bd ac 06 be 32 6a b9 bf
       0.64417475 -0.40575674 -0.13151832 -1.4485533
000130 0c b9 ab 3d ba 34 80 3e 24 cd 59 bf 32 4b 36 bf
       0.08384904 0.25040227 -0.85078645 -0.7120849
000140 a5 dd 70 3e 48 3c a2 bf 45 7f 0b bf 93 1f 72 bd
       0.2352205 -1.2674646 -0.5449107 -0.059112143
000150 81 dc 15 3e 2c 21 a2 bd 50 a4 18 be 41 2c 57 3e
       0.14634897 -0.07916483 -0.1490643 0.21012975
000160 e9 8e 48 3e fe fc 79 be 4b e4 05 3e dd 2a 8f 3d
       0.19585766 -0.24412915 0.13075368 0.069905974
000170 f4 29 9f be 27 26 3c bf dd 88 38 bd fb 83 1f 3e
       -0.31086695 -0.73495716 -0.045052398 0.1557769
000180 93 a6 f7 3d 6d d6 9d 3c b9 25 3b 3e 64 60 8b bc
       0.120923184 0.019267285 0.18276109 -0.017013736
000190 e9 8c 47 be a6 31 6d bd 00 09 5b bf 4b 24 e7 bd
       -0.19487347 -0.057908677 -0.8556061 -0.11286219
0001a0 6c 73 8a 3d 5f 24 60 bf d2 c7 8a bf aa 15 93 be
       0.06760296 -0.875555 -1.084223 -0.28727466
0001b0 e9 78 3a bd 0d 8b b1 bd 20 ad f7 3d 39 78 1d bd
       -0.045525465 -0.086691 0.12093568 -0.03844473
0001c0 c5 49 19 3f 85 61 95 bd 3f ce b1 be 9d 5c 38 bf
       0.5987819 -0.07293991 -0.34727666 -0.72016317
0001d0 0f 5d 63 3e c4 2a 41 3e ca 80 92 be b4 0d 9b bf
       0.22203468 0.1886397 -0.28613883 -1.2113557
0001e0 7a 70 48 bf 56 a3 86 3e e0 e2 33 bc 91 56 2e bd
       -0.78296626 0.2629649 -0.010979384 -0.042563025
0001f0 31 ee 4a 3d 55 3e 4f bf 32 be e8 ba 4e 6d a1 be
       0.049543563 -0.80954486 -0.0017756878 -0.31528705
000200 6e 26 0d bd 40 1f 04 be cd c3 98 bf aa b3 21 be
       -0.034460478 -0.12902546 -1.1934754 -0.15791193
000210 5b d2 69 3e fd b7 99 3d f9 c6 41 be 2d f5 0c 3e
       0.2283415 0.07505796 -0.18923558 0.13765402
000220 81 74 70 be ab 06 67 be 37 10 76 bf cb db 89 be
       -0.23481943 -0.22561137 -0.9611849 -0.269255
000230 a0 22 7f bd 07 86 43 3e 77 04 1d bd 74 cc 44 bd
       -0.06228888 0.19094096 -0.038334336 -0.048046544
000240 3d 2f b4 3e ab e8 43 3e 66 f5 8b be ff 09 10 3e
       0.3519229 0.19131725 -0.27335662 0.14066313
000250 24 c9 aa bd 32 76 cf 3e 8f 85 0e 3e ca b1 44 be
       -0.08339146 0.40519863 0.13918136 -0.19208446
000260 ed c9 f7 be 36 1b 4e 3e c9 3b fb bc a7 72 99 3d
       -0.48396245 0.20127568 -0.030668156 0.07492571
000270 69 3e af be 1a 69 43 3b 75 cb 55 3e 3b b4 46 3e
       -0.34227303 0.0029817284 0.20878394 0.1940469
000280 de ca 21 3e df a1 03 3e 16 a2 41 3f 64 5f 5c 3f
       0.15800044 0.12854718 0.7563795 0.86083055
000290 64 3e 8c be e6 5f 70 3d 12 38 57 3d 11 d4 72 be
       -0.2739135 0.058685206 0.052543707 -0.2371371
0002a0 fb 69 67 3e d2 4f 66 3d 10 26 1c 3f 17 de 06 bf
       0.22599022 0.056228466 0.6099558 -0.5268263
0002b0 f2 26 e4 bf 8f 01 1d 3e 07 11 b7 bd f3 f1 9c be
       -1.7824385 0.15332626 -0.089387946 -0.30653343
0002c0 54 36 24 3e ff ff d7 3d 3a 49 02 3d 14 d9 20 3e
       0.1603635 0.10546874 0.031808116 0.15707809
0002d0 f6 a1 57 3d 40 7b 36 3d 89 5e 56 be d7 2b 8d 3e
       0.052644692 0.044551134 -0.209345 0.2757251
0002e0 9b 81 38 be 64 02 3f 3d 56 78 e3 3d ca 26 67 be
       -0.1801819 0.04663314 0.11106937 -0.2257339
0002f0 43 a6 63 3d 5a 67 3e bf 47 b8 28 be f3 3b b6 3e
       0.05557848 -0.7437645 -0.16476546 0.35592613
000300 5f e4 18 3d cf 22 60 3e c4 2a 12 be 8c 9d 91 bf
       0.037327167 0.21888278 -0.14274126 -1.1376204
000310 06 ca e0 bc 89 90 6a be c3 f1 23 be 32 9f 4e be
       -0.027440082 -0.22906698 -0.16010194 -0.20177916
000320 90 0d 48 bf 8a ae d2 3c 60 2f 84 3e db 0c b6 bd
       -0.78145695 0.025717992 0.25817394 -0.08889171
000330 26 2c 15 3e 23 2e 99 be 15 ca 01 be 48 30 29 bf
       0.14567623 -0.29918012 -0.12674744 -0.66089296
000340 55 e0 3b 3e 17 ba 93 bd 65 ca 0d 3e 3b e8 9b be
       0.18347295 -0.07213228 0.13846739 -0.30450615
000350 ff f8 66 be 7e 8f d2 3e 9d ab 04 3e 73 20 c6 bc
       -0.22555922 0.411251 0.1295609 -0.024185395
000360 65 ad 13 be af cd 1c bf 84 a5 d0 bc 63 b3 d3 bd
       -0.14421614 -0.6125135 -0.025469549 -0.1033695
000370 e3 66 99 be d6 44 1f bd 2a 50 8b 3e 8e 95 1d 3e
       -0.2996131 -0.038884006 0.27209598 0.15389082
000380 f5 96 0a bc 2e 95 87 3e d0 08 f1 3e 37 3d 41 3e
       -0.0084588425 0.26481003 0.47077036 0.18871008
000390 99 ad e9 3d fd c1 ad bc 1f af 08 bf 2e 74 4b bf
       0.11410064 -0.021210665 -0.53392214 -0.7947415
0003a0 90 5f c7 3d 7f a4 3e 3e a3 b3 21 bd 31 c0 ed bd
       0.09735024 0.18617438 -0.039477956 -0.11608923
0003b0 7d fe c5 3e 08 71 54 3e 12 fc 4f 3d b5 ec 98 bd
       0.38670722 0.20746243 0.050777502 -0.07467023
0003c0 e5 c1 64 3d e1 9e 59 3e 99 36 3e bc a4 5b 2a be
       0.055848975 0.21252014 -0.011609697 -0.1663652
0003d0 a3 78 6a 3d b5 1a 36 bf df ea f6 bd ea 9e 7d be
       0.057243954 -0.711345 -0.12056517 -0.24767652
0003e0 6d 61 de 3e 25 e9 bf bf 50 02 eb bd 5f 4d 06 bd
       0.43433705 -1.4993025 -0.114750504 -0.03278863
0003f0 44 3d 3d bf 80 48 12 3e 3b c6 68 bf ae 67 4f bd
       -0.7392161 0.14285469 -0.90927476 -0.050635986

q1.2.bias f4 [256]
000000 53 89 3a 3c bd 73 e6 bc b2 1d 99 3e 90 b2 82 3e
       0.01138528 -0.02813136 0.29905468 0.25526857
000010 ef c7 8d 3e b0 2a 10 3b ae aa dc 3b fa 39 96 3d
       0.276916 0.00219981 0.006734214 0.07335277
000020 4e 0b d9 bc 4d 82 8f 3c 5e 44 a9 3c c5 f1 99 bc
       -0.026494648 0.017518187 0.020662483 -0.018792043
000030 ee 5a 34 bd f4 e5 b7 3d ae da 1d 3f 97 ce 94 3e
       -0.04403203 0.08979407 0.61661804 0.29063866
000040 46 0c a5 3e 2f 5a 86 3e 92 aa 69 3e a4 15 a7 3e
       0.32235926 0.2624068 0.22818974 0.32633698
000050 b6 3b 9d 3e c2 b4 6a 3e 0f a1 ce bb 83 ad 96 3d
       0.30709618 0.22920516 -0.006305821 0.073573135
000060 6f 7e 8c 3e 26 56 9a 3e ec 2b 1c bd 9d 39 27 3d
       0.2744021 0.3014385 -0.038127825 0.04082643
000070 4b 40 0a bd 23 72 c9 3c b3 7e a2 3e 7e 98 af 3e
       -0.03375272 0.024590557 0.3173729 0.3429603
000080 22 49 79 bc 8f 65 6b bd ec ce 6e be 82 e4 16 3b
       -0.01521519 -0.0574699 -0.23321122 0.0023024385
000090 1c d3 a1 3e 05 54 af 3e a5 36 2d bd 8d 48 89 3e
       0.31606376 0.3424379 -0.04228844 0.26813164
0000a0 7d cc aa 3e b3 65 97 3e 14 8f 80 bd f3 52 b5 3d
       0.33359137 0.29569778 -0.0627729 0.08853712
0000b0 55 15 ae 3e 42 1c be 3d e2 0c 93 3e 97 d5 bd 3e
       0.3400065 0.092827335 0.28720766 0.3707702
0000c0 e8 ca c7 bc f9 ef 20 bd 95 ca 8f 3e 91 c2 49 3d
       -0.024388745 -0.039291356 0.28084245 0.04925782
0000d0 1c d8 8b 3e 39 37 9e 3e b4 c7 54 3f 3e 43 ba 3e
       0.27313316 0.30901507 0.8311722 0.36379427
0000e0 07 40 83 3e 06 64 29 bd e7 24 b1 3e 56 39 01 be
       0.25634786 -0.041355155 0.34598467 -0.12619528
0000f0 6a fd a2 3d 22 d6 b7 3e cf 33 9f 3e 6d c4 79 3d
       0.07958491 0.35905558 0.31094214 0.06097834
000100 31 31 8e 3e 4a a7 71 3d f4 24 d4 3e e1 d2 23 bd
       0.27771905 0.05899743 0.41434443 -0.03999603
000110 28 78 b7 3e ec 80 4d 3f b2 65 c2 3e 8b 67 07 bb
       0.3583386 0.80274844 0.37968212 -0.0020661082
000120 1e 77 92 3e 68 4b b6 bc c5 c4 7e 3c db cc c9 bd
       0.28606504 -0.022252753 0.015549843 -0.09853526
000130 01 88 dd 3e ea b8 b8 3e 54 87 a1 bc a1 f8 38 be
       0.43267825 0.36078578 -0.01971785 -0.18063594
000140 e4 44 fb 3e d6 e5 44 3c 44 66 27 bd 23 f5 f2 bc
       0.49075997 0.012017688 -0.040869012 -0.029657906
000150 e1 69 b4 3e c7 ae 95 3e 6d 81 6c bd cd 5d 45 3d
       0.3523703 0.29234907 -0.057740618 0.04818516
000160 e9 a8 3b bd 14 9d 87 3e e8 5a 92 3d 30 bd 8e bc
       -0.045815382 0.2648703 0.07146245 -0.017424196
000170 60 ba d9 bb 94 aa c3 3e 16 44 45 3d cf c6 9b bd
       -0.006644532 0.38216078 0.048160635 -0.07606279
000180 4f 82 ab 3e 2f 30 e8 38 7d c7 27 3d 33 56 f8 bc
       0.33497855 0.00011071597 0.04096173 -0.03031454
000190 2b 3b a0 bc ed c1 57 bd 9a 82 b1 3e 65 88 95 3e
       -0.019559463 -0.052675176 0.34669954 0.29205623
0001a0 1d 3e 86 3d c3 04 de 3d e5 a3 a1 3e 39 42 5e 3e
       0.06554816 0.10840752 0.31570354 0.2170495
0001b0 79 71 9f 3d b6 0e ae 3c 35 a4 9e 3e c4 ba 25 3d
       0.07785315 0.02124725 0.30984655 0.040461317
0001c0 50 6d 77 3b 81 1f 6a 3c 21 a8 d6 3c 68 c6 1b 3f
       0.0037754364 0.014289738 0.026203217 0.6084962
0001d0 63 fc 1d 3d 0a dc cd ba 30 1c c1 3e f5 de 3c 3f
       0.038570773 -0.0015705836 0.37716818 0.73777705
0001e0 28 0a 4d 3c 28 90 91 3e d6 f2 72 3c 33 1a 79 3c
       0.0125146285 0.28430295 0.014828404 0.015204
0001f0 61 5a 6b bd 1d bd a3 3e 21 05 81 3e 25 62 f0 3e
       -0.05745924 0.3198022 0.25199226 0.46949878
000200 df f2 8f 3e 6b 1a 0a bd 2e e2 19 bd 70 88 82 bc
       0.28114983 -0.0337166 -0.037569217 -0.0159342
000210 3b 4e 33 bb ef 60 b4 3e 4f c2 58 3d 93 83 5a 3f
       -0.0027359861 0.35230204 0.052919682 0.85357016
000220 51 ef 8a 3d d5 6d 68 3d 5c 5a 8a bd 7f b4 ba 3e
       0.06783927 0.05674537 -0.06755516 0.36465833
000230 c1 84 95 bc 90 f8 e0 bc a1 19 2f bb 2c b4 9d 3e
       -0.018251779 -0.027462274 -0.0026718157 0.30801523
000240 05 8f 90 3e c3 02 b9 3e 7c 8e 3d 3d 53 9f 8c bd
       0.28234115 0.3613492 0.04627846 -0.06866326
000250 3a 59 c9 3e 2b 4c e2 3c f5 7b 7c bd cc 4c d0 3d
       0.39325887 0.02762421 -0.061641652 0.10170898
000260 96 99 7f bd 25 e5 88 3b 95 08 83 3e 60 23 af 3e
       -0.06240233 0.004177707 0.25592485 0.34206676
000270 b1 bc 62 be 88 69 c3 3c 41 86 01 3b f4 c8 81 3e
       -0.22142293 0.023854032 0.001976386 0.25348628
000280 3f ef 9a 3e 41 8c 88 3e d7 49 40 be f7 b2 10 3f
       0.30260655 0.26669505 -0.18778168 0.5652308
000290 8e cb 9e 3e 4f 69 9f 3e 71 47 67 3c 42 bc 83 3e
       0.31014675 0.31135032 0.014116154 0.25729567
0002a0 a0 98 f3 bc fc 8c d7 bd 56 10 97 3e e7 39 d7 be
       -0.029735863 -0.105249375 0.2950465 -0.42036363
0002b0 5a 38 a1 3e 59 d8 a1 3e be 58 c1 3e 43 3a 74 3d
       0.31488305 0.31610373 0.37763017 0.059625875
0002c0 07 e4 96 3e fa 03 74 3c 97 9e c8 bc 55 bc 9f 3d
       0.29470846 0.014893526 -0.024489684 0.07799593
0002d0 eb 82 4b 3f 35 46 ae bb 1b 1e 13 bd bb 0d 82 3d
       0.7949664 -0.005318428 -0.035917383 0.06350275
0002e0 27 a4 ca 3c b2 ac 16 bd 36 1d da 3d 07 83 bb be
       0.024736477 -0.03678579 0.10650103 -0.36623403
0002f0 ca 20 6d bc cd 09 b0 3e 88 41 9c 3e 57 02 c5 3d
       -0.01447315 0.34382477 0.30518746 0.09619587
000300 6e 62 a4 3e e8 f2 63 3e 16 46 56 3f 46 5f bb 3e
       0.32106346 0.2226063 0.8370069 0.36596125
000310 28 3b 6d 3e 90 f0 af 3e dc 78 8e 3e 5b 3b 81 3e
       0.23167098 0.34363222 0.27826583 0.25240597
000320 5b a5 bc 3e 18 e5 97 3e 7d 59 96 3e a5 d9 33 3d
       0.36844906 0.29666972 0.2936515 0.043908734
000330 5f 3f 6b bc ec e1 86 bd de 82 68 3d be 95 90 3e
       -0.014358371 -0.0658606 0.05676543 0.28239244
000340 29 80 c1 bc 8f 12 4d 3e fb bc a2 3e 41 76 01 3d
       -0.023620682 0.20026611 0.31784806 0.031606916
000350 bd a3 4b 3d 11 b6 85 3e 01 1c c4 bd 58 e3 19 be
       0.0497167 0.26115468 -0.09575654 -0.15028131
000360 37 c4 85 3e 50 08 8b 3e 41 09 9e 3e 1f 95 77 bd
       0.26126263 0.2715478 0.30866435 -0.060444947
000370 26 52 d0 bc b8 4f 9a 3e f6 5c 85 be b1 7a 65 bc
       -0.025429796 0.30138946 -0.26047486 -0.014006303
000380 f9 31 a7 3b bf 4c 96 3e 7f 2e 38 3d 32 8a c8 3e
       0.0051023928 0.29355428 0.044966217 0.39167935
000390 ff 80 a5 3e 2f 32 05 bb c2 fb 9a 3e 88 6d b9 3e
       0.3232498 -0.0020324101 0.302702 0.36216378
0003a0 ae b9 39 3d 92 4b bb 3e db 3c 9b bd f0 fe c1 3c
       0.045343094 0.36581093 -0.07579967 0.023681134
0003b0 04 58 99 3e 3a cf c3 3e 08 c5 4e bd 43 10 fa 3d
       0.29949963 0.3824404 -0.050480872 0.12210133
0003c0 9f c5 9d 3d c3 81 a8 3e bc 6e b4 3e 5a 82 9a 3e
       0.07703709 0.329115 0.35240734 0.30177575
0003d0 31 6f 2d 3d d2 58 83 3e 4b 30 c6 3e 2b 11 92 3d
       0.04234237 0.25653702 0.3870872 0.07132181
0003e0 81 2f 9d 3e b2 e5 a4 3e 79 0d 6e bd 87 56 b5 3e
       0.30700305 0.32206494 -0.058118317 0.35417578
0003f0 93 85 8f 3e 30 ac e3 3b 1b 3c e4 3e 0d 20 9d 3c
       0.28031597 0.0069480166 0.44577107 0.019180322

q1.4.weight f4 [1, 256]
000000 e5 6f ca bf d7 c4 17 bf 78 4b 9d 3e 40 c7 20 3e
       -1.5815398 -0.5928473 0.3072164 0.15701008
000010 dc 56 a3 3e 69 85 39 bd 39 3f 05 3d 5e 95 09 bf
       0.31902206 -0.045293245 0.032530997 -0.5374354
000020 ea d2 95 bb 18 d3 b5 bf a5 69 b4 bf 5e 67 ae be
       -0.004572262 -1.4205046 -1.409474 -0.34063238
000030 94 f4 9f bf 7c 2c ab bf 50 8a 36 3f 0c b8 9c 3e
       -1.2496514 -1.337295 0.713048 0.30609167
000040 ab 72 a0 3e 03 97 83 3e 0e 23 cf 3e 26 17 9d 3e
       0.31337485 0.2570115 0.40456432 0.30681723
000050 49 9a a9 3e b8 e0 e3 3e 73 21 94 bf f1 7b d3 bf
       0.33125523 0.44507384 -1.1572708 -1.6522199
000060 ac 4d 84 3e 8e 13 6a 3e ee 26 70 3d 28 5b c4 3c
       0.2584051 0.22859022 0.058630876 0.023969248
000070 6d 2f 16 bf 9e 67 b8 bf f2 b4 7e 3e e4 89 80 3e
       -0.58666116 -1.4406621 0.24873713 0.25105202
000080 28 5c 86 bf 84 f5 94 bf ca 81 6d bf 8c 73 5d bf
       -1.0496874 -1.1637425 -0.9277617 -0.86504436
000090 7a 61 86 3e 81 81 17 3f 78 ae b5 3b 2c 66 b8 3f
       0.26246244 0.5918198 0.00554448 1.440618
0000a0 6a b7 8b 3e 21 52 8d 3e 7d 3d 85 39 2e 76 b1 bf
       0.2728837 0.27601722 0.0002541355 -1.386419
0000b0 a1 0f 6a 3e f1 97 ce bf 0f 1a 9e 3e cd 03 91 3e
       0.22857524 -1.6140119 0.30879256 0.28323212
0000c0 9a b3 30 3d 26 04 7a bf 0c c3 02 3f 38 26 c1 bf
       0.04314003 -0.9766258 0.5107887 -1.5089788
0000d0 f1 9c 20 3f 94 aa 83 3e a0 76 3b 3f 8a 63 8a 3e
       0.62739474 0.25716078 0.7322788 0.27029067
0000e0 5a c2 8e 3e b3 ae 48 bf 9d b2 84 3e bd b5 95 bf
       0.27882653 -0.7839157 0.2591752 -1.1696087
0000f0 27 3f dc bf 68 0f 8b 3e 70 0f 9e 3e ca 2d a2 bf
       -1.7206773 0.27160192 0.30871153 -1.2670224
000100 1d d1 8b 3e 02 c7 de bf 06 62 16 3f e5 22 11 bc
       0.27307978 -1.7404482 0.5874332 -0.008858417
000110 77 a1 b0 3e 0d 98 23 3f 0b e6 00 3f 69 ff bd bf
       0.34498188 0.63903886 0.5035102 -1.484357
000120 92 86 96 3e 92 f6 20 3d 9d 29 b2 bf 67 ce 78 bf
       0.29399544 0.039297648 -1.3918949 -0.97189945
000130 1f 2f 2c 3f 33 79 a6 3e a1 cb a7 bf 2a ed 9f be
       0.672594 0.32514343 -1.3109018 -0.3123563
000140 05 74 2d 3f 5a ec ab bb 99 be 1a bf a3 78 84 bf
       0.67755157 -0.005246681 -0.6044708 -1.0349315
000150 9a c1 14 3f 43 cd 76 3e 0c fe 97 bc 84 f8 0d bf
       0.5810791 0.24101739 -0.018553756 -0.5545733
000160 27 5d 8b 3b 46 d0 6d 3e b4 e9 2c bf cb e7 93 bf
       0.004253048 0.23223981 -0.675441 -1.1555113
000170 2a 08 de 3c 4f 8c b5 3e c3 a2 9b bf 6f ef 0a bd
       0.027103502 0.3545861 -1.2159046 -0.033919748
000180 d3 ff 77 3e 26 d9 ae ba 29 ff 18 bf c1 0b 65 bf
       0.24218683 -0.0013339862 -0.59764344 -0.8947106
000190 d5 84 bb 3c cf 9a 1b bb b9 36 90 3e 14 ee a0 3e
       0.022890488 -0.0023743396 0.2816675 0.3143164
0001a0 4d 9f 9f bf d8 c1 b8 bf a1 48 8f 3e 55 d7 8c 3e
       -1.247049 -1.4434156 0.279851 0.27508035
0001b0 98 e5 9f bf 03 75 b2 bf f7 6d 69 3e ad 18 68 bf
       -1.2491941 -1.3941959 0.22795855 -0.9066265
0001c0 eb bf ba bf a5 e1 e7 bf 09 c5 5b bf 15 da 84 3f
       -1.4589819 -1.8115736 -0.85847527 1.0379053
0001d0 66 e3 e3 bf 6b fb 80 bf 6e 02 a1 3e 0f 3b 47 3f
       -1.7803771 -1.0076727 0.31447166 0.7782449
0001e0 1e 53 88 bf b9 b7 9f 3e ee 6d d2 bc 6c 26 a9 bf
       -1.0650365 0.31194857 -0.025687184 -1.321485
0001f0 0c 56 83 bf 42 47 93 3e 3c b7 61 3e b1 3f 1e 3f
       -1.0260634 0.28765303 0.22042555 0.61815935
000200 87 42 90 3e 6d 23 0f bf 88 de 96 bf d6 31 3b 3d
       0.28175756 -0.5591343 -1.1786661 0.045701824
000210 08 a3 13 bd c1 02 64 3e c9 01 74 bf 62 c1 21 3f
       -0.03604415 0.22266676 -0.95315224 0.63185704
000220 6c 35 18 bf 1e f9 a6 bf 73 5a ca bc 09 2c a8 3e
       -0.59456515 -1.3044775 -0.024701333 0.32846096
000230 ae 3e af bf 97 01 42 3d 98 19 a9 bf 04 0f 7f 3f
       -1.3691003 0.047364797 -1.3210936 0.9963229
000240 8d 63 9b 3e 6f 3f 42 3f 22 aa f7 be 11 9a 29 bd
       0.3034939 0.7587804 -0.4837199 -0.041406695
000250 bd 11 3f 3e 31 61 cc 3c 2c cc c8 3a a6 2a a4 bf
       0.1865911 0.024948688 0.0015319637 -1.2825515
000260 79 69 37 3c 33 07 03 bc d3 15 ac 3e 80 fa 0c 3f
       0.01119458 -0.007997322 0.336104 0.5506973
000270 55 ee 84 bf d1 02 19 bf 2b c9 03 3d 79 dc a7 3e
       -1.0385233 -0.5976992 0.03217427 0.32785395
000280 3d ad f2 3e b9 3d 95 3e 33 d7 5d bf a3 a8 4b 3f
       0.47397795 0.29148653 -0.8665649 0.79554194
000290 e4 da 8f 3e 7e bc 8d 3e e6 2d 78 bf c0 dc 97 3e
       0.28096688 0.2768287 -0.96945035 0.29660606
0002a0 2a 71 1a 3d a0 cc 0d bf 2d 12 9d 3e 18 7a 4a bf
       0.037705578 -0.5539036 0.3067793 -0.7909255
0002b0 7c 81 a0 3e e4 71 8f 3e 21 2c a2 3e 27 58 ad bf
       0.3134879 0.2801658 0.31674293 -1.3542527
0002c0 31 2c 49 3e 04 2c 9e bf 09 0b b4 be 47 e3 81 bf
       0.19645764 -1.2357183 -0.3516467 -1.0147485
0002d0 a6 28 30 3f 70 46 5b bf c0 9c 36 bb d9 cc cd bf
       0.68812025 -0.85654354 -0.0027864426 -1.607814
0002e0 36 3b 80 bf 6e 7e 31 bf 74 18 c1 bf a9 af fd be
       -1.001807 -0.6933354 -1.5085588 -0.4954808
0002f0 82 b0 b8 bf 15 55 90 3e cf d0 9d 3e 8b d3 c7 bf
       -1.4428866 0.28189912 0.3082337 -1.5611433
000300 0b fd 86 3e e8 2c de 3e 27 cb 22 3f 2c d6 9c 3e
       0.2636493 0.43393636 0.63591236 0.3063215
000310 68 fc 61 3e 94 8b be 3e f1 df 5b 3f a4 a4 88 3e
       0.22068942 0.37215865 0.8588858 0.2668811
000320 12 15 cf 3e 9a b7 15 3f 6a 0f a3 3e 70 f3 20 bc
       0.40445763 0.5848328 0.31847697 -0.009823665
000330 fc c9 49 bf d7 4c c6 bc 2e 11 a1 bf 4b fc d6 3e
       -0.7882383 -0.024206562 -1.2583368 0.4198936
000340 a5 e7 3c bf de 1b b9 3e cc b4 89 3e 9e d6 71 bd
       -0.7379096 0.36154073 0.2689575 -0.059042566
000350 e9 d3 7f bf aa be 7f 3e 78 be 71 be 2f 5d 17 be
       -0.99932724 0.24975076 -0.23607814 -0.1478164
000360 c6 bb b0 3e 0d 28 99 3e a2 07 85 3e 03 d9 06 bd
       0.3451826 0.2991337 0.25982386 -0.032921802
000370 1c ba 7b bf 00 e6 e9 3f 9f ea aa be 16 8f 68 bf
       -0.98330855 1.8273315 -0.33382127 -0.9084333
000380 14 ae 21 bf 32 b9 9e 3e e2 47 04 bc 06 e6 18 3f
       -0.6315625 0.31000668 -0.008073779 0.5972599
000390 f0 79 60 3e 1a f3 82 bf b4 ca 8e 3e 4d 22 a5 3e
       0.21921515 -1.0230439 0.27889025 0.32252732
0003a0 7f 12 18 bf 2d ad 1b 3f b6 a1 22 3d d8 6b 5b 3d
       -0.5940322 0.6081112 0.039705 0.053569645
0003b0 bf f1 85 3e 93 1a 14 3f cf d8 4e 3b 33 2c b4 bf
       0.26161 0.5785305 0.0031562333 -1.4075989
0003c0 81 b5 71 bf f9 48 9d 3e 32 f9 b7 3e 8d 67 8a 3e
       -0.9441758 0.30719736 0.35932308 0.27032128
0003d0 ed d6 bc bf ee 6d 8f 3e 97 25 a4 3e d9 c6 b0 bf
       -1.475309 0.28013557 0.3205993 -1.3810683
0003e0 f4 3e 94 3e 3f e7 1a 3f f9 c5 6e bf 3f 68 8e 3e
       0.2895428 0.60509104 -0.9327083 0.27813908
0003f0 25 c1 9c 3e 83 67 63 bb d1 28 0a 3f b7 fd 96 bf
       0.30616108 -0.003469915 0.5396853 -1.1796178

q2.0.weight f4 [256, 24]
000000 76 e2 0d 3e 33 9a 6c be d6 f1 fe bd 44 69 86 bf
       0.13855919 -0.23105697 -0.1244847 -1.0500875
000010 8d 44 2f 3e bb 8a 9f be 29 9f 52 be e1 c3 a7 bd
       0.17115994 -0.3116053 -0.20568527 -0.08191658
000020 30 b8 5f 3d df bd a7 3c a6 e8 38 3e 6a e8 de be
       0.054619014 0.02047628 0.18057498 -0.43536693
000030 ef 03 f5 be b5 8e c1 3d c5 cb ff bc dd 51 ad bd
       -0.47854564 0.09451047 -0.031225095 -0.0846288
000040 47 ae 8b bd 63 07 8a 3c ea b0 85 be ae 7a 95 3e
       -0.0682035 0.016849225 -0.26111537 0.2919516
000050 2a b4 99 be 82 0b e0 bd 5a 8b f2 bd 89 6b 49 be
       -0.30020267 -0.10939695 -0.118429855 -0.19669928
000060 f6 62 df bd a6 44 1f 3e 95 c2 24 3e 78 11 bb 3f
       -0.10907547 0.15553531 0.16089852 1.4614706
000070 65 bf f2 3d cc 3c 42 be e9 f9 ec bd 1e 02 ee bd
       0.11852912 -0.18968505 -0.11571104 -0.116214976
000080 cf 5a 08 3e c0 36 09 3e e6 87 63 3e 27 45 81 be
       0.1331589 0.13399792 0.2221981 -0.25248072
000090 22 81 4b 3e 9d ae 18 be b6 89 e0 bd 43 3e 0b 3e
       0.19873479 -0.1491036 -0.10963766 0.1359797
0000a0 bb 7f 1d be 18 91 be bd e0 86 44 be dc 06 4b bc
       -0.15380757 -0.09305018 -0.19192076 -0.012391772
0000b0 1d c0 08 3e b8 06 85 3d 34 a9 a5 3e 32 40 f3 3d
       0.13354535 0.06495422 0.32355654 0.11877479
0000c0 02 b2 1a 3d d9 9e 79 bd 6b 31 66 3e fe 95 58 3d
       0.037767418 -0.060942505 0.22479789 0.05287742
0000d0 0c 9d 50 bd de b2 26 3e c1 87 55 be c5 82 c4 b9
       -0.05093102 0.1627917 -0.20852567 -0.00037481464
0000e0 c9 0b c7 3d 93 7a 56 bd c4 06 ab bc 9e a2 27 bd
       0.09719045 -0.05236299 -0.02087725 -0.04092657
0000f0 67 a5 2f 3e 2d a0 95 be 8e fd 34 3f 74 71 81 be
       0.1715294 -0.29223767 0.70699394 -0.2528187
000100 5b 61 7f 3d d3 78 b4 3e 2b fe b4 3c fb 62 27 3e
       0.062348705 0.35248432 0.022093853 0.16346352
000110 f4 b4 00 bf 31 3a ad 3e bd 1f 4d bf 01 e0 e5 be
       -0.5027611 0.3383346 -0.80126554 -0.44897464
000120 dc 3a 0b 3d cc 5a 20 3e f7 95 f3 bd 04 6f fc 3d
       0.03399168 0.15659636 -0.11893838 0.12325862
000130 e4 70 03 3e 88 e4 b2 bc 51 4f ff bd bc 0a fd bd
       0.12836033 -0.021837488 -0.124663 -0.12355563
000140 98 bd da bc 2a c5 bd bd 4f 90 47 be d8 84 b4 3c
       -0.026701733 -0.09266122 -0.19488643 0.022036001
000150 ce 72 49 be 04 fd 2b bd 58 2c ad 3d 90 3e 6e 3c
       -0.19672701 -0.04198934 0.084557235 0.014541283
000160 18 a1 86 bc 60 20 a1 3c 00 bd 3f bd 12 58 28 be
       -0.016434237 0.019668758 -0.046811104 -0.16439846
000170 9a 99 13 3e 18 07 8b 3c 68 c3 86 3d 40 e0 d9 bd
       0.14414063 0.016971156 0.065802395 -0.106384754
000180 12 8c 57 be 7e fb bf bd 1d 46 77 3d 1e f1 9d be
       -0.21049526 -0.0937414 0.0603696 -0.3084802
000190 7b 96 c3 be 92 25 b1 3e 4e b1 51 3e 56 db 54 be
       -0.38200745 0.34598976 0.20477793 -0.20786795
0001a0 4e 27 4f 3e 06 73 71 bd 57 70 55 bd 16 55 93 3d
       0.20229837 -0.058947586 -0.05210909 0.07193963
0001b0 30 f2 39 3c 11 f9 8e 3f 6c e8 00 be 7c c4 f6 3d
       0.011349246 1.1169759 -0.12588662 0.12049195
0001c0 71 d9 42 3e 8f 05 4e be a1 59 c5 3e 05 39 dc be
       0.1902826 -0.20119308 0.38544944 -0.43012252
0001d0 bf 1c c9 3e dc 7f 9a 3e 15 44 f7 be aa fe a1 3e
       0.39279744 0.30175674 -0.4829413 0.31639606
0001e0 83 58 cd bd 9f fd 1e 3d 77 ed 73 bc 98 45 dc 3d
       -0.10026648 0.03881609 -0.014888159 0.107554615
0001f0 2b 26 96 3e 21 06 ac be 2c 23 0b be 4c 80 a8 bd
       0.29325995 -0.33598426 -0.13587636 -0.08227596
000200 83 8c d4 bd 96 e3 77 3c 94 73 2a be 39 42 b0 3d
       -0.10378363 0.015129944 -0.16645652 0.08606381
000210 03 35 00 be 04 4e 94 be d4 72 3b 3e 12 0e 8d 3e
       -0.12520222 -0.2896577 0.18305522 0.27549797
000220 5d 06 0a 3e 13 88 05 be a9 bd 1c 3e 43 26 8b be
       0.1347899 -0.1304019 0.15306725 -0.2717763
000230 5c eb 79 be e1 43 ea 3e 41 b1 8d 3d 5c 13 4d be
       -0.24406189 0.45754912 0.06918574 -0.20026916
000240 35 b0 6e bf 55 0f 84 be 14 7b 73 be 52 24 82 be
       -0.9323762 -0.25792947 -0.2377742 -0.25418335
000250 b6 c0 b6 be 49 82 c8 bd 50 a3 86 3e 4c c0 6a be
       -0.35693902 -0.09790475 0.26296473 -0.22924918
000260 3a 37 03 3e 5d 00 9b be da 60 2f 3d 11 24 f2 be
       0.12814036 -0.30273715 0.042816974 -0.4729314
000270 a1 e3 87 bd 14 b4 e0 3e c6 0f 2f 3d c7 3f 5b bb
       -0.06635214 0.4388739 0.042739652 -0.0033454762
000280 76 20 9b 3d 8b 2d 3d 3e 74 6c a0 be f1 00 09 3e
       0.07574551 0.18474405 -0.31332743 0.13379265
000290 06 40 bc 3d 56 d3 c9 be 2b 57 26 3d 15 28 ae 3d
       0.09191899 -0.3941905 0.040610474 0.08503739
0002a0 e2 4e 63 be d2 64 3c 3e cf ac 52 be 21 2d ed be
       -0.2219806 0.18397835 -0.20573734 -0.46323493
0002b0 5f 3e 98 bd bd 39 07 3e c0 ec 98 bd bf 5b bf 3d
       -0.07433771 0.13205619 -0.074670315 0.09343671
0002c0 ea 0e 31 be ab 7e 91 3d 3a 09 95 3e 2c 6e 2b 3e
       -0.17290846 0.07104238 0.29108602 0.16741246
0002d0 c6 85 a3 be 94 71 52 3d 01 c6 07 bf d8 78 fa 3e
       -0.31938 0.051377848 -0.53036505 0.4892032
0002e0 c2 7d d7 bd 69 36 cb be ad e5 28 3e da e0 a7 3e
       -0.10522033 -0.3968995 0.16493864 0.32788736
0002f0 c6 2e 36 3e f4 c5 d4 3e 13 b6 77 3c 71 89 48 bb
       0.1779128 0.41557276 0.0151190935 -0.00305995
000300 c2 9f 0f 3d 50 06 08 be 3a 87 3a 3d 9e 32 3d 3f
       0.035064466 -0.13283658 0.04553912 0.7390536
000310 6f 2e a4 3e 49 d2 9f 3d 04 2e 33 bd e5 fa a6 bd
       0.32066676 0.078037806 -0.043745056 -0.08153323
000320 ef bd 15 3e 98 d0 1e 3e c8 32 13 bd ba 62 07 3e
       0.14623235 0.1550926 -0.0359371 0.13221255
000330 43 43 7d 3f 57 c1 c7 3d 0b 21 31 3e b5 95 22 3e
       0.9893076 0.097536735 0.17297761 0.15877421
000340 c8 26 4a bd 45 3d f8 bd 4b 85 91 3e 42 99 52 3e
       -0.04935339 -0.12121061 0.28422007 0.20566276
000350 60 2a 35 3e 25 3e 29 3e 06 54 b7 be 9b 1e b7 bc
       0.17691946 0.16527613 -0.35806292 -0.022353461
000360 87 d2 d1 bd b5 b6 8f bd 21 c4 cd be 81 30 54 be
       -0.10245233 -0.070172705 -0.40188697 -0.20721628
000370 2d f1 01 3f b8 01 38 bf a7 cc c6 3d 81 50 5a be
       0.5075863 -0.7187762 0.09707003 -0.21319772
000380 af 53 ec 3d 28 c4 49 3e 7f 70 48 3e 28 7c d5 be
       0.11539399 0.19703734 0.19574164 -0.41696286
000390 db 96 1a bf 16 f1 06 3e 19 a4 44 be d4 d5 46 3e
       -0.6038644 0.13177904 -0.19203223 0.19417506
0003a0 b2 22 ee 3d c2 ee 9e be 59 c3 04 3e b2 17 28 bd
       0.11627711 -0.31041533 0.12965144 -0.041038223
0003b0 de 00 c1 bd e3 56 ce 3d e4 c5 3c 3d 7d da e9 bd
       -0.094239935 0.10075166 0.04608716 -0.114186265
0003c0 ae bf c0 be 3f a9 4d 3d 21 f9 a3 3d b4 1a 10 bf
       -0.3764624 0.050210234 0.08006502 -0.56290746
0003d0 0a 48 1d 3f 57 cf 5a be b8 4d 2a be a6 b7 5f be
       0.6143805 -0.21368156 -0.1663121 -0.218474
0003e0 38 20 bf bd 3b 20 73 3d 09 5e 88 3e 77 a2 3c 3e
       -0.09332317 0.05935691 0.26634243 0.1842135
0003f0 ca 55 24 bf 96 e3 fc be 58 ee c5 3e 8d 79 b7 bd
       -0.64193404 -0.49392384 0.38658404 -0.08958731

q2.0.bias f4 [256]
000000 d9 3d c1 3e 57 e1 c9 3e 03 05 4b 3e 10 52 08 3c
       0.377425 0.39429733 0.1982613 0.0083203465
000010 4f ab f4 be c0 d0 14 bd d0 f8 49 be a9 8f 65 3e
       -0.47786948 -0.036331892 -0.1972382 0.22418083
000020 a6 bc ea bc fb 37 d1 be 1d f8 87 3e ed d3 e6 be
       -0.028654408 -0.40863022 0.26556483 -0.45083562
000030 cd 5a d2 3e 7d 7d 5b 3e ba 69 71 3e 32 94 47 3c
       0.410849 0.21434589 0.23575488 0.012181329
000040 d8 c6 0a 3f 48 af 47 3f 98 95 46 3d 00 28 2b bd
       0.5420966 0.7800183 0.048482507 -0.041786194
000050 b1 80 81 bd 19 db da 3e 5a 36 9b 3e d8 71 9c 3e
       -0.06323374 0.42745283 0.30314904 0.30555606
000060 08 b5 01 be 90 5c b8 3e c2 43 b0 3e 06 0a 12 3d
       -0.12666714 0.3600812 0.34426695 0.03565409
000070 7d 88 ec 3e dc cd a0 3e 6b 43 0a 3e 5b 32 e8 3d
       0.46197882 0.31407058 0.1350228 0.113377295
000080 db 63 c5 3d 70 b8 c4 3e 98 4e b3 be fb 4f 72 3e
       0.096381865 0.38421965 -0.350209 0.23663323
000090 26 43 a6 be bc ca 6c 3e ff 57 0e bf 59 cd a6 3e
       -0.32473105 0.23124212 -0.5560302 0.32578543
0000a0 73 64 a7 3d 9c a5 a8 3e 35 74 73 3e c1 3b 2f be
       0.08173456 0.3293885 0.23774798 -0.17112638
0000b0 76 f8 d6 3d 5e 99 3c be cd 43 6e 3e 78 2c b6 bd
       0.10496609 -0.1841788 0.23268051 -0.088952005
0000c0 5d bb b4 be ac 0f 82 bd ff 15 dd 3d 03 0c 91 be
       -0.35299197 -0.063506454 0.10795211 -0.28329477
0000d0 cc 15 36 3d a4 d7 2b 3e 39 b4 26 3e 0e 37 80 3e
       0.04445438 0.16781479 0.16279687 0.25042003
0000e0 b9 e1 81 be 1c 38 4a 3e d5 01 8f bd b0 a6 95 bd
       -0.25367525 0.19747967 -0.06982771 -0.07307184
0000f0 fe 98 b0 3e a3 28 40 3e 36 46 74 be 59 80 de bd
       0.34491724 0.18765502 -0.23854908 -0.10864324
000100 31 1d ee 3d 5d 12 09 be 40 cc 03 bd 6c d1 d9 3e
       0.116266616 -0.13385911 -0.03217721 0.4254259
000110 58 3d 59 3d 08 51 44 3e e4 f5 ee 3d f6 76 30 bc
       0.053037018 0.19171536 0.11667994 -0.01077055
000120 34 3f 34 bd c9 91 c0 3d f1 25 31 3e 48 43 05 bc
       -0.044005588 0.09402806 0.1729963 -0.008133717
000130 4e 43 2a bd ba 46 9e 3d 6c d9 32 be 2a e2 0b 3e
       -0.041568093 0.07728334 -0.17465752 0.13660493
000140 12 07 bf bc 3f 3e 77 3e 54 01 bb 3e ca 8f 66 3d
       -0.023318801 0.24144839 0.3652445 0.05628947
000150 a5 3b a9 3e 5d 63 80 be d4 e4 da 3d 69 7c c8 3e
       0.33053318 -0.25075808 0.10688177 0.39157417
000160 f9 72 a3 3b dc ae d5 3d 21 c0 d2 3d cb cd ae be
       0.004988071 0.104337424 0.10290552 -0.34141383
000170 80 35 9c bd ff dc c1 bd c6 97 4f be 15 29 d0 bd
       -0.07627392 -0.0946598 -0.2027274 -0.10164086
000180 c3 49 ab 3d c7 0c a5 3e 1d 2d af 3e 2d 16 da bd
       0.08363678 0.3223631 0.34214106 -0.10648761
000190 21 e9 b5 3e f2 44 f4 3d 73 b3 d0 bc 00 21 45 bd
       0.35529426 0.11927213 -0.025476193 -0.048127174
0001a0 35 89 e5 3d a9 3a ae bc 14 c9 b3 3e 13 2b b5 3e
       0.11207811 -0.021268206 0.35114348 0.35384426
0001b0 bb fe ac 3e cb 73 b4 3e 22 f9 3f 3d 00 23 a4 be
       0.33788094 0.35244593 0.04686845 -0.32057953
0001c0 f8 05 cd be 55 f9 19 3f c6 5e c0 3d e4 34 c4 3e
       -0.40043616 0.60146075 0.093930766 0.38321602
0001d0 57 29 95 3e dd 02 8c 3e 82 7d 69 3e f7 b7 f5 3e
       0.29133102 0.27345935 0.22801784 0.47991917
0001e0 65 5b a5 3e 37 37 97 3e ca e8 44 bd e4 34 e9 3e
       0.3229629 0.29534313 -0.048073567 0.45548165
0001f0 6c f1 df 3e 18 fb 6d be bf d1 62 be 6e 7c 0b 3e
       0.43738878 -0.23240316 -0.22150324 0.13621685
000200 84 97 20 3e c6 7a b6 3e 97 ce 7b 3e 4c 77 c7 3d
       0.15682799 0.35640544 0.24590527 0.09739551
000210 22 0f a1 3e 9f 05 04 3f de 35 76 be e7 0c 14 3f
       0.31456858 0.5157108 -0.24043986 0.5783219
000220 6c 72 3c 3d ed 2c 14 be 81 ce 79 3d 84 8b 09 3f
       0.04600756 -0.14470263 0.060987953 0.5372851
000230 d2 f7 07 3d d2 a1 9b 3e 23 2d d6 39 02 49 10 3e
       0.033195324 0.30396897 0.0004085089 0.1409035
000240 9e 9b 8a 3e 7e ee e4 3e 8d 0b a0 bd 54 22 6e 3e
       0.27071851 0.44713205 -0.07814703 0.23255283
000250 a0 04 d2 3e ca 44 3b 3d bf 72 c9 3d 3a 56 43 3c
       0.41019154 0.0457199 0.09836339 0.0119224135
000260 aa fc b8 3e c9 c1 ee bd 9c 5b 78 3e 65 cc a8 3e
       0.36130267 -0.11658055 0.24253696 0.3296844
000270 ca 57 7c 3e 74 14 2f 3f 94 ac ac bd 74 95 16 3f
       0.24642864 0.68390584 -0.08431354 0.588218
000280 47 23 d7 bc 4b 16 dc 3e 1e 85 89 bc 53 8e 13 3e
       -0.026261939 0.42985758 -0.016787108 0.14409761
000290 8c bc 51 3e ab 16 2e be 90 52 5a 3e b3 a3 a4 3e
       0.20482081 -0.17000835 0.21320558 0.32156143
0002a0 31 6c c1 3e 15 37 33 3d 12 2c 07 3f aa cc 3e be
       0.37777856 0.043753702 0.5280162 -0.1863276
0002b0 61 3d dd 3d 22 37 18 bc 4e 27 56 3e bb 44 2a be
       0.10802723 -0.009290488 0.20913431 -0.16627781
0002c0 78 27 59 3d 33 c0 26 3d fe 3d fa bd 8e a1 06 be
       0.053016156 0.04071064 -0.12218855 -0.13147566
0002d0 a1 0c 86 3e c9 07 34 be 2a 66 3b be 1c 49 ca bc
       0.2618151 -0.17581095 -0.18300691 -0.024693064
0002e0 85 8d 9d 3d 2f a2 97 3e 83 7b 3b bd 84 fc 0e bd
       0.07693008 0.29615924 -0.045772087 -0.034908786
0002f0 65 43 06 3e f0 b3 08 3e cf 89 94 3e f7 f1 ef 3c
       0.13111646 0.1334989 0.2901139 0.029290183
000300 0b db 4e be e6 e9 67 bd 27 ee 9d bd 32 82 79 3e
       -0.20200746 -0.056619547 -0.077114396 0.24366072
000310 ce 13 17 3e 8a 93 8f bd 26 54 c5 3e df 05 cc 3e
       0.14753649 -0.07010563 0.38540763 0.3984823
000320 db 2d a2 3e ac 71 bf 3d 82 f3 ff 3e 4a 8f f9 3e
       0.3167561 0.09347853 0.4999047 0.48742133
000330 02 de 55 3f be f0 9f 3e bb b7 b6 3e 5e ce 57 3e
       0.8354188 0.3123836 0.3568705 0.21074817
000340 32 4b 43 3e 3b 41 69 3d 1d 1e 7e 3e 92 47 06 3e
       0.19071653 0.056946974 0.24816175 0.1311324
000350 37 d1 e0 3c 6c 4f b6 bd 36 47 e0 bd 46 b9 64 3e
       0.027443511 -0.08901867 -0.109510824 0.22336301
000360 0d 4c 9c 3e d2 40 66 3e c6 b7 1e 3e 9a 0f 0b 3e
       0.30526772 0.22485664 0.15499792 0.1358017
000370 c0 3e 7e bd 93 b5 0c 3d 16 41 76 be 6c 49 93 3e
       -0.06207156 0.03435285 -0.24048266 0.28766954
000380 e3 98 0e 3e 30 76 af be 97 42 0c 3e ac 13 cc 3e
       0.13925509 -0.34269857 0.13697277 0.39858758
000390 93 3a 3d be eb 2e 91 be ff 3a ec 3e 65 76 00 3f
       -0.18479376 -0.28356108 0.4613876 0.50180656
0003a0 e8 c1 5d bd 77 4e c0 3e 4e a6 39 3e da 3e 94 3e
       -0.05414 0.37559864 0.18129846 0.28954202
0003b0 78 43 15 be 2b e8 54 3c 6f 1a 1f 3e 65 f0 6e 3e
       -0.14576519 0.012994806 0.15537427 0.2333389
0003c0 03 46 97 3e a2 cd 2e 3e 98 f3 1c bc e5 9b e8 3e
       0.29545602 0.1707063 -0.009579562 0.45431438
0003d0 bc 07 93 3e f1 74 9b bd 0a 5e b4 3d ea 91 a4 3e
       0.28716838 -0.07590664 0.08806999 0.32142574
0003e0 eb d8 d6 3e 81 89 8d 3e 0c fb 5a 3d 1c fa 3c bc
       0.4196237 0.2764397 0.053462073 -0.01153424
0003f0 df db b3 3e 4b fe a4 3e 07 5f 83 3e 5e 0e 6a 3d
       0.35128686 0.3222526 0.25658438 0.057142608
