src/checkpoints1/sac_actor_400.pth (torch, 291524 bytes, 6 tensors)

net.0.weight f4 [256, 21]
0	0xbd14150a	-0.036152877
1	0xbe0258d4	-0.12729198
2	0xbd942376	-0.07233326
3	0x3e05acd8	0.13054216
4	0x3e04454f	0.12917064
5	0xbd2197c1	-0.039451364
6	0x3d688618	0.056768507
7	0xbd2470cb	-0.04014663
8	0xbe571997	-0.21005856
9	0xbe7622fd	-0.24036784
10	0x3be76214	0.0070612524
11	0xbc55899b	-0.013033296
12	0x3cd5e6ed	0.02611109
13	0xbe13a674	-0.14418966
14	0xbdbb32bc	-0.09140536
15	0x3d7d51ae	0.061845474
16	0xbd8993ab	-0.067176186
17	0x3dbaaa0c	0.09114465
18	0xbe6c5e83	-0.23082928
19	0xbcb88cfb	-0.022528162
20	0xbc03aa0c	-0.008036148
21	0xbea43960	-0.32075024
22	0x3d343ab1	0.044001285
23	0xbef6ad53	-0.4817911
24	0xbed955bf	-0.42448232
25	0xbf171c5f	-0.59027666
26	0xbe1fc5c8	-0.15602791
27	0x3e3b3416	0.18281588
28	0xbedd62cb	-0.43239436
29	0x3cfa01f8	0.030518517
30	0xbc2bb287	-0.010479576
31	0xbd2121a9	-0.03933874
32	0xbf120618	-0.5704055
33	0x3e9cf70d	0.30657235
34	0xbcf4d4f4	-0.0298867
35	0x3c97d9f4	0.018536545
36	0xbe443fe1	-0.19164993
37	0x3c92beed	0.017913306
38	0x3d40a353	0.047030758
39	0xbd97e66e	-0.07416998
40	0xbe528ff1	-0.20562722
41	0xbda4863d	-0.080334164
42	0x3e2d94e6	0.16951331
43	0xbe004caf	-0.12529252
44	0xbe048ca8	-0.12944281
45	0x3ee8f16d	0.45496693
46	0xbeb70046	-0.35742396
47	0xbe0d27d5	-0.13784726
48	0xbe77379a	-0.24142304
49	0x3c5081e3	0.01272628
50	0x3da83ad9	0.08214349
51	0xbeaf132c	-0.34194314
52	0x3bf45891	0.007456847
53	0xbd286093	-0.041107725
54	0x3f314789	0.6924978
55	0xbec5d4ca	-0.38638908
56	0xbdf9dec0	-0.12200689
57	0x3ec7ca43	0.390215
58	0xbe26bc11	-0.16282679
59	0xbea7682e	-0.3269667
60	0xbefa8be6	-0.4893486
61	0x3e15a795	0.14614709
62	0x3e80f6fa	0.25188428
63	0x3db09158	0.08621472
64	0x3e120945	0.14261349
65	0xbe8a9188	-0.27064157
66	0x3e4b21c3	0.19837098
67	0xbe92420c	-0.28566015
68	0xbe5f61b8	-0.2181462
69	0x3e354d27	0.17705213
70	0x3e4f6217	0.20252262
71	0x3e2edcdc	0.17076439
72	0xbea6ca73	-0.32576331
73	0xbdbe9375	-0.09305469
74	0xbe016356	-0.1263555
75	0x3ded25f4	0.115795046
76	0xbddab713	-0.1067945
77	0xbea48166	-0.32129973
78	0x3e959a5f	0.29219338
79	0xbe7fdbc5	-0.24986179
80	0x3e61f021	0.22064258
81	0xbe3f7111	-0.18695475
82	0xbd0e5e03	-0.034757625
83	0xbe5f2997	-0.21793209
84	0xbe39fb43	-0.18162255
85	0x3c85bace	0.016324427
86	0xbe8aa0b6	-0.27075738
87	0x3f23f197	0.6404051
88	0x3e0ee3b7	0.13954054
89	0xbcb08259	-0.02154653
90	0xbe4d32a1	-0.20038845
91	0x3d42e5a8	0.0475823
92	0xbeec771f	-0.46184632
93	0xbe94b09e	-0.29040998
94	0x3e0101e7	0.12598382
95	0xbdc5bde9	-0.09655363
96	0xbd722204	-0.05911447
97	0xbd65a1d3	-0.05606253
98	0xbe19b2c7	-0.15009604
99	0x3e20ef25	0.15716226
100	0xbb0a280c	-0.0021080999
101	0x3e4361fa	0.19080344
102	0x3e640b26	0.22269878
103	0x3e8c618e	0.27418178
104	0x3d687479	0.056751702
105	0xbdfc8cf7	-0.123315744
106	0xbcf8d157	-0.030373259
107	0x3ec5dda0	0.3864565
108	0xbf8655fa	-1.0494988
109	0xbea0bad5	-0.31392542
110	0x3ce2b072	0.027672026
111	0x3e6480f6	0.2231482
112	0xbe00ffb7	-0.12597547
113	0x3d5d1cab	0.053982418
114	0xbe652bd8	-0.22380006
115	0xbe765be7	-0.24058495
116	0x3d9b66de	0.0758798
117	0xbf49e186	-0.78859746
118	0xbde944b0	-0.11390054
119	0x3c6d8dae	0.014499111
120	0x3e1517ef	0.14559911
121	0xbe0a3043	-0.13494973
122	0xbd760b00	-0.060069084
123	0x3dd53380	0.104102135
124	0xbe81500f	-0.25256392
125	0xbda895ba	-0.08231683
126	0xbe1688a0	-0.14700556
127	0xbe3abbee	-0.18235752
128	0xbdda0724	-0.10645893
129	0x3d669a3a	0.056299426
130	0xbf0db928	-0.5536065
131	0x3d37365b	0.04472957
132	0x3cbbceec	0.022925816
133	0xbd55444c	-0.052067086
134	0xbdec5028	-0.11538726
135	0x3e2ee0a7	0.17077886
136	0x3e84f176	0.2596547
137	0xbe4ef058	-0.20208871
138	0x3e4b00f7	0.19824587
139	0xbd4a1781	-0.04933882
140	0x3ea5a782	0.3235436
141	0x3e4e35ef	0.20137762
142	0xbd4c0bbf	-0.04981589
143	0x3ebe2cbc	0.37143505
144	0xbe0362d5	-0.1283067
145	0xbe260cba	-0.16215792
146	0xbe69016a	-0.22754446
147	0xbd9cc3f7	-0.07654565
148	0x3dab4670	0.08363044
149	0xbef18246	-0.47169703
150	0x3ea6c25e	0.32570165
151	0x3e24681b	0.16055338
152	0xbec4b523	-0.38419446
153	0xbda86b3b	-0.082235776
154	0xbcabc3a8	-0.02096732
155	0x3e1c874a	0.15285984
156	0xbdcc2164	-0.09967306
157	0x3cc8d193	0.024513995
158	0xbed34391	-0.41262487
159	0x3f0e97af	0.557002
160	0x3e1e2521	0.15443851
161	0x3e8c4a03	0.27400216
162	0x3ee66747	0.4500067
163	0x3e0d60bf	0.13806437
164	0xbe52335b	-0.20527403
165	0x3e809bbb	0.25118813
166	0x3d03ec06	0.03220751
167	0xbea75167	-0.32679293
168	0x3e1b970e	0.15194342
169	0x3df18fd8	0.11795014
170	0x3d9e6caa	0.0773557
171	0x40017d24	2.023263
172	0x3e3fd54c	0.1873371
173	0xbe9a319c	-0.30115974
174	0x3d579eb6	0.052641593
175	0xbdf51e1b	-0.11968633
176	0x3dd2f4c7	0.10300594
177	0x3d873dd1	0.066035874
178	0xbd1bf9c2	-0.038079984
179	0xbe490fd4	-0.19634944
180	0x3f84ec0e	1.0384538
181	0xbe615d36	-0.22008213
182	0x3d6302e4	0.05542268
183	0xbbbde5d3	-0.0057952194
184	0x3c9b81c1	0.01898277
185	0xbe0d4184	-0.13794523
186	0x3dad3f0a	0.08459289
187	0x3e6c2096	0.23059306
188	0xbe828ea6	-0.25499457
189	0x3e6bf953	0.23044328
190	0xbe1d61b2	-0.15369299
191	0x3e27440d	0.16334553
192	0xbf037a64	-0.5135863
193	0xbe9c4475	-0.3052098
194	0xbd48727c	-0.048937306
195	0xbf455127	-0.77076954
196	0xbd7f2f67	-0.062301066
197	0xbd8e9840	-0.06962633
198	0xbe33f1c9	-0.17572702
199	0xbe109e85	-0.1412297
200	0x3dbe368f	0.0928775
201	0xbf00930d	-0.5022438
202	0xbdb68466	-0.08911972
203	0xbc577684	-0.013150815
204	0x3d8f0b14	0.06984535
205	0xbd482887	-0.048866775
206	0xbc795967	-0.015219069
207	0x3d470188	0.048585445
208	0xbdbcc4a9	-0.092171974
209	0xbe8f6558	-0.28007007
210	0xbe5af91a	-0.21384087
211	0xbca5dd61	-0.020247163
212	0x3d97a0b0	0.074036956
213	0xbf948cab	-1.1605428
214	0x3cd77a69	0.026303487
215	0x3e4c775e	0.1996741
216	0x3b09c4d8	0.002102187
217	0x3dd3d7f3	0.103439234
218	0xbeacbbd6	-0.33737057
219	0xbdce35d5	-0.100688614
220	0x3d87f208	0.06637961
221	0x3d675e45	0.056486387
222	0xbeafd804	-0.34344494
223	0x3e51a676	0.20473656
224	0x3bd94968	0.006631065
225	0xbc3c5c46	-0.011496609
226	0xbddd2eb1	-0.10799921
227	0xbc5fe500	-0.013665438
228	0xbe809189	-0.25111035
229	0x3de1ce18	0.110256374
230	0xbe45f0f1	-0.19330193
231	0xbc7f0020	-0.015563995
232	0xbe5ea2d7	-0.21741806
233	0xbe2e61e8	-0.17029536
234	0x3e510719	0.20412864
235	0xbca91620	-0.020640433
236	0x3e22e7ab	0.15908687
237	0xbdc92bdc	-0.09822819
238	0x3dce9daa	0.10088666
239	0xbe1978f7	-0.1498755
240	0x3bbfa400	0.0058484077
241	0xbe5868dc	-0.2113375
242	0xbe46a0f0	-0.1939733
243	0xbdf01a36	-0.11723749
244	0xbcc50338	-0.024049386
245	0xbe215d89	-0.15758337
246	0x3dcd3aa2	0.10020949
247	0xbe48629f	-0.19568871
248	0x3e2aad09	0.1666757
249	0xbd5ae368	-0.053439528
250	0x3e195123	0.14972357
251	0x3de5b8b6	0.112168714
252	0x3e446093	0.19177465
253	0xbc92ed91	-0.017935546
254	0x3d38988a	0.045067348
255	0x3e546a1a	0.207436

net.0.bias f4 [256]
0	0x3d9c1db3	0.07622852
1	0x3dc55242	0.0963483
2	0xbe105828	-0.14096129
3	0x3dd3c41a	0.10340138
4	0xbe250e4d	-0.16118737
5	0x3e4ad1ea	0.19806638
6	0xbcd81725	-0.026378224
7	0x3df33b1d	0.11876509
8	0xbe98e825	-0.29864612
9	0xbde57ba6	-0.11205225
10	0x3d91474c	0.07093677
11	0xbe1452a0	-0.14484644
12	0x3e1d9dab	0.15392177
13	0xbde09fd1	-0.109679826
14	0xbd86e4ab	-0.06586584
15	0x3e822f2f	0.25426623
16	0x3d06ada8	0.032880455
17	0xbd4a4cf1	-0.049389783
18	0xbe452fc2	-0.192565
19	0xbd1a86f3	-0.037726354
20	0xbe51bd43	-0.20482354
21	0xbdc55f61	-0.09637333
22	0xbe3e284e	-0.18570063
23	0xbc2a1e23	-0.010383162
24	0xbd806530	-0.062693
25	0xbe0d9d91	-0.13829638
26	0x3e7551a2	0.23956922
27	0xbe25b9a3	-0.16184096
28	0x3e1d898e	0.15384504
29	0xbe461e08	-0.19347394
30	0xbe303208	-0.17206585
31	0xbd885218	-0.06656283
32	0x3d1f2305	0.038851757
33	0x3cc1be36	0.02365027
34	0x3d85ca81	0.06532765
35	0x3cc52913	0.024067437
36	0xbd6652d7	-0.056231346
37	0x3d6fcd02	0.05854512
38	0xbe49350a	-0.19649139
39	0xbd97af61	-0.07406498
40	0xbdcdfc6f	-0.100579135
41	0x3cd9ec8c	0.026602052
42	0xbca03ce3	-0.019560283
43	0x3db8c039	0.090210386
44	0xbe15e61f	-0.14638565
45	0xbe6e58f0	-0.23276114
46	0x3e60bb80	0.21946526
47	0x3de85c68	0.1134575
48	0xbddc25af	-0.10749375
49	0xbe911eb6	-0.28343743
50	0xbe376d80	-0.17912865
51	0x3d464765	0.04840793
52	0x3c2cf7a7	0.010557092
53	0xbe1f0d70	-0.1553247
54	0x3e4301cc	0.19043654
55	0xbcb8a42a	-0.022539217
56	0xbe6247ac	-0.22097653
57	0xbccd8c1d	-0.025091225
58	0xbe05debe	-0.1307325
59	0xbc7c4231	-0.015396641
60	0x3d750d40	0.05982709
61	0xbe32b9ea	-0.17453733
62	0xbe303cdd	-0.17210717
63	0x3da02f02	0.07821466
64	0x3df2ed90	0.11861718
65	0xbd9d28cd	-0.07673798
66	0xbe5250c7	-0.20538627
67	0xbe2b9023	-0.16754203
68	0xbddb6d5e	-0.107142195
69	0x3e2c5a54	0.16831332
70	0xbe6fa972	-0.23404482
71	0x3d911538	0.07084125
72	0x3b9e0d3e	0.004823356
73	0x3d9bd9fe	0.07609938
74	0xbb9901bc	-0.004669396
75	0x3baa7453	0.005201855
76	0x3d11bf1d	0.03558265
77	0xbe39f97f	-0.18161581
78	0x3e410bcb	0.18852155
79	0x3d984de8	0.074367344
80	0xbe0ea9e4	-0.13931996
81	0xbe10cfa9	-0.14141716
82	0xbc4c0802	-0.012453081
83	0xbd714b78	-0.058909863
84	0xbe6fb2e1	-0.2340808
85	0xbe15896a	-0.146032
86	0xbda1b96d	-0.07896695
87	0x3d5c34ca	0.05376128
88	0x3ccb27b0	0.024799198
89	0xbdaf0ebe	-0.08547734
90	0xbca16ef2	-0.019706223
91	0x3e544346	0.20728788
92	0xbd9e9586	-0.07743363
93	0x3e5ce3f5	0.21571334
94	0x3cabf7f2	0.020992253
95	0xbe630719	-0.22170676
96	0x3d8ef3c9	0.06980092
97	0xbe820d9b	-0.25401005
98	0xbea06f58	-0.3133495
99	0x3e040776	0.12893471
100	0x3e08cf72	0.13360384
101	0x3d79f975	0.061028916
102	0xbdb3d3a8	-0.087806046
103	0xbdfa1934	-0.12211838
104	0x3e0a822b	0.13526218
105	0x3e28fd79	0.16502942
106	0x3e136dd7	0.1439737
107	0x3e7b2fa1	0.24529888
108	0x3e211fc7	0.15734778
109	0x3e108aa6	0.1411539
110	0xbdca402b	-0.0987552
111	0xbe0b0f66	-0.13580093
112	0x3e6ad53f	0.2293291
113	0x3e1af661	0.15133049
114	0xbdc1f589	-0.0947066
115	0x3de025af	0.109446876
116	0xbdca8a15	-0.09889618
117	0x3e0cd28b	0.13752191
118	0xbe831822	-0.2560435
119	0x3d77f2d6	0.06053432
120	0x3d9c5477	0.07633298
121	0x3cf8df26	0.030379843
122	0x3e1c2879	0.15249814
123	0xbdc3c92e	-0.09559856
124	0x3e2dab5e	0.16959903
125	0xbe78a0cf	-0.24280094
126	0x3d976707	0.07392698
127	0xbe65e749	-0.2245151
128	0xbd3267b9	-0.04355595
129	0x3d359395	0.0443302
130	0x3dd43945	0.10362486
131	0x3e38f72c	0.18063039
132	0xbcb9c76e	-0.022678103
133	0xbda8897f	-0.0822935
134	0x3d2eb00c	0.04264836
135	0xbd65eb9f	-0.05613291
136	0x3b98e4de	0.004665955
137	0xbdf49ef3	-0.1194438
138	0x3e36fc7d	0.17869754
139	0x3e3c4d21	0.18388797
140	0x3e696a8f	0.22794555
141	0x3e1efe2b	0.15526645
142	0xbda3b62a	-0.079937294
143	0x3df82dbf	0.121181004
144	0x3ba6f94c	0.0050956365
145	0xbcbbbe83	-0.022917992
146	0xbe45d155	-0.19318135
147	0xbb120cec	-0.0022285534
148	0x3df9b6b1	0.12193049
149	0xbdcda0f9	-0.10040469
150	0xbdd30256	-0.1030318
151	0x3e29300e	0.16522238
152	0xbe10c762	-0.14138559
153	0x3e321313	0.17390089
154	0xbe5bd59a	-0.21468201
155	0xbe714693	-0.23562078
156	0x3bc0c5be	0.0058829477
157	0xbd1b753d	-0.037953604
158	0xbdc0b4dc	-0.09409496
159	0xbe732a78	-0.2374667
160	0x3d0ac627	0.03388038
161	0xbc812538	-0.015764818
162	0x3d9b3230	0.07577932
163	0x3dacb18c	0.08432302
164	0xbdf1dea9	-0.11810047
165	0xbe7838fa	-0.24240485
166	0x3dd93c10	0.10607159
167	0x3de4e87d	0.11177156
168	0x3e642afc	0.22282022
169	0x3d5b014f	0.053468045
170	0x3e09e6aa	0.13466898
171	0xbe1f9db4	-0.15587503
172	0xbe604ead	-0.21905012
173	0xbe51e7fa	-0.20498648
174	0x3d66a283	0.056307327
175	0x3d79af13	0.06095798
176	0x3e25e451	0.16200377
177	0x3d883ee1	0.06652618
178	0x3e04a0a9	0.12951912
179	0xbdc29ced	-0.095025875
180	0x3dc4bd85	0.096064605
181	0x3dbfe994	0.09370723
182	0x3e145cfd	0.14488597
183	0xbdc2d2ac	-0.09512839
184	0xbdb6b559	-0.08921308
185	0x3cb10198	0.021607205
186	0xbccd9498	-0.02509527
187	0xbe1df023	-0.15423636
188	0x3e4b34f0	0.19844413
189	0x3d044da2	0.0323006
190	0xbd8ebac6	-0.06969218
191	0xbc756894	-0.014978547
192	0xbd2bd00e	-0.041946463
193	0x3dc0c870	0.094132304
194	0x3dd4482f	0.103653304
195	0x3d4e2ef1	0.050337736
196	0x3dc5d7f0	0.096603274
197	0xbe505543	-0.20345025
198	0xbe2cc805	-0.16873176
199	0xbd94ac34	-0.07259408
200	0xbe462bd0	-0.1935265
201	0xbe6ff9d2	-0.23435143
202	0x3da641cd	0.08118019
203	0xbe345411	-0.17610194
204	0xbcfb78ad	-0.030697191
205	0xbe43c20c	-0.19116992
206	0xbe18c49d	-0.14918752
207	0xbcd249a8	-0.025669888
208	0x3e1b8e82	0.15191081
209	0xbca4de0a	-0.020125408
210	0x3d55a83f	0.052162405
211	0xbe885751	-0.26629117
212	0x3e350ad3	0.1767991
213	0x3bb37a1a	0.005477202
214	0xbc936eaa	-0.017997105
215	0x3e1ab88a	0.15109459
216	0xbe2a4bf0	-0.1663053
217	0x3da16546	0.078806445
218	0xbe080bd7	-0.13285767
219	0xbe557d32	-0.2084854
220	0x3e3585a4	0.17726761
221	0xbe3344ec	-0.1750676
222	0x3d8faa6a	0.07014926
223	0x3ddebb46	0.10875563
224	0xbd3ab4c3	-0.045582544
225	0xbe23856e	-0.15968868
226	0x3d861a68	0.06548005
227	0xbdbbf31c	-0.09177229
228	0xbe2ef50a	-0.17085662
229	0x3e0a17bf	0.13485621
230	0xbe7c9513	-0.24666242
231	0xbc9001b9	-0.017578946
232	0xbdae92e1	-0.08524109
233	0x3d4cc899	0.049995992
234	0xbdba9fc0	-0.09112501
235	0xbdc125e3	-0.094310544
236	0x3e31704e	0.17327997
237	0xbda8411e	-0.08215545
238	0xbd22d455	-0.039753277
239	0x3e57095a	0.20999661
240	0xbd32dda4	-0.043668404
241	0xbe23511e	-0.15948913
242	0x3e049d1c	0.12950557
243	0x3e04136a	0.12898031
244	0xbd6bb27c	-0.057543263
245	0x3e417fa7	0.18896352
246	0x3d830327	0.06397086
247	0x3e00d4cf	0.1258118
248	0xbe1c84fa	-0.15285102
249	0xbcb1b208	-0.021691337
250	0x3dc7b4ee	0.097513065
251	0xbe85105f	-0.25989053
252	0xbd877e37	-0.066158704
253	0xbde0439f	-0.10950398
254	0x3d15decc	0.03658943
255	0xbc274345	-0.010208909

net.2.weight f4 [256, 256]
0	0x3c90ea21	0.017689766
1	0xbc96ba63	-0.018399423
2	0x3cbd7877	0.023128731
3	0xbcea5b2a	-0.028607924
4	0xbcd1edea	-0.025626142
5	0x3a6eeb09	0.00091140025
6	0x3ca77619	0.020442056
7	0xbc68c5e8	-0.014207341
8	0x3c958f38	0.018256769
9	0xbd596d55	-0.053082783
10	0xbd1e861a	-0.038702108
11	0xbd36d0ba	-0.04463265
12	0x3d13f239	0.036119673
13	0x3d0688bc	0.032845244
14	0xbd4a7e52	-0.049436875
15	0xbd5682e7	-0.052370932
16	0xbc8a8dc4	-0.016913302
17	0xbd1b67e4	-0.037940875
18	0xbd762d90	-0.060102046
19	0xbda33436	-0.07968943
20	0x3c129a20	0.008947879
21	0x3d3fee82	0.04685832
22	0xbcd94527	-0.026522232
23	0x3b6efb57	0.0036465728
24	0xbd93a13b	-0.07208487
25	0x3be3aa22	0.0069477716
26	0xbc8afd8e	-0.016966607
27	0xbd0abce6	-0.033871554
28	0xbc833400	-0.016016006
29	0xbd77a2a5	-0.060457844
30	0xbc86fea9	-0.016478853
31	0xbb74d0c9	-0.003735589
32	0x3cedcfe7	0.0290298
33	0xbd39ba67	-0.045343783
34	0xbd7a48ea	-0.061104693
35	0x3c842df8	0.0161352
36	0xbd8dab8f	-0.06917488
37	0x3c13b5b5	0.00901549
38	0x3d2b31c0	0.041795492
39	0xbd2de04e	-0.04245024
40	0x3ce6b98c	0.028164648
41	0x394859d1	0.00019106946
42	0xbd9e8daa	-0.07741864
43	0x3cefe255	0.029282728
44	0x3cb18a6a	0.021672446
45	0xbc08da6e	-0.008352859
46	0xbd0a6d31	-0.03379554
47	0xbc142586	-0.009042149
48	0x3cd12bc0	0.025533557
49	0x39c30866	0.00037199556
50	0xbd885468	-0.06656724
51	0xbb819d93	-0.003955552
52	0x3c97c7b2	0.01852784
53	0x3cf23f0f	0.029571084
54	0xbd2d6490	-0.042332232
55	0xbcd999da	-0.02656262
56	0x3d1f9684	0.038961902
57	0x3cb6f714	0.022334613
58	0x3d080b82	0.0332141
59	0x3d02b21d	0.031908143
60	0xbcda7ce7	-0.026670886
61	0xbd16e99b	-0.036843877
62	0xbd287542	-0.04112745
63	0xbd68e72c	-0.056861088
64	0x3d0ca662	0.034338363
65	0x3cfc27f3	0.030780768
66	0xbd4fd11f	-0.050736543
67	0xbceb0831	-0.02869043
68	0xbd861ce9	-0.06548483
69	0xbd271be4	-0.040798083
70	0xb9aec3a8	-0.00033333641
71	0x3caa7267	0.020806504
72	0xbaa60fff	-0.0012669562
73	0xbd3ea47e	-0.04654359
74	0xbd37fc05	-0.04491808
75	0x3c80a701	0.015704634
76	0x3cc8fd90	0.02453497
77	0x3c5b551b	0.01338699
78	0x3cac78e7	0.021053744
79	0xba17df04	-0.0005793425
80	0xbc3f91e5	-0.011692499
81	0x3d2dc574	0.042424634
82	0xbce6c3d2	-0.028169546
83	0xbd3d8431	-0.046268646
84	0xbae9657d	-0.0017806735
85	0x3d5a773b	0.053336363
86	0xbda4d629	-0.0804866
87	0x3cc6cdf6	0.024268132
88	0x3d04cf53	0.032424282
89	0xbd677fc1	-0.05651832
90	0x3ce9c0a6	0.028534245
91	0xbc8b7869	-0.01702519
92	0xbbb1b289	-0.0054228944
93	0x3beffe6b	0.00732403
94	0xbd4b48e3	-0.049630057
95	0x3c300b92	0.010744946
96	0xbc6105f8	-0.013734333
97	0xbd496d4b	-0.049176496
98	0x3c60be07	0.013717181
99	0x3a49840b	0.00076872174
100	0xbb6c7f8c	-0.0036086766
101	0xbcd798c8	-0.026317969
102	0x3b80bafb	0.00392854
103	0x3d4e4ce4	0.050366297
104	0xbd3e6414	-0.04648216
105	0x3d46a3d7	0.048496094
106	0xbd2f7332	-0.04283447
107	0x3cc14a4d	0.023595
108	0x3d1aa63e	0.037756197
109	0x3cd7dec9	0.02635135
110	0xbd7517d0	-0.059837162
111	0xbd715743	-0.05892111
112	0x3d0496b2	0.032370277
113	0x3d17b130	0.037034214
114	0xbcadcd1c	-0.021215968
115	0xbcacdfbd	-0.02110278
116	0xbc93164f	-0.017954974
117	0xbcbb9d02	-0.022902016
118	0xbd0b96b6	-0.034079276
119	0xbd2815ff	-0.041036602
120	0x3cf0e596	0.02940635
121	0xbd7e22d2	-0.062044926
122	0xbd3b7af7	-0.045771565
123	0xbc60b791	-0.013715641
124	0xbc8dacb7	-0.01729427
125	0x3d12e205	0.03586008
126	0xbd52e0b4	-0.051483825
127	0x3d3e92b5	0.04652663
128	0x3cae2050	0.021255642
129	0xbca7dec8	-0.020491973
130	0xbd191d42	-0.037381418
131	0xbd03cf55	-0.03218015
132	0xbc4e8410	-0.012604728
133	0xbd25dba4	-0.04049267
134	0x3c3b79a2	0.011442574
135	0x3ce3b0d8	0.027794287
136	0xbd7ca532	-0.06168098
137	0x3d3d858a	0.04626993
138	0xbd059901	-0.03261662
139	0xbd27022f	-0.040773567
140	0xbd60cb70	-0.054881513
141	0xbd276aad	-0.04087322
142	0x3b63aa15	0.0034738828
143	0xbd28348f	-0.04106575
144	0xbbd1b79c	-0.006400062
145	0xbc9eb533	-0.019373512
146	0x3c81ebe1	0.015859546
147	0x3d43ba51	0.047785107
148	0x3c8eebe0	0.017446458
149	0x3cb152ad	0.021645868
150	0xbc388613	-0.011262435
151	0x3c639be5	0.013892149
152	0x3d510685	0.051031608
153	0x3ced1173	0.028938984
154	0xbd34cf1f	-0.04414284
155	0xbd81c747	-0.06336837
156	0xbd5112a7	-0.05104318
157	0xbd74565b	-0.059652667
158	0xbca46a3c	-0.020070188
159	0x3d0c3828	0.034233242
160	0xbd8ba50a	-0.06818588
161	0x3d58ce52	0.052931137
162	0x39dc4024	0.00042009458
163	0xbd70b9da	-0.05877099
164	0x3d1f971d	0.038962472
165	0x3c879738	0.016551599
166	0x3ce20c13	0.027593648
167	0xbd6f731d	-0.05845939
168	0xbd63aed8	-0.055586666
169	0xbc8a31c2	-0.01686943
170	0x3c59f606	0.013303285
171	0x3d69652b	0.056981247
172	0x3c80b7b7	0.015712602
173	0x3c814039	0.015777694
174	0xbd18f0f5	-0.03733917
175	0xbd8da248	-0.06915718
176	0x3b819040	0.0039539635
177	0xbc3302b0	-0.010925934
178	0x3c64d733	0.013967323
179	0x3cf7f48e	0.03026798
180	0x3ae40805	0.001739741
181	0xbd64c8e7	-0.055855658
182	0x3c228bd3	0.009921032
183	0x3bba70ac	0.005689701
184	0xbd8011e7	-0.062534146
185	0xbcdc24e4	-0.02687306
186	0x3d7308e0	0.059334636
187	0x3d067cb6	0.032833777
188	0xbc880df4	-0.016608216
189	0xbbd14cf5	-0.006387348
190	0xbdab86f4	-0.0837535
191	0x3b8f6de7	0.004377115
192	0x3c4b1874	0.012395967
193	0xbd05bafc	-0.032649025
194	0x3c6ba763	0.01438317
195	0x3bc1769a	0.005904031
196	0xbd513970	-0.051080167
197	0xbd808277	-0.06274884
198	0xbd40e853	-0.04709656
199	0x3be57396	0.0070023043
200	0x3cf589d6	0.029972952
201	0xbd33742a	-0.043811955
202	0x3d6abb02	0.05730725
203	0xbd0bf07f	-0.0341649
204	0x3ca71cc3	0.020399457
205	0x3d369a9f	0.044581052
206	0xbce73131	-0.028221698
207	0xbc10f347	-0.008847064
208	0x3d28fd1d	0.041257013
209	0x3c84b408	0.016199127
210	0xbaaddd5e	-0.0013264825
211	0xbd9c400f	-0.07629406
212	0xbc89e987	-0.016834987
213	0xbd68a38a	-0.056796588
214	0xbd8997e0	-0.06718421
215	0xbd387155	-0.045029957
216	0x3d1aaf2c	0.037764713
217	0xbc3f4170	-0.011673316
218	0xbd05c9dd	-0.032663215
219	0xbd92841c	-0.07154104
220	0xbd9bf430	-0.076149344
221	0x3cfacc26	0.030614924
222	0x3c946800	0.018115997
223	0x3d24ed84	0.040265575
224	0x3c66e0c4	0.014091674
225	0xbd5b9074	-0.053604558
226	0x3d091748	0.03346947
227	0x3d04d0fc	0.032425866
228	0xbd0e7327	-0.034777787
229	0x3d10ce18	0.035352796
230	0xbd777f0b	-0.060423892
231	0xbcdb49a4	-0.026768513
232	0x3cf325ae	0.029681053
233	0xbd069441	-0.03285623
234	0xbd86b411	-0.06577314
235	0xbd289fb1	-0.04116792
236	0xbce2dbbb	-0.027692666
237	0x3b84e780	0.0040559173
238	0xbd14032c	-0.036135837
239	0xbd11be4e	-0.03558188
240	0xba80a45d	-0.0009814609
241	0xbcd617b4	-0.02613435
242	0x3ca4fc13	0.02013973
243	0xbb8b2331	-0.0042461385
244	0xbd2495a2	-0.040181763
245	0xbc4f9528	-0.012669839
246	0x3d0cafc1	0.0343473
247	0x3d126adb	0.035746437
248	0x3c98c928	0.018650606
249	0xbc9c6b71	-0.0190942
250	0x3c75c363	0.015000197
251	0x3ad3ad49	0.0016149665
252	0xbc639e16	-0.013892671
253	0x3d0dc180	0.034608364
254	0xbc9c1229	-0.019051628
255	0xbd47d096	-0.048782907

net.2.bias f4 [256]
0	0x3b38adcf	0.002817977
1	0xbd0cd72a	-0.034384884
2	0xbd9b9613	-0.07596984
3	0xbd9d384d	-0.07676754
4	0xbe0b9e60	-0.13634634
5	0x3d9cd0e0	0.07657027
6	0x3d2d4ab8	0.042307585
7	0xbc10d615	-0.008840104
8	0xbcf85768	-0.030315116
9	0x3b760ba5	0.0037543562
10	0x3c5e2925	0.013559614
11	0xbd6c6e4b	-0.05772237
12	0xbd9ea968	-0.077471554
13	0xbcaef03a	-0.021354783
14	0x3c836c5c	0.01604288
15	0xbd2f0880	-0.042732716
16	0x3cab14ba	0.020883907
17	0xbcf864a7	-0.030321432
18	0xbd593f44	-0.05303885
19	0x3b65d7a2	0.0035071154
20	0xbd51a935	-0.05118676
21	0x3af3e401	0.0018607379
22	0xbd3648fe	-0.044503205
23	0xbdb03753	-0.08604302
24	0xbc07239c	-0.008248236
25	0x3c5c2352	0.013436155
26	0xbd109434	-0.035297588
27	0xbcbd3f00	-0.02310133
28	0xbd0b231e	-0.033969037
29	0xbb334e04	-0.0027359733
30	0xbd29e627	-0.041479256
31	0xbe243873	-0.16037159
32	0x3b8fff04	0.004394414
33	0x3c5e81e7	0.013580776
34	0xbd848459	-0.06470556
35	0xbd63ccf1	-0.05561537
36	0xbc97cb02	-0.018529419
37	0x3b5de199	0.003385639
38	0xbd9e1ee9	-0.077207394
39	0xbc4bfdf4	-0.012450684
40	0x3aa10496	0.0012284692
41	0xbd2a3004	-0.041549698
42	0xbdbfb9fe	-0.09361647
43	0x3e045320	0.12922335
44	0xbda10e12	-0.07864012
45	0xbd25252c	-0.040318653
46	0x3a113bb3	0.0005540207
47	0xbd1c2565	-0.0381216
48	0xbd71b8d2	-0.05901415
49	0xbd1b91e0	-0.037980914
50	0xbd4f92ba	-0.05067704
51	0xbdf94fe9	-0.12173445
52	0xbdc6c1a4	-0.09704903
53	0x3cd14de0	0.025549829
54	0x3dbf5e5f	0.09344172
55	0x3d26ee2d	0.040754486
56	0x3c538342	0.012909712
57	0xbc4876d9	-0.012235367
58	0xbccff438	-0.025385007
59	0xbcc8bb22	-0.024503294
60	0x3bc69ce3	0.006061183
61	0xbd09d404	-0.03364946
62	0x3cd4dd9b	0.025984576
63	0xbbcee896	-0.0063143475
64	0xbda9b4a9	-0.08286411
65	0xbd4feff7	-0.050765958
66	0xbbf6ddf5	-0.0075337836
67	0xbd9d93bb	-0.07694193
68	0x3d20f34b	0.039294522
69	0xbcc6827d	-0.024232144
70	0xbd138a9a	-0.036020853
71	0x3cc2e49f	0.023790656
72	0xbc5b2983	-0.013376596
73	0xbc8e603f	-0.017379878
74	0xbbdf98ae	-0.0068236208
75	0xbd94cdb6	-0.07265799
76	0xbd423f1a	-0.04742346
77	0xbe1b9d5f	-0.15196751
78	0xbdcae870	-0.09907615
79	0x3d6251ad	0.055253673
80	0xbd67c407	-0.05658343
81	0x3c853f95	0.01626567
82	0xbd796e94	-0.06089647
83	0xbd598244	-0.053102747
84	0x3dfed986	0.12443833
85	0x3d96eb4c	0.07369098
86	0xbd8d0d87	-0.06887346
87	0xba95b9cc	-0.001142317
88	0x3d42e765	0.047583956
89	0xbd34539b	-0.044025045
90	0xbde39c94	-0.11113849
91	0xbd12257b	-0.035680275
92	0xbd5f925a	-0.05458293
93	0xbc613d12	-0.01374747
94	0xbd896b92	-0.067099705
95	0xbdded93b	-0.10881277
96	0xbdc2bbed	-0.095085
97	0x3d9b2661	0.075756796
98	0xbd8c4864	-0.06849745
99	0xbd81db78	-0.063406885
100	0x3db8d459	0.09024877
101	0x3bb30298	0.0054629557
102	0xbd517398	-0.05113563
103	0x3da20376	0.07910816
104	0xbc71f784	-0.014768485
105	0xbd371af0	-0.044703424
106	0xbe00f2b5	-0.12592585
107	0x3d04c17e	0.03241109
108	0xbc3d3b67	-0.011549807
109	0x3c8b9870	0.017040461
110	0xbcf8bb0c	-0.030362628
111	0xbd2f9332	-0.042864986
112	0x3d09e646	0.03366687
113	0x3d93470e	0.07191287
114	0xbd43dd23	-0.047818314
115	0xbd507ed7	-0.050902214
116	0xbd9001bc	-0.07031581
117	0xbd86e31f	-0.06586289
118	0xbcd36001	-0.025802614
119	0xbd9d9be4	-0.076957494
120	0xbca1cc16	-0.019750636
121	0x3cdc05a2	0.026858155
122	0x3cbc02de	0.022950586
123	0x3d12fb60	0.03588426
124	0xbdac6455	-0.08417574
125	0xbd2fc615	-0.042913515
126	0xbd0dfff3	-0.03466792
127	0xbe21a931	-0.15787198
128	0x3d402043	0.046905767
129	0xbd9203bf	-0.07129621
130	0xbbe6563c	-0.007029323
131	0xbd622437	-0.05521032
132	0xbc57e0d0	-0.013176158
133	0x3d8166a6	0.06318407
134	0x3de35dff	0.11101913
135	0x3c5b24f4	0.0133755095
136	0xbd152f1e	-0.036421888
137	0xbc4980f0	-0.0122988075
138	0xb9bbdff1	-0.0003583427
139	0xbda9f4be	-0.08298634
140	0x3d04ecc3	0.032452356
141	0x3cde64bd	0.027147645
142	0x3d239c6f	0.03994411
143	0xbc87f7fa	-0.016597737
144	0xbda27c89	-0.079339094
145	0xbca75e08	-0.02043058
146	0xbdb61316	-0.08890359
147	0xbd2bce54	-0.041944817
148	0xbce93d91	-0.02847174
149	0xbc1bb7c2	-0.0095042605
150	0x3d708ca4	0.058727875
151	0xbbade8e4	-0.0053073037
152	0xbd3e6f29	-0.04649273
153	0x3dc64dc5	0.09682802
154	0xbdabf89e	-0.08397029
155	0xbdabcb4b	-0.083883844
156	0x3d85f880	0.06541538
157	0xbd954595	-0.07288662
158	0xbd929839	-0.071579404
159	0xba3ccf27	-0.0007202499
160	0x3d48f3a7	0.04906049
161	0xbd12892b	-0.035775345
162	0x3cdfd463	0.027322954
163	0x3cea3481	0.028589489
164	0xbdab795f	-0.08372759
165	0xbc3cf9a1	-0.011534126
166	0xbdfde582	-0.12397291
167	0xbd212568	-0.039342314
168	0xbda706c8	-0.0815559
169	0xbcfef379	-0.031121956
170	0xbdc31f77	-0.09527486
171	0xbcdc88de	-0.026920732
172	0xbc488cd7	-0.01224061
173	0x3c43d95f	0.011953681
174	0xbd5f95e4	-0.054586306
175	0xbd555c37	-0.052089896
176	0xbc5a469a	-0.013322497
177	0xbd99a44a	-0.07502039
178	0x3d604401	0.054752354
179	0x3d28e8cd	0.04123764
180	0xbcd03389	-0.025415199
181	0xbc645925	-0.013937269
182	0x3db626fe	0.08894156
183	0x3d2a1b32	0.04152984
184	0x3bb06205	0.0053827786
185	0xbd5e1536	-0.054219447
186	0xbc26648e	-0.01015581
187	0x3ce3347e	0.027734991
188	0xbd1f0e26	-0.038831852
189	0xbda05e55	-0.078304924
190	0x3d11cc83	0.03559543
191	0xbb0ed8b4	-0.0021796646
192	0x3c4ada51	0.012381152
193	0xbd256d81	-0.040387634
194	0xbe188a0a	-0.14896408
195	0x3c9943e3	0.018709129
196	0xbdd21ae2	-0.10259034
197	0xbd68809b	-0.056763273
198	0xbd6b108b	-0.057388823
199	0xbc37af3d	-0.011211214
200	0x3d1e9384	0.0387149
201	0x397212b4	0.00023085886
202	0xbcc82711	-0.02443269
203	0x3afa63e0	0.0019103251
204	0x3ca1225d	0.019669706
205	0x3d3822c0	0.044955015
206	0xbd92a241	-0.07159854
207	0x3c0dd285	0.008656149
208	0x3da5e5a6	0.081004426
209	0x3d3083b8	0.043094367
210	0xbb101826	-0.002198705
211	0xbd416e5b	-0.047224384
212	0xbd03808b	-0.03210501
213	0xbd22e052	-0.03976471
214	0xbc62065f	-0.013795464
215	0xba5467bf	-0.00081026176
216	0x3ba885a5	0.005142885
217	0xbc40ebe7	-0.0117749935
218	0x3bcf9305	0.0063346648
219	0xbcf7d9ec	-0.03025528
220	0xbd89f91c	-0.06736967
221	0xbc984831	-0.018589111
222	0x3dade13b	0.08490225
223	0xbc0b67df	-0.0085086515
224	0xbbc70e68	-0.0060747154
225	0xbd3e0ff9	-0.04640195
226	0xbd96335e	-0.07334016
227	0xbd6a0098	-0.057129472
228	0x3cf766c0	0.030200362
229	0x3c4d89c8	0.012545057
230	0xbd2c8e9b	-0.042128187
231	0x3cccfcf3	0.02502296
232	0xbd005386	-0.031329654
233	0xba5bbc53	-0.00083822495
234	0xbc936516	-0.017992537
235	0x3d5d420b	0.05401806
236	0xbbb23659	-0.0054386077
237	0x3ca06c80	0.019582987
238	0x3b25d113	0.002530162
239	0xbd8806c0	-0.066419125
240	0xbc8e6316	-0.017381232
241	0xbd9bae33	-0.07601585
242	0x3d1a569b	0.03768025
243	0xbb292912	-0.0025811833
244	0x3cbf6a44	0.023366101
245	0xbd922a80	-0.071370125
246	0xbd3c25a1	-0.045934323
247	0x3b7d33ab	0.0038635533
248	0xbc6a2e7b	-0.014293308
249	0xbdfb192f	-0.12260663
250	0x3d67ca91	0.056589667
251	0xbd429d62	-0.047513373
252	0xbb84957e	-0.004046141
253	0x3c8b4905	0.017002592
254	0xbba961be	-0.0051691225
255	0x3c89a5b4	0.016802646

net.4.weight f4 [3, 256]
0	0x3d4789c3	0.048715364
1	0x3c050f6f	0.008121355
2	0x3e132e04	0.14373022
3	0xbabff6b9	-0.0014645673
4	0xbc6b9bcd	-0.0143804075
5	0xbda200b7	-0.079102926
6	0xbbe608c2	-0.007020087
7	0xbadb5df4	-0.0016736374
8	0xbe108aca	-0.14115444
9	0xbc5bff60	-0.013427585
10	0x3d2f58e5	0.042809386
11	0x3bc54580	0.006020248
12	0xbd32489b	-0.043526273
13	0xbec1f824	-0.3788463
14	0xbc458d33	-0.01205759
15	0xbbdabf22	-0.006675617
16	0xbcaadad0	-0.020856291
17	0x3b80a1c0	0.003925532
18	0xbc3f291a	-0.011667514
19	0xbc17d5d9	-0.009267294
20	0x3cbf15f7	0.023325903
21	0x3e30cd74	0.17265874
22	0xbcf2fe54	-0.029662289
23	0x3dd53145	0.10409788
24	0x3c07a6ca	0.008279512
25	0xbd451e15	-0.04812439
26	0x3ca059a5	0.019573996
27	0xbd050daa	-0.032483734
28	0xbc46b659	-0.012128436
29	0xba03ede5	-0.00050327025
30	0xbcbcf435	-0.023065666
31	0x3fd104c1	1.6329576
32	0xbf8fa430	-1.1221981
33	0xbc704700	-0.014665365
34	0x3d0d33d7	0.034473266
35	0x3dd15f57	0.10223263
36	0xbda24893	-0.07923999
37	0xbbdba6ec	-0.0067032482
38	0xbcf8bd2f	-0.030363647
39	0x3c47b5ef	0.012189372
40	0x3d4da426	0.050205372
41	0x3d8a5dbb	0.06756159
42	0x3f3dbb58	0.7411399
43	0xbe2e57ec	-0.17025727
44	0x3cb44068	0.022003368
45	0x3ce7e9a5	0.028309653
46	0xbef95172	-0.4869495
47	0xbcaf25ac	-0.021380268
48	0xbd86f60d	-0.06589899
49	0x3cda5176	0.026650172
50	0xbd577382	-0.05260039
51	0xbd1ed8c7	-0.038780954
52	0xbea34d0b	-0.31894717
53	0xbba4abbd	-0.0050253556
54	0xbc86d91c	-0.016460948
55	0x3baecfff	0.0053348537
56	0x3c1a02f6	0.00940012
57	0xbc6568ba	-0.01400202
58	0x3d31809c	0.043335542
59	0xbd49af94	-0.04923971
60	0x3e4ac927	0.19803296
61	0xbf6fc9b3	-0.93667144
62	0xbd2d699e	-0.042337053
63	0x3cf23eaf	0.029570905
64	0xbbd998a0	-0.006640509
65	0x3c36a361	0.011147351
66	0xbe901976	-0.28144425
67	0xbcbf4fe3	-0.023353523
68	0xbeadc6a6	-0.3394062
69	0x3d2188b0	0.039436996
70	0x3cb40b02	0.021977905
71	0x3c0f533f	0.008747875
72	0x3d9acd3a	0.07558675
73	0x3d08d768	0.033408552
74	0xbd20dc7e	-0.039272778
75	0xbccdc760	-0.025119483
76	0x3b5d38f8	0.003375588
77	0x3da1b049	0.07894952
78	0x3db50819	0.08839435
79	0x3e4686d9	0.19387378
80	0x3c7ab603	0.015302184
81	0xbe968d57	-0.2940471
82	0x3cc10916	0.023563903
83	0xbcf23ec4	-0.029570945
84	0xbdd64967	-0.10463219
85	0x3ef011e2	0.46888644
86	0x3d6b7bdc	0.05749117
87	0xbc8872de	-0.016656335
88	0xbbd4c2ff	-0.006492972
89	0x3e17c0f9	0.14819707
90	0x3da1fe63	0.079098485
91	0x3d7d8f9a	0.061904527
92	0x3c90c2e7	0.017671062
93	0xbf748278	-0.9551158
94	0x3f11e7a8	0.56994104
95	0xbbb863c9	-0.0056271297
96	0xbecdf61b	-0.40226826
97	0xbba69b44	-0.005084427
98	0xbf1394c5	-0.5764888
99	0x3d8b2ae1	0.06795288
100	0x3d797501	0.0609026
101	0x3e51a910	0.20474648
102	0xbd06cabd	-0.03290819
103	0xbe20e2e8	-0.15711558
104	0x3d7c6107	0.06161597
105	0x3d3fe85a	0.046852447
106	0xbb4044ce	-0.0029337886
107	0xbce5567f	-0.027995346
108	0xbe12a0e8	-0.14319193
109	0xbc0d8b5c	-0.008639183
110	0x3e0863b5	0.13319285
111	0x3d4c0452	0.049808808
112	0xbe931ac7	-0.28731367
113	0xbdeeff96	-0.11669843
114	0x3cc67838	0.024227247
115	0xbf13ef4b	-0.5778701
116	0xbd3b72ed	-0.0457639
117	0x3c0324ba	0.008004362
118	0xbd1372e6	-0.035998248
119	0x3e5e450b	0.21706025
120	0x3c988a02	0.018620495
121	0xbc5a81c8	-0.013336606
122	0xbcc59416	-0.024118464
123	0xbc5e344d	-0.013562274
124	0x3cdd9415	0.02704815
125	0x3e58fcd2	0.21190193
126	0x3d0c4a94	0.03425081
127	0xbf1c6e01	-0.6110535
128	0xc0beb9ef	-5.960197
129	0xbc0f3bbf	-0.008742272
130	0x3e1a9c6a	0.1509873
131	0xbf25b926	-0.6473564
132	0xbc7d3717	-0.015455029
133	0xbdaf0331	-0.085455306
134	0xbcc18c6a	-0.023626525
135	0xbf115392	-0.56768143
136	0x3cf2df5b	0.02964752
137	0xbceb9ffc	-0.02876281
138	0xbdb95bc0	-0.09050703
139	0x3c406021	0.011741669
140	0x3d507064	0.050888434
141	0x3ceaf67b	0.028681984
142	0x3b557705	0.0032572162
143	0xbc38b517	-0.011273644
144	0x3de22dea	0.11043914
145	0x3c041267	0.008061028
146	0xbd1c541d	-0.038166154
147	0x3e8caa94	0.2747389
148	0x3d0c63c2	0.034274824
149	0x3e27b364	0.16377026
150	0x3c82a01d	0.015945489
151	0x3cb58f07	0.022162927
152	0xbcb96c65	-0.022634694
153	0xbca8c1e0	-0.02060026
154	0x3ceebf73	0.029144024
155	0xbc4e869e	-0.012605337
156	0x3eddcdd2	0.4332109
157	0xbd7271d6	-0.059190594
158	0x3ce74842	0.028232697
159	0x3d1f07f5	0.038825948
160	0x3caf69d6	0.021412771
161	0x3d10035e	0.03515946
162	0xbf1ce798	-0.61290884
163	0xbb6170bf	-0.0034399477
164	0xbecaff45	-0.3964788
165	0x3a251b67	0.0006298334
166	0xbd2d11cd	-0.042253304
167	0xbb52ce4c	-0.003216642
168	0x3c77bcb1	0.015120671
169	0xbeb47bf1	-0.3525081
170	0x3d1d00fb	0.038331013
171	0xbd1795fd	-0.037008274
172	0x3bf23aab	0.0073922477
173	0x3ddd937c	0.10819146
174	0x3bdadb68	0.0066789873
175	0xbc09997f	-0.008398413
176	0x3bfdea5e	0.007748886
177	0x3d5d4121	0.05401719
178	0xbd43ca08	-0.047800094
179	0x392c54dd	0.00016434812
180	0x3ed89c13	0.42306575
181	0x3c00de75	0.007865538
182	0x3a2c023b	0.00065616117
183	0x3c32ef55	0.010921319
184	0x3a974340	0.0011540428
185	0xbcc78259	-0.024354147
186	0x3c77117e	0.015079854
187	0x3b1e655b	0.00241693
188	0x3c62f485	0.013852243
189	0xbf06ec8d	-0.527047
190	0x3cea3f37	0.028594596
191	0x3b94cb6d	0.004540852
192	0x3c841dba	0.016127456
193	0x3e111841	0.14169408
194	0xbec82d41	-0.39097026
195	0xbe185253	-0.14875154
196	0xbe2a5bb9	-0.16636552
197	0x3baa4560	0.0051962584
198	0xbd9c76d9	-0.07639856
199	0xbc47791b	-0.01217487
200	0x3e0b19cd	0.13584061
201	0x3d7b24ad	0.061314274
202	0xbcf6e4f7	-0.030138476
203	0x3c582fad	0.013194961
204	0x3cb2c896	0.021824162
205	0xbc8f22a0	-0.017472565
206	0x3e467126	0.193791
207	0x3c07d1ea	0.0082897935
208	0xbda97f81	-0.082762726
209	0x3dcc57bb	0.09977671
210	0x3cea0b5e	0.028569873
211	0xbd0896e2	-0.033347018
212	0xbddc6281	-0.10760976
213	0x3a2df7dd	0.0006636361
214	0xbca392ab	-0.019967398
215	0x3c1ea0f4	0.009681929
216	0x3d0928a6	0.03348603
217	0x3d139dd7	0.0360392
218	0x3b8ec0d0	0.004356481
219	0x3cf18c2a	0.02948578
220	0x3e32813e	0.17432114
221	0x3e00abb9	0.12565507
222	0x3c83363e	0.016017076
223	0xbd31161f	-0.043233987
224	0x3cbfd318	0.023416087
225	0x3d865461	0.06559063
226	0xbdd02d11	-0.10164846
227	0xbd30d261	-0.043169383
228	0xbfa86668	-1.3156252
229	0x3c4a39f6	0.0123429205
230	0xbbc9c54b	-0.0061575524
231	0xc02c94a9	-2.6965735
232	0x3bb534a4	0.005529957
233	0x3d95aa50	0.07307875
234	0xbe214a1e	-0.1575093
235	0xbb66fade	-0.0035244743
236	0x3d35405e	0.04425084
237	0x3cdf484b	0.027256152
238	0xc009aeda	-2.151297
239	0xbbb7cd93	-0.005609223
240	0xbc593ef1	-0.013259635
241	0xbe425f4e	-0.18981668
242	0xbb0dd20f	-0.0021640097
243	0x3ea812da	0.32826883
244	0xbc553dd1	-0.013015226
245	0x3e0a615f	0.13513707
246	0xbce54d61	-0.027990999
247	0xbc70b9f6	-0.014692774
248	0x3d099b14	0.03359516
249	0x3c709dfa	0.014686102
250	0xb871cab5	-5.7647663e-05
251	0x3cfa0ea0	0.030524552
252	0xbd332e8b	-0.04374556
253	0xbd1e67ba	-0.03867314
254	0xbe4869e1	-0.1957164
255	0xbece9dc1	-0.40354732

net.4.bias f4 [3]
0	0xbd2831d3	-0.04106314
1	0x3f43fb32	0.7655517
2	0xbce24502	-0.027620796
