src/checkpoints1/sac_actor_350.pth (torch, 291524 bytes, 6 tensors)

net.0.weight f4 [256, 21]
0	0xbd346548	-0.0440419
1	0xbe07738d	-0.13227673
2	0xbda29f7f	-0.07940578
3	0x3e05acd8	0.13054216
4	0x3e04454f	0.12917064
5	0xbd2197c1	-0.039451364
6	0x3d4010a0	0.046890855
7	0xbd4853c1	-0.048908
8	0xbe603207	-0.21894084
9	0xbe7044ca	-0.23463741
10	0xbb480360	-0.003051959
11	0xbca04420	-0.019563735
12	0x3ce34ccf	0.027746586
13	0xbe0f6bef	-0.14006017
14	0xbdb600d2	-0.08886875
15	0x3d90e552	0.070749894
16	0xbd82f2eb	-0.06393989
17	0x3da84540	0.082163334
18	0xbe62ebe8	-0.22160304
19	0xbc41827e	-0.011810897
20	0x3b99d89b	0.004695011
21	0xbe971a1e	-0.29512113
22	0x3d07c022	0.033142217
23	0xbef9f11c	-0.48816764
24	0xbeb4e6de	-0.35332388
25	0xbee279bc	-0.442335
26	0xbdf6ef02	-0.12057306
27	0x3e1cf2a3	0.15326934
28	0xbecc5cdb	-0.39914593
29	0x3b14dfec	0.0022716476
30	0xbda2655d	-0.0792949
31	0xbd7fbe07	-0.062437084
32	0xbf0d3d84	-0.5517199
33	0x3e7fa262	0.24964288
34	0xbdd6a40f	-0.104805104
35	0x3d311265	0.043230433
36	0xbe1e50b6	-0.15460476
37	0xbcf84fcf	-0.030311493
38	0xbc507085	-0.012722139
39	0xbda959c8	-0.082690775
40	0xbdfb1742	-0.122602955
41	0xbca214a1	-0.019785227
42	0x3e496309	0.19666685
43	0xbdca3d79	-0.09875006
44	0xbdc919c5	-0.09819368
45	0x3ef044a0	0.46927357
46	0xbea3e3e1	-0.32009795
47	0xbdf22527	-0.118234925
48	0xbe504938	-0.2034043
49	0x3d2db022	0.0424043
50	0x3dea8f28	0.11453086
51	0xbe9b5d19	-0.30344465
52	0x3d1aaed1	0.037764374
53	0xbc134577	-0.00898873
54	0x3f3e8173	0.74416274
55	0xbeca15a8	-0.39469647
56	0xbe1d410c	-0.15356845
57	0x3edc8a29	0.43074158
58	0xbe4380a1	-0.19092037
59	0xbebfb20a	-0.3744052
60	0xbeeb49e3	-0.4595481
61	0x3e573756	0.21017203
62	0x3e7cda5c	0.24692672
63	0x3db07c17	0.08617418
64	0x3e14dee2	0.14538148
65	0xbe8d0975	-0.27546278
66	0x3e20d08a	0.15704551
67	0xbe9277c7	-0.28607008
68	0xbe65d1c8	-0.22443306
69	0x3e46c636	0.19411549
70	0x3e4fdc67	0.2029892
71	0x3e3cb77c	0.18429369
72	0xbea1fe05	-0.31639114
73	0xbda86be7	-0.08223706
74	0xbe08a7f4	-0.13345319
75	0x3d1ab785	0.037772674
76	0xbd9f2801	-0.07771302
77	0xbea68c10	-0.32528734
78	0x3e89ea20	0.26936436
79	0xbe60bc10	-0.2194674
80	0x3e5d7bb6	0.21629223
81	0xbe8fd714	-0.2809378
82	0xbc3230a3	-0.010875854
83	0xbe623e64	-0.22094113
84	0xbe39fb43	-0.18162255
85	0x3c85bace	0.016324427
86	0xbe8aa0b6	-0.27075738
87	0x3f23f197	0.6404051
88	0x3e0ee3b7	0.13954054
89	0xbcb08259	-0.02154653
90	0xbe4d32a1	-0.20038845
91	0x3d42e5a8	0.0475823
92	0xbeec771f	-0.46184632
93	0xbe94b09e	-0.29040998
94	0x3e0101e7	0.12598382
95	0xbdc5bde9	-0.09655363
96	0xbd722204	-0.05911447
97	0xbd65a1d3	-0.05606253
98	0xbe19b2c7	-0.15009604
99	0x3e20ef25	0.15716226
100	0xbb0a280c	-0.0021080999
101	0x3e4361fa	0.19080344
102	0x3e640b26	0.22269878
103	0x3e8c618e	0.27418178
104	0x3d687479	0.056751702
105	0xbde7be50	-0.11315596
106	0xbcd5f871	-0.026119443
107	0x3ec7fa36	0.39058083
108	0xbf742a38	-0.9537692
109	0xbe97877d	-0.29595557
110	0x3cc9cd75	0.024634102
111	0x3e659b65	0.2242256
112	0xbdf80ce0	-0.12111831
113	0x3d3db59e	0.04631578
114	0xbe609542	-0.21931937
115	0xbe65f939	-0.22458352
116	0x3da68e8c	0.081326574
117	0xbf3e88b0	-0.7442732
118	0xbd8f3236	-0.06991999
119	0xbd106a0b	-0.03525738
120	0x3e2bfe46	0.16796216
121	0xbe07dbd9	-0.13267459
122	0xbda13b7d	-0.078726746
123	0x3db9e633	0.0907711
124	0xbe8105f1	-0.25199845
125	0xbdb049b7	-0.0860781
126	0xbe0c242a	-0.1368567
127	0xbe5677f8	-0.20944202
128	0xbdeb93a5	-0.1150277
129	0x3de11fe0	0.10992408
130	0xbee98f37	-0.45617077
131	0x3dcef816	0.101059124
132	0x3b38f3b7	0.0028221437
133	0xbce6e716	-0.028186362
134	0xbdf4116e	-0.11917387
135	0x3d9425d4	0.07233778
136	0x3e76a4c4	0.2408629
137	0xbe5ff04e	-0.21869013
138	0x3e678326	0.22608623
139	0xbd75fe11	-0.06005675
140	0x3e9bd842	0.3043843
141	0x3e52dfb7	0.20593153
142	0xbc55431e	-0.01301649
143	0x3e9638fc	0.2934035
144	0xbdf71cc6	-0.12066035
145	0xbdeb57b8	-0.114913404
146	0xbe2d6d0d	-0.16936131
147	0xbdc78949	-0.09742982
148	0x3dc1f3b9	0.094703145
149	0xbeeb0afb	-0.45906815
150	0x3e52fd17	0.20604359
151	0x3e012b1b	0.126141
152	0xbec590a9	-0.3858693
153	0xbd8bfa75	-0.0683488
154	0xbd1cf47b	-0.038319092
155	0x3e139e3e	0.14415833
156	0xbd9964e4	-0.074899465
157	0x3cd25ad3	0.025678074
158	0xbed3d44d	-0.4137291
159	0x3ee1986a	0.44061595
160	0x3db0a581	0.08625317
161	0x3e82cc14	0.25546324
162	0x3ec85c8c	0.39133108
163	0x3d05f39d	0.03270303
164	0xbe77d61a	-0.24202767
165	0x3e72aeb3	0.23699455
166	0x3d847359	0.06467313
167	0xbe8f21d0	-0.27955484
168	0x3e1f86ce	0.15578768
169	0x3df72fe7	0.120696835
170	0x3da77b5d	0.081778266
171	0x3feafb67	1.8357972
172	0x3e3fcec8	0.18731225
173	0xbe93d6bd	-0.2887477
174	0x3d5ce108	0.053925544
175	0xbdf46fd7	-0.11935394
176	0x3ddd7295	0.108128704
177	0x3d8f687e	0.07002352
178	0xbd788c04	-0.060680404
179	0xbe462f2f	-0.19353937
180	0x3f5563c3	0.8335535
181	0xbe5d2bdd	-0.21598764
182	0x3d516faf	0.0511319
183	0xbc2cdc68	-0.010550596
184	0x3ccc4fed	0.024940455
185	0xbe1ebe25	-0.15502222
186	0x3d933142	0.071871296
187	0x3e58a014	0.21154815
188	0xbe985386	-0.29751223
189	0x3e7b20cb	0.24524228
190	0xbe07088b	-0.13186853
191	0x3e3d4be7	0.18485986
192	0xbef93332	-0.4867187
193	0xbe919972	-0.28437382
194	0xbd08577a	-0.03328655
195	0xbf3718fa	-0.71522486
196	0xbd4bbd14	-0.049740866
197	0xbdbe9f95	-0.093077816
198	0xbe1d7934	-0.15378267
199	0xbdd381d9	-0.10327501
200	0x3dea57d5	0.11442534
201	0xbedc6a87	-0.43050024
202	0xbd99640b	-0.07489785
203	0xbc9394ec	-0.018015347
204	0x3de710a7	0.11282473
205	0xbd32cbc7	-0.04365137
206	0xbce08aa5	-0.02740986
207	0x3d06a337	0.032870498
208	0xbdeac4f7	-0.11463349
209	0xbe6583e1	-0.22413589
210	0xbe466b51	-0.19376875
211	0xbd4d7eff	-0.05016994
212	0x3d339e1a	0.04385195
213	0xbf8c8ea1	-1.0981027
214	0x3c171d14	0.009223241
215	0x3e46ff1d	0.19433255
216	0xbd36224f	-0.044466313
217	0x3e0ac380	0.1355114
218	0xbe9ec4f0	-0.31009626
219	0xbe063122	-0.1310468
220	0x3d502b75	0.050822694
221	0x3ccfa35f	0.025346456
222	0xbec9dc45	-0.39425865
223	0x3e613c38	0.21995628
224	0xbd7622cb	-0.060091775
225	0x3c048b0f	0.008089795
226	0xbdc82e0f	-0.0977441
227	0xbd5ae26e	-0.053438596
228	0xbe83afb7	-0.25719997
229	0x3e05d74e	0.13070413
230	0xbe2eaab9	-0.17057313
231	0xbc7f0020	-0.015563995
232	0xbe5ea2d7	-0.21741806
233	0xbe2e61e8	-0.17029536
234	0x3e510719	0.20412864
235	0xbca91620	-0.020640433
236	0x3e22e7ab	0.15908687
237	0xbdc92bdc	-0.09822819
238	0x3dce9daa	0.10088666
239	0xbe1978f7	-0.1498755
240	0x3bbfa400	0.0058484077
241	0xbe5868dc	-0.2113375
242	0xbe46a0f0	-0.1939733
243	0xbdf01a36	-0.11723749
244	0xbcc50338	-0.024049386
245	0xbe215d89	-0.15758337
246	0x3dcd3aa2	0.10020949
247	0xbe48629f	-0.19568871
248	0x3e2aad09	0.1666757
249	0xbd5ae368	-0.053439528
250	0x3e195123	0.14972357
251	0x3de5b8b6	0.112168714
252	0x3e4b1d3e	0.19835374
253	0xbcef1799	-0.029186057
254	0x3db513e3	0.08841684
255	0x3e5d2454	0.2159589

net.0.bias f4 [256]
0	0x3d8dcddf	0.069240324
1	0x3d9609d9	0.07326097
2	0xbdde947e	-0.108681664
3	0x3de79bba	0.11308999
4	0xbe250e4d	-0.16118737
5	0x3e4faac6	0.20279989
6	0xbd33494b	-0.04377107
7	0x3df4b6a4	0.119488984
8	0xbe97e9f1	-0.2967067
9	0xbdb8fe2e	-0.09032856
10	0x3d408e83	0.04701091
11	0xbe1452a0	-0.14484644
12	0x3e26c3dc	0.16285652
13	0xbde45b80	-0.11150265
14	0xbd7e0ab3	-0.062021922
15	0x3e836306	0.25661486
16	0x3d06ada8	0.032880455
17	0xbd09f1e0	-0.033677936
18	0xbe2d4c0c	-0.16923541
19	0xbd0e3584	-0.034719005
20	0xbe0fafb9	-0.14031877
21	0xbdc2db6e	-0.09514509
22	0xbe405c63	-0.18785243
23	0xbc25494b	-0.010088275
24	0xbd59cbf4	-0.05317302
25	0xbe0c61fd	-0.13709255
26	0x3e653202	0.22382358
27	0xbe1c311b	-0.15253107
28	0x3e1dcad0	0.15409398
29	0xbe4d1a52	-0.20029572
30	0xbe303208	-0.17206585
31	0xbd4c0bd0	-0.049815953
32	0x3d991577	0.07474797
33	0x3c84b4ba	0.016199458
34	0x3d81beea	0.06335242
35	0x3cf23711	0.029567273
36	0xbd8fb97c	-0.070178
37	0x3d60415f	0.054749843
38	0xbe4b412d	-0.19849081
39	0xbcddca41	-0.027073981
40	0xbdcf7685	-0.10130028
41	0x3c8b6d56	0.017019909
42	0xbc887930	-0.01665935
43	0x3db7770b	0.089582525
44	0xbe15a960	-0.14615393
45	0xbe5eebca	-0.21769634
46	0x3e63220a	0.22180954
47	0x3df3e44f	0.11908781
48	0xbd6ba53f	-0.057530638
49	0xbe937d30	-0.28806448
50	0xbe09222d	-0.13391943
51	0x3dbe95d9	0.09305925
52	0x3ce1d1f8	0.027565941
53	0xbdf32e49	-0.118740626
54	0x3e42454e	0.1897175
55	0xbcf1ba70	-0.029507846
56	0xbe5204e1	-0.20509674
57	0xbcb28419	-0.021791505
58	0xbdf95345	-0.121740855
59	0xbb95492d	-0.0045558424
60	0x3d99b2e9	0.075048275
61	0xbe40fa09	-0.18845381
62	0xbe44dab7	-0.19224058
63	0x3da3a201	0.07989884
64	0x3df5de83	0.12005331
65	0xbd9f60b3	-0.07782116
66	0xbe4fb355	-0.20283253
67	0xbe2f64e5	-0.17128332
68	0xbdbe3662	-0.092877164
69	0x3e46255b	0.19350187
70	0xbe61e39f	-0.22059487
71	0x3d95313d	0.07284782
72	0x3c23430c	0.009964716
73	0x3d9ed02b	0.07754549
74	0x3d5cb346	0.053881906
75	0x3d20d95b	0.039269786
76	0x3d0da4e7	0.03458109
77	0xbe3e608a	-0.18591514
78	0x3e42e873	0.19033985
79	0x3d7b6778	0.061377972
80	0xbe16a793	-0.14712362
81	0xbe10cfa9	-0.14141716
82	0xbcb3ba31	-0.021939369
83	0xbd6af562	-0.05736292
84	0xbe7a4e76	-0.24443993
85	0xbe1ed15e	-0.15509555
86	0xbda59772	-0.080855265
87	0x3d98e474	0.07465449
88	0x3d0b53cb	0.034015458
89	0xbda50835	-0.08058206
90	0xbc842c27	-0.016134335
91	0x3e4fbe6a	0.20287481
92	0xbd56bbf9	-0.05242536
93	0x3e677407	0.22602855
94	0x3ca99ab5	0.020703653
95	0xbe617d33	-0.22020416
96	0x3d909aba	0.07060762
97	0xbe7a18ca	-0.24423519
98	0xbe8d519d	-0.27601328
99	0x3e05b60f	0.13057731
100	0x3deb7e0b	0.1149865
101	0x3db86dce	0.090053186
102	0xbde148a9	-0.11000187
103	0xbe001b93	-0.12510519
104	0x3e10ab2e	0.141278
105	0x3e2b7ef5	0.16747649
106	0x3e097a35	0.13425525
107	0x3e7ed320	0.24885225
108	0x3e211fc7	0.15734778
109	0x3e0d4c5f	0.13798665
110	0xbda83af8	-0.082143724
111	0xbe0b0f66	-0.13580093
112	0x3e478dd6	0.194877
113	0x3e09f7e7	0.13473473
114	0xbdc5151d	-0.09623168
115	0x3ded422e	0.115848884
116	0xbdbadee5	-0.09124545
117	0x3e0f7a5d	0.14011522
118	0xbe819499	-0.25308684
119	0x3d737d94	0.059445933
120	0x3d9dd124	0.07705906
121	0x3d0c10c9	0.034195695
122	0x3e1f8bd3	0.15580682
123	0xbddd4ddf	-0.10805868
124	0x3e2de721	0.169827
125	0xbe6f7f4e	-0.23388407
126	0x3da23e87	0.079220824
127	0xbe62758f	-0.22115158
128	0xbd1055d9	-0.03523812
129	0x3d07719a	0.033067323
130	0x3dd43945	0.10362486
131	0x3e3a3efa	0.18188086
132	0xbcf3aef9	-0.02974652
133	0xbdb565e9	-0.088573284
134	0x3dafe027	0.085876755
135	0xbd4ec986	-0.050485156
136	0x3bb61406	0.005556586
137	0xbde3e536	-0.11127703
138	0x3e32a4ad	0.17445631
139	0x3e41bb33	0.18919067
140	0x3e6edbbc	0.2332601
141	0x3e2abaaf	0.16672777
142	0xbd880861	-0.06642223
143	0x3dfcf11d	0.12350676
144	0x3baa9c16	0.005206595
145	0xbcc53692	-0.024073873
146	0xbe43cf38	-0.19122016
147	0x3d32a084	0.04361011
148	0x3e0507b5	0.12991221
149	0xbdb8b008	-0.0901795
150	0xbdfd55da	-0.123698905
151	0x3e3d3b23	0.1847959
152	0xbe0ffd50	-0.14061475
153	0x3e2eb041	0.17059423
154	0xbe4fa1c0	-0.20276546
155	0xbe5f7141	-0.21820547
156	0x3c95ff18	0.018310115
157	0xbd09d6a9	-0.03365198
158	0xbdc0b4dc	-0.09409496
159	0xbe795d14	-0.24351913
160	0x3d22df0d	0.0397635
161	0xbc812538	-0.015764818
162	0x3dac7a1d	0.08421729
163	0x3dd0d6e8	0.1019724
164	0xbdf4adaf	-0.1194719
165	0xbe87d83e	-0.26532167
166	0x3def2d14	0.1167852
167	0x3dc9d82f	0.09855687
168	0x3e63d543	0.22249322
169	0x3db5e0d5	0.08880774
170	0x3de1cad9	0.11025018
171	0xbe1af47d	-0.15132327
172	0xbe69c89b	-0.22830431
173	0xbe42a3f2	-0.19007853
174	0x3d4c7257	0.04991373
175	0x3d900bff	0.07033538
176	0x3e2f3c4d	0.17112847
177	0x3d9b3c59	0.0757987
178	0x3deaf97f	0.11473369
179	0xbda427a1	-0.08015371
180	0x3dd0e818	0.10200518
181	0x3dc9f95f	0.09862017
182	0x3e128a6f	0.1431062
183	0xbdfc9463	-0.1233299
184	0xbd885059	-0.0665595
185	0x3c40fcfa	0.011779064
186	0xbccd9498	-0.02509527
187	0xbe2f58fb	-0.17123787
188	0x3e596921	0.2123151
189	0x3d1ed244	0.038774744
190	0xbd8e8f31	-0.06960905
191	0xbc28d43a	-0.010304505
192	0xbd29811e	-0.0413829
193	0x3dc0c870	0.094132304
194	0x3ded2009	0.11578376
195	0x3d1d4a55	0.038400967
196	0x3dc7683a	0.097366765
197	0xbe25c9ed	-0.1619031
198	0xbe378d7f	-0.1792507
199	0xbd9f9970	-0.07792938
200	0xbe44f02e	-0.19232246
201	0xbe762932	-0.24039152
202	0x3da51128	0.08059913
203	0xbe319ec1	-0.17345716
204	0xbcd8351e	-0.026392516
205	0xbe3b9793	-0.1831954
206	0xbe2ac011	-0.1667483
207	0xbceb9650	-0.028758198
208	0x3e1c530a	0.15266052
209	0xbc9b962f	-0.018992512
210	0x3d3ae9af	0.045633014
211	0xbe8d0495	-0.27542558
212	0x3e3cf1fc	0.18451685
213	0x3c4b758e	0.012418164
214	0x3c2da7ed	0.010599119
215	0x3e1df07f	0.15423773
216	0xbe2a4bf0	-0.1663053
217	0x3da16546	0.078806445
218	0xbe002a2e	-0.1251609
219	0xbe527295	-0.20551522
220	0x3e366343	0.17811303
221	0xbe251cb8	-0.16124237
222	0x3d6680a5	0.05627503
223	0x3e0d2bdd	0.13786264
224	0xbd33cb66	-0.043895148
225	0xbe21eb88	-0.15812504
226	0x3d2774fa	0.040883042
227	0xbd4f1c6b	-0.05056421
228	0xbe2ba9b7	-0.1676396
229	0x3e10dcf1	0.14146782
230	0xbe77e04a	-0.24206653
231	0xbc0d6ed0	-0.008632377
232	0xbd988c4f	-0.07448637
233	0x3d1fd4d9	0.039021347
234	0xbdba9fc0	-0.09112501
235	0xbdb97759	-0.09055967
236	0x3e44870b	0.1919214
237	0xbda8411e	-0.08215545
238	0xbcfc5c09	-0.030805605
239	0x3e5c6520	0.21522951
240	0xbd4614ab	-0.048359554
241	0xbe2a9ed8	-0.16662157
242	0x3e049d1c	0.12950557
243	0x3df58034	0.119873434
244	0xbd4f8017	-0.050659265
245	0x3e36a61d	0.17836805
246	0x3d7715b1	0.06032342
247	0x3dfba70d	0.12287722
248	0xbe27d30e	-0.16389105
249	0xbd585326	-0.05281367
250	0x3dcb326b	0.09921726
251	0xbe836f2b	-0.25670752
252	0xbd8e0553	-0.06934609
253	0xbdd89e41	-0.105770595
254	0x3d242729	0.04007641
255	0xbc7e2ea5	-0.015514051

net.2.weight f4 [256, 256]
0	0x3c90ea21	0.017689766
1	0xbc96ba63	-0.018399423
2	0x3cbd7877	0.023128731
3	0xbcea5b2a	-0.028607924
4	0xbcd1edea	-0.025626142
5	0x3a6eeb09	0.00091140025
6	0x3ca77619	0.020442056
7	0xbc68c5e8	-0.014207341
8	0x3c958f38	0.018256769
9	0xbd596d55	-0.053082783
10	0xbd1e861a	-0.038702108
11	0xbd36d0ba	-0.04463265
12	0x3d13f239	0.036119673
13	0x3d0688bc	0.032845244
14	0xbd4a7e52	-0.049436875
15	0xbd5682e7	-0.052370932
16	0xbc8a8dc4	-0.016913302
17	0xbd1b67e4	-0.037940875
18	0xbd762d90	-0.060102046
19	0xbda33436	-0.07968943
20	0x3c129a20	0.008947879
21	0x3d3fee82	0.04685832
22	0xbcd94527	-0.026522232
23	0x3b6efb57	0.0036465728
24	0xbd93a13b	-0.07208487
25	0x3be3aa22	0.0069477716
26	0xbc8afd8e	-0.016966607
27	0xbd0abce6	-0.033871554
28	0xbc833400	-0.016016006
29	0xbd77a2a5	-0.060457844
30	0xbc86fea9	-0.016478853
31	0xbb74d0c9	-0.003735589
32	0x3cedcfe7	0.0290298
33	0xbd39ba67	-0.045343783
34	0xbd7a48ea	-0.061104693
35	0x3c842df8	0.0161352
36	0xbd8dab8f	-0.06917488
37	0x3c13b5b5	0.00901549
38	0x3d2b31c0	0.041795492
39	0xbd2de04e	-0.04245024
40	0x3ce6b98c	0.028164648
41	0x394859d1	0.00019106946
42	0xbd9e8daa	-0.07741864
43	0x3cefe255	0.029282728
44	0x3cb18a6a	0.021672446
45	0xbc08da6e	-0.008352859
46	0xbd0a6d31	-0.03379554
47	0xbc142586	-0.009042149
48	0x3cd12bc0	0.025533557
49	0x39c30866	0.00037199556
50	0xbd885468	-0.06656724
51	0xbb819d93	-0.003955552
52	0x3c97c7b2	0.01852784
53	0x3cf23f0f	0.029571084
54	0xbd2d6490	-0.042332232
55	0xbcd999da	-0.02656262
56	0x3d1f9684	0.038961902
57	0x3cb6f714	0.022334613
58	0x3d080b82	0.0332141
59	0x3d02b21d	0.031908143
60	0xbcda7ce7	-0.026670886
61	0xbd16e99b	-0.036843877
62	0xbd287542	-0.04112745
63	0xbd68e72c	-0.056861088
64	0x3d0ca662	0.034338363
65	0x3cfc27f3	0.030780768
66	0xbd4fd11f	-0.050736543
67	0xbceb0831	-0.02869043
68	0xbd861ce9	-0.06548483
69	0xbd271be4	-0.040798083
70	0xb9aec3a8	-0.00033333641
71	0x3caa7267	0.020806504
72	0xbaa60fff	-0.0012669562
73	0xbd3ea47e	-0.04654359
74	0xbd37fc05	-0.04491808
75	0x3c80a701	0.015704634
76	0x3cc8fd90	0.02453497
77	0x3c5b551b	0.01338699
78	0x3cac78e7	0.021053744
79	0xba17df04	-0.0005793425
80	0xbc3f91e5	-0.011692499
81	0x3d2dc574	0.042424634
82	0xbce6c3d2	-0.028169546
83	0xbd3d8431	-0.046268646
84	0xbae9657d	-0.0017806735
85	0x3d5a773b	0.053336363
86	0xbda4d629	-0.0804866
87	0x3cc6cdf6	0.024268132
88	0x3d04cf53	0.032424282
89	0xbd677fc1	-0.05651832
90	0x3ce9c0a6	0.028534245
91	0xbc8b7869	-0.01702519
92	0xbbb1b289	-0.0054228944
93	0x3beffe6b	0.00732403
94	0xbd4b48e3	-0.049630057
95	0x3c300b92	0.010744946
96	0xbc6105f8	-0.013734333
97	0xbd496d4b	-0.049176496
98	0x3c60be07	0.013717181
99	0x3a49840b	0.00076872174
100	0xbb6c7f8c	-0.0036086766
101	0xbcd798c8	-0.026317969
102	0x3b80bafb	0.00392854
103	0x3d4e4ce4	0.050366297
104	0xbd3e6414	-0.04648216
105	0x3d46a3d7	0.048496094
106	0xbd2f7332	-0.04283447
107	0x3cc14a4d	0.023595
108	0x3d1aa63e	0.037756197
109	0x3cd7dec9	0.02635135
110	0xbd7517d0	-0.059837162
111	0xbd715743	-0.05892111
112	0x3d0496b2	0.032370277
113	0x3d17b130	0.037034214
114	0xbcadcd1c	-0.021215968
115	0xbcacdfbd	-0.02110278
116	0xbc93164f	-0.017954974
117	0xbcbb9d02	-0.022902016
118	0xbd0b96b6	-0.034079276
119	0xbd2815ff	-0.041036602
120	0x3cf0e596	0.02940635
121	0xbd7e22d2	-0.062044926
122	0xbd3b7af7	-0.045771565
123	0xbc60b791	-0.013715641
124	0xbc8dacb7	-0.01729427
125	0x3d12e205	0.03586008
126	0xbd52e0b4	-0.051483825
127	0x3d3e92b5	0.04652663
128	0x3cae2050	0.021255642
129	0xbca7dec8	-0.020491973
130	0xbd191d42	-0.037381418
131	0xbd03cf55	-0.03218015
132	0xbc4e8410	-0.012604728
133	0xbd25dba4	-0.04049267
134	0x3c3b79a2	0.011442574
135	0x3ce3b0d8	0.027794287
136	0xbd7ca532	-0.06168098
137	0x3d3d858a	0.04626993
138	0xbd059901	-0.03261662
139	0xbd27022f	-0.040773567
140	0xbd60cb70	-0.054881513
141	0xbd276aad	-0.04087322
142	0x3b63aa15	0.0034738828
143	0xbd28348f	-0.04106575
144	0xbbd1b79c	-0.006400062
145	0xbc9eb533	-0.019373512
146	0x3c81ebe1	0.015859546
147	0x3d43ba51	0.047785107
148	0x3c8eebe0	0.017446458
149	0x3cb152ad	0.021645868
150	0xbc388613	-0.011262435
151	0x3c639be5	0.013892149
152	0x3d510685	0.051031608
153	0x3ced1173	0.028938984
154	0xbd34cf1f	-0.04414284
155	0xbd81c747	-0.06336837
156	0xbd5112a7	-0.05104318
157	0xbd74565b	-0.059652667
158	0xbca46a3c	-0.020070188
159	0x3d0c3828	0.034233242
160	0xbd8ba50a	-0.06818588
161	0x3d58ce52	0.052931137
162	0x39dc4024	0.00042009458
163	0xbd70b9da	-0.05877099
164	0x3d1f971d	0.038962472
165	0x3c879738	0.016551599
166	0x3ce20c13	0.027593648
167	0xbd6f731d	-0.05845939
168	0xbd63aed8	-0.055586666
169	0xbc8a31c2	-0.01686943
170	0x3c59f606	0.013303285
171	0x3d69652b	0.056981247
172	0x3c80b7b7	0.015712602
173	0x3c814039	0.015777694
174	0xbd18f0f5	-0.03733917
175	0xbd8da248	-0.06915718
176	0x3b819040	0.0039539635
177	0xbc3302b0	-0.010925934
178	0x3c64d733	0.013967323
179	0x3cf7f48e	0.03026798
180	0x3ae40805	0.001739741
181	0xbd64c8e7	-0.055855658
182	0x3c228bd3	0.009921032
183	0x3bba70ac	0.005689701
184	0xbd8011e7	-0.062534146
185	0xbcdc24e4	-0.02687306
186	0x3d7308e0	0.059334636
187	0x3d067cb6	0.032833777
188	0xbc880df4	-0.016608216
189	0xbbd14cf5	-0.006387348
190	0xbdab86f4	-0.0837535
191	0x3b8f6de7	0.004377115
192	0x3c4b1874	0.012395967
193	0xbd05bafc	-0.032649025
194	0x3c6ba763	0.01438317
195	0x3bc1769a	0.005904031
196	0xbd513970	-0.051080167
197	0xbd808277	-0.06274884
198	0xbd40e853	-0.04709656
199	0x3be57396	0.0070023043
200	0x3cf589d6	0.029972952
201	0xbd33742a	-0.043811955
202	0x3d6abb02	0.05730725
203	0xbd0bf07f	-0.0341649
204	0x3ca71cc3	0.020399457
205	0x3d369a9f	0.044581052
206	0xbce73131	-0.028221698
207	0xbc10f347	-0.008847064
208	0x3d28fd1d	0.041257013
209	0x3c84b408	0.016199127
210	0xbaaddd5e	-0.0013264825
211	0xbd9c400f	-0.07629406
212	0xbc89e987	-0.016834987
213	0xbd68a38a	-0.056796588
214	0xbd8997e0	-0.06718421
215	0xbd387155	-0.045029957
216	0x3d1aaf2c	0.037764713
217	0xbc3f4170	-0.011673316
218	0xbd05c9dd	-0.032663215
219	0xbd92841c	-0.07154104
220	0xbd9bf430	-0.076149344
221	0x3cfacc26	0.030614924
222	0x3c946800	0.018115997
223	0x3d24ed84	0.040265575
224	0x3c66e0c4	0.014091674
225	0xbd5b9074	-0.053604558
226	0x3d091748	0.03346947
227	0x3d04d0fc	0.032425866
228	0xbd0e7327	-0.034777787
229	0x3d10ce18	0.035352796
230	0xbd777f0b	-0.060423892
231	0xbcdb49a4	-0.026768513
232	0x3cf325ae	0.029681053
233	0xbd069441	-0.03285623
234	0xbd86b411	-0.06577314
235	0xbd289fb1	-0.04116792
236	0xbce2dbbb	-0.027692666
237	0x3b84e780	0.0040559173
238	0xbd14032c	-0.036135837
239	0xbd11be4e	-0.03558188
240	0xba80a45d	-0.0009814609
241	0xbcd617b4	-0.02613435
242	0x3ca4fc13	0.02013973
243	0xbb8b2331	-0.0042461385
244	0xbd2495a2	-0.040181763
245	0xbc4f9528	-0.012669839
246	0x3d0cafc1	0.0343473
247	0x3d126adb	0.035746437
248	0x3c98c928	0.018650606
249	0xbc9c6b71	-0.0190942
250	0x3c75c363	0.015000197
251	0x3ad3ad49	0.0016149665
252	0xbc639e16	-0.013892671
253	0x3d0dc180	0.034608364
254	0xbc9c1229	-0.019051628
255	0xbd47d096	-0.048782907

net.2.bias f4 [256]
0	0x3b38adcf	0.002817977
1	0xbcbafeb5	-0.022826532
2	0xbd6a1c2e	-0.05715578
3	0xbd023789	-0.031791244
4	0xbded75ea	-0.11594756
5	0x3d5e90ea	0.05433742
6	0x3d499b8a	0.0492206
7	0xbb009afa	-0.0019623623
8	0xbcf046bf	-0.02933061
9	0x3b760ba5	0.0037543562
10	0x3c8c2bd9	0.017110752
11	0xbd6c6e4b	-0.05772237
12	0xbd9ea968	-0.077471554
13	0xbd11e1eb	-0.035615843
14	0x3cb03b14	0.021512546
15	0xbd0811b0	-0.033219993
16	0x394b4f58	0.00019389146
17	0xbc4aa1b7	-0.012367657
18	0xbd97a8fc	-0.07405278
19	0x3d03c7c2	0.032172926
20	0xbd38a920	-0.045083165
21	0x3b7bb1fc	0.0038405648
22	0xbd22abe2	-0.0397147
23	0xbdba2af3	-0.09090223
24	0xbc07239c	-0.008248236
25	0x3c5c2352	0.013436155
26	0xbd436b11	-0.04770953
27	0xbcbd3f00	-0.02310133
28	0xbd0b231e	-0.033969037
29	0x3b839128	0.0040151067
30	0xbd0e0792	-0.03467519
31	0xbdcfdbe1	-0.101493604
32	0xbbf5c1e0	-0.0074999183
33	0x3b691232	0.0035563824
34	0xbd848459	-0.06470556
35	0xbd6e1bfe	-0.058132164
36	0x3bed19f1	0.0072357585
37	0x3b5de199	0.003385639
38	0xbd9e1ee9	-0.077207394
39	0xbc4bfdf4	-0.012450684
40	0xbae71ae6	-0.0017631918
41	0xbd2a3004	-0.041549698
42	0xbd2c861b	-0.04212008
43	0x3e03f22b	0.12885348
44	0xbd8f0c57	-0.069847755
45	0xbd1a0515	-0.037602503
46	0xbcab5509	-0.020914571
47	0xbd1c2565	-0.0381216
48	0xbd65e339	-0.0561249
49	0xbd1b91e0	-0.037980914
50	0xbd4f92ba	-0.05067704
51	0xbd8cd8e7	-0.06877308
52	0xbced16a7	-0.028941466
53	0x3d6615ef	0.05617326
54	0x3d903d94	0.07042995
55	0x3d0163d6	0.03158935
56	0x3c3555fa	0.011067862
57	0xbc4876d9	-0.012235367
58	0xbc91a18d	-0.017777229
59	0xbcc8bb22	-0.024503294
60	0x3c0d212c	0.008613866
61	0xbcf9e6f4	-0.030505635
62	0x3cd4dd9b	0.025984576
63	0xbbcee896	-0.0063143475
64	0xbd98272c	-0.074293464
65	0xbd4feff7	-0.050765958
66	0xbb2717bd	-0.0025496327
67	0xbd9d93bb	-0.07694193
68	0x3abe87f8	0.0014536371
69	0xbcc6827d	-0.024232144
70	0xbd013c93	-0.03155191
71	0x3cc2e49f	0.023790656
72	0xbbcd7e1e	-0.006271138
73	0xbc8e603f	-0.017379878
74	0x3c6038db	0.01368543
75	0xbd17a8b8	-0.037026137
76	0xbce54755	-0.027988115
77	0xbdecdb6f	-0.11565291
78	0xbdbe09f8	-0.09279245
79	0x3d2f8d81	0.042859558
80	0xbd67c407	-0.05658343
81	0x3ceae18d	0.028672004
82	0xbd7cd1c9	-0.061723504
83	0xbd2b5750	-0.041831315
84	0x3df07377	0.11740773
85	0x3d9a4efa	0.07534595
86	0xbd8d0d87	-0.06887346
87	0xbb3b1776	-0.002854792
88	0x3d9a86fb	0.07545277
89	0xbd34539b	-0.044025045
90	0xbd9919d1	-0.07475627
91	0xbd12257b	-0.035680275
92	0xbd574eea	-0.052565493
93	0x3c76c91a	0.015062595
94	0xbd6bd40f	-0.05757528
95	0xbdcb663b	-0.09931608
96	0xbd6d153d	-0.057881583
97	0x3d467c92	0.048458643
98	0xbce77569	-0.028254228
99	0xbd81da37	-0.06340449
100	0x3dc07e3e	0.09399079
101	0x3bad27ea	0.005284299
102	0xbd517398	-0.05113563
103	0x3da2b71b	0.07945081
104	0xbc2d9b94	-0.010596175
105	0xbccc21e9	-0.024918513
106	0xbdf70d47	-0.12063079
107	0x3d04c17e	0.03241109
108	0xbc4de217	-0.012566111
109	0x3c8b9870	0.017040461
110	0xbc882f2e	-0.01662406
111	0xbd2f9332	-0.042864986
112	0x3d7dbc7d	0.061947335
113	0x3d924d34	0.071436316
114	0xbd7b0cfc	-0.06129168
115	0xbd8d9611	-0.069133885
116	0xbd8ad0d5	-0.06778113
117	0xbd86e31f	-0.06586289
118	0xbc8a7e00	-0.016905785
119	0xbd723aa5	-0.05913796
120	0xbca9f7e3	-0.020748084
121	0x3cdc05a2	0.026858155
122	0x3c973c1e	0.018461283
123	0x3d123411	0.035694186
124	0xbdacad32	-0.08431472
125	0xbd52ea38	-0.0514929
126	0xbd0dfff3	-0.03466792
127	0xbdf3f908	-0.11912733
128	0x3d3920e0	0.045197368
129	0xbd892232	-0.06695975
130	0xbc133162	-0.008983942
131	0xbd31de4f	-0.0434249
132	0xbb101567	-0.0021985413
133	0x3d7e78ac	0.0621268
134	0x3db90823	0.09034755
135	0x3aa52406	0.0012599237
136	0xbc9e0eb9	-0.01929413
137	0xbb823914	-0.0039740894
138	0x3c7807be	0.015138565
139	0xbd9dc764	-0.07704046
140	0x3d04ecc3	0.032452356
141	0x3cde64bd	0.027147645
142	0x3d239c6f	0.03994411
143	0xbc31aabb	-0.010843928
144	0xbd9a3ffe	-0.07531737
145	0xbbd800f5	-0.006591911
146	0xbd9cb856	-0.07652347
147	0xbd16d607	-0.036825206
148	0xbccaf650	-0.024775654
149	0xbc25562f	-0.010091349
150	0x3d864b5e	0.06557344
151	0xbbade8e4	-0.0053073037
152	0xbccf010c	-0.025269054
153	0x3dd350f6	0.103181764
154	0xbdbb400a	-0.09143074
155	0xbdabcb4b	-0.083883844
156	0x3d892731	0.06696928
157	0xbd35b3c2	-0.044360884
158	0xbd929839	-0.071579404
159	0x39e6ccc5	0.00044021584
160	0x3d3ffd84	0.04687263
161	0xbd12892b	-0.035775345
162	0x3d4d5e19	0.050138567
163	0x3cf66219	0.030076073
164	0xbd759274	-0.05995412
165	0x3d14514a	0.036210336
166	0xbdfde582	-0.12397291
167	0xbd212568	-0.039342314
168	0xbda706c8	-0.0815559
169	0xbb572baa	-0.0032832422
170	0xbdbe500d	-0.09292612
171	0xbcdc88de	-0.026920732
172	0xbc488cd7	-0.01224061
173	0x3cd1a09c	0.02558928
174	0xbd5f655d	-0.054540027
175	0xbd555c37	-0.052089896
176	0xbc3a86c8	-0.011384673
177	0xbda5ef00	-0.08102226
178	0x3d517ca3	0.051144253
179	0x3d28e8cd	0.04123764
180	0xbcbc36c8	-0.02297534
181	0xbc645925	-0.013937269
182	0x3dd9b637	0.10630458
183	0x3d2a1b32	0.04152984
184	0x3bb06205	0.0053827786
185	0xbd5e1fc9	-0.05422953
186	0x3befcec3	0.007318349
187	0x3ce3347e	0.027734991
188	0xbd1f0e26	-0.038831852
189	0xbdb19a43	-0.08672001
190	0x3d11cc83	0.03559543
191	0xbb0ed8b4	-0.0021796646
192	0x3c4ada51	0.012381152
193	0xbd4458fb	-0.04793642
194	0xbdd295b3	-0.10282459
195	0x3c9e5926	0.019329619
196	0xbdb60578	-0.08887762
197	0xbd6881cb	-0.056764405
198	0xbd66fa55	-0.05639108
199	0xbd1b0280	-0.03784418
200	0x3d30d7da	0.043174602
201	0x397212b4	0.00023085886
202	0xbca128fc	-0.019672863
203	0x3b12e512	0.0022414369
204	0x3ce2bdd1	0.027678402
205	0x3c91074e	0.017703678
206	0xbd84fa66	-0.06493072
207	0x3c0dd285	0.008656149
208	0x3d7b2cbb	0.061321955
209	0x3d5a489f	0.053291913
210	0xbb101826	-0.002198705
211	0xbd416e5b	-0.047224384
212	0xbcee4ad0	-0.029088408
213	0xbd22e052	-0.03976471
214	0xbc8ca588	-0.017168775
215	0xba5467bf	-0.00081026176
216	0x3ba885a5	0.005142885
217	0xbc40ebe7	-0.0117749935
218	0x3bcf9305	0.0063346648
219	0xbb254a0b	-0.0025221135
220	0xbd9ebbe3	-0.0775068
221	0xbc267f13	-0.010162133
222	0x3dbf498f	0.09340202
223	0xbc0b67df	-0.0085086515
224	0xbbc70e68	-0.0060747154
225	0xbd3e0ff9	-0.04640195
226	0xbd97f5eb	-0.07419952
227	0xbd6a0098	-0.057129472
228	0x3d5deda2	0.054181702
229	0x3c4d89c8	0.012545057
230	0xbc16a220	-0.009193927
231	0x3d5b13ec	0.053485796
232	0xbd005386	-0.031329654
233	0x3acdf17c	0.0015712227
234	0x3cbc77c0	0.02300632
235	0x3d7a7025	0.061142106
236	0xbbb23659	-0.0054386077
237	0x3d1138b0	0.035454452
238	0x3d000508	0.0312548
239	0xbd8806c0	-0.066419125
240	0x3c0d13cf	0.00861068
241	0xbd2eb864	-0.042656317
242	0x3cd6df0a	0.0262294
243	0x3ceea427	0.029131008
244	0x3c7461ca	0.014915893
245	0xbd73df71	-0.059539262
246	0xbd252210	-0.040315688
247	0x3bc8bebf	0.0061262543
248	0xbc6a2e7b	-0.014293308
249	0xbdd845ce	-0.10560189
250	0x3d2041e9	0.039125357
251	0xbd429d62	-0.047513373
252	0xbb634d69	-0.0034683591
253	0x3cb04af3	0.021520114
254	0x3ca2552e	0.019816007
255	0x3bea5c1d	0.007152094

net.4.weight f4 [3, 256]
0	0x3d4789c3	0.048715364
1	0xb9fe2434	-0.0004847363
2	0x3e0c7699	0.13717116
3	0x3c805e37	0.015669925
4	0xbc853d7f	-0.016264675
5	0xbda0097d	-0.0781431
6	0xbbdad647	-0.006678376
7	0x3bf2df3e	0.0074118664
8	0xbe179620	-0.14803362
9	0xbc5bff60	-0.013427585
10	0x3d2fcc72	0.042919584
11	0x3bc54580	0.006020248
12	0xbd32489b	-0.043526273
13	0xbeb7f51d	-0.35929194
14	0x3c753417	0.0149660325
15	0x3aafd7fc	0.0013415809
16	0xbb4170c9	-0.0029516688
17	0x3b80a1c0	0.003925532
18	0x3ca12002	0.019668583
19	0x3af83804	0.0018937592
20	0x3cbf15f7	0.023325903
21	0x3e41ef3e	0.1893892
22	0xbd03ef51	-0.03221065
23	0x3c696867	0.014246083
24	0x3c07a6ca	0.008279512
25	0xbd451e15	-0.04812439
26	0x3cacd6e7	0.021098567
27	0xbd050daa	-0.032483734
28	0xbc46b659	-0.012128436
29	0xbd3629d8	-0.0444735
30	0xb9d8da04	-0.00041361165
31	0x3fcf32a1	1.6187326
32	0xbf8613d9	-1.0474807
33	0xbc3278dc	-0.010893073
34	0x3d0d33d7	0.034473266
35	0x3d08508b	0.033279937
36	0xbd70a29d	-0.05874883
37	0xbbdba6ec	-0.0067032482
38	0xbcf8bd2f	-0.030363647
39	0x3c47b5ef	0.012189372
40	0x3cc8a56d	0.024492944
41	0x3d8a5dbb	0.06756159
42	0x3f153ffb	0.5830075
43	0xbe338dc9	-0.17534555
44	0x3c016f49	0.007900068
45	0x3d0477c5	0.032340784
46	0xbe813d4b	-0.25242075
47	0xbcaf25ac	-0.021380268
48	0xbd96350c	-0.07334337
49	0x3cda5176	0.026650172
50	0xbd577382	-0.05260039
51	0xbca8132b	-0.020516952
52	0xbe9da556	-0.30790204
53	0x3c2e39ba	0.01063388
54	0xbce41aad	-0.027844751
55	0x3c00e15c	0.00786623
56	0x3c1a02f6	0.00940012
57	0xbc6568ba	-0.01400202
58	0x3d391013	0.045181345
59	0xbd49af94	-0.04923971
60	0x3e43f97d	0.19138141
61	0xbf161a45	-0.58633834
62	0xbd2d699e	-0.042337053
63	0x3cf23eaf	0.029570905
64	0xbbd998a0	-0.006640509
65	0x3c36a361	0.011147351
66	0xbe8b4450	-0.27200556
67	0xbcbf4fe3	-0.023353523
68	0xbea6d62a	-0.3258527
69	0x3d2188b0	0.039436996
70	0x3d01b6ab	0.031668346
71	0x3c0f533f	0.008747875
72	0x3d6c6fc1	0.057723764
73	0x3d08d768	0.033408552
74	0x3b1b4b06	0.002369584
75	0xbcc26462	-0.023729507
76	0xbd2c820b	-0.042116206
77	0x3d60d896	0.054894052
78	0x3d84b5d7	0.06479996
79	0x3e120c60	0.14262533
80	0x3c7ab603	0.015302184
81	0xbe9a194c	-0.30097425
82	0x3cee2227	0.02906902
83	0xbbd92276	-0.0066264225
84	0xbdf45624	-0.119304925
85	0x3ef5a42a	0.4797681
86	0x3d6b7bdc	0.05749117
87	0xbd12bb71	-0.03582329
88	0x3cb307b4	0.02185426
89	0x3e17c0f9	0.14819707
90	0x3d8990df	0.06717085
91	0x3d7d8f9a	0.061904527
92	0x3cd55c3a	0.026044954
93	0xbf6ca704	-0.92442346
94	0x3f11e7a8	0.56994104
95	0x3b7a5dc7	0.0038202868
96	0xbea2da62	-0.31807238
97	0xbb6d4b95	-0.003620838
98	0xbeccf5bc	-0.4003123
99	0x3d8b2ae1	0.06795288
100	0x3d8b2445	0.06794027
101	0x3dd1929b	0.10233041
102	0xbd06cabd	-0.03290819
103	0xbe28f473	-0.164995
104	0x3c9c0591	0.019045623
105	0x3d312d82	0.04325629
106	0xbc45380c	-0.012037288
107	0xbce5567f	-0.027995346
108	0xbdccf65d	-0.100079276
109	0xbc0d8b5c	-0.008639183
110	0x3dd21622	0.10258128
111	0x3d4c0452	0.049808808
112	0xbe806b12	-0.25081688
113	0xbdff4307	-0.12463956
114	0x3cab2c6f	0.020895211
115	0xbf0239e9	-0.50869614
116	0xbd3b72ed	-0.0457639
117	0x3c0324ba	0.008004362
118	0xbd1372e6	-0.035998248
119	0x3e73cf7a	0.23809615
120	0x3af04678	0.0018331548
121	0xbc5a81c8	-0.013336606
122	0x3c30e42d	0.010796589
123	0xbc9e488c	-0.019321702
124	0x3cbce9b3	0.023060655
125	0x3e4b2e3b	0.19841854
126	0x3d0c4a94	0.03425081
127	0xbee1e0a4	-0.441167
128	0xc098a54a	-4.770177
129	0xbcb229dc	-0.021748476
130	0x3e11f7ac	0.14254636
131	0xbf01cf0e	-0.50706565
132	0xbc7ca3a6	-0.015419876
133	0xbdb9ca94	-0.09071842
134	0xbc457ccc	-0.01205368
135	0xbebdf0b2	-0.37097698
136	0x3cb43c3c	0.022001378
137	0x3b0a836f	0.002113547
138	0xbd2f2ffa	-0.042770363
139	0x3c406021	0.011741669
140	0x3d507064	0.050888434
141	0x3ceaf67b	0.028681984
142	0x3b557705	0.0032572162
143	0xbcb44a85	-0.02200819
144	0x3c4390aa	0.011936346
145	0xbc81e650	-0.015856892
146	0xbbee93f0	-0.007280819
147	0x3e7d2f28	0.2472502
148	0x3d0db2fe	0.03459453
149	0x3dbbbbc9	0.091666766
150	0x3d44a468	0.048008353
151	0x3cb58f07	0.022162927
152	0xbd43ccbd	-0.047802676
153	0xbc0ba170	-0.008522376
154	0x3c5b5825	0.0133877145
155	0xbc4e869e	-0.012605337
156	0x3ee29662	0.44255358
157	0xbd7a1e4f	-0.06106406
158	0x3ce74842	0.028232697
159	0x3d1f07f5	0.038825948
160	0xbcaddf27	-0.021224571
161	0x3d10035e	0.03515946
162	0xbebde23c	-0.37086666
163	0x3bca52c8	0.006174419
164	0xbee7d5ba	-0.45280248
165	0xb9c77c4a	-0.0003804884
166	0xbd2d11cd	-0.042253304
167	0xbb52ce4c	-0.003216642
168	0x3c77bcb1	0.015120671
169	0xbea2f92a	-0.31830722
170	0x3ce4307c	0.02785515
171	0xbd1795fd	-0.037008274
172	0x3bf23aab	0.0073922477
173	0x3dae0d24	0.084986
174	0x3c8a7700	0.016902447
175	0xbc09997f	-0.008398413
176	0x3c3a1274	0.011356939
177	0x3cc364b5	0.023851732
178	0xbd88714d	-0.066622354
179	0x392c54dd	0.00016434812
180	0x3ed9bbcf	0.425261
181	0x3c00de75	0.007865538
182	0x3bc115ea	0.005892505
183	0x3c32ef55	0.010921319
184	0x3a974340	0.0011540428
185	0xbcc78259	-0.024354147
186	0x3c6e1ddb	0.014533485
187	0x3b1e655b	0.00241693
188	0x3c62f485	0.013852243
189	0xbedd478d	-0.4321865
190	0x3cea3f37	0.028594596
191	0x3b94cb6d	0.004540852
192	0x3c841dba	0.016127456
193	0x3e230b94	0.15922385
194	0xbe991055	-0.29895273
195	0xbe21bc49	-0.15794481
196	0xbe2a6502	-0.16640094
197	0x3ba9666f	0.0051696817
198	0xbcbd876c	-0.023135863
199	0xbc2e9d4c	-0.01065762
200	0x3e123eea	0.14281812
201	0x3d7b24ad	0.061314274
202	0xbcbe8e36	-0.02326117
203	0x3cc05b0b	0.023480913
204	0x3cb2c896	0.021824162
205	0xbb5d0091	-0.0033722261
206	0x3e38b406	0.18037423
207	0x3c07d1ea	0.0082897935
208	0xbc0c96c8	-0.008580871
209	0x3cdd165b	0.026988199
210	0x3cea0b5e	0.028569873
211	0xbd0896e2	-0.033347018
212	0xbb52fc4c	-0.0032193838
213	0x3a2df7dd	0.0006636361
214	0xbd3837fe	-0.044975273
215	0x3c1ea0f4	0.009681929
216	0x3d0928a6	0.03348603
217	0x3d139dd7	0.0360392
218	0x3b8ec0d0	0.004356481
219	0x3d16fc6e	0.03686183
220	0x3e42922b	0.19001071
221	0x3deb4204	0.11487201
222	0x3d9067f8	0.070510805
223	0xbd31161f	-0.043233987
224	0x3cbfd318	0.023416087
225	0x3d865461	0.06559063
226	0xbddc2b43	-0.10750439
227	0xbd30d261	-0.043169383
228	0xbf9f4590	-1.2443104
229	0x3c4a39f6	0.0123429205
230	0xbb2e193b	-0.0026565332
231	0xc01c9fb6	-2.447248
232	0x3bb534a4	0.005529957
233	0x3dbfc111	0.09362996
234	0xbe03043b	-0.12794583
235	0x3c808cfc	0.015692227
236	0x3d35405e	0.04425084
237	0x3ca704c2	0.02038801
238	0xc008b21b	-2.1358707
239	0xbbb7cd93	-0.005609223
240	0xbc85c356	-0.016328495
241	0xbd857e28	-0.06518203
242	0xbb294a00	-0.002583146
243	0x3e5301e0	0.20606184
244	0xbd38e9dc	-0.0451449
245	0x3e251c51	0.16124083
246	0xbd09d8c8	-0.033654004
247	0xbc7dfac0	-0.015501678
248	0x3d099b14	0.03359516
249	0x3c896148	0.01677002
250	0x3b83cd9e	0.004022314
251	0x3cfa0ea0	0.030524552
252	0xbd332e8b	-0.04374556
253	0x3c6b601c	0.014366176
254	0xbe3d8fe7	-0.18511926
255	0xbe5d7619	-0.21627082

net.4.bias f4 [3]
0	0xbd234603	-0.03986169
1	0x3f0696c8	0.52573824
2	0xbd3d23ab	-0.046176594
