src/checkpoints1/sac_critic_0.pth (torch, 584002 bytes, 10 tensors)

q1.0.weight f4 [256, 24]
-0.1812762 -0.056609027 -0.09508187 -0.037888926 0.04441427 -0.08433783 -0.08027494 -0.026759403
0.019646643 0.15394802 0.1384056 0.0313123 -0.08495828 0.15854174 -0.117440365 -0.08149312
0.048072726 0.20215063 0.2214486 -0.17732269 -0.07578655 -0.19897656 -0.065265335 0.15242136
-0.11988403 0.17694886 0.20731455 0.14276087 0.0057740686 0.032715183 -0.051900506 0.1711334
-0.17311932 0.11825226 0.11974296 0.10980428 -0.0013561635 0.11100276 0.13152865 -0.17891139
0.1370554 -0.093637034 0.1763881 -0.11260042 0.031382482 0.19331193 -0.06578598 -0.08303214
-0.08059363 -0.027581334 -0.030088216 -0.17874357 -0.102532856 0.039389074 -0.12906575 -0.10808157
-0.027021378 0.021754608 -0.19362323 0.20079291 -0.12651289 0.08183789 0.117414 0.16999304
0.0697307 0.16028073 -0.10126642 -0.19601497 -0.14852402 -0.20012772 0.16300982 0.12418029
-0.20384476 0.13528137 -0.035567496 -0.19171436 -0.01467755 -0.05880127 -0.15562338 -0.1552301
0.119812995 0.114520706 0.11505349 -0.13345823 -0.04083232 -0.07532104 0.04323301 -0.17438003
-0.11780588 0.040207475 -0.012309865 -0.09050782 0.16531102 0.020762006 0.0039352444 0.13902435
-0.025290541 -0.17025463 -0.0547559 0.15668397 -0.110220045 0.067517556 0.07323226 0.16146253
0.010991285 0.16331293 0.036243834 -0.028736714 0.15930402 -0.10404518 0.07125515 0.11232356
0.08109375 -0.1385956 -0.042925123 0.03579616 0.13009666 0.062580355 0.16812597 0.042535353
-0.034248646 0.18991746 0.16718905 0.18493944 0.03777589 -0.09283595 -0.15326093 -0.16197538
-0.17712373 -0.13797759 0.023503466 0.084024474 -0.056752104 0.016415888 0.102640726 0.021545744
-0.06885247 -0.04380575 0.21744907 -0.20687397 -0.10842308 0.03508962 0.08000929 0.13179782
0.05328155 0.052299432 0.012953073 -0.019844484 -0.14443211 0.06709069 0.14339548 -0.104030766
0.18614402 0.06875889 0.015069229 -0.16295815 0.041733455 -0.03853077 0.0038568198 -0.019596657
0.14500223 -0.12797277 -0.10780096 -0.16266376 -0.12952416 -0.00400881 0.20036496 -0.06870011
0.15577723 -0.13960847 0.14013523 0.0240874 -0.119384795 0.0228263 -0.21732408 0.035131846
-0.042739056 0.044033397 0.09087808 0.11433238 -0.20150867 0.073411465 0.15533556 -0.15227456
-0.19134785 0.17268285 0.030907724 0.12981984 0.16872504 -0.13641874 0.035366092 -0.12454877
0.0939537 -0.1130032 0.14664523 -0.18351503 0.0067061214 -0.04598696 -0.117933 0.035638582
-0.096287064 -0.107977286 0.17632116 0.13211624 -0.13037896 -0.037264522 -0.09465168 -0.17588358
-0.13190141 0.1697032 -0.14488605 -0.14905049 -0.058307298 -0.016959643 0.10884515 -0.0016844264
-0.12737484 0.19476572 -0.10019672 -0.1714641 -0.15114106 0.13154358 0.19075602 0.09141673
0.13980678 -0.020477906 -0.05528877 0.20743006 0.04505125 -0.18088897 0.051492643 -0.07704768
-0.15573676 0.08058068 0.20498516 -0.17237982 0.08429116 0.0016024945 -0.09984396 0.13160571
-0.063579515 0.15349613 0.21544802 0.14740638 -0.08837381 -0.07574248 0.16718146 0.028803928
-0.1478575 -0.021336334 -0.075569294 0.06176677 -0.122179724 0.14853758 -0.055888094 -0.032507494
00000000: 78a0 39be dede 67bd 49ba c2bd 6b31 1bbd
00000010: bdeb 353d 50b9 acbd 3067 a4bd 8936 dbbc
00000020: fff1 a03c 8da4 1d3e 33ba 0d3e 5441 003d
00000030: 9bfe adbd c458 223e 9384 f0bd dde5 a6bd
00000040: e8e7 443d 9300 4f3e 6cc3 623e 1494 35be
00000050: fb35 9bbd 83c0 4bbe d5a9 85bd 5814 1c3e
00000060: c285 f5bd 1532 353e 444a 543e e82f 123e
00000070: 6634 bd3b 5b00 063d a095 54bd 983d 2f3e
00000080: 3146 31be 3e2e f23d cc3b f53d 11e1 e03d
00000090: 4cc1 b1ba 6a55 e33d 72af 063e 8c34 37be
000000a0: 4058 0c3e c6c4 bfbd 159f 343e 0d9b e6bd
000000b0: eb8a 003d 90f3 453e cdba 86bd c10c aabd
000000c0: 460e a5bd 40f2 e1bc 907b f6bc 8e08 37be
000000d0: bffc d1bd 7056 213d d029 04be df59 ddbd
000000e0: f05b ddbc b836 b23c 2b45 46be a89c 4d3e
000000f0: 988c 01be a09a a73d c076 f03d a812 2e3e
00000100: f8ce 8e3d a220 243e c564 cfbd 26b8 48be
00000110: ae16 18be 48ee 4cbe 0cec 263e 3c52 fe3d
00000120: aebc 50be 3387 0a3e 39af 11bd c550 44be
00000130: 1b7a 70bc 9ad9 70bd bc5b 1fbe a4f4 1ebe
00000140: 8460 f53d d589 ea3d 2aa1 eb3d 46a9 08be
00000150: ca3f 27bd eb41 9abd 1915 313d ae90 32be
00000160: 3644 f1bd 98b0 243d 51af 49bc 2a5c b9bd
00000170: 4b47 293e 1515 aa3c 39f3 803b 665c 0e3e
00000180: 1c2e cfbc 3b57 2ebe b947 60bd c371 203e
00000190: 0cbb e1bd a546 8a3d ccfa 953d 6f56 253e
000001a0: ca14 343c 813b 273e 6a74 143d 4269 ebbc
000001b0: 9820 233e a415 d5bd 38ee 913d e509 e63d
000001c0: 7b14 a63d 01ec 0dbe 41d2 2fbd ff9e 123d
000001d0: 0f38 053e 212a 803d 3729 2c3e 8d39 2e3d
000001e0: 4f48 0cbd b979 423e 9b33 2b3e c460 3d3e
000001f0: e4ba 1a3d c620 bebd 6ff0 1cbe e0dc 25be
00000200: ec5f 35be ff49 0dbe 578a c03c 0615 ac3d
00000210: e574 68bd 9d7a 863c 4d35 d23d b380 b03c
00000220: 8602 8dbd a86d 33bd f8aa 5e3e c5d6 53be
00000230: eb0c debd 22ba 0f3d e9db a33d 02f6 063e
00000240: c13d 5a3d ee37 563d 2039 543c e690 a2bc
00000250: 03e6 13be d866 893d 44d6 123e 150e d5bd
00000260: 8a9c 3e3e 76d1 8c3d ede4 763c 80de 26be
00000270: b3f0 2a3d 71d2 1dbd b3c2 7c3b 2b89 a0bc
00000280: 777b 143e 4b0b 03be c0c6 dcbd 5491 26be
00000290: fba1 04be 565c 83bb 792c 4d3e a5b2 8cbd
000002a0: 1184 1f3e 86f5 0ebe 9c7f 0f3e f052 c53c
000002b0: 0480 f4bd 38fe ba3c 348a 5ebe 69e6 0f3d
000002c0: 260f 2fbd 5d5c 343d 491e ba3d 1827 ea3d
000002d0: 4a58 4ebe c058 963d 4910 1f3e dded 1bbe
000002e0: b1f0 43be c6d3 303e 3232 fd3c 7eef 043e
000002f0: 42c6 2c3e 5bb1 0bbe 09dc 103d 6d13 ffbd
00000300: cc6a c03d 396e e7bd 2b2a 163e 5deb 3bbe
00000310: 06bf db3b d35c 3cbd db86 f1bd c3f9 113d
00000320: 2732 c5bd 3223 ddbd 898d 343e 7b49 073e
00000330: 1082 05be afa2 18bd bdd8 c1bd d31a 34be
00000340: 2a11 07be adc6 2d3e 025d 14be b1a0 18be
00000350: a2d3 6ebd f3ee 8abc 35ea de3d f9c7 dcba
00000360: 8d6e 02be aa70 473e f033 cdbd 4994 2fbe
00000370: b9c4 1abe 5cb3 063e 8c55 433e b238 bb3d
00000380: 8229 0f3e 48c1 a7bc 7a76 62bd 8c68 543e
00000390: a987 383d f53a 39be f3e9 523d 2dcb 9dbd
000003a0: 7579 1fbe 7c07 a53d a1e7 513e 5684 30be
000003b0: d8a0 ac3d cb0a d23a fd7a ccbd a6c3 063e
000003c0: fa35 82bd 172e 1d3e 689e 5c3e b3f1 163e
000003d0: 54fd b4bd e01e 9bbd 9e31 2b3e 37f6 eb3c
000003e0: f567 17be 89c9 aebc 13c4 9abd 27ff 7c3d
000003f0: 5d39 fabd 3c1a 183e eaea 64bd 9426 05bd

q1.0.bias f4 [256]
-0.030307533 -0.0037024529 -0.080686025 -0.060358405 0.17927092 0.19187213 -0.111503914 0.028291175
-0.14105435 0.18234184 0.021981658 -0.11287755 -0.1598785 -0.06145683 -0.16464536 -0.13715473
0.08076364 -0.13494182 0.17464377 0.06001319 0.010732842 0.024176922 -0.025941702 -0.14994305
-0.14722392 0.025795186 0.10782543 -0.07267518 0.08422418 -0.10991638 -0.042730037 0.07944276
-0.07279949 -0.07794388 -0.15393765 0.11818051 -0.041365597 0.051020782 0.16796987 -0.11188509
-0.08304664 -0.062285285 -0.12475637 0.18687373 -0.15732044 0.015191019 0.09042982 0.15756513
0.12607694 0.1055423 -0.11037471 0.09652133 -0.03947875 0.08389525 0.036172733 -0.03742586
-0.026370144 0.18615644 -0.09248714 -0.16147529 0.17063451 -0.033993702 0.058416348 -0.1629337
0.17023249 0.1001304 0.20457555 -0.15069799 0.053779736 -0.10156806 -0.13025495 0.099556625
0.15220316 0.06664463 0.051471204 -0.18374655 0.019948779 -0.17502113 -0.15742408 0.110656686
0.14546214 0.20919481 0.012998149 0.019533817 0.18725625 0.0026826183 -0.01794224 0.11989533
0.13130908 -0.048909828 -0.11339855 -0.040990878 -0.13915549 -0.036085855 0.21258299 0.061439663
0.18119296 0.073553175 -0.07015321 0.17844361 0.2064294 -0.1672964 0.16491053 -0.13214086
-0.17253594 -0.07781976 0.119792216 -0.120636754 -0.12515022 0.1695328 0.07426989 -0.023587026
0.024297364 -0.07843251 -0.18356729 -0.11264732 -0.17502564 0.008737779 -0.07760251 -0.059390396
0.16095886 -0.1947726 0.095689625 -0.098952815 -0.007572044 0.2056473 -0.08773366 0.13481763
0.01085335 0.17991605 -0.0012804226 -0.029689897 0.012848814 0.08149361 0.080365986 0.17127194
0.112662874 -0.14243919 -0.100864395 0.06361289 -0.1513321 0.20761776 -0.07884215 -0.06162767
0.08129729 0.09088817 -0.10222179 0.082049966 0.13568084 0.18124466 0.06193894 0.02886659
0.078695826 0.06500735 -0.11245914 0.08510945 0.07765856 -0.08943652 0.10539718 0.13929465
-0.015511585 -0.14281926 -0.14774476 0.12366009 0.10378646 -0.11280945 0.025617689 0.13993564
-0.14584872 -0.058314085 0.16652665 -0.007207199 0.1427502 -0.1798275 0.09644805 -0.14458409
-0.024150416 -0.0073917806 -0.087201 -0.1721823 -0.055959567 -0.16752984 -0.11822675 0.09826484
-0.053404212 -0.19146968 0.07479091 -0.17998256 0.0466263 -0.032775715 0.17834882 0.10935187
0.045589566 -0.04093226 -0.09919178 0.13233726 -0.17145385 -0.037973106 0.021823693 0.14255553
0.019119449 0.017642934 0.036511153 -0.13773619 -0.09257627 0.004745585 -0.016771227 -0.16244215
-0.029180368 0.13153209 0.18107364 0.07433634 -0.17151861 0.15491432 0.13040559 -0.05544291
0.203476 -0.097233064 -0.027498735 -0.026099391 -0.15933603 -0.17955692 -0.14806294 0.028844662
0.04066708 0.21649872 -0.020324022 -0.17614351 0.06045468 0.05608239 0.12956294 -0.057161804
-0.05419484 -0.18268631 -0.095337205 -0.11512405 -0.078309596 0.18702541 0.0077780336 -0.15185939
-0.15573475 -0.072646976 -0.028295118 0.1794299 -0.08350621 -0.048785664 0.13863029 0.060713887
0.1056084 -0.024081185 0.18398948 0.13855712 -0.15495943 -0.075347155 0.050269037 0.082287975
00000000: 8147 f8bc daa4 72bb b73e a5bd 603a 77bd
00000010: cc92 373e 217a 443e 2a5c e4bd e5c2 e73c
00000020: 8d70 10be d2b7 3a3e e112 b43c 582c e7bd
00000030: 31b7 23be 28ba 7bbd cb98 28be 4a72 0cbe
00000040: 6867 a53d 302e 0abe d1d5 323e 64d0 753d
00000050: cdd8 2f3c ae0e c63c b183 d4bc ac8a 19be
00000060: dec1 16be 6d50 d33c 94d3 dc3d bad6 94bd
00000070: ba7d ac3d d71b e1bd b105 2fbd e3b2 a23d
00000080: e617 95bd 0aa1 9fbd d5a1 1dbe a008 f23d
00000090: f96e 29bd 2bfb 503d 4b00 2c3e 0324 e5bd
000000a0: 5b14 aabd db1e 7fbd 4580 ffbd d45b 3f3e
000000b0: 9c18 21be c0e3 783c 4533 b93d c158 213e
000000c0: 501a 013e 9026 d83d 230c e2bd faac c53d
000000d0: 78b4 21bd 46d1 ab3d dc29 143d dc4b 19bd
000000e0: 3306 d8bc cb9f 3e3e e669 bdbd c759 25be
000000f0: d0ba 2e3e fb3c 0bbd fb45 6f3d 18d8 26be
00000100: 6d51 2e3e 2b11 cd3d 417c 513e 9350 1abe
00000110: 2448 5c3d ea02 d0bd 8e61 05be 58e4 cb3d
00000120: 25db 1b3e fb7c 883d 78d3 523d 0e28 3cbe
00000130: 9f6b a33c bd38 33be c733 21be f99f e23d
00000140: 07f4 143e 2a37 563e 30f6 543c 6205 a03c
00000150: 1ac0 3f3e dece 2f3b 9bfb 92bc af8b f53d
00000160: e375 063e ac55 48bd 803d e8bd 0de6 27bd
00000170: c77e 0ebe c3ce 13bd 5baf 593e 28a8 7b3d
00000180: a68a 393e 0ca3 963d 7cac 8fbd ecb9 363e
00000190: 3b62 533e bf4f 2bbe 4ede 283e ef4f 07be
000001a0: 43ad 30be f75f 9fbd 9f55 f53d 6710 f7bd
000001b0: 6127 00be 029a 2d3e d01a 983d 9439 c1bc
000001c0: 440b c73c 39a1 a0bd 10f9 3bbe a3b3 e6bd
000001d0: ec39 33be e728 0f3c 11ee 9ebd 5843 73bd
000001e0: 66d2 243e 7872 47be ecf8 c33d c6a7 cabd
000001f0: e91e f8bb 3595 523e b5ad b3bd a20d 0a3e
00000200: 40d2 313c ea3b 383e dad3 a7ba 3a38 f3bc
00000210: d583 523c 1fe6 a63d ec96 a43d e961 2f3e
00000220: cbbb e63d 94db 11be fe91 cebd 7a47 823d
00000230: cdf6 1abe c099 543e fe77 a1bd 4c6d 7cbd
00000240: 327f a63d 9423 ba3d a859 d1bd d009 a83d
00000250: ebef 0a3e 3398 393e b0b3 7d3d a079 ec3c
00000260: 472b a13d 9322 853d fa50 e6bd dd4d ae3d
00000270: 730b 9f3d 7f2a b7bd 7ada d73d 42a3 0e3e
00000280: 4e24 7ebc 363f 12be 674a 17be 8041 fd3d
00000290: ff8d d43d a408 e7bd 30dc d13c 4a4b 0f3e
000002a0: 5e59 15be c0da 6ebd f685 2a3e 5e2a ecbb
000002b0: 1c2d 123e b324 38be 8e86 c53d da0d 14be
000002c0: 18d7 c5bc c036 f2bb 7096 b2bd 8f50 30be
000002d0: dc35 65bd f18c 2bbe de20 f2bd 143f c93d
000002e0: 60be 5abd a110 44be fa2b 993d 594d 38be
000002f0: 38fb 3e3d d43f 06bd 13a1 363e e0f3 df3d
00000300: 20bc 3a3d 96a8 27bd 0f25 cbbd 6b83 073e
00000310: 9991 2fbe b089 1bbd 9ac7 b23c 14fa 113e
00000320: 64a0 9c3c ea87 903c b88c 153d b70a 0dbe
00000330: a198 bdbd da80 9b3b d063 89bc 3c57 26be
00000340: ab0b efbc 59b0 063e 5e6b 393e a73d 983d
00000350: 93a2 2fbe dca1 1e3e 0b89 053e 1b18 63bd
00000360: 035c 503e 2122 c7bd 0745 e1bc 64ce d5bc
00000370: fc28 23be c5dd 37be d09d 17be a44b ec3c
00000380: 8692 263d d7b1 5d3e 907e a6bc f75e 34be
00000390: 549f 773d a6b6 653d 26ac 043e 7f22 6abd
000003a0: 69fb 5dbd 1f12 3bbe 2740 c3bd 28c6 ebbd
000003b0: c860 a0bd 9783 3f3e e0de fe3b 0781 1bbe
000003c0: ee78 1fbe f0c7 94bd 2acb e7bc 79bc 373e
000003d0: 4e05 abbd 7ad3 47bd 19f5 0d3e 20af 783d
000003e0: 3849 d83d e845 c5bc bd67 3c3e ebe1 0d3e
000003f0: afad 1ebe 9c4f 9abd e8e6 4d3d 9986 a83d

q1.2.weight f4 [256, 256]
0.029619247 0.051584512 0.05391115 0.023941277 0.059707895 0.01804078 0.07500158 0.04321251
0.055488717 -0.028601365 0.022297828 -0.052473225 0.06324435 0.06664478 0.008367845 -0.034385666
-0.02014658 -0.011193439 0.036317337 -0.060678456 0.07374508 -0.045745604 0.01782864 0.0048038275
-0.017953528 -0.032655336 0.06899094 0.07493371 0.07689486 0.043448787 0.012453297 -0.009623938
-0.05747063 0.03658319 -0.059295952 -0.0694208 -0.04610143 0.021251554 0.009462929 -0.066032745
0.019644558 -0.039962597 0.0027855383 0.058841217 -0.025453065 0.043254383 0.019455936 -0.013658715
-0.04720115 -0.03929202 -0.025631886 -0.007788065 -0.01596355 -0.031778347 0.00414232 0.035706695
-0.0022244395 0.00756097 -0.031423435 -0.04541099 -0.02976337 0.022529285 0.008972744 -0.0029984403
0.03382153 -0.055168863 0.041459367 0.009735713 -0.015489486 -0.01131549 -0.038851384 0.039574016
-0.002835791 0.042133767 -0.005120297 0.010854003 -0.025221922 0.004286031 -0.0011263348 0.06378165
-0.001152955 -0.044448484 0.033561274 -0.016554272 -0.0112832105 -0.059788395 -0.033701077 -0.024106296
-0.056788664 0.059843823 0.063603885 -0.011071528 -0.0033508493 -0.052254546 0.018329686 0.07306807
0.014599529 0.028907465 0.023490787 -0.017013736 -0.0638163 0.029482203 0.039755143 -0.03301811
0.056248903 -0.06744492 0.050260436 0.0149288615 0.039901022 -0.006357937 -0.010849173 0.03219787
0.04867827 -0.06145926 -0.06895622 -0.01781743 -0.032390248 0.0036876523 -0.04357671 0.009334236
0.011495441 0.058670744 -0.010979384 -0.031473838 0.029099004 0.018826667 0.030842042 -0.035628974
-0.034460478 0.0045766914 -0.04529966 -0.009265501 -0.03313217 -0.037096657 0.041107036 -0.035388976
0.05378006 -0.07934458 0.03090209 -0.03091769 -0.06228888 0.01225782 0.034780104 -0.048046544
-0.046189293 0.027333006 0.025981177 0.0030219778 0.037002932 0.016720725 0.052522745 -0.076239
0.039497692 0.03261444 -0.012413274 -0.046582535 0.046819363 0.017001143 -0.027708013 0.057783093
0.07108061 0.0121213915 0.06264328 0.057513267 -0.059863925 0.058685206 0.061353743 0.052491132
0.057934836 0.056228466 0.052611213 0.06700522 -0.00063791126 -0.043148383 -0.0036006519 0.0008103538
0.054787457 -0.023358189 0.031808116 0.034532018 0.052644692 0.016986508 -0.037080586 0.06421658
0.032312274 0.04663314 -0.022654392 -0.04889478 -0.012909569 -0.023227185 0.0015567387 0.017591387
-0.044569727 0.0074224873 -0.028867058 0.012856704 -0.028244054 -0.04155846 0.06890493 0.006500158
0.043510165 0.053697962 -0.024369098 -0.0050884685 -0.0007035959 -0.066417955 0.053556807 -0.05387848
0.044666875 -0.027952295 0.008917532 0.046539966 -0.026716417 0.032511458 -0.013050186 0.018987663
-0.015063636 -0.038608667 -0.029343022 0.037400458 0.00037340308 -0.062858544 0.016936181 0.05969641
0.017674128 0.0034676567 0.06832747 0.010354152 -0.038270287 -0.002286544 -0.02172045 -0.08362878
0.02469483 -0.02055912 -0.044913452 -0.024056528 -0.002561022 0.07435269 0.050777502 -0.0012186096
-0.038620368 0.029686883 -0.038404472 -0.00021602988 0.011188204 -0.06711112 -0.050650325 0.017786594
0.053535074 0.004022695 0.010359201 -0.010037114 -0.0034261409 -0.025955588 0.052305155 -0.019208245
00000000: 10a4 f23c 484a 533d f0d1 5c3d 7f20 c43c
00000010: 4490 743d 42ca 933c 6e9a 993d 9aff 303d
00000020: 2348 633d 694d eabc efa9 b63c 2aee 56bd
00000030: 4186 813d 0f7d 883d 4919 093c fcd7 0cbd
00000040: 710a a5bc b064 37bc 7dc1 143d f989 78bd
00000050: a907 973d be5f 3bbd 5e0d 923c 6d69 9d3b
00000060: 4713 93bc 9ac1 05bd 1f4b 8d3d d876 993d
00000070: 0d7b 9d3d 5bf7 313d ea08 4c3c b9ad 1dbc
00000080: 5366 6bbd 41d8 153d 50e0 72bd 7e2c 8ebd
00000090: dad4 3cbd bd17 ae3c 670a 1b3c 2d3c 87bd
000000a0: a0ed a03c d2af 23bd 948d 363b 7d03 713d
000000b0: f282 d0bc 822b 313d 0e62 9f3c cec8 5fbc
000000c0: fe55 41bd abf0 20bd f6f9 d1bc 0633 ffbb
000000d0: fec5 82bc 032a 02bd 4cbc 873b 2f41 123d
000000e0: e7c7 11bb 03c2 f73b dcb5 00bd e000 3abd
000000f0: 50d2 f3bc 568f b83c 6b02 133c 7b81 44bb
00000100: 7288 0a3d bff8 61bd 4cd1 293d 8a82 1f3c
00000110: 9dc7 7dbc 9b64 39bc a122 1fbd 5d18 223d
00000120: aed8 39bb 7594 2c3d 2ac8 a7bb fdd4 313c
00000130: 349e cebc d571 8c3b 86a1 93ba f49f 823d
00000140: c01e 97ba 9d0f 36bd 8c77 093d d39c 87bc
00000150: 37dd 38bc ade4 74bd 240a 0abd 917a c5bc
00000160: 3b9b 68bd cc1e 753d c142 823d 5b65 35bc
00000170: ec99 5bbb dd08 56bd 2328 963c b6a4 953d
00000180: dd32 6f3c 59cf ec3c c06f c03c 6460 8bbc
00000190: 1fb2 82bd a984 f13c 4ad6 223d ff3d 07bd
000001a0: 4065 663d 9020 8abd e3dd 4d3d 2f98 743c
000001b0: 416f 233d 3e56 d0bb bbc0 31bc eae1 033d
000001c0: de62 473d b4bc 7bbd eb38 8dbd dcf5 91bc
000001d0: a3ab 04bd 8aac 713b 7e7d 32bd a0ee 183c
000001e0: 6057 3c3c bc50 703d e0e2 33bc b6ea 00bd
000001f0: 0961 ee3c 623a 9a3c 73a8 fc3c b0ef 11bd
00000200: 6e26 0dbd 12f8 953b 238c 39bd 54ce 17bc
00000210: 99b5 07bd aaf2 17bd da5f 283d 08f4 10bd
00000220: 7b48 5c3d 697f a2bd 6126 fd3c 1847 fdbc
00000230: a022 7fbd 06d5 483c 9575 0e3d 74cc 44bd
00000240: fc30 3dbd 78e9 df3c 7ad6 d43c 600c 463b
00000250: 6390 173d e7f9 883c 1722 573d 3123 9cbd
00000260: 55c8 213d b896 053d 0b61 4bbc 54cd 3ebd
00000270: a9c5 3f3d fb45 8b3c eafb e2bc f7ad 6c3d
00000280: b692 913d cd98 463c 1f4b 803d 0893 6b3d
00000290: e033 75bd e65f 703d 104e 7b3d f100 573d
000002a0: 144d 6d3d d24f 663d db7e 573d 083a 893d
000002b0: 8039 27ba 5cbc 30bd eaf8 6bbb ec6d 543a
000002c0: d068 603d ac59 bfbc 3a49 023d 7271 0d3d
000002d0: f6a1 573d 4a27 8b3c d0e1 17bd fb83 833d
000002e0: e059 043d 6402 3f3d b495 b9bc e545 48bd
000002f0: a882 53bc f046 bebc 7c0b cc3a d01b 903c
00000300: bf8e 36bd 5638 f33b 9c7a ecbc eda4 523c
00000310: 1360 e7bc 3439 2abd 071e 8d3d 47ff d43b
00000320: b737 323d 65f2 5b3d b4a1 c7bc 2bbd a6bb
00000330: 8671 38ba 2306 88bd 625e 5b3d aeaf 5cbd
00000340: 9df4 363d 36fc e4bc d71a 123c b1a0 3e3d
00000350: 63dc dabc bc2a 053d 73d0 55bc 048c 9b3c
00000360: 78cd 76bc 1f24 1ebd c760 f0bc 3931 193d
00000370: 50c5 c339 fbbb 80bd bfbd 8a3c 3984 743d
00000380: 55c9 903c a041 633b 46ef 8b3d 76a4 293c
00000390: 4ec1 1cbd d8d9 15bb 16ef b1bc 9145 abbd
000003a0: d04c ca3c 9a6b a8bc 2bf7 37bd 3212 c5bc
000003b0: d2d6 27bb 3946 983d 12fc 4f3d c1b9 9fba
000003c0: 6430 1ebd e831 f33c 024e 1dbd 1486 62b9
000003d0: bb4e 373c 8e71 89bd b776 4fbd 31b5 913c
000003e0: 9847 5b3d d0d0 833b a3b9 293c b572 24bc
000003f0: 1b89 60bb d0a0 d4bc ee3d 563d 9c5a 9dbc

q1.2.bias f4 [256]
-0.014973939 -0.032371677 -0.024022542 -0.055569157 -0.05758073 0.008360155 0.01368455 0.057718895
-0.014494671 -0.008120947 -0.021771187 0.036723167 -0.04673439 0.07166448 -0.00730721 -0.026254805
0.004504274 -0.04116476 -0.051698193 -0.014771059 -0.021539878 -0.05153199 -0.020395666 0.031287074
-0.048006285 0.010156411 -0.038127825 0.040832818 0.026958982 -0.020720104 0.005089385 0.046717077
-0.039374568 -0.032381997 -0.05268836 0.008415948 0.015423745 -0.03368946 -0.031833615 0.0264207
0.011195949 4.5255205e-05 -0.05244027 0.04027172 0.02918286 0.059511825 -0.018234843 0.048654474
-0.013203807 -0.0067525688 -0.019401425 0.029457454 -0.049962193 0.043466784 0.0607166 0.067564316
-0.03262931 -0.0012029546 0.02959149 0.005432585 0.0419509 0.052292757 0.0057268715 0.03859298
-0.010501032 0.019000955 0.06832076 -0.030466914 0.04639976 -0.007690807 -0.04972679 -0.039966807
-0.032010313 -0.021710934 0.011112691 0.052039966 -0.0065859584 0.042314753 -0.03373964 0.035198674
0.04958218 0.016648008 -0.046326715 -0.024987837 -0.018040473 -0.003970136 -0.053356975 0.06079812
-0.03940667 -0.0046399827 0.039952964 -0.025460495 0.0028851107 0.07129927 0.0042911107 -0.059627384
0.029590348 0.012357047 0.030672694 -0.02300028 -0.015141092 -0.050164737 0.03276665 -0.006520807
0.054002665 0.06805988 0.003866466 -0.02935755 0.06965742 -0.03634834 0.0060794954 0.05276728
-0.025755856 -0.025550175 0.03600081 -0.006683511 -0.0066982126 0.020786392 0.049139526 0.028175596
0.038411953 -0.013479221 0.022611625 0.014592171 -0.027376905 0.020953972 -0.017150957 0.047961038
-0.053770922 -0.03138727 -0.04269707 -0.011179084 0.0017758831 0.062177896 0.048355483 0.041421045
0.05731529 0.064620756 -0.054668546 0.05560532 0.014638603 -0.01929299 -0.030086927 -0.058145735
-0.051277585 -0.016749017 0.04781602 -0.060124047 0.05709029 0.037156623 -0.053499173 0.058810443
-0.05317402 0.019434918 -0.053545862 -0.04358584 -0.029113213 0.012360671 0.012123592 -0.049519867
0.038333252 0.049838092 0.020212013 -0.027200311 0.01196641 0.0024006474 0.045814358 0.0054842364
-0.029735863 0.0187526 -0.022213684 0.03155851 0.004774741 -0.014328712 0.049041227 0.04311418
0.041254707 -0.0016205687 0.043071985 0.067775026 -0.0045394585 0.03771956 -0.022226833 0.032905176
0.025376465 0.011286845 0.07404363 -0.005028328 -0.048017107 0.042356513 -0.009785101 0.06224986
0.026665915 -0.021223353 0.012080252 0.06857109 -0.0525014 0.02023449 -0.056672167 -0.05141762
0.059995387 -0.048178528 -0.028617583 0.056602657 0.030835174 -0.05632595 0.053114694 -0.0030647912
0.0062764063 -0.034854397 0.058586113 0.0372864 0.046285328 -0.026763333 0.034322456 -0.0030488584
-0.04433658 -0.020549444 -0.017942982 -0.051927637 -0.011279019 0.055348843 -0.05747411 -0.005020293
0.00568688 -0.014979849 0.0544921 -0.048711628 0.029730678 0.0139970295 0.012467046 0.01724971
0.045359157 0.05140129 -0.06367476 0.023681134 -0.009470384 0.06200315 -0.042907424 0.07209113
0.06800775 -0.00046432542 0.043485165 -0.0083405385 0.01993305 -0.056370303 0.062054936 0.0076865843
0.015245534 0.017599165 0.025924772 0.017648209 -0.031058595 0.025872089 0.058691144 0.00413276
00000000: 4155 75bc 2a98 04bd ecca c4bc 7c9c 63bd
00000010: c6d9 6bbd 08f9 083c 2a35 603c a66a 6c3d
00000020: 0e7b 6dbc b80d 05bc 7d59 b2bc 086b 163d
00000030: 8f6c 3fbd d4c4 923d 5271 efbb 5114 d7bc
00000040: 9798 933b 619c 28bd 7cc1 53bd 5002 72bc
00000050: 6674 b0bc 3513 53bd d014 a7bc e026 003d
00000060: 3da2 44bd 1367 263c ec2b 1cbd 5040 273d
00000070: 15d9 dc3c 35bd a9bc dbc4 a63b 685a 3f3d
00000080: 3a47 21bd fca2 04bd c0cf 57bd 0be3 093c
00000090: e0b3 7c3c f6fd 09bd f763 02bd 3970 d83c
000000a0: 376f 373c 68d0 3d38 9ccb 56bd f6f3 243d
000000b0: e510 ef3c acc2 733d 3d61 95bc ea49 473d
000000c0: c854 58bc a744 ddbb bdef 9ebc c250 f13c
000000d0: 28a5 4cbd 3a0a 323d f8b1 783d 295f 8a3d
000000e0: 50a6 05bd 75ac 9dba da69 f23c d303 b23b
000000f0: b5d4 2b3d ee30 563d 7ba8 bb3b ac13 1e3d
00000100: 850c 2cbc e4a7 9b3c c1eb 8b3d c095 f9bc
00000110: ad0d 3e3d 2a03 fcbb 52ae 4bbd 3cb4 23bd
00000120: 3f1d 03bd 21db b1bc 0112 363c dc27 553d
00000130: 06cf d7bb 3c52 2d3d 9432 0abd 7c2c 103d
00000140: af16 4b3d 6761 883c 15c1 3dbd 4bb3 ccbc
00000150: 9dc9 93bc ea17 82bb d88c 5abd 7307 793d
00000160: e368 21bd ff0a 98bb b8a5 233d 8792 d0bc
00000170: 2014 3d3b 5a05 923d 729c 8c3b d83b 74bd
00000180: 7567 f23c 3675 4a3c 4d45 fb3c 156b bcbc
00000190: 5812 78bc 8a79 4dbd 5336 063d 7eac d5bb
000001a0: e631 5d3d fa62 8b3d 8964 7d3b 3f7f f0bc
000001b0: 8da8 8e3d ffe1 14bd 8136 c73b 8122 583d
000001c0: f2fd d2bc 9a4e d1bc 9675 133d 5b01 dbbb
000001d0: ae7c dbbb 3948 aa3c 8746 493d 82d0 e63c
000001e0: da55 1d3d f3d7 5cbc 043c b93c 0014 6f3c
000001f0: 8845 e0bc aaa7 ab3c 2a80 8cbc cb72 443d
00000200: e63e 5cbd f08f 00bd 1fe3 2ebd 7a28 37bc
00000210: c0c4 e83a 40ae 7e3d 6610 463d 1da9 293d
00000220: 70c3 6a3d e357 843d 20ec 5fbd 67c2 633d
00000230: c0d6 6f3c 550c 9ebc dc78 f6bc 392a 6ebd
00000240: 7208 52bd 3c35 89bc bbda 433d a244 76bd
00000250: 82d7 693d 8b31 183d f321 5bbd 38e3 703d
00000260: 00cd 59bd fa35 9f3c e852 5bbd 1187 32bd
00000270: d57e eebc 6984 4a3c 08a2 463c 58d5 4abd
00000280: 5403 1d3d 0723 4c3d aa93 a53c 30d3 debc
00000290: c30e 443c 2e54 1d3b d6a7 3b3d 1cb5 b33b
000002a0: a098 f3bc 0d9f 993c 79f9 b5bc 7f43 013d
000002b0: 6e75 9c3b f9c2 6abc 74df 483d 7f98 303d
000002c0: b2fa 283d 4369 d4ba 406c 303d a2cd 8a3d
000002d0: bdbf 94bb d37f 1a3d 0c15 b6bc 94c7 063d
000002e0: 4ee2 cf3c 76ec 383c 30a4 973d acc4 a4bb
000002f0: 96ad 44bd 067e 2d3d b051 20bc b6f9 7e3d
00000300: 7a72 da3c 99dc adbc 40ec 453c 006f 8c3d
00000310: b50b 57bd cdc2 a53c 1321 68bd 489b 52bd
00000320: b9bd 753d d956 45bd 6c6f eabc 30d8 673d
00000330: 0c9a fc3c 0ab6 66bd cb8e 593d aada 48bb
00000340: 50aa cd3b 7cc3 0ebd fef7 6f3d a0b9 183d
00000350: af95 3d3d c73e dbbc b495 0c3d 5bcf 47bb
00000360: 469a 35bd 4f57 a8bc 29fd 92bc 13b2 54bd
00000370: a2cb 38bc 78b5 623d f969 6bbd 4581 a4bb
00000380: 0259 ba3b 0a6e 75bc 1c33 5f3d d885 47bd
00000390: c08d f33c cc53 653c 9542 4c3c 444f 8d3c
000003a0: 86ca 393d 298a 523d ea67 82bd f0fe c13c
000003b0: ab29 1bbc 04f7 7d3d b2bf 2fbd 84a4 933d
000003c0: a647 8b3d b470 f3b9 801d 323d c1a6 08bc
000003d0: a34a a33c 8ce4 66bd 512d 7e3d bedf fb3b
000003e0: 67c8 793c 202c 903c 3060 d43c fa92 903c
000003f0: 986e febc b4f1 d33c 2066 703d 1b6c 873b

q1.4.weight f4 [1, 256]
-0.078145266 -0.08078414 0.044671565 0.030924886 0.06999441 -0.051324107 0.040812466 -0.02264883
-0.05330546 -0.04805557 -0.074366696 -0.044811606 -0.07142578 -0.025486926 0.027354637 0.07176704
0.049881104 0.017647725 0.04222521 0.04136311 0.07013056 0.06405766 -0.07797517 -0.044943683
0.030133776 0.012520502 0.058630876 0.02397426 -0.0356503 -0.02824108 0.038872544 0.02292137
-0.053821996 -0.07597702 -0.049990304 -0.03075712 0.03942071 0.048457623 0.015238361 0.04902165
0.015837884 0.065999605 0.010029948 -0.012039755 0.007480354 -0.07388673 0.049697958 0.020316442
0.054990597 -0.07420035 0.019536544 -0.06072301 0.061203815 0.062354416 0.01579967 0.059170566
0.034721125 -0.034424633 0.02767466 -0.08375356 -0.048954524 0.06854695 0.061926708 -0.025473148
0.03158832 -0.04315931 0.020256497 -0.01838737 0.024466256 0.084835306 0.050951615 -0.08211332
0.056019157 0.03931672 -0.07293142 -0.046409927 0.03726465 0.04917303 -0.04163658 -0.013673281
0.0346334 0.00054968655 -0.029942002 -0.070597455 0.047648042 0.026324397 -0.02320604 -0.0620258
-0.0028064428 0.037153233 -0.024047256 -0.028078329 0.036633052 0.054003213 -0.03133814 -0.050221533
0.031165125 -0.014619825 -0.07375196 -0.029472755 0.027308956 0.0020825937 0.047269627 0.07264125
-0.030007154 -0.057395782 0.034313843 0.06522876 -0.0202446 -0.052792687 0.034236733 -0.025780935
-0.04520235 -0.05375564 -0.035756465 0.042812917 -0.047724407 -0.017269459 0.049829543 0.03947616
-0.0039274544 0.061850857 -0.04509092 -0.047441512 -0.04128207 0.026975052 0.03894609 0.05505236
0.04635931 -0.04622045 -0.05911315 0.054274675 -0.04189098 0.011455913 -0.025278162 0.037859622
-0.048937257 -0.060924646 -0.02049502 0.058717985 -0.027798843 0.048669748 -0.024456978 0.0045417375
0.03826905 0.032547023 -0.048310913 -0.050002858 0.031695545 0.03447876 0.027227448 -0.067389145
0.019746259 0.012585894 0.029680792 0.04452464 -0.06229953 -0.072565556 0.037441164 0.047718477
0.076942116 0.051457625 -0.06716537 0.038153853 0.02732367 0.036791477 -0.05682555 0.052634217
0.037705578 -0.064516135 0.07017643 -0.023104928 0.066878736 0.024803054 0.061710037 -0.05122364
0.011053652 -0.028370555 -0.0024045093 -0.029400881 0.0524791 -0.05213593 -0.006262973 -0.06660108
-0.06611969 -0.040422533 -0.039474458 -0.036303487 -0.040958643 0.05998008 0.053873304 -0.07467659
0.040266722 0.03622803 0.0566815 0.06726271 0.027239455 0.06218781 0.057381384 0.020202532
0.075472325 0.08180739 0.053796705 -0.02694625 -0.038504206 -0.033733282 -0.080276474 0.02149555
-0.03516344 0.066992156 0.046905875 -0.054605506 -0.03467018 0.049965285 -0.038295276 -0.05583028
0.038760226 0.020067949 0.02925782 -0.0340889 -0.0184791 0.04338985 -0.064719886 -0.04600653
-0.065606095 0.008112072 -0.017597891 0.041853033 0.0059725563 -0.03913281 0.061657798 0.061802365
-0.026702832 0.06609524 0.054669887 0.053569645 0.031058254 0.049900968 -0.008262508 -0.02319369
-0.040634267 0.051487684 0.079204835 0.044247065 -0.030030984 0.05503868 0.046353746 -0.07551327
0.065852515 0.03935082 -0.055137254 0.027057214 0.06955652 -0.009485118 0.013278499 -0.058650766
00000000: a00a a0bd 2872 a5bd 88f9 363d 3056 fd3c
00000010: 3b59 8f3d 3a39 52bd f92a 273d 0a8a b9bc
00000020: d356 5abd ebd5 44bd 914d 98bd 608c 37bd
00000030: ae47 92bd f5c9 d0bc d516 e03c 99fa 923d
00000040: 2150 4c3d f691 903c 58f4 2c3d 5d6c 293d
00000050: 9ca0 8f3d aa30 833d 72b1 9fbd de16 38bd
00000060: 1cdb f63c cb22 4d3c ee26 703d ab65 c43c
00000070: 0d06 12bd d659 e7bc d138 1f3d 99c5 bb3c
00000080: 7474 5cbd d799 9bbd a2c2 4cbd 5bf6 fbbc
00000090: 9c77 213d 807b 463d 52aa 793c edca 483d
000000a0: 73be 813c cd2a 873d a754 243c 6442 45bc
000000b0: c21d f53b ed51 97bd 1690 4b3d ab6e a63c
000000c0: d23d 613d 5af6 97bd 1a0b a03c b1b8 78bd
000000d0: dab0 7a3d 5867 7f3d 4f6e 813c d65c 723d
000000e0: bd37 0e3d d800 0dbd f8b5 e23c fd86 abbd
000000f0: 8a84 48bd 5862 8c3d dca6 7d3d 10ad d0bc
00000100: c162 013d d1c7 30bd f4f0 a53c 1ca1 96bc
00000110: 756d c83c 22be ad3d a4b2 503d 072b a8bd
00000120: 5874 653d 920a 213d 115d 95bd 5618 3ebd
00000130: d1a2 183d a969 493d 1e8b 2abd e605 60bc
00000140: c1db 0d3d d718 103a ee48 f5bc 6695 90bd
00000150: 982a 433d 43a6 d73c 981a bebc c40e 7ebd
00000160: 4cec 37bb fd2d 183d c0fe c4bc 8604 e6bc
00000170: 8a0c 163d 7932 5d3d 6c5c 00bd 18b5 4dbd
00000180: 014e ff3c fe87 6fbc 450b 97bd d970 f1bc
00000190: 08b7 df3c 207c 083b cc9d 413d f0c4 943d
000001a0: 90d1 f5bc d717 6bbd ac8c 0c3d a896 853d
000001b0: 01d8 a5bc 253d 58bd d13b 0c3d 8a32 d3bc
000001c0: 1926 39bd e02e 5cbd 5f75 12bd 995c 2f3d
000001d0: ab7a 43bd ae78 8dbc 101a 4c3d c1b1 213d
000001e0: e0b1 80bb 5357 7d3d 42b1 38bd 0852 42bd
000001f0: 6317 29bd c9fa dc3c ef85 1f3d 957e 613d
00000200: 43e3 3d3d a851 3dbd a120 72bd 1f4f 5e3d
00000210: e095 2bbd 95b1 3b3c 2614 cfbc b112 1b3d
00000220: 6f72 48bd 1f8c 79bd 2ce5 a7bc 4582 703d
00000230: 66ba e3bc ee59 473d 005a c8bc dbd2 943b
00000240: 02c0 1c3d 0750 053d aae1 45bd cccf 4cbd
00000250: 30d3 013d 9a39 0d3d 190c df3c 5203 8abd
00000260: e8c2 a13c 1135 4e3c 2225 f33c 785f 363d
00000270: cb2d 7fbd 409d 94bd e85b 193d 7374 433d
00000280: d493 9d3d 3bc5 523d ff8d 89bd 3747 1c3d
00000290: e4d5 df3c a9b2 163d e8c1 68bd fa96 573d
000002a0: 2a71 1a3d 0921 84bd a9b8 8f3d 8c46 bdbc
000002b0: b8f7 883d c62f cb3c aac3 7c3d e1cf 51bd
000002c0: 601a 353c 5e69 e8bc f994 1dbb 1eda f0bc
000002d0: 53f4 563d 7c8c 55bd a039 cdbb 2666 88bd
000002e0: c369 87bd 1992 25bd f8af 21bd f7b2 14bd
000002f0: 40c4 27bd acad 753d 41aa 5c3d 0af0 98bd
00000300: b8ee 243d d863 143d dc2a 683d 08c1 893d
00000310: 4725 df3c a5b8 7e3d be08 6b3d c87f a53c
00000320: 3c91 9a3d a28a a73d ef59 5c3d 62be dcbc
00000330: 96b6 1dbd e92b 0abd fe67 a4bd 7017 b03c
00000340: 8a07 10bd 2f33 893d 6020 403d 06aa 5fbd
00000350: 5202 0ebd 66a8 4c3d 82db 1cbd 4bae 64bd
00000360: 0bc3 1e3d 8a65 a43c 19ae ef3c cda0 0bbd
00000370: 7b61 97bc 8eb9 313d dc8b 84bd 5871 3cbd
00000380: 7d5c 86bd 7fe8 043c 7429 90bc 166e 2b3d
00000390: 6fb5 c33b ba49 20bd e38c 7c3d 7a24 7d3d
000003a0: e6bf dabc f15c 873d 88ed 5f3d d86b 5b3d
000003b0: e16d fe3c f564 4c3d 785f 07bc b200 bebc
000003c0: 1e70 26bd c0e4 523d 2536 a23d 693c 353d
000003d0: 8a03 f6bc 3d70 613d 6ddd 3d3d b4a6 9abd
000003e0: afdd 863d 532e 213d 9ad7 61bd 17a7 dd3c
000003f0: a673 8e3d 7867 1bbc 108e 593c c93b 70bd

q2.0.weight f4 [256, 24]
-0.008033499 -0.10870932 -0.031607453 -0.15900595 0.050250046 -0.13063203 -0.20726515 -0.18830523
0.06514819 0.07991156 0.18054755 -0.091396324 -0.047377862 0.07256636 0.0030956175 0.14488918
0.019812003 0.078091644 0.05186366 0.21724886 -0.15349357 -0.047297865 -0.052936774 0.004305719
0.015552372 0.12095225 0.20298259 0.012890238 -0.07563987 -0.091015585 -0.117635734 -0.061183576
0.03426259 0.1036711 0.114797436 -0.16395326 -0.081435554 -0.13720839 -0.076183595 0.067627035
0.019087 -0.0409762 0.1650794 -0.058576718 -0.054895584 0.01214448 0.2115615 0.06419138
0.003046787 -0.10512519 0.17773667 -0.09983044 -0.122006826 0.17279252 -0.031835906 -0.06753528
0.101164505 -0.08752895 -0.06744382 -0.07436929 -0.16718942 0.013799528 -0.14841013 -0.20692076
0.09511041 -0.08741415 -0.10599946 0.11372163 -0.048779678 0.21505105 -0.16777872 -0.1444127
0.03399168 0.15659636 -0.11893838 0.12325862 0.12836033 -0.021837488 -0.124663 -0.12355563
-0.026701733 -0.09266122 -0.19488643 0.022036001 -0.19672701 -0.04198934 0.084557235 0.014541283
-0.016434237 0.019668758 -0.046811104 -0.16439846 0.14414063 0.016971156 0.065802395 -0.106384754
-0.15569273 -0.09140746 0.05392464 -0.2075096 0.09646922 0.10997524 0.104326345 -0.022789372
0.0771317 -0.05392394 -0.11997586 0.071762934 -0.10487853 -0.039607394 -0.14685087 0.22198422
0.06313992 0.033761654 0.20171282 -0.010133787 0.11186291 -0.17167938 0.04455176 0.17645155
-0.10348729 0.013683379 -0.03892882 -0.00046803057 0.20012239 -0.18949622 -0.15541862 -0.09097442
-0.16693509 -0.017908767 -0.10208599 0.07731405 0.035278186 -0.16896272 0.12031096 0.09433335
-0.06354505 -0.13499784 0.10790965 -0.13659063 -0.17415181 0.15626356 0.05516565 -0.07641569
-0.07701356 0.10695202 -0.15319219 0.06663274 0.1209556 0.19853657 0.17208946 -0.15792294
0.019982658 -0.03470705 -0.17058057 -0.06943915 -0.13815218 0.08869764 0.01707862 0.1481821
0.20260248 0.002794986 0.1710792 0.18189687 0.054500766 -0.13281113 -0.08077344 0.102426775
-0.20666948 0.13183443 -0.16380088 -0.10154595 -0.16122065 0.1354116 -0.108266756 0.12300295
-0.19658661 0.02195526 0.18740197 0.18633512 0.088287435 0.08451741 -0.06274273 0.19373204
-0.07469201 0.0075393156 0.0986631 0.17757262 0.035057068 0.080777965 -0.094872825 -0.07183186
0.08704437 -0.15938143 0.05931044 0.037250124 0.18843086 0.1512381 -0.030929763 -0.025079738
0.09156433 0.12277468 -0.12857482 0.14133315 0.19170254 0.102472104 -0.15840395 0.19880763
-0.08975548 -0.1273044 0.18669474 0.11829237 0.19677426 -0.027130257 -0.11274146 0.07669839
-0.07283251 -0.11538431 -0.061109982 -0.048767302 0.14505507 -0.21347733 0.08279859 -0.15913029
0.13830695 0.043596122 0.1321816 -0.19958077 0.02362193 -0.036158282 0.06830644 0.16988494
-0.014779019 -0.1643513 -0.0032845729 -0.14774607 -0.15719959 0.04956811 0.043503914 0.03248595
-0.040505566 -0.11367926 0.013794865 -0.0668681 0.10269845 -0.18197176 -0.14164287 -0.20116004
-0.07133862 -0.15465543 0.20095086 0.057461947 0.15622815 -0.08537731 0.14877835 0.2239108
00000000: f09e 03bc fea2 debd d176 01bd 75d2 22be
00000010: fed2 4d3d 67c4 05be 513d 54be 16d3 40be
00000020: 6a6c 853d aca8 a33d 75e1 383e ff2d bbbd
00000030: 4a0f 42bd ac9d 943d d8df 4a3b d45d 143e
00000040: c84c a23c 83ee 9f3d fd6e 543d 7c76 5e3e
00000050: 6b2d 1dbe 68bb 41bd 3bd4 58bd fd16 8d3b
00000060: 60cf 7e3c d0b5 f73d abda 4f3e 9431 533c
00000070: 13e9 9abd 6166 babd 01eb f0bd a19b 7abd
00000080: ee56 0c3d 8451 d43d eb1a eb3d 5de3 27be
00000090: afc7 a6bd 5b80 0cbe 2506 9cbd 0b80 8a3d
000000a0: 575c 9c3c a9d6 27bd 930a 293e 24ee 6fbd
000000b0: 31da 60bd a4f9 463c 94a3 583e c576 833d
000000c0: 9bac 473b e04b d7bd 9a00 363e e773 ccbd
000000d0: b7de f9bd 86f0 303e 5e66 02bd f04f 8abd
000000e0: 562f cf3d 6142 b3bd fc1f 8abd ed4e 98bd
000000f0: b433 2bbe 6a17 623c d3f8 17be 09e3 53be
00000100: 3fc9 c23d 3106 b3bd 3f16 d9bd e3e6 e83d
00000110: 33cd 47bd 5836 5c3e 2fce 2bbe ece0 13be
00000120: dc3a 0b3d cc5a 203e f795 f3bd 046f fc3d
00000130: e470 033e 88e4 b2bc 514f ffbd bc0a fdbd
00000140: 98bd dabc 2ac5 bdbd 4f90 47be d884 b43c
00000150: ce72 49be 04fd 2bbd 582c ad3d 903e 6e3c
00000160: 18a1 86bc 6020 a13c 00bd 3fbd 1258 28be
00000170: 9a99 133e 1807 8b3c 68c3 863d 40e0 d9bd
00000180: ea6d 1fbe d633 bbbd 15e0 5c3d 667d 54be
00000190: a891 c53d b33a e13d 0da9 d53d c7b0 babc
000001a0: 3af7 9d3d 59df 5cbd e7b5 f5bd 72f8 923d
000001b0: 8eca d6bd 5d3b 22bd 1360 16be d54f 633e
000001c0: 814f 813d a949 0a3d ce8d 4e3e 2f08 26bc
000001d0: 6218 e53d b8cc 2fbe e87b 363d b7af 343e
000001e0: 25f1 d3bd 4030 603c d473 1fbd 0062 f5b9
000001f0: e2ec 4c3e 4c0b 42be 0f26 1fbe cc50 babd
00000200: 08f1 2abe 68b5 92bc 7612 d1bd d456 9e3d
00000210: dc7f 103d 9004 2dbe 9865 f63d d831 c13d
00000220: e823 82bd e03c 0abe bcff dc3d 6ade 0bbe
00000230: da54 32be 8e03 203e 60f5 613d d47f 9cbd
00000240: 49b9 9dbd a909 db3d 6ade 1cbe bf76 883d
00000250: 92b7 f73d 2c4d 4b3e 3838 303e 8db6 21be
00000260: acb2 a33c fb28 0ebd acac 2ebe 1d36 8ebd
00000270: c477 0dbe 1ca7 b53d 76e8 8b3c 0cbd 173e
00000280: 0677 4f3e 152c 373b 632f 2f3e 2c43 3a3e
00000290: 323c 5f3d a4ff 07be 8c6c a5bd 21c5 d13d
000002a0: 2aa1 53be 9bff 063e 6bbb 27be 53f7 cfbd
000002b0: 0717 25be 57a9 0a3e f6ba ddbd f8e8 fb3d
000002c0: 004e 49be 84db b33c 4de6 3f3e a2ce 3e3e
000002d0: 0bd0 b43d 7717 ad3d 437f 80bd b161 463e
000002e0: 20f8 98bd 5d0c f73b e10f ca3d 99d5 353e
000002f0: 0098 0f3d eb6e a53d af4c c2bd 951c 93bd
00000300: 5244 b23d e334 23be 81ef 723d 9693 183d
00000310: 05f4 403e 29de 1a3e 6a60 fdbc 0674 cdbc
00000320: 1486 bb3d 4b71 fb3d 1ea9 03be a3b9 103e
00000330: ac4d 443e e5dc d13d a534 22be 3a94 4b3e
00000340: b9d1 b7bd 165c 02be e82c 3f3e 4543 f23d
00000350: 317f 493e 4640 debc ffe4 e6bd 0c14 9d3d
00000360: 3629 95bd 9c4e ecbd 764e 7abd 39c0 47bd
00000370: 5189 143e cd99 5abe 4f92 a93d 0df3 22be
00000380: 56a0 0d3e d991 323d 9d5a 073e e75e 4cbe
00000390: c782 c13c b51a 14bd 3fe4 8b3d 51f6 2d3e
000003a0: b323 72bc b54b 28be fd41 57bb bf4a 17be
000003b0: eef8 20be ee07 4b3d 2931 323d fd0f 053d
000003c0: 2ae9 25bd acd0 e8bd dc03 623c 24f2 88bd
000003d0: 9153 d23d ce56 3abe d40a 11be e6fc 4dbe
000003e0: fb19 92bd fe5d 1ebe 10c6 4d3e 385d 6b3d
000003f0: 46fa 1f3e 4dda aebd 5a59 183e df48 653e

q2.0.bias f4 [256]
0.08418214 0.14759815 0.2077771 0.0083203465 -0.09221142 -0.05070381 0.040205933 0.15910563
0.040519763 -0.026613822 -0.003245633 -0.02563136 0.1781726 0.07589161 0.096855745 -0.06596719
0.016285932 0.054115035 0.048482507 -0.16391996 0.072266184 0.13907307 0.15438029 0.09811381
-0.016806882 0.18979909 0.10808881 0.13005574 -0.17353769 0.13055962 -0.07979828 0.0022032775
-0.057625387 0.18335754 0.016025284 -0.02544505 -0.029708648 0.1298225 -0.022100475 -0.0731552
-0.16036452 0.137583 0.082346834 -0.14917545 0.100286365 -0.11131937 0.055827323 -0.0049979463
-0.0393067 -0.10763257 -0.10463464 -0.14195599 -0.16202568 0.060788084 0.19972603 0.020527082
-0.13516924 0.06842681 -0.15178078 -0.16676375 0.06968328 0.11132702 -0.16065791 -0.10864324
0.10527754 0.010189415 0.02650748 0.16556469 -0.11376772 0.010653722 0.11667994 -0.029643446
-0.20148739 0.0047730254 0.1242317 -0.010446437 0.18558887 -0.10288132 -0.17270832 -0.14544848
-0.018739384 0.18818226 0.14613399 -0.16165614 0.1041693 -0.09044804 0.10688177 0.057941884
0.058728307 0.15404747 -0.07946682 0.08270306 0.00080500386 0.18875083 -0.04990792 -0.1814736
-0.030104214 0.16275887 0.09098465 -0.17861587 0.080331154 -0.09593072 -0.15576068 -0.048127174
0.15864344 0.055387106 0.121215425 0.1497309 0.17095056 0.11069867 0.12895638 -0.040418684
-0.19018705 0.14120428 -0.11244226 0.15762646 0.1415775 0.031561673 0.11729721 0.17317621
-0.11225 0.05627367 -0.022745907 0.104775295 0.18141794 -0.016075103 -0.14200813 -0.00011005123
0.15695138 0.07014608 -0.018402169 -0.14556201 0.11721679 -0.08622563 0.113488406 0.21715842
-0.09635525 -0.14470263 0.06477033 -0.16437156 -0.2030477 0.053087324 0.1278329 -0.05354758
0.009173194 0.16842684 0.0018901896 0.10942611 -0.07247178 -0.12830389 0.15939613 -0.0816978
0.09165631 -0.041051455 0.12760761 -0.14352213 -0.024919348 0.17647082 -0.08431354 0.100768715
-0.17479971 -0.0032072037 0.15124997 -0.13657457 -0.15993652 0.016705569 0.19238622 0.030008595
0.14015812 -0.021213088 0.031231016 -0.07055811 0.081440076 0.083841644 -0.06708265 -0.08996564
-0.06997941 0.055134885 -0.033602744 -0.17954019 0.155225 -0.15439814 -0.13662523 0.1811636
-0.041163504 0.20810674 0.09498407 -0.117524296 0.080980055 -0.105469815 0.024550173 -0.101302676
0.10144834 -0.18823513 -0.0925947 0.20062615 0.061597772 -0.1116536 0.15563324 -0.08272035
0.19623704 0.18977058 0.20498492 0.17966528 0.16149901 0.073392235 0.08521856 0.17947087
-0.012416009 -0.11315938 0.020093642 0.18207867 -0.08921807 -0.08835237 -0.03830107 0.17789152
-0.009502148 -0.0544323 0.21369639 0.10281673 -0.06207156 -0.0816631 -0.038499985 -0.0416198
0.13335651 -0.031574305 -0.087567285 0.2072714 -0.13786758 -0.1810606 0.20580147 0.09523065
-0.05414 0.10934913 0.13150695 -0.005954236 -0.045073163 -0.04668114 0.16777296 0.06622378
0.19206676 0.026743669 0.0052639293 0.17062981 0.16839282 -0.16956298 -0.10247969 -0.13070783
0.17328529 -0.12401174 -0.14933768 -0.12525769 0.15595828 0.18336463 0.14095727 0.07839185
00000000: b067 ac3d f823 173e 85c3 543e 1052 083c
00000010: 57d9 bcbd ccae 4fbd faae 243d 96ec 223e
00000020: 0df8 253d 3b05 dabc b0b4 54bb dcf8 d1bc
00000030: e172 363e 0f6d 9b3d 4e5c c63d ce19 87bd
00000040: 136a 853c baa7 5d3d 9895 463d a2da 27be
00000050: 4b00 943d 2c69 0e3e de15 1e3e e5ef c83d
00000060: 96ae 89bc b15a 423e ab5d dd3d 552d 053e
00000070: ddb3 31be 6cb1 053e 486d a3bd dd64 103b
00000080: 9908 6cbd 14c2 3b3e 7547 833c 2372 d0bc
00000090: 8d5f f3bc 30f0 043e 0e0c b5bc 65d2 95bd
000000a0: 9936 24be 8fe2 0c3e 75a5 a83d 73c1 18be
000000b0: f062 cd3d 69fb e3bd 31ab 643d d0c5 a3bb
000000c0: 1000 21bd 776e dcbd b04a d6bd e95c 11be
000000d0: 0fea 25be edfc 783d fb84 4c3e 6928 a83c
000000e0: ce69 0abe 5b23 8c3d 6c6c 1bbe 1ec4 2abe
000000f0: 1cb6 8e3d 6cff e33d 8283 24be 5980 debd
00000100: c09b d73d 81f1 263c 3726 d93c ca89 293e
00000110: 0dff e8bd f38c 2e3c e4f5 ee3d d0d6 f2bc
00000120: b652 4ebe 0a67 9c3b 316d fe3d 8827 2bbc
00000130: 020b 3e3e 71b3 d2bd 73da 30be 72f0 14be
00000140: 5683 99bc dab2 403e 26a4 153e 3089 25be
00000150: b756 d53d d23c b9bd d4e4 da3d 7854 6d3d
00000160: 188d 703d 9fbe 1d3e 80bf a2bd 3960 a93d
00000170: e506 533a e647 413e 3f6c 4cbd 37d4 39be
00000180: 1d9d f6bc 43aa 263e 2956 ba3d 14e7 36be
00000190: a984 a43d 5377 c4bd ba7f 1fbe 0021 45bd
000001a0: 6d73 223e 97dd 623d cb3f f83d 0f53 193e
000001b0: aa0d 2f3e fcb5 e23d 240d 043e 108e 25bd
000001c0: 65c0 42be db97 103e 2148 e6bd d568 213e
000001d0: b1f9 103e d046 013d 8539 f03d 1b55 313e
000001e0: 54e3 e5bd 387f 663d a055 babc 6e94 d63d
000001f0: a0c5 393e efaf 83bc 946a 11be 4ecb e6b8
00000200: ddb7 203e bfa8 8f3d 25c0 96bc 350e 15be
00000210: 5b0f f03d 1097 b0bd 9c6c e83d c75e 5e3e
00000220: e755 c5bd ed2c 14be 4fa6 843d 0551 28be
00000230: bceb 4fbe 1872 593d a1e6 023e b554 5bbd
00000240: 2a4b 163c 1678 2c3e 3dc0 f73a cc1a e03d
00000250: 166c 94bd 1862 03be bd38 233e 2d51 a7bd
00000260: 4eb6 bb3d 9225 28bd 92ab 023e 77f7 12be
00000270: a923 ccbc c4b4 343e 94ac acbd d45f ce3d
00000280: b2fe 32be f32f 52bb 46e1 1a3e 34da 0bbe
00000290: 66c6 23be 1eda 883c e500 453e 96d4 f53c
000002a0: 9c85 0f3e 12c7 adbc 30d8 ff3c c580 90bd
000002b0: 0eca a63d 2bb5 ab3d a162 89bd e83f b8bd
000002c0: 5d51 8fbd 1ed5 613d 08a3 09bd 62d9 37be
000002d0: 4df3 1e3e 8c1a 1ebe 7ce7 0bbe f382 393e
000002e0: 109b 28bd ef19 553e 0287 c23d 94b0 f0bd
000002f0: dfd8 a53d 8f00 d8bd 721d c93c c777 cfbd
00000300: 26c4 cf3d b6c0 40be 4aa2 bdbd f170 4d3e
00000310: f24d 7c3d a5aa e4bd 525e 1f3e 4969 a9bd
00000320: 5df2 483e 3853 423e 91e7 513e 2dfa 373e
00000330: ff5f 253e ab4e 963d 1287 ae3d 36c7 373e
00000340: 846c 4bbc 1bc0 e7bd 6c9b a43c d572 3a3e
00000350: f7b7 b6bd 16f2 b4bd 95e1 1cbd 3229 363e
00000360: e6ae 1bbc 67f4 5ebd 3ad3 5a3e 9491 d23d
00000370: c03e 7ebd fc3e a7bd 29b2 1dbd 8679 2abd
00000380: 9c8e 083e 0f54 01bd 7a56 b3bd f43e 543e
00000390: 292d 0dbe f367 39be 9fbd 523e 4908 c33d
000003a0: e8c1 5dbd 70f2 df3d c2a9 063e c01b c3bb
000003b0: a39e 38bd b934 3fbd adcc 2b3e 55a0 873d
000003c0: 26ad 443e 8a15 db3c 0a7d ac3b 95b9 2e3e
000003d0: 2b6f 2c3e eba1 2dbe dfe0 d1bd 46d8 05be
000003e0: b371 313e def9 fdbd faeb 18be 8d43 00be
000003f0: 87b3 1f3e f0c3 3b3e 1a57 103e e88b a03d
